crowd_nav/data/output/lstm-mamba/il_model.pth (torch, 95558 bytes, 13 tensors)

lstm.weight_ih_l0 f4 [200, 13]
000000 9f 0e 2c 3e cc ed 0c 3e 2c 5d b5 3d c4 15 e3 3d
       0.16802453 0.13762587 0.08855662 0.11088136
000010 12 3a 11 3d 1f c2 ea bd 60 51 01 be 7f e3 8a bd
       0.03545577 -0.11462807 -0.12628698 -0.06781673
000020 cd 4f e7 bd 9d 64 8e 3c d4 68 8b bc b3 d8 50 bc
       -0.11294518 0.01738196 -0.01701776 -0.012746978
000030 bc d5 ae bd d5 3b c4 3c f1 dd 09 3d 6e 87 56 bd
       -0.0853686 0.023954311 0.033658925 -0.05237525
000040 d9 f2 87 bc 7b 78 a3 3d b6 df 9f 3d a0 be 40 3d
       -0.016595291 0.07981964 0.07806341 0.047056794
000050 bf 87 e3 3d f8 8f 07 be 19 88 a3 bd ed ec bd bd
       0.11109876 -0.13238513 -0.07984943 -0.09273706
000060 6f 65 15 3e 74 b9 40 3d e0 b5 e0 3d 9c ec 39 3d
       0.14589475 0.047051862 0.1097219 0.045391664
000070 f0 29 5d 3d 16 50 ca 3d 4f a8 43 3d ca 01 48 bc
       0.053995073 0.098785564 0.047767933 -0.012207458
000080 8c b2 a5 3d bf d8 d1 3d 24 c3 00 be 31 a1 cf 3d
       0.08090696 0.10246419 -0.1257444 0.10138167
000090 3d 8b 7e bd d7 0d a1 bc b0 2d eb bd 6d 38 17 3e
       -0.062144507 -0.01965992 -0.114833236 0.14767618
0000a0 15 1b 84 bd a0 41 0f be 4a a3 00 3e dd b9 ed bd
       -0.06450478 -0.13989878 0.1256229 -0.11607716
0000b0 4e 82 bb 3c 1e eb 15 3d 4b e2 05 be 6d f8 90 bc
       0.022889283 0.03660118 -0.13074605 -0.017696584
0000c0 93 31 82 3d 90 37 c6 bd db 96 da 3d 04 b0 43 3b
       0.06357112 -0.096785665 0.10673305 0.0029859552
0000d0 0d 22 d0 bc 8d 1b 6f 3d 24 72 11 bd 31 ee 31 3d
       -0.025406862 0.058375884 -0.035509244 0.043440048
0000e0 66 ef ee 3d d8 08 ea bd c9 97 4a bd b8 30 85 3d
       0.116667554 -0.11427468 -0.04946116 0.06503433
0000f0 e9 f3 e4 3d f4 ae e1 bd fe 13 92 3c e3 36 42 bd
       0.11179335 -0.11019698 0.017831799 -0.047415625
000100 05 b0 d5 3c 85 3f b0 3d b3 16 62 bd e2 01 41 bd
       0.02608491 0.086058654 -0.05519743 -0.047120936
000110 b3 5c 5f bd f3 8c 10 bc 75 c9 83 bd 36 f7 90 bc
       -0.054531764 -0.008822667 -0.06434909 -0.017696004
000120 dd 6a be bd 2f 43 cd bd b7 c5 aa bd c2 42 f2 bd
       -0.09297726 -0.1002258 -0.08338492 -0.11829139
000130 0d 0f 07 bb 2d 92 0a be b1 5e 83 3d a1 e4 05 bd
       -0.0020608336 -0.13532324 0.06414545 -0.03268874
000140 cd 1e 3c bd ed ea fb 3c ff 56 0b bd 38 ec 34 3d
       -0.04592781 0.03075167 -0.034018513 0.04417059
000150 3f aa d2 3d 09 29 8a 3c 4b 9a 64 bd 84 22 4d bd
       0.10286378 0.01686527 -0.055811208 -0.050081745
000160 aa de 70 3d 3f 34 16 be 59 c8 cd 3d 2e 2b d0 bd
       0.0588061 -0.14668368 0.10047979 -0.10164486
000170 bc 4f cd 3c f0 c6 e3 3d 0e 2b 0c 3e ae 27 7e 3d
       0.025062434 0.11121929 0.13688299 0.06204956
000180 a3 c2 d2 3d 26 36 e4 3d bb 85 b3 3b d9 1f bf 3c
       0.1029103 0.111431405 0.0054785884 0.023330616
000190 17 52 10 be 2a 94 e1 3d 3e 90 12 be 2c a5 a4 bd
       -0.14093815 0.11014588 -0.14312837 -0.080393165
0001a0 1f c5 64 3d 54 93 8c 3d c9 97 e6 3c 30 35 0e 3d
       0.05585205 0.06864038 0.028148549 0.034718692
0001b0 27 33 d6 3d 1c fe 99 3d f0 ef 98 3c ba fa 89 bd
       0.10458975 0.07519171 0.018669099 -0.067372754
0001c0 45 ba 7c 3c 36 2d d4 bb b8 eb 41 3c 62 74 17 3d
       0.0154252695 -0.006475116 0.011835985 0.036976226
0001d0 2d 1f 72 bc 30 43 6b 3d e0 fb 01 3e 9a dc f8 bd
       -0.014777941 0.057437122 0.12693739 -0.121514514
0001e0 10 a8 fe bc 69 8d a3 bc 6f 20 7b bb 6b df 94 bc
       -0.031085998 -0.01996489 -0.0038318892 -0.01817294
0001f0 ff 76 b6 3d 0f 37 ce 3d 4e fb d1 bd 45 22 d2 bd
       0.089094155 0.10069095 -0.10253011 -0.10260443
000200 12 d8 14 3e b7 16 f1 bd 5e 86 ba bd 21 38 c1 3a
       0.1453555 -0.11771911 -0.0910766 0.0014741459
000210 fa 13 80 bc 6c 4f b7 3d f5 e0 b0 3d 7f b6 2a bb
       -0.015634526 0.089506954 0.08636657 -0.0026048718
000220 58 e5 20 bc 09 e1 ea 3d df 06 cb bd 91 74 9f 3d
       -0.009820305 0.11468703 -0.0991342 0.07785905
000230 92 1b a7 bc b4 12 f2 3d 8a b2 c4 3d db 95 a2 bd
       -0.020398889 0.118199736 0.09604366 -0.07938739
000240 6a a0 01 be 1d 1f a0 bd 0a b8 82 bd b8 0a 80 3d
       -0.1265885 -0.078184344 -0.06382759 0.062520444
000250 2a af cb bc 79 02 4f bd 78 fa 9e 3d 6d 30 78 bd
       -0.024863798 -0.050539467 0.07762617 -0.060593057
000260 57 cd 95 bc 21 02 e7 3d f3 0c 9f bc cf 87 8b 3b
       -0.01828639 0.11279703 -0.019415354 0.004258133
000270 da fd 08 bd 0c 74 4f bd 1b 03 4c bd 58 5f 26 3d
       -0.033445217 -0.05064778 -0.04980765 0.04061827
000280 da dd c7 bd c0 56 90 3d c5 29 ed bd 30 3f 19 3e
       -0.09759112 0.07047796 -0.115802325 0.1496551
000290 e2 03 20 3d 7b 1b 0d be 02 87 47 bd 95 73 27 3d
       0.039066203 -0.13780014 -0.048712738 0.040881712
0002a0 af 3a 59 bd d4 20 ef bd 31 69 8b bb 64 7f fc 3d
       -0.05303448 -0.11676183 -0.004254483 0.12328985
0002b0 3c d6 ca 3d 19 c0 a4 3a 18 fd c9 3d 22 bd ba 3b
       0.09904143 0.0012569457 0.09862727 0.005698816
0002c0 18 51 f5 bd e3 57 a4 bd 20 a0 e5 bd a0 b5 f8 3d
       -0.11978358 -0.080245756 -0.11212182 0.12144017
0002d0 f0 5c 07 bd 34 55 26 bc 75 de 0d 3e 1b 36 98 3d
       -0.033047616 -0.01015215 0.13854392 0.07432195
0002e0 c2 79 e9 bc bb 21 1a bd a8 36 c6 3d 89 d6 5a 3d
       -0.028500441 -0.037629824 0.096783936 0.053427253
0002f0 d4 8f 80 bd b5 5d 41 be 3c fc ab 3d 5d 6f 1b 3e
       -0.06277433 -0.18883403 0.08397719 0.151792
000300 f9 dd 06 be 27 1f 46 bd 13 00 af 3d b1 75 b3 bd
       -0.13170613 -0.048369553 0.08544936 -0.08762682
000310 af 49 4a 3d ec 11 9a bd 6d a1 a8 3d f1 49 c3 3d
       0.049386676 -0.075229496 0.082339145 0.095355876
000320 db 24 0b 3d a5 45 46 bd b4 0a 9d 3d 4a 50 87 3d
       0.033970695 -0.048406262 0.07668057 0.06607111
000330 e3 82 b2 bc 76 89 d2 bb 88 e4 f7 bd b0 c6 c6 bc
       -0.021790927 -0.006425078 -0.12104136 -0.024264663
000340 94 c5 5c 3c 5f 23 9d bd 01 82 05 be 59 8b f3 3d
       0.013474841 -0.07672762 -0.13037874 0.11891813
000350 0d a9 a7 3d cf 2f 06 3e ee d9 97 3b 59 5d 92 bd
       0.08186541 0.13104175 0.0046341335 -0.07146711
000360 c9 cc ea 3d 75 a8 b2 3c a2 c5 03 3e 5c 66 05 be
       0.11464841 0.021808842 0.1286836 -0.13027328
000370 40 f8 f9 bd 0b 02 69 bd 1a b6 0d be ac c4 4e 3c
       -0.12205553 -0.056886714 -0.13838997 0.012620132
000380 78 a9 1b 3d 3a 60 ab 3d d5 f0 91 3d a3 e2 55 3d
       0.038003415 0.08367963 0.07126013 0.05221809
000390 b8 75 34 bd bb 12 f5 bd 97 55 7c 3d 1a ec 88 bd
       -0.044057578 -0.11966463 0.061605062 -0.06685658
0003a0 d9 8e b0 bd 8d f1 b9 bd ec 64 32 bd 89 71 0b 3e
       -0.08620996 -0.09079275 -0.043553278 0.13617529
0003b0 93 cc 6d bd 83 83 0c bd e2 2f 83 3d 8e 44 50 3d
       -0.058056425 -0.034305107 0.06405617 0.05084663
0003c0 67 d9 37 bd eb 3f ef 3d c5 df 6a 3d 15 40 17 be
       -0.044885065 0.11682113 0.05734231 -0.14770539
0003d0 4f 9b 1c bd 64 2b 29 3e d1 7f de 3d 7b ed f2 bd
       -0.03823405 0.16520458 0.10864223 -0.11861702
0003e0 d0 fc 95 bd a2 d1 bf bd e8 50 f2 3b a3 5a 09 bc
       -0.07323611 -0.09366156 0.0073948987 -0.008383426
0003f0 69 d2 a2 bd 05 31 09 be fd c0 3d 3d 21 b1 11 be
       -0.07950289 -0.13397606 0.046326626 -0.14227726

lstm.weight_hh_l0 f4 [200, 50]
000000 18 60 26 bc de 91 84 bd f7 45 0c bc 75 cd 04 3e
       -0.0101547465 -0.064731345 -0.008561603 0.12969
000010 ef a8 9d 3d 31 67 83 bd 9f dc 28 3b 8a f1 77 3c
       0.07698237 -0.064161666 0.0025766266 0.015133271
000020 e9 41 c9 bd e4 2e df 3c 89 58 2e bd 22 47 c4 bc
       -0.098270245 0.027244039 -0.042564902 -0.0239597
000030 21 cb d1 bd f1 a0 06 be 60 79 b9 bd 4d 84 82 bc
       -0.10243822 -0.13147332 -0.090563536 -0.015932227
000040 44 0d 77 b9 d6 93 f7 bd e3 a9 77 bd c0 fa 4c bd
       -0.00023560697 -0.12088744 -0.06046475 -0.05004382
000050 22 d2 88 bc 3a b7 78 3d 3d a1 d9 3d 85 ed fc bd
       -0.016701762 0.060721613 0.10626457 -0.12349991
000060 91 96 7b 3d 72 da 0c 3e 18 9f 09 be 7d 1b 01 3e
       0.06142289 0.13755205 -0.13439596 0.12608142
000070 d7 a3 c4 3d eb 9e 4a 3d 4b be 19 3d 7f 21 13 bd
       0.096015625 0.049467962 0.037534993 -0.035920616
000080 23 c5 16 bd f2 41 fe bd cb c1 43 bd 1e 94 94 3b
       -0.036809098 -0.12414922 -0.047792237 0.0045342585
000090 b9 be b8 bd da d9 32 bc b5 1c bd bd 1c 33 31 bc
       -0.090207525 -0.010916198 -0.09233991 -0.010815408
0000a0 3a 51 f3 bd 99 50 84 3d 3e 9f 4a 3d 08 bd 01 3e
       -0.11880727 0.06460685 0.04946827 0.12669766
0000b0 c3 9b 30 bd 0a 92 02 3e 8b e9 0e bd ca 68 e9 bd
       -0.043117296 0.12751022 -0.034890693 -0.1139694
0000c0 d4 d3 1e bc 4c 01 0d 3e 2c f3 fc bd a9 34 12 3e
       -0.009694058 0.13770026 -0.12351069 0.14277901
0000d0 c3 6b 17 bd 92 32 a4 3d 38 e8 13 3d 0b c5 20 3c
       -0.036968004 0.08017458 0.036110133 0.009812604
0000e0 f0 13 10 3d c9 0d 0e 3d b0 0c 78 bd 29 32 83 3d
       0.035175264 0.034681115 -0.060558975 0.06406052
0000f0 24 2f d8 bb 2e f3 7e bd 02 4b 07 bd 29 99 9f bd
       -0.0065974165 -0.062243633 -0.033030517 -0.07792885
000100 af 62 f7 3d d7 46 8f 3d a1 8d 84 bd f1 eb b6 3d
       0.12079369 0.069959335 -0.06472326 0.08931721
000110 95 ca ed 3c ec ab 1e 3d 5a 4b fc 3d 7c 2b 76 3d
       0.029027263 0.038738176 0.1231906 0.060100064
000120 2c eb 8f bd d0 fc 0c 3e f5 f5 d6 bd 9a 0d 28 3d
       -0.07027277 0.13768315 -0.10496131 0.041028596
000130 32 26 b7 3d 22 cc 88 bd b5 a4 72 bd 72 0b 88 bd
       0.08942832 -0.0667956 -0.059239108 -0.06642808
000140 e8 3b 04 be 9c 9d f6 bd 1a 74 47 bd eb f5 7c bd
       -0.12913477 -0.1204178 -0.048694707 -0.061757963
000150 ca 98 bc bd 37 19 cc 3d 77 c5 a1 bd 9c a5 0b 3e
       -0.0920883 0.09965747 -0.078989916 0.13637394
000160 e6 14 df bd be 32 08 3e 87 8f f8 3d 2d fb cb 3d
       -0.10892658 0.13300607 0.12136751 0.09960017
000170 b1 63 d0 bd 14 a5 1a 3d 39 a2 c0 3d 4d 6e 0a be
       -0.101752646 0.037755087 0.094059415 -0.13518639
000180 95 f6 e6 3d 4d cc ee 3d cc 42 7c 3c b3 e7 7c bd
       0.112775005 0.11660061 0.015396785 -0.061744403
000190 7f c3 c8 bd 33 65 c6 bd 98 2f 73 3d df 0a bc 3a
       -0.09802913 -0.09687271 0.05937156 0.0014346502
0001a0 d5 0f a6 3c 5b 49 63 3d 3e 28 2d bd ea 47 74 3d
       0.020271221 0.05548988 -0.042274706 0.059638895
0001b0 39 67 4f bc e0 31 eb 3d 5a 4d 48 3d e9 03 65 3d
       -0.012658888 0.11484122 0.048901893 0.055911932
0001c0 ff a9 2c 3c cc c1 fe bc 19 2b c9 bd 1e 1e 63 bd
       0.010538577 -0.031098269 -0.09822673 -0.055448644
0001d0 0b 8f 56 3d a1 96 93 bd c4 c8 00 3e 67 36 45 3d
       0.05238251 -0.072064646 0.12576586 0.048147585
0001e0 2f 44 c6 3d b4 d8 c8 3d 48 81 73 bd 75 54 3b 3d
       0.09680974 0.09806958 -0.059449464 0.04573484
0001f0 0d ee 1d 3d f9 41 04 3e 96 7f 0d 3e ca 5f 09 be
       0.0385571 0.12915792 0.13818201 -0.13415447
000200 00 e1 a9 3d c5 ed 8a bc c1 a7 36 bd 1b 79 c6 bd
       0.082948685 -0.01695908 -0.044593576 -0.09691068
000210 41 73 eb 3d 6e ba 05 3e a5 67 92 bd b5 09 dc bd
       0.11496592 0.13059399 -0.07148675 -0.10744039
000220 62 04 41 bd 73 02 4d 3d 95 63 9a 3d 20 ac 58 3d
       -0.04712332 0.050051164 0.07538525 0.052898526
000230 6c 86 d0 3d 0a af 48 bd 19 cb 4b bc 44 58 eb bd
       0.10181889 -0.048995055 -0.012438559 -0.11491445
000240 a4 00 7c bd 71 cb db 3b 46 03 8d bd d1 5f 0f 3e
       -0.06152405 0.0067076017 -0.0688539 0.14001395
000250 65 5d ca 3d 64 43 11 bd a5 74 8d 3c 2a 5d 01 3e
       0.09881095 -0.03546466 0.017267535 0.12633196
000260 62 f2 65 bd af f6 13 bd dc 15 cb bd cb 90 ba 3b
       -0.056139357 -0.036123928 -0.09916279 0.00569353
000270 ea 57 9f bc f4 0f eb 3b ac 7b 87 3d 7c c6 df bd
       -0.0194511 0.0071735326 0.066153854 -0.1092653
000280 d5 22 99 bd 49 20 06 3e a7 1b 10 be 7d 36 e3 bd
       -0.07477347 0.13098253 -0.14073049 -0.11094377
000290 df 7c c1 3b c5 63 02 3d 9e 88 8e 3d d5 62 51 bc
       0.0059047784 0.03183343 0.069596514 -0.012779911
0002a0 9e 50 dc bc f3 91 22 3d a0 f2 06 3c bd 73 08 be
       -0.02689391 0.03968997 0.008236557 -0.133254
0002b0 9e cc c1 3d e6 8b ab 3d 02 d5 2a bd e3 43 da bd
       0.09462856 0.08376293 -0.041707046 -0.106574796
0002c0 c5 c3 e9 bd e7 c6 2e bd 02 58 81 bd 55 c2 da bd
       -0.11414293 -0.042670157 -0.06315614 -0.10681597
0002d0 ec 3a 48 bd 3b 3e de 3d 79 a0 13 bd 92 cf 66 bc
       -0.048884317 0.10851713 -0.03604171 -0.014087575
0002e0 d0 a4 9e 3d 88 9e 8f 3d b4 af 04 3d fb df e2 3b
       0.07746279 0.07012659 0.032394126 0.006923673
0002f0 c4 44 bd bc cc 8f 0e 3c dc b7 28 bd 60 0a ef 3b
       -0.023104079 0.008701276 -0.041190967 0.007294938
000300 79 69 4c 3d 09 2c 45 3c 79 96 ad bd a0 b8 94 3c
       0.049905274 0.012034425 -0.08475966 0.018154442
000310 46 f4 c4 3c 3b eb e7 3a d1 1e b9 39 f1 f7 ab 3c
       0.02404226 0.0017694006 0.0003530891 0.020992251
000320 e1 e0 b8 3d d9 f1 7d 3d 08 e9 a4 3d ae 7e 8b 3c
       0.09027267 0.061998222 0.0805226 0.017028179
000330 9b ed c8 3c 34 4d 0f be c3 4b 82 3d 27 cf 72 3d
       0.024527362 -0.13994294 0.06362107 0.059279587
000340 b9 b9 ed 3d db 92 6b bd 10 4e 32 bc 66 97 71 3d
       0.116076894 -0.0575131 -0.010882869 0.058982275
000350 d0 48 a2 bb f5 60 5a 3d 83 ce ef 3b 64 57 dc 3d
       -0.0049525276 0.05331512 0.0073183193 0.10758856
000360 20 ab 0b 3e b0 f1 06 bd de f0 54 bd 4d 85 0c 3e
       0.13639498 -0.032945335 -0.05198752 0.13722725
000370 4f 3c ff bd 43 09 08 bc 89 69 c4 3d 80 36 fe 3d
       -0.12462675 -0.008302989 0.09590442 0.12412739
000380 d6 21 fa bb 8c 54 c5 3c e0 33 c1 bd 4c a8 d0 3d
       -0.007633428 0.024088167 -0.094337225 0.1018835
000390 23 4a 3e bd be e7 17 3d d3 03 13 3e e0 03 0a bd
       -0.04645742 0.03708624 0.14356928 -0.0336951
0003a0 92 3c 03 3e 31 73 d7 bd 64 6a a0 bc f5 fd d1 bd
       0.12816074 -0.10520018 -0.019581981 -0.102535166
0003b0 f4 9f f4 3d 35 b8 09 bd e9 a0 a2 3d ae a7 9c 3d
       0.11944571 -0.03362294 0.079408474 0.0764917
0003c0 ad 7e 2b bd 70 5f b5 bc 8a b1 a2 3d 4f 57 f5 bd
       -0.041868854 -0.022140235 0.07944019 -0.119795434
0003d0 ce 68 ba bd 71 c3 02 3e 51 32 a5 3d 53 16 a5 3d
       -0.09102021 0.12769867 0.08066238 0.08060899
0003e0 f0 b0 01 be d0 02 cb bd 7e cb 33 3d f6 74 1e bd
       -0.12665153 -0.09912646 0.043895237 -0.03868576
0003f0 3d 2f c2 3d 45 b2 86 3c d1 31 f1 3d ff 22 aa 39
       0.09481666 0.016442427 0.1177708 0.00032451

lstm.bias_ih_l0 f4 [200]
000000 82 98 e3 bc c3 05 c3 3d b8 82 af 3d 36 48 99 3d
       -0.027782682 0.09522583 0.085698545 0.07484476
000010 f8 58 a9 bd d0 c0 e2 3d 64 4b 74 bd db 3e a1 bc
       -0.082689226 0.11071932 -0.05964221 -0.019683292
000020 9a b4 91 3d 73 6d f9 3d d6 3d c6 3d 43 5d 88 3c
       0.07114525 0.12179079 0.09679763 0.016646033
000030 16 81 ad bd 12 90 96 3d a9 ac e1 3d f2 bd 45 bd
       -0.08471887 0.07351698 0.110192604 -0.04827685
000040 e5 5d 47 bd bf 7c 02 bd fb c8 02 3e 1f 89 a9 bd
       -0.04867353 -0.03185725 0.1277198 -0.08278107
000050 36 38 f5 bd 2c cc b4 bd 83 92 d4 3d d3 03 cf bd
       -0.11973612 -0.08828005 0.103795074 -0.10108151
000060 7e 39 99 3d 43 c7 d9 3d 1e 06 8a 3d 7a d6 06 be
       0.07481669 0.10633709 0.06739448 -0.13167754
000070 bf 04 c9 bd fc b2 ac bc d6 4d 3b bd 94 36 dd 3d
       -0.09815358 -0.02108144 -0.045728527 0.108014256
000080 1f 08 8c 3d 45 f8 e5 bd 46 72 13 bd 3d d8 8f bd
       0.068374865 -0.11228994 -0.03599765 -0.07023666
000090 f7 be d1 bc 29 b3 1e 3c e5 63 9f bd 66 f0 bb 3d
       -0.025603754 0.00968627 -0.07782725 0.09176712
0000a0 2b f7 37 bc df 68 09 be 63 ee a2 3d 01 22 aa bd
       -0.011228363 -0.13418911 0.07955625 -0.08307267
0000b0 e4 33 d0 3c de a1 f5 bd 82 68 f2 3d 6c 05 bc 3c
       0.025415368 -0.11993764 0.118363395 0.022951804
0000c0 8d ae 97 3d aa 7f 58 bc 3d 55 e4 bb 67 a8 0c 3e
       0.0740634 -0.013214031 -0.006968169 0.13736115
0000d0 33 ac 0d be 02 fb 34 3d e3 be 0c be 96 17 f6 bd
       -0.1383522 0.044184692 -0.13744693 -0.120162174
0000e0 55 d7 01 be d9 4f 46 3d 6a 0d ee 3d 42 e1 e3 3d
       -0.12679799 0.048415992 0.11623652 0.11126949
0000f0 96 90 08 be b2 0b d5 3d d3 60 dd bc 5b 8a 03 3e
       -0.13336405 0.10402621 -0.027023708 0.12845747
000100 2d d7 0a 3e b6 d7 57 bd 71 88 ef bd 46 08 67 3d
       0.13558646 -0.052695952 -0.11695946 0.056404375
000110 cc 4b 92 bc 12 09 10 bd 55 3b fd 3b a4 3a 6e 3d
       -0.017858408 -0.0351649 0.00772802 0.058161393
000120 88 d2 09 3e 17 bc 9f 3d 73 4a 3a 3d 09 27 84 bd
       0.13459218 0.07799547 0.045481157 -0.06452758
000130 47 4f a5 3d 7b a1 d8 3d f2 9e ea bd c1 08 8e 3d
       0.080717616 0.10577675 -0.11456098 0.069352634
000140 63 8c 0e bd a0 ff 02 be 7f 1c a4 3d 2a e8 d0 bd
       -0.034801852 -0.12792826 0.08013248 -0.10200532
000150 f9 09 99 3d 1b 27 e4 bd 49 e4 96 bd 62 b9 91 3d
       0.07472605 -0.11140271 -0.07367761 0.07115437
000160 0b 25 03 3e e3 62 8d 3d 10 7e d3 3c 6a d5 9c bd
       0.128071 0.06903627 0.025816947 -0.07657893
000170 2e 8e 86 bd fc 13 eb bd 04 5d e8 3d e3 b2 9e bd
       -0.065700874 -0.11478421 0.11345866 -0.07748964
000180 d7 64 2a bb 2f 86 86 bd 2d 37 00 be 11 76 02 3d
       -0.0026000047 -0.06568562 -0.12521048 0.03185088
000190 2e 7c af bc fd fe 1f 3e 19 1b 7f 3c 27 c0 5c 3d
       -0.021421518 0.15624614 0.015570425 0.05389419
0001a0 29 c6 a6 3d 62 b4 23 be 8f b6 72 bd b4 5c f3 3d
       0.08143265 -0.1598678 -0.059256133 0.11882916
0001b0 76 53 95 3c 42 d4 c1 3b dc 34 19 3d b6 99 69 bd
       0.018228274 0.0059151957 0.037403926 -0.057031356
0001c0 78 ea 4a bd 0a 07 eb bd 89 25 bb bd 3d 2b d9 3c
       -0.049540013 -0.11475952 -0.09138019 0.026509875
0001d0 30 c5 ec 3d 14 5a d0 3c 62 35 1c 3d 4b 37 b7 3d
       0.11561048 0.025433578 0.038136847 0.08946093
0001e0 55 24 bb bd 3f c9 0a 3d a8 6b f6 bd 1e 6c d4 bd
       -0.09137789 0.03388333 -0.120322526 -0.10372184
0001f0 dd 72 a3 bd 96 b9 02 3e 6c 92 bf 3d 74 6d c8 bc
       -0.07980893 0.12766108 0.093541 -0.024466254
000200 9e cc 90 3d 4f a7 ee bd cd 2e a8 bd da 66 8e bd
       0.07070278 -0.11653005 -0.082120515 -0.06953211
000210 ba 4a 47 bd 0e 4e e9 bd a2 8b b4 3c 07 5d 05 be
       -0.04865525 -0.11391841 0.022039238 -0.13023768
000220 b5 a6 03 3d ef 28 1c be d5 1d 33 bd 1c 6f aa bc
       0.032141406 -0.1524999 -0.043729622 -0.020804934
000230 e2 68 f6 3c aa 7d 05 be cd 93 25 bd 0f 3f 04 3e
       0.030079309 -0.13036218 -0.040424157 0.1291468
000240 5d f1 fc bd df 55 ee 3d 96 59 e8 3d 95 62 2e 3d
       -0.12350724 0.11637472 0.11345212 0.042574484
000250 17 1d 82 bc 0c f9 dc 3d 2c 8d e6 bd e1 de 13 3e
       -0.015883012 0.107896894 -0.11257395 0.1444049
000260 21 14 d9 3d 4e f0 73 bd 28 85 b6 3d 6a 37 db bd
       0.105995424 -0.059555344 0.08912116 -0.10703929
000270 c1 b5 ee bd 8e 3f b9 3d df 18 90 3c dd 93 68 bd
       -0.116557606 0.09045325 0.017589984 -0.05678164
000280 14 34 dd 3d b0 0c 0e bd c7 85 ae bd d3 8b d8 3d
       0.10800949 -0.03468007 -0.0852161 0.10573544
000290 56 d1 03 3e 88 d8 ef bd 60 48 c3 3d ff 0e ae 3d
       0.12872824 -0.11711222 0.09535289 0.08498954
0002a0 34 4b 78 3d 01 10 13 3e 25 89 7b bc 13 6b c9 bd
       0.060618594 0.14361574 -0.015352522 -0.09834876
0002b0 5b 3f 8e 3c c4 23 3c 3d f1 f2 80 bc 22 71 0b 3e
       0.017364195 0.045932546 -0.015740843 0.13617375
0002c0 9f 0d ae bd 1a 99 0c 3e 33 77 01 3e e8 74 b6 3d
       -0.08498692 0.13730279 0.12643127 0.08909017
0002d0 67 2d 30 3d 37 9d 14 3d f4 66 70 3d 4e 45 2b 3c
       0.04301205 0.036282744 0.058691934 0.010453535
0002e0 9e 1e c5 bd 7c 43 fe bd 81 64 fe bd 50 1a e8 3d
       -0.096249804 -0.124152154 -0.12421513 0.11333144
0002f0 e9 cf de bd 8a 8c 0a 3e 20 8b c5 3d fa 1e de bd
       -0.108794995 0.13530174 0.096456766 -0.10845752
000300 99 f4 03 3e 56 d9 f2 bd 45 b2 a8 bd dc 1b e6 bd
       0.12886275 -0.1185786 -0.08237127 -0.112357825
000310 cd 8f a3 bd e2 4d 97 bc 3c 2e d5 3b bb 95 03 3e
       -0.07986412 -0.018469755 0.0065057557 0.12850086

lstm.bias_hh_l0 f4 [200]
000000 38 1c 88 bd c2 5c 11 3e ac 40 09 bd 85 4f 54 bb
       -0.06646007 0.1419554 -0.03350894 -0.003239603
000010 cb a5 c0 3c 41 53 b6 bc 72 e0 00 bd 29 f4 6b 3d
       0.023516556 -0.022256495 -0.031464048 0.057605896
000020 68 df a4 3c 59 0f 4f 3b a3 e5 de bd 4a 7d 01 bd
       0.02012606 0.0031594841 -0.108836435 -0.031613626
000030 8b 73 f6 bd 37 82 23 bd 6b f7 73 bc 47 10 9e bd
       -0.12033757 -0.039919104 -0.014890532 -0.077179484
000040 98 17 08 3e 40 6a 9c bd 82 91 c2 bd 19 07 22 3d
       0.1329025 -0.07637453 -0.0950041 0.03955755
000050 31 98 00 3e fe 2d f5 bd a1 38 09 3c 22 1c 7d bd
       0.12558056 -0.11971663 0.008375318 -0.061794408
000060 ec 8d ef 3d 4a ba 6d bd 0a 5c b2 bd 62 4c a5 bd
       0.11696991 -0.058038987 -0.08708961 -0.080712095
000070 6b cc be 3d ec 90 05 3e 9c d1 f6 bc 9f a0 d6 3d
       0.093163334 0.13043565 -0.030129246 0.10479855
000080 15 d0 84 3d bf ca a2 3d 42 4a 11 3e 10 28 d2 bd
       0.06485001 0.07948827 0.14188483 -0.102615476
000090 9d 90 88 3d ab f8 4a bd 09 11 d3 3d d5 61 f4 bd
       0.06668208 -0.049553555 0.103059836 -0.119327225
0000a0 a4 91 82 bd 54 d2 a5 bd 23 fb aa 3d e2 9f 06 3e
       -0.06375435 -0.080967575 0.08348682 0.13146928
0000b0 8d aa ca bc a8 ca 79 3d dc 71 97 bd a8 fd ca 3b
       -0.024739528 0.060984284 -0.07394764 0.006194789
0000c0 a5 d6 0c be af ce a8 bd 28 91 93 bd fd bf a3 bd
       -0.13753755 -0.08242547 -0.07205421 -0.07995603
0000d0 df 60 07 bd e2 57 89 bd 16 f1 4d 3d 01 69 61 3d
       -0.033051368 -0.067062154 0.050278746 0.05503178
0000e0 36 8b b4 bc c0 99 9e 3d 10 3b dc bd 05 e3 b5 3d
       -0.022039037 0.07744169 -0.10753453 0.08881191
0000f0 eb 3f c1 bd 81 95 eb 3d 05 15 98 3d 7c 66 0d 3d
       -0.094360195 0.11503125 0.07425884 0.034521565
000100 b3 b9 85 bd 3f 21 08 3e 4c 88 b5 3c db f1 0b be
       -0.0652956 0.13293932 0.022159718 -0.1366648
000110 1a f2 37 bd bb 67 9e 3d 7e fd ca 3d 3f b0 0d be
       -0.04490862 0.07734629 0.09911631 -0.13836764
000120 dc f2 13 3e 2d 3d ce 3c f9 7a b9 3d 1c 33 06 3e
       0.14448112 0.025175655 0.09056658 0.13105434
000130 ab 5f ed 3c f5 7e ac bd 54 33 e6 3c f8 d4 ad 3c
       0.028976282 -0.08422653 0.028100647 0.021219715
000140 81 1c a3 3d 17 f2 cc bd 12 8a f6 bb 53 0e 9e 3d
       0.07964421 -0.100071125 -0.0075237835 0.07717576
000150 af 43 a4 bd 1d 5f a6 bd d4 e8 cc 3d 65 b8 43 bd
       -0.08020722 -0.0812361 0.10005346 -0.047783274
000160 af ff 12 bb a9 4a 0c be 35 ce 93 bd 56 9d 27 bd
       -0.0022430231 -0.13700356 -0.07217065 -0.04092153
000170 ee bd 0d 3e 9a c6 0f 3e f0 b2 aa bd 85 97 44 3d
       0.13841984 0.14040604 -0.08334911 0.047996063
000180 17 26 ef 3c 53 66 bf bd 14 24 d5 3d f5 ec f8 3d
       0.029192967 -0.09345689 0.10407272 0.12154571
000190 8e 2d 00 be 5b d6 24 3e 5e 8a c7 3d 85 ac 81 3d
       -0.12517378 0.16097395 0.09743188 0.063317336
0001a0 5a fe e9 bd 52 b3 98 3d 07 1a 5c bd c5 c3 ea 3d
       -0.11425467 0.07456078 -0.05373576 0.11463121
0001b0 19 9a f3 bd ff f5 c2 bd 90 ad a6 3d 02 93 78 3d
       -0.11894626 -0.09519576 0.08138573 0.060687073
0001c0 fe 56 ac bc fb 71 5e bd ec f9 9f 3d 78 bc f7 3d
       -0.021037575 -0.05430792 0.07811341 0.120964944
0001d0 76 32 cc bd c0 ef b1 3d 40 0c 90 3b 09 a9 30 be
       -0.09970562 0.08688307 0.0043959916 -0.17251982
0001e0 48 bc f7 3d fa c9 d3 3d 52 3d 82 bd 4e 80 0e bd
       0.12096459 0.10341258 -0.06359352 -0.03479033
0001f0 9d 9f f9 bc 66 11 63 3d 42 00 cf bd 93 60 29 be
       -0.030471617 0.055436514 -0.10107471 -0.16540746
000200 3e 0b 0b be da 18 8c 3d 68 29 de 3d 9a 70 a2 3d
       -0.13578507 0.068406776 0.10847741 0.07931633
000210 f3 f9 03 be be 94 e2 bd c4 c9 be bd 5c 6f 3a bd
       -0.12888317 -0.110635266 -0.093158275 -0.045516357
000220 99 f9 d0 bd ab 8e 98 3d a4 0c f1 3c 33 84 c9 bd
       -0.10203857 0.07449087 0.029424973 -0.09839668
000230 1c 8a cc 3d 9a 59 53 3c d5 74 b6 3d 1d 9f c8 bd
       0.0998728 0.012899781 0.08909003 -0.097959734
000240 76 e9 df bd f6 af c2 3d 48 6e d3 bc a0 71 c8 3c
       -0.10933201 0.09506218 -0.025809422 0.024468243
000250 a5 7b 48 3c 59 3a 1e 3e 46 46 64 3d e1 59 6d bd
       0.01223651 0.15451945 0.05573108 -0.057947043
000260 17 0e 82 3d 1a 00 eb 3d fe 96 f0 bd 25 ec 3a bd
       0.06350344 0.11474629 -0.117475495 -0.04563536
000270 2e 7a ab 3c e4 97 b7 bd f2 7a ba 3c 49 f8 5b bd
       0.020932283 -0.08964518 0.022763703 -0.05370358
000280 63 42 3a 3d e6 49 90 bc 4a 6a 9a 3d aa 93 3a 3c
       0.045473468 -0.017613363 0.07539804 0.011387745
000290 dc cd d6 bd 71 bb da bd 7d 97 0a be 94 d4 02 3e
       -0.10488483 -0.10680283 -0.1353435 0.12776405
0002a0 29 ca d5 3c 0a 43 1d 3e d8 9d b8 3d ff 6e 4b 3c
       0.026097374 0.15357605 0.09014481 0.0124166
0002b0 de 97 f5 ba 84 a8 e8 bc 13 fe ee 3d 5c 6b 55 3d
       -0.0018737277 -0.028400667 0.116695546 0.05210434
0002c0 86 34 80 bd fa 2e 0e 3e 43 cc 01 3d 06 5b d9 3d
       -0.06260018 0.13885108 0.03168894 0.106130645
0002d0 99 3f df 3d 85 c7 15 3e c1 81 92 3c 6e 3c 70 3d
       0.10900802 0.14626892 0.017884137 0.05865138
0002e0 b3 cb 7a bd 78 36 bf 3d 3c b4 24 bc 78 68 9d bd
       -0.06122942 0.09336561 -0.010052737 -0.076859415
0002f0 2b a6 b3 bc 2b 5f a8 bd 90 d2 d5 3d 16 4f 5b bc
       -0.021929821 -0.08221277 0.10440552 -0.013385555
000300 02 98 0e 3e 19 8a bd bb 65 02 0a 3e 99 6e 35 bd
       0.13925174 -0.005784285 0.13477476 -0.044294927
000310 83 72 75 bd 91 9f 07 3e f6 19 04 3e 8f 43 c0 bd
       -0.05992366 0.13244464 0.12900528 -0.09387886

mambaLayer.A_log f4 [56, 16]
000000 00 00 00 00 18 72 31 3f 54 9f 8c 3f 18 72 b1 3f
       0.0 0.6931472 1.0986123 1.3862944
000010 10 02 ce 3f 60 58 e5 3f 96 13 f9 3f 92 15 05 40
       1.609438 1.7917595 1.9459102 2.0794415
000020 54 9f 0c 40 8e 5d 13 40 1e 77 19 40 b6 08 1f 40
       2.1972246 2.3025851 2.3978953 2.4849067
000030 21 28 24 40 51 e6 28 40 b2 50 2d 40 18 72 31 40
       2.5649493 2.6390574 2.7080503 2.7725887
000040 00 00 00 00 18 72 31 3f 54 9f 8c 3f 18 72 b1 3f
       0.0 0.6931472 1.0986123 1.3862944
000050 10 02 ce 3f 60 58 e5 3f 96 13 f9 3f 92 15 05 40
       1.609438 1.7917595 1.9459102 2.0794415
000060 54 9f 0c 40 8e 5d 13 40 1e 77 19 40 b6 08 1f 40
       2.1972246 2.3025851 2.3978953 2.4849067
000070 21 28 24 40 51 e6 28 40 b2 50 2d 40 18 72 31 40
       2.5649493 2.6390574 2.7080503 2.7725887
000080 00 00 00 00 18 72 31 3f 54 9f 8c 3f 18 72 b1 3f
       0.0 0.6931472 1.0986123 1.3862944
000090 10 02 ce 3f 60 58 e5 3f 96 13 f9 3f 92 15 05 40
       1.609438 1.7917595 1.9459102 2.0794415
0000a0 54 9f 0c 40 8e 5d 13 40 1e 77 19 40 b6 08 1f 40
       2.1972246 2.3025851 2.3978953 2.4849067
0000b0 21 28 24 40 51 e6 28 40 b2 50 2d 40 18 72 31 40
       2.5649493 2.6390574 2.7080503 2.7725887
0000c0 00 00 00 00 18 72 31 3f 54 9f 8c 3f 18 72 b1 3f
       0.0 0.6931472 1.0986123 1.3862944
0000d0 10 02 ce 3f 60 58 e5 3f 96 13 f9 3f 92 15 05 40
       1.609438 1.7917595 1.9459102 2.0794415
0000e0 54 9f 0c 40 8e 5d 13 40 1e 77 19 40 b6 08 1f 40
       2.1972246 2.3025851 2.3978953 2.4849067
0000f0 21 28 24 40 51 e6 28 40 b2 50 2d 40 18 72 31 40
       2.5649493 2.6390574 2.7080503 2.7725887
000100 00 00 00 00 18 72 31 3f 54 9f 8c 3f 18 72 b1 3f
       0.0 0.6931472 1.0986123 1.3862944
000110 10 02 ce 3f 60 58 e5 3f 96 13 f9 3f 92 15 05 40
       1.609438 1.7917595 1.9459102 2.0794415
000120 54 9f 0c 40 8e 5d 13 40 1e 77 19 40 b6 08 1f 40
       2.1972246 2.3025851 2.3978953 2.4849067
000130 21 28 24 40 51 e6 28 40 b2 50 2d 40 18 72 31 40
       2.5649493 2.6390574 2.7080503 2.7725887
000140 00 00 00 00 18 72 31 3f 54 9f 8c 3f 18 72 b1 3f
       0.0 0.6931472 1.0986123 1.3862944
000150 10 02 ce 3f 60 58 e5 3f 96 13 f9 3f 92 15 05 40
       1.609438 1.7917595 1.9459102 2.0794415
000160 54 9f 0c 40 8e 5d 13 40 1e 77 19 40 b6 08 1f 40
       2.1972246 2.3025851 2.3978953 2.4849067
000170 21 28 24 40 51 e6 28 40 b2 50 2d 40 18 72 31 40
       2.5649493 2.6390574 2.7080503 2.7725887
000180 00 00 00 00 18 72 31 3f 54 9f 8c 3f 18 72 b1 3f
       0.0 0.6931472 1.0986123 1.3862944
000190 10 02 ce 3f 60 58 e5 3f 96 13 f9 3f 92 15 05 40
       1.609438 1.7917595 1.9459102 2.0794415
0001a0 54 9f 0c 40 8e 5d 13 40 1e 77 19 40 b6 08 1f 40
       2.1972246 2.3025851 2.3978953 2.4849067
0001b0 21 28 24 40 51 e6 28 40 b2 50 2d 40 18 72 31 40
       2.5649493 2.6390574 2.7080503 2.7725887
0001c0 00 00 00 00 18 72 31 3f 54 9f 8c 3f 18 72 b1 3f
       0.0 0.6931472 1.0986123 1.3862944
0001d0 10 02 ce 3f 60 58 e5 3f 96 13 f9 3f 92 15 05 40
       1.609438 1.7917595 1.9459102 2.0794415
0001e0 54 9f 0c 40 8e 5d 13 40 1e 77 19 40 b6 08 1f 40
       2.1972246 2.3025851 2.3978953 2.4849067
0001f0 21 28 24 40 51 e6 28 40 b2 50 2d 40 18 72 31 40
       2.5649493 2.6390574 2.7080503 2.7725887
000200 00 00 00 00 18 72 31 3f 54 9f 8c 3f 18 72 b1 3f
       0.0 0.6931472 1.0986123 1.3862944
000210 10 02 ce 3f 60 58 e5 3f 96 13 f9 3f 92 15 05 40
       1.609438 1.7917595 1.9459102 2.0794415
000220 54 9f 0c 40 8e 5d 13 40 1e 77 19 40 b6 08 1f 40
       2.1972246 2.3025851 2.3978953 2.4849067
000230 21 28 24 40 51 e6 28 40 b2 50 2d 40 18 72 31 40
       2.5649493 2.6390574 2.7080503 2.7725887
000240 00 00 00 00 18 72 31 3f 54 9f 8c 3f 18 72 b1 3f
       0.0 0.6931472 1.0986123 1.3862944
000250 10 02 ce 3f 60 58 e5 3f 96 13 f9 3f 92 15 05 40
       1.609438 1.7917595 1.9459102 2.0794415
000260 54 9f 0c 40 8e 5d 13 40 1e 77 19 40 b6 08 1f 40
       2.1972246 2.3025851 2.3978953 2.4849067
000270 21 28 24 40 51 e6 28 40 b2 50 2d 40 18 72 31 40
       2.5649493 2.6390574 2.7080503 2.7725887
000280 00 00 00 00 18 72 31 3f 54 9f 8c 3f 18 72 b1 3f
       0.0 0.6931472 1.0986123 1.3862944
000290 10 02 ce 3f 60 58 e5 3f 96 13 f9 3f 92 15 05 40
       1.609438 1.7917595 1.9459102 2.0794415
0002a0 54 9f 0c 40 8e 5d 13 40 1e 77 19 40 b6 08 1f 40
       2.1972246 2.3025851 2.3978953 2.4849067
0002b0 21 28 24 40 51 e6 28 40 b2 50 2d 40 18 72 31 40
       2.5649493 2.6390574 2.7080503 2.7725887
0002c0 00 00 00 00 18 72 31 3f 54 9f 8c 3f 18 72 b1 3f
       0.0 0.6931472 1.0986123 1.3862944
0002d0 10 02 ce 3f 60 58 e5 3f 96 13 f9 3f 92 15 05 40
       1.609438 1.7917595 1.9459102 2.0794415
0002e0 54 9f 0c 40 8e 5d 13 40 1e 77 19 40 b6 08 1f 40
       2.1972246 2.3025851 2.3978953 2.4849067
0002f0 21 28 24 40 51 e6 28 40 b2 50 2d 40 18 72 31 40
       2.5649493 2.6390574 2.7080503 2.7725887
000300 00 00 00 00 18 72 31 3f 54 9f 8c 3f 18 72 b1 3f
       0.0 0.6931472 1.0986123 1.3862944
000310 10 02 ce 3f 60 58 e5 3f 96 13 f9 3f 92 15 05 40
       1.609438 1.7917595 1.9459102 2.0794415
000320 54 9f 0c 40 8e 5d 13 40 1e 77 19 40 b6 08 1f 40
       2.1972246 2.3025851 2.3978953 2.4849067
000330 21 28 24 40 51 e6 28 40 b2 50 2d 40 18 72 31 40
       2.5649493 2.6390574 2.7080503 2.7725887
000340 00 00 00 00 18 72 31 3f 54 9f 8c 3f 18 72 b1 3f
       0.0 0.6931472 1.0986123 1.3862944
000350 10 02 ce 3f 60 58 e5 3f 96 13 f9 3f 92 15 05 40
       1.609438 1.7917595 1.9459102 2.0794415
000360 54 9f 0c 40 8e 5d 13 40 1e 77 19 40 b6 08 1f 40
       2.1972246 2.3025851 2.3978953 2.4849067
000370 21 28 24 40 51 e6 28 40 b2 50 2d 40 18 72 31 40
       2.5649493 2.6390574 2.7080503 2.7725887
000380 00 00 00 00 18 72 31 3f 54 9f 8c 3f 18 72 b1 3f
       0.0 0.6931472 1.0986123 1.3862944
000390 10 02 ce 3f 60 58 e5 3f 96 13 f9 3f 92 15 05 40
       1.609438 1.7917595 1.9459102 2.0794415
0003a0 54 9f 0c 40 8e 5d 13 40 1e 77 19 40 b6 08 1f 40
       2.1972246 2.3025851 2.3978953 2.4849067
0003b0 21 28 24 40 51 e6 28 40 b2 50 2d 40 18 72 31 40
       2.5649493 2.6390574 2.7080503 2.7725887
0003c0 00 00 00 00 18 72 31 3f 54 9f 8c 3f 18 72 b1 3f
       0.0 0.6931472 1.0986123 1.3862944
0003d0 10 02 ce 3f 60 58 e5 3f 96 13 f9 3f 92 15 05 40
       1.609438 1.7917595 1.9459102 2.0794415
0003e0 54 9f 0c 40 8e 5d 13 40 1e 77 19 40 b6 08 1f 40
       2.1972246 2.3025851 2.3978953 2.4849067
0003f0 21 28 24 40 51 e6 28 40 b2 50 2d 40 18 72 31 40
       2.5649493 2.6390574 2.7080503 2.7725887

mambaLayer.D f4 [56]
000000 5d fb 81 3f 7e 02 80 3f 30 41 81 3f 83 0c 80 3f
       1.0154835 1.000076 1.0098019 1.0003818
000010 10 c6 7f 3f 60 0d 80 3f 82 4e 80 3f 4e 1e 80 3f
       0.99911594 1.0004082 1.0023959 1.0009248
000020 af 7a 82 3f 70 d6 7f 3f 8c e1 7f 3f bc 8f 80 3f
       1.019369 0.9993658 0.9995353 1.0043864
000030 97 1f 80 3f f4 aa 7f 3f b7 3e 81 3f 69 3e 80 3f
       1.000964 0.9987023 1.0097264 1.0019046
000040 40 3d 80 3f 6f be 7e 3f 7f 40 7f 3f e8 ec 7f 3f
       1.0018692 0.9950933 0.9970779 0.99970865
000050 c6 96 7f 3f e7 32 7f 3f a6 ff 83 3f b4 29 80 3f
       0.99839437 0.99687046 1.0312393 1.0012727
000060 d3 2c 80 3f a1 bc 80 3f 1e 5a 86 3f 49 f0 7f 3f
       1.0013679 1.0057565 1.0496252 0.9997602
000070 66 5c 80 3f db 03 80 3f 20 28 80 3f 09 b0 7f 3f
       1.0028198 1.0001177 1.0012245 0.99877983
000080 9c 4e 80 3f 94 b4 7f 3f 64 88 7f 3f 4c b5 7f 3f
       1.002399 0.99884915 0.9981749 0.9988601
000090 73 d9 81 3f 70 80 7f 3f 69 f4 7f 3f 14 d1 7f 3f
       1.0144485 0.99805355 0.99982315 0.999284
0000a0 19 fa 7f 3f 1a 54 80 3f c1 16 7f 3f 39 05 80 3f
       0.99990994 1.0025666 0.99644095 1.0001594
0000b0 21 e2 7f 3f 87 58 88 3f 03 bf 7f 3f ef 65 7f 3f
       0.9995442 1.0652016 0.99900836 0.99764913
0000c0 e8 dd 9f 3f ca 30 80 3f 42 71 80 3f 78 b8 7f 3f
       1.2489595 1.0014889 1.0034564 0.9989085
0000d0 e6 f8 7f 3f a2 fe 83 3f d6 3d 80 3f f4 fc 7f 3f
       0.99989164 1.0312083 1.0018871 0.9999535

mambaLayer.in_proj.weight f4 [112, 56]
000000 ef ad 89 bd e5 58 d2 bd ba ea df bc 6f 42 a9 3d
       -0.06722628 -0.102708615 -0.027333606 0.08264624
000010 e3 2d 13 be bf 5f b0 3d d3 75 9a 3d 2a b8 a2 3b
       -0.14372973 0.08612012 0.075420044 0.0049658017
000020 7e 05 c4 bd f1 2d 50 3d 06 53 98 bd ec 41 84 3c
       -0.0957136 0.050825063 -0.074377105 0.016144715
000030 3d 20 08 3d f7 25 04 3d 6e 9d 9d bb 9d 24 8a 3c
       0.03323387 0.03226277 -0.004810027 0.016863162
000040 0d f1 e0 3d 88 fd 45 bd b4 5c ad 3d 63 0a ff bd
       0.10983477 -0.04833749 0.08464947 -0.12453153
000050 d7 9c d0 bd b6 21 db 3c a8 21 c8 bd e6 19 d0 bd
       -0.10186165 0.026749473 -0.097720444 -0.1016119
000060 03 cf ae bd 0f b4 4f 3d d7 77 d9 3d bb a8 50 bb
       -0.08535578 0.050708827 0.10618561 -0.0031838852
000070 95 4f c2 3c 81 bf 03 3e 00 b7 ab bd 53 ee c5 3d
       0.023719588 0.12866022 -0.08384514 0.09664597
000080 c9 c0 15 3d 89 f1 24 3d f9 79 00 3d 87 bb d3 3b
       0.036560807 0.04026941 0.031366322 0.006461564
000090 b9 16 68 bd 35 70 09 bd 62 33 37 bc f6 77 52 bd
       -0.056662295 -0.033554275 -0.011181684 -0.051383935
0000a0 15 d6 8e bd fe 80 bf bc 4d 04 db 3d d6 7f 15 3d
       -0.06974427 -0.023376938 0.1069418 0.036498867
0000b0 5a d0 96 bd a4 e0 85 bc 43 b1 7e 3d 09 c4 8e 3d
       -0.07363959 -0.016342469 0.06218077 0.069709845
0000c0 e5 f6 3b bd 98 8d 4d bd 69 90 cb 3c 81 f3 e1 bd
       -0.045889754 -0.050183862 0.024849134 -0.11032773
0000d0 1f 1f d1 bd d7 a0 b9 3c b0 0a e4 3d d0 ca f1 3c
       -0.10211014 0.022659702 0.11134851 0.029515654
0000e0 c3 e7 05 3e 52 e6 9c bd fd 59 cc bd ea b3 f2 bc
       0.13076691 -0.076611176 -0.099781014 -0.029626805
0000f0 c8 54 48 3d a6 e7 a1 3d 37 ae b0 3d 34 39 19 bd
       0.04890898 0.079055116 0.08626979 -0.03740807
000100 a2 de c1 3d 51 68 c4 bd 29 33 97 bd b7 8e e4 bd
       0.09466292 -0.09590209 -0.07382805 -0.11160033
000110 90 ae 24 bd ff ec e1 3d 35 91 ce bd ad fc 65 bd
       -0.04020554 0.110315315 -0.1008629 -0.056149174
000120 3e 4c 9c 3d 88 bd ba bd 8c 40 e9 bd 4c aa f6 bd
       0.076317295 -0.091181815 -0.113892645 -0.120442
000130 9c 05 d3 3d a6 e9 bd bd 37 2c 07 bc 92 bf 09 3d
       0.10303804 -0.092730805 -0.008250288 0.03362996
000140 17 b2 88 3d aa 6c 91 bd 70 5e dc 3c 5a b8 ea 3c
       0.06674593 -0.07100804 0.0269005 0.028652359
000150 1d ea e6 3c 4e 87 9c 3c 1b 93 80 3d d0 3d a2 bd
       0.028187806 0.019107487 0.06278058 -0.07921946
000160 7d f3 a7 3b af 4d 9d bd 15 09 bb bd 8e 8a 39 bd
       0.0051254616 -0.076808326 -0.09132592 -0.04529815
000170 9c ec dc 3d ec 40 48 3c 1e 18 a0 3d d9 cf 9a bc
       0.10787317 0.01222251 0.078171 -0.018897938
000180 50 ba 5b bd 64 73 e8 bd c8 04 91 bd 49 48 af 3d
       -0.05364448 -0.11350134 -0.0708099 0.08558709
000190 cb a7 e5 3d 88 b0 07 3c 98 ae 05 3e 7a a3 e3 bd
       0.112136446 0.008281834 0.13054883 -0.11115165
0001a0 76 17 07 3e 3e 31 22 bd 45 b2 1b bd c5 85 c5 bd
       0.13192543 -0.039597742 -0.038011808 -0.09644655
0001b0 cf 6f 46 3d 82 11 90 3d 3e 39 f3 bc 3f d0 b2 bd
       0.048446473 0.07034589 -0.029690381 -0.08731126
0001c0 7a d5 dd 3c 81 73 01 bd 24 f1 14 bd 5c 28 e5 3c
       0.027079333 -0.031604294 -0.036362782 0.027973346
0001d0 86 20 04 3e ea 6c 94 3d 23 9a 9f bd 33 ba ba bd
       0.12903032 0.07247336 -0.07793071 -0.09117546
0001e0 cb 53 bb 3d a6 58 14 bd 88 f8 d2 bc af c6 d6 bd
       0.091468416 -0.036217354 -0.025753275 -0.10487115
0001f0 87 16 05 3e 3b 90 a4 3d f5 66 19 bd d1 eb cf bd
       0.12996875 0.08035322 -0.037451703 -0.101524
000200 2c 25 52 bd a9 09 5a 3c 03 1e e4 3d b9 30 ef 3d
       -0.05130498 0.013307967 0.11138537 0.11679215
000210 8d 2c de 3d aa 11 f2 bc 9f 83 f4 bd 4b e0 bc bd
       0.10848341 -0.029549439 -0.11939167 -0.09222468
000220 e2 3e df 3d 58 d6 06 be fa ac b2 3d 70 e3 de bd
       0.10900666 -0.13167703 0.08724399 -0.10883224
000230 24 52 f8 bd 97 b6 01 3e 5b dc 68 bd ea 4a 11 3d
       -0.12125042 0.12667309 -0.056850772 0.035471834
000240 03 d4 93 bd 86 29 66 3d 42 2b 91 3c 56 91 9a 3d
       -0.072181724 0.056191944 0.017720822 0.07547252
000250 c6 11 03 bd 34 d1 05 3e 96 e6 e5 3d 0d bd 00 be
       -0.031999372 0.13068086 0.112256214 -0.12572117
000260 76 77 c0 bd ad 05 00 be 13 26 94 bd ee 1f 6e 3d
       -0.09397785 -0.12502165 -0.072338246 0.05813592
000270 41 06 fc 3d 0a f8 58 bd 1e 6b 02 be 55 af 04 3e
       0.1230588 -0.052970923 -0.12736174 0.12957509
000280 fc fa 90 3c 8a f6 95 3d 21 69 93 bd e2 42 f6 bc
       0.017697804 0.07322414 -0.07197786 -0.03006119
000290 94 d4 ee 3d 90 4e ef 3d ec cd 94 3d f1 a1 e4 3b
       0.1166164 0.116849065 0.07265839 0.0069773127
0002a0 b8 3c ea bd 0b 46 b5 3d 6b 12 bf bd fc 7d 50 bd
       -0.114373624 0.0885125 -0.09329685 -0.050901398
0002b0 23 13 3c 3d c2 5a 84 bc 28 97 20 3c d0 bf a4 3d
       0.045916688 -0.016156558 0.009801663 0.08044398
0002c0 e3 6e c2 bd c8 d6 29 3d a7 f4 8f bd 1a 69 44 3d
       -0.09493806 0.041464597 -0.070290856 0.047951795
0002d0 10 d4 e0 bd 40 fe 24 bd fd 67 7f 3c ba 7f 94 3c
       -0.10977948 -0.040281534 0.015588758 0.018127311
0002e0 72 34 0e bc 97 15 a0 bd 4b 06 e2 3c f3 7c a7 3d
       -0.008679496 -0.07816618 0.027590891 0.08178129
0002f0 fd 35 9e bc b3 86 ef bc 7f 43 a9 bc 1c 0f fc 3d
       -0.019312853 -0.029239034 -0.020662067 0.123075694
000300 a7 6d b8 bd f8 51 8a 3d 64 8b ba bd 76 77 03 3e
       -0.090052895 0.067539155 -0.09108618 0.1283854
000310 e1 ce a4 3d 08 5f 8a 3d 3b e1 56 bd 09 32 02 3d
       0.080472715 0.06756407 -0.05246089 0.031786
000320 e3 24 6d bd 56 a2 f4 bd f7 08 be 3d b6 7b f6 3d
       -0.057896506 -0.119450256 0.09279054 0.12035315
000330 a3 7f 39 3d 9d 43 cf bd b3 e0 b2 3d 74 57 08 3e
       0.04528774 -0.10120318 0.08734264 0.1331461
000340 87 fe e1 bd 62 5d ca 3d 43 ce 94 bd d0 78 cb bc
       -0.11034875 0.098810926 -0.07265904 -0.024837881
000350 18 0b 9d bd b4 e0 27 bd 5e 8b f9 bd cc 17 03 3d
       -0.076681316 -0.040985778 -0.12184785 0.032005116
000360 73 6d c7 bd 4e 87 82 bb 61 8d 81 3d bb 17 eb bb
       -0.09737673 -0.0039834147 0.06325794 -0.0071744598
000370 61 ec e0 3d 1b 94 14 bd af 7a 74 3c 93 99 f9 bc
       0.10982586 -0.036274057 0.014921828 -0.030468738
000380 8a f9 93 bd fd 1d 0b 3d 01 5c 52 bc 8d b0 df bd
       -0.0722533 0.033964146 -0.012839318 -0.10922346
000390 ff a0 ce bd 13 62 6b bc ce 17 67 bd ff 98 d2 bb
       -0.10089301 -0.014366644 -0.056419186 -0.00642693
0003a0 85 b1 aa bd 34 0d b6 3d 99 55 80 bb 2f e6 f2 3c
       -0.083346404 0.08889237 -0.003916454 0.029650776
0003b0 cb 7b ea 3c 6e 61 d1 bc 26 3f 29 3c 86 71 01 be
       0.028623482 -0.025559153 0.010329997 -0.12640962
0003c0 d7 1b 13 3d f8 61 80 3d d1 04 ab 3c 2d b4 01 3e
       0.035915222 0.06268686 0.02087632 0.12666388
0003d0 87 7f cb bd e0 f7 ae bd 87 4f ca bb 2f 45 c7 3d
       -0.09936433 -0.08543372 -0.006174031 0.097299926
0003e0 b5 e9 ee 3c ba fe 03 3e 57 7c 44 3d b6 b6 88 3c
       0.029164175 0.12890139 0.047970142 0.016688686
0003f0 ef 0e e8 3d 99 1f 9a 3d 3c 5a 83 bd 0a 3d e2 3d
       0.11330973 0.07525558 -0.06413695 0.110467985

mambaLayer.conv1d.weight f4 [56, 1, 4]
000000 c0 2b 6e bc a0 53 9e be 12 81 ca be 38 3b e7 be
       -0.014536798 -0.30923176 -0.39551598 -0.45162368
000010 b2 fb f1 be e2 ad 8e be e8 4c dd 3e c9 c0 06 be
       -0.4726234 -0.27867037 0.43222737 -0.13159479
000020 bc c6 eb be 60 81 70 be 64 e0 a4 3e 8c 66 55 3d
       -0.4605006 -0.23486853 0.32202446 0.05209975
000030 78 66 ee bd 5a 50 99 be 70 b5 c7 3e 5a 1e 2b 3d
       -0.11640638 -0.29944116 0.39005613 0.041776992
000040 74 3c 2c 3e c6 60 d9 3e 48 18 2a be 14 7d a1 3c
       0.16819936 0.42456645 -0.16610825 0.019712962
000050 a0 ee ad be a0 86 bc bc b0 13 b0 3d 41 d2 a9 bb
       -0.3397112 -0.023013413 0.08597505 -0.005182535
000060 e4 98 80 3e 30 1e ff be 0e 29 b7 be 6b 63 1b be
       0.25116646 -0.4982772 -0.3577351 -0.15174644
000070 9a f0 f0 3e 74 91 7c 3e 00 a8 0c 3e 32 46 62 3e
       0.47058564 0.24664861 0.13735962 0.2209709
000080 14 ef 62 be 04 e1 a8 3e 9a c0 8f be cd c6 69 3e
       -0.22161514 0.32984173 -0.2807663 0.22829743
000090 90 3f c4 bd ce df 91 3e 48 79 2b be 9c 38 ae be
       -0.09582436 0.28491062 -0.16745484 -0.34027565
0000a0 a0 72 94 3c 60 d4 d4 3c e6 1b 94 be fb 5a 8c bb
       0.018121064 0.025980175 -0.28927535 -0.0042833067
0000b0 18 f0 fe bd 88 fe f2 3e 50 64 82 3e b0 15 03 3e
       -0.12448138 0.47459817 0.25467157 0.12801242
0000c0 48 de e6 bd 14 0b f6 be 94 ef d4 be a4 ff a6 3b
       -0.112728655 -0.48055327 -0.41589034 0.0050963927
0000d0 e8 b4 93 3e 60 38 76 3d 76 e2 ad 3e 7a a7 a4 3e
       0.28848958 0.060112357 0.33961838 0.32159024
0000e0 c8 7c 43 be 44 44 7d be 28 a9 76 3e 3e 26 d4 3d
       -0.19090569 -0.24733073 0.24087965 0.103588566
0000f0 e8 0f 27 3e 00 b1 00 be 1e b6 e4 be 6a 90 a8 be
       0.16314662 -0.1256752 -0.44670194 -0.3292268
000100 8e f6 f3 3e 50 09 5e 3e c0 a9 c0 bc 24 c8 aa be
       0.47649044 0.2168324 -0.023518443 -0.3335582
000110 10 2a 96 3d 78 2f 3d be 68 63 5c 3e 6f f1 74 3e
       0.073322415 -0.18475139 0.21522295 0.23920225
000120 d0 84 8d be f4 ed 09 3e 60 d1 ea be 37 b5 c6 3d
       -0.2764039 0.13469678 -0.45862865 0.09702533
000130 58 f6 a7 be a4 b3 cc be e0 67 7d bd a6 1d 95 be
       -0.32805133 -0.39980805 -0.06186664 -0.29124182
000140 60 5e 40 bd 40 98 5f 3d 80 5f 6e be e8 1b 14 be
       -0.046965003 0.054588556 -0.23278618 -0.1446377
000150 70 38 46 3d 34 90 37 3e 0a 6b d4 be ab 8d f1 be
       0.048393667 0.17926103 -0.41487914 -0.47178397
000160 06 ee 98 be 04 4f d6 be c6 d6 d7 be 73 cd 61 be
       -0.29869097 -0.4185716 -0.42156047 -0.22051029
000170 30 49 9b 3d 84 56 d0 3e c0 c0 a8 3d 4f e4 a1 3e
       0.07582319 0.40691006 0.08239889 0.31619498
000180 20 c0 dc 3c a0 3c 50 3d 34 0c f8 3e a6 de b6 be
       0.026947081 0.050839067 0.4844681 -0.35716742
000190 a8 7e fe bd 6e a2 ea 3e b0 18 8a be 68 c5 37 3e
       -0.124265015 0.4582705 -0.2697196 0.17946398
0001a0 7c 8f 7f 3e 50 25 ed bd 50 f9 cf 3d a8 82 c2 3e
       0.24957079 -0.115793824 0.101549745 0.37990308
0001b0 c4 5e db be 66 c5 a8 3e 20 f3 cd 3e 3b ae 21 be
       -0.42845738 0.32963103 0.40224552 -0.1578912
0001c0 80 b7 32 3c 58 5d d1 bd b2 ff da be 92 f3 fa be
       0.010908008 -0.10222882 -0.42773205 -0.49013954
0001d0 54 f7 bc 3e 18 e6 af bd 3a 33 b1 be 76 e4 f0 3e
       0.36907446 -0.08588809 -0.34609395 0.47049302
0001e0 30 8c 7a bd 9c 38 10 be e6 85 96 be 3a 43 86 3e
       -0.06116885 -0.14084095 -0.2939903 0.26223165
0001f0 f0 d4 ab be e0 77 e4 3d 18 99 02 be 1b 43 6f 3c
       -0.33560896 0.11155677 -0.12753713 0.0146034015
000200 4e 66 96 3e e2 39 c1 be 8a cb a8 be 0e 26 b2 3e
       0.29374927 -0.37739474 -0.32967788 0.34794658
000210 c8 4b 72 be 6c c8 e6 3e f0 fb 8f be 80 c6 45 bd
       -0.23661721 0.45074785 -0.281219 -0.048285007
000220 c0 26 54 3d 40 23 80 be b8 a7 18 3e dc 26 56 be
       0.051794767 -0.25026894 0.1490773 -0.20913261
000230 40 4d df be f8 06 fc 3d 90 83 19 bd 81 8f 31 bd
       -0.43613625 0.12306017 -0.037478983 -0.043349747
000240 84 36 ad be 38 e4 f3 3e 70 31 53 3e 60 d1 cc 3d
       -0.33830655 0.47635055 0.20624328 0.100008726
000250 20 95 16 be 58 a7 85 3e 3c 39 a3 be 70 0b d4 be
       -0.14705324 0.26104236 -0.31879604 -0.41414976
000260 5e 66 9f 3e 40 83 8f 3c 40 e9 b9 3d 9d 33 e9 3e
       0.31132787 0.01751864 0.09077692 0.4554719
000270 00 8a be 3a 10 cb 61 3d c8 f7 3a 3e 35 f6 8e bd
       0.0014536977 0.055125296 0.18258584 -0.06980554
000280 5e d7 93 3e 98 9b 83 bd 28 d3 97 3e 5c ce 24 3e
       0.2887525 -0.064261615 0.29653287 0.16094345
000290 54 b9 40 3e a0 3b eb bc 30 a9 3e 3e 5e 0d 39 be
       0.18820697 -0.028714955 0.18619227 -0.18071505
0002a0 dc 3a 83 be cc f4 f2 be 68 c7 90 3d e5 c1 f2 be
       -0.25630844 -0.4745239 0.07069284 -0.47413555
0002b0 68 88 42 3e 88 50 9a 3d 72 09 e2 3e 96 d6 e9 3e
       0.18997347 0.07534891 0.4414783 0.4567153
0002c0 6e 97 ce be a4 f4 27 be e0 bc a5 3c 95 43 c8 be
       -0.40349907 -0.16401917 0.020231664 -0.3911406
0002d0 88 fd de 3d 10 2f ff bd 30 6f 2f be 87 f5 c3 3e
       0.10888201 -0.12460148 -0.17132258 0.3827326
0002e0 48 a1 7a 3e b0 f1 f3 3d a0 63 d5 bd 5d d2 82 be
       0.24475586 0.119113326 -0.104193926 -0.2555112
0002f0 e0 b2 ca 3e 50 5c 54 be 74 2f 23 3e ee f4 85 be
       0.39589596 -0.2073834 0.1593607 -0.2616343
000300 c4 62 2e be dc 3c ae be e0 10 d2 be 7a 25 13 3f
       -0.17029864 -0.34030807 -0.410285 0.5747906
000310 66 e0 d1 be bc d1 a7 be cc 45 87 3e b6 d5 e6 bd
       -0.40991515 -0.32777202 0.26420438 -0.11271231
000320 84 a9 5d be 54 cf a5 be 9a ce b6 3e d3 4e c7 3e
       -0.21646696 -0.3238474 0.357045 0.38927326
000330 20 42 22 bd 48 e1 2f be ec 5c be 3e f1 e6 ed 3e
       -0.039613843 -0.17175782 0.3718027 0.46465257
000340 20 35 49 3e 90 96 b4 3e b8 2d 7c 3e 39 af e2 3c
       0.19649172 0.3527112 0.24626815 0.027671443
000350 04 7e 05 be 24 4a d6 be 0c 7b 88 3e eb aa b0 bd
       -0.13036352 -0.4185344 0.26656377 -0.0862635
000360 70 20 a7 3e a8 80 76 be 90 23 df 3e 82 39 89 3e
       0.32641935 -0.24072516 0.4358182 0.26801687
000370 42 77 8e 3e 78 08 f4 3e 98 a2 1c 3e 90 8b 5d 3d
       0.27825361 0.4766271 0.152964 0.054088175

mambaLayer.conv1d.bias f4 [56]
000000 7e 8e 03 3f 3f 6e ff 3d 9e 6f 85 3e 51 f2 97 bd
       0.513893 0.124722 0.2606172 -0.07419265
000010 2d ae e2 be d0 fb de be 11 66 9a be 08 09 7c 3d
       -0.4427351 -0.43551493 -0.30155995 0.06153205
000020 01 13 fe 3e bc a8 f1 be 3a 07 f9 3e bf ad be 3e
       0.49623874 -0.47199047 0.48638326 0.37241933
000030 01 b6 c4 3e b6 a7 c0 be 59 66 05 3f 5b 1f c2 3e
       0.38420108 -0.37627953 0.52109295 0.37914547
000040 bc 2f 9b be 7d e9 b4 be 30 b2 ba 3e e8 7d c2 3e
       -0.30309856 -0.35334387 0.3646407 0.37986684
000050 2c 38 9a bc c2 12 aa be a5 d2 b5 be fe 49 96 be
       -0.018825613 -0.33217436 -0.35512272 -0.29353327
000060 44 16 65 3e e5 d5 92 be 7e 8f e6 be 15 5e 4a 3d
       0.22371775 -0.28678814 -0.4503135 0.04940613
000070 79 2c 1d 3d d2 22 37 bd 1a 76 25 3e 3c 92 ae 3d
       0.03837249 -0.04471094 0.16158333 0.08523986
000080 fa 64 fd 3e 68 00 92 3e af 82 2c 3c 28 8f de 3d
       0.49491102 0.28515935 0.010529204 0.10867149
000090 ea c0 d7 be 67 be 87 bd e0 7d ff bd 4f 91 a9 bd
       -0.4213937 -0.06628113 -0.124751806 -0.082796685
0000a0 cc 62 f1 3d e5 33 b0 be 35 bb 3d be 96 ab 82 3e
       0.11786422 -0.34414592 -0.18528445 0.25521535
0000b0 7b 2b c8 bd a1 ff 00 3f f8 ef 9e 3e 37 d2 32 3e
       -0.09773918 0.5039006 0.31042457 0.17463003
0000c0 d4 6b 3c 3f ac 61 a4 3e bf 9e d0 3e 65 d6 fc 3d
       0.7360203 0.32105768 0.40746114 0.1234558
0000d0 1d 66 70 3e 23 bd 05 3f 8f 9e dc be 61 c7 f0 be
       0.23476453 0.52241725 -0.4308972 -0.47027114
