crowd_nav/data/output/lstm-mamba/rl_model.pth (torch, 95558 bytes, 13 tensors)

lstm.weight_ih_l0 f4 [200, 13]
00000000: 8be0 2a3e ee02 0f3e 2c5d b53d 1b56 e43d
00000010: 8d61 9d3d afe8 02be 84f8 9cbd f911 b2bd
00000020: 63b9 15be a87f 35bd 6a67 86bc ec9c 8fbd
00000030: ce55 acbd ebcb 8b3d fb66 413d 6e87 56bd
00000040: 1240 4dbc c177 9d3d dbb3 973d fd3f 833d
00000050: 0a6c e93d d282 07be e39a a6bd 0499 b5bd
00000060: b675 173e f10a 623d bd69 543e 9624 6e3d
00000070: f029 5d3d d925 d23d 7db2 823d a43d 08bd
00000080: 9120 093d 8f32 f13d 163b f9bd e2f7 e13d
00000090: 96df 6ebd 3066 c2bc 0982 dbbd b6a6 453e
000000a0: b0ed 64bd a041 0fbe 1c47 033e c454 d2bd
000000b0: 6597 e73c 5f8c fb3c a9c7 0abe aaeb debc
000000c0: 7d42 573d 24ec c0bd 02b1 ed3d 5a9e 053c
000000d0: 4573 d73c a4a6 9d3d 2472 11bd 9bc7 483d
000000e0: f282 0d3e f32e 03be ffbd 68bd 514a 823d
000000f0: 0e2d 1e3e 360c fbbd dcc9 bf3c 5538 b3bd
00000100: 7b8d 183d 5016 c13d ef1b 51bd e201 41bd
00000110: 8243 5abd 2940 2dbc f1da 86bd 5e6e 0dbc
00000120: e799 b4bd 6beb cbbd caef a6bd 80b7 efbd
00000130: be54 e5b9 eb06 08be 3e7c 633d 2b93 0abd
00000140: cd1e 3cbd 241b f93c 4207 11bd 889b 443d
00000150: a8b6 dc3d 46d5 563c c0ab 48bd 6cc7 53bd
00000160: 7878 6f3d 8387 13be 2762 cc3d 65f1 93bd
00000170: e3e6 043d f0c6 e33d b672 0e3e 5aba a53d
00000180: 245c cc3d 4a37 e13d 2a7c 223d 57ca 03bc
00000190: 7382 ffbd 931d e63d 0b8c f6bd 8e92 9bbd
000001a0: bd1b 463e d55b b43d c997 e63c c813 263d
000001b0: 7378 f43d cc94 9f3d 3e36 e4bc 2b15 86bd
000001c0: 8917 7abc 4b4c 20bd 76b1 903c bbc6 4ebd
000001d0: b9c7 4cbb da8f a73d 2f78 083e 9adc f8bd
000001e0: a218 efbc 702d bbbc e122 1abb a687 95bc
000001f0: 000f d53d 42fc d43d 43c2 dabd 113d cebd
00000200: 770f 143e 5550 e9bd 4ea8 d0bc 0aab a73b
00000210: fa13 80bc c98b b93d fcef 8e3d 43ae 34bc
00000220: d820 eebb 93aa 0d3e df34 e3bd a261 aa3d
00000230: 7327 9ebc 9aa7 fa3d d32c c93d 4753 a1bd
00000240: b8ad 00be 1d1f a0bd 7426 82bd 4e98 883d
00000250: b9cc 04bd 2a16 25bd 9f88 a23d 93b5 91bd
00000260: 3a55 8cbc b793 e73d df86 5ebc 70d3 9d3b
00000270: b02c 3e3d f8f0 35bd 1b03 4cbd 4b05 2e3d
00000280: 2026 b7bd 8d0f 7e3d 6a63 05be 336c 5e3e
00000290: 0002 213d 17d3 ebbd 0fe1 3fbd 2398 943c
000002a0: 4aed 49bd b7c3 08be 8601 87bb 647f fc3d
000002b0: 2eed ca3d 95b8 143b fbfd ee3d 1824 45bc
000002c0: 3b5b 09be 61bd 8abd 6cce ddbd 92cc f83d
000002d0: 26bd 3ebd f403 25bc acff 4f3e 138b 8c3d
000002e0: c279 e9bc 9c22 21bd 7a80 a13d 3fd0 ae3d
000002f0: 6f43 4cbd 96ca 93be 1d56 4c3d c36d 873e
00000300: ff9c 08be fca7 b2bd 32ff a73d 99ce c7bd
00000310: 49b8 573d ec11 9abd 3ba5 aa3d 3007 ba3d
00000320: 2306 f53c e4b9 2ebd 4741 993d 25c5 493d
00000330: b2a1 a0bc a04b b2bb 4e30 13be 7ca8 b6bc
00000340: 9792 df3b 7d21 9abd 0182 05be ad72 f43d
00000350: bb17 a63d c132 033e 553c 69bb 7d8c 8cbd
00000360: e283 e73d ac28 b63c cb37 043e c597 14be
00000370: af2b f8bd 5d6b 89bd bc32 0cbe acc4 4e3c
00000380: c379 1d3d 7e49 963d 396c 933d 7600 503d
00000390: 604e 22bd 53dd 03be 903d 893d 3602 88bd
000003a0: e8e5 c6bd 4221 b8bd 6959 dbbc 2cd0 163e
000003b0: 93cc 6dbd d3bc fdbc 45fd 383d 61cf 3e3d
000003c0: aca7 10bd 2b51 203e e915 663d 1621 16be
000003d0: d6f4 0ebd 511d 1b3e 4a26 ec3d 851e 9fbd
000003e0: 37a2 5cbd a2d1 bfbd 3f5e 583c 1691 b2bc
000003f0: 7693 9abd 974c 1cbe 0ff0 643d 52dd 0ebe
0.16687219 0.13965961 0.08855662 0.11149236 0.07684622 -0.12784074 -0.07664588 -0.08694834
-0.146215 -0.044311196 -0.016406734 -0.07012352 -0.084148034 0.06826004 0.04721735 -0.05237525
-0.012527483 0.07688857 0.074073516 0.06408689 0.1139756 -0.13233498 -0.08135011 -0.08867076
0.14790997 0.055186216 0.20743461 0.05814036 0.053995073 0.10261125 0.063817 -0.03326191
0.033478323 0.117772214 -0.12169473 0.11033608 -0.058318697 -0.023730367 -0.107181616 0.19301876
-0.05589074 -0.13989878 0.12820095 -0.10270074 0.028270433 0.030706583 -0.13552727 -0.027211983
0.052553643 -0.0942004 0.11606027 0.00815543 0.026300082 0.076978 -0.035509244 0.049018484
0.13819483 -0.12810878 -0.05682182 0.06361831 0.15446874 -0.122581884 0.023411684 -0.08750979
0.0372443 0.09428084 -0.05105203 -0.047120936 -0.053287037 -0.010574379 -0.065847285 -0.008632271
-0.08818417 -0.09957012 -0.08151205 -0.11704922 -0.00043741422 -0.13283889 0.05553841 -0.033831757
-0.04592781 0.03040845 -0.035407312 0.04799989 0.107770264 0.013112372 -0.04899192 -0.051703855
0.058464497 -0.14407162 0.099796586 -0.07223777 0.032446753 0.11121929 0.13910946 0.08092184
0.09978512 0.10996874 0.039669193 -0.008043847 -0.12476053 0.112361096 -0.1203843 -0.075963125
0.19346519 0.08806578 0.028148549 0.04054621 0.11937036 0.077920526 -0.027857896 -0.06547006
-0.0152644 -0.03913526 0.017662745 -0.050482493 -0.0031246974 0.081817344 0.13327096 -0.121514514
-0.02918655 -0.022848815 -0.0023519325 -0.018253159 0.10403252 0.10399677 -0.10681584 -0.10070241
0.14459024 -0.11392275 -0.025470879 0.005116825 -0.015634526 0.09059865 0.06979367 -0.011027875
-0.007267099 0.138346 -0.11094069 0.08319403 -0.01930592 0.12238999 0.09823003 -0.07877212
-0.12566268 -0.078184344 -0.063549906 0.06669675 -0.0324218 -0.04030434 0.07936215 -0.07114711
-0.017130483 0.11307471 -0.01358196 0.004816465 0.046429336 -0.04441926 -0.04980765 0.042485517
-0.08942819 0.06202655 -0.13026205 0.21720962 0.039308548 -0.115148716 -0.046845492 0.01813895
-0.049298562 -0.1335591 -0.0041200547 0.12328985 0.0990852 0.0022693027 0.11669537 -0.012032531
-0.13413708 -0.067744024 -0.108303875 0.12148394 -0.046567105 -0.010071743 0.20312375 0.06862464
-0.028500441 -0.039339647 0.07885833 0.085358135 -0.049868997 -0.28865498 0.04988681 0.2645093
-0.1334114 -0.08723447 0.082029715 -0.09756202 0.052665982 -0.075229496 0.083322965 0.09083402
0.029910153 -0.042657748 0.07483154 0.049260277 -0.019608352 -0.005441144 -0.14373896 -0.022297136
0.006822895 -0.07525919 -0.13037874 0.11935935 0.08109995 0.1281233 -0.003558894 -0.068627335
0.113044515 0.02223619 0.12911908 -0.1451102 -0.12117707 -0.06709931 -0.13691229 0.012620132
0.0384462 0.07338236 0.07198376 0.05078169 -0.039625525 -0.12877397 0.06701195 -0.06641047
-0.0971182 -0.089907184 -0.026776033 0.14727849 -0.058056425 -0.030973827 0.04516341 0.04658449
-0.035316154 0.15655963 0.05617324 -0.14661059 -0.034901462 0.15147902 0.115307406 -0.07769493
-0.053865638 -0.09366156 0.013206064 -0.021797698 -0.07547657 -0.15263592 0.055893 -0.13951614

lstm.weight_hh_l0 f4 [200, 50]
00000000: d1d8 38bc 50d8 74bd 77b1 b7bb 721b 043e
00000010: 8363 ac3d 6752 86bd f120 3dbb 86c3 7e3c
00000020: 201a b0bd dec2 d53c 26d8 39bd 0640 babc
00000030: 03a8 c1bd cd43 0abe 5cf7 c7bd 9d82 31bc
00000040: f05e 98bb 1580 eebd cad8 79bd 05d3 51bd
00000050: 83f4 7bbc 21ce 713d 7c9c e83d cc3a fdbd
00000060: a683 583d 7667 0c3e 94e9 0bbe b655 003e
00000070: 36f9 bf3d 484a 453d 6e24 2e3d ae2f b1bc
00000080: 733f eebb 2e4c f1bd 2149 4abd 3591 0c3c
00000090: 85bb b6bd 062b 10bc 321b c7bd bdfa 2abc
000000a0: a070 eebd 61f9 823d 055b 5a3d 425f 023e
000000b0: c786 33bd 671b 153e ddc2 14bd cdc2 e8bd
000000c0: e62b 1dbc 88fe 183e 8dba f7bd 4e73 183e
000000d0: 924d 0bbd 50ae ab3d 75de 1c3d 3d16 fd3b
000000e0: 28b2 0e3d 81bd 0f3d 9f42 68bd b691 743d
000000f0: 92d8 01bc 6ae8 80bd 762a 0abd c98e a1bd
00000100: 5d81 ef3d 0582 943d c2c3 88bd 01e8 bb3d
00000110: c36d c43c e6e5 0d3d ca69 fe3d 572d 723d
00000120: 2ae0 90bd fccd 0c3e 1452 d8bd 622b 2a3d
00000130: 43c5 b73d 5981 91bd ac86 77bd 0609 8fbd
00000140: 14ea ffbd 1484 f6bd 2cf4 38bd a6b4 76bd
00000150: a95b bbbd e48a cf3d 31bf a3bd c444 093e
00000160: 52ee d8bd 4332 0a3e 2f84 f83d 6869 ca3d
00000170: 1579 d7bd edb6 1e3d 5e48 b73d a589 0bbe
00000180: c53b e43d 4ec6 e73d 1bc0 713c c096 62bd
00000190: 6b74 b8bd 134b b8bd 0401 8b3d 1dc8 653a
000001a0: 8c99 d43c 95e9 593d 836e 3bbd 47d3 793d
000001b0: f829 abbb 37a5 e73d 53aa 2f3d 9b25 5d3d
000001c0: 1fd2 683c 95f5 eebc 2698 c4bd 4952 50bd
000001d0: 3a74 4e3d c6c4 90bd 35dd f93d f4c1 463d
000001e0: 0138 c73d ac6f c33d 1568 6ebd 6dc8 463d
000001f0: 6e8c e83c 8988 023e 2b6e 0d3e 7f45 09be
00000200: b149 a23d 77c3 ffbc 5990 2cbd 5c89 c5bd
00000210: cd03 ef3d eb43 0b3e c0c1 95bd d9f1 d7bd
00000220: bd1e 36bd d6bb 433d ff4f 9e3d ac39 5e3d
00000230: 86d2 d43d 9e74 45bd 72dd 9abc ca89 ebbd
00000240: 8271 81bd 640e 18ba 0d15 91bd 6b5f 0d3e
00000250: 7b19 cc3d df97 1dbd 0411 873c 140b 073e
00000260: fc0f 66bd 84ce 05bd 555b c6bd 286b 993b
00000270: b9c0 a0bc 31c7 f03b aed1 8e3d 10d8 e6bd
00000280: 8176 a1bd 3450 063e 31a3 12be bed9 e0bd
00000290: fa9d 32b9 dd9f 073d 6e3b 8d3d 5f63 28bc
000002a0: 4cf1 fcbc 2997 153d 197b 1f3c 208f 08be
000002b0: 1914 be3d 88aa ab3d 05be 30bd 5cab d9bd
000002c0: 7161 e8bd 1b6a 42bd ca0f 84bd cf4f ddbd
000002d0: 8dbf 39bd 2c44 dc3d 0d04 10bd c953 56bc
000002e0: 10c1 a03d 574b 913d 5115 f73c 7324 583b
000002f0: 545b a2bc 8339 2a3c 6303 2abd 102a fc3b
00000300: ae22 2e3d b42a 7a3c 1a3f b3bd dc89 7a3c
00000310: 319e c23c edd2 e6ba 4231 7cb8 c22e dc3c
00000320: 7bbf 9a3d ab74 883d c1d1 a13d 76e8 a73c
00000330: c3d3 c53c d0af 0ebe d75e 893d aa65 663d
00000340: 58bf f03d 1795 89bd cf2d 83bc 0f5b 823d
00000350: 3701 53bc 6502 563d b2ef 83bb facb da3d
00000360: 3821 0a3e 9da2 dabc 1449 65bd 4db8 073e
00000370: 6947 f1bd c856 cabb 519a bc3d 97de f63d
00000380: e58d b43c 73e9 d03c 2a99 cdbd dd50 bc3d
00000390: 0152 29bd 27de 823d cf94 1e3e 0d40 0dbd
000003a0: 2203 133e ace7 d7bd 9505 92bc 87b6 c3bd
000003b0: 8b11 e23d 6d15 00bd 2bb7 b03d a5d8 a03d
000003c0: 6595 26bd e7d2 f4bc b624 7e3d e163 f3bd
000003d0: fd38 d2bd 66de 013e c25a 9e3d cb90 963d
000003e0: f474 04be 67b9 b0bd 7427 363d 656b 1abd
000003f0: b037 c33d de80 8e3c 08ca f03d cda9 65b9
-0.011282162 -0.059776604 -0.0056058723 0.12901095 0.08417418 -0.06558686 -0.0028858746 0.015549546
-0.08598733 0.026093896 -0.04537215 -0.022735607 -0.09455874 -0.13502426 -0.09763977 -0.010834363
-0.0046499893 -0.116455235 -0.06099776 -0.051226635 -0.01537812 0.05903447 0.11357972 -0.1236473
0.052859925 0.13711342 -0.13663322 0.12532696 0.09373705 0.048166543 0.04251521 -0.02162918
-0.0072707473 -0.11782108 -0.049386147 0.008579542 -0.08922485 -0.00879932 -0.09721984 -0.010435757
-0.11642575 0.063952215 0.05330946 0.1273165 -0.043829706 0.14561234 -0.03631865 -0.1136528
-0.009592986 0.14940846 -0.120961286 0.14887735 -0.034009524 0.08382857 0.03829809 0.0077235983
0.03483787 0.035092834 -0.05670416 0.059709273 -0.00792517 -0.062943295 -0.0337319 -0.07888562
0.11694596 0.07251362 -0.06677963 0.091751106 0.02397812 0.034643076 0.124225214 0.05912527
-0.07074006 0.13750452 -0.1056253 0.04154528 0.089731716 -0.07104749 -0.060431167 -0.06984143
-0.12495819 -0.12036911 -0.045154735 -0.060230874 -0.09148342 0.10133913 -0.07995451 0.13405138
-0.10592331 0.13495736 0.12134587 0.09883386 -0.105211414 0.03874867 0.0894935 -0.13626726
0.11144213 0.113171205 0.014755274 -0.055319548 -0.0900658 -0.08998694 0.06787303 0.0008765476
0.025952123 0.053201277 -0.04575969 0.060992505 -0.005223509 0.11310809 0.042887043 0.05399094
0.014210253 -0.029169837 -0.095993325 -0.050859723 0.05040381 -0.070687816 0.12200395 0.048524812
0.09727479 0.09542784 -0.05820473 0.048530985 0.028387275 0.12747397 0.13811557 -0.13405417
0.07924212 -0.031221135 -0.04212985 -0.0964534 0.11670647 0.13600127 -0.073123455 -0.10544176
-0.044462908 0.047786556 0.07730102 0.05425422 0.10391717 -0.048206918 -0.018904421 -0.115008906
-0.06320478 -0.0005800484 -0.07084093 0.1380593 0.099657975 -0.038474914 0.016487606 0.1318782
-0.056167588 -0.03266765 -0.09685389 0.0046819635 -0.019623147 0.007347964 0.06973587 -0.112716794
-0.07883931 0.13116533 -0.14320065 -0.10979031 -0.00017034254 0.033111442 0.06896101 -0.010277598
-0.030876778 0.03652111 0.009733939 -0.13335848 0.09281177 0.08382136 -0.043149967 -0.10628387
-0.113467105 -0.04746447 -0.06448324 -0.10806238 -0.045348693 0.1075519 -0.035160113 -0.013081499
0.07849324 0.07094448 0.030161532 0.003298071 -0.01981894 0.010389688 -0.041507136 0.007695444
0.042513542 0.01526897 -0.0875227 0.015291657 0.023757072 -0.0017610468 -6.0127357e-05 0.026877765
0.07556053 0.06662878 0.079013355 0.020496588 0.024148827 -0.13934255 0.067075424 0.0562493
0.11755246 -0.0671789 -0.016013054 0.06365024 -0.012878708 0.052248377 -0.0040263766 0.10683437
0.13489234 -0.026688868 -0.055977896 0.13253899 -0.117811985 -0.006174896 0.09209121 0.120541744
0.022040317 0.025501942 -0.10038979 0.09195111 -0.04133797 0.063900284 0.15486453 -0.03448491
0.14356664 -0.10542235 -0.017824927 -0.09556299 0.11038502 -0.031270433 0.086286865 0.07853822
-0.040669817 -0.029885722 0.06204673 -0.11884285 -0.10264776 0.12682495 0.077321544 0.07351836
-0.12935239 -0.08629113 0.04447122 -0.037700076 0.09532106 0.017395433 0.117572844 -0.00021902398

lstm.bias_ih_l0 f4 [200]
00000000: 05ee d2bc 2fca de3d faa1 c93d 09ed aa3d
00000010: 2d40 83bd 743f eb3d eef9 78bd 6382 49bc
00000020: 1d7d b93d 2c33 033e f8b2 cd3d bafc 8f3c
00000030: ecbf a0bd 1dd7 963d 2702 d63d 5c4f 38bd
00000040: 985c 41bd 69dc f8bc 9d27 0e3e 5adb 81bd
00000050: 7c9f f9bd 79f3 b0bd 8356 d23d 0323 b5bd
00000060: 8d94 923d c7b3 d33d 3722 943d fe4b e6bd
00000070: 21f6 c0bd 4ec6 f1bc f3d1 2ebd b8cd f13d
00000080: 240e 953d e704 c6bd 4e78 0cbd 6042 83bd
00000090: a799 bcbc b7c2 333c 0700 97bd 4562 ce3d
000000a0: 8c1b f8bb bdb2 07be b5b8 aa3d fd1f 9abd
000000b0: b6e4 3b3d c508 a5bd 4e5b f53d b5ec 153d
000000c0: ad3e 9b3d 9431 313d 1343 823c 2c08 1d3e
000000d0: 0a3f 09be 2389 373d 9693 06be 2318 efbd
000000e0: b0a0 04be a870 363d 6ab1 fb3d 927d ed3d
000000f0: 03f3 07be e4a2 da3d 4e05 8abc 98cf 073e
00000100: 5cd4 e83d e1af 4bbd 5029 eabd f7b8 673d
00000110: fdf8 21bc 1867 bfbc 23c3 223c 52e8 6c3d
00000120: 7b40 0b3e e829 c23d 829f 6d3c 738a 84bd
00000130: b8f1 ac3d 7258 ed3d a28d e3bd e50b 163d
00000140: 9603 fbbc e111 09be ce35 4e3d 742d c7bd
00000150: b665 a13d 04cc e0bd 3025 98bd ffb6 943d
00000160: ed23 023e 129b 943d 69fa d73c 8e2c 9bbd
00000170: 4719 98bd 668d e1bd 9177 073e 5471 55bd
00000180: 545f 4c39 7fb3 73bd 0af9 00be 1d26 bf3c
00000190: b888 673d 028f 2b3e a6c3 8cb9 8ef3 203d
000001a0: e125 953d 1490 2cbe feda 35bd d5a1 e63d
000001b0: 295f 52bd c974 74bb 7478 b03c be42 7abd
000001c0: 7aee 04bd ee54 f5bd 70e1 afbd d574 d43c
000001d0: 2e97 df3d 25e1 fd3c 6d8f bc3c 0bd8 853d
000001e0: 21cc f4bd a30d 303d e61c 2dbe 8544 b3bd
000001f0: 5643 81bd 437b fe3d 3ecb cc3d fc45 1ebd
00000200: 5a67 5a3d e276 cdbc ef99 6fbd 484a 50bd
00000210: 69b7 3ebc a026 debd e7cc 073d 1706 c6bd
00000220: f62f 413c 6476 15be 64a2 41bd b6d8 a0bc
00000230: bae1 243c 5228 1fbe 75ca 193c 189c 1b3e
00000240: 3d05 21be 2176 e23c a0a1 b63d d05a f53c
00000250: 5d62 95bc e0ac b03c ed3d e5bd 2a58 243e
00000260: 903d 033e 88fe 3dbd 334c d33d 2054 cdbd
00000270: 706e f3bd 4e1c c03d e901 313d 6cf9 44bd
00000280: b877 d63d 7dcc 0bbd 47d4 a0bd 9963 da3d
00000290: cd9c 0c3e 1744 e8bd 2142 c73d 8e17 b13d
000002a0: 9b30 913d 3809 1e3e 77ba 85bc 201b cbbd
000002b0: 8924 153c 7428 3f3d 3555 36bc ea39 083e
000002c0: 03e3 9cbd b37b 113e 3873 063e 3e52 a03d
000002d0: b931 583d 202b 1a3d 20dd 923d 8dbc b73c
000002e0: 17b8 babd 95f1 eebd 20fe fbbd 0acf eb3d
000002f0: af95 e1bd 9ce0 153e d5fb ca3d e40d d5bd
00000300: e042 053e 487c ecbd 4278 8abd 58b4 a7bd
00000310: 3a00 9cbd 6fea 7bbb 8f2b 223c 60e1 293e
-0.025748262 0.10878407 0.09845348 0.08345992 -0.06408725 0.11486712 -0.060785227 -0.012299153
0.090570666 0.1281249 0.10043901 0.017576564 -0.07849106 0.07365248 0.10449629 -0.044997558
-0.047207445 -0.030378537 0.13882299 -0.06340666 -0.12188622 -0.08640189 0.10270407 -0.088445686
0.0715724 0.10337024 0.072330885 -0.11244963 -0.09421945 -0.029513504 -0.042680692 0.11806816
0.07278088 -0.09668904 -0.03429442 -0.064091444 -0.023022486 0.010971717 -0.07373052 0.10077337
-0.007571643 -0.13251777 0.08336011 -0.075256325 0.045872413 -0.08058313 0.119803056 0.036602695
0.07580314 0.043260172 0.015901124 0.15335149 -0.13402954 0.04480852 -0.13142237 -0.116745256
-0.12951922 0.04454103 0.122896984 0.11596216 -0.13276295 0.106756 -0.016848233 0.13262784
0.11368629 -0.049728278 -0.11433661 0.05657288 -0.009886024 -0.023364589 0.0099342195 0.057838745
0.13598816 0.09480649 0.014503362 -0.064717196 0.08444542 0.11589135 -0.11110999 0.036632437
-0.030641358 -0.13385727 0.05034428 -0.09725466 0.07880728 -0.10976413 -0.07428968 0.07261466
0.12709017 0.0725614 0.026364522 -0.075768575 -0.07426696 -0.11013298 0.13229205 -0.05211003
0.00019490469 -0.059497353 -0.12595001 0.023333604 0.05652687 0.16753772 -0.0002684865 0.03929477
0.072826155 -0.16851836 -0.0443983 0.11261336 -0.051360283 -0.0037301055 0.021541812 -0.061098807
-0.03245399 -0.1197909 -0.08587921 0.025934616 0.10917507 0.030991146 0.02301761 0.065353476
-0.11952997 0.042981755 -0.16905555 -0.087533034 -0.063116714 0.12425854 0.09999703 -0.03864096
0.05332122 -0.025081102 -0.058496412 -0.05085209 -0.011640408 -0.10847211 0.033154394 -0.0966913
0.01179122 -0.14595944 -0.04727401 -0.019634586 0.010063583 -0.15542725 0.009386648 0.15196264
-0.15724654 0.027644219 0.08917546 0.02995053 -0.01823538 0.021566808 -0.11193452 0.16049257
0.12816453 -0.046385318 0.10317268 -0.10025811 -0.11886299 0.09380399 0.043214712 -0.04808943
0.10472053 -0.034130562 -0.07852989 0.10663528 0.1373169 -0.11341112 0.0972941 0.08647071
0.07089349 0.15433204 -0.016324265 -0.09917283 0.009102949 0.04666944 -0.011128713 0.13303342
-0.076604865 0.14207344 0.1312989 0.078281865 0.052781794 0.037638783 0.071710825 0.022428775
-0.091171436 -0.11667172 -0.1230433 0.11514099 -0.11014878 0.14636463 0.099113144 -0.1040304
0.13013792 -0.11547142 -0.067612186 -0.08188695 -0.07617231 -0.0038439294 0.0098980805 0.1658988

lstm.bias_hh_l0 f4 [200]
00000000: 11f2 83bd 6f3f 1f3e 3010 aabc 512a b03b
00000010: 4680 2c3d 125d 94bc fc8e 05bd 931a 853d
00000020: 20fc 213d 0682 1b3c 8170 d7bd 9c5b fbbc
00000030: 61b2 e9bd 4cf5 22bd 91a8 a8bc b258 97bd
00000040: 0098 093e c462 99bd 64d2 abbd 145f 713d
00000050: 86c9 fc3d 4b55 f1bd 90b5 ee3b c75b 49bd
00000060: fbe8 e83d 75e1 79bd f13f a8bd fdd4 7bbd
00000070: 09db c63d bede f93d afdb ddbc 5e38 eb3d
00000080: 1ad6 8d3d 1dbe c23d 2707 133e 3392 c5bd
00000090: fbd9 8d3d 5db3 45bd e774 db3d f6ef e1bd
000000a0: e127 76bd be66 a2bd 75c5 b23d a2a1 0e3e
000000b0: 0253 8cbb 5b7e cd3d 107f 94bd 9390 a23c
000000c0: f10e 0bbe aa95 d4bc 6676 49bd 2e04 83bd
000000d0: de5e ebbc f010 88bd b996 663d 3969 6f3d
000000e0: c9c7 cabc b2aa 963d 7893 cebd 557f bf3d
000000f0: d405 c0bd b32c f13d f1ea ac3d 0e81 1e3d
00000100: 1e92 b2bd 232b 0b3e bdfb ca3c 19c6 0bbe
00000110: 814b 17bd 3993 b63d bf80 cf3d 4503 0ebe
00000120: cf60 153e 7cfe 2b3d 6d0f 743d 4f01 063e
00000130: f7f4 053d fec7 97bd 0f3c 013d e36b 3cbc
00000140: 7ca1 ab3d 0115 d9bd 08d7 18bd 09c9 a73d
00000150: f2e7 9bbd 0604 a3bd eda7 cb3d 27bb 3dbd
00000160: bc0b 54bb 40ad 08be bbae 92bd a64f 24bd
00000170: 9ef7 043e 0489 143e f221 84bd c846 963d
00000180: 6e05 033d 76bb b2bd b29c d33d 7b7a e73d
00000190: f671 41bd 6066 303e 171a a73d ca8c 473d
000001a0: 649f fbbd 7bfb 863d 763e 1fbd e608 de3d
000001b0: 650f 41be abb6 d6bd f92f 863d fae9 673d
000001c0: e977 81bb 320f 73bd 053e ab3d 438f f63d
000001d0: 7860 d9bd 3d51 bd3d 64b5 2fbc 1259 49be
000001e0: 7c14 be3d be6c e63d 7a0a e6bd a75f 98bc
000001f0: 00b3 61bc 5423 553d 70c7 c1bd f2e4 37be
00000200: 65d7 1cbe 90b1 233e 8e44 073e 7db3 c83d
00000210: f024 bcbd 506d d7bd 5304 a8bd 2f1b 44bc
00000220: 7ea8 fabd c5f0 a53d f701 d43c b61c c7bd
00000230: 8e8b a33d 7c87 47bc 1d3c 0e3e 58e3 99bd
00000240: 4281 12be c773 cf3b 0128 4dbd 1711 423c
00000250: a6ef 213c c5a7 8b3d 58e8 663d 0271 2bbd
00000260: 3375 af3d 00fd 023e f3cf d3bd 0525 1fbd
00000270: e495 983c 24bb b0bd 1e33 463d d85d 38bd
00000280: 4dc9 2c3d e6cd 8bbc ca1b a83d 1651 493c
00000290: 2437 c5bd 0027 d3bd 5e9a 08be b656 043e
000002a0: cff4 143d 413c 283e da9e b63d dcf4 3d3c
000002b0: 1f0e 26bc 05a1 e2bc 4670 f83d 988a 483d
000002c0: 4f12 5ebd 9311 133e 0fc2 153d 5c38 c33d
000002d0: 1944 f33d a028 173e be2a fd3c a4a6 903d
000002e0: 4dfd 65bd 5f88 ce3d a97e 11bc beb3 99bd
000002f0: 84bb bebc d1b6 91bd 4543 db3d 97cb 12bc
00000300: 49e6 0f3e 8751 2fbb 511f 193e 437d 62bc
00000310: 7454 66bd 699b 163e f992 073e 3958 67bd
-0.06442655 0.15551542 -0.020759672 0.0053761383 0.04211452 -0.018110786 -0.032607064 0.06499209
0.039547086 0.009491449 -0.10519505 -0.030683331 -0.11410976 -0.039784715 -0.020588191 -0.07389964
0.1343689 -0.07489541 -0.08389738 0.058928564 0.12343125 -0.117838465 0.0072848275 -0.04915979
0.113725625 -0.06100603 -0.08215321 -0.06148242 0.097097464 0.12200688 -0.027082292 0.114853606
0.06925602 0.095089175 0.14358197 -0.09647026 0.06926342 -0.048266757 0.10715657 -0.11032097
-0.060096625 -0.07929753 0.08729068 0.13928846 -0.0042823562 0.10033866 -0.07250798 0.019844329
-0.13579918 -0.025950272 -0.04918518 -0.063972816 -0.02873176 -0.066438556 0.056296084 0.058449958
-0.024753468 0.07356776 -0.10086721 0.093504585 -0.093761116 0.11776104 0.08443249 0.038697295
-0.08719276 0.13590674 0.024778241 -0.13649787 -0.03693724 0.08914799 0.10131978 -0.13868435
0.14587711 0.041990742 0.059585024 0.13086437 0.03270432 -0.07411192 0.031551417 -0.011500332
0.0838041 -0.10599709 -0.037314445 0.08192641 -0.076125994 -0.07959752 0.09944139 -0.04632106
-0.0032355627 -0.1334734 -0.071622334 -0.04011502 0.12985083 0.14505392 -0.06451787 0.07337719
0.0319876 -0.087271616 0.10332622 0.11302658 -0.047227822 0.17226553 0.08159273 0.04871825
-0.12286261 0.06590935 -0.038877927 0.10841541 -0.18853529 -0.1048406 0.06552119 0.05661962
-0.003951062 -0.059340663 0.08361439 0.12039044 -0.10614103 0.092440106 -0.010724399 -0.19662884
0.09281251 0.1125121 -0.11232467 -0.018600298 -0.013775587 0.052035645 -0.09461868 -0.1795843
-0.15316541 0.15985703 0.13209745 0.0979986 -0.09186733 -0.105188966 -0.0820395 -0.011969372
-0.122391686 0.08102564 0.025879843 -0.09722273 0.07985602 -0.012178298 0.13890119 -0.075140655
-0.1430712 0.0063309404 -0.05008698 0.011844895 0.009883797 0.06819109 0.056373924 -0.04185582
0.08567276 0.12791824 -0.103423975 -0.038853664 0.01862616 -0.08629444 0.048388593 -0.04501137
0.042184163 -0.017065953 0.08208425 0.012287399 -0.09629658 -0.10310173 -0.13340136 0.12923703
0.03636628 0.16429235 0.08917017 0.011594024 -0.010135203 -0.02766467 0.121307895 0.0489603
-0.05421668 0.14362173 0.03656202 0.09532234 0.11878223 0.14761591 0.03090417 0.07063034
-0.05614977 0.100846045 -0.008880296 -0.07504986 -0.023282774 -0.071149476 0.1070619 -0.008959672
0.1405269 -0.0026751475 0.14953353 -0.01382381 -0.056232885 0.14707722 0.1323966 -0.05648062

mambaLayer.A_log f4 [56, 16]
00000000: 0000 0000 1872 313f 549f 8c3f 1872 b13f
00000010: 1002 ce3f 6058 e53f 9613 f93f 9215 0540
00000020: 549f 0c40 8e5d 1340 1e77 1940 b608 1f40
00000030: 2128 2440 51e6 2840 b250 2d40 1872 3140
00000040: 0000 0000 1872 313f 549f 8c3f 1872 b13f
00000050: 1002 ce3f 6058 e53f 9613 f93f 9215 0540
00000060: 549f 0c40 8e5d 1340 1e77 1940 b608 1f40
00000070: 2128 2440 51e6 2840 b250 2d40 1872 3140
00000080: 0000 0000 1872 313f 549f 8c3f 1872 b13f
00000090: 1002 ce3f 6058 e53f 9613 f93f 9215 0540
000000a0: 549f 0c40 8e5d 1340 1e77 1940 b608 1f40
000000b0: 2128 2440 51e6 2840 b250 2d40 1872 3140
000000c0: 0000 0000 1872 313f 549f 8c3f 1872 b13f
000000d0: 1002 ce3f 6058 e53f 9613 f93f 9215 0540
000000e0: 549f 0c40 8e5d 1340 1e77 1940 b608 1f40
000000f0: 2128 2440 51e6 2840 b250 2d40 1872 3140
00000100: 0000 0000 1872 313f 549f 8c3f 1872 b13f
00000110: 1002 ce3f 6058 e53f 9613 f93f 9215 0540
00000120: 549f 0c40 8e5d 1340 1e77 1940 b608 1f40
00000130: 2128 2440 51e6 2840 b250 2d40 1872 3140
00000140: 0000 0000 1872 313f 549f 8c3f 1872 b13f
00000150: 1002 ce3f 6058 e53f 9613 f93f 9215 0540
00000160: 549f 0c40 8e5d 1340 1e77 1940 b608 1f40
00000170: 2128 2440 51e6 2840 b250 2d40 1872 3140
00000180: 0000 0000 1872 313f 549f 8c3f 1872 b13f
00000190: 1002 ce3f 6058 e53f 9613 f93f 9215 0540
000001a0: 549f 0c40 8e5d 1340 1e77 1940 b608 1f40
000001b0: 2128 2440 51e6 2840 b250 2d40 1872 3140
000001c0: 0000 0000 1872 313f 549f 8c3f 1872 b13f
000001d0: 1002 ce3f 6058 e53f 9613 f93f 9215 0540
000001e0: 549f 0c40 8e5d 1340 1e77 1940 b608 1f40
000001f0: 2128 2440 51e6 2840 b250 2d40 1872 3140
00000200: 0000 0000 1872 313f 549f 8c3f 1872 b13f
00000210: 1002 ce3f 6058 e53f 9613 f93f 9215 0540
00000220: 549f 0c40 8e5d 1340 1e77 1940 b608 1f40
00000230: 2128 2440 51e6 2840 b250 2d40 1872 3140
00000240: 0000 0000 1872 313f 549f 8c3f 1872 b13f
00000250: 1002 ce3f 6058 e53f 9613 f93f 9215 0540
00000260: 549f 0c40 8e5d 1340 1e77 1940 b608 1f40
00000270: 2128 2440 51e6 2840 b250 2d40 1872 3140
00000280: 0000 0000 1872 313f 549f 8c3f 1872 b13f
00000290: 1002 ce3f 6058 e53f 9613 f93f 9215 0540
000002a0: 549f 0c40 8e5d 1340 1e77 1940 b608 1f40
000002b0: 2128 2440 51e6 2840 b250 2d40 1872 3140
000002c0: 0000 0000 1872 313f 549f 8c3f 1872 b13f
000002d0: 1002 ce3f 6058 e53f 9613 f93f 9215 0540
000002e0: 549f 0c40 8e5d 1340 1e77 1940 b608 1f40
000002f0: 2128 2440 51e6 2840 b250 2d40 1872 3140
00000300: 0000 0000 1872 313f 549f 8c3f 1872 b13f
00000310: 1002 ce3f 6058 e53f 9613 f93f 9215 0540
00000320: 549f 0c40 8e5d 1340 1e77 1940 b608 1f40
00000330: 2128 2440 51e6 2840 b250 2d40 1872 3140
00000340: 0000 0000 1872 313f 549f 8c3f 1872 b13f
00000350: 1002 ce3f 6058 e53f 9613 f93f 9215 0540
00000360: 549f 0c40 8e5d 1340 1e77 1940 b608 1f40
00000370: 2128 2440 51e6 2840 b250 2d40 1872 3140
00000380: 0000 0000 1872 313f 549f 8c3f 1872 b13f
00000390: 1002 ce3f 6058 e53f 9613 f93f 9215 0540
000003a0: 549f 0c40 8e5d 1340 1e77 1940 b608 1f40
000003b0: 2128 2440 51e6 2840 b250 2d40 1872 3140
000003c0: 0000 0000 1872 313f 549f 8c3f 1872 b13f
000003d0: 1002 ce3f 6058 e53f 9613 f93f 9215 0540
000003e0: 549f 0c40 8e5d 1340 1e77 1940 b608 1f40
000003f0: 2128 2440 51e6 2840 b250 2d40 1872 3140
0.0 0.6931472 1.0986123 1.3862944 1.609438 1.7917595 1.9459102 2.0794415
2.1972246 2.3025851 2.3978953 2.4849067 2.5649493 2.6390574 2.7080503 2.7725887
0.0 0.6931472 1.0986123 1.3862944 1.609438 1.7917595 1.9459102 2.0794415
2.1972246 2.3025851 2.3978953 2.4849067 2.5649493 2.6390574 2.7080503 2.7725887
0.0 0.6931472 1.0986123 1.3862944 1.609438 1.7917595 1.9459102 2.0794415
2.1972246 2.3025851 2.3978953 2.4849067 2.5649493 2.6390574 2.7080503 2.7725887
0.0 0.6931472 1.0986123 1.3862944 1.609438 1.7917595 1.9459102 2.0794415
2.1972246 2.3025851 2.3978953 2.4849067 2.5649493 2.6390574 2.7080503 2.7725887
0.0 0.6931472 1.0986123 1.3862944 1.609438 1.7917595 1.9459102 2.0794415
2.1972246 2.3025851 2.3978953 2.4849067 2.5649493 2.6390574 2.7080503 2.7725887
0.0 0.6931472 1.0986123 1.3862944 1.609438 1.7917595 1.9459102 2.0794415
2.1972246 2.3025851 2.3978953 2.4849067 2.5649493 2.6390574 2.7080503 2.7725887
0.0 0.6931472 1.0986123 1.3862944 1.609438 1.7917595 1.9459102 2.0794415
2.1972246 2.3025851 2.3978953 2.4849067 2.5649493 2.6390574 2.7080503 2.7725887
0.0 0.6931472 1.0986123 1.3862944 1.609438 1.7917595 1.9459102 2.0794415
2.1972246 2.3025851 2.3978953 2.4849067 2.5649493 2.6390574 2.7080503 2.7725887
0.0 0.6931472 1.0986123 1.3862944 1.609438 1.7917595 1.9459102 2.0794415
2.1972246 2.3025851 2.3978953 2.4849067 2.5649493 2.6390574 2.7080503 2.7725887
0.0 0.6931472 1.0986123 1.3862944 1.609438 1.7917595 1.9459102 2.0794415
2.1972246 2.3025851 2.3978953 2.4849067 2.5649493 2.6390574 2.7080503 2.7725887
0.0 0.6931472 1.0986123 1.3862944 1.609438 1.7917595 1.9459102 2.0794415
2.1972246 2.3025851 2.3978953 2.4849067 2.5649493 2.6390574 2.7080503 2.7725887
0.0 0.6931472 1.0986123 1.3862944 1.609438 1.7917595 1.9459102 2.0794415
2.1972246 2.3025851 2.3978953 2.4849067 2.5649493 2.6390574 2.7080503 2.7725887
0.0 0.6931472 1.0986123 1.3862944 1.609438 1.7917595 1.9459102 2.0794415
2.1972246 2.3025851 2.3978953 2.4849067 2.5649493 2.6390574 2.7080503 2.7725887
0.0 0.6931472 1.0986123 1.3862944 1.609438 1.7917595 1.9459102 2.0794415
2.1972246 2.3025851 2.3978953 2.4849067 2.5649493 2.6390574 2.7080503 2.7725887
0.0 0.6931472 1.0986123 1.3862944 1.609438 1.7917595 1.9459102 2.0794415
2.1972246 2.3025851 2.3978953 2.4849067 2.5649493 2.6390574 2.7080503 2.7725887
0.0 0.6931472 1.0986123 1.3862944 1.609438 1.7917595 1.9459102 2.0794415
2.1972246 2.3025851 2.3978953 2.4849067 2.5649493 2.6390574 2.7080503 2.7725887

mambaLayer.D f4 [56]
00000000: 862f 7f3f 7e02 803f 73c6 803f 580f 803f
00000010: ebf0 7f3f 610d 803f 2812 803f 5626 803f
00000020: f93f 833f ffd5 7f3f 5466 803f 253a 803f
00000030: c419 803f f1ac 7f3f f84d 813f 9f94 803f
00000040: 8136 803f 92b0 7e3f 8bcb 7e3f aedf 7f3f
00000050: d89a 7f3f 3938 7f3f 6b20 853f dc1f 803f
00000060: 0a17 803f 16fe 803f 2eec 833f 49f0 7f3f
00000070: e288 803f db03 803f 2b28 803f 4ab1 7f3f
00000080: 5720 803f 5adf 7f3f dabf 7f3f f8b5 7f3f
00000090: 173d 813f bf83 7f3f 1bf4 7f3f c6d3 7f3f
000000a0: 1afa 7f3f d4e3 7f3f 5db3 7f3f 3a71 803f
000000b0: 80bd 7f3f c2f8 863f db0d 803f f265 7f3f
000000c0: 1d00 b63f f874 803f 5949 803f 25ce 7f3f
000000d0: 2e0f 803f 7505 823f 7644 803f f4fc 7f3f
0.9968189 1.000076 1.0060562 1.0004683 0.99976987 1.0004083 1.0005541 1.0011699
1.0253898 0.9993591 1.0031228 1.0017744 1.0007863 0.9987326 1.0101919 1.0045356
1.0016633 0.99488175 0.9952933 0.99950683 0.9984565 0.99695164 1.0400518 1.0009723
1.0007031 1.0077541 1.0306451 0.9997602 1.0041773 1.0001177 1.0012258 0.99879897
1.0009869 0.9995018 0.9990212 0.9988704 1.0096768 0.99810404 0.9998185 0.99932516
0.99991 0.99957013 0.9988306 1.0034554 0.9989853 1.0544665 1.0004228 0.9976493
1.4218785 1.0035696 1.0022384 0.99923927 1.0004632 1.0157915 1.0020893 0.9999535

mambaLayer.in_proj.weight f4 [112, 56]
00000000: 00a5 c4bc 85f4 b0bd baea dfbc 4f47 b33d
00000010: e2f3 07be 0921 ab3d c149 9f3d 7ea2 483c
00000020: 19d0 b8bd d2bf 4c3d f5cb 9cbd 3f20 5b3c
00000030: f47f 023d 7f06 033d 8265 b1ba 84e6 433c
00000040: 406c da3d c755 45bd f73b b23d 09c7 00be
00000050: 921b cdbd 82b1 013d 367c d0bd 2599 c5bd
00000060: 5d5f b7bd 9c39 403d 96d0 dc3d bcaf a0bb
00000070: 08f0 d33c c110 033e 43fa b5bd d302 c53d
00000080: d2fe 0d3d 0184 173d a843 fd3c 4100 993b
00000090: 6c51 4cbd 1c4c 0abd 21be 4abb 64f7 3dbd
000000a0: ba93 90bd 8666 a8bc 7c99 d53d cb60 113d
000000b0: 049d 97bd 4c01 6abc 7b58 7b3d fccd 8a3d
000000c0: d2b2 43bd f45d 52bd e532 973c 241b 00be
000000d0: 9b06 d5bd 70c7 8e3c 39cd e13d 508e 983c
000000e0: a628 073e 95bf 9cbd fd59 ccbd 0982 f2bc
000000f0: d738 443d 5d30 a23d 500f b13d 7135 19bd
00000100: 5bf1 c13d 76f1 c3bd 4713 97bd df86 e4bd
00000110: 3fa6 24bd 02ed e13d 5f83 cebd e178 66bd
00000120: 7a5a 9c3d dabd babd 1f5b e9bd a0a0 f6bd
00000130: f985 d23d 2e02 bebd 1430 07bc 2d79 093d
00000140: d889 883d e274 91bd 4f4a dc3c f9de ea3c
00000150: bc32 e73c 0bc9 9c3c 0f05 813d a138 a2bd
00000160: 885b a83b 6f5e 9dbd 4909 bbbd 2d95 3abd
00000170: 16ed dc3d ca64 473c f1ac a03d 1b2a 9bbc
00000180: 50ba 5bbd 9976 e8bd 23fa 90bd db3c af3d
00000190: 960b e63d b13c 083c 98ae 053e 5889 e3bd
000001a0: 48ef 063e b2c3 21bd 0995 1bbd 2484 c4bd
000001b0: b45c 463d 86c6 8f3d 9025 f3bc b7c1 b1bd
000001c0: 8624 ce3c c0b0 04bd 24f1 14bd 8e36 e33c
000001d0: c46a 023e bc64 953d 5399 9fbd f469 bbbd
000001e0: dc8b ba3d 0637 13bd e3c6 d1bc 2472 d6bd
000001f0: f919 053e a981 a43d bb6c 1abd 5582 cfbd
00000200: 7923 51bd 8895 583c e7a0 e33d b563 ef3d
00000210: 3170 dd3d b8a4 f4bc 1c0c f4bd f28d bdbd
00000220: d77c df3d 20a7 06be ad5c b23d 58b3 debd
00000230: 1799 f8bd 28e2 013e b056 67bd 0373 113d
00000240: 0587 93bd 6aac 663d db31 913c 2a55 9a3d
00000250: 4db2 04bd b69e 053e 37d4 e43d a922 01be
00000260: 076b c0bd a930 00be 56c1 93bd 9bec 6d3d
00000270: e262 fc3d bc4c 59bd 085c 02be b5eb 043e
00000280: 79de 913c 9e46 963d 2b9f 92bd 62f4 ecbc
00000290: 0e2d ef3d b9b6 ef3d 82e2 943d e1d9 033c
000002a0: bf96 ecbd f342 b53d 6b12 bfbd cd81 50bd
000002b0: 30de 3e3d 570f 87bc 9113 1e3c 8ea8 a43d
000002c0: 4187 c2bd bdef 283d 3d1d 90bd 4554 443d
000002d0: 3bd4 e0bd a3f5 24bd f74c 803c 6513 953c
000002e0: f982 10bc f005 a0bd 82fc e23c cb54 a73d
000002f0: 21b6 9bbc f71a efbc ff5b a9bc 3d3a fc3d
00000300: 9d2f b8bd f755 8a3d 73a2 babd b973 033e
00000310: 90c3 a43d 3b3a 8a3d fa1a 58bd ce52 023d
00000320: 6411 6dbd ad73 f4bd 240d be3d 52e3 f63d
00000330: cc5f 393d 9538 cfbd 495f b23d 0063 083e
00000340: 87fe e1bd 4c6e ca3d 52ee 94bd 7d1e cbbc
00000350: 1476 9dbd 27ee 27bd 5589 f9bd 3fa4 023d
00000360: 89d5 c6bd 1c5b 86bb dd89 813d afde fdbb
00000370: eeef e03d 56e7 13bd a752 743c 6d6a febc
00000380: a7b9 93bd ac0c 0b3d 015c 52bc 94b0 dfbd
00000390: 8dbc cebd 2aa0 6cbc 2e19 67bd 61b6 d2bb
000003a0: 87b1 aabd 350f b63d 9919 80bb f9e7 f23c
000003b0: cb7b ea3c 6d61 d1bc bcea 283c 8671 01be
000003c0: 6d21 133d f861 803d 76d3 aa3c 2db4 013e
000003d0: 418c cbbd e0f7 aebd e60a cabb 2f45 c73d
000003e0: c9e1 ee3c bafe 033e 177c 443d 2eb8 883c
000003f0: ef0e e83d 991f 9a3d 565a 83bd 0a3d e23d
-0.02400446 -0.086403884 -0.027333606 0.087538354 -0.13276628 0.0835591 0.07777739 0.012245772
-0.090240665 0.04998762 -0.07656089 0.013374387 0.031860307 0.031988617 -0.001353428 0.011956815
0.10665178 -0.048177507 0.08702844 -0.12575926 -0.10015024 0.031663425 -0.10179941 -0.096483506
-0.08953736 0.04692994 0.10781972 -0.0049037617 0.025871292 0.1279936 -0.08885624 0.09619679
0.034666844 0.036991123 0.03091605 0.0046692197 -0.049882337 -0.03376399 -0.003093608 -0.04637851
-0.070594266 -0.0205567 0.104296654 0.0354927 -0.07402995 -0.014282536 0.06136368 0.0677757
-0.04777796 -0.051359132 0.018456886 -0.12510353 -0.104016505 0.017429084 0.11025471 0.018622547
0.131991 -0.07653729 -0.099781014 -0.029603021 0.04790577 0.07919381 0.08645499 -0.03740448
0.09469863 -0.095675394 -0.07376724 -0.11158537 -0.040197607 0.11031534 -0.10083651 -0.056267623
0.076344445 -0.091182426 -0.11394333 -0.120423555 0.102794595 -0.092777595 -0.008251209 0.033562828
0.066669166 -0.07102372 0.026890902 0.028670775 0.028222434 0.019138834 0.06299793 -0.07920957
0.0051378645 -0.076840274 -0.091326304 -0.04555242 0.10787408 0.012170026 0.07845486 -0.018940976
-0.05364448 -0.11350746 -0.0707896 0.08556529 0.112326786 0.008315251 0.13054883 -0.111101806
0.13177216 -0.03949327 -0.037983928 -0.09595516 0.048428252 0.07020287 -0.029680997 -0.08679526
0.0251639 -0.032395124 -0.036362782 0.027735975 0.1273604 0.07294604 -0.07792916 -0.09151068
0.09108707 -0.035941146 -0.025607532 -0.10470989 0.12998189 0.08032543 -0.03770135 -0.10132281
-0.05105922 0.013219245 0.11114674 0.116889395 0.108124144 -0.0298637 -0.11916372 -0.092555895
0.10912483 -0.1314969 0.08709083 -0.10874051 -0.121385746 0.12683928 -0.056479156 0.035510074
-0.07203487 0.05631677 0.017723968 0.07535775 -0.032396603 0.13048825 0.11173289 -0.12610878
-0.09395414 -0.12518562 -0.0721461 0.058086973 0.12323548 -0.053051695 -0.1273042 0.1298054
0.017806279 0.07337688 -0.07159265 -0.028925125 0.116785154 0.117047735 0.072697654 0.008047552
-0.1155219 0.0885066 -0.09329685 -0.050905038 0.046598613 -0.016486807 0.00964822 0.08039962
-0.09498454 0.041244257 -0.07036827 0.04793193 -0.1097798 -0.04027332 0.0156617 0.018197725
-0.008820289 -0.078136325 0.027708296 0.0817047 -0.019007744 -0.029187663 -0.02067375 0.123157956
-0.089934565 0.06754678 -0.09113016 0.12837113 0.08045113 0.06749388 -0.0527601 0.03181725
-0.057877913 -0.11936126 0.0927985 0.12055077 0.045257375 -0.10118214 0.087095805 0.13319016
-0.11034875 0.09884319 -0.072720185 -0.024794811 -0.07688537 -0.040998604 -0.12184397 0.03189492
-0.09708697 -0.0041002166 0.063251235 -0.007747493 0.10983263 -0.03610929 0.014912284 -0.031056607
-0.07213145 0.03394763 -0.012839318 -0.109223515 -0.10094557 -0.014442483 -0.056420498 -0.0064304327
-0.08334642 0.08889619 -0.0039093015 0.029651629 0.028623482 -0.025559152 0.010309871 -0.12640962
0.03592055 0.06268686 0.020852786 0.12666388 -0.09938861 -0.08543372 -0.00616585 0.097299926
0.029160397 0.12890139 0.047969904 0.016689386 0.11330973 0.07525558 -0.064137146 0.110467985

mambaLayer.conv1d.weight f4 [56, 1, 4]
00000000: c02b 6ebc a053 9ebe 1281 cabe fa04 e2be
00000010: b2fb f1be e2ad 8ebe e84c dd3e 9be3 06be
00000020: bcc6 ebbe 6081 70be 64e0 a43e f0ae 3c3d
00000030: 7866 eebd 5a50 99be 70b5 c73e 68eb 3b3d
00000040: 743c 2c3e c660 d93e 4818 2abe aa25 a03c
00000050: a0ee adbe a086 bcbc b013 b03d 6c6f a3bb
00000060: e498 803e 301e ffbe 0e29 b7be 2f6b 1bbe
00000070: 9af0 f03e 7491 7c3e 00a8 0c3e 1c55 643e
00000080: 14ef 62be 04e1 a83e 9ac0 8fbe 3856 563e
00000090: 903f c4bd cedf 913e 4879 2bbe 7e63 aebe
000000a0: a072 943c 60d4 d43c e61b 94be 7eef 76bb
000000b0: 18f0 febd 88fe f23e 5064 823e 404c 003e
000000c0: 48de e6bd 140b f6be 94ef d4be 24d3 873b
000000d0: e8b4 933e 6038 763d 76e2 ad3e 5e7f a43e
000000e0: c87c 43be 4444 7dbe 28a9 763e 14fb ca3d
000000f0: e80f 273e 00b1 00be 1eb6 e4be 59a7 a8be
00000100: 8ef6 f33e 5009 5e3e c0a9 c0bc 3388 abbe
00000110: 102a 963d 782f 3dbe 6863 5c3e 9b70 743e
00000120: d084 8dbe f4ed 093e 60d1 eabe 391c c83d
00000130: 58f6 a7be a4b3 ccbe e067 7dbd 8506 95be
00000140: 605e 40bd 4098 5f3d 805f 6ebe c131 14be
00000150: 7038 463d 3490 373e 0a6b d4be 2f0e f2be
00000160: 06ee 98be 044f d6be c6d6 d7be 738e 6ebe
00000170: 3049 9b3d 8456 d03e c0c0 a83d 0d7b a13e
00000180: 20c0 dc3c a03c 503d 340c f83e b84f b8be
00000190: a87e febd 6ea2 ea3e b018 8abe 509e 393e
000001a0: 7c8f 7f3e 5025 edbd 50f9 cf3d 0ee4 c93e
000001b0: c45e dbbe 66c5 a83e 20f3 cd3e 0104 22be
000001c0: 80b7 323c 585d d1bd b2ff dabe 5384 fcbe
000001d0: 54f7 bc3e 18e6 afbd 3a33 b1be 1fd1 f03e
000001e0: 308c 7abd 9c38 10be e685 96be 26c3 873e
000001f0: f0d4 abbe e077 e43d 1899 02be e07a 633c
00000200: 4e66 963e e239 c1be 8acb a8be 231f b33e
00000210: c84b 72be 6cc8 e63e f0fb 8fbe dec0 4abd
00000220: c026 543d 4023 80be b8a7 183e 8efc 5abe
00000230: 404d dfbe f806 fc3d 9083 19bd 07e5 34bd
00000240: 8436 adbe 38e4 f33e 7031 533e a6b2 d03d
00000250: 2095 16be 58a7 853e 3c39 a3be 7ed0 d3be
00000260: 5e66 9f3e 4083 8f3c 40e9 b93d ca6d e93e
00000270: 008a be3a 10cb 613d c8f7 3a3e f815 8cbd
00000280: 5ed7 933e 989b 83bd 28d3 973e b5fb 243e
00000290: 54b9 403e a03b ebbc 30a9 3e3e 3d54 36be
000002a0: dc3a 83be ccf4 f2be 68c7 903d 7144 f4be
000002b0: 6888 423e 8850 9a3d 7209 e23e 884b ee3e
000002c0: 6e97 cebe a4f4 27be e0bc a53c 8ec6 c5be
000002d0: 88fd de3d 102f ffbd 306f 2fbe b641 dc3e
000002e0: 48a1 7a3e b0f1 f33d a063 d5bd 48f3 86be
000002f0: e0b2 ca3e 505c 54be 742f 233e bc47 85be
00000300: c462 2ebe dc3c aebe e010 d2be 7900 5d3f
00000310: 66e0 d1be bcd1 a7be cc45 873e 4b96 e1bd
00000320: 84a9 5dbe 54cf a5be 9ace b63e 492b c73e
00000330: 2042 22bd 48e1 2fbe ec5c be3e 47cd ed3e
00000340: 2035 493e 9096 b43e b82d 7c3e ecfa e23c
00000350: 047e 05be 244a d6be 0c7b 883e bcfe a7bd
00000360: 7020 a73e a880 76be 9023 df3e 6e55 893e
00000370: 4277 8e3e 7808 f43e 98a2 1c3e 8a92 5d3d
-0.014536798 -0.30923176 -0.39551598 -0.44144422 -0.4726234 -0.27867037 0.43222737 -0.13172762
-0.4605006 -0.23486853 0.32202446 0.04606527 -0.11640638 -0.29944116 0.39005613 0.045878798
0.16819936 0.42456645 -0.16610825 0.01954921 -0.3397112 -0.023013413 0.08597505 -0.0049876478
0.25116646 -0.4982772 -0.3577351 -0.15177606 0.47058564 0.24664861 0.13735962 0.22298092
-0.22161514 0.32984173 -0.2807663 0.20931327 -0.09582436 0.28491062 -0.16745484 -0.34060282
0.018121064 0.025980175 -0.28927535 -0.003767937 -0.12448138 0.47459817 0.25467157 0.12529087
-0.112728655 -0.48055327 -0.41589034 0.004145043 0.28848958 0.060112357 0.33961838 0.32128423
-0.19090569 -0.24733073 0.24087965 0.099111706 0.16314662 -0.1256752 -0.44670194 -0.32940176
0.47649044 0.2168324 -0.023518443 -0.3350235 0.073322415 -0.18475139 0.21522295 0.2387108
-0.2764039 0.13469678 -0.45862865 0.09771008 -0.32805133 -0.39980805 -0.06186664 -0.29106537
-0.046965003 0.054588556 -0.23278618 -0.14472105 0.048393667 0.17926103 -0.41487914 -0.47276446
-0.29869097 -0.4185716 -0.42156047 -0.23296528 0.07582319 0.40691006 0.08239889 0.31539193
0.026947081 0.050839067 0.4844681 -0.3599832 -0.124265015 0.4582705 -0.2697196 0.18126798
0.24957079 -0.115793824 0.101549745 0.39431804 -0.42845738 0.32963103 0.40224552 -0.1582184
0.010908008 -0.10222882 -0.42773205 -0.49319705 0.36907446 -0.08588809 -0.34609395 0.47034547
-0.06116885 -0.14084095 -0.2939903 0.26516074 -0.33560896 0.11155677 -0.12753713 0.013884276
0.29374927 -0.37739474 -0.32967788 0.34984693 -0.23661721 0.45074785 -0.281219 -0.04950034
0.051794767 -0.25026894 0.1490773 -0.21385404 -0.43613625 0.12306017 -0.037478983 -0.04416373
-0.33830655 0.47635055 0.20624328 0.101903245 -0.14705324 0.26104236 -0.31879604 -0.41370004
0.31132787 0.01751864 0.09077692 0.45591575 0.0014536977 0.055125296 0.18258584 -0.06840128
0.2887525 -0.064261615 0.29653287 0.16111644 0.18820697 -0.028714955 0.18619227 -0.17805572
-0.25630844 -0.4745239 0.07069284 -0.47708467 0.18997347 0.07534891 0.4414783 0.46542
-0.40349907 -0.16401917 0.020231664 -0.38628048 0.10888201 -0.12460148 -0.17132258 0.43018883
0.24475586 0.119113326 -0.104193926 -0.26357484 0.39589596 -0.2073834 0.1593607 -0.2603129
-0.17029864 -0.34030807 -0.410285 0.86328846 -0.40991515 -0.32777202 0.26420438 -0.11014994
-0.21646696 -0.3238474 0.357045 0.3890021 -0.039613843 -0.17175782 0.3718027 0.46445677
0.19649172 0.3527112 0.24626815 0.02770754 -0.13036352 -0.4185344 0.26656377 -0.082028836
0.32641935 -0.24072516 0.4358182 0.2682299 0.27825361 0.4766271 0.152964 0.05409483

mambaLayer.conv1d.bias f4 [56]
00000000: 946f f43e e031 fe3d 2bb2 7a3e ef2e 98bd
00000010: 6c3f e3be bd4d e0be 6896 97be d06a 8c3d
00000020: 7a8c 043f 3679 f1be 7256 fd3e cde3 ba3e
00000030: 8f8c c33e 6056 c1be 25ec 053f 1e69 c53e
00000040: 19eb 99be c2fa b4be 28a5 b83e ca40 c23e
00000050: e37a afbc ba1f a9be 5543 babe d504 95be
00000060: 1351 5b3e 3064 95be 41d2 c4be 8cbb 543d
00000070: af37 203d 5083 3cbd cf4a 1c3e a0c4 ae3d
00000080: 6b42 f93e fe91 933e 0bd7 473c bc19 de3d
00000090: 6fe1 d2be 330a 90bd 600a 00be 29ca b0bd
000000a0: fb03 f33d 6354 adbe 93f8 3ebe adee 843e
000000b0: 01a8 d6bd 8b15 e03e 7e97 9e3e b255 343e
000000c0: 0fd0 0e3f 3aff a63e a3f0 ce3e b28c 003e
000000d0: cde0 733e a9b1 f83e d4b4 ddbe edc4 f0be
0.47741377 0.12411857 0.24482028 -0.07430827 -0.44384325 -0.4380931 -0.29606938 0.0685631
0.5177685 -0.4716279 0.49480015 0.36501923 0.38193175 -0.3776121 0.5231345 0.3855676
-0.30062178 -0.35347563 0.36063504 0.37940055 -0.021420902 -0.33032018 -0.36379495 -0.2910525
0.21417646 -0.29178 -0.3844166 0.05193667 0.039115604 -0.046023667 0.15262912 0.08533597
0.48683485 0.2882232 0.012197266 0.10844752 -0.41187617 -0.07033195 -0.12503958 -0.08632309
0.118659936 -0.33853444 -0.18649511 0.25963345 -0.10481263 0.43766436 0.30974954 0.17610815
0.5578622 0.32616597 0.40417966 0.12553671 0.23816223 0.48573044 -0.43302023 -0.47025242

mambaLayer.x_proj.weight f4 [36, 56]
00000000: 69be e83d 4738 2fbd 6e6a 23bc 654c a2bd
00000010: 0811 3e3d 20e0 2a3d ac28 cc3d a6f3 b33d
00000020: 354c ef3d fc5b a73c b4db 49bd dad8 063e
00000030: 32cd 1bbd ed6d 843d 3741 063e 17f8 f5bd
00000040: 7182 b83d ba87 fb3d 46b7 25bd 47b0 b1bd
00000050: a397 013c 0a6a f0bc a228 cc3d 20de c1bd
00000060: d836 e7bd 1e72 56bd 74af b3bd 0080 063d
00000070: cc19 60bd fa5e a6bd f829 743d 0940 06bd
00000080: e3d2 4ebd c42b e53d 1f6a c73d 9be4 f83d
00000090: fd1e 39bd 13b6 f5bb ed8c 89bd d4a7 5cbc
000000a0: 696b a4bc c894 2c3d 8eed f83c eda2 98bc
000000b0: 60c2 913d 06bd fa3d 46d5 00bd a2ba 273c
000000c0: abb4 143d 8edc f43d e1af ecbd 2ffa d33d
000000d0: 069f e8bb c87d d73c 9287 5f3d 6b63 ba3d
000000e0: d7b7 64bc 6669 a33d 2844 203d 8b38 01be
000000f0: 27b4 27bd 333b db3c 746c f9bd 460e a2bd
00000100: 843b ae3d fedc 05be 2634 5c3d 350c 58bd
00000110: 77a7 993d e228 8d3d e87b 04be 07ee 863d
00000120: c0ac ba3d 8703 683d 9123 ca3d a80e 22bd
00000130: e1c1 c3bd bb95 033d b6fa 25bd 2316 5e3d
00000140: 49b8 edbc ced7 c73c 8cdb b63d 17b3 a63d
00000150: e32d b9bd d9fc 07be 84be cb3d 3c96 e23d
00000160: 30ad c13b 7011 b4bd ad1c fabd fb13 013d
00000170: 46f3 be3d 6a8a a8bd 4396 53bd b38b dabd
00000180: 9821 f03b 191b e8bd 39ac 45bc 7505 303d
00000190: 1290 f73d 723e 9bbd 7f3e 1a3d c5ac 06bd
000001a0: 0b09 a93d 0526 083d 32fa 86bd 78d9 e6bd
000001b0: a287 033e 9381 1a3d f450 083e 14e8 f43c
000001c0: 30e1 8f3c e8c9 6d3d ecb1 c4bd 6e1b 5c3d
000001d0: 4672 e3bd 31e0 c23d ab8f bf3d 1032 acbb
000001e0: 36a9 d83d 4118 aebb 2166 873d 53ca 9cbd
000001f0: 0d99 95bd a58c 983d d7e6 25bd dd6b 15bd
00000200: 7141 babd 3c15 5a3d 73ae 633d 381c af3d
00000210: 6aa8 a8bd adc5 9abd d132 443d f3c8 4abd
00000220: 1c80 bd3b c63c 9e3d 1afb ef3d fdf8 95bd
00000230: 5db6 b73d 6779 0f3d 0459 edbd 2cad b93c
00000240: 18a5 ba3d 9885 2ebd dcb0 c23c 7988 bd3d
00000250: 7864 a83c d77a b03b b183 9c3d 6ad3 353d
00000260: 2cff 683d e871 21bd 4216 0abd d556 fb3d
00000270: 9bdc e5bd 91d9 efbd deda 8fb9 f3e3 15bc
00000280: ecdb 833d 1be8 c73d df36 a93d 9fee 4b3c
00000290: 7587 4dbd 62a5 f53d b38c 0abc de5c a03c
000002a0: e3fc a73d 0976 903d e060 52bd 5876 233d
000002b0: 5971 003e 23a1 37bd 9c3b 00be 9b0b 673d
000002c0: 94d7 fc3d bf25 d0bd 1443 4bbd b260 d6bd
000002d0: d751 d63d 7299 403d 14ca c4bd e8af 06be
000002e0: 41d6 943b 5121 3d3d 5ca4 e6bd 3cfd c0bd
000002f0: c862 13bd 249f a33c d08e 92bd ed72 25bd
00000300: 21fe 413d f28c 603d 591e b93d 4e31 07be
00000310: 51dd b5bd c25f 88bb ae11 d83c e9eb ac3d
00000320: a69d d13d 9cc9 043d abb0 a73d 808d 163c
00000330: 81bf 8cbd 19f1 afbb 0ea2 39bd f601 863c
00000340: 7de9 573d 6314 bcbd e7ef 33bd a814 4dbc
00000350: f284 23bd d408 043e 439d 65bd f72c 04bd
00000360: 3ddc 833c 9431 8dbc 7f87 edbd e2bb da3d
00000370: 3425 103d d143 153d 7e4c 7dbd e603 843d
00000380: 9de1 f5bd cc4a 1d3d 88dc 4e3d 74ac 18bc
00000390: 2018 bbbd 1bdf e03b d73e e53c fdaf a1bd
000003a0: e5e2 30bd ecd6 003e 21d0 c7bc 2824 aebc
000003b0: eafb 7d3d 7a17 993a 0780 263d a2b6 073e
000003c0: 86bb 113d 6beb a1bd 690a d2bd c0f7 dbbd
000003d0: bb2c 8f3d 8a81 babd 93cb f73d 1057 84bd
000003e0: e481 aabd a8d1 9ebd df10 84bd 6860 88bd
000003f0: cb81 613d f3e1 bd3c 85c3 c93d a994 bc3d
0.11364443 -0.04277828 -0.009974105 -0.07924727 0.04640296 0.04171765 0.09968695 0.087867066
0.11684457 0.020429604 -0.04928179 0.1316866 -0.038037486 0.06466279 0.13110815 -0.1201021
0.09009255 0.12281747 -0.040457986 -0.086762 0.007909688 -0.029347438 0.099686876 -0.09466195
-0.112897575 -0.052354924 -0.087736994 0.032836914 -0.0547121 -0.08123584 0.059610337 -0.032775912
-0.050494086 0.11189988 0.09737038 0.12152978 -0.04519557 -0.0074985116 -0.067163326 -0.013467748
-0.020070748 0.042134076 0.030386712 -0.018632377 0.07117152 0.122430846 -0.031453393 0.010237368
0.03630511 0.1195613 -0.11556984 0.10350453 -0.007099035 0.026305094 0.05457265 0.09100994
-0.013959846 0.079790875 0.0391275 -0.12619226 -0.04094329 0.026761627 -0.12178889 -0.07912879
0.085074455 -0.13072583 0.05376067 -0.052746017 0.075026445 0.068925634 -0.12937891 0.06588369
0.09114981 0.05664399 0.09870065 -0.03956476 -0.09558464 0.032125216 -0.0405223 0.05422033
-0.029018538 0.024394896 0.08928594 0.081396274 -0.09041955 -0.13280047 0.09948447 0.11063811
0.005910538 -0.087923884 -0.12212501 0.031513195 0.093237445 -0.082295254 -0.051656973 -0.10671177
0.0073282234 -0.113332935 -0.012064987 0.042973954 0.12088026 -0.0758027 0.037657257 -0.03287961
0.08253678 0.033239383 -0.0659069 -0.112719476 0.12844709 0.037721228 0.13312131 0.02989582
0.017563432 0.05805388 -0.096042484 0.053737096 -0.1110578 0.09515417 0.09353574 -0.0052549914
0.105791494 -0.00531295 0.066112764 -0.07655778 -0.07304583 0.07448701 -0.04050335 -0.03647982
-0.09094513 0.053242907 0.05558629 0.08550304 -0.082352474 -0.07557235 0.047900025 -0.049508046
0.005783094 0.07726435 0.11717816 -0.07322881 0.0897033 0.035027888 -0.11589244 0.022665583
0.091135204 -0.042607874 0.023765974 0.09254546 0.02055572 0.0053857374 0.07642306 0.044391073
0.056883976 -0.03941527 -0.033712633 0.12272421 -0.11223718 -0.117114194 -0.00027438154 -0.009148586
0.06438431 0.097610675 0.08262419 0.012447028 -0.05017801 0.11994435 -0.008456397 0.019575533
0.08202531 0.070537634 -0.05136192 0.039907783 0.12543239 -0.044831406 -0.12522739 0.056407552
0.12345806 -0.101634495 -0.049624518 -0.10467662 0.104648285 0.047021337 -0.09608856 -0.1315304
0.0045421426 0.04617435 -0.11261818 -0.094233006 -0.035982877 0.019973345 -0.071561456 -0.040392805
0.047361497 0.054821916 0.090389915 -0.13202402 -0.088801034 -0.004161806 0.026375618 0.08443434
0.10235147 0.032418832 0.081879936 0.00918901 -0.06872464 -0.0053693173 -0.045320563 0.016358357
0.052712906 -0.09183576 -0.04392996 -0.012517132 -0.03992171 0.12893993 -0.05605818 -0.032269444
0.016096229 -0.017235555 -0.115981095 0.10680367 0.03519173 0.036441628 -0.061840527 0.06446056
-0.12005923 0.03840141 0.050503284 -0.00931846 -0.09135461 0.0068625337 0.027984066 -0.07894895
-0.043185133 0.12581986 -0.024391236 -0.021257475 0.062007822 0.001167997 0.04064944 0.13253263
0.035579227 -0.079062305 -0.10255892 -0.10740614 0.069909535 -0.09106739 0.120993756 -0.06461918
-0.08325556 -0.077548325 -0.064485304 -0.06659013 0.05505542 0.02317903 0.098517455 0.09208042
