crowd_nav/data/archive/output-SARL-trained-on-wrong-sim/il_model.pth (torch, 392547 bytes, 20 tensors)

mlp1.0.weight f4 [150, 13]
-0.07273779 -0.22399789 0.27099422 -0.078155085 -0.14539918 0.20402233 -0.124011904 0.0904593
0.11631048 -0.028444806 0.14977571 -0.26958773 0.10566058 0.15175648 -0.30777875 0.22872977
-0.07908118 -0.15078773 0.058498647 0.33330464 0.0143163605 0.36220634 -0.19969462 -0.16635321
0.065519765 -0.12022033 -0.25311238 0.09350614 -0.04840086 -0.1353448 0.16866936 0.124585435
0.20949852 0.17039594 -0.029785113 0.2540744 -0.100548364 0.0454244 -0.17735629 -0.20382456
0.03954691 0.24835381 -0.13621704 0.19126986 0.09921086 -0.24334896 -0.21705936 0.06565936
0.10554709 0.1956156 -0.053864572 -0.20629147 0.08574901 -0.024055917 -0.102582805 -0.21170555
-0.117102124 -0.2828281 0.18277597 0.31592116 -0.026435163 0.2702529 0.0069206986 0.12303086
0.19497138 -0.06381485 0.13779624 -0.20424922 -0.2310935 -0.226981 -0.26349875 0.11384759
0.24269578 -0.16105454 0.17712131 -0.22018395 0.07899649 -0.14991234 0.259076 -0.086960845
0.20354693 -0.17783895 0.16968086 0.18559188 -0.18728825 -0.16597556 0.24389888 0.0030756942
0.13310395 -0.012174002 -0.03782992 0.02074355 0.03023989 0.12847722 -2.5117484e-05 0.23197255
-0.18730988 0.032565344 -0.24746425 0.27506265 -0.063898966 0.18722719 0.15350339 -0.040045094
0.13632673 0.25429186 -0.008428742 -0.13300624 0.2737309 -0.21573032 -0.34547037 -0.059066962
-0.1879487 0.1996735 -0.018521117 0.105805844 0.010514039 0.13559486 -0.17805484 0.2616235
0.16510992 -0.0794015 -0.20148426 0.16984491 0.13098928 0.39388677 -0.051268306 0.27550408
-0.30377412 0.2582462 -0.037245687 0.2180188 0.010618221 -0.18238375 0.15261425 -0.0070465505
-0.0083457315 -0.18907931 0.20253748 0.1400974 -0.17143893 -0.07458007 0.19483726 0.114136554
-0.113810666 -0.20455372 -0.18060522 0.2129936 0.00803103 -0.22729428 -0.0184216 0.3318797
0.14293441 0.16420141 -0.22573406 0.26011166 -0.18195803 0.15321088 -0.2271658 -0.18103746
-0.08617714 0.10501598 -0.1811727 -0.006589715 0.031101875 0.06475808 -0.24971966 0.026554888
-0.018303968 0.026944034 -0.17210089 -0.008842456 0.18804686 0.051314436 -0.022993077 -0.038988013
-0.0032611957 0.29053035 0.2155186 -0.1853436 0.19876747 -0.045262143 -0.264986 0.09416852
0.096323475 0.039540492 0.035958536 0.093132325 -0.10535924 0.22200169 0.17455077 0.0749385
0.017212512 -0.27381548 0.146178 0.16661553 -0.21233171 -0.071847014 -0.27103764 -0.22151701
0.0053070574 0.01525091 -0.06647959 -0.105174474 -0.1285072 -0.0045123696 -0.025758179 0.23554182
0.10266142 0.122783795 -0.16159399 -0.26417506 0.1905456 -0.32655647 0.15596314 0.026526127
0.20441793 0.1335095 -0.160376 -0.2980837 0.21377543 0.113443844 -0.18210301 0.26645303
0.1373777 0.05088199 -0.04134998 -0.16162685 0.26425472 0.113751404 0.07503291 0.19901046
-0.08928139 -0.26480415 -0.2093907 -0.11541136 -0.08141841 -0.04398636 -0.14168525 0.018689523
-0.2273772 0.1296969 -0.077254854 -0.104967356 0.245362 -0.24883093 -0.25004175 0.113477476
-0.2773173 -0.060600143 0.027332822 0.22240354 0.30372038 0.13465926 -0.21760663 0.20678963
00000000: 8df7 94bd b45f 65be c1bf 8a3e c60f a0bd
00000010: 86e3 14be 3beb 503e f4f9 fdbd ba42 b93d
00000020: 3034 ee3d 1505 e9bc ce5e 193e 6707 8abe
00000030: 9364 d83d 0d66 1b3e 2d95 9dbe 2338 6a3e
00000040: 50f5 a1bd 1968 1abe 479c 6f3d e8a6 aa3e
00000050: 2b8f 6a3c 1c73 b93e bf7c 4cbe 7f58 2abe
00000060: 3a2f 863d 1436 f6bd f297 81be 2680 bf3d
00000070: fb3f 46bd d497 0abe a9b7 2c3e a626 ff3d
00000080: c886 563e 467c 2e3e e9ff f3bc 0a16 823e
00000090: 4dec cdbd f00e 3a3d e39c 35be 63b7 50be
000000a0: f1fb 213d 7650 7e3e 7b7c 0bbe 3fdc 433e
000000b0: 102f cb3d 7830 79be cf44 5ebe 6a78 863d
000000c0: 1329 d83d 754f 483e 19a1 5cbd 123e 53be
000000d0: 2d9d af3d ea10 c5bc ef16 d2bd 57c9 58be
000000e0: 3dd3 efbd d8ce 90be a029 3b3e 6bc0 a13e
000000f0: 8e8e d8bc 975e 8a3e 07c7 e23b 9bf7 fb3d
00000100: 94a6 473e 5cb1 82bd 751a 0d3e b526 51be
00000110: c6a3 6cbe b56d 68be 4fe9 86be ed28 e93d
00000120: 3e85 783e 7beb 24be 4a5f 353e e777 61be
00000130: e9c8 a13d 9f82 19be 9ca5 843e 8718 b2bd
00000140: 9b6e 503e 6a1b 36be d2c0 2d3e cc0b 3e3e
00000150: 7ec8 3fbe 7ff5 29be a1c0 793e 9691 493b
00000160: 674c 083e 7775 47bc 8cf3 1abd 61ee a93c
00000170: a5b9 f73c 888f 033e 63b3 d2b7 368a 6d3e
00000180: 29ce 3fbe 3d63 053d 4567 7dbe 03d5 8c3e
00000190: 76dd 82bd 7cb8 3f3e fe2f 1d3e 5306 24bd
000001a0: 3c99 0b3e 8b32 823e b518 0abc ca32 08be
000001b0: 7526 8c3e 69e8 5cbe 7ee1 b0be 33f0 71bd
000001c0: a075 40be 3677 4c3e 99b9 97bc bcb0 d83d
000001d0: 1343 2c3c 61d9 0a3e 0254 36be 84f3 853e
000001e0: 9312 293e 419d a2bd e451 4ebe d3eb 2d3e
000001f0: 0e22 063e 87ab c93e b7fe 51bd df0e 8d3e
00000200: 4888 9bbe d938 843e ef8e 18bd 5240 5f3e
00000210: 0cf8 2d3c cec2 3abe e946 1c3e c0e6 e6bb
00000220: 89bc 08bc 029e 41be fc65 4f3e b175 0f3e
00000230: b08d 2fbe 70bd 98bd 6b83 473e 6dc0 e93d
00000240: 9115 e9bd 8876 51be 93f0 38be ff1a 5a3e
00000250: 9594 033c d5bf 68be e5e8 96bc 23ec a93e
00000260: 665d 123e 6a24 283e d426 67be 5b2d 853e
00000270: 3553 3abe 50e3 1c3e 279e 68be e261 39be
00000280: a47d b0bd 9e12 d73d 5685 39be 89ee d7bb
00000290: 5cc9 fe3c e29f 843d 83b6 7fbe a389 d93c
000002a0: 34f2 95bc bcb9 dc3c 373b 30be f3df 10bc
000002b0: 5b8f 403e 162f 523d fa5b bcbc e5b1 1fbd
000002c0: c9b9 55bb 65c0 943e e8b0 5c3e b6ca 3dbe
000002d0: b389 4b3e cc64 39bd 3fac 87be 6ddb c03d
000002e0: 3e45 c53d 36f5 213d 4249 133d 29bc be3d
000002f0: 96c6 d7bd 6954 633e 70bd 323e 5b79 993d
00000300: 4101 8d3c 8b31 8cbe b0af 153e 439d 2a3e
00000310: 7c6d 59be 8724 93bd 72c5 8abe 5bd5 62be
00000320: d3e6 ad3b f4de 793c 7426 88bd b765 d7bd
00000330: 6497 03be 80dc 93bb d102 d3bc e031 713e
00000340: 2740 d23d 1276 fb3d e578 25be f441 87be
00000350: 631e 433e 6932 a7be cdb4 1f3e 524d d93c
00000360: ef52 513e b7b6 083e 9b39 24be 6d9e 98be
00000370: f2e7 5a3e 3f55 e83d 3679 3abe 886c 883e
00000380: bdac 0c3e a269 503d 995e 29bd 8281 25be
00000390: 654c 873e 7ff6 e83d dbaa 993d 66c9 4b3e
000003a0: 29d9 b6bd 6994 87be 846a 56be cb5c ecbd
000003b0: b2be a6bd 0b2b 34bd f015 11be c51a 993c
000003c0: 92d5 68be 44cf 043e cb37 9ebd 20f9 d6bd
000003d0: 2d40 7b3e 89cd 7ebe 7905 80be e166 e83d
000003e0: 88fc 8dbe db37 78bd 15e9 df3c c1bd 633e
000003f0: 3d81 9b3e 1ee4 093e 46d4 5ebe a9c0 533e

mlp1.0.bias f4 [150]
-0.14692803 -0.11059321 0.036395203 -0.14104795 -0.23055622 0.23588167 -0.20182744 -0.16143352
-0.10663342 0.27687487 0.08875572 -0.18485554 -0.07611111 -0.24351707 0.14892524 -0.03776174
0.08014278 0.063055664 -0.16537984 0.17963703 -0.14986996 0.047327366 0.24949253 0.035576407
-0.07042529 0.010219126 -0.16102831 0.26010087 -0.24931844 0.1935496 0.1103433 -0.013686841
0.016661383 -0.17345224 0.06024998 -0.12762715 0.046418853 0.28837222 0.012361591 0.17684235
-0.21605983 0.17614505 -0.13838294 -0.14044574 0.24282824 0.23491293 0.24804696 -0.11264737
0.09984229 0.23711538 -0.10961614 -0.02890753 0.21540014 -0.17091982 0.16547199 0.23956312
0.10294455 0.06730855 -0.111832365 -0.03626432 -0.25721 -0.15449499 -0.11296375 0.078665294
0.13215883 0.20670594 -0.012934723 -0.1636011 0.15005031 0.16349435 0.16832031 -0.115349256
-0.1436217 0.020848878 -0.096358635 0.09418326 -0.21191947 -0.18223616 0.20737459 0.1378603
-0.20438188 -0.11716431 -0.2714705 0.12605436 0.051107846 -0.27215484 0.20411296 0.28245398
-0.10610485 0.10941596 -0.065643586 -0.10160302 0.25460672 0.20103025 -0.24377681 0.2269991
0.1446377 0.1897217 0.050703436 0.26684132 -0.08503488 0.31991655 -0.084747516 0.07794317
-0.0322031 0.16854846 0.12165846 0.15441339 0.15211536 0.22580592 0.25066325 0.24319905
0.10979264 -0.061251227 0.21104795 0.15313935 -0.10887646 -0.23692846 -0.07865209 0.17050995
0.0802036 -0.02346681 0.20061672 0.22075234 -0.217885 0.07013302 0.22218126 -0.24392064
0.1696325 0.19970264 0.18893562 -0.15599978 0.09905775 0.14915852 0.061968483 -0.026057543
-0.056954917 -0.23643917 -0.060064312 -0.2506045 0.24786028 0.14777605 0.18512522 0.17726311
-0.16632462 0.050243102 -0.130284 0.14348346 -0.2316256 -0.22497669
00000000: 4d74 16be b17e e2bd 2313 153d e06e 10be
00000010: ee16 6cbe f78a 713e daab 4ebe d44e 25be
00000020: 9f62 dabd 8bc2 8d3e 8fc5 b53d c54a 3dbe
00000030: 24e0 9bbd 8a5c 79be dc7f 183e 0eac 1abd
00000040: e621 a43d 5423 813d 5559 29be c5f2 373e
00000050: 8377 19be 57da 413d f87a 7f3e 91b8 113d
00000060: 223b 90bd 1f6e 273c 9be4 24be f12b 853e
00000070: 554d 7fbe de31 463e abfb e13d c63e 60bc
00000080: 747d 883c 779d 31be afc8 763d b1b0 02be
00000090: b221 3e3d 86a5 933e 4588 4a3c 2916 353e
000000a0: ca3e 5dbe 5e5f 343e 42b4 0dbe 02d1 0fbe
000000b0: f7a7 783e 048d 703e 0600 7e3e aab3 e6bd
000000c0: 1d7a cc3d 60ce 723e 6d7e e0bd 7ccf ecbc
000000d0: db91 5c3e 9b05 2fbe 7d71 293e 0950 753e
000000e0: 98d4 d23d 11d9 893d 5e08 e5bd e589 14bd
000000f0: 07b1 83be ef33 1ebe 8a59 e7bd 451b a13d
00000100: a554 073e b9aa 533e 29ec 53bc 0c87 27be
00000110: caa6 193e 106b 273e 295c 2c3e 3b3c ecbd
00000120: 9111 13be 44cb aa3c ad57 c5bd 27e3 c03d
00000130: 6b01 59be 1e9c 3abe 015a 543e 402b 0d3e
00000140: 7c49 51be d7f3 efbd 2efe 8abe 6514 013e
00000150: 7656 513d e157 8bbe fd02 513e cf9d 903e
00000160: 804d d9bd 7a15 e03d 2570 86bd 3f15 d0bd
00000170: d05b 823e e0da 4d3e a1a0 79be 7472 683e
00000180: e81b 143e 6846 423e 68ae 4f3d 6d9f 883e
00000190: c426 aebd 1acc a33e 1b90 adbd aba0 9f3d
000001a0: 66e7 03bd f897 2c3e 1228 f93d 8b1e 1e3e
000001b0: 21c4 1b3e ab39 673e ef56 803e 2c09 793e
000001c0: f7da e03d 91e2 7abd f41c 583e 90d0 1c3e
000001d0: 9ffa debd 609d 72be 5914 a1bd 299a 2e3e
000001e0: c941 a43d 783d c0bc 786e 4d3e e70c 623e
000001f0: 3f1d 5fbe e7a1 8f3d 7c83 633e 55c6 79be
00000200: 24b4 2d3e d97e 4c3e 5778 413e 68be 1fbe
00000210: cade ca3d 03bd 183e aad2 7d3d a176 d5bc
00000220: 8f49 69bd 1c1d 72be ff05 76bd 3c4f 80be
00000230: 16cf 7d3e 9b52 173e 7791 3d3e 7684 353e
00000240: 0051 2abe b6cb 4d3d 2b69 05be 54ed 123e
00000250: 432f 6dbe 4a60 66be

mlp1.2.weight f4 [100, 150]
-0.005611567 -0.00084225147 -0.07184369 0.026867367 -0.06315853 0.07581483 -0.003360041 -0.0398603
0.07827651 0.027193543 0.056873124 0.06199571 -0.051771194 0.07031677 0.05897367 0.02831852
-0.010808523 0.01048198 0.020962732 0.07442375 0.001808061 0.06439203 0.0024398759 0.07980352
-0.00850488 -0.023490002 0.011760453 -0.045861445 0.027240517 -0.035074368 -0.06812693 0.0731532
0.05452922 -0.059551626 -0.018563064 -0.010944556 -0.016022108 -0.031165909 0.014779568 0.04206301
-0.043429673 -0.0626642 -0.019100597 -0.05822534 0.04294958 0.025453096 0.06816367 0.022662045
-0.005961796 -0.052946307 -0.07864074 0.06521305 -0.06447314 -0.006031066 -0.07064626 -0.062828235
-0.07436829 -0.051701907 0.05667949 0.0073407344 0.03121221 -0.027466774 -0.07369678 0.051254906
-0.051951364 -0.0007145848 0.05204747 -0.04158172 -0.05690713 -0.0744829 0.0003899632 0.041112233
0.002043008 -0.0032757267 0.001838707 -0.015432684 0.023023896 -0.06801296 0.0697284 -0.033134513
-0.06507461 -0.021276917 0.0759216 0.015829079 -0.067309186 0.049552742 -0.020460252 0.012766032
-0.0031638572 -0.015644155 0.05286655 0.008952397 0.022012763 0.076236926 -0.05712381 -0.081796736
-0.08239605 -0.070779964 0.031235436 -0.07114526 -0.072486974 -0.08074377 -0.051092617 0.024573948
-0.011774256 0.00851032 0.028919784 -0.042607155 -0.06982218 0.048791353 0.03025666 -0.06151479
-0.010613066 0.047844928 -0.011773075 0.049974676 -0.031894088 -0.029097369 -0.018965561 -0.073924005
-0.066862985 0.042943966 -0.068814464 0.07080783 0.07898474 -0.06761145 0.062542155 0.0152868405
-0.055351447 -0.07217358 -0.03843003 -0.0673457 0.032576002 -0.046028137 -0.045107424 0.07546239
0.05223016 0.040946934 -0.00054692104 0.06548395 0.060207713 -0.07556298 -0.04449685 -0.046127707
0.07218226 0.07244365 -0.024650227 -0.048517123 -0.045151275 0.056674503 0.0573602 0.033771902
-0.016245339 -0.016151832 -0.0016385185 -0.06892184 0.014340111 -0.026140599 0.034117293 -0.08049051
0.03004577 -0.06603862 0.03557884 -0.011384581 -0.055782884 -0.06329657 -0.023890859 0.056637675
-0.05986432 0.075336166 -0.05793184 -0.04556195 -0.01937462 0.0035195637 0.026184557 0.006447264
-0.0071434546 -0.056469467 -0.037316885 -0.006879793 0.07004729 0.002942517 0.06658189 0.030291136
0.07709691 0.031035269 -0.006216194 -0.016941322 -0.02426676 -0.060467456 0.053062163 0.066796355
0.034227386 0.07135713 0.014587701 -0.07054145 -0.03369948 -0.021416247 0.022284754 -0.036738597
0.018013861 0.044266265 -0.061581638 -0.068477824 -0.03077465 0.03390257 0.010073201 -0.07122026
-0.06413079 0.045505904 0.04387136 -0.081472054 -0.020698795 0.0066297976 0.021525754 0.061269004
0.002753802 0.04053667 0.0013939148 0.069369614 -0.024451401 0.030953921 -0.07651812 0.056637716
-0.015847033 -0.01578673 0.06528637 -0.06811305 -0.08130603 -0.0063435086 -0.00481478 0.012946407
0.04511718 -0.020614998 -0.060432047 0.06737514 -0.021313384 -0.04436624 -0.07324702 0.043122314
0.063278414 -0.038000852 0.044075206 0.015819624 0.021480266 -0.080200486 0.015136878 0.08044678
-0.04944603 0.052955784 0.05745038 0.044494983 -0.04382232 -0.04628479 -0.030708753 -0.07301647
00000000: 3ce1 b7bb 8aca 5cba c922 93bd f418 dc3c
00000010: 4259 81bd ce44 9b3d 2234 5cbb 8e44 23bd
00000020: 6f4f a03d fec4 de3c cbf3 683d 37ef 7d3d
00000030: 080e 54bd 3d02 903d 608e 713d 3efc e73c
00000040: 3b16 31bc 9cbc 2b3c 09ba ab3c 7b6b 983d
00000050: 76fc ec3a f8df 833d 53e6 1f3b 0770 a33d
00000060: 0d58 0bbc 1b6e c0bc eaae 403c 36d9 3bbd
00000070: 8127 df3c 24aa 0fbd 2286 8bbd 58d1 953d
00000080: 085a 5f3d 68ec 73bd 9111 98bc cc50 33bc
00000090: cc40 83bc a64f ffbc 0026 723c 434a 2c3d
000000a0: 50e3 31bd 1756 80bd db78 9cbc b27d 6ebd
000000b0: e6eb 2f3d 0383 d03c 6599 8b3d c1a5 b93c
000000c0: 2b5b c3bb 3ade 58bd 650e a1bd 6b8e 853d
000000d0: 7e0a 84bd 40a0 c5bb fdae 90bd 17ac 80bd
000000e0: 674e 98bd 61c5 53bd c128 683d 8b8a f03b
000000f0: c0b0 ff3c 0002 e1bc 56ee 96bd aaf0 513d
00000100: f4ca 54bd f952 3bba ba2f 553d 9851 2abd
00000110: 7317 69bd 7e8a 98bd fa73 cc39 4d65 283d
00000120: fde3 053b 93ad 56bb c500 f13a 5ed9 7cbc
00000130: 9c9c bc3c 614a 8bbd c3cd 8e3d 0eb8 07bd
00000140: d645 85bd ee4c aebc c97c 9b3d fcab 813c
00000150: 66d9 89bd d1f7 4a3d 429c a7bc 9e28 513c
00000160: b758 4fbb 2c28 80bc 988a 583d 13ad 123c
00000170: 1c54 b43c 1b22 9c3d a8fa 69bd 0c85 a7bd
00000180: 43bf a8bd 16f5 90bd 75e1 ff3c 9bb4 91bd
00000190: 0d74 94bd fd5c a5bd 7e46 51bd 4e4f c93c
000001a0: cfe8 40bc df6e 0b3c 2fe9 ec3c d784 2ebd
000001b0: eefe 8ebd 71d9 473d d1dc f73c eff6 7bbd
000001c0: 6de2 2dbc 0bf9 433d dbe3 40bc 3fb2 4c3d
000001d0: 60a3 02bd 9b5d eebc aa5d 9bbc 7865 97bd
000001e0: 76ef 88bd 03e6 2f3d 99ee 8cbd b203 913d
000001f0: c0c2 a13d df77 8abd 1a16 803d a875 7a3c
00000200: 33b8 62bd becf 93bd cf68 1dbd 8bec 89bd
00000210: 6a6e 053d 0088 3cbd 90c2 38bd 078c 9a3d
00000220: 4bef 553d f9b7 273d 405f 0fba 731c 863d
00000230: 5d9c 763d c3c0 9abd 5442 36bd 68f0 3cbd
00000240: 4bd4 933d 565d 943d 46ef c9bc e4b9 46bd
00000250: 8bf0 38bd 8623 683d 87f2 6a3d 6854 0a3d
00000260: f214 85bc d950 84bc 8fc3 d6ba e526 8dbd
00000270: c9f2 6a3c cf24 d6bc 93be 0b3d 35d8 a4bd
00000280: 8c22 f63c 423f 87bd 1ebb 113d 6586 3abc
00000290: 987c 64bd a2a1 81bd c3b6 c3bc e8fc 673d
000002a0: 4a34 75bd d949 9a3d f049 6dbd 2b9f 3abd
000002b0: 86b7 9ebc 7ba8 663b ff80 d63c 9243 d33b
000002c0: a413 eabb 874c 67bd 97d9 18bd e36f e1bb
000002d0: f474 8f3d 3ed7 403b 165c 883d 1e25 f83c
000002e0: fce4 9d3d ad3d fe3c 37b1 cbbb 87c8 8abc
000002f0: 16cb c6bc b9ac 77bd b657 593d 87cc 883d
00000300: 0432 0c3d b023 923d 4101 6f3c 0978 90bd
00000310: 7708 0abd 2071 afbc 848e b63c 367b 16bd
00000320: ce91 933c 8b50 353d 073d 7cbd 1a3e 8cbd
00000330: 1e1b fcbc 6cdd 0a3d 110a 253c eddb 91bd
00000340: 0157 83bd 6664 3a3d 75b2 333d d2da a6bd
00000350: 8590 a9bc c63e d93b c756 b03c 35f5 7a3d
00000360: 2279 343b c709 263d 05b4 b63a a811 8e3d
00000370: 4e4e c8bc 1493 fd3c 88b5 9cbd f3fc 673d
00000380: a3d1 81bc 2c53 81bc dcb4 853d db7e 8bbd
00000390: c783 a6bd 35dd cfbb 4dc5 9dbb 2b1d 543c
000003a0: cbcc 383d c9e0 a8bc 9887 77bd fafb 893d
000003b0: 6899 aebc 60b9 35bd 8902 96bd 06a1 303d
000003c0: 1d98 813d c8a6 1bbd 3488 343d 2898 813c
000003d0: 62f7 af3c 2740 a4bd ab00 783c 48c1 a43d
000003e0: ec87 4abd 2ae8 583d 1751 6b3d 5f40 363d
000003f0: 087f 33bd 1f95 3dbd ec90 fbbc a989 95bd

mlp1.2.bias f4 [100]
0.025106288 0.038936246 -0.051151156 0.13523152 -0.0026657267 0.013478878 0.050451856 -0.04145817
-0.08474843 0.022106247 0.03825697 -0.06304297 -0.024567826 -0.009509129 0.03217932 0.019825023
-0.0045183795 -0.06571495 0.022962548 -0.062264763 -0.03939554 0.075759485 -0.040359575 0.021578489
-0.07933115 -0.01016007 -0.02478994 0.011694984 0.0072395457 0.0059239934 -0.044078864 -0.039932784
-0.078618616 -0.01578423 -0.013686672 -0.034148566 0.075736865 0.06346081 0.051239178 0.0673477
0.035317246 -0.0019350937 -0.0758851 -0.0695227 -0.04676357 -0.07387417 0.049052477 -0.101634905
0.01329372 -0.061252348 0.060759824 -0.02147323 0.030620638 0.016653743 0.07537259 -0.030338684
0.0692084 -0.0773603 -0.0388227 -0.10175514 0.008433964 0.08904333 -0.051652487 0.059201583
-0.023050476 -0.016840052 -0.00067609583 0.04264475 0.10220045 0.06862518 -0.020907365 0.008672156
0.067291714 -0.0699644 -0.040054627 0.024152314 -0.046814933 0.053176716 0.012734784 -0.020253511
-0.013895261 -0.01888249 -0.005984215 0.021781255 -0.08030063 0.031860225 0.061277255 -0.027207742
0.026756825 -0.039500576 0.034061484 0.06366917 -0.003752507 0.038372803 -0.0047323597 -0.055984773
0.019847652 0.07443803 -0.06765455 -0.063671134
00000000: b4ab cd3c 9d7b 1f3d e083 51bd 227a 0a3e
00000010: 79b3 2ebb 83d6 5c3c 9ba6 4e3d 0bd0 29bd
00000020: 9690 adbd 2918 b53c 57b3 1c3d ac1c 81bd
00000030: 7742 c9bc 2ecc 1bbc 76ce 033d 1668 a23c
00000040: ea0e 94bb 8f95 86bd f41b bc3c 5609 7fbd
00000050: 385d 21bd ca27 9b3d 1550 25bd 5fc5 b03c
00000060: 5f78 a2bd 6c76 26bc 4614 cbbc 519c 3f3c
00000070: b639 ed3b 0f1e c23b 0a8c 34bd 8f90 23bd
00000080: cc02 a1bd ee4d 81bc 103e 60bc 5edf 0bbd
00000090: ee1b 9b3d bef7 813d 2ce0 513d 97ed 893d
000000a0: d1a8 103d f8a2 fdba a669 9bbd eb61 8ebd
000000b0: 288b 3fbd 574b 97bd 40eb 483d f625 d0bd
000000c0: e7cd 593c bee3 7abd 4bdf 783d a1e8 afbc
000000d0: 22d8 fa3c 6e6d 883c f25c 9a3d d588 f8bc
000000e0: 22bd 8d3d 146f 9ebd 8d04 1fbd 0065 d0bd
000000f0: 9c2e 0a3c 595c b63d 8f91 53bd 5c7d 723d
00000100: 5ad4 bcbc 26f4 89bc 063c 31ba 43ac 2e3d
00000110: 784e d13d 5c8b 8c3d ec45 abbc a915 0e3c
00000120: 3dd0 893d 7f49 8fbd 5210 24bd 13db c53c
00000130: 04c1 3fbd d4cf 593d 8ea5 503c b1ea a5bc
00000140: f3a8 63bc 74af 9abc 3c17 c4bb 9a6e b23c
00000150: a874 a4bd de7f 023d dcfd 7a3d c5e2 debc
00000160: 2131 db3c 5bcb 21bd 0e84 0b3d fb64 823d
00000170: 9fec 75bb cd2c 1d3d e911 9bbb 4a50 65bd
00000180: 8b97 a23c f772 983d 788e 8abd 0366 82bd

mlp2.0.weight f4 [100, 100]
-0.07598329 0.081342086 0.05690797 0.09616048 -0.09601575 0.012712351 0.055676285 -0.08007743
-0.05692556 -0.06551058 -0.018507916 -0.038647212 -0.024366675 -0.078524575 -0.020363735 -0.04128877
-0.091837965 -0.011237354 0.098542616 0.07712243 0.061242733 0.088292986 -0.030696379 0.013823735
-0.04652829 0.072175086 0.084460795 -0.068508744 -0.09955495 -0.016721668 -0.036982074 -0.05809201
0.042931892 0.015020608 -0.07941981 0.08292965 -0.0035491844 -0.05713269 -0.039635234 -0.07172582
0.0019881185 -0.039407 -0.023369242 -0.016586516 -0.09606126 0.06631034 0.1019637 -0.05748647
0.031102274 0.05247274 -0.05184569 -0.066697836 0.08964496 0.06446433 -0.055730436 0.045269236
-0.03423934 -0.078772224 -0.06343375 0.028347429 -0.01159396 -0.099537134 0.072596386 -0.07141003
0.098763414 0.065060265 0.09415313 0.022259543 -0.10333536 -0.054579597 -0.0059176986 0.010893727
0.051470835 0.050327342 0.030530492 0.000634929 0.01685908 -0.006178762 -0.088870004 0.08459598
-0.055947613 0.05366488 0.06359315 0.037352547 0.01909953 0.09060239 0.009568286 -0.08863606
-0.09579491 -0.006255007 0.031172313 0.04630444 -0.040603347 -0.012787677 0.02643268 -0.08746099
0.037461188 -0.066271015 0.076811165 -0.032160707 -0.03567625 0.08371466 0.08910888 0.022072524
0.02845127 0.022237847 0.09519899 0.019712865 0.12473771 0.08171264 0.08679954 -0.07512188
-0.02789772 0.016417842 -0.100388624 0.115565166 -0.069664836 -0.015267776 -0.07723813 0.065664545
-0.0020045259 -0.050348308 -0.104237564 0.034059938 0.02462349 -0.097604215 0.027158782 -0.039630134
0.09646078 -0.05095511 0.07217086 -0.027860679 0.035021532 0.09162835 -0.061888102 -0.07560927
-0.048096783 -0.0868107 0.10213943 -0.09235807 -0.09183221 0.01667705 -0.08930494 0.056966245
-0.062335156 0.030594217 -0.029890608 0.06446421 0.102796786 -0.061680783 -0.056563742 0.10637656
-0.0697503 -0.082329325 0.040859666 -0.022648677 -0.106351376 0.05518726 -0.039612275 -0.0027386139
0.06960876 -0.041927002 -0.019400345 -0.070349194 0.009440425 -0.06490454 0.040891334 0.07903925
0.12902588 0.005111944 -0.06710318 0.049747493 -0.09314856 0.08550442 -0.009190097 -0.047337268
0.10348868 0.011280179 -0.076643094 -0.080233656 -0.0969644 0.11108219 0.061452538 -0.016450364
-0.07443452 -0.063367225 0.04078469 -0.10111815 -0.038619045 -0.09621074 -0.038603302 -0.10092239
-0.044630993 -0.0071526887 -0.029374903 -0.092941485 -0.07180349 -0.037648976 0.08495928 -0.04652638
-0.04583233 -0.022177517 -0.07088844 0.083993636 0.083720855 -0.00409642 -0.063069746 0.0580296
-0.067445695 -0.04371872 -0.06783064 -0.07858988 -0.08648119 -0.091141984 -0.044933982 0.016694782
0.10401778 -0.014743838 0.031959407 0.082897395 -0.07519523 0.072919734 -0.0664213 -0.058377
0.08950516 -0.060567677 0.089199446 -0.06279004 -0.07953552 -0.08334879 0.03594394 -0.09579096
-0.025258554 -0.065410286 0.08051746 0.0654913 0.052296627 0.009463816 -0.0018801683 -0.024230946
0.005523046 0.06949666 0.07182922 -0.04765548 -0.0092629995 0.056173258 0.0136305485 -0.03559983
0.034911152 -0.03946027 -0.05618434 0.015383198 -0.025547046 -0.04502427 -0.06606517 -0.033757344
00000000: 219d 9bbd ae96 a63d 5518 693d c9ef c43d
00000010: e8a3 c4bd 7747 503c d10c 643d a3ff a3bd
00000020: c72a 69bd 692a 86bd ea9d 97bc 8a4c 1ebd
00000030: 9f9c c7bc 7ed1 a0bd d9d1 a6bc 6a1e 29bd
00000040: 8b15 bcbd e11c 38bc b6d0 c93d 5df2 9d3d
00000050: a9d9 7a3d f4d2 b43d f976 fbbc f27c 623c
00000060: 7394 3ebd 88d0 933d c8f9 ac3d 504e 8cbd
00000070: 77e3 cbbd e1fb 88bc 847a 17bd e3f1 6dbd
00000080: 5ad9 2f3d ff18 763c daa6 a2bd 05d7 a93d
00000090: 6f99 68bb f803 6abd 8e58 22bd fde4 92bd
000000a0: 184b 023b 3c69 21bd da70 bfbc 72e0 87bc
000000b0: c4bb c4bd b7cd 873d 58d2 d03d ef76 6bbd
000000c0: 32ca fe3c a8ed 563d 255c 54bd e098 88bd
000000d0: c797 b73d e005 843d 9945 64bd 3c6c 393d
000000e0: 8d3e 0cbd 5553 a1bd 8ee9 81bd de38 e83c
000000f0: 98f4 3dbc 20da cbbd 6aad 943d 6c3f 92bd
00000100: 7944 ca3d 513e 853d 5bd3 c03d a559 b63c
00000110: 7da1 d3bd db8e 5fbd 41e9 c1bb 9a7b 323c
00000120: 15d3 523d 0b24 4e3d 151b fa3c 5d71 263a
00000130: 0e1c 8a3c 3677 cabb 7a01 b6bd a840 ad3d
00000140: 5329 65bd b5cf 5b3d 203d 823d fcfe 183d
00000150: 9e76 9c3c bf8d b93d 4dc4 1c3c d386 b5bd
00000160: 1f30 c4bd cdf6 ccbb 145d ff3c b9a9 3d3d
00000170: b24f 26bd 6883 51bc 5989 d83c bf1e b3bd
00000180: e770 193d 19b9 87bd 2c4f 9d3d f2ba 03bd
00000190: 4221 12bd 9772 ab3d b77e b63d 70d1 b43c
000001a0: a312 e93c 252c b63c b0f7 c23d e07c a13c
000001b0: 7c76 ff3d f558 a73d f5c3 b13d 80d9 99bd
000001c0: c289 e4bc b67e 863c 8d98 cdbd 6ead ec3d
000001d0: 70ac 8ebd b225 7abc 062f 9ebd 227b 863d
000001e0: 5d5e 03bb 073a 4ebd 817a d5bd 6f82 0b3d
000001f0: 34b7 c93c b8e4 c7bd 187c de3c 3553 22bd
00000200: 3b8d c53d 4eb6 50bd 51ce 933d 143c e4bc
00000210: bd72 0f3d a5a7 bb3d 617e 7dbd 08d9 9abd
00000220: 2201 45bd cfc9 b1bd 7a2e d13d 3a26 bdbd
00000230: 8712 bcbd 4f9e 883c 82e5 b6bd 7055 693d
00000240: 2653 7fbd b9a0 fa3c 26dd f4bc d005 843d
00000250: 1f87 d23d fda4 7cbd 62af 67bd f4db d93d
00000260: 3fd9 8ebd 479c a8bd 775c 273d b889 b9bc
00000270: c0ce d9bd 090c 623d 7b40 22bd 517a 33bb
00000280: 0a8f 8e3d a6bb 2bbd 79ed 9ebc 3d13 90bd
00000290: 03ac 1a3c acec 84bd ac7d 273d 55df a13d
000002a0: 5c1f 043e 1882 a73b 646d 89bd 07c4 4b3d
000002b0: acc4 bebd f11c af3d 1092 16bc b9e4 41bd
000002c0: e0f1 d33d 80d0 383c 0ef7 9cbd 8b51 a4bd
000002d0: 4595 c6bd 0f7f e33d a8b5 7b3d eac2 86bc
000002e0: 2071 98bd adc6 81bd d90d 273d 0817 cfbd
000002f0: 012f 1ebd 230a c5bd 7f1e 1ebd 66b0 cebd
00000300: fdce 36bd 1a61 eabb a3a3 f0bc 1b58 bebd
00000310: b50d 93bd d035 1abd 22ff ad3d 7292 3ebd
00000320: aeba 3bbd a0ad b5bc f52d 91bd db04 ac3d
00000330: d775 ab3d 433b 86bb b62a 81bd 72b0 6d3d
00000340: f820 8abd 6712 33bd caea 8abd bbf3 a0bd
00000350: 0d1d b1bd a6a8 babd b20c 38bd 7fc3 883c
00000360: 4607 d53d 2490 71bc dee7 023d 1cc6 a93d
00000370: f5ff 99bd f156 953d e407 88bd b91c 6fbd
00000380: 7b4e b73d d015 78bd 33ae b63d 1198 80bd
00000390: 85e3 a2bd c5b2 aabd f439 133d 0d2e c4bd
000003a0: 07eb cebc d4f5 85bd 57e6 a43d 4d20 863d
000003b0: fd34 563d 1f0e 1b3c fb6f f6ba fa7f c6bc
000003c0: abfa b43b 4454 8e3d 331b 933d 6532 43bd
000003d0: d6c3 17bc ee15 663d aa52 5f3c 21d1 11bd
000003e0: fffe 0e3d 18a1 21bd 8d21 66bd cf09 7c3c
000003f0: 0a48 d1bc 5e6b 38bd 2d4d 87bd 2445 0abd

mlp2.0.bias f4 [100]
0.022099264 0.15210381 -0.00986389 -0.05492324 0.0023348145 -0.01755084 0.11538569 -0.0137323765
-0.019877333 -0.11098799 0.051429983 0.05115172 0.09310991 -0.06625378 -0.065632515 0.053062245
-0.07891071 -0.079061344 0.08682409 0.102732204 -0.06244069 -0.061412666 -0.0063265087 0.035083964
-0.020440524 0.06906217 0.088500075 -0.024119318 0.027644362 -0.09710439 0.00095393177 -0.061029326
-0.07130981 0.041909866 -0.06505021 0.078315176 -0.058900144 0.004316618 0.0045179874 -0.050683275
-0.08288897 0.041837573 0.0207347 -0.026219204 -0.027324 -0.05042471 0.102978356 -0.042789698
0.08511035 0.054014966 0.0392351 0.004869017 0.0327172 0.01713492 0.011722406 -0.080976255
0.072854936 0.045977134 -0.08092662 0.07628649 -0.01812151 0.08117371 0.009879689 0.012319872
-0.047472134 0.03188891 0.06980277 0.06689011 -0.07697128 -0.09792723 0.01150711 -0.06300435
-0.0022066745 -0.0020313393 0.09602349 -0.089063235 0.07310764 -0.045489077 0.1006226 -0.06897201
-0.024207186 -0.035304297 -0.019372048 -0.07679006 -0.02243046 0.006413451 -0.08523213 0.044710852
0.105513535 -0.02122098 -0.04504721 -0.047583602 -0.03549789 -0.07166084 0.09191595 0.05127177
-0.038826443 -0.011033931 0.041673757 -0.033203986
00000000: 8409 b53c 1ac1 1b3e 279c 21bc 31f7 60bd
00000010: b003 193b c7c6 8fbc 554f ec3d c3fd 60bc
00000020: cad5 a2bc ac4d e3bd 3fa8 523d 7784 513d
00000030: 69b0 be3d 10b0 87bd 576a 86bd cc57 593d
00000040: f09b a1bd eaea a1bd d4d0 b13d 4365 d23d
00000050: cfc1 7fbd d98b 7bbd 9a4e cfbb 34b4 0f3d
00000060: e372 a7bc 7870 8d3d 873f b53d e095 c5bc
00000070: 6e76 e23c abde c6bd 4711 7a3a e3f9 79bd
00000080: e10a 92bd aea9 2b3d 0b39 85bd b563 a03d
00000090: 4741 71bd 6b72 8d3b a00b 943b 4499 4fbd
000000a0: b1c1 a9bd e05d 2b3d d1db a93c a8c9 d6bc
000000b0: 95d6 dfbc 248a 4ebd 51e6 d23d 4044 2fbd
000000c0: 564e ae3d cc3e 5d3d fcb4 203d 468c 9f3b
000000d0: 7902 063d 885e 8c3c 560f 403c e1d6 a5bd
000000e0: f834 953d 8552 3c3d dbbc a5bd 173c 9c3d
000000f0: 9073 94bc 673e a63d 6bde 213c 4ad9 493c
00000100: 2472 42bd f29d 023d c1f4 8e3d affd 883d
00000110: 1ea3 9dbd 128e c8bd 5188 3c3c 6d08 81bd
00000120: db9d 10bb 3820 05bb f7a7 c43d c966 b6bd
00000130: 75b9 953d c152 3abd 3913 ce3d 3241 8dbd
00000140: 264e c6bc 3d9b 10bd 21b2 9ebc 1b44 9dbd
00000150: 16c0 b7bc ed27 d23b 2f8e aebd ba22 373d
00000160: 7b17 d83d 9fd7 adbc 6c83 38bd 06e7 42bd
00000170: 3c66 11bd ebc2 92bd 6e3e bc3d 5902 523d
00000180: 7a08 1fbd a9c7 34bc 1ab2 2a3d e700 08bd

mlp2.2.weight f4 [50, 100]
0.025483906 -0.0018092459 0.01275516 -0.072700284 -0.02215016 -0.0397606 0.05934875 0.07815993
-0.08784596 -0.041443247 -0.089928724 -0.13428453 -0.07613786 0.09485287 0.032142743 -0.015047468
-0.08686981 0.08404881 -0.038966093 -0.07827034 0.035866354 0.0852852 0.055464476 -0.021953091
-0.013930796 -0.0059229066 -0.058146093 0.032992333 0.088100925 0.040322576 0.039181165 -0.08768315
0.09686154 -0.019575072 0.004326887 -0.058020998 0.018175004 -0.09295667 0.07667846 -0.08004198
-0.04728792 -0.009201596 0.07436528 0.015541858 -0.07428574 0.024983322 -0.061290536 0.021830862
-0.033058025 0.03054919 -0.0005115814 0.052094866 -0.10036459 -0.07327232 -0.053686976 -0.03723965
-0.096673295 -0.07367316 0.025743375 -0.07262536 0.091044456 -0.048553277 -0.013551982 -0.008860971
-0.10772269 0.05174963 0.08195296 0.08721749 0.0066958284 -0.007262477 -0.06720291 0.04920312
0.058637336 -0.002467606 0.006094782 -0.07160401 0.06913278 0.034234732 -0.0038858743 0.08193786
0.037924264 0.09788462 -0.07911563 0.05502128 0.0034462265 -0.053447716 0.078530475 -0.10051005
-0.07619761 -0.07263807 0.044862814 0.09306482 -0.09483459 -0.07521828 -0.09149891 0.021897519
-0.026704416 0.02311267 0.023911614 0.04601119 -0.04792501 0.09093608 -0.09117762 0.034112237
0.0024069531 -0.082524106 -0.031421088 -0.088665746 0.09007881 -0.039910108 -0.043241467 -0.10003278
0.08780854 -0.039488006 -0.042194113 -0.051654223 -0.099920295 -0.08153961 0.09025551 -0.068796724
0.034608915 0.037224017 0.029023686 0.031062735 0.025619077 -0.08053935 -0.044702787 -0.0034772875
-0.012740856 -0.024166673 0.12496832 -0.077615954 -0.059548236 -0.07133911 -0.013491051 0.09895981
-0.08727174 -0.050756745 0.09483379 -0.031374183 0.0634267 0.012890637 -0.012660176 -0.08227556
-0.04987388 0.107664265 0.07795404 -0.11261948 0.027249683 0.073657855 -0.08828918 -0.06523644
0.07926787 0.025104215 0.033936724 0.04111683 0.05452871 0.10468414 0.07550606 0.0379918
-0.037612837 -0.07099459 0.072300754 -0.092965096 -0.042457383 0.0657377 0.045462377 0.02887164
0.08200903 -0.0127407005 0.050459288 0.08268543 -0.02923744 -0.0037631874 0.008291463 -0.032509625
-0.0049904757 0.059966084 -0.03942937 -0.10203648 0.06869907 -0.035771154 0.07386813 -0.024008531
0.010518231 -0.026259273 0.031867396 -0.09522556 0.14679638 -0.05887011 -0.087904654 -0.074567914
0.050676484 0.01335587 -0.05786514 -0.085463345 -0.00222531 0.10884555 -0.03648367 0.09430932
0.079969734 0.009416631 0.021043511 0.032699753 0.03451875 -0.11347505 -0.0014293895 0.039433397
0.066589266 0.0026887776 -0.048430804 0.05383242 0.043463934 -0.06781164 -0.1088184 0.020041294
0.06482707 0.020878978 -0.054029576 0.068382315 -0.086080626 0.030353215 0.028041923 0.07137732
0.015740281 0.06747064 -0.12223159 0.042186346 0.08674082 0.08645922 -0.18999411 -0.036401022
0.072967015 -0.015207838 0.018173734 0.009794003 -0.09366963 -0.09421665 -0.014327376 0.08515903
0.06393068 -0.10540716 0.030976709 -0.040038723 -0.0019500647 -0.04227715 -0.091708556 0.01508802
-0.06799683 0.004540641 0.06093366 -0.08894396 -0.014446495 -0.03669159 0.1240835 -0.09622036
00000000: a0c3 d03c 3824 edba 05fb 503c e3e3 94bd
00000010: 4174 b5bc 03dc 22bd ad17 733d 5012 a03d
00000020: 95e8 b3bd 65c0 29bd 8d2c b8bd e281 09be
00000030: 2bee 9bbd 3942 c23d 1ca8 033d a889 76bc
00000040: cde8 b1bd c821 ac3d e99a 1fbd 334c a0bd
00000050: 99e8 123d 02aa ae3d b82e 633d f8d6 b3bc
00000060: fe3d 64bc f114 c2bb 992a 6ebd f822 073d
00000070: 426e b43d 4929 253d 6e7c 203d 3993 b3bd
00000080: 585f c63d e75b a0bc 8fc8 8d3b 6da7 6dbd
00000090: bfe3 943c 1160 bebd 9909 9d3d 0ded a3bd
000000a0: fab0 41bd 4ac2 16bc d34c 983d 47a3 7e3c
000000b0: 1f23 98bd d3a9 cc3c c90b 7bbd a3d6 b23c
000000c0: da67 07bd 4b42 fa3c a61b 06ba 6d61 553d
000000d0: f38b cdbd cc0f 96bd e0e6 5bbd 9a88 18bd
000000e0: a6fc c5bd f4e1 96bd c5e3 d23c 9bbc 94bd
000000f0: 8475 ba3d cddf 46bd 2209 5ebc 9b2d 11bc
00000100: b79d dcbd 6cf7 533d f4d6 a73d 159f b23d
00000110: ae68 db3b 13fa edbb aea1 89bd 3689 493d
00000120: b42d 703d 8fb7 21bb bdb6 c73b 20a5 92bd
00000130: 7d95 8d3d b839 0c3d 27aa 7ebb 09cf a73d
00000140: 7956 1b3d bb77 c83d 6007 a2bd fe5d 613d
00000150: 16da 613b feeb 5abd 96d4 a03d 37d8 cdbd
00000160: 7e0d 9cbd 45c3 94bd 12c2 373d c598 be3d
00000170: a338 c2bd 0b0c 9abd c863 bbbd 6d62 b33c
00000180: 38c3 dabc c856 bd3c 4ae2 c33c 3b76 3c3d
00000190: 044d 44bd b23c ba3d 55bb babd 46b9 0b3d
000001a0: f9bd 1d3b 6602 a9bd 66b3 00bd 6396 b5bd
000001b0: 3d7b b83d c878 23bd f71d 31bd fcdd ccbd
000001c0: f7d4 b33d 2dbe 21bd bcd3 2cbd 6193 53bd
000001d0: 03a3 ccbd 3dfe a6bd e1d7 b83d 4ce5 8cbd
000001e0: 14c2 0d3d 3678 183d 15c3 ed3c 4777 fe3c
000001f0: 19df d13c d1f1 a4bd 451a 37bd 34e3 63bb
00000200: 06bf 50bc 30f9 c5bc 64ef ff3d 1df5 9ebd
00000210: dae8 73bd 3d1a 92bd 9209 5dbc 71ab ca3d
00000220: 87bb b2bd 4ee6 4fbd 3838 c23d 3782 00bd
00000230: dce5 813d 4033 533c a06c 4fbc 1780 a8bd
00000240: 8e48 4cbd 157f dc3d 5ea6 9f3d 0ba5 e6bd
00000250: ba3a df3c eed9 963d f5d0 b4bd af9a 85bd
00000260: 3157 a23d 5ba7 cd3c 3c01 0b3d 1f6a 283d
00000270: 7f59 5f3d a364 d63d eca2 9a3d 4a9d 1b3d
00000280: eb0f 1abd 9d65 91bd 6b12 943d 7c64 bebd
00000290: cbe7 2dbd 7da1 863d c236 3a3d 3884 ec3c
000002a0: 5af4 a73d 5fbe 50bc 66ae 4e3d fb56 a93d
000002b0: 5b83 efbc cf9f 76bb ebd8 073c d028 05bd
000002c0: 2587 a3bb ff9e 753d b180 21bd 81f8 d0bd
000002d0: 19b2 8c3d c684 12bd 2d48 973d 8aad c4bc
000002e0: a954 2c3c b01d d7bc 6387 023d 9e05 c3bd
000002f0: ca51 163e c921 71bd 5b07 b4bd 10b7 98bd
00000300: 2592 4f3d 94d2 5a3c ff03 6dbd 6807 afbd
00000310: 82d6 11bb 6aea de3d e76f 15bd 3f25 c13d
00000320: 2cc7 a33d 3748 1a3c 7163 ac3c 2df0 053d
00000330: 8863 0d3d 9b65 e8bd 5a5a bbba ea84 213d
00000340: f45f 883d 3436 303b 615f 46bd 627f 5c3d
00000350: 3d07 323d d4e0 8abd 2edc debd a42d a43c
00000360: 0ec4 843d 640a ab3c 1e4e 5dbd 070c 8c3d
00000370: 0a4b b0bd 4ea7 f83c 2db8 e53c 462e 923d
00000380: c3f1 803c 0c2e 8a3d 8e54 fabd 97cb 2c3d
00000390: 2ca5 b13d 8811 b13d d18d 42be 3d19 15bd
000003a0: bb6f 953d 4c2a 79bc 15e1 943c 0777 203c
000003b0: ddd5 bfbd a9f4 c0bd 5fbd 6abc dc67 ae3d
000003c0: 17ee 823d b6df d7bd dec2 fd3c a5ff 23bd
000003d0: 5099 ffba ce2a 2dbd b2d1 bbbd be33 773c
000003e0: ec41 8bbd a8c9 943b 9395 793d 4028 b6bd
000003f0: feb0 6cbc ec49 16bd 7d1f fe3d 2e0f c5bd

mlp2.2.bias f4 [50]
-0.06167578 0.015930464 -0.11698576 -0.053264502 0.044450264 -0.07171342 -0.11192821 -0.079112716
-0.12010014 0.08750404 0.050909795 0.09334005 -0.0010690733 -0.01030946 -0.0040581618 0.04870815
-0.058678288 0.013065561 0.0052199815 0.08235052 -0.047287844 0.092108265 -0.07787454 -0.0044205543
-0.01812658 0.072397634 -0.05321632 0.0423921 0.06549584 -0.05035099 0.027185962 -0.085293524
-0.01801501 -0.044045873 -0.03932914 -0.02892527 -0.014635472 0.073002435 0.0095210085 -0.028974168
0.057475157 0.003814369 0.07523655 -0.051324144 -0.058585078 -0.006210781 0.0009388402 0.113063455
-0.044830553 0.04643894
00000000: be9f 7cbd 9b80 823c 3b96 efbd e12b 5abd
00000010: 7b11 363d 7cde 92bd 9e3a e5bd d905 a2bd
00000020: 10f7 f5bd 5135 b33d ca86 503d 1129 bf3d
00000030: 2620 8cba 02e9 28bc 54fa 84bb 3282 473d
00000040: a558 70bd ef10 563c 610c ab3b 64a7 a83d
00000050: e6b0 41bd 42a3 bc3d b07c 9fbd 4cda 90bb
00000060: 327e 94bc 3645 943d 5bf9 59bd 57a3 2d3d
00000070: af22 863d d73c 4ebd 18b5 de3c 5fae aebd
00000080: 3794 93bc 7269 34bd 9817 21bd b0f4 ecbc
00000090: 9ec9 6fbc 4d82 953d 01fe 1b3c 3c5b edbc
000000a0: 126b 6b3d 7efa 793b 9f15 9a3d 4439 52bd
000000b0: e8f6 6fbd cf83 cbbb 801c 763a d08d e73d
000000c0: 3ea0 37bd c236 3e3d

attention.0.weight f4 [100, 200]
-0.023333503 -0.03388893 0.00045557585 0.06260019 0.062702455 -0.05197967 -0.023701226 -0.031572778
0.013566318 -0.004054915 0.05553787 -0.026750514 -0.019718237 -0.069111034 -0.05984425 -0.029067567
0.059333544 0.061083287 0.037456192 -0.055219185 0.036405493 -0.040899992 -0.0032148545 0.06325656
-0.033613726 0.04195418 0.008501633 -0.00028193425 0.043695208 -0.02441267 0.04655843 0.02836454
-0.035598077 0.026942078 -0.06505733 -0.061351627 -0.0035861304 0.059586074 -0.019377803 -0.04186858
-0.0047653667 0.020117309 0.039010074 0.0301148 -0.012327926 0.004540368 0.03630304 -0.053046983
-0.009414073 -0.06990718 -0.026354838 -0.021957204 -0.018518522 0.0019614615 -0.030792851 0.028369002
0.024675656 -0.0519336 -0.039789252 0.04400718 -0.035730343 -0.023906935 -0.05224835 -0.051509928
-0.010452878 0.036198944 0.03327343 -0.0047585065 -0.03256884 -0.04761598 0.032958362 -0.06367087
-0.04421074 -0.046431202 0.05191581 -0.03181988 -0.01475143 0.009473556 0.044979643 0.05141193
-0.030199079 -0.04471178 -0.027318353 0.02340846 0.05836955 0.06089657 0.036518183 0.022037989
-0.015526272 0.051863253 -0.034253567 0.0368568 0.018137472 -0.04055474 0.0329688 0.042636402
0.024681933 -0.027145552 0.038645677 0.042225793 -0.057798173 -0.0103899045 0.010910418 -0.031554006
0.037464485 0.055509046 0.059649486 0.012903757 -0.027350971 0.031147933 -0.030440569 -0.027371176
0.0026096771 -0.03306165 -0.02002067 0.063584894 -0.043305863 -0.065813385 0.013927423 0.005501176
0.041464202 0.068274096 0.033223152 -0.012238709 -0.03990113 -0.025466036 -0.033441443 -0.03547718
-0.0054100454 0.02597019 0.00020371066 0.0038510528 -0.038743187 -0.063053176 0.034263372 0.004848186
-0.0135529945 -0.0023586913 -0.04359232 -0.030858329 0.066346645 -0.056166567 -0.06426925 0.022638604
-0.069998294 0.032967176 0.017685909 0.033240125 0.038992506 0.004760695 -0.016469836 -0.029152129
0.029828416 -0.009517874 -0.05810955 0.07028882 -0.025932673 -0.048908785 -0.031017542 0.037828423
-0.028652752 -0.0050289524 0.00240377 0.029730977 0.04115952 0.00345527 -0.04127129 -0.03144916
0.0027167553 -0.05341205 0.05632651 0.036325105 0.063135654 0.038866214 -0.04044228 -0.031606596
-0.002887069 0.045130543 0.058729872 0.018426662 0.06497139 -0.071417786 0.041332755 0.04754887
0.04410125 -0.046470203 -0.015223232 -0.046607047 -0.0014331054 0.010648218 0.04470124 0.029506972
-0.00067177607 0.03925317 0.0106195435 -0.013679924 -0.042188615 -0.064389594 -0.0010761622 0.047014087
-0.018338215 -0.04921164 -0.0029624896 0.040236335 -0.066768795 0.017638253 0.019473596 0.059115402
-0.052908182 0.0600554 0.057388045 0.03587164 0.04611957 -0.060501773 0.050420895 -0.023613388
-0.009850351 0.005659972 0.05066179 -0.030681636 -0.03592043 -0.0057594636 -0.025250837 0.027104368
0.044285342 0.00024110303 0.012538334 0.02635944 -0.05334983 0.06626803 -0.036695413 0.039714675
0.0037201114 -0.026864713 0.03722947 -0.032173533 -0.039394256 0.06553323 0.005746554 0.0024142573
0.008240392 -0.0032107797 -0.05262828 0.041753575 -0.010716557 0.063334465 -0.027242184 0.051238205
-0.03932356 -0.020695364 -0.017463764 0.036691766 0.031117419 0.029117279 -0.05951107 0.0018629442
00000000: e725 bfbc 1ecf 0abd 5bda ee39 8734 803d
00000010: 256a 803d a2e8 54bd 1329 c2bc 7552 01bd
00000020: 4345 5e3c 18df 84bb ad7b 633d e523 dbbc
00000030: 2488 a1bc 168a 8dbd 3f1f 75bd 1b1f eebc
00000040: bb07 733d 7832 7a3d aa6b 193d 832d 62bd
00000050: ed1d 153d c086 27bd 4fb0 52bb a88c 813d
00000060: 8cae 09bd 25d8 2b3d 6f4a 0b3c 93d0 93b9
00000070: bff9 323d 14fd c7bc 0db4 3e3d c05c e83c
00000080: 4acf 11bd a2b5 dc3c c73c 85bd d84b 7bbd
00000090: 4905 6bbb 8710 743d 33be 9ebc 637e 2bbd
000000a0: cb26 9cbb 0ecd a43c 07c9 1f3d 50b3 f63c
000000b0: 12fb 49bc 5ec7 943b 7fb2 143d cb47 59bd
000000c0: 7c3d 1abc 7f2b 8fbd 1ae6 d7bc 98df b3bc
000000d0: 28b4 97bc dd8b 003b 4a41 fcbc 1c66 e83c
000000e0: 9a24 ca3c 54b8 54bd 0efa 22bd df40 343d
000000f0: fb59 12bd 7ad8 c3bc 5e02 56bd 13fc 52bd
00000100: 8c42 2bbc 5845 143d b849 083d 3fed 9bbb
00000110: e766 05bd f908 43bd 59ff 063d e065 82bd
00000120: 5216 35bd a52e 3ebd aca5 543d 9055 02bd
00000130: fbaf 71bc f936 1b3c 933c 383d 5195 523d
00000140: 0f64 f7bc b323 37bd bdca dfbc 19c3 bf3c
00000150: e914 6f3d af6e 793d 1794 153d 0389 b43c
00000160: e861 7ebc 906e 543d 784d 0cbd 28f7 163d
00000170: 0995 943c ba1c 26bd 4b0a 073d 82a3 2e3d
00000180: c431 ca3c 5960 debc ee4a 1e3d f4f4 2c3d
00000190: c7bd 6cbd 6b3a 2abc 9cc1 323c c63e 01bd
000001a0: 5c74 193d 745d 633d 0553 743d 486a 533c
000001b0: 250f e0bc f329 ff3c 805e f9bc 8439 e0bc
000001c0: 1e07 2b3b a76b 07bd 6302 a4bc cc38 823d
000001d0: 7d61 31bd 2bc9 86bd d92f 643c 3643 b43b
000001e0: 5ed6 293d 4ad3 8b3d 0015 083d de84 48bc
000001f0: 5e6f 23bd 269e d0bc e5f9 08bd 8550 11bd
00000200: c046 b1bb 70bf d43c 2a9b 5539 f261 7c3b
00000210: 2db1 1ebd 0622 81bd c057 0c3d 88dd 9e3b
00000220: 610d 5ebc 4694 1abb dc8d 32bd 9bca fcbc
00000230: c0e0 873d ea0e 66bd 999f 83bd 9874 b93c
00000240: 445b 8fbd 9708 073d 0ae2 903c cc26 083d
00000250: 9bb6 1f3d 9bff 9b3b c0eb 86bc 72d0 eebc
00000260: b95a f43c dbf0 1bbc 4804 6ebd 96f3 8f3d
00000270: c270 d4bc 9454 48bd 8018 febc faf1 1a3d
00000280: 2db9 eabc e9c9 a4bb 9288 1d3b 618e f33c
00000290: e396 283d d071 623b 160c 29bd d6d0 00bd
000002a0: 970b 323b 98c6 5abd a0b6 663d a2c9 143d
000002b0: 444d 813d 2e32 1f3d cea6 25bd eb75 01bd
000002c0: fb34 3dbb ceda 383d bc8e 703d 83f3 963c
000002d0: b80f 853d 7d43 92bd 894c 293d 9bc2 423d
000002e0: 83a3 343d 8a57 3ebd dd6a 79bc 08e7 3ebd
000002f0: 0ad7 bbba dd75 2e3c a618 373d 9bb8 f13c
00000300: 211a 30ba efc7 203d 98fd 2d3c c321 60bc
00000310: f8cd 2cbd b1de 83bd 030e 8dba d891 403d
00000320: 063a 96bc 2592 49bd 5426 42bb dbce 243d
00000330: 14be 88bd 197e 903c 1787 9f3c fe22 723d
00000340: 40b6 58bd a7fc 753d ba0f 6b3d 24ee 123d
00000350: e0e7 3c3d b5d0 77bd 2486 4e3d dd70 c1bc
00000360: 5e63 21bc 4977 b93b bd82 4f3d 0e58 fbbc
00000370: 4d21 13bd e2b9 bcbb d8da cebc fb09 de3c
00000380: 8c64 353d 9ad0 7c39 966d 4d3c c1ef d73c
00000390: 5a85 5abd 88b7 873d ee4d 16bd dbab 223d
000003a0: 1dcd 733b 6313 dcbc ee7d 183d 65c8 03bd
000003b0: df5b 21bd 4936 863d 974d bc3b 8438 1e3b
000003c0: b602 073c f26b 52bb c090 57bd cc05 2b3d
000003d0: 7f94 2fbc 80b5 813d 002b dfbc 27df 513d
000003e0: be11 21bd 5389 a9bc 2b10 8fbc 1b4a 163d
000003f0: f5e9 fe3c 5c87 ee3c e1c1 73bd 092e f43a

attention.0.bias f4 [100]
-0.040696945 -0.005885297 0.028535286 0.049264017 0.050050803 0.06281925 -0.044362295 0.06764466
0.013796393 0.02911061 0.044987876 0.05384484 0.044975758 -0.040484518 -0.048808087 0.04439278
0.03458491 -0.0007261819 -0.03980713 0.019553915 -0.019896956 -0.06406161 -0.041609924 0.054108307
-0.038163044 -0.05351075 0.027141089 -0.0054736603 0.016013812 -0.041705746 -0.027909206 0.030125573
0.047637865 0.016134726 0.04652859 0.038423736 0.019160848 -0.022173762 0.0141506195 0.02341752
0.02054394 -0.022413814 -0.0440463 0.03895556 -0.021843227 0.026849348 -0.06680881 -0.046737358
0.07174458 -0.03913252 0.027674781 0.0031520498 -0.057788387 0.01647478 0.03435883 0.05138463
-0.015506368 -0.015348571 0.03723513 -0.013109518 0.00074392266 0.05835541 -0.07569085 -0.003883052
-0.012822618 0.063394606 -0.020288754 -0.038990907 0.028744403 0.061870586 -0.0120584825 0.04604214
-0.018008795 0.046973728 -0.014994293 -0.0017964581 0.007070406 0.05690054 -0.059619807 0.060012683
-0.03331712 0.019673642 -0.025794465 -0.0061436356 -0.057779603 -0.060914267 0.015187258 0.0556576
-0.0666689 -0.03735179 0.06016943 -0.009832647 0.06011006 0.062991425 0.07062088 0.061075345
-0.007891427 0.019316228 0.004247343 -0.023296958
00000000: d7b1 26bd 73d9 c0bb d5c2 e93c 11c9 493d
00000010: 1202 4d3d 61a7 803d 3db5 35bd 4989 8a3d
00000020: 440a 623c 6079 ee3c 3545 383d 688c 5c3d
00000030: 8038 383d 18d3 25bd fdea 47bd 34d5 353d
00000040: e8a8 0d3d 3e5d 3eba cd0c 23bd 882f a03c
00000050: f1fe a2bc bc32 83bd 2b6f 2abd aca0 5d3d
00000060: da50 1cbd 172e 5bbd fd56 de3c 645c b3bb
00000070: 662f 833c a5d3 2abd d9a1 e4bc e8c9 f63c
00000080: ec1f 433d f92c 843c c394 3e3d 3562 1d3d
00000090: 36f7 9c3c c0a5 b5bc 00d8 673c 19d6 bf3c
000000a0: c44b a83c 2d9d b7bc e569 34bd de8f 1f3d
000000b0: 91f0 b2bc 2af3 db3c 0fd3 88bd ac6f 3fbd
000000c0: d3ee 923d 6c49 20bd 39b6 e23c 9f92 4e3b
000000d0: 84b3 6cbd 1ef6 863c d8bb 0c3d b178 523d
000000e0: 6c0e 7ebc 9378 7bbc dd83 183d 4ec9 56bc
000000f0: ce03 433a 1506 6f3d ce03 9bbd cd7a 7ebb
00000100: f515 52bc 08d5 813d 9a34 a6bc eeb4 1fbd
00000110: 6279 eb3c 036c 7d3d f190 45bc af96 3c3d
00000120: 2e87 93bc 8667 403d a0aa 75bc 2277 ebba
00000130: ddae e73b 8a10 693d e633 74bd dccf 753d
00000140: 8877 08bd 9e2a a13c ea4e d3bc 8d50 c9bb
00000150: 4eaa 6cbd 3d81 79bd fad3 783c 39f9 633d
00000160: b489 88bd 31fe 18bd 3874 763d 1c19 21bc
00000170: f735 763d a601 813d aea1 903d 242a 7a3d
00000180: 0b4b 01bc 113d 9e3c 4c2d 8b3b 43d9 bebc

attention.2.weight f4 [100, 100]
0.083780676 -0.08060439 -0.05455167 -0.022346947 -0.009222472 -0.05114814 -0.082771145 -0.059134103
0.011394147 -0.06952461 -0.022328015 0.05979638 0.043517392 0.048053864 0.06328172 -0.061919153
0.04958157 -0.059431467 0.09715109 -0.0095513845 -0.06881745 0.07388206 0.07077196 -0.03731434
-0.0866065 -0.06046748 0.07266523 -0.09355821 -0.061744735 -0.05962293 -0.054548874 -0.053695787
0.018013252 -0.075621195 0.030480541 -0.045456152 0.039688442 -0.07246243 -0.07885453 0.024771525
-0.008999334 -0.017394034 0.047059327 -0.020139297 0.003589608 0.04504626 -0.03812628 0.06881874
0.048074283 -0.0026484109 -0.06383538 0.088183016 -0.08909451 0.022047047 0.07049001 0.0009800636
-0.0029073008 -0.003677781 0.08950783 -0.035369765 -0.022250598 0.08081989 -0.038184762 -0.06820616
-0.07503657 -0.054241147 -0.058811214 0.0054777837 0.04169598 -0.078842126 0.040011454 0.07973619
-0.010585474 -0.099940725 -0.03997274 -0.008004985 -0.026019407 -0.028615402 0.07857317 -0.063574694
-0.09567847 -0.05741279 0.07707393 0.06933756 0.03659341 0.09187407 0.078516945 0.00079868303
0.067225866 -0.023592671 -0.0022347646 0.00016824983 -0.010633767 -0.008550786 0.06375228 -0.013616722
-0.07505899 -0.09195138 -0.0031851272 0.030001033 0.035969146 0.003201017 0.07229889 -0.006090941
-0.03513045 0.024382653 0.023322606 -0.014418334 0.09259778 -0.047509383 0.09578317 0.09373618
-0.092553176 -0.08286353 -0.0049462095 0.021904718 0.05837819 -0.028629525 0.07909439 -0.037094105
-0.014396441 0.0014303833 0.04135822 0.07781065 -0.060449716 0.027887115 0.05959574 -0.012584721
-0.09808285 -0.09910552 -0.058452573 -0.062356927 -0.021457804 0.03275308 -0.06744404 -0.041101154
-0.028404646 0.08508552 0.08024302 -0.09835662 -0.08733212 0.08395413 -0.007867633 0.049563
0.0523287 0.09392851 -0.019693311 -0.020169795 0.06345501 0.0017171489 -0.03411944 0.09551514
-0.0048228772 -0.011724817 0.027275117 0.09275551 0.034505397 0.053057585 -0.029450206 -0.051007856
-0.04781517 0.07659739 0.037050504 -0.04397547 -0.05148049 0.07838218 0.051104393 0.06811376
0.040721327 0.07938196 -0.007992198 0.09794392 -0.009895588 0.03642499 0.07769255 0.017550673
-0.008464948 -0.033330996 0.005543947 0.08641849 0.05732429 0.05555409 0.047375094 0.027155433
-0.012365288 -0.037053086 -0.028564723 -0.08813663 0.08137456 -0.059850775 -0.07159143 -0.10149619
0.024137184 -0.07355886 0.0049575707 -0.07484767 0.04990981 0.013875992 0.026075453 -0.040794473
-0.08056178 0.09276658 0.048833217 0.055411566 0.052116916 0.0026478306 -0.014290321 0.093165435
-0.07844872 0.0057096602 -0.020146534 -0.020371713 -0.0493144 0.022541286 -0.009516096 -0.008700229
-0.01799268 0.01428429 -0.035427127 0.08216764 0.076106325 -0.007426703 -0.096991435 -0.014944485
-0.015843904 0.085371554 -0.05924324 -0.045942493 -0.07752607 0.022844704 0.0235204 -0.024894118
-0.020623008 -0.013589423 -0.024466293 0.09285621 0.05830372 -0.015553859 0.035272267 -0.09993839
0.00513929 0.0861558 -0.04836401 0.024141751 0.018420005 -0.081868984 -0.037856244 -0.08814268
-0.033657666 0.06799285 -0.023857174 -0.06781187 0.0450378 0.07681123 -0.098448366 -0.07200674
00000000: 3495 ab3d ea13 a5bd 9271 5fbd f210 b7bc
00000010: da19 17bc b680 51bd eb83 a9bd 9a36 72bd
00000020: 84ae 3a3c eb62 8ebd 3ee9 b6bc 0ded 743d
00000030: 4b3f 323d 21d4 443d d999 813d f09e 7dbd
00000040: 0b16 4b3d 696e 73bd 27f7 c63d 697d 1cbc
00000050: 2af0 8cbd 7a4f 973d e4f0 903d ecd6 18bd
00000060: c05e b1bd c0ac 77bd 82d1 943d 729b bfbd
00000070: 0ce8 7cbd 2c37 74bd a46e 5fbd 1df0 5bbd
00000080: 8790 933c 49df 9abd 54b2 f93c 3b30 3abd
00000090: 5990 223d 2f67 94bd 7c7e a1bd a7ed ca3c
000000a0: f171 13bc ef7d 8ebc 48c1 403d 2bfb a4bc
000000b0: a13f 6b3b 6d82 383d 4d2a 1cbd d7f0 8c3d
000000c0: 8ae9 443d f690 2dbb 20bc 82bd 4c99 b43d
000000d0: 2f77 b6bd 029c b43c 115d 903d 7a75 803a
000000e0: 6a88 3ebb ed06 71bb e24f b73d e3df 10bd
000000f0: e346 b6bc e684 a53d a067 1cbd acaf 8bbd
00000100: c6ac 99bd f72b 5ebd 07e4 70bd fb7e b33b
00000110: 67c9 2a3d fb77 a1bd 0de3 233d ba4c a33d
00000120: b26e 2dbc b9ad ccbd 75ba 23bd 5727 03bc
00000130: a726 d5bc d96a eabc f8ea a03d 7333 82bd
00000140: 13f3 c3bd ac29 6bbd f0d8 9d3d da00 8e3d
00000150: f9e2 153d 7928 bc3d 7ecd a03d b65e 513a
00000160: b7ad 893d 6b45 c1bc 2175 12bb 386c 3039
00000170: 4039 2ebc 9918 0cbc 8e90 823d ac18 5fbc
00000180: 87b8 99bd 0151 bcbd 91bd 50bb bac4 f53c
00000190: 6254 133d 27c8 513b 7111 943d 8496 c7bb
000001a0: f2e4 0fbd 21be c73c 0d0f bf3c e03a 6cbc
000001b0: e8a3 bd3d 3399 42bd f729 c43d c1f8 bf3d
000001c0: 858c bdbd 5bb4 a9bd d013 a2bb 8671 b33c
000001d0: f81d 6f3d 7788 eabc 3dfc a13d fdef 17bd
000001e0: 0ddf 6bbc b37b bb3a 3d67 293d 315b 9f3d
000001f0: 1f9a 77bd 8573 e43c aa1a 743d 2530 4ebc
00000200: a9df c8bd d6f7 cabd f76b 6fbd fa69 7fbd
00000210: 47c8 afbc 1828 063d 1a20 8abd af59 28bd
00000220: dcb0 e8bc 5141 ae3d 7456 a43d 326f c9bd
00000230: 2fdb b2bd 25f0 ab3d 3fe7 00bc 9302 4b3d
00000240: 9e56 563d 975d c03d de53 a1bc 203b a5bc
00000250: b3f4 813d f511 e13a d3c0 0bbd 719d c33d
00000260: 3a09 9ebb 7219 40bc 1170 df3c 9af6 bd3d
00000270: 8855 0d3d e952 593d 8f41 f1bc 9ded 50bd
00000280: d7d9 43bd 18df 9c3d 45c2 173d 9f1f 34bd
00000290: 35dd 52bd d686 a03d d752 513d 3a7f 8b3d
000002a0: 68cb 263d 0293 a23d b5f1 02bc d296 c83d
000002b0: 1b21 22bc 5f32 153d 461d 9f3d 6ec6 8f3c
000002c0: 91b0 0abc 1586 08bd 00aa b53b 2dfc b03d
000002d0: e0cc 6a3d af8c 633d 630c 423d 1275 de3c
000002e0: c797 4abc fac4 17bd 9100 eabc fa80 b4bd
000002f0: b5a7 a63d 1626 75bd 879e 92bd 3cdd cfbd
00000300: 58bb c53c 07a6 96bd 1e73 a23b bc49 99bd
00000310: 3b6e 4c3d 2158 633c 309c d53c 1b18 27bd
00000320: 93fd a4bd 68fc bd3d 5705 483d 3df7 623d
00000330: 8c78 553d 3a87 2d3b f321 6abc 85cd be3d
00000340: b9a9 a0bd 1a18 bb3b 580a a5bc 94e2 a6bc
00000350: e5fd 49bd 81a8 b83c 66e9 1bbc 688b 0ebc
00000360: 6365 93bc a808 6a3c 091c 11bd 8247 a83d
00000370: a2dd 9b3d b35b f3bb 72a3 c6bd b7d9 74bc
00000380: 13cb 81bc 48d7 ae3d 0aa9 72bd 322e 3cbd
00000390: fdc5 9ebd d124 bb3c dbad c03c c0ee cbbc
000003a0: 95f1 a8bc 2ca6 5ebc 896d c8bc 662b be3d
000003b0: e2cf 6e3d 9dd5 7ebc a779 103d 80ac ccbd
000003c0: 7d67 a83b 7472 b03d 5719 46bd ecc4 c53c
000003d0: 8de5 963c edaa a7bd 260f 1bbd 2684 b4bd
000003e0: 9fdc 09bd d63f 8b3d 1f70 c3bc f3e0 8abd
000003f0: 8e79 383d 354f 9d3d 4c9f c9bd 4578 93bd
