crowd_nav/data/archive/output-SARL-trained-on-wrong-sim/rl_model.pth (torch, 392547 bytes, 20 tensors)

mlp1.0.weight f4 [150, 13]
0	0xbd94f78d	-0.07273779
1	0xbe655fb4	-0.22399789
2	0x3e8abfc1	0.27099422
3	0xbda00fc6	-0.078155085
4	0xbe14e386	-0.14539918
5	0x3e50eb3b	0.20402233
6	0xbdfdf9f4	-0.124011904
7	0x3db942ba	0.0904593
8	0x3dee3430	0.11631048
9	0xbce90515	-0.028444806
10	0x3e195ece	0.14977571
11	0xbe8a0767	-0.26958773
12	0x3dd86493	0.10566058
13	0x3e0ba947	0.13638793
14	0xbe9e36b6	-0.30901116
15	0x3e6a3823	0.22872977
16	0xbda2b666	-0.07944946
17	0xbdde0e76	-0.10842602
18	0x3d2dd16b	0.042436045
19	0x3ebbdc8a	0.36691695
20	0x3d1452a7	0.036211636
21	0x3ece2dc4	0.4026929
22	0xbe61ddd8	-0.22057283
23	0xbe2aba19	-0.16672553
24	0x3dc57f42	0.09643413
25	0xbdf7b9aa	-0.120959595
26	0xbe8ab8dd	-0.27094164
27	0x3dc19f36	0.09454195
28	0xbd463ffb	-0.04840086
29	0xbe0a4612	-0.13503292
30	0x3e22294f	0.1583607
31	0x3e03eb98	0.1288284
32	0x3e56514d	0.20929451
33	0x3e266580	0.16249657
34	0xbcefd894	-0.029278077
35	0x3e816e71	0.25279573
36	0xbdcd487f	-0.10023593
37	0x3d265bf0	0.040615022
38	0xbe34f915	-0.17673142
39	0xbe406166	-0.18787155
40	0x3d3d10f2	0.04615874
41	0x3e7e5076	0.24835381
42	0xbe09699b	-0.13419192
43	0x3e4c6107	0.19958888
44	0x3dce9591	0.10087121
45	0xbe7a78a7	-0.24460088
46	0xbe65b2f4	-0.22431546
47	0x3d8e59a7	0.069506936
48	0x3ddaa098	0.10675162
49	0x3e4a6255	0.19764073
50	0xbd39daf6	-0.045374833
51	0xbe4f2cc3	-0.20231919
52	0x3ddd2121	0.107973345
53	0xbc8795ca	-0.016550917
54	0xbdd216ef	-0.102582805
55	0xbe567d4d	-0.20946236
56	0xbdae4d4e	-0.085108384
57	0xbe6f8fd3	-0.23394708
58	0x3e31b271	0.17353226
59	0x3ea67a85	0.3251535
60	0xbc4b7c69	-0.012419798
61	0x3e99e51d	0.30057612
62	0x3c1646bf	0.009172141
63	0x3e20afc2	0.15692046
64	0x3e4c41cd	0.19946976
65	0xbdbe15c9	-0.09281499
66	0x3e17f359	0.14838924
67	0xbe5126b5	-0.20424922
68	0xbe696129	-0.2279097
69	0xbe62f353	-0.22163133
70	0xbe8705b1	-0.2637153
71	0x3d9dfc7d	0.07714174
72	0x3e8b1698	0.27165675
73	0xbe2113d3	-0.15730219
74	0x3e2b61d1	0.16736533
75	0xbe5e354a	-0.21700016
76	0x3d8cb53b	0.068705045
77	0xbe130102	-0.14355853
78	0x3e7d4d85	0.24736603
79	0xbdaa6aa4	-0.08321121
80	0x3e506e9b	0.20354693
81	0xbe34f593	-0.17671804
82	0x3e2f8a66	0.17142639
83	0x3e092ada	0.13395253
84	0xbe37ac1c	-0.17936748
85	0xbe3dd978	-0.18539989
86	0x3e843601	0.25822452
87	0xbc0a5cb4	-0.008444954
88	0x3e09723e	0.13422486
89	0x3afd1419	0.0019308358
90	0xbd11bad0	-0.03557855
91	0x3d3d143e	0.046161883
92	0x3d0b2559	0.033971164
93	0x3e038f88	0.12847722
94	0x3a8f7e95	0.0010947759
95	0x3e6bae37	0.23015676
96	0xbe4237b0	-0.18966556
97	0x3d8eb7cc	0.0696865
98	0xbe912c73	-0.28354225
99	0x3e974d92	0.2955137
100	0xbdb3b400	-0.08774567
101	0x3e40de6a	0.18834844
102	0x3e32add0	0.17449117
103	0xbd1ad8e2	-0.03780449
104	0x3df023a7	0.1172555
105	0x3e71cd02	0.2361336
106	0xbc0a18b5	-0.008428742
107	0xbe0dc587	-0.13844882
108	0x3e7a84b2	0.24464682
109	0xbe4c66de	-0.19961116
110	0xbebc9d72	-0.3683887
111	0xbd3af30e	-0.04564195
112	0xbe57026e	-0.2099702
113	0x3e521ada	0.20518056
114	0xbcc458d6	-0.023968142
115	0x3db73385	0.089453734
116	0xb9c71cb8	-0.00037977635
117	0x3e0ef465	0.13960417
118	0xbe307643	-0.17232613
119	0x3e85f384	0.2616235
120	0x3e2ad544	0.16682917
121	0xbcced5ca	-0.025248427
122	0xbe616175	-0.22009833
123	0x3e28b81b	0.1647648
124	0x3e0d9ad1	0.13828589
125	0x3ed7b3f4	0.4212948
126	0xbda7943f	-0.081825726
127	0x3e8def30	0.27721548
128	0xbeaa5306	-0.33266467
129	0x3e85fb8a	0.26168472
130	0xbc3b34bb	-0.011426146
131	0x3e65682a	0.22403017
132	0x3c2df80c	0.010618221
133	0xbe38e9fe	-0.18058011
134	0x3e0ba010	0.13635278
135	0xbbb84c4b	-0.005624329
136	0xbd56367e	-0.05229806
137	0xbe4fee35	-0.20305713
138	0x3e74e213	0.23914365
139	0x3e4b5a6f	0.19858716
140	0xbe2db4e0	-0.1696353
141	0xbdc3f6c1	-0.09568549
142	0x3e4b35d6	0.19844756
143	0x3dfd232d	0.12360225
144	0xbdc87b19	-0.09789104
145	0xbe517688	-0.20455372
146	0xbe340dc5	-0.17583378
147	0x3e2d344c	0.16914481
148	0x3cbbb595	0.022913733
149	0xbe846f4a	-0.25866157
150	0xbd9aa2b9	-0.07550568
151	0x3ebc05eb	0.36723265
152	0x3e0bb562	0.13643411
153	0x3e2d0738	0.16897285
154	0xbe8b994f	-0.27265403
155	0x3e8a1029	0.26965454
156	0xbe361060	-0.17779684
157	0x3e23f482	0.16011241
158	0xbe689e27	-0.2271658
159	0xbe37417f	-0.17896079
160	0xbdada525	-0.084787644
161	0x3dda5d82	0.106623664
162	0xbe40c9e8	-0.18827021
163	0xbc8d8d16	-0.01727919
164	0x3d08e7df	0.033424255
165	0x3d8ae6df	0.067823164
166	0xbe7d9620	-0.247643
167	0x3d0d3f5a	0.034484245
168	0xbc68100b	-0.014163981
169	0x3d2eb911	0.04265696
170	0xbe39e21e	-0.18152663
171	0xbc10dff3	-0.008842456
172	0x3e3da939	0.18521585
173	0x3da8dfcb	0.0824581
174	0xbbb52b3d	-0.005528836
175	0xbcd6cbaa	-0.026220161
176	0xbb800b7d	-0.0039076195
177	0x3ea4ee08	0.32212853
178	0x3e71385b	0.23556654
179	0xbe40b0d8	-0.1881746
180	0x3e5c2a48	0.21500504
181	0xbd5091e7	-0.050920393
182	0xbe8e241a	-0.27761918
183	0x3daf3756	0.08555476
184	0x3dc5453e	0.096323475
185	0x3d17631b	0.03695975
186	0x3d0c21ba	0.03421185
187	0x3dc16e8a	0.09444912
188	0xbdd266a4	-0.102734834
189	0x3e5fca16	0.21854433
190	0x3e2e8db4	0.17046243
191	0x3da202d1	0.079106934
192	0x3c6faaef	0.014628156
193	0xbe8dd93e	-0.27704805
194	0x3e106187	0.14099704
195	0x3e34b1d7	0.17645966
196	0xbe46ef7e	-0.19427297
197	0xbd932487	-0.071847014
198	0xbe87ffde	-0.265624
199	0xbe609b3a	-0.21934214
200	0xbc6d1319	-0.014469885
201	0x3c8ece77	0.017432434
202	0xbda4330a	-0.080175474
203	0xbdebafa6	-0.11508112
204	0xbdf97595	-0.1218063
205	0x3a6d51f7	0.0009053046
206	0xbcb7a585	-0.022417793
207	0x3e7c498b	0.2463743
208	0x3dcb1bfe	0.099174485
209	0x3de72450	0.11286223
210	0xbe2578e5	-0.16159399
211	0xbe88c9a3	-0.26716337
212	0x3e7d5ed6	0.24743208
213	0xbe9e37a5	-0.30901828
214	0x3e2302e3	0.1591907
215	0x3d908c64	0.070580274
216	0x3e5c7965	0.21530683
217	0x3e0bffce	0.136718
218	0xbe274672	-0.16335467
219	0xbe9fb5b2	-0.3119331
220	0x3e54cf90	0.20782304
221	0x3e07c941	0.13260366
222	0xbe44d2f6	-0.192211
223	0x3e886c88	0.26645303
224	0x3e099101	0.13434221
225	0x3cb8ed59	0.022574114
226	0xbc1ef0f8	-0.009701006
227	0xbe396fcf	-0.18109058
228	0x3e925ac1	0.28584865
229	0x3dfcf0ab	0.12350591
230	0x3dd94471	0.10608757
231	0x3e48adaa	0.19597498
232	0xbdb646f6	-0.089002535
233	0xbe8ab025	-0.27087513
234	0xbe566a84	-0.2093907
235	0xbdec5ccb	-0.11541136
236	0xbda6beb2	-0.08141841
237	0xbd342b0b	-0.04398636
238	0xbe1115f0	-0.14168525
239	0x3c991ac5	0.018689523
240	0xbe68d592	-0.2273772
241	0x3e04cf44	0.1296969
242	0xbd9e37cb	-0.077254854
243	0xbdd6f920	-0.104967356
244	0x3e7b402d	0.245362
245	0xbe7ecd89	-0.24883093
246	0xbe800579	-0.25004175
247	0x3d9a2720	0.07526994
248	0xbe9135ab	-0.28361258
249	0xbd7837db	-0.060600143
250	0x3cd07642	0.025447015
251	0x3e6aa140	0.22913074
252	0x3e89a2d0	0.2688203
253	0x3e0a38ca	0.13498226
254	0xbe7d4920	-0.24734926
255	0x3e5d6198	0.2161926

mlp1.0.bias f4 [150]
0	0xbe16744d	-0.14692803
1	0xbde50465	-0.11182479
2	0x3d1950f7	0.03743073
3	0xbe09a892	-0.1344321
4	0xbe646957	-0.22305809
5	0x3e7c649e	0.24647757
6	0xbe4ad434	-0.19807512
7	0xbe217c34	-0.15770036
8	0xbdff932e	-0.12479244
9	0x3e90b00b	0.2825931
10	0x3dc2179c	0.094771594
11	0xbe2cff39	-0.16894235
12	0xbd8dc019	-0.06921405
13	0xbe818220	-0.2529459
14	0x3e0fb0ec	0.14032334
15	0xbca167be	-0.019702788
16	0x3d8fd029	0.07022125
17	0x3d58e267	0.05295029
18	0xbe295955	-0.16537984
19	0x3e318334	0.17335206
20	0xbe2b3ac5	-0.16721638
21	0x3d4a8a71	0.049448434
22	0x3e7ce809	0.2469789
23	0x3d4c8599	0.049932096
24	0xbd91446d	-0.07093129
25	0x3c391e26	0.011298692
26	0xbe1d21c6	-0.15344915
27	0x3e837db6	0.25681847
28	0xbe86649f	-0.26248643
29	0x3e42316e	0.18964168
30	0x3dfb93d7	0.122840576
31	0xbbb73b84	-0.0055918116
32	0x3cb400e6	0.021973085
33	0xbe4a4742	-0.19753745
34	0x3d81f54c	0.06345615
35	0xbe0a37d2	-0.13497856
36	0x3d48dc7a	0.049038388
37	0x3e7f3562	0.24922708
38	0x3c86c0ed	0.016449416
39	0x3e44bc2f	0.19212411
40	0xbe5d3eca	-0.21605983
41	0x3e2695c2	0.16268066
42	0xbdfe2c3a	-0.12410779
43	0xbe2b2ca4	-0.16716248
44	0x3e765b7e	0.24058339
45	0x3e6af954	0.22946674
46	0x3e849d15	0.25901094
47	0xbdeb65a4	-0.11493996
48	0x3dc87458	0.09787816
49	0x3e7c6fef	0.24652074
50	0xbe097355	-0.13422902
51	0xbccb0ba9	-0.024785833
52	0x3e5252d2	0.20539406
53	0xbe3580b5	-0.17724879
54	0x3e2ad41d	0.16682477
55	0x3e6f9e0c	0.23400134
56	0x3dc9a7ca	0.09846456
57	0x3d7620f8	0.060090035
58	0xbdd1eb12	-0.10249914
59	0xbd0a57d7	-0.033775177
60	0xbe6ae91c	-0.22940487
61	0xbe1fb1ba	-0.15595141
62	0xbdd41df5	-0.10357276
63	0x3da1eb5f	0.079062216
64	0x3e127b7d	0.1430492
65	0x3e53915f	0.20660923
66	0xbcb76c5b	-0.022390535
67	0xbe27102a	-0.1631476
68	0x3e1a6745	0.15078457
69	0x3e255f82	0.16149715
70	0x3e291238	0.16510856
71	0xbdff4073	-0.124634646
72	0xbe144568	-0.14479601
73	0x3cf90087	0.03039576
74	0xbdc43c61	-0.09581829
75	0x3df7ed1a	0.121057704
76	0xbe5895a4	-0.21150833
77	0xbe4603ef	-0.19337438
78	0x3e584934	0.21121675
79	0x3e0c07f7	0.13674913
80	0xbe4ff668	-0.2030884
81	0xbdf26e40	-0.11837435
82	0xbe8b2270	-0.2717471
83	0x3e118813	0.14212064
84	0x3d89e1f1	0.06732548
85	0xbe8a0c87	-0.26962683
86	0x3e4f55e7	0.20247613
87	0x3e92ff24	0.28710282
88	0xbde7e19e	-0.1132233
89	0x3e0a7a91	0.13523318
90	0xbd87ce08	-0.06631094
91	0xbdd7004d	-0.10498104
92	0x3e7ceb16	0.24699053
93	0x3e43e0ba	0.19128695
94	0xbe7b54fc	-0.24544138
95	0x3e7088fa	0.23489752
96	0x3e035b49	0.12827791
97	0x3e3c6994	0.1839965
98	0x3d48ae46	0.048994325
99	0x3e87fa23	0.26558027
100	0xbdc71f29	-0.0972274
101	0x3e9f5dcc	0.3112625
102	0xbda22f5d	-0.0791919
103	0x3d8fc594	0.07020107
104	0xbce47e6a	-0.02789231
105	0x3e0cb5ab	0.13741176
106	0x3df4ebb8	0.11959022
107	0x3e17e0de	0.14831874
108	0x3e2717d5	0.16317685
109	0x3e671c5f	0.22569416
110	0x3e808142	0.25098616
111	0x3e80efe2	0.25183016
112	0x3dfa383a	0.122177556
113	0xbd7f371e	-0.062308423
114	0x3e6b88bc	0.23001379
115	0x3e19a48f	0.1500418
116	0xbddefa9f	-0.10887646
117	0xbe7996d4	-0.24373943
118	0xbd8e2f60	-0.0694263
119	0x3e205c0c	0.15660113
120	0x3da854c9	0.082192965
121	0xbd3381cf	-0.043824967
122	0x3e4a7166	0.1976982
123	0x3e663acd	0.22483368
124	0xbe3a5ce2	-0.18199494
125	0x3d70f7d6	0.058830105
126	0x3e578ff5	0.21051009
127	0xbe835833	-0.25653228
128	0x3e417d8b	0.18895547
129	0x3e62c447	0.22145186
130	0x3e481e33	0.1954277
131	0xbe1f3c4d	-0.15550347
132	0x3dd8e726	0.10590963
133	0x3e30f4a9	0.1728083
134	0x3d992b4c	0.07478961
135	0xbccc6d6b	-0.024954518
136	0xbd70cfa8	-0.058791786
137	0xbe6d275d	-0.23159547
138	0xbd1f2e36	-0.03886243
139	0xbe715dfd	-0.2357101
140	0x3e7b1abe	0.2452192
141	0x3e1272d2	0.14301613
142	0x3e48b828	0.196015
143	0x3e2f7227	0.1713339
144	0xbe34e88c	-0.17666835
145	0x3d258eb1	0.040419284
146	0xbdeb7020	-0.114959955
147	0x3e13e05d	0.14441057
148	0xbe6d2407	-0.23158275
149	0xbe665905	-0.22494896

mlp1.2.weight f4 [100, 150]
0	0xbbb7e13c	-0.005611567
1	0xbaafc86c	-0.0013411171
2	0xbd936dbb	-0.07198664
3	0x3cdb2b0f	0.02675393
4	0xbd85cc99	-0.065331645
5	0x3d9915e9	0.07474882
6	0xbbaedd56	-0.005336444
7	0xbd298fbb	-0.041396838
8	0x3d9a3ec9	0.075315066
9	0x3ccd0574	0.025027014
10	0x3d613ec3	0.054991495
11	0x3d77d5ea	0.06050674
12	0xbd53ee7d	-0.051741112
13	0x3d8de777	0.06928914
14	0x3d71bd31	0.059018318
15	0x3ce5e96f	0.028065411
16	0xbc508bb3	-0.012728619
17	0x3c19abfa	0.009379381
18	0x3cabba09	0.020962732
19	0x3d95f638	0.07322353
20	0x3aacdfdb	0.0013189273
21	0x3d836bf7	0.06417077
22	0x3b1fe3c2	0.002439723
23	0x3da2e8d0	0.07954562
24	0xbc0e3204	-0.008678917
25	0xbccc2e62	-0.02492446
26	0x3c4376da	0.011930192
27	0xbd435316	-0.04768666
28	0x3cd3f1c3	0.025872117
29	0xbd0f9de8	-0.0350627
30	0xbd8e6359	-0.06952543
31	0x3d9417f7	0.072311334
32	0x3d5f5a08	0.05452922
33	0xbd77bc8f	-0.060482558
34	0xbc989452	-0.018625412
35	0xbc46437a	-0.012101049
36	0xbc80f666	-0.015742492
37	0xbd00f333	-0.031481933
38	0x3c6a9e3f	0.014319955
39	0x3d2af163	0.04173411
40	0xbd31e350	-0.043429673
41	0xbd827c5b	-0.06371375
42	0xbc9c8f9b	-0.019111445
43	0xbd72776e	-0.05919593
44	0x3d282dff	0.04105949
45	0x3cbce58b	0.023058673
46	0x3d89d318	0.06729716
47	0x3cae463a	0.021273721
48	0xbbeadaf6	-0.0071672155
49	0xbd5a2119	-0.05325422
50	0xbda1c35c	-0.0789859
51	0x3d82869c	0.06373331
52	0xbd854c2c	-0.06508669
53	0xbbc396f0	-0.005968921
54	0xbd90b87b	-0.07066437
55	0xbd83b24a	-0.0643049
56	0xbd988aa3	-0.07448318
57	0xbd65524e	-0.055986695
58	0x3d634b98	0.055492014
59	0x3bf08a8b	0.0073407344
60	0x3cff5e83	0.031172996
61	0xbce0effe	-0.027458187
62	0xbd98f37e	-0.074683174
63	0x3d45b926	0.048272274
64	0xbd57fa97	-0.052729215
65	0xbb0762cf	-0.002065826
66	0x3d4ec771	0.05048317
67	0xbd2cdfac	-0.042205498
68	0xbd698638	-0.057012767
69	0xbd9a2c3e	-0.0752797
70	0xba482427	-0.00076347817
71	0x3d286652	0.041113205
72	0x3a146fdd	0.0005662421
73	0xbb5a9246	-0.0033351346
74	0x3af100c5	0.001838707
75	0xbc7ced71	-0.01543747
76	0x3cbc9c9c	0.023023896
77	0xbd8b4a61	-0.06801296
78	0x3d8aeaa9	0.06783039
79	0xbd07b7ab	-0.033134144
80	0xbd8a4e96	-0.0675327
81	0xbcae4cee	-0.021276917
82	0x3d9b7cc9	0.0759216
83	0x3c6e14ef	0.014531358
84	0xbd8d9858	-0.06913823
85	0x3d48982c	0.048973247
86	0xbcb896b2	-0.022532795
87	0x3c3b4f84	0.011432532
88	0xbbb6b81b	-0.0055761463
89	0xbc82afc4	-0.015952952
90	0x3d588a98	0.05286655
91	0x3c00c7af	0.007860108
92	0x3cb06c60	0.021536052
93	0x3d961e7b	0.073300324
94	0xbd69faa8	-0.05712381
95	0xbdab1f58	-0.08355588
96	0xbdaccf97	-0.08438032
97	0xbd94db32	-0.07268371
98	0x3cf59f71	0.029983254
99	0xbd91c90c	-0.07118425
100	0xbd94a23a	-0.07257505
101	0xbda6b2b3	-0.08139553
102	0xbd53dbf0	-0.05172342
103	0x3cb7e37f	0.022447346
104	0xbc40e8cf	-0.011774256
105	0x3be4b033	0.0069790124
106	0x3cdb774e	0.026790287
107	0xbd3519d8	-0.0442141
108	0xbd929758	-0.07157773
109	0x3d43485e	0.047676437
110	0x3cf7687b	0.030201187
111	0xbd7ec392	-0.06219823
112	0xbc3dc110	-0.011581674
113	0x3d446337	0.04794618
114	0xbc79af07	-0.015239484
115	0x3d47fc47	0.048824575
116	0xbd02a360	-0.031894088
117	0xbcee378f	-0.029079227
118	0xbc9b9df0	-0.018996209
119	0xbd996956	-0.07490794
120	0xbd891490	-0.06693375
121	0x3d27b7f4	0.040946916
122	0xbd9232ac	-0.07138571
123	0x3d8c6968	0.06856042
124	0x3d9fbb66	0.07799415
125	0xbd8b6557	-0.068064384
126	0x3d786024	0.06063856
127	0x3c7a8a7a	0.015291804
128	0xbd637a54	-0.055536583
129	0xbd94f77c	-0.072737664
130	0xbd1d7f9b	-0.038451772
131	0xbd89ec8b	-0.0673457
132	0x3d03ce22	0.032179005
133	0xbd3dd826	-0.046348713
134	0xbd3c8876	-0.046028577
135	0x3d981a38	0.07426876
136	0x3d55a35c	0.052157745
137	0x3d225c3a	0.039638735
138	0xbb48e25e	-0.0030652503
139	0x3d842928	0.064531624
140	0x3d70ab05	0.058756847
141	0xbd9aeac4	-0.07564309
142	0xbd385f45	-0.04501273
143	0xbd4731d9	-0.048631523
144	0x3d93d605	0.07218555
145	0x3d9190a7	0.07107668
146	0xbcd1be36	-0.025603395
147	0xbd4f7e46	-0.050657533
148	0xbd3e2a71	-0.046427194
149	0x3d682386	0.056674503
150	0x3d6af287	0.0573602
151	0x3d0a5468	0.033771902
152	0xbc8514f2	-0.016245339
153	0xbc8455ad	-0.016154135
154	0xbad7a09c	-0.0016451064
155	0xbd8d26e5	-0.06892184
156	0x3c682aa6	0.014170324
157	0xbcd6848d	-0.026186252
158	0x3d0b1184	0.03395225
159	0xbda4d798	-0.08048934
160	0x3cf5abf2	0.029989216
161	0xbd872ef7	-0.06600755
162	0x3d11b874	0.0355763
163	0xbc3aea2d	-0.011408371
164	0xbd647c98	-0.055782884
165	0xbd81a3f8	-0.06330103
166	0xbcc3b65d	-0.023890669
167	0x3d67fe5e	0.056639068
168	0xbd75344a	-0.05986432
169	0x3d9a1bb9	0.07524819
170	0xbd6dd1ca	-0.0580614
171	0xbd3aa885	-0.04557087
172	0xbc9eb786	-0.01937462
173	0x3b5a372a	0.003329704
174	0x3cd63514	0.026148356
175	0x3bd27cd5	0.0064235725
176	0xbbe9b84e	-0.0071325665
177	0xbd678595	-0.056523878
178	0xbd1979fd	-0.037469853
179	0xbbe16fe3	-0.006879793
180	0x3d8f7789	0.070052214
181	0x3b3f75c2	0.0029214476
182	0x3d885c16	0.06658189
183	0x3cf6d43c	0.030130498
184	0x3d9de4fc	0.07709691
185	0x3cfe5946	0.031048428
186	0xbbcc1106	-0.0062276153
187	0xbc8ad284	-0.016946085
188	0xbcc78ebe	-0.024360057
189	0xbd779aa6	-0.06045022
190	0x3d5957b6	0.053062163
191	0x3d88cc87	0.066796355
192	0x3d0c169e	0.034201257
193	0x3d9212b7	0.07132476
194	0x3c6d66a0	0.0144898
195	0xbd908551	-0.07056678
196	0xbd09f467	-0.033680346
197	0xbcaf7120	-0.021416247
198	0x3cb59714	0.022166766
199	0xbd16b733	-0.036795806
200	0x3c927dd0	0.017882258
201	0x3d34e382	0.04416228
202	0xbd7c3b99	-0.061580274
203	0xbd8c4167	-0.06848412
204	0xbcfc1b1e	-0.03077465
205	0x3d0a7215	0.033800203
206	0x3c250a11	0.010073201
207	0xbd92255f	-0.07136034
208	0xbd836b0e	-0.064169034
209	0x3d3a6466	0.045505904
210	0x3d3380c1	0.04382396
211	0xbda6dad2	-0.081472054
212	0xbca999b0	-0.020703167
213	0x3bd7f6e8	0.006590713
214	0x3cafe2ae	0.021470394
215	0x3d7ac09c	0.061218843
216	0x3b348185	0.002754302
217	0x3d25dc05	0.04049303
218	0x3aaf0585	0.0013353085
219	0x3d8e10d4	0.069368035
220	0xbcc8ca9e	-0.024510678
221	0x3cfca7b4	0.030841686
222	0xbd9cbefd	-0.076536156
223	0x3d67f381	0.056628708
224	0xbc81d1a3	-0.015847033
225	0xbc81d770	-0.015849799
226	0x3d85b4dc	0.06528637
227	0xbd8b7ef1	-0.068113215
228	0xbda6a8a9	-0.08137638
229	0xbbcfdd7a	-0.0063435407
230	0xbba263b1	-0.004955732
231	0x3c53e318	0.012932561
232	0x3d38cccb	0.04511718
233	0xbca9b704	-0.020717151
234	0xbd785c01	-0.060634617
235	0x3d89fc8e	0.06737624
236	0xbcaebeb7	-0.021331174
237	0xbd35d5fe	-0.044393532
238	0xbd96096c	-0.07326016
239	0x3d308361	0.043094043
240	0x3d81981d	0.063278414
241	0xbd1ba6e5	-0.03800096
242	0x3d33fe73	0.043943834
243	0x3c80ef2e	0.01573905
244	0x3caff762	0.021480266
245	0xbda45978	-0.08024877
246	0x3c77015c	0.015076008
247	0x3da48867	0.08033829
248	0xbd4a7c23	-0.049434792
249	0x3d58ac47	0.05289867
250	0x3d6acf67	0.0573267
251	0x3d36405f	0.044494983
252	0xbd337f08	-0.04382232
253	0xbd3dac87	-0.046307113
254	0xbcfbb9fe	-0.030728336
255	0xbd95a2aa	-0.07306416

mlp1.2.bias f4 [100]
0	0x3cad1782	0.021129373
1	0x3d1ed241	0.038774733
2	0xbd322339	-0.043490622
3	0x3e15f114	0.14642745
4	0x3ac928f0	0.0015347283
5	0x3cadbdc7	0.021208657
6	0x3d4bd731	0.04976577
7	0xbd2b57fb	-0.04183195
8	0xbda8423a	-0.08215757
9	0x3b4bd38a	0.003110143
10	0x3ce8ff48	0.02844204
11	0xbd893a06	-0.0670052
12	0xbca75674	-0.020426966
13	0xbb374644	-0.0027965466
14	0x3cf857e9	0.030315356
15	0x3d36ff9e	0.04467737
16	0x3b5540a7	0.0032539757
17	0xbd5f3e70	-0.054502904
18	0x3c9f67d3	0.019458687
19	0xbd72a79e	-0.059241883
20	0xbd3f0e86	-0.04664471
21	0x3d9a5f84	0.075377494
22	0xbcd55c56	-0.026045006
23	0x3c44cecb	0.012012194
24	0xbd9e4008	-0.07727057
25	0xbc8e7a99	-0.017392443
26	0xbcbbf327	-0.022943093
27	0x3cc1ebd2	0.023672018
28	0x3beef0d1	0.007291891
29	0x3acfe076	0.0015859741
30	0xbd73b680	-0.059500217
31	0xbd25947e	-0.040424816
32	0xbda0eb51	-0.07857383
33	0x3a0b6052	0.0005316782
34	0xbc392cd8	-0.0113021955
35	0xbd0c10af	-0.0341956
36	0x3d970888	0.07374674
37	0x3d8a5ce8	0.06756002
38	0x3d09600f	0.033538874
39	0x3d9a99b7	0.0754885
40	0x3d218d53	0.039441418
41	0xbc27a867	-0.010233021
42	0xbd9fd343	-0.07803967
43	0xbd757144	-0.05992247
44	0xbce28069	-0.027649121
45	0xbdab4b1e	-0.08363937
46	0x3d1c3190	0.038133204
47	0xbdc069ff	-0.09395217
48	0x3cd89a5a	0.026440788
49	0xbd685e1b	-0.05673037
50	0x3d7c7271	0.061632577
51	0xbc2474ab	-0.010037581
52	0x3cdee17e	0.027207132
53	0x3c83d5f5	0.016093234
54	0x3d767518	0.060170263
55	0xbd1141e4	-0.03546323
56	0x3d90f071	0.070771106
57	0xbd9d62ce	-0.07684861
58	0xbd18be60	-0.03729093
59	0xbddd3eee	-0.108030185
60	0x3c03d3c7	0.008046097
61	0x3db49f01	0.0881939
62	0xbd927bd7	-0.07152527
63	0x3d309b9d	0.043117154
64	0xbcd475ab	-0.025935015
65	0xbca4afb7	-0.020103319
66	0xba32c915	-0.00068201247
67	0x3d3fc34b	0.046817105
68	0x3d664196	0.05621489
69	0x3d679d71	0.056546632
70	0xbce0367e	-0.027369734
71	0x3c0e15a9	0.008672156
72	0x3d6973b7	0.05699512
73	0xbd84c812	-0.06483473
74	0xbd04f703	-0.03246213
75	0x3cef20e3	0.029190486
76	0xbd2fdca2	-0.04293502
77	0x3d6c41ac	0.057679817
78	0x3c2f9167	0.010715819
79	0xbce6bf05	-0.028167257
80	0xbc64588c	-0.013937127
81	0xbc958c87	-0.018255485
82	0xbafce488	-0.0019294182
83	0x3ca12012	0.019668613
84	0xbd990aec	-0.07472786
85	0x3cffa559	0.031206774
86	0x3d81106f	0.063019626
87	0xbcfaa874	-0.030597903
88	0x3c9ecb38	0.019384012
89	0xbd3b0226	-0.045656346
90	0x3d0c1105	0.03419592
91	0x3d843416	0.06455247
92	0x3adae5c0	0.0016700551
93	0x3d1ce20b	0.03830151
94	0xbc064a0c	-0.008196365
95	0xbd6d3fb6	-0.057922088
96	0x3c80f885	0.015743503
97	0x3da83a07	0.08214193
98	0xbdaebfbf	-0.085326664
99	0xbd7cc9e0	-0.06171596

mlp2.0.weight f4 [100, 100]
0	0xbd9ba288	-0.0759936
1	0x3da696ae	0.081342086
2	0x3d693f67	0.05694523
3	0x3dc3dd90	0.09563744
4	0xbdb7aac6	-0.08968119
5	0x3ae315c8	0.0017325217
6	0x3d8a1883	0.067429565
7	0xbdaedc94	-0.08538166
8	0xbd651d84	-0.05593635
9	0xbd98cf0f	-0.07461368
10	0xbc805bf2	-0.015668843
11	0xbd214c18	-0.03937921
12	0xbcbe8096	-0.023254674
13	0xbda5d10f	-0.080965154
14	0xbc9fb866	-0.019497108
15	0xbd34dfdd	-0.044158805
16	0xbdc6aeb7	-0.09701293
17	0xbc4ac534	-0.012376118
18	0x3ddd8113	0.108156346
19	0x3d9f66a1	0.07783247
20	0x3d82cddf	0.06386923
21	0x3db4d52f	0.08829724
22	0xbd291f16	-0.04128941
23	0xbb128a60	-0.002236031
24	0xbd3e9276	-0.046526395
25	0x3d91f2b8	0.07126373
26	0x3db0361a	0.08604069
27	0xbd8eba1d	-0.06969092
28	0xbdcbe377	-0.09955495
29	0xbc84a317	-0.016191049
30	0xbd277271	-0.040880624
31	0xbd6df1e3	-0.05809201
32	0x3d2fd95a	0.042931892
33	0x3c55c392	0.013047116
34	0xbda250a1	-0.07925535
35	0x3da9d705	0.08292965
36	0xbbafbaf6	-0.0053628637
37	0xbd886292	-0.06659426
38	0xbd2566f9	-0.040381406
39	0xbd9012d6	-0.07034843
40	0x3b81a444	0.0039563496
41	0xbd1b244e	-0.03787642
42	0xbcbf70da	-0.023369242
43	0xbc9d96ba	-0.019236911
44	0xbdc56ff2	-0.096404925
45	0x3d8a762c	0.06760821
46	0x3dd91cfe	0.10601233
47	0xbd70b73c	-0.058768496
48	0x3cf8e55e	0.030382808
49	0x3d648dcd	0.055799294
50	0xbd5d8d51	-0.054089848
51	0xbd92a9f4	-0.07161322
52	0x3dac0656	0.08399646
53	0x3d7a1635	0.061056335
54	0xbd71246e	-0.058872633
55	0x3d4292bc	0.047503218
56	0xbd0fd204	-0.035112396
57	0xbda15355	-0.078772224
58	0xbd812b34	-0.063070685
59	0x3cde99af	0.027172891
60	0xbc3c64d9	-0.011498653
61	0xbdde5bf1	-0.1085738
62	0x3d927250	0.0715071
63	0xbd8df91a	-0.06932278
64	0x3dbb31c3	0.09140351
65	0x3da0953c	0.07840964
66	0x3dc0d35b	0.09415313
67	0x3cb401f1	0.021973582
68	0xbddd7088	-0.10812479
69	0xbd7d83f8	-0.061893433
70	0xbc8028d0	-0.01564446
71	0x3c327b9a	0.010893727
72	0x3d581641	0.052755598
73	0x3d037f72	0.032103963
74	0x3cfad356	0.030618351
75	0xbc361b89	-0.011114963
76	0x3addfdd0	0.0016936604
77	0xbb6f7868	-0.0036540274
78	0xbdc631bc	-0.09677455
79	0x3d9e331b	0.07724591
80	0xbd652953	-0.055947613
81	0x3d2e7d59	0.04260001
82	0x3d874547	0.066050105
83	0x3d18fefc	0.037352547
84	0x3c43b9a8	0.011946119
85	0x3db98dbf	0.09060239
86	0x3c16b9d0	0.009199575
87	0xbdb2ecab	-0.08736547
88	0xbdc2bfdc	-0.095092505
89	0xbbd862de	-0.0066035828
90	0x3d09d1a2	0.033647187
91	0x3d4f99ca	0.050683774
92	0xbd48f2df	-0.049059745
93	0xbc509f6c	-0.012733322
94	0x3caf47a1	0.02139646
95	0xbdbdf87e	-0.09275912
96	0x3d298cd2	0.041394062
97	0xbd996fc0	-0.07492018
98	0x3da18f42	0.078886524
99	0xbd0f521f	-0.034990426
100	0xbd14fe1f	-0.03637516
101	0x3dab701b	0.08370992
102	0x3dc6163b	0.09672209
103	0x3b127290	0.0022346117
104	0x3ccfef99	0.025382804
105	0x3d4e9c7f	0.050442215
106	0x3dab0f8d	0.083525755
107	0x3bb14ab9	0.005410519
108	0x3e065c20	0.1312108
109	0x3dc85293	0.09781375
110	0x3da7c5f5	0.08192054
111	0xbd7ff5e5	-0.062490363
112	0xbcd8f16d	-0.026482308
113	0x3b66db6e	0.0035226005
114	0xbdb852c4	-0.09000161
115	0x3e0a69a7	0.13516866
116	0xbd8e0d89	-0.069361754
117	0xbcb1f55d	-0.021723444
118	0xbdb5d551	-0.088785775
119	0x3d81818d	0.06323538
120	0xbc46844f	-0.012116506
121	0xbd466e4b	-0.048445027
122	0xbdb2d091	-0.08731187
123	0x3c9ecb1d	0.019383961
124	0x3c7d510a	0.015461216
125	0xbdc8f5a3	-0.098124765
126	0x3cc3dd18	0.023909137
127	0xbd78c505	-0.060734767
128	0x3dc58d3b	0.09646078
129	0xbd502a49	-0.050821576
130	0x3d85c7dc	0.06532261
131	0xbce44b2a	-0.027867872
132	0x3d0f72bd	0.035021532
133	0x3dd67309	0.1047116
134	0xbd832192	-0.064028874
135	0xbd9ad908	-0.07560927
136	0xbd666156	-0.05624517
137	0xbd8d04a5	-0.068856515
138	0x3e01a38c	0.12660044
139	0xbdbbd1bf	-0.09170865
140	0xbdde4442	-0.10852863
141	0x3c77c5b7	0.0151228225
142	0xbdb681cb	-0.08911475
143	0x3d5e26ab	0.054236095
144	0xbd7fa66e	-0.06241458
145	0x3cbbc15a	0.022919346
146	0xbd6dbb6f	-0.05804008
147	0x3d8399ec	0.06425843
148	0x3dcf2f86	0.10116486
149	0xbd80b1e2	-0.062839285
150	0xbd824618	-0.063610256
151	0x3df4bd31	0.11950148
152	0xbda00fd9	-0.07815523
153	0xbde628e6	-0.112382695
154	0x3d3965b1	0.045262996
155	0xbd792fb0	-0.060836494
156	0xbdec9e70	-0.11553657
157	0x3d659925	0.056054253
158	0xbcefa158	-0.02925174
159	0xbc1859ea	-0.009298781
160	0x3d9b10d0	0.07571566
161	0xbd347792	-0.044059344
162	0xbcd51361	-0.026010217
163	0xbd93633e	-0.07196663
164	0x3c159296	0.009129187
165	0xbda90626	-0.08253126
166	0x3d277dac	0.040891334
167	0x3da1736c	0.07883343
168	0x3e2bfc06	0.16795358
169	0x3c977071	0.018486233
170	0xbd7178e1	-0.05895317
171	0x3d4bc407	0.049747493
172	0xbdd4a498	-0.10382956
173	0x3dd3537b	0.10318657
174	0xbc2159ba	-0.009848053
175	0xbd4e3845	-0.05034663
176	0x3ddb825d	0.10718224
177	0x3be77519	0.0070635197
178	0xbdb8151e	-0.08988403
179	0xbd91471b	-0.070936404
180	0xbdc69545	-0.0969644
181	0x3de5678f	0.11201393
182	0x3d6b480d	0.05744176
183	0xbc894609	-0.016757028
184	0xbdaad7e9	-0.08341963
185	0xbd814a82	-0.06313039
186	0x3d10cee2	0.03535355
187	0xbdb3f3ce	-0.087867364
188	0xbd1eed73	-0.038800668
189	0xbdc8cd0f	-0.09804737
190	0xbd27456f	-0.0408377
191	0xbddf6b7e	-0.109091744
192	0xbd5cea2e	-0.05393427
193	0xbc068fa8	-0.008212961
194	0xbcf2a4c2	-0.029619578
195	0xbdb7efa1	-0.089812525
196	0xbd93fbe7	-0.07225781
197	0xbda5e115	-0.080995716
198	0x3db35448	0.0875631
199	0xbd2c6f33	-0.042098235
200	0xbd3bf523	-0.045888077
201	0xbcb5ada0	-0.022177517
202	0xbd912a83	-0.070881866
203	0x3da309ed	0.079608776
204	0x3dbd49c2	0.09242584
205	0xbc22886d	-0.009920222
206	0xbd567837	-0.05236074
207	0x3d7c2f49	0.061568532
208	0xbd8a64d0	-0.0675751
209	0xbd373596	-0.044728838
210	0xbd864f10	-0.06558049
211	0xbda0879c	-0.078383654
212	0xbdafda7b	-0.08586594
213	0xbdbb2fd0	-0.09139979
214	0xbd20e11d	-0.039277185
215	0x3c8a294b	0.016865393
216	0x3dd695e2	0.10477807
217	0xbc3df3c3	-0.011593762
218	0x3d205795	0.039146025
219	0x3dab6a4f	0.08369886
220	0xbd95cc9e	-0.07314418
221	0x3d953487	0.072854094
222	0xbd86be63	-0.06579282
223	0xbd67790a	-0.056511916
224	0x3db87938	0.09007496
225	0xbd599833	-0.053123664
226	0x3db6782a	0.08909638
227	0xbd63c1c8	-0.055604726
228	0xbda2e385	-0.07953552
229	0xbdaad5a4	-0.0834153
230	0x3d14e167	0.036347773
231	0xbdc42e0d	-0.09579096
232	0xbccf040f	-0.02527049
233	0xbd7ab8ff	-0.061211582
234	0x3da3107f	0.07962131
235	0x3d86204d	0.0654913
236	0x3d56ad00	0.05241108
237	0x3bb99990	0.005664058
238	0xbaf5965d	-0.0018736828
239	0xbcc91e51	-0.024550589
240	0x3c08b271	0.008343325
241	0x3d8dd0b4	0.069245726
242	0x3d92f49d	0.071755625
243	0xbd201286	-0.039080165
244	0xbb84baf2	-0.004050606
245	0x3d8117ba	0.063033536
246	0x3c8db04a	0.017295975
247	0xbd015647	-0.03157642
248	0x3d0ea1d6	0.034822308
249	0xbd0e2722	-0.03470529
250	0xbd4b825d	-0.04968487
251	0x3c82d97e	0.015972849
252	0xbcd834fc	-0.026392452
253	0xbd4becdc	-0.049786434
254	0xbd874c60	-0.06606364
255	0xbce2581e	-0.027629908

mlp2.0.bias f4 [100]
0	0x3c90dc3d	0.017683143
1	0x3e05b1d9	0.13056125
2	0xbc15444c	-0.0091105215
3	0xbd06e744	-0.032935396
4	0xbb8d61c9	-0.0043146354
5	0xbcdc0e4a	-0.026862282
6	0x3de8f63e	0.11375092
7	0xbc9fd4a9	-0.019510584
8	0x3b534d0e	0.0032241973
9	0xbddd4f41	-0.10806132
10	0x3d6a71f1	0.05723757
11	0x3d878114	0.066164166
12	0x3dafd443	0.085854076
13	0xbd8d5200	-0.06900406
14	0xbdb6151a	-0.088907436
15	0x3d85a0c0	0.06524801
16	0xbdb642bf	-0.088994496
17	0xbd9970bf	-0.07492208
18	0x3dc3b682	0.09556295
19	0x3da79b37	0.08183902
20	0xbd8ad332	-0.067785636
21	0xbd65e3d0	-0.056125462
22	0x3bd07202	0.006361247
23	0x3d53e154	0.05172856
24	0xbcbe1d97	-0.023207469
25	0x3dc1d057	0.09463566
26	0x3d9c52ba	0.07632966
27	0xbbe00c8a	-0.0068374323
28	0x3ce700a8	0.028198555
29	0xbdc7a2a0	-0.09747815
30	0xbd17ed4a	-0.03709153
31	0xbd7f3a3e	-0.062311403
32	0xbd86c6c4	-0.0658088
33	0x3c83c693	0.016085899
34	0xbd32981e	-0.0436021
35	0x3da3294f	0.07966863
36	0xbd781fda	-0.06057725
37	0xbcc11d93	-0.023573672
38	0x3c3113ff	0.01080799
39	0xbd86aec7	-0.06576305
40	0xbdbbd86e	-0.0917214
41	0x3cc862e0	0.02446121
42	0x3cc39c9f	0.023878394
43	0xbbfc8c22	-0.007707135
44	0xbd33a8aa	-0.043862022
45	0xbd5c1719	-0.053732965
46	0x3dce7ff0	0.10082996
47	0xbcf15410	-0.02945903
48	0x3de2eca8	0.11080295
49	0x3d3601a4	0.04443516
50	0x3d4f8b2f	0.050669845
51	0xbc78b473	-0.015179741
52	0x3d0b3e03	0.033994686
53	0x3cbd29ac	0.02309116
54	0x3c8641e9	0.01638885
55	0xbdaafec1	-0.08349372
56	0x3da2872c	0.07935938
57	0x3cdd4161	0.027008714
58	0xbd940c97	-0.07228964
59	0x3da472cf	0.080297105
60	0xbc9fb8de	-0.019497331
61	0x3da3c5e3	0.07996728
62	0x3c230624	0.0099501945
63	0x3cf6a7ee	0.030109372
64	0xbd31b2bf	-0.043383356
65	0x3d480440	0.048832178
66	0x3d815236	0.063145086
67	0x3d908f8d	0.0705863
68	0xbd95d366	-0.07315712
69	0xbdb00e96	-0.08596532
70	0x3c80bab3	0.015714025
71	0xbd89088c	-0.06691083
72	0x3ca59ee0	0.020217359
73	0xbcfbc4af	-0.030733434
74	0x3de649ce	0.11244546
75	0xbda60691	-0.08106721
76	0x3d948199	0.07251281
77	0xbd72e54c	-0.059300706
78	0x3dc7c02c	0.09753451
79	0xbd5ca34b	-0.053866666
80	0xbcfedfa4	-0.0311125
81	0xbcfb5133	-0.030678367
82	0xbbdfe126	-0.0068322597
83	0xbd9d9de5	-0.076961316
84	0xbcb7c016	-0.02243046
85	0x3b9826c1	0.0046432917
86	0xbdbe5553	-0.09293618
87	0x3d2b60e8	0.041840464
88	0x3ddac2e9	0.106817074
89	0xbcb182e4	-0.021668859
90	0xbd38d6dd	-0.045126785
91	0xbd4a4924	-0.04938616
92	0xbcf54291	-0.029938968
93	0xbd8aa06b	-0.067688785
94	0x3de84c89	0.11342723
95	0x3d5e4ea2	0.05427421
96	0xbcbb6a9e	-0.022877987
97	0x3bb133cf	0.0054077874
98	0x3d48d62e	0.049032383
99	0xbd844b36	-0.06459658

mlp2.2.weight f4 [50, 100]
0	0x3cdc8e4e	0.026923325
1	0xbbcc86c0	-0.0062416494
2	0x3c41136f	0.0117844185
3	0xbda6aff9	-0.08139033
4	0xbca473b7	-0.020074708
5	0xbd092aaa	-0.033487953
6	0x3d5aa4e4	0.05337991
7	0x3d9ebbdd	0.07750676
8	0xbdb753c4	-0.08951524
9	0xbd4034ce	-0.04692536
10	0xbdcacefc	-0.099027604
11	0xbe1c3537	-0.15254675
12	0xbdbf890e	-0.09352313
13	0x3de104b2	0.10987224
14	0x3c75c880	0.015001416
15	0xbca631a3	-0.02028734
16	0xbda90457	-0.08252781
17	0x3db3bc99	0.087762065
18	0xbce1595d	-0.027508432
19	0xbdb3fd4f	-0.08788549
20	0x3d12d59a	0.035848238
21	0x3dabe87f	0.083939545
22	0x3d953865	0.07286147
23	0xbc9a2fd4	-0.018821634
24	0xbc4b0f56	-0.012393793
25	0xbb0dd860	-0.0021643862
26	0xbd646f5d	-0.055770267
27	0x3cd2a31d	0.025712544
28	0x3db49a07	0.08818441
29	0x3d23d106	0.039994262
30	0x3d19c2fb	0.037539463
31	0xbdb29989	-0.08720691
32	0x3dc81638	0.09769863
33	0xbcc39eb2	-0.023879383
34	0xbaad957d	-0.0013243404
35	0xbd420976	-0.047372304
36	0x3c95121f	0.018197117
37	0xbde04a0a	-0.10951622
38	0x3d955328	0.072912514
39	0xbda90251	-0.08252395
40	0xbd2954ce	-0.04134064
41	0xbc589821	-0.013219864
42	0x3d90bac7	0.07066875
43	0x3c95dcda	0.018293787
44	0xbd777684	-0.06041576
45	0x3cffd28a	0.031228323
46	0xbd31994a	-0.04335908
47	0x3c7b3206	0.015331751
48	0xbd01a6da	-0.031653263
49	0x3d075185	0.033036727
50	0x3c3d0f12	0.011539238
51	0x3d4ab66f	0.04949039
52	0xbdd5b6b3	-0.10435238
53	0xbda87870	-0.08226097
54	0xbd64e176	-0.05587908
55	0xbd18df10	-0.037322104
56	0xbdd33f7c	-0.10314843
57	0xbda3c326	-0.07996206
58	0x3cd69b01	0.026196958
59	0xbd975a47	-0.07390266
60	0x3db92099	0.09039421
61	0xbd47457a	-0.048650242
62	0xbc6ff273	-0.014645207
63	0xbc860966	-0.016361903
64	0xbdef08ad	-0.11671577
65	0x3d6c380f	0.05767065
66	0x3dbb0da6	0.091334626
67	0x3dbf34ad	0.09336219
68	0x3bdf93f6	0.0068230582
69	0xbc261b0e	-0.010138286
70	0xbd89d751	-0.067305215
71	0x3d32b636	0.0436308
72	0x3d585c12	0.05282218
73	0xbbcfa74c	-0.006337082
74	0x3c30d109	0.010792025
75	0xbdb7718c	-0.08957204
76	0x3da1810d	0.078859426
77	0x3cff3b62	0.031156246
78	0x3c20dcfa	0.00981831
79	0x3db04cfb	0.08608433
80	0x3d28eb3b	0.04123996
81	0x3dd7976f	0.105269305
82	0xbdabbd9d	-0.08385775
83	0x3d6013ec	0.0547065
84	0x3b61da16	0.0034462265
85	0xbd5a3d83	-0.05328132
86	0x3da581c9	0.08081395
87	0xbddc49d2	-0.107562676
88	0xbda8e78a	-0.082472876
89	0xbd93f2be	-0.07224034
90	0x3d37c6d9	0.04486737
91	0x3dbeb0fa	0.09311099
92	0xbdc34dfb	-0.09536358
93	0xbd9cda4d	-0.07658825
94	0xbdbdc1c9	-0.09265477
95	0x3cd1daa1	0.025616946
96	0xbc39ec20	-0.0113478005
97	0x3ccfc5f1	0.02536294
98	0x3c9359c8	0.017987147
99	0x3d6ff7ba	0.05858586
100	0xbd23b2f7	-0.039965596
101	0x3dce5f6a	0.100767925
102	0xbdb63495	-0.08896748
103	0x3d0ac6da	0.033881046
104	0x3c88ca79	0.016698109
105	0xbdae20cb	-0.085023485
106	0xbce3582e	-0.027752008
107	0xbdabfa33	-0.08397331
108	0x3dbf9b2d	0.09355769
109	0xbd2e5335	-0.04255982
110	0xbd4a06ff	-0.04932308
111	0xbdcfb81b	-0.10142537
112	0x3dac87f2	0.08424367
113	0xbd1da66e	-0.038488798
114	0xbd1d834c	-0.038455293
115	0xbd5a54e1	-0.053303603
116	0xbdccee4f	-0.10006391
117	0xbd9c04c2	-0.07618095
118	0x3dcba320	0.09943223
119	0xbd84e4b6	-0.06488936
120	0x3d0d0f1f	0.03443825
121	0x3d2332ea	0.039843477
122	0x3d3e9010	0.046524107
123	0x3d3101bd	0.04321455
124	0x3d0b51e2	0.034013636
125	0xbd9b85ca	-0.075938776
126	0xbd14fd76	-0.03637453
127	0xbb632aba	-0.0034662918
128	0xbc4f2d8f	-0.012645139
129	0xbcca5a49	-0.024701254
130	0x3e15beb6	0.14623532
131	0xbd98288a	-0.07429607
132	0xbd7405a8	-0.059575707
133	0xbd6a8378	-0.057254285
134	0xbca2678a	-0.019824762
135	0x3dce32e7	0.100683026
136	0xbdb2c5f0	-0.0872916
137	0xbd253c2c	-0.040340587
138	0x3dc93e62	0.09826352
139	0xbcb3db6e	-0.021955218
140	0x3d831566	0.06400566
141	0x3c475abe	0.012167631
142	0xbc60a6bd	-0.0137116285
143	0xbda2fc93	-0.07958331
144	0xbd4025e8	-0.04691115
145	0x3deea487	0.11652475
146	0x3dbce7d5	0.09223906
147	0xbe03415e	-0.12817904
148	0x3cca352c	0.024683557
149	0x3d99e408	0.07514197
150	0xbdc8546b	-0.097817264
151	0xbd8c86d2	-0.068616524
152	0x3da75f42	0.08172466
153	0x3cc83d65	0.024443338
154	0x3d0c9477	0.034321275
155	0x3d28dbb0	0.041225135
156	0x3d703c8e	0.0586515
157	0x3dee7aba	0.11644502
158	0x3d9d5468	0.07682115
159	0x3d01eda6	0.03172078
160	0xbd16a557	-0.036778774
161	0xbd92a3ba	-0.071601346
162	0x3d9514f8	0.0727939
163	0xbdddc9c5	-0.108295
164	0xbd1ee77c	-0.03879498
165	0x3d987f01	0.07446099
166	0x3d51b728	0.051200062
167	0x3d1217e1	0.035667304
168	0x3da6765e	0.081280455
169	0xbc7f397c	-0.01557767
170	0x3d633b87	0.05547669
171	0x3db0bf1b	0.086302005
172	0xbc9027ff	-0.017597197
173	0x3aec1e81	0.0018014462
174	0x3c858ca4	0.016302414
175	0xbd1777ec	-0.0369796
176	0xbab046ca	-0.0013448831
177	0x3d7cecd6	0.0617493
178	0xbcfbbf5b	-0.030730894
179	0xbdc8a431	-0.09796942
180	0x3d9e7831	0.077377684
181	0xbd03736c	-0.032092497
182	0x3d97193c	0.0737786
183	0xbca9c48b	-0.020723602
184	0x3c2c54a9	0.010518231
185	0xbcbb2aa7	-0.022847487
186	0x3d088230	0.03332728
187	0xbdcdbe5f	-0.10046076
188	0x3e2961f5	0.16541274
189	0xbd68aa97	-0.056803312
190	0xbdb40602	-0.087902084
191	0xbd990d30	-0.074732184
192	0x3d5167c9	0.051124368
193	0x3c61b380	0.013775706
194	0xbd7b9c52	-0.061428376
195	0xbda3de0f	-0.08001339
196	0x3c2eaceb	0.010661344
197	0x3df0bea7	0.11755114
198	0xbca24215	-0.019806901
199	0x3dd5641a	0.104194835
200	0x3d93841b	0.072029315
201	0x3b5c350e	0.003360096
202	0x3cb3c8ec	0.021946393
203	0x3d0a64f7	0.033787694
204	0x3cd1d6dc	0.025615148
205	0xbdf3a39a	-0.11896439
206	0xbc148d4c	-0.009066891
207	0x3d0a754c	0.03380327
208	0x3d5c2250	0.05374366
209	0x3b9f2a44	0.0048573334
210	0xbd165fb2	-0.036712356
211	0x3d96fa59	0.07371969
212	0x3d378cc9	0.044811998
213	0xbd8c6bff	-0.06856536
214	0xbdd58039	-0.10424847
215	0x3cd58b98	0.02606754
216	0x3d7bcba1	0.061473493
217	0x3c997da2	0.018736664
218	0xbd47e307	-0.048800495
219	0x3d84d37a	0.064856485
220	0xbdafe0a9	-0.085877724
221	0x3cdb58b1	0.02677569
222	0x3d0423b9	0.03226063
223	0x3d82aa9d	0.06380198
224	0x3cb0a40c	0.021562599
225	0x3d76d341	0.06026006
226	0xbe095eaa	-0.13415018
227	0x3d1e73e6	0.038684748
228	0x3db0dfd6	0.08636443
229	0x3db41f16	0.08794992
230	0xbe5f97d8	-0.21835268
231	0xbd143cac	-0.036190674
232	0x3d9e0d60	0.07717395
233	0xbccdd07d	-0.025123829
234	0x3cf4e4a3	0.029894179
235	0x3b61437e	0.0034372504
236	0xbdc001ac	-0.09375319
237	0xbdcddc03	-0.100517295
238	0xbc00d7c8	-0.007863946
239	0x3daa2a25	0.0830882
240	0x3d8a0b98	0.067404926
241	0xbde1321c	-0.10995886
242	0x3d0826a9	0.033239994
243	0xbd3302b9	-0.04370377
244	0xbb09bb13	-0.0021016046
245	0xbd53ef0e	-0.051741652
246	0xbdc08945	-0.09401182
247	0x3d226c96	0.039654337
248	0xbd85bac8	-0.06529766
249	0x3b8c9503	0.0042902245
250	0x3d78db6a	0.060756125
251	0xbda3f44b	-0.080055796
252	0xbc6b3ca7	-0.014357722
253	0xbd0a846a	-0.033817686
254	0x3e00505e	0.12530658
255	0xbdc5ce0b	-0.0965844

mlp2.2.bias f4 [50]
0	0xbdac8f00	-0.084257126
1	0x3c6a454c	0.014298748
2	0xbdc6cf47	-0.09707504
3	0xbd51e5a1	-0.05124438
4	0x3d093bab	0.03350417
5	0xbd98fcb6	-0.07470076
6	0xbdc9848f	-0.09839737
7	0xbd96e639	-0.0736813
8	0xbe03fca8	-0.1288935
9	0x3ddda68e	0.108227834
10	0x3d5e388d	0.05425315
11	0x3dc9928c	0.09842405
12	0x3c66ce14	0.014087219
13	0xbc80adff	-0.015707968
14	0xba246af9	-0.00062720437
15	0x3cdc9ab6	0.02692924
16	0xbd92c841	-0.07167102
17	0xbce5838c	-0.028016828
18	0x3c77c732	0.015123175
19	0x3da4f7f9	0.080551095
20	0xbd778832	-0.06043262
21	0x3da640b2	0.081178084
22	0xbda49144	-0.0803552
23	0xbbc4235d	-0.005985661
24	0xbce5c198	-0.028046414
25	0x3d822aa1	0.06355787
26	0xbd5831a7	-0.052781727
27	0x3d05eb00	0.032694817
28	0x3d50c9b0	0.050973594
29	0xbd1b2093	-0.037872862
30	0x3d0c3c6c	0.03423731
31	0xbd904f10	-0.0704633
32	0xbd06c3ca	-0.032901563
33	0xbd5f7666	-0.054556273
34	0xbd24a33a	-0.040194727
35	0xbd2dfe8e	-0.04247909
36	0x3b30b4fb	0.0026963342
37	0x3d9f318f	0.077731244
38	0x3c331987	0.010931379
39	0xbc6cc64e	-0.014451576
40	0x3d74ef64	0.059798613
41	0x3a38f6f5	0.00070558424
42	0x3d97a5f6	0.074047014
43	0xbd542db1	-0.051801387
44	0xbd719d17	-0.058987703
45	0xbc349e14	-0.011024017
46	0x3b88c5c5	0.0041739666
47	0x3de5253c	0.111887425
48	0xbd44557d	-0.04793309
49	0x3d50b344	0.05095221

attention.0.weight f4 [100, 200]
0	0xbcbf177d	-0.02332663
1	0xbd0acf1e	-0.03388893
2	0x3a0af288	0.0005300422
3	0x3d83d5b0	0.06437242
4	0x3d84b53b	0.064798795
5	0xbd688cab	-0.056774776
6	0xbcbb727d	-0.02288174
7	0xbc9b5be7	-0.01896472
8	0x3c37e21c	0.011223342
9	0xbb021351	-0.001984794
10	0x3d669d9a	0.056302644
11	0xbcdd0808	-0.026981369
12	0xbc97986c	-0.018505298
13	0xbd8f5f3d	-0.07000587
14	0xbd60da21	-0.054895524
15	0xbd05545b	-0.03255115
16	0x3d614477	0.054996934
17	0x3d743a3a	0.05962584
18	0x3d1cc673	0.038275193
19	0xbd591bf1	-0.053005163
20	0x3d2324d6	0.03983005
21	0xbd282809	-0.041053806
22	0xbbb92769	-0.00565045
23	0x3d81d8a6	0.063401505
24	0xbd0ada8f	-0.03389984
25	0x3d2e17b5	0.042503078
26	0x3c1e7723	0.009671959
27	0x3b8c2f02	0.0042780647
28	0x3d32f9bf	0.043695208
29	0xbcc8c7e7	-0.024509383
30	0x3d417da1	0.04723895
31	0x3ce85cc0	0.02836454
32	0xbd121859	-0.03566775
33	0x3ce04664	0.027377315
34	0xbd841e82	-0.064511314
35	0xbd7b4bd8	-0.061351627
36	0xba63d60b	-0.00086912577
37	0x3d73d8e5	0.05953302
38	0xbcd60492	-0.026125226
39	0xbd29a1c7	-0.04141405
40	0xbbc128bc	-0.0058947485
41	0x3cac22b5	0.021012643
42	0x3d1fb95f	0.038995143
43	0x3cecaf2a	0.028892118
44	0xbbb98757	-0.0056618857
45	0x3bac1fb1	0.0052528013
46	0x3d2f846a	0.04285089
47	0xbd5a8d6f	-0.053357538
48	0xbc0d1304	-0.008610491
49	0xbd90c4f6	-0.07068817
50	0xbd02e7a4	-0.03195919
51	0xbcb59f2c	-0.022170626
52	0xbc880afa	-0.016606797
53	0x3c0fc5ac	0.008775156
54	0xbd0d3dd6	-0.0344828
55	0x3d19fb9f	0.03759348
56	0x3cf545b3	0.029940462
57	0xbd549053	-0.05189545
58	0xbd2df1b3	-0.04246683
59	0x3d627821	0.055290345
60	0xbd254a23	-0.040353905
61	0xbcb1b1e5	-0.021691272
62	0xbd59694e	-0.053078942
63	0xbd4fe1cb	-0.050752442
64	0xbc25bf27	-0.010116375
65	0x3d34ef43	0.04417349
66	0x3d0849b8	0.03327343
67	0xbbadc805	-0.005303385
68	0xbd18ba21	-0.03728688
69	0xbd671afb	-0.056422215
70	0x3d0bf683	0.03417064
71	0xbd8265e0	-0.06367087
72	0xbd3410ef	-0.04396146
73	0xbd34b17d	-0.04411458
74	0x3d52c752	0.051459618
75	0xbccbed5d	-0.024893457
76	0xbc8f3738	-0.017482385
77	0x3c1921db	0.009346451
78	0x3d3b519b	0.045732122
79	0x3d589b06	0.052882217
80	0xbcf7640f	-0.030199079
81	0xbd431712	-0.047629423
82	0xbcdef587	-0.027216686
83	0x3cbe7707	0.023250116
84	0x3d8b652c	0.068064064
85	0x3d7969be	0.06089186
86	0x3d1521a7	0.036409047
87	0x3cb72435	0.022356132
88	0xbc5aa89f	-0.013345866
89	0x3d554ef5	0.052077252
90	0xbd0922e6	-0.033480547
91	0x3d28968b	0.041159194
92	0x3c9eab03	0.019368654
93	0xbd249347	-0.040179517
94	0x3d0493ce	0.03236752
95	0x3d64655d	0.05576073
96	0x3cd9f836	0.026607614
97	0xbc832ec8	-0.016013518
98	0x3d423536	0.047414027
99	0x3d2a1a82	0.041529186
100	0xbd6cc067	-0.057800677
101	0xbc2a3a6b	-0.0103899045
102	0x3c335706	0.010946041
103	0xbcdb610e	-0.026779678
104	0x3d169624	0.03676428
105	0x3d6a1dcd	0.057157326
106	0x3d72aa59	0.059244487
107	0x3c3ae697	0.011407516
108	0xbcdb4dad	-0.026770437
109	0x3cfdfb0f	0.031003503
110	0xbced8137	-0.028992279
111	0xbce316b9	-0.027720796
112	0x3b2a625e	0.0025998573
113	0xbd05ceca	-0.032667913
114	0xbc9784c5	-0.018495927
115	0x3d7f3919	0.062310312
116	0xbd3b3acd	-0.045710374
117	0xbd866849	-0.065628596
118	0x3c71952b	0.014745037
119	0x3ba97bf7	0.0051722485
120	0x3d2b2e88	0.041792423
121	0x3d8af9ac	0.067859024
122	0x3d05cc7d	0.03266572
123	0xbc20bf6d	-0.009811264
124	0xbd20f4c2	-0.03929592
125	0xbcd802be	-0.026368495
126	0xbd07e556	-0.033177696
127	0xbd1b546b	-0.037922304
128	0xbbb146c0	-0.0054100454
129	0x3cd4b8d8	0.025967047
130	0x3a079495	0.0005171982
131	0x3b7c61eb	0.0038510512
132	0xbd1e58f5	-0.038659055
133	0xbd86ff16	-0.065916225
134	0x3d0cbd7c	0.034360394
135	0x3b9edd88	0.004848186
136	0xbc4e12cf	-0.0125777265
137	0xbb3c6c0c	-0.0028750924
138	0xbd306bd8	-0.043071598
139	0xbcffffe4	-0.031249948
140	0x3d87a176	0.06622593
141	0xbd67f275	-0.05662771
142	0xbd83a108	-0.06427199
143	0x3ca3ef61	0.020011606
144	0xbd8dd996	-0.06926267
145	0x3d09ecf8	0.033673257
146	0x3ca09756	0.019603413
147	0x3d016ddc	0.03159891
148	0x3d1adf00	0.037810326
149	0x3b901a1e	0.0043976447
150	0xbc9ca262	-0.019120399
151	0xbcf6c168	-0.03012152
152	0x3d027f4c	0.03185968
153	0xbb79fdd2	-0.0038145673
154	0xbd702a84	-0.058634296
155	0x3d9227b3	0.07136478
156	0xbcc51714	-0.024058856
157	0xbd481807	-0.04885104
158	0xbd0586b5	-0.03259917
159	0x3d285f4a	0.0411065
160	0xbce0bba3	-0.027433222
161	0xbb3715f2	-0.0027936664
162	0x3b2c8f6d	0.0026330606
163	0x3cf3c0ad	0.02975496
164	0x3d34df1d	0.04415809
165	0x3ba986cd	0.00517354
166	0xbd290c16	-0.04127129
167	0xbd058831	-0.032600585
168	0x3b9093ef	0.0044121663
169	0xbd588561	-0.052861575
170	0x3d7369bf	0.05942702
171	0x3d14c9a2	0.036325105
172	0x3d82254f	0.06354772
173	0x3d29bd4b	0.04144029
174	0xbd247d8a	-0.040158786
175	0xbced428a	-0.028962392
176	0xbb0653a6	-0.0020496636
177	0x3d3c0049	0.04589871
178	0x3d742c66	0.059612654
179	0x3c9a3b0a	0.01882698
180	0x3d850fb8	0.06497139
181	0xbd8946c5	-0.06702951
182	0x3d2bf5eb	0.041982573
183	0x3d429f41	0.047515158
184	0x3d4e1319	0.05031118
185	0xbd3e56a1	-0.046469335
186	0xbc809b5c	-0.015699081
187	0xbd412bc6	-0.047160886
188	0xbb019234	-0.0019770982
189	0x3c2dd22d	0.010609192
190	0x3d374250	0.044740975
191	0x3cf042ea	0.029328782
192	0x3b17ad18	0.0023143943
193	0x3d20f3ae	0.03929489
194	0x3c321a82	0.010870578
195	0xbc5634cf	-0.013074114
196	0xbd33c7fa	-0.043891884
197	0xbd7302ca	-0.05932883
198	0x3abe25b3	0.0014507085
199	0x3d3d3335	0.046191413
200	0xbc968dcd	-0.018378163
201	0xbd499225	-0.04921164
202	0xbb349e36	-0.0027560121
203	0x3d49ed4f	0.04929858
204	0xbd87632a	-0.06610711
205	0x3c5844ad	0.013199967
206	0x3cba685a	0.022754837
207	0x3d82b831	0.06382788
208	0xbd550a49	-0.05201176
209	0x3d8206df	0.06348967
210	0x3d6c0edd	0.057631362
211	0x3d07d08e	0.033157878
212	0x3d3f0148	0.04663208
213	0xbd809685	-0.06278709
214	0x3d605714	0.054770544
215	0xbd0abf76	-0.033873998
216	0xbc2b949e	-0.010472445
217	0x3bb98f63	0.005662845
218	0x3d52a416	0.051426016
219	0xbcf14748	-0.029452935
220	0xbd0d1ded	-0.034452368
221	0xbbb6e223	-0.005581157
222	0xbcccb59a	-0.024988938
223	0x3d06ef7c	0.032943234
224	0x3d359189	0.044328246
225	0xb9848b77	-0.0002528091
226	0x3c658f13	0.014011162
227	0x3ccc92e6	0.02497239
228	0xbd5a855a	-0.05334983
229	0x3d87d21a	0.066318706
230	0xbd0e6024	-0.034759656
231	0x3d22abdb	0.039714675
232	0x3b73aafa	0.0037180767
233	0xbcf889ac	-0.030339085
234	0x3d19900f	0.0374909
235	0xbd03c865	-0.032173533
236	0xbd14960f	-0.03627592
237	0x3d85b9bb	0.06529566
238	0x3b81e900	0.0039645433
239	0x3b1d754f	0.002402622
240	0x3c371cdb	0.011176313
241	0xbaa4515f	-0.0012536458
242	0xbd579252	-0.052629776
243	0x3d214112	0.039368697
244	0xbc28bf88	-0.010299571
245	0x3d828ee7	0.06374913
246	0xbca71446	-0.02039541
247	0x3d3cf4b3	0.0461318
248	0xbd27345b	-0.040821414
249	0xbcbb9e91	-0.022902759
250	0xbcc0c8e3	-0.02353329
251	0x3d06c88a	0.032906093
252	0x3d0e1581	0.034688476
253	0x3d158fe2	0.03651417
254	0xbd740351	-0.059573475
255	0x3c1e7635	0.009671737

attention.0.bias f4 [100]
0	0xbd19f9ad	-0.037591625
1	0x3a9ac227	0.001180713
2	0x3d0e448c	0.03473334
3	0x3d4c9a17	0.04995164
4	0x3d4aba3b	0.04949401
5	0x3d8be101	0.068300255
6	0xbd367c22	-0.044551976
7	0x3d80fc8c	0.062981695
8	0x3c7ed1a9	0.015552917
9	0x3cef4bd4	0.029210962
10	0x3d3f4df6	0.04670521
11	0x3d60cd80	0.05488348
12	0x3d454ebb	0.048170786
13	0xbd1d489a	-0.038399316
14	0xbd1ae0fc	-0.037812218
15	0x3d45290f	0.04813486
16	0x3d272a9f	0.04081213
17	0xbb81d7dc	-0.0039625
18	0xbd01ddb8	-0.031705588
19	0x3cbd8f12	0.02313951
20	0xbcabd182	-0.020973925
21	0xbd8348b9	-0.06410355
22	0xbd29fee0	-0.041502833
23	0x3d6b4844	0.057441965
24	0xbd1e9c26	-0.038723134
25	0xbd423f37	-0.047423568
26	0x3cb09c55	0.02155892
27	0xbbb0df82	-0.005397738
28	0x3c88beb5	0.016692499
29	0xbd022749	-0.031775746
30	0xbcd0924d	-0.025460387
31	0x3cf6c9e8	0.030125573
32	0x3d39cb76	0.04536005
33	0x3c9c6864	0.019092746
34	0x3d449880	0.047996998
35	0x3d25592a	0.040368237
36	0x3ccdddee	0.025130238
37	0xbcd00178	-0.025391325
38	0x3c88a270	0.016679019
39	0x3cdca9b3	0.026936388
40	0x3ca57849	0.020198958
41	0xbcce8a05	-0.025212297
42	0xbd33f4b7	-0.04393455
43	0x3d0947ab	0.033515614
44	0xbcb779a2	-0.022396866
45	0x3d00116b	0.03126661
46	0xbd90859b	-0.07056733
47	0xbd48ba44	-0.04900576
48	0x3d94faf9	0.07274432
49	0xbd2b845e	-0.041874282
50	0x3cf6cbcd	0.030126477
51	0xbab3bbed	-0.0013712622
52	0xbd71d07b	-0.059036713
53	0x3c43a7a6	0.011941826
54	0x3d06ef00	0.032942772
55	0x3d6ddc97	0.0580717
56	0xbc7c4389	-0.015396961
57	0xbc8d56b8	-0.017253265
58	0x3ccf82f8	0.025331005
59	0x3a78e9f5	0.00094953115
60	0xbb76a7cd	-0.0037636638
61	0x3d73581a	0.059410192
62	0xbda0a8c9	-0.07844693
63	0x3ab1f042	0.0013575631
64	0xbc949c73	-0.018141007
65	0x3d83b546	0.064310595
66	0xbca878e2	-0.020565454
67	0xbd1d28da	-0.038369037
68	0x3cf6d718	0.030131862
69	0x3d8e48bd	0.069474675
70	0xbc605e7e	-0.013694404
71	0x3d32c66b	0.043646257
72	0xbc7b01af	-0.015320226
73	0x3d44eece	0.048079304
74	0xbc2ab2d4	-0.0104186125
75	0xbbc239b0	-0.005927287
76	0x3c1d630e	0.009606136
77	0x3d70110c	0.058610007
78	0xbd6f1c35	-0.05837651
79	0x3d880bba	0.06642862
80	0xbd0008ff	-0.03125858
81	0x3c9904ae	0.01867899
82	0xbcb335a6	-0.021876168
83	0x38a7cd0d	8.001374e-05
84	0xbd773911	-0.060357157
85	0xbd5a85ae	-0.053350143
86	0x3c9e5b99	0.019330787
87	0x3d6d2534	0.057896808
88	0xbd74c8fc	-0.059761986
89	0xbd12b19c	-0.035813913
90	0x3d9e8619	0.07740421
91	0xbc300e6a	-0.010745624
92	0x3d80f122	0.062959924
93	0x3d78c576	0.06073519
94	0x3d9419bb	0.0723147
95	0x3d6d5b5f	0.057948466
96	0xbb8e6701	-0.004345775
97	0x3ccb11e2	0.0247888
98	0x3b8ebb8c	0.0043558534
99	0xbcc19be8	-0.023633912
