crowd_nav/data/output_omSARL/il_model.pth (torch, 421347 bytes, 20 tensors)

mlp1.0.weight f4 [150, 61]
00000000: c1b3 833d 7a9a 4f3d 2229 8ebd 8fcd a9bd
00000010: 1b57 09be 148d b73c 98b9 143e b32c 183d
00000020: 9757 a63d 4e64 d23b e4be 4ebd 42f9 01be
00000030: b13a d03d 4d8a a13d 1b4a 84bd 8cca 29bc
00000040: bcf4 a5bc 0533 4a3d 7ebe 103d 940a 1c3e
00000050: 13c3 843d 0b1b c53d 1645 883b e99d 843d
00000060: 12ea 153c 92fb 873d dd28 b13d eb6e 973d
00000070: 1dbd a83d ea6c 433d 185e cfbd f9a9 283e
00000080: 0acb a73d d71d 2c3d 6125 d03c 3959 06bd
00000090: a4e5 153d 24ab a63d 7f41 6f3d 271c 8c3d
000000a0: 45a5 8f3d eb60 87bd 4d17 69bc 3965 b53d
000000b0: f3c2 cabd 3499 70bc c56b 6cbd 6e0f b9bd
000000c0: 0223 ec3c 7f1f b03d 532c cdbd 9379 013e
000000d0: d27e b3bb 5224 f9bd 094d e4bc 4f30 c33d
000000e0: efd7 413d 2296 493d ed46 803d 99f5 c93c
000000f0: 5ea1 1fbe f7c5 bfbd b87f 8b3d efb3 2f3c
00000100: 7e91 7e3d 69bd 903d 06b6 d33c 89f7 cd3c
00000110: f2d7 8a3c 1124 bc3d 99b3 8e3c c41e 89bd
00000120: 0ecb eabc e2f0 f4bd bfea b8bc 2cfc d13d
00000130: 2d6b 5abd 1ba7 2cbc 5c6f ffbd e174 82bd
00000140: ce54 42bd 2b52 883d 2e8e 5bbc 16d0 e5bd
00000150: 6138 e23d 9298 f83d b1ce b1bd c9c4 4e3b
00000160: e584 cdbd 0f58 8f3d bdad 65bd eb66 9b3d
00000170: 116f 1f3c bdf2 7ebd a466 533d 528b f7bd
00000180: f374 37bd 2406 d93d d3d3 16bd 3227 593a
00000190: aa5e 8abd faee 3ebd ebc5 edbd 0839 a43d
000001a0: 28dc f73d 537a 183d d4e7 e53c 9e00 193d
000001b0: e896 4e3d 44b2 efbd a144 bd3d ab16 efbd
000001c0: cadb ecbd 52cd 22bd 6961 223d 6f86 8e3d
000001d0: 1bc8 e43d 0e8e a83d 0094 d43d fe0c b8bd
000001e0: 268e eebc b7e1 8cbd 6b90 f43d 6a02 ddbd
000001f0: 6e03 87bb 985b 043d edfe 75bb b27b 253e
00000200: dc10 2a3e 6282 243c 64ea b6bb e349 13bd
00000210: 4295 02be 5d1b 32be 0aaa 9abd a598 5fbd
00000220: 0e3a e43d a7d4 963d 2bd8 2a3d 6312 b339
00000230: 231f 093e be82 953d a5a8 0cbe c15a eb3c
00000240: 4e05 febd a3e0 e6bd ce05 ce3d b832 29bd
00000250: f19c 903d c80a 1f3d 14bf a9bd 6faf fc3d
00000260: 29d4 f7bc 7c08 a5bd a6f0 293d fb37 da3d
00000270: 5cf8 813c 560c bc3c f798 d8bd 8c30 19be
00000280: 8815 38bd d840 643d 0043 a0bd b906 c6bd
00000290: f662 70bc f3ed 1f3d 2b86 863d 0463 7dbd
000002a0: e8d6 df3c 0be9 a8bd 9f2f 05be a9b6 723d
000002b0: 83d5 f53c c1c2 d73c b27f 74bd c0b8 743b
000002c0: bc86 e3bd 2823 c4bd ee2a bcbd 8eac 86bd
000002d0: c6cb 693d ed8d 15be 58e8 59bc c9c9 8fbd
000002e0: 4a38 76bc bf0c 163d 1010 dfbd fb9b 1c3d
000002f0: 497c d73d aadf 203e ef08 fbbd c8d6 cebd
00000300: 9ffa 4a3b 5218 17bd e5cd a3bd 1f50 cebd
00000310: 33f9 bbbd 8189 e13a a001 ee3c 15c1 e3bd
00000320: 3d52 febc d28b b53d 1145 e93d 03af 8b3d
00000330: 3671 ed3d 11df e0bd 0597 d3bd 844f 533d
00000340: 273c 9e3c dafe 5a3d c0ff b7bd 6f6c 9b3d
00000350: f849 a6bd 7b5d 1b3d d4ff cfbd cb45 2c3c
00000360: 20e4 433d 02ca 923d 2485 c93d 7e38 543d
00000370: 680a aebd 2b82 cc3d 25d1 003e ce5b f33c
00000380: 2c67 e2bd 1d58 273d 57d0 b43c f023 0d3d
00000390: 68c2 fbbd 0fcf 4b3d 570b 80bd a3b2 4b3d
000003a0: 7c97 a53d 59ef 70bd f0eb 713d 1fb7 7c3c
000003b0: 4cda b73d 70ec 213d fa21 a1bc 9eb5 8f3c
000003c0: 74c3 543d 86d8 013e 6821 9cbd 11bf 02be
000003d0: 08af 123e 5361 b33c d681 11bd 6867 a7bd
000003e0: 611d f8bd ebcb 80bd 4576 283d a8f1 693c
000003f0: 1be2 423e 8053 4abd 7252 183d b5c0 cabd
0.0643077 0.05068443 -0.06941439 -0.0829116 -0.13412134 0.022406138 0.14523923 0.037152003
0.08122175 0.0064206487 -0.050475016 -0.1269274 0.101674445 0.07887707 -0.06459447 -0.010363232
-0.0202583 0.049365062 0.035337918 0.1523841 0.0648252 0.09624299 0.0041586263 0.064754315
0.009150045 0.0663978 0.08650372 0.07394203 0.082391955 0.04771129 -0.10125369 0.1647109
0.081930235 0.042020645 0.025408449 -0.032799933 0.036595955 0.08138111 0.05841207 0.06841307
0.070139445 -0.066102825 -0.014226747 0.08857197 -0.09900465 -0.014684964 -0.057719965 -0.09036146
0.028825287 0.085997574 -0.1001822 0.12644033 -0.0054777646 -0.12165131 -0.027868764 0.095306985
0.04732507 0.049215443 0.06263528 0.024653243 -0.155889 -0.09363931 0.0681147 0.010724052
0.06215047 0.07067377 0.025843631 0.025142448 0.016948674 0.091865666 0.017419623 -0.06695321
-0.028661277 -0.11960007 -0.022572873 0.10253176 -0.053324867 -0.010537888 -0.12472412 -0.06369949
-0.047444157 0.06656297 -0.0134005975 -0.1122133 0.1104591 0.121384755 -0.086820014 0.0031550399
-0.10035113 0.06999218 -0.056073893 0.075879894 0.00973107 -0.062243212 0.051611558 -0.1208712
-0.044789266 0.10596874 -0.036823105 0.00082837336 -0.06756337 -0.046614625 -0.116100155 0.0801869
0.12102538 0.037226032 0.028064646 0.037354104 0.050436884 -0.11703923 0.092416056 -0.116742454
-0.11565359 -0.03974659 0.03964368 0.06959235 0.111709796 0.0823022 0.10379791 -0.08986853
-0.029120516 -0.06878989 0.11941608 -0.10791476 -0.004120282 0.032313913 -0.003753598 0.16160467
0.16607994 0.010040851 -0.0055821408 -0.035959136 -0.1275225 -0.17393251 -0.075519636 -0.054588933
0.111438856 0.07364779 0.04171006 0.0003415524 0.13390784 0.07300328 -0.13736208 0.028729798
-0.124033555 -0.11273315 0.10059701 -0.041308135 0.07061184 0.03882864 -0.082883984 0.12338149
-0.030252533 -0.08058259 0.041489266 0.10655209 0.015865497 0.022955101 -0.10576051 -0.14959925
-0.04494241 0.055725902 -0.07825279 -0.09669251 -0.014672032 0.039045285 0.06568559 -0.061862007
0.027324155 -0.082475744 -0.13006447 0.05925623 0.030009037 0.026337983 -0.059692092 0.0037341565
-0.11109683 -0.09577018 -0.09187876 -0.06575881 0.0570791 -0.14604922 -0.013300024 -0.07020909
-0.015028069 0.03663325 -0.108917356 0.038234692 0.105217524 0.15710321 -0.12257563 -0.1009956
0.0030972136 -0.036888428 -0.07998256 -0.10073876 -0.0917839 0.0017207117 0.02905351 -0.11120812
-0.031045074 0.08864559 0.113901265 0.0682049 0.11593859 -0.109800465 -0.10331539 0.051589504
0.019315792 0.0534657 -0.08984327 0.075890414 -0.08119577 0.037930947 -0.10156217 0.010514687
0.04782498 0.07167436 0.09839848 0.051811688 -0.084980786 0.09985765 0.12579782 0.029706862
-0.11054835 0.040855516 0.022072 0.0344581 -0.122929394 0.049758013 -0.06252163 0.049730908
0.08085534 -0.05882201 0.0590629 0.015424519 0.08977184 0.039532125 -0.019669522 0.017542657
0.05194421 0.12680253 -0.07623559 -0.12768199 0.14324582 0.021896994 -0.03552421 -0.0817402
-0.121149786 -0.06288894 0.041128416 0.014278807 0.19031565 -0.049396038 0.037188 -0.09900037

mlp1.0.bias f4 [150]
00000000: 9d3a 70bd da3a 59bd f43f 00be e73a f1bd
00000010: a73f 0abe d9a8 e4bd e154 153d b0af 943d
00000020: 04c8 9d3d de9f b4bc faca fe3d 095f 093e
00000030: c1b1 9abd fb81 9d3d c24a 6cbc 1de2 d3bd
00000040: 843b c6bd 18e0 bd3d 9efe b3bb 2e90 7c3d
00000050: 77b9 f43d 5bbc 183d 718c 973d afab 883d
00000060: 5df1 813d 805f 1a3e bc74 ad3d 0053 cb3d
00000070: 2b6d 4abd c753 de3d 7e72 b33d 3e22 8abd
00000080: 1708 8fbd c9ef 37bd 9112 87bc 3241 ea3d
00000090: e6ae 57bd d31f bf3d 51a9 fabc cd8a 54bd
000000a0: 03d6 a63d e3d9 39bd de91 0c3d 1bac ad3d
000000b0: d1a9 553d 2749 95bb c34c 533d 8502 4ebd
000000c0: 3a92 77bc 4e5c b3bd 938d e13b 4a78 013d
000000d0: 2e4c d0bd c22b 1abd 1e70 913d 2f20 7dbb
000000e0: b894 543d ec46 2e3d 288a eabc a25f 96bd
000000f0: c838 333d 129f 0dbc 4aac cebd 9ea4 4a3d
00000100: 6d79 c7bd 61a9 8d3d 2ce0 5e3d 04af dbbb
00000110: 1ddc 8c3c 2d77 043e 0684 27bd 54b0 893d
00000120: 80f2 223a 2ed3 ee3d 7d9d 40bb 451e 4d3d
00000130: 0f5f ecbd c9ae 3b3d c505 12bd ab57 76bd
00000140: 8241 a1bd 55a2 14be 77b0 39bd 201c e3bc
00000150: d356 39bd 2ad7 e13d 7333 853c c299 363d
00000160: eee9 e73d fad7 563d 9baa 273d f8c3 603c
00000170: 6c00 a4bd 0cfc 1cbd bf9e 213d fa65 4fbc
00000180: 502e 3e3b 3bb5 dc3c c5c7 ffbc 053a 903c
00000190: 0b23 27bd 6a7f 463d 673e 783b 8688 003e
000001a0: cd71 ae3d 0cd6 803d 5c8a 123e 0137 71bd
000001b0: df3b 89bc 1513 f33d ff21 3bbd 8681 673d
000001c0: 48ed 9cbd ae59 f2bd 1ed6 37bd f30e 263d
000001d0: 179d ca3c a5ff 9a3c ef89 083d 7e7b b8bd
000001e0: 805a f13d 628f cbbd 2a02 bcbd fe21 b8bb
000001f0: ee68 de3d 4f16 bb3c 83b5 96bd bc98 df3c
00000200: f16e c3bd 0fb7 ffbd 9304 363d 2c35 593d
00000210: 685e ed3d 0b0f 5e3d f8c8 acbc f62c 59bd
00000220: 766d 6c3d 8f7d d3bd 5c47 96bb fbf5 3b3d
00000230: 718c d5bd 2197 243d 931c bebd 8c91 c4bc
00000240: 5ad3 723d d9b0 da3d b255 92bd 5141 99bd
00000250: 5b4b 0abd b73a b33d
-0.058649648 -0.05303464 -0.12524396 -0.11778813 -0.13500844 -0.11165018 0.0364579 0.07260072
0.077041656 -0.022048887 0.124410585 0.1341516 -0.07553435 0.076908074 -0.0144221205 -0.10345862
-0.096793205 0.09271258 -0.005492999 0.061660938 0.11949437 0.037289005 0.07399834 0.06673371
0.063448645 0.15075493 0.08469531 0.0992794 -0.049420517 0.10855823 0.08762072 -0.067448124
-0.06983965 -0.04490641 -0.016488345 0.11438216 -0.05265703 0.09332242 -0.030598314 -0.051890183
0.08146288 -0.04537381 0.034318797 0.08480092 0.052163903 -0.0045558396 0.051586878 -0.05029537
-0.015110547 -0.0875784 0.006883332 0.031608857 -0.1017078 -0.037639387 0.07101463 -0.003862392
0.05189964 0.042548105 -0.028630331 -0.07342459 0.043755323 -0.008643882 -0.10091455 0.049473397
-0.09739957 0.06917072 0.054413006 -0.006704213 0.017194802 0.12936087 -0.04089739 0.06723085
0.0006215945 0.11661373 -0.0029390745 0.050077695 -0.115415685 0.045820985 -0.035650034 -0.0601422
-0.07873823 -0.1451505 -0.045334306 -0.027723372 -0.045248818 0.110273674 0.016259884 0.04458023
0.113239154 0.052452065 0.040934186 0.013718598 -0.08007893 -0.038326308 0.039458033 -0.01265859
0.0029019304 0.026941886 -0.031223187 0.01760579 -0.040804904 0.048461355 0.0037878992 0.1255208
0.085177995 0.06290826 0.14310592 -0.058890346 -0.016752182 0.11868874 -0.045686718 0.056520008
-0.07662445 -0.11833511 -0.044881932 0.0405416 0.02473311 0.018920729 0.03333467 -0.09007929
0.1178484 -0.099394575 -0.091801 -0.0056192866 0.108598575 0.022837786 -0.07358839 0.02729451
-0.09542645 -0.124860875 0.044437956 0.053029224 0.11590272 0.054213565 -0.021091923 -0.053021394
0.057721578 -0.10326683 -0.0045861434 0.045888882 -0.10427178 0.04018319 -0.09282794 -0.023995183
0.05928359 0.10678262 -0.07145251 -0.07483161 -0.03376327 0.08751433

mlp1.2.weight f4 [100, 150]
00000000: e043 83bd 02ed a3bc fc4e 7c3d 0d59 5dbd
00000010: a62a 2c3d bddd 43bd ea7c 453d 07e9 6e3d
00000020: 9cb7 86bd d4e3 803d 9f23 e1ba f433 8abd
00000030: 7228 a73d 23f8 8c3d dc55 ce3d 4ff9 a7bc
00000040: ae65 673d 56c0 7a3c 9698 783d 5393 c53c
00000050: 259c 11bd e4a7 fcbc 3ace 35bd 4079 5f3d
00000060: 5d3b 42bd bbbc 81bd d971 10bd a3e5 98bd
00000070: ac44 763d d667 f33b 5493 973d d894 aabd
00000080: 2ac2 f33c 2570 6a3d 2638 863d 0181 0d3d
00000090: da6f 5f3c e1cb 30bd 9cf9 c13c 1beb 663d
000000a0: ef23 82bd 9bae 643d c03d 93bd 7f20 57bd
000000b0: 3312 2d3c ea34 e13b 268b 1cbd f18c bdbc
000000c0: 77da c7bb 7332 5bbd fbb2 38bd 717f 01bd
000000d0: 172a f6bc b4fc b9bc 7087 223d 48fc 76bd
000000e0: cf88 7e3d 96de 2ebd dfff 6bbd 77eb 4abd
000000f0: 8a34 7b3d 9dc8 4ebd 92ac 70bd 41fe 883c
00000100: d1d7 2f3d 1f96 43bc 6c24 633d 49bf 12bd
00000110: b920 4fbd c648 96bd 00c9 5cbd 5f9a 1c3c
00000120: b6fc a2bc f79f 22bd 9167 b4bd 8449 623d
00000130: f94d a6bd 8b25 3a3d 1418 703d 81e6 a33d
00000140: 5091 65bd 5950 65bb c79a 953d 5e29 583c
00000150: fffc 3abd a86d 78bd cc15 27bb 1e31 07bd
00000160: 1029 8e3d c7c7 073d 8d76 2d3d c228 c13b
00000170: f986 ef3c 34bd 7ebd b11a 703d 1807 443c
00000180: e863 9f3d d0e2 7b3c ff42 35bd bfe2 55bc
00000190: 5b0a 7cbc 8886 74bd 62f5 5e3d e5af 9d3d
000001a0: 16b1 503d 0c9d 163d 5336 883d 4fc7 a9bd
000001b0: 7b11 8f3d 0a2a 933d ce1a d1bb 21bc 043d
000001c0: 1beb 4abc 14f7 1f3b bcc5 ed3c 9ada 1d3b
000001d0: 6698 633d 5694 4abb 6a50 aabc 9d76 983d
000001e0: d5dc a8bd 0800 74bd 56f6 8d3d 0c3e a03d
000001f0: d8d7 52bd b20e 673d 2f15 03bb 6704 4fbd
00000200: 1bc4 9a3d 28b3 69bd dbc5 f43c 46d0 333c
00000210: 7451 0dbd 4667 f4bc 2117 54bd d870 973d
00000220: 07bf 8e3d dd78 703b 84a6 d7bb 54dd 473d
00000230: 9c47 42ba 6992 93bd 1cda 26bd d09f 4ebd
00000240: f678 7e3d 0ce2 993d 3716 eebc ddb3 483d
00000250: 78ec 9bbd 8ef4 12bd 4b7e 0fbd 0f91 9b3d
00000260: 170e a9bc bce1 f1bc b8d7 213d 1a52 75bd
00000270: b975 fc3c 5f19 9a3c 5478 47bd d057 c73c
00000280: a3f1 50bd c305 3fbd 312f a23d cd90 acbd
00000290: 7faf 4fbd 4626 52bb 9da6 4dbd adf2 30bd
000002a0: 61b5 b8bd 9982 3f3d 24fe 61bc 0a3d 1f3d
000002b0: 820f 97bc cddd 8abd dc8e 5d3d 1b45 44bc
000002c0: 75dc 4c3d cb38 563c 8c2e 1dbd 8a1c 0d3d
000002d0: 7b55 773d 825b 803d 0161 d9bc 956e 8db9
000002e0: eb13 113d 1b70 07bc 66eb cebd 4638 19bd
000002f0: da8a dd3b 0324 133d 1152 3ebd 1e3d f6bd
00000300: 87d1 953d 7989 893d 9bb2 9dbd 3a7b abbc
00000310: 2ec3 bd3c 4c2a 2fbd ad01 96bc f076 7bbd
00000320: 6c7a 273d a17b 3a3b c90e 393d 23fa b53c
00000330: 5668 57bd edd8 7d3d 57ce 853d 01bc 1cbd
00000340: e7ca 94bc 7c83 85bc 64db a73d c540 aabd
00000350: 011a 793c e300 883d bc73 82bd 9f90 59bd
00000360: 65e8 9dbd 127c 683d bd4f 923d 8ed3 88bc
00000370: 9d45 a83c 0754 6bbd 71a5 8d3d 24bd 743d
00000380: 3703 0c3d a334 c33b 464b 453d 36cd 0b3d
00000390: 2b5f a43c f6b2 6dbd c0c9 dfbb 8ef0 7c3c
000003a0: c9e2 3b3c 2a28 9ebc 0e67 49bd 9966 52bd
000003b0: f578 54bd 3eb2 8bbc bf12 8abc 86df 923d
000003c0: 741a 843d fd90 1bbd 47d9 5cbb 8ac5 533d
000003d0: 513b 9bbd cce3 bcbc f3ef 643c 70a2 20bc
000003e0: aed4 3d3d 671d f2bb 2c33 a1bc 647d 8b3d
000003f0: 229d 1b3d 1986 5bbd dace a93c 8c8b 123c
-0.064094305 -0.020010475 0.061598763 -0.054040004 0.04203286 -0.047818888 0.04821483 0.0583277
-0.065779895 0.06293455 -0.0017176754 -0.067481905 0.08162011 0.06883266 0.1007497 -0.020504622
0.056493454 0.0153046455 0.060692392 0.024118101 -0.0355493 -0.030841775 -0.044386126 0.054558992
-0.047419894 -0.063348256 -0.035264824 -0.07465675 0.060124084 0.0074281497 0.074011475 -0.08329171
0.02975567 0.057235856 0.06553678 0.034546856 0.013637507 -0.043163184 0.023678593 0.056376558
-0.0635451 0.05583058 -0.07189512 -0.052521225 0.010563421 0.006872763 -0.03821864 -0.023138495
-0.006099041 -0.05351491 -0.045092564 -0.03161568 -0.030049367 -0.022703506 0.039679945 -0.060299188
0.06214219 -0.042692743 -0.057617065 -0.049540963 0.061329402 -0.05048429 -0.058758326 0.0167228
0.042930428 -0.011937647 0.055454656 -0.035826955 -0.050568316 -0.07338099 -0.053902626 0.009558289
-0.019895893 -0.039703336 -0.08808816 0.05524589 -0.08120341 0.04544596 0.058616713 0.080029495
-0.056046784 -0.0034990518 0.07304912 0.013193456 -0.045651432 -0.06065145 -0.002549517 -0.033005826
0.06941426 0.033149507 0.042349387 0.0058947513 0.029239165 -0.062192157 0.058619205 0.011964582
0.077827275 0.0153739005 -0.044253346 -0.013054549 -0.015383328 -0.05969861 0.054433234 0.07699565
0.050950132 0.036770865 0.066509865 -0.08289968 0.06985756 0.07185753 -0.006381369 0.032405976
-0.012385155 0.0024408745 0.029024951 0.0024086596 0.05556526 -0.003091117 -0.020790298 0.07444499
-0.08245245 -0.059570342 0.069317505 0.078243345 -0.051475376 0.0564105 -0.002000164 -0.050541308
0.075569354 -0.057055622 0.029879501 0.010974949 -0.034501508 -0.0298344 -0.05177987 0.0739457
0.06970029 0.0036693134 -0.0065811295 0.04879506 -0.00074111833 -0.0720566 -0.04073535 -0.050445378
0.062127076 0.07513818 -0.029063327 0.048999656 -0.07613462 -0.035877757 -0.03503255 0.07596027
-0.020636601 -0.029526584 0.039512366 -0.05989275 0.030817853 0.018810926 -0.04869874 0.024333864
-0.051011693 -0.046636354 0.07919157 -0.08426056 -0.050704475 -0.003206627 -0.050207723 -0.043200184
-0.0901897 0.046755407 -0.013793502 0.03887657 -0.018440012 -0.067805864 0.05409132 -0.011979367
0.05001493 0.013075064 -0.03837447 0.034451045 0.060384255 0.06267454 -0.026535513 -0.00026976006
0.035419386 -0.008266474 -0.101034924 -0.037407182 0.006760937 0.035923015 -0.046464983 -0.12023376
0.07315355 0.06715674 -0.07700082 -0.020932782 0.023164358 -0.042764947 -0.018311346 -0.061392725
0.040888235 0.0028455036 0.045180116 0.022214001 -0.052589737 0.061974455 0.06533497 -0.038265232
-0.018163158 -0.016298048 0.08196142 -0.08313135 0.015203954 0.06640794 -0.06369731 -0.053116437
-0.07710341 0.056758948 0.07144115 -0.01670244 0.020541007 -0.05745318 0.06916321 0.05975069
0.034182753 0.0059572025 0.04816749 0.03413125 0.02006491 -0.058032 -0.0068294704 0.015438212
0.011467644 -0.019306261 -0.049170546 -0.051367376 -0.051873166 -0.017052766 -0.016854642 0.0717154
0.06450358 -0.03798007 -0.0033698843 0.05170206 -0.07579673 -0.02305784 0.013973224 -0.009804353
0.046345405 -0.007388759 -0.019677721 0.06811026 0.03799165 -0.053594682 0.020728517 0.008944403

mlp1.2.bias f4 [100]
00000000: 27ab 72bd 3f0d e03d fa77 483d 89fd b53d
00000010: bc82 c7bd 46c9 98bc 2101 28bd 3f37 163d
00000020: d378 37bd 553f a53d 8aa4 90bd 03f1 0bbd
00000030: b0f0 bbbb d165 00bc efaa 2a3c c1a2 963c
00000040: f226 7c3d 9730 a2ba f7d5 06bc 64a7 913b
00000050: 1a4b b0bc 6899 29bd 404d 3d3b 390c 6f3d
00000060: 4ca9 b93d 2f5c 91bc 458a ae3d e6eb ae3b
00000070: 13ab 90bc 450f 03bd 5002 20bc ec38 3d3b
00000080: 623c 913c f628 063d cf64 083d cad8 be3c
00000090: 6397 8f3d f680 933d a880 14bc 4ada af3d
000000a0: eab3 33bb 6f51 73bd 2ef9 40bd 14bb a3bd
000000b0: 67ec 2c3c 3616 f83c 9348 923d e15e 9cbd
000000c0: 8bd2 723d 85b0 153d 54ce 3abd 3454 9abd
000000d0: 214d 8d3d c76b e13b ceda 9fbd ecc6 1b3c
000000e0: ec84 943d 47ce 06bd e6b8 62bd c491 d8bc
000000f0: 36d6 9dbc 3cfb 17bd 7943 853d 2e0c 17bd
00000100: 1711 4f3d 58c9 74bd 1fcf 493d cd94 53bd
00000110: 6523 b13d e3d0 8e3c 86af 353c 5d15 85bc
00000120: 3bb0 4d3d 0887 ff3d 0fb2 db3c 18ab 51bd
00000130: 7715 ed3c 2e32 b63c e3a4 3cbd ff44 1fbd
00000140: 6224 0dbc 5c1e 3cbd 24e6 3f3d 8df8 be3c
00000150: 7c87 013c a66e 883d 4a01 cf3c a548 493d
00000160: 931d b53d bb31 8bbc 3006 babc 8680 9dbd
00000170: 4030 a1bd c321 7e3d 1f71 aabd 39f4 da3b
00000180: d5bf 063d 3acd 8b3d 0ce2 5ebc 4164 0dbd
-0.059245255 0.109400265 0.048942544 0.088862486 -0.097417325 -0.018650662 -0.0410167 0.03667378
-0.04479296 0.0806872 -0.07062633 -0.034165394 -0.0057354793 -0.007836775 0.01041673 0.018388154
0.06156058 -0.00123741 -0.008229724 0.0044450033 -0.021520186 -0.041406065 0.0028885156 0.058361266
0.09065494 -0.017744152 0.085224666 0.00533818 -0.0176597 -0.031996984 -0.009766176 0.002887304
0.017728988 0.032753907 0.033299264 0.023296732 0.070112966 0.07202332 -0.009063877 0.08586557
-0.002742047 -0.059403833 -0.047112636 -0.07994667 0.01055441 0.030284029 0.07142749 -0.07635284
0.05928282 0.036545295 -0.045606926 -0.07535592 0.06899477 0.006879303 -0.078054056 0.009507876
0.07251915 -0.032911565 -0.055352114 -0.026436694 -0.019267183 -0.03710483 0.0650701 -0.03687685
0.050553408 -0.05976233 0.04926979 -0.05165558 0.08649329 0.01743359 0.011089211 -0.016245538
0.050216895 0.12476927 0.026818303 -0.05118856 0.0289409 0.022240724 -0.046055686 -0.03888416
-0.008614631 -0.04592739 0.04685034 0.023311878 0.007905837 0.066617295 0.02526917 0.049141545
0.088435315 -0.016991487 -0.022708029 -0.076905295 -0.07870531 0.062043916 -0.083223574 0.0066819456
0.03289779 0.06826253 -0.013603698 -0.034519438

mlp2.0.weight f4 [100, 100]
00000000: 7504 d1bd 9dc9 6dbc 2fed 0e3c b276 0fbd
00000010: abf6 db3a d1ac 9e3d 734f a2bd efdd 0d3d
00000020: 1154 263d 483e 87bd d846 93bd e1f1 87bd
00000030: 4284 4a3c f63a bc3d f761 89bd 5e50 4f3d
00000040: 48ba 80bd 0c64 943d acee ef3c f096 233c
00000050: 8829 dfbd bb0f be3b c40f 3f3d a242 e63d
00000060: 9223 b6bd b45d dc3c a9bf cfbd 7b9d 193d
00000070: b2ea fa3c a8bd dfbd f70e 933d ebd0 d5bd
00000080: f4aa d23d f443 5abd 154a 403d cb24 e73d
00000090: 42cf f1bd b003 f23c 0840 e9bc 9434 ae3d
000000a0: 2a84 8f3d ef0b 923d f901 3f3c a806 53bc
000000b0: 0d53 573d c3a7 82bc bd8e 773d 62f9 1f3d
000000c0: 03c1 343e d916 eebd e763 c9bb 03df fa3c
000000d0: 31f2 f6bb a253 a73d 80f4 cabc ac58 be3d
000000e0: 7ad8 f13d 7fdc 073c 381f a33d 209d 39bd
000000f0: 4e8f 9a3d ce1b 063b 0703 013d 6af6 c23c
00000100: aae6 76bd 6be5 d0ba 4e50 e43d 323e 39bc
00000110: 240a e3bc 8160 9cbd ec34 523d eae9 dd3d
00000120: 1d36 f13d bad7 d9bc 7098 a6bd cb30 5abd
00000130: a9a3 bd3d 94e8 ef3c 0214 cb3d 2826 a9bd
00000140: 7acb b43d c383 87bd d655 993c afbe d23c
00000150: 3fc1 3fbd c9e1 923d b9c6 cd3d e298 71bd
00000160: 83d6 063e 04ef dc3d 1bac d3ba 610d 523d
00000170: a2fe 3c3d ee15 a73d 3ca1 053c a241 64bd
00000180: 7e25 18bd 028c babd fbf7 8bbd fbca 77bc
00000190: effa 803c 373a 56bd f8c1 66bd d81f c93c
000001a0: 9c6a 6d3d 98bb 903d 2ea0 be39 08ee a5bd
000001b0: 1da7 87bd 6b48 71bd 365f bc3d 1900 f63c
000001c0: 782a a2bd 1815 58bd e10e 413d a390 a1bc
000001d0: 74e3 b43d 7a3c 943d 9eee 94bc ca69 903c
000001e0: 0198 bfbc 9567 7c3d 1468 943d 8c7b c63d
000001f0: a168 ce3c 94d9 4bbd 6eb8 483d 59cb 9bbc
00000200: 0f9e 7bbd 987e a53c f130 303d eaf6 4abd
00000210: 434f c0bd be96 20bd 4f56 81bc be51 99bd
00000220: 820b 82bd 2c72 3bbd bba7 39bd e7cb 073d
00000230: e631 96bd 7e2b 70bd a31c b43d ec70 513d
00000240: d56d 2dbd 55d9 a43d 47e2 c13d 3d9d 1bbb
00000250: 03c5 d03d f457 be3d b966 c43d 347f c93d
00000260: 81ce b3bd 6853 27bd 578a 05bd 27bf 9abc
00000270: 0ad2 8cbd c0a9 ae3d d45f b33c 66d1 413d
00000280: 9cbc 773d 54e8 8d3c 83e5 b5bd d011 2f3d
00000290: 5d82 a93c 286e babd a3ad 52bd 8902 983c
000002a0: 81f9 58bc c872 253d 27b8 913c d804 85bc
000002b0: a4fc b2bc d2d1 8e3b 4598 c23d d81a 013d
000002c0: 3079 4a3d dfd1 ffbb f8ee 82bd 2a0c d2bc
000002d0: 6f29 71bd 45b3 9e3d d5df a13c eba2 d63a
000002e0: 7696 bdbd 008f 9abc e493 a7bd f0cc 2838
000002f0: 8f48 a6bc cf16 98bd 1797 b83c cae4 e5bc
00000300: 62ef ac3d cb9c 2b3d af77 073c 553c 58bd
00000310: c044 013c ddf1 19bd 0492 bdbd c04c 013d
00000320: 9d4a 843d a3ee 653d d12a 95bd 3357 a6bd
00000330: a2bb 0b3c de4e f3bc b6a7 6c3c 1d24 983d
00000340: f626 5a3d b7f7 4cbd 2266 8abd f2e8 acbc
00000350: aea1 0fbd 87e3 0c3c 424d 7abc f4d4 de3a
00000360: 1a0a 80bd 2271 33bd dd1f ebbb a9e1 a83d
00000370: 6751 c63d 0f92 d0bd da1d 73bd 7746 a73c
00000380: f310 46bd d1a8 1fbc 13b8 c53d bd9d b2bc
00000390: 59f2 2a3d 256a 95bd b8aa 233d 4b5c ad3d
000003a0: 2f18 023c dd41 d03d 16eb b63c 7407 b6bd
000003b0: 7478 a8bc 7438 c1bd b60d 893d 9369 483d
000003c0: ba24 9a3d 3307 843d 0210 6bbc 3865 8a3d
000003d0: 83ce b1bc 3681 6dbc b44c 53bd 95ca 8f3d
000003e0: eabe 583d 2602 c4bc 096c 4c3d 22b6 e93d
000003f0: 30a1 b9bd 8ae5 aabd 9773 edbb 523f cf3d
-0.10205928 -0.0145134 0.008723541 -0.035025306 0.0016781887 0.07747806 -0.0792531 0.03463548
0.040607516 -0.06603676 -0.07191247 -0.066379316 0.012360634 0.091909334 -0.067081384 0.050613753
-0.0628553 0.07245645 0.029288612 0.009984717 -0.10896593 0.005800215 0.046645895 0.11243178
-0.08893503 0.02690015 -0.10143978 0.0375037 0.03062949 -0.10924846 0.07180589 -0.104402386
0.10286513 -0.05328746 0.04694565 0.112863146 -0.118071094 0.029542774 -0.028472915 0.08506122
0.0700763 0.071311824 0.011658185 -0.012880005 0.052569438 -0.015949136 0.06043886 0.03905619
0.17651753 -0.116254516 -0.0061459425 0.030623918 -0.0075361957 0.081702486 -0.02477479 0.092942566
0.11808868 0.008292316 0.07964939 -0.04531586 0.075468644 0.002046335 0.031497028 0.02379914
-0.060278572 -0.0015937513 0.111481294 -0.011306332 -0.027714796 -0.07635594 0.05132 0.10835631
0.117778994 -0.026592124 -0.08134544 -0.05326919 0.09259731 0.029285707 0.099159256 -0.08259231
0.088278726 -0.066169284 0.018717688 0.02572569 -0.046815153 0.07171971 0.10047669 -0.05898369
0.13167767 0.10787776 -0.0016149314 0.05128229 0.046141274 0.0815848 0.008156117 -0.055726655
-0.03714513 -0.091087356 -0.06834408 -0.015124078 0.015744654 -0.05230161 -0.056337327 0.024551317
0.057963 0.07067031 0.00036358967 -0.081020415 -0.06623671 -0.058906954 0.091978475 0.030029343
-0.079182565 -0.05275449 0.04713333 -0.019722288 0.08832446 0.072380975 -0.018180188 0.01762857
-0.02338791 0.06162222 0.07246414 0.096915334 0.025196375 -0.049768046 0.04900401 -0.019017862
-0.061430033 0.020201966 0.043015424 -0.04955188 -0.09390118 -0.03920626 -0.015788225 -0.07486294
-0.06349851 -0.04576318 -0.045325976 0.03315344 -0.07333736 -0.058635227 0.087945245 0.05113308
-0.042341072 0.08049265 0.09466987 -0.0023744844 0.10193827 0.092941195 0.09589905 0.09838715
-0.08779622 -0.040851027 -0.032602634 -0.018889977 -0.06875999 0.08528471 0.02189628 0.04731884
0.060482606 0.017322697 -0.088816665 0.042741597 0.020692045 -0.09103042 -0.051435124 0.018555896
-0.01324308 0.040392667 0.017788006 -0.016237661 -0.021848984 0.0043585086 0.09501699 0.03151974
0.04943198 -0.007807001 -0.06393236 -0.025640566 -0.058877405 0.07749037 0.019760052 0.0016375458
-0.09257214 -0.018867016 -0.08182505 4.0245184e-05 -0.02029827 -0.074262254 0.022532983 -0.028063197
0.08444096 0.041897576 0.008268281 -0.052791912 0.007889926 -0.037584174 -0.09256366 0.031567335
0.06459544 0.056135785 -0.07283557 -0.08122101 0.008528622 -0.029700693 0.014444282 0.07428763
0.053259812 -0.050040927 -0.067577615 -0.02110717 -0.0350663 0.008599169 -0.015277209 0.0017000721
-0.06251927 -0.043809064 -0.0071754293 0.08246166 0.09683495 -0.101841085 -0.05935464 0.020419342
-0.048356008 -0.009744839 0.0965425 -0.021803731 0.041735027 -0.07295636 0.039957732 0.08464869
0.007940336 0.101688124 0.022328895 -0.0888814 -0.020565249 -0.09434596 0.06692068 0.04892881
0.07526536 0.06446686 -0.014347078 0.06757587 -0.021704918 -0.014496138 -0.05158682 0.07021061
0.052916445 -0.023926806 0.049907718 0.11411692 -0.09063947 -0.08344562 -0.0072464454 0.10119499

mlp2.0.bias f4 [100]
00000000: 92d8 f1bc 8dd3 f638 d647 adbd 9b45 0fbd
00000010: 5bd2 353d 9253 943d 0e98 38bd e47f 813b
00000020: 2e5e 0bbd fcc2 a23d cd08 923d fdb3 b43d
00000030: ef83 a03d e90e 4dbd 0362 ad3d ca47 02bb
00000040: 920d 9d3c f99e eb3c a1d4 dc3b cdf6 b7bd
00000050: 5e32 ddbd e79a b63d 5290 053e 91e1 823d
00000060: 0d12 c4bd 3e06 273c b9ff d13d 28e3 723d
00000070: b141 aabd 337f ce3a 9dde 41bd 7ce7 36bd
00000080: bf01 8dbd d5dc e93b 352b cabd 6842 3abc
00000090: b2b5 a4bd cfb8 603c a00c ba3d 9e65 6c3d
000000a0: bb13 12bd e741 3a3d 3ac0 cbbc a899 9c3c
000000b0: 3a67 aeba 3427 923d 1b1a b93d 4b57 06be
000000c0: 5f76 053e 28d5 8d3b 743f 9bbb 0838 003e
000000d0: 0559 96bd 0056 6dbd 51c4 533d 3872 38bc
000000e0: 268f 8cbd 4aad a6bd d3e5 b2bd 1990 7fbd
000000f0: 25b1 843b d88c dc3c 40ef c8bc 96f9 ae3d
00000100: fee6 bc3d f201 0a3e 33d6 c3bc 7900 d33c
00000110: b031 35bd 3502 403d 1da4 a43d e64f 0d3e
00000120: 4c6c a73d 9d11 a63d e65e 8abd 6777 653d
00000130: ec2a 613d b015 a13d a575 ea3c e1d8 a13c
00000140: e1ba 873c cc1d 273d de87 343c 1075 27bd
00000150: a3f5 f23c 595c a9ba cb1b 35bd 3fab 7dbd
00000160: 30ca 3bbd 3640 613e 8b95 a7bc 2268 35bd
00000170: 2fe5 8e3d 99d4 5e3d 12f7 bcbc fbe9 823b
00000180: 490f abbd 2662 bc3c 9de3 8abd fa62 2dbc
-0.029522214 0.000117695985 -0.08460967 -0.03497849 0.044390064 0.07242502 -0.045066886 0.0039520133
-0.034025364 0.079473466 0.07130585 0.088233925 0.07837664 -0.050063048 0.0846596 -0.0019879215
0.01917151 0.028762328 0.0067392145 -0.089826204 -0.108006224 0.08916264 0.13043335 0.0639068
-0.095737554 0.010194359 0.10253853 0.059298664 -0.08313311 0.0015754461 -0.04733144 -0.044654354
-0.06885099 0.007136921 -0.09871522 -0.011368372 -0.08042468 0.013715937 0.09084439 0.057714097
-0.035663348 0.045473006 -0.024871934 0.019116238 -0.001330591 0.07136384 0.09038182 -0.13119237
0.13033436 0.0043283887 -0.004737789 0.12521374 -0.07341198 -0.057943344 0.051700894 -0.011257701
-0.06863241 -0.08138521 -0.08735242 -0.06239328 0.0040494376 0.026922628 -0.024528146 0.085436985
0.09223746 0.13477305 -0.02390585 0.025757061 -0.04423684 0.046877105 0.080391146 0.1380001
0.08174953 0.08108828 -0.06756382 0.056022074 0.054972574 0.07865465 0.02862055 0.019756736
0.016568603 0.0407999 0.011018721 -0.040883124 0.029658144 -0.0012921199 -0.04421596 -0.06193089
-0.045847118 0.21997151 -0.02045705 -0.044288762 0.06977307 0.054401968 -0.023067031 0.003995178
-0.08352525 0.02299602 -0.06781695 -0.01058268

mlp2.2.weight f4 [50, 100]
00000000: eaf7 573d a41c 11bd b764 c1bc 9504 87bd
00000010: 1805 673d 8f99 8ebd 5529 e93c b014 0abc
00000020: b2fd f13c 9e2d df3d 32b4 85bd 99cc bbbd
00000030: 9689 09bd 1941 393d 9a67 1f3d 5028 69bb
00000040: bbb9 72bd dc60 8d3c c0b4 ad3d 7c51 653a
00000050: 7624 433d e397 84bc c356 bebd 9371 793d
00000060: d73a bc3c a761 8bbd 68d6 91bd 1f2a 47bd
00000070: b8ca 2dbd 689f 5abd f9c7 0ebd 8a89 d33c
00000080: 7a60 803c 6b39 fc3d 8a89 c3bd 29d8 6d3d
00000090: 04dc c03d 31ec 293d fb51 dfbd 3eff bbbb
000000a0: 1d3a b8bd 37b4 c13c c152 5a3c afb1 403d
000000b0: 3fb4 88bd 423b 8bbd b987 94bd 8791 d8bd
000000c0: 1421 51bd efb3 0a3c a29e 4cbd 04ee 92bd
000000d0: 0e68 8ebd bc57 633b 91c5 d33b 95bf 833d
000000e0: 7f16 323d db50 94bc aacd 663d 3a99 3f3c
000000f0: 347f 99bc 006d 40bd ef0a a23d 9a9a a3bd
00000100: fef5 5f3b 94ac 01bd 851b ee3d 7345 45bd
00000110: 73c6 bb3c 6242 bebd e5f5 7f3c 68ee 0a3d
00000120: 6312 cabd 70e4 1f3d 09de 4a3c 78c7 64bd
00000130: 2bd1 b8bd c290 09bd 117f 703d 52b8 bd3d
00000140: 74b2 c53d 7e53 493d 982e 7ebc 5976 bd3d
00000150: f139 303d 3143 213d 8116 f13c 9b2a 8bbc
00000160: e149 463c 13de 43be 9858 363d de17 90bb
00000170: 4ef5 df3d 89cb ca3b 4929 de3b 8fe4 2cbd
00000180: d114 a03d 046d 3b3c 51ab 15bd 7676 cabb
00000190: f233 e3bd de6a 09bd 74cf 40bd 8292 8d3d
000001a0: d8ff 27bd 0e58 98bd 7a8e 4f3d e535 093d
000001b0: f300 9ebd d1dc 663d 4038 da3c 8024 b63d
000001c0: b20f b6bd 15a2 8ebd ca2f a33c 3e9d 543d
000001d0: d824 a1bc 5c14 9b3d fb8c ee3c db82 183d
000001e0: f31e bb3d 9139 c1bd 0ebe 2b3d 0743 053c
000001f0: 4e63 6dbd 1bc7 2e3d 12e3 bb3d d550 523d
00000200: 9e96 9cbd b2a9 74bc 2d24 403d 94e7 383d
00000210: bab3 d53c cc3e 753d e8b5 a8bc 8371 b4bc
00000220: 84a4 67bd a828 083d 30ee 913d ebb2 6ebd
00000230: 0991 c5ba c823 f4bd 99da 85bc aa1b 413d
00000240: 775f a03d 1d3a 96bd a98f ec3c 85cc 713d
00000250: 8341 d53d 71f8 4c3c 54d6 343c a0dd 743c
00000260: 398a 63bc 715c e73c 8bb3 95bd 1c4c 5dbd
00000270: c811 a33d 2661 70bd 3e7d ac3d aed8 5e3d
00000280: 1ba3 0f3d bcf3 673d 4c2e afba e318 593d
00000290: 68ab f03d ca6a 0e3e dad8 14bd a56a 9bbb
000002a0: 2f15 c73d f1cb 3a3d 8066 4d3d b547 51bd
000002b0: 28cc 9d3d 1b74 acbd e295 b0bc 5c35 d63d
000002c0: dd4c 7dbb 7198 7f3d f91b c93c f613 7bbc
000002d0: 1c84 08bd fae4 57bd 8c02 b03d f9ab 283d
000002e0: e823 9fbd 102f b03d ec39 36bc fd95 abbb
000002f0: 3d27 8e3c 1f52 f03d 1c84 c5bd f790 05bc
00000300: aaff adbc c2e3 9f3b 40d0 923c 63a5 93bd
00000310: 0f76 aebd aec0 bdbc 6722 233c 35ea 7c3d
00000320: 7899 233d b42a b63d 5068 0d3d 2ba4 5bbd
00000330: caaa 91bd ccd3 373d d22f 02bd 967c af3c
00000340: c029 7bbd 9faa 58bb f55a c73d 184d ebbd
00000350: 3d55 d7bd cc03 10bd cb53 e43c a0c0 2ebd
00000360: 148e d0bd db05 413d 0255 ce3d 1197 a9bd
00000370: 850c 923d 4c0c 883a 0037 90bd 0609 8e3b
00000380: f50e 8cbd ae29 b63d b2bf 93bb b0ff 6c3a
00000390: 0d2b e03d 2c58 85bc 37fd 213d df1f 88bd
000003a0: ade3 ab3d 226d 9c3d c385 943d 2013 c03c
000003b0: 0cdc 1abd 044f c13d 10ee 873d 671e a23d
000003c0: 4166 5a3d edbf aabd 1857 b4bd cb45 5d3d
000003d0: 9021 033c 107b 703c f6aa e2bc 51d6 163d
000003e0: c246 bebd c4ea c0bb 9c37 58bd 18b0 7a3c
000003f0: a024 a03d db0f ffbc aea8 bcbc 2efa f6bb
0.052726664 -0.035427704 -0.023607595 -0.06592671 0.056401342 -0.06962883 0.028462091 -0.008427784
0.029539917 0.10897373 -0.0652851 -0.09169883 -0.033578478 0.045228098 0.03891716 -0.0035577007
-0.059259158 0.0172581 0.08481741 0.0008747799 0.047642194 -0.016185706 -0.09293892 0.06089933
0.022977276 -0.06805735 -0.07120973 -0.048624154 -0.042429656 -0.053374678 -0.034858678 0.02582242
0.015671004 0.12315639 -0.09547718 0.058067475 0.09416965 0.041485015 -0.109043084 -0.0057372143
-0.08995459 0.023645503 0.013325394 0.047044452 -0.06675004 -0.06798412 -0.072524495 -0.10574632
-0.051056936 0.008465751 -0.04995597 -0.07174304 -0.069534406 0.0034689745 0.0064627607 0.06433026
0.043478485 -0.018104961 0.05634848 0.011694247 -0.018737413 -0.04697895 0.07912242 -0.07988472
0.0034173722 -0.031658724 0.11626343 -0.048161935 0.022921776 -0.09290005 0.015622591 0.03391877
-0.09866788 0.039036214 0.012382039 -0.05585429 -0.090242706 -0.033585317 0.05871493 0.09263672
0.09653178 0.04915189 -0.0155140385 0.09251089 0.043024007 0.03937072 0.029429676 -0.01698809
0.012102575 -0.19127683 0.044518083 -0.0043973764 0.1093546 0.006188814 0.006779824 -0.042210158
0.078164704 0.011439566 -0.036540333 -0.0061786724 -0.11093892 -0.033549182 -0.047072843 0.0691271
-0.041015476 -0.0743867 0.050672986 0.033498663 -0.07715025 0.05636293 0.02663815 0.088936806
-0.088897124 -0.069645084 0.019920249 0.05190777 -0.019670889 0.075722426 0.02911996 0.03723417
0.091367625 -0.09434808 0.041929297 0.008133656 -0.057956032 0.04267035 0.091741696 0.05134662
-0.076459154 -0.014933037 0.0469095 0.045142725 0.026086677 0.05987434 -0.020594552 -0.022026783
-0.05655338 0.033241898 0.07125509 -0.0582761 -0.0015073131 -0.11920887 -0.016339587 0.047145523
0.078307085 -0.07335303 0.028877096 0.059032936 0.10412886 0.012510405 0.011037428 0.014945418
-0.013887935 0.028242322 -0.07309636 -0.05402766 0.07962376 -0.058686398 0.084223256 0.05440586
0.03506766 0.056628928 -0.0013365238 0.05300225 0.11751443 0.13907924 -0.03633962 -0.0047429376
0.09720837 0.04560465 0.05014658 -0.051093776 0.07704955 -0.08420583 -0.021555845 0.10459396
-0.003865055 0.06240124 0.024549471 -0.015324583 -0.033329114 -0.052708603 0.08594236 0.04117963
-0.077705204 0.086027265 -0.011122208 -0.005236386 0.017352695 0.11734413 -0.096443385 -0.008152238
-0.021240074 0.004879446 0.017921567 -0.072092794 -0.08518612 -0.023163166 0.009956933 0.061746795
0.03994128 0.08894864 0.03452331 -0.05362336 -0.071126536 0.04487972 -0.031783886 0.021421712
-0.061319113 -0.0033060682 0.097341456 -0.11489314 -0.10514305 -0.03515987 0.027871987 -0.04266417
-0.10183349 0.047124725 0.10074808 -0.08280767 0.07131294 0.0010379641 -0.070417404 0.004334572
-0.0683879 0.088946685 -0.004508936 0.0009040786 0.10945711 -0.016277395 0.039548125 -0.06646704
0.08393035 0.07638003 0.072520755 0.02344662 -0.03780751 0.09438899 0.06637204 0.07915955
0.053320173 -0.08337388 -0.08805674 0.054021638 0.008003607 0.014677778 -0.027669411 0.03682548
-0.0929084 -0.0058873612 -0.05278741 0.015300773 0.07819486 -0.03113549 -0.023029651 -0.007537148

mlp2.2.bias f4 [50]
00000000: fc22 bf3d 199f 8ebd 80cd 0b3d 69a3 013d
00000010: 453a b8bc 4e08 5abd 6a09 0cbe 6481 5cbd
00000020: 959d 9bbd 043d 673c 8f30 043d d87c 0f3e
00000030: 94bd ccbc dcc8 b9bd 0282 c538 29de 28bc
00000040: b967 963d 621a c33b 1fa5 e23d 1d8c 30bd
00000050: ef97 09be 777c 09be 9234 153e 0acf 043d
00000060: c8d1 9fbc 9b6a 9dbc 56d8 4bbd f44c 83bd
00000070: d278 6cbd 9142 293c 8a01 d33b 3c9b 32bd
00000080: 4b50 443d 4ea1 203d b12e de3d c56a 8a3d
00000090: 27a5 0fbe 6ffd b4bd a5f3 d33c 5a8e 403d
000000a0: e6bd d3bc 3c2b a6bd 3d3e e7bc d28b 05be
000000b0: a27e f8bc f41b 9a3d 42cb e53d bbcf 2cbd
000000c0: a57e b13d 9556 4ebd
0.093328446 -0.06963939 0.034131527 0.03164998 -0.022488723 -0.053230576 -0.13675466 -0.053834334
-0.07598416 0.014113668 0.03227287 0.14012468 -0.024992742 -0.09071514 9.417908e-05 -0.010306873
0.07344002 0.005954073 0.110666506 -0.043102372 -0.13436864 -0.13426386 0.14570835 0.03242401
-0.019509211 -0.019215873 -0.04976686 -0.06411162 -0.05773241 0.010330812 0.0064393925 -0.043605074
0.047928136 0.039216332 0.108487494 0.06758646 -0.14027844 -0.08837401 0.025873015 0.047010757
-0.025847387 -0.08113715 -0.02822792 -0.13041618 -0.03033382 0.07524863 0.11220409 -0.042190295
0.08666734 -0.05037554

attention.0.weight f4 [100, 200]
00000000: 7b98 8abd fd64 353d 1c1d b13a dec0 fa3c
00000010: df72 2f3b 2650 503c 25b9 81bd cb9c e3bb
00000020: 0ca3 d4bc af2a 52bd ab9c 313d d5e1 8ebd
00000030: 3edc d6bc d544 423c e8cc 0a3c 336d a33c
00000040: f4a2 4bbd b66e 5bbd 6f6c 963c 7e8c fbbc
00000050: 39a4 813c f71a 7ebd ffe9 2dbc 4b44 1dbc
00000060: d32a 8cbc 7d61 a9bc 9023 1ebd 9e6a 5ebd
00000070: 3d3d b9bc 46c2 fb3c 9516 193d 4c74 58bd
00000080: 346b 43bd 28b5 4cbc 3e97 c0bc 085a 3d3d
00000090: 85a8 e43c 8359 a23c 0f4e d13c 99ac 583c
000000a0: 47f3 48bc f9c1 5ebd 3636 38bd 2135 cb3b
000000b0: c189 56bd 71ad 6dbd e481 5b3d d0d3 e13c
000000c0: f4cd 6ebd 3c63 8b3d a5ca 55bc 2c00 f43c
000000d0: c405 f63c d7d6 593d 443b 8cbd 2c86 043d
000000e0: 88eb 263c 4f96 cebc 9197 353d 3553 133d
000000f0: 6ebd 56bd 4f7e 40bd 71b8 f83c 678d bfbc
00000100: 3f0d f2bc 22c8 57bd 0d06 b3bc bf0c cebc
00000110: 45d2 43bd 3792 23bd 5e8b 2bbd ca80 1ebb
00000120: fd1d 4bbd e6dc 7e3d 3bd4 69bc 81a3 19bd
00000130: 9727 6e3a 8ecf 773d 2345 14bd 28c8 8e3d
00000140: 6f32 81bd 8cae 88bd 5cd5 aebb 0790 543d
00000150: b6eb 70bd 530d c4bc ffe6 3fbc 5dea f73c
00000160: 9084 91bc 423e b03a e93c 6fbd 1512 9fbc
00000170: 1824 5e3d a178 89bc a6ba 793d e831 093d
00000180: 45b0 0abd 226c 8b3d ebef 053d c0de f5bb
00000190: 81c7 77bc 10fd e5bc 6653 80bd 7b97 5cbd
000001a0: dc85 763d cb04 2c3c 65c1 343d 3497 55bc
000001b0: 275d 413d 7308 943b 016c 4ebc d39e 37bd
000001c0: b032 6e3d f542 2bbd ce47 5fbb 2d02 03bd
000001d0: 7861 903d af8b 22bd 29d8 a1ba 3ea0 8b3d
000001e0: 3e68 473d f7f8 b4bc 4541 5d3d 8336 2b39
000001f0: 5c51 2a3d 9e39 563d 68f0 2fbd 96d7 e93c
00000200: d2c3 86bd 75e5 88bd 920d 43bd 5427 513d
00000210: e911 183d 8b7f 25bd e647 043d ae58 5cbd
00000220: aeaf 87bd df91 80bd 620c 8d3d 8515 003c
00000230: 24f4 443c c6b5 73bd 060b a63c cc50 6c3d
00000240: a12d 8a3d d009 723b fa56 753d a835 f23c
00000250: c37a 13bc 986e 13bd 592c 16bd 2c87 84bd
00000260: 8fdb 06bd d9ca 19bc d04e 6bbd 3ece 2e3d
00000270: 2325 f23c c704 2d3d c55c 5dbd b5ea 6abd
00000280: 9033 853d 92a0 d2bc 9a39 8fbd ffa4 833d
00000290: e8f0 8e3c a835 753d a9bd 4b3b 2da1 e8bc
000002a0: 22a7 313d 0b4c dbbb b83a 1dbb 62ea 073d
000002b0: 6501 34bc 235c 08bd 0769 913d b3c4 133d
000002c0: 6270 96bc 938a ce3c 92eb 0fbd d66d 95bc
000002d0: 0b56 f5bc 3bc0 1a3c eec4 43bd 6849 a73c
000002e0: 5c63 8bbd 48e9 8b3c 7a38 2fbd c40f 973c
000002f0: 5fac 8cbd cb92 22bc 9515 8abd 48e1 2cbd
00000300: 1418 2b3d e85c e23c 868d 4b3d fd18 c4bc
00000310: ab06 8b3c 050b 8e3c 9a81 fc3c 9cb2 7fbd
00000320: 7120 433c b97d 16bd 585f 2d3c 3d5e 793c
00000330: 1305 1ebc 94a0 c43b 8be8 653d 9a0f 553d
00000340: fbf0 ef3c 2786 903d ca85 33bd 7f96 5b3d
00000350: 726f 933c 174b fbbc ea27 3d3d 2004 083d
00000360: 37af fe3b c66e 7b3d eae1 f93c dec8 c6bc
00000370: d805 9ebc 912c 37bd f181 71bd 6c4a 5f3d
00000380: f41f 813d ccfe 623d aca1 86bd 0bd8 5cbd
00000390: 7b2f ec3b 0e21 ff3c 8222 0b3a 8ad0 e1bc
000003a0: c301 34bd 4675 89bd d890 0fbd b3c9 22bc
000003b0: 307a 823d 5e56 8e3d ddaf 2ebd 7e7a 33bd
000003c0: caa5 4dbd 555d d13b 8d8e 8e3d 9051 07bd
000003d0: 39a3 ddbc 3a41 633d 83d9 87bc 9d7a 91bd
000003e0: 5209 5c3b 3b3f 36bd b3fe c93c d2f5 08bd
000003f0: 43f7 393c e6d6 1c3d 2dcc 01ba 41ab 80bd
-0.067673646 0.044285763 0.0013512704 0.030609544 0.002677135 0.012714421 -0.06334142 -0.0069461814
-0.025956653 -0.051310237 0.0433623 -0.06976668 -0.026228067 0.011857231 0.008471705 0.019949531
-0.04971595 -0.05357238 0.018362252 -0.03070664 0.015825378 -0.062037434 -0.010614871 -0.009598802
-0.017110264 -0.020676369 -0.038608134 -0.054300897 -0.022612209 0.030732285 0.03737505 -0.052845284
-0.04770966 -0.012494363 -0.023509618 0.04622844 0.027912388 0.019818073 0.025549917 0.013224744
-0.012265033 -0.054384205 -0.044973575 0.006201402 -0.052377466 -0.058026735 0.05359067 0.02756682
-0.05830188 0.06806037 -0.0130488025 0.029785238 0.030032046 0.053183403 -0.068472415 0.03235452
0.010187991 -0.025218157 0.044333998 0.035968024 -0.052426748 -0.046995457 0.030361386 -0.023382856
-0.029547332 -0.052681096 -0.021853471 -0.025152562 -0.04780795 -0.039934363 -0.041880958 -0.002418565
-0.049589146 0.062222384 -0.014271791 -0.037509445 0.0009084879 0.060500674 -0.036198746 0.069717705
-0.063084476 -0.06673917 -0.005335493 0.051895168 -0.05881854 -0.023932135 -0.011712789 0.03026312
-0.017763406 0.0013446289 -0.058407698 -0.019417802 0.05423364 -0.016781153 0.060969017 0.03349486
-0.03385951 0.06807734 0.032699507 -0.0075033605 -0.015123249 -0.028074771 -0.06265907 -0.0538554
0.060186252 0.01049919 0.044129748 -0.013036538 0.047207978 0.004517609 -0.012598992 -0.0448292
0.058153808 -0.041811902 -0.0034069899 -0.031984497 0.07049841 -0.039683994 -0.0012347746 0.06817673
0.048683397 -0.022091372 0.054017324 0.00016328138 0.041581497 0.05230104 -0.04295388 0.028545182
-0.065803185 -0.066843905 -0.047620364 0.051062897 0.037126455 -0.040404838 0.03229513 -0.05379551
-0.06625305 -0.06277823 0.068871275 0.007817631 0.012021098 -0.059499525 0.020268928 0.05769424
0.06746984 0.0036932118 0.0598974 0.0295666 -0.009001437 -0.035994142 -0.036663387 -0.064710945
-0.03292423 -0.009386742 -0.05744821 0.042677157 0.029558724 0.042240884 -0.05404355 -0.05735274
0.065039754 -0.025711332 -0.069934085 0.06427955 0.017448857 0.059865624 0.0031088388 -0.028397167
0.04337228 -0.0066924146 -0.0023991298 0.03318251 -0.010986661 -0.033290993 0.071001105 0.03607626
-0.018364135 0.025212562 -0.035136767 -0.01824085 -0.029948255 0.009445245 -0.04779523 0.020420745
-0.06806061 0.01707901 -0.04277847 0.018440135 -0.06868815 -0.0099226935 -0.06742398 -0.042207032
0.04177101 0.027632192 0.049695514 -0.023937697 0.016970953 0.017339239 0.030823518 -0.062426195
0.01190959 -0.036740992 0.010581814 0.015220222 -0.0096447645 0.0060005877 0.056129973 0.052016832
0.029289713 0.070568375 -0.043828763 0.05361032 0.017997477 -0.030675454 0.046180643 0.03320706
0.007772352 0.06138494 0.030503232 -0.024265703 -0.019289896 -0.044720236 -0.058961812 0.054514334
0.06304923 0.055418774 -0.06573805 -0.053916972 0.0072078086 0.031143691 0.0005307571 -0.02756526
-0.043946993 -0.06711821 -0.035050243 -0.009935784 0.06370962 0.06950067 -0.042648185 -0.04381799
-0.050206937 0.0063893 0.06960783 -0.03303677 -0.02705537 0.055482127 -0.01658321 -0.07103465
0.0033574891 -0.044493895 0.024657583 -0.033437558 0.011350456 0.03829088 -0.0004951384 -0.06282664

attention.0.bias f4 [100]
00000000: 3652 cbbc 9858 433c 59a1 17bd a73e 59bd
00000010: f1c6 993d 4a1c 50bd 7900 0bbd 7e32 d1b9
00000020: 51cb 1b3d 31b0 903d f41f 193d c71c e53b
00000030: b49d 85bd 40cd 873d efc8 0c3d a9ee d93c
00000040: 167f 48bb 5b25 89bd 4a1e e13b 7725 81bd
00000050: 9295 293d 930d 80bd 548f c93c cfe1 6dbd
00000060: 4958 1fbd 1de3 963c 76ef 853c bc93 643d
00000070: 8ce6 27bc 90f0 07bd 5dc9 dcbc d3ca 56bd
00000080: f90b 37bc 476c 3a3d 556c e0bb 2d41 383d
00000090: 1227 713d a5ff eb3c 8701 71bd d2f0 443c
000000a0: 16d3 213d 9c88 05ba 1ce4 4e3c e94e 243d
000000b0: 96df a3bc e5f8 61bc 5417 1e3d f79e 4abc
000000c0: 7ad6 beb7 701e 11bc 33e5 673c 078c 8cbd
000000d0: 8c12 cb3c 0416 883c 2cff 28bd 55cf 993d
000000e0: 7da4 abbb 0c1d 3e3d e19f f1bb da4f 1b3c
000000f0: 93e1 87bd 4316 2dbd ced0 7c3d 50cb 1bbd
00000100: e0b4 36bd 3b2c ab3b 6daf a33c c6cc 1c3d
00000110: b968 47bd a202 903d bc4f 84bd a203 643d
00000120: f39d d4bc 5c2f 91bd dc28 013d 2554 e7bb
00000130: 6948 4bbd 232a 38bc 40cb 0c3d 9169 0a3c
00000140: 9040 c93c d726 6cbd cc2c 17bc 9e58 3ebc
00000150: 4904 15bd 3a19 343d 110b 92bc 3512 41bd
00000160: aa82 81bd a2ab 99bd 24db 4c3b 4162 4ebd
00000170: c8d3 c73c 4224 1bbc b593 84bd 5e6d 24bc
00000180: 45f3 5c3d 281f 54bd 490d 793c 1c6b 893d
-0.024819475 0.011922978 -0.037019107 -0.053038266 0.07508648 -0.05080823 -0.033935998 -0.00039901206
0.038035695 0.07064856 0.03738399 0.006991956 -0.0652422 0.06630945 0.034371313 0.02660306
-0.0030593327 -0.06696578 0.006870066 -0.06305974 0.041402407 -0.06252589 0.024604477 -0.058076676
-0.038902555 0.018418843 0.016349535 0.055804953 -0.010247838 -0.033188403 -0.026951486 -0.052439522
-0.011172288 0.045513418 -0.0068488517 0.04498403 0.05887515 0.028808424 -0.058839347 0.012020307
0.039507948 -0.0005093904 0.012627628 0.040114317 -0.020004075 -0.013792251 0.038596466 -0.012367002
-2.2749638e-05 -0.0088573545 0.014153766 -0.068626456 0.024789117 0.01661206 -0.041258976 0.075102486
-0.0052381144 0.04641442 -0.0073737954 0.009479487 -0.06634822 -0.04225756 0.06172257 -0.03803569
-0.04460609 0.0052237785 0.01998111 0.038281225 -0.048683856 0.07031752 -0.064605206 0.055667527
-0.025954222 -0.07089111 0.031533107 -0.0070595914 -0.049629603 -0.011240515 0.03437352 0.008448021
0.024566919 -0.057654228 -0.009226989 -0.011617808 -0.03638104 0.04396937 -0.017827542 -0.047136504
-0.0632375 -0.075034395 0.0031258548 -0.05038667 0.024392977 -0.009469094 -0.064734854 -0.010035841
0.053942937 -0.051787525 0.015200921 0.067098826
