crowd_nav/data/output_omSARL/rl_model.pth (torch, 421347 bytes, 20 tensors)

mlp1.0.weight f4 [150, 61]
0.029039152 0.05516562 -0.06941439 -0.08156636 -0.107242316 0.018134048 0.17470214 0.029996634
0.06400286 0.001182903 -0.049129732 -0.18217748 0.10436501 0.07447357 -0.06469463 -0.019557599
-0.0027410435 0.050385423 0.019479796 0.14847651 0.06601851 0.10837938 0.009097121 0.06680838
0.01030825 0.066697836 0.07780003 0.06221559 0.101970285 0.04032603 -0.10727381 0.16917281
0.079610825 0.03955985 0.015912682 -0.03732844 0.040554225 0.07811219 0.0444475 0.071712926
0.08397258 -0.061966885 0.010137852 0.099865906 -0.0751669 -0.00579825 -0.0579304 -0.0845924
0.020759404 0.075679384 -0.10012113 0.11859645 -0.012552625 -0.11731942 -0.02262624 0.09815817
0.053801052 0.039241686 0.0652472 0.025005654 -0.15606636 -0.09236257 0.06471602 0.010724052
0.061128147 0.06795432 0.023060745 0.02706138 0.019475142 0.094126314 0.016433308 -0.06803861
-0.02620036 -0.121645845 -0.02204215 0.10291116 -0.053583 -0.010795499 -0.12484146 -0.0633932
-0.0469287 0.066766575 -0.013690147 -0.112185955 0.110481285 0.12138376 -0.08604768 0.0032852583
-0.10103925 0.06925154 -0.05623839 0.073888354 0.008859841 -0.060771216 0.051939804 -0.12170722
-0.0442747 0.10530278 -0.036537573 0.00048998673 -0.06748126 -0.04909927 -0.114854746 0.07933978
0.11912469 0.038811486 0.028288206 0.037111655 0.05064143 -0.116297476 0.092719816 -0.11702889
-0.11663135 -0.039465234 0.039476372 0.069678366 0.10997743 0.080196284 0.10585273 -0.08987699
-0.029125007 -0.06876102 0.063268244 -0.12945028 -0.004120282 0.025853243 -0.025002342 0.15842444
0.1973446 -0.0033558032 0.012559948 -0.04662763 -0.13397418 -0.15816496 -0.08844116 -0.053721007
0.11033729 0.0726342 0.041726746 -0.001255095 0.12447983 0.06473602 -0.13659436 0.022243496
-0.123750605 -0.11647652 0.10400563 -0.04232918 0.066142954 0.042089164 -0.090512715 0.12053681
-0.039108843 -0.08610288 0.040057953 0.113087825 0.013469202 0.033188492 -0.10400042 -0.14814366
-0.04053872 0.061215773 -0.07854238 -0.091053315 -0.013314829 0.024701532 0.05660208 -0.048770804
0.009342981 -0.080668144 -0.118832305 0.057122122 0.030125575 0.02050406 -0.06652962 0.0026176216
-0.10769799 -0.10157219 -0.09897892 -0.06349862 0.062264424 -0.14358084 -0.016386123 -0.06360569
-0.013099143 0.03663325 -0.108459756 0.04141725 0.105953015 0.15885781 -0.09722683 -0.10676669
-0.0036935643 -0.036324807 -0.087057345 -0.09961151 -0.091545954 0.0018844387 0.029181473 -0.114164926
-0.033084355 0.087658636 0.1230524 0.07627567 0.120390266 -0.10992033 -0.10396365 0.051241502
0.01926361 0.054009214 -0.08939221 0.075805984 -0.080938764 0.037203223 -0.09756956 0.013534644
0.048197765 0.06786603 0.097200714 0.047549047 -0.08452234 0.10021368 0.12588835 0.028804103
-0.1097705 0.040556002 0.023057263 0.034827612 -0.12362269 0.050066978 -0.06306166 0.04694863
0.07948416 -0.05875262 0.058512807 0.017388487 0.09185597 0.038025096 -0.028075023 0.010747944
0.05447772 0.12848075 -0.07354589 -0.12915364 0.14816853 0.0063139764 -0.03552421 -0.08641669
-0.09202782 -0.069059804 0.038689885 -0.011970247 0.2152055 -0.05681416 0.03251364 -0.107192054
00000000: 84e3 ed3c 58f5 613d 2229 8ebd 440c a7bd
00000010: dca1 dbbd db8d 943c 1ee5 323e 80bb f53c
00000020: ee13 833d a30b 9b3a 423c 49bd bc8c 3abe
00000030: 53bd d53d 9985 983d 9e7e 84bd 4237 a0bc
00000040: 14a3 33bb f260 4e3d 1894 9f3c 3a0a 183e
00000050: b634 873d 02f6 dd3d 170c 153c d5d2 883d
00000060: efe3 283c e098 883d 9f55 9f3d c6d5 7e3d
00000070: ccd5 d03d e82c 253d 5fb2 dbbd a33b 2d3e
00000080: 000b a33d 8209 223d 505b 823c b5e5 18bd
00000090: 301c 263d 49f9 9f3d 950e 363d 3ade 923d
000000a0: d1f9 ab3d fdd0 7dbd 3c19 263c 7f86 cc3d
000000b0: 1bf1 99bd 3fff bdbb 6d48 6dbd c83e adbd
000000c0: a00f aa3c cbfd 9a3d 4f0c cdbd b2e2 f23d
000000d0: 86a9 4dbc 2a45 f0bd aa5a b9bc 2707 c93d
000000e0: 7e5e 5c3d e4bb 203d 53a0 853d a8d8 cc3c
000000f0: dccf 1fbe 9628 bdbd d589 843d efb3 2f3c
00000100: 8261 7a3d a22b 8b3d e3e9 bc3c d4af dd3c
00000110: 558a 9f3c 4cc5 c03d 259f 863c d457 8bbd
00000120: 23a2 d6bc 7521 f9bd bd91 b4bc 16c3 d23d
00000130: d979 5bbd 9bdf 30bc e1ac ffbd 4bd4 81bd
00000140: 4f38 40bd eabc 883d a34c 60bc c0c1 e5bd
00000150: 0344 e23d 0c98 f83d c439 b0bd 7d4d 573b
00000160: abed cebd c0d3 8d3d 3a5a 66bd c752 973d
00000170: de28 113c 3deb 78bd d5be 543d a341 f9bd
00000180: 6359 35bd fca8 d73d 6ca8 15bd 7472 003a
00000190: 9d33 8abd 511c 49bd f738 ebbd e57c a23d
000001a0: a5f7 f33d cbf8 1e3d abbc e73c 6402 183d
000001b0: 636d 4f3d 5f2d eebd e3e3 bd3d d8ac efbd
000001c0: 6bdc eebd 4ca6 21bd fab1 213d 88b3 8e3d
000001d0: d93b e13d f33d a43d 51c9 d83d 6d11 b8bd
000001e0: 9197 eebc 94d2 8cbd c892 813d 9d8e 04be
000001f0: 6e03 87bb 2eca d33c b6d1 ccbc 043a 223e
00000200: b414 4a3e 09ed 5bbb 3dc8 4d3c 9dfc 3ebd
00000210: 8730 09be fff5 21be a420 b5bd 8f0a 5cbd
00000220: 84f8 e13d 3dc1 943d aae9 2a3d 0082 a4ba
00000230: 48ef fe3d 5294 843d 64df 0bbe fe37 b63c
00000240: f570 fdbd 3e8b eebd e700 d53d 5d61 2dbd
00000250: f575 873d b065 2c3d bb5e b9bd 01dc f63d
00000260: 9830 20bd b556 b0bd cf13 243d 979a e73d
00000270: eead 5c3c a8f0 073d 2cfe d4bd f9b2 17be
00000280: ee0b 26bd 64bd 7a3d d4da a0bd 297a babd
00000290: 7126 5abc de5a ca3c 95d7 673d e5c3 47bd
000002a0: 4d13 193c 5735 a5bd 5a5e f3bd e3f8 693d
000002b0: e9c9 f63c 21f8 a73c ae40 88bd 678c 2b3b
000002c0: c490 dcbd 1505 d0bd 76b5 cabd 910b 82bd
000002d0: fb08 7f3d db06 13be 313c 86bc b343 82bd
000002e0: ca9d 56bc bf0c 163d 2620 debd 22a5 293d
000002f0: e5fd d83d 9fab 223e dc1e c7bd 7fa8 dabd
00000300: ba0f 72bb 52c9 14bd 1f4b b2bd 1f01 ccbd
00000310: 727c bbbd 45ff f63a fc0d ef3c 4dcf e9bd
00000320: 7683 07bd 5f86 b33d e602 fc3d 6b36 9c3d
00000330: 2c8f f63d e91d e1bd e5ea d4bd 9ce2 513d
00000340: b8ce 9d3c c438 5d3d 4313 b7bd 2b40 9b3d
00000350: 39c3 a5bd 6862 183d 8dd2 c7bd 69c0 5d3c
00000360: 056b 453d 58fd 8a3d 2b11 c73d cac2 423d
00000370: 0c1a adbd d43c cd3d e0e8 003e 95f6 eb3c
00000380: 5bcf e0bd 0d1e 263d 96e2 bc3c 66a7 0e3d
00000390: e52d fdbd 0813 4d3d 7926 81bd 354d 403d
000003a0: 97c8 a23d 96a6 70bd 20ab 6f3d 4d72 8e3c
000003b0: fc1e bc3d 34c0 1b3d 97fd e5bc 2518 303c
000003c0: 0824 5f3d 7590 033e 3a9f 96bd da40 04be
000003d0: 7eb9 173e 79e5 ce3b d681 11bd 3cfb b0bd
000003e0: 1579 bcbd 3a6f 8dbd 4979 1e3d db1e 44bc
000003f0: d55e 5c3e f7b5 68bd 062d 053d 8287 dbbd

mlp1.0.bias f4 [150]
-0.054168437 -0.05643542 -0.14678071 -0.115863524 -0.15059689 -0.112615235 0.04332036 0.07595977
0.08901336 -0.022238685 0.1286249 0.14120856 -0.0752417 0.0890542 -0.011674748 -0.10241753
-0.100296065 0.09554755 -0.002721503 0.06981397 0.124295674 0.041426644 0.07073203 0.06748094
0.067052625 0.17919658 0.08448388 0.10306008 -0.048972055 0.116746396 0.08352599 -0.061691806
-0.06957387 -0.04852129 -0.02031831 0.10836813 -0.05380528 0.09694162 -0.030557923 -0.059461717
0.09059765 -0.05314093 0.039500717 0.09695559 0.065564975 -0.008018368 0.07895238 -0.0270982
-0.009976615 -0.09245456 0.0053237574 0.033056963 -0.10580421 -0.034212362 0.08231612 -0.017500125
0.0627282 0.042338334 -0.035378568 -0.07241495 0.04208094 -0.019718435 -0.09519784 0.046059772
-0.09640482 0.08048966 0.056867745 -0.015302638 0.014137161 0.11323294 -0.037407797 0.08947535
-0.0047711283 0.11598293 0.027623678 0.055939227 -0.11814758 0.04018406 -0.041371256 -0.065963194
-0.07762485 -0.14637852 -0.029153999 -0.030452553 -0.053931776 0.1040139 0.01781142 0.05215836
0.12200504 0.039495025 0.03787454 0.03612363 -0.083896816 -0.0265571 0.038285825 -0.014740345
0.004138489 0.030050423 -0.030110605 0.008909431 -0.04493621 0.065887615 0.0038225465 0.12538059
0.09737823 0.050312325 0.17027818 -0.06512406 -0.0074877925 0.09061732 -0.05755945 0.06777137
-0.069722064 -0.12551753 -0.045746595 0.04955598 0.02120589 0.006361594 0.031309206 -0.089518465
0.1360471 -0.109600544 -0.090232916 -0.016719528 0.10556119 0.009001036 -0.08207507 0.028083572
-0.10082845 -0.12453791 0.048869003 0.045699734 0.108717985 0.054167025 -0.010213798 -0.053327587
0.064570874 -0.10129744 -0.003986081 0.061400376 -0.10429175 0.042810652 -0.095925875 -0.032574695
0.057445943 0.105323754 -0.06621887 -0.07493799 -0.03395474 0.08727755
00000000: b9df 5dbd d428 67bd af4d 16be db49 edbd
00000010: 1236 1abe d1a2 e6bd b170 313d cc90 9b3d
00000020: a34c b63d e72d b6bc 3fb6 033e fa98 103e
00000030: 5218 9abd 0c62 b63d 7147 3fbc 48c0 d1bd
00000040: 0668 cdbd 6fae c33d 3e5b 32bb a0fa 8e3d
00000050: bb8e fe3d fcae 293d f4db 903d 7233 8a3d
00000060: e352 893d 4f7f 373e e205 ad3d 2a11 d33d
00000070: ec96 48bd bc18 ef3d ad0f ab3d 8cb0 7cbd
00000080: bf7c 8ebd 43be 46bd 9672 a6bc 1cf0 dd3d
00000090: ed62 5cbd 5489 c63d 9c54 fabc 218e 73bd
000000a0: 438b b93d 4eaa 59bd 81cb 213d a790 c63d
000000b0: ee46 863d 795f 03bc c9b1 a13d 0bfd ddbc
000000c0: f574 23bc d158 bdbd ea72 ae3b bd66 073d
000000d0: e1af d8bd 4322 0cbd 5b95 a83d 6c5c 8fbc
000000e0: a477 803d f66a 2d3d 1ee9 10bd 4a4e 94bd
000000f0: 105d 2c3d 8e88 a1bc 16f7 c2bd 2ca9 3c3d
00000100: e46f c5bd c3d7 a43d 27ee 683d eab7 7abc
00000110: 8d9f 673c ace6 e73d eb38 19bd da3e b73d
00000120: 2057 9cbb 7588 ed3d 0d4b e23c 8820 653d
00000130: 5cf7 f1bd 0a98 243d e874 29bd b617 87bd
00000140: c7f9 9ebd 40e4 15be 5ed4 eebc a277 f9bc
00000150: 91e7 5cbd 3d05 d53d 41e9 913c 01a4 553d
00000160: c7dd f93d 89c5 213d 5522 1b3d 5ff6 133d
00000170: 18d2 abbd 468e d9bc 99d1 1c3d 7d81 71bc
00000180: 299c 873b 4e2c f63c 84aa f6bc ddf8 113c
00000190: 080f 38bd 16f0 863d b083 7a3b c563 003e
000001a0: 3d6e c73d 4c14 4e3d 675d 2e3e c35f 85bd
000001b0: 285c f5bb 9395 b93d 75c3 6bbd b7cb 8a3d
000001c0: 71ca 8ebd ab87 00be c860 3bbd 36fb 4a3d
000001d0: fab7 ad3c eb74 d03b 153e 003d 7555 b7bd
000001e0: ee4f 0b3e 4076 e0bd 09cc b8bd 64f7 88bc
000001f0: 7730 d83d 1579 133c f916 a8bd 850f e63c
00000200: 257f cebd bb0d ffbd dd2a 483d a52f 3b3d
00000210: 89a7 de3d 3ede 5d3d c657 27bc 076e 5abd
00000220: bc3d 843d 0875 cfbd ac9d 82bb f67e 7b3d
00000230: ea96 d5bd 395a 2f3d c974 c4bd 0b6d 05bd
00000240: 704c 6b3d fbb3 d73d c29d 87bd 1779 99bd
00000250: 2014 0bbd 92be b23d

mlp1.2.weight f4 [100, 150]
-0.054734208 -0.020138469 0.05876556 -0.054002363 0.049853723 -0.04443847 0.046869468 0.058691774
-0.068068214 0.06293455 -0.006101051 -0.06868714 0.07971266 0.060109537 0.10956636 -0.02048193
0.054873344 0.020511318 0.067245096 0.024684401 -0.0416992 -0.03366507 -0.030578367 0.05469124
-0.052498147 -0.06552083 -0.03797317 -0.07608423 0.060121723 0.0074374997 0.07272404 -0.08184231
0.031684052 0.056388818 0.07408786 0.04447056 0.019404478 -0.043377344 0.023677692 0.059510235
-0.07016349 0.056329228 -0.075279616 -0.05127381 0.010333568 0.016680395 -0.035628524 -0.019279957
-0.006417788 -0.04849184 -0.04555598 -0.03184328 -0.028977672 -0.032156207 0.039007097 -0.05551583
0.06464904 -0.042691413 -0.057522643 -0.04943074 0.061410543 -0.04698434 -0.062177815 0.016798079
0.042468436 -0.0058677993 0.052962728 -0.037474424 -0.047958728 -0.07139819 -0.057237964 0.007280999
-0.021559363 -0.041639928 -0.08689631 0.053471338 -0.08225156 0.046354447 0.08003617 0.080520585
-0.056397896 -8.3490195e-05 0.07314186 0.009642817 -0.042327873 -0.058542356 -0.002562887 -0.042471834
0.08632746 0.04330098 0.0420675 0.002061332 0.030438919 -0.064643316 0.063312784 0.011911673
0.07784689 0.0142969405 -0.036322877 -0.013386971 -0.015351938 -0.06242576 0.05443383 0.07699565
0.053287387 0.03256053 0.06432342 -0.07892334 0.0631807 0.07112773 0.009384281 0.031761367
-0.0120625505 0.002578257 0.030088488 0.0015817637 0.05577606 0.014303907 -0.020736728 0.07449357
-0.08296472 -0.058407035 0.062101353 0.076678395 -0.056226823 0.056161266 0.0016864354 -0.045501485
0.07555931 -0.057055622 0.024718678 0.01253094 -0.04043676 -0.023552533 -0.05980805 0.0739457
0.06020231 0.009597299 -0.012489862 0.055382755 -0.002371468 -0.07038358 -0.040599693 -0.04050901
0.0708132 0.07021936 -0.03252209 0.048607383 -0.07627784 -0.04126917 -0.035149574 0.07646988
-0.022847816 -0.029290125 0.04611923 -0.057490412 0.024566704 0.019655012 -0.050073367 0.024334887
-0.051618285 -0.049317043 0.08051547 -0.09530009 -0.050652802 -0.0034227052 -0.0520871 -0.0542149
-0.08851469 0.04956036 -0.010508229 0.038754784 -0.034821823 -0.06915197 0.052492887 -0.005479625
0.05133267 0.00965814 -0.0350584 0.03332428 0.057394646 0.067842096 -0.03263113 0.0052460516
0.03285871 -0.0126192095 -0.108331814 -0.034705676 0.0067552608 0.03327658 -0.05334248 -0.12508368
0.07423097 0.059634686 -0.07460896 -0.026332185 0.021311011 -0.041730884 -0.019789865 -0.06416713
0.046012636 0.003114363 0.048948966 0.01866391 -0.051482704 0.059248265 0.064386144 -0.038224574
-0.016417136 -0.016372135 0.08310845 -0.08773291 0.017325446 0.066322565 -0.062836185 -0.04702102
-0.076425105 0.04866393 0.06779808 -0.02409563 0.02373893 -0.054410417 0.072887495 0.06251676
0.04122051 0.0051914146 0.050761033 0.031044366 0.011110191 -0.05666997 -0.0069077224 0.012890553
0.011997826 -0.020615268 -0.045662962 -0.05305699 -0.048825733 -0.01572825 -0.020223852 0.0668467
0.06359081 -0.040234543 -0.00020358586 0.054132856 -0.07780075 -0.0228772 0.014084131 -0.010182491
0.039708532 -0.00022514691 -0.017811438 0.06528527 0.037990425 -0.053594217 0.017764699 0.005498524
00000000: fa30 60bd 6ef9 a4bc 28b4 703d 9531 5dbd
00000010: 6b33 4c3d 1d05 36bd 33fa 3f3d c966 703d
00000020: 5967 8bbd d4e3 803d 53eb c7bb d8ab 8cbd
00000030: 6440 a33d 6b35 763d 5464 e03d b8c9 a7bc
00000040: dfc2 603d 5a07 a83c ccb7 893d f136 ca3c
00000050: c8cc 2abd 62e4 09bd 7c7f fabc ec03 603d
00000060: 4c08 57bd c92f 86bd c189 1bbd 0cd2 9bbd
00000070: 3242 763d 45b6 f33b 57f0 943d f19c a7bd
00000080: 23c7 013d f6f7 663d 60bb 973d c326 363d
00000090: 24f6 9e3c 71ac 31bd b8f7 c13c 01c1 733d
000000a0: e0b1 8fbd 7ab9 663d 332c 9abd 7d04 52bd
000000b0: 204e 293c 53a5 883c 37ef 11bd 00f1 9dbc
000000c0: 4f4c d2bb 619f 46bd e898 3abd 196e 02bd
000000d0: 9562 edbc 3ab6 03bd e8c5 1f3d 9164 63bd
000000e0: b766 843d 31dd 2ebd dd9c 6bbd e377 4abd
000000f0: 9f89 7b3d a772 40bd 2aae 7ebd 209c 893c
00000100: 62f3 2d3d ab46 c0bb 72ef 583d c87e 19bd
00000110: 5f70 44bd 3739 92bd 5b72 6abd 7295 ee3b
00000120: 439d b0bc a18e 2abd b1f6 b1bd c304 5b3d
00000130: 8273 a8bd 29de 3d3d 01ea a33d fae7 a43d
00000140: 7b01 67bd 7517 afb8 66cb 953d e8fc 1d3c
00000150: fe5f 2dbd 1cca 6fbd 1cf6 27bb f2f6 2dbd
00000160: 74cc b03d 5e5c 313d f94e 2c3d 6a17 073b
00000170: 0a5b f93c b763 84bd 22aa 813d 2d29 433c
00000180: 316e 9f3d b73d 6a3c 4cc7 14bd 0755 5bbc
00000190: b286 7bbc 27b2 7fbd 02f6 5e3d e5af 9d3d
000001a0: e043 5a3d 315e 053d ffbb 833d 8fa2 a1bd
000001b0: e264 813d 6aab 913d 87c0 193c 3518 023d
000001c0: 01a2 45bc f9f7 283b 227c f63c 2f53 cf3a
000001d0: 7075 643d ef5a 6a3c 12e0 a9bc 1690 983d
000001e0: 68e9 a9bd 373c 6fbd fd5d 7e3d 9009 9d3d
000001f0: 194e 66bd 5b09 663d 620b dd3a c45f 3abd
00000200: d7be 9a3d 28b3 69bd d37e ca3c 924e 4d3c
00000210: 04a1 25bd 3ef1 c0bc 49f9 74bd d870 973d
00000220: b396 763d fd3d 1d3c 47a2 4cbc 07d9 623d
00000230: a26a 1bbb 4425 90bd dd4b 26bd c7ec 25bd
00000240: 8306 913d 2bcf 8f3d e235 05bd 8918 473d
00000250: 8e37 9cbd dc09 29bd 00f9 0fbd 3e9c 9c3d
00000260: 582b bbbc d8f1 efbc 85e7 3c3d 117b 6bbd
00000270: 1d40 c93c 8c03 a13c bb19 4dbd f559 c73c
00000280: b26d 53bd ab00 4abd 4be5 a43d b22c c3bd
00000290: 5079 4fbd 774f 60bb 4859 55bd 7110 5ebd
000002a0: 3147 b5bd ceff 4a3d b52a 2cbc 56bd 1e3d
000002b0: 54a1 0ebd 8c9f 8dbd c802 573d 6d8e b3bb
000002c0: 3542 523d 2d3d 1e3c 6699 0fbd 0a7f 083d
000002d0: a616 6b3d ccf0 8a3d 38a8 05bd 12e7 ab3b
000002e0: db96 063d cdc0 4ebc 12dd ddbd 8a27 0ebd
000002f0: 3c5b dd3b 064d 083d a57d 5abd f015 00be
00000300: 6806 983d 8043 743d 95cc 98bd 98b6 d7bc
00000310: 6e94 ae3c 01ee 2abd 5b1e a2bc 0e6a 83bd
00000320: bf77 3c3d 571a 4c3b b67e 483d 0ee5 983c
00000330: 87df 52bd 4fae 723d e2dc 833d 5f91 1cbd
00000340: 3b7d 86bc db1e 86bc c334 aa3d 50ad b3bd
00000350: 18ee 8d3c 20d4 873d 42b0 80bd 1d99 40bd
00000360: c484 9cbd d453 473d b8d9 8a3d 3364 c5bc
00000370: 2578 c23c 75dd 5ebd 0a46 953d c908 803d
00000380: d6d6 283d be1c aa3b cdea 4f3d c150 fe3c
00000390: 8507 363c c51e 68bd 2d5a e2bb e632 533c
000003a0: 8892 443c 5ae1 a8bc 1609 3bbd 4952 59bd
000003b0: 7efd 47bd 88d8 80bc 7eac a5bc ece6 883d
000003c0: e63b 823d facc 24bd aa79 55b9 6aba 5d3d
000003d0: 0056 9fbd f768 bbbc 21c1 663c 76d4 26bc
000003e0: 6aa5 223d 6a15 6cb9 4be9 91bc 49b4 853d
000003f0: d99b 1b3d 9c85 5bbd 4687 913c f62c b43b

mlp1.2.bias f4 [100]
-0.05097061 0.09358487 0.04531315 0.08280407 -0.098266974 -0.039509166 -0.06519514 0.041763462
-0.035748407 0.06547849 -0.0684094 -0.043303058 0.0042426763 -0.0188291 0.0123176025 0.012941549
0.08102602 0.003847693 0.0011163745 0.00431901 -0.0024073906 -0.03943344 -0.01275788 0.08136146
0.09271351 -0.026988719 0.077934 0.017409714 -0.02147703 -0.049780045 -0.004135961 -0.011437965
-0.0016645693 0.037873298 0.038266912 0.01844518 0.08624419 0.08751608 -0.02328951 0.10791158
-0.0036401453 -0.06530512 -0.052601796 -0.08067014 0.01059256 0.028308218 0.103256546 -0.08062307
0.08606067 0.04163578 -0.031506233 -0.08287868 0.08153535 -0.015817195 -0.07897014 0.017947448
0.084785186 -0.040908743 -0.053763267 -0.025777072 -0.02588742 -0.028963024 0.06400418 -0.038086332
0.050279308 -0.05199099 0.041044112 -0.053143084 0.08919894 0.010270852 0.012703009 -0.038220793
0.031299707 0.12377863 0.029489765 -0.06488403 0.031578243 0.008707032 -0.05691415 -0.048818972
-0.010066185 -0.043336403 0.045889527 0.027130809 0.0016994127 0.07792726 0.019259855 0.060875446
0.076917045 -0.015663357 -0.026053416 -0.06528039 -0.08174168 0.0642434 -0.08105711 0.017359976
0.030764442 0.07371412 -0.014081828 -0.03791897
00000000: 8fc6 50bd 6da9 bf3d 489a 393d 2e95 a93d
00000010: 3240 c9bd 5dd4 21bd 0885 85bd 2a10 2b3d
00000020: ec6c 12bd 9619 863d 3a1a 8cbd 8c5e 31bd
00000030: 2606 8b3b 7c3f 9abc c5cf 493c ca08 543c
00000040: f8f0 a53d 9429 7c3b 5053 923a 7b86 8d3b
00000050: 50c5 1dbb f584 21bd 6d06 51bc d6a0 a63d
00000060: 95e0 bd3d 7217 ddbc dc9b 9f3d d19e 8e3c
00000070: 99f0 afbc 29e6 4bbd f586 87bb 4d66 3bbc
00000080: ad2d daba 0821 1b3d c4bd 1c3d 591a 973c
00000090: cba0 b03d a13b b33d a4c9 bebc bf00 dd3d
000000a0: 818f 6ebb b1be 85bd fb74 57bd 6336 a5bd
000000b0: 6b8c 2d3c a3e6 e73c 2b78 d33d b51d a5bd
000000c0: 9440 b03d 488a 2a3d ae0c 01bd 4cbc a9bd
000000d0: 01fc a63d 1093 81bc 19bb a1bd 8706 933c
000000e0: dba3 ad3d ed8f 27bd df36 5cbd 702a d3bc
000000f0: db11 d4bc dd43 edbc a014 833d 6a00 1cbd
00000100: adf1 4d3d 81f4 54bd df1d 283d 90ac 59bd
00000110: efad b63d 1347 283c 4820 503c 688d 1cbd
00000120: 1f34 003d a67f fd3d 8594 f13c ebe1 84bd
00000130: 3058 013d f0a7 0e3c d01e 69bd 67f6 47bd
00000140: a4ec 24bc 8381 31bd a8f6 3b3d 6e41 de3c
00000150: d4be de3a 5498 9f3d d8c6 9d3c 8858 793d
00000160: af86 9d3d 7150 80bc f96d d5bc bab1 85bd
00000170: 2f68 a7bd 0b92 833d 4501 a6bd 8236 8e3c
00000180: b605 fc3c 6ef7 963d 78b7 66bc ec50 1bbd

mlp2.0.weight f4 [100, 100]
-0.11116221 -0.01719713 0.015396037 -0.024652703 0.0008418682 0.08343744 -0.08264102 0.028480208
0.040529896 -0.07243352 -0.07118604 -0.0768466 0.011498187 0.09022179 -0.0657597 0.044065114
-0.0650459 0.06735624 0.031114765 0.010281737 -0.10766364 0.003766123 0.046148613 0.107892014
-0.09032772 0.025181962 -0.102805674 0.03921831 0.030378953 -0.11278836 0.064034455 -0.107456334
0.09620569 -0.052726187 0.044427093 0.11142082 -0.1107209 0.021286752 -0.03250727 0.090351544
0.06789437 0.079964645 0.01628415 -0.01259 0.0477426 -0.023459775 0.060211055 0.033811994
0.17309856 -0.12011495 -0.009573754 0.03093316 -0.005614173 0.07417445 -0.026502114 0.07580885
0.13038306 0.009044466 0.07274809 -0.04685264 0.06625295 0.0031709399 0.033181265 0.020126095
-0.048232682 0.006057426 0.10798219 -0.011551137 -0.019992432 -0.07177461 0.049648274 0.09502845
0.12476938 -0.038154703 -0.08674068 -0.05313224 0.09082824 0.02232996 0.08398047 -0.08094127
0.08354986 -0.07382423 0.020085517 0.008246089 -0.0456709 0.068908714 0.09653564 -0.058850717
0.13299051 0.11579993 8.5813765e-05 0.056649268 0.045368936 0.079673864 0.008414654 -0.059906855
-0.039277814 -0.09341302 -0.06849507 -0.021765562 0.015445953 -0.051185083 -0.05656726 0.023065727
0.058221735 0.07003166 0.00033194353 -0.07932634 -0.06588303 -0.059610274 0.09203218 0.030024517
-0.079023935 -0.052789036 0.04680947 -0.021243338 0.08753933 0.07342122 -0.018152261 0.01936764
-0.023560617 0.061520606 0.072574355 0.09673694 0.025262907 -0.050289843 0.049118206 -0.018580709
-0.06119966 0.0203815 0.04405797 -0.04879181 -0.09460752 -0.036597535 -0.01331556 -0.07523927
-0.06363262 -0.046817526 -0.04587053 0.032761786 -0.074549936 -0.058011133 0.087417364 0.05280162
-0.041853227 0.080274135 0.09427524 -0.0022896908 0.10230075 0.0924377 0.096975185 0.09894877
-0.08979225 -0.04087656 -0.03253542 -0.01880901 -0.06957982 0.08507113 0.02156993 0.04739633
0.0623704 0.017358648 -0.08876409 0.043362815 0.020112926 -0.09105251 -0.053124305 0.018582163
-0.01518891 0.0402289 0.016569396 -0.016848503 -0.021951903 0.0052055106 0.095272414 0.031279575
0.049606286 -0.0085734995 -0.06401436 -0.026011053 -0.05905667 0.07761062 0.019585535 -0.0009982017
-0.09140938 -0.019067679 -0.08048999 -0.00024149871 -0.020842087 -0.07413493 0.022319743 -0.028268948
0.08444097 0.041898496 0.008232279 -0.052148625 0.007807344 -0.037486497 -0.092558235 0.031694785
0.06899226 0.061637647 -0.07514178 -0.085226335 0.009657978 -0.02783813 0.02937271 0.07523575
0.054418515 -0.04648694 -0.066967435 -0.026875908 -0.03394388 0.011264654 -0.023030657 0.004595366
-0.065275386 -0.042631608 -0.0052086646 0.08411567 0.10106343 -0.10208732 -0.057421807 0.021634633
-0.047412924 0.009778316 0.098541684 -0.015084024 0.042417135 -0.07683215 0.052179288 0.0828396
0.017129995 0.10911699 0.022262178 -0.0890699 -0.021568315 -0.09544892 0.0643347 0.04157388
0.071871005 0.062822945 -0.022005748 0.08169696 -0.021539902 -0.012249877 -0.05801313 0.07419261
0.06336579 -0.024145097 0.040999755 0.11143406 -0.100617334 -0.0690854 -0.005655988 0.107434966
00000000: 03a9 e3bd ffe0 8cbc a93f 7c3c 77f4 c9bc
00000010: d2b0 5c3a 40e1 aa3d b23f a9bd 534f e93c
00000020: ad02 263d 0658 94bd fdc9 91bd c061 9dbd
00000030: e462 3c3c 34c6 b83d 06ad 86bd 9f7d 343d
00000040: c936 85bd 11f2 893d 64e4 fe3c bb74 283c
00000050: c17e dcbd 0fd1 763b 5406 3d3d 7df6 dc3d
00000060: bdfd b8bd 674a ce3c c88b d2bd 61a3 203d
00000070: 48dd f83c 95fd e6bd 7f24 833d 1112 dcbd
00000080: 7d07 c53d 6af7 57bd 2ff9 353d 9930 e43d
00000090: a4c1 e2bd 8e61 ae3c 5826 05bd 3b0a b93d
000000a0: 340c 8b3d 81c4 a33d 5666 853c 4a46 4ebc
000000b0: bf8d 433d b72e c0bc de9f 763d 727e 0a3d
000000c0: c040 313e d4fe f5bd 3cdb 1cbc 8a67 fd3c
000000d0: 19f7 b7bb c6e8 973d f61a d9bc ac41 9b3d
000000e0: 2383 053e 3d2f 143c f3fc 943d 8ee8 3fbd
000000f0: a0af 873d 8bcf 4f3b 14e9 073d 7bdf a43c
00000100: a28f 45bd 5f7d c63b c425 dd3d fb40 3dbc
00000110: 2bc7 a3bc 91fe 92bd fd5b 4b3d 479e c23d
00000120: 1787 ff3d 1b48 1cbd 19a5 b1bd 31a1 59bd
00000130: 2804 ba3d 52ed b63c f4fd ab3d 89c4 a5bd
00000140: 301c ab3d 2831 97bd 628a a43c 9b1a 073c
00000150: 6911 3bbd 0320 8d3d 7ab4 c53d 730d 71bd
00000160: aa2e 083e 8428 ed3d eaf6 b338 1009 683d
00000170: c7d4 393d 0d2c a33d 9edd 093c e460 75bd
00000180: c6e1 20bd 534f bfbd 2547 8cbd b14d b2bc
00000190: 0611 7d3c 73a7 51bd 12b3 67bd 56f4 bc3c
000001a0: ea79 6e3d c26c 8f3d b508 ae39 d975 a2bd
000001b0: afed 86bd e729 74bd 5e7b bc3d faf5 f53c
000001c0: 4dd7 a1bd 5139 58bd 49bb 3f3d 8206 aebc
000001d0: d247 b33d dd5d 963d 0db4 94bc e3a8 9e3c
000001e0: 3202 c1bc 08fd 7b3d dda1 943d 041e c63d
000001f0: 28f4 ce3c b9fc 4dbd 2c30 493d 9236 98bc
00000200: 7fac 7abd 1af7 a63c 2176 343d ecd9 47bd
00000210: 96c1 c1bd 4ce7 15bd 8229 5abc 0c17 9abd
00000220: d251 82bd bcc3 3fbd bde2 3bbd 3931 063d
00000230: a3ad 98bd 159d 6dbd e007 b33d 8346 583d
00000240: 4a6e 2bbd c466 a43d 6113 c13d a30e 16bb
00000250: 0e83 d13d fa4f bd3d ed9a c63d a7a5 ca3d
00000260: 00e5 b7bd 2e6e 27bd dc43 05bd 5a15 9abc
00000270: dd7f 8ebd c639 ae3d 6cb3 b03c a722 423d
00000280: 1b78 7f3d b933 8e3c f2c9 b5bd 359d 313d
00000290: ddc3 a43c bd79 babd df98 59bd 9f39 983c
000002a0: e8da 78bc 0fc7 243d 8bbc 873c df05 8abc
000002b0: 7ad4 b3bc fd92 aa3b 2f1e c33d 031f 003d
000002c0: f62f 4b3d dd77 0cbc f619 83bd 2215 d5bc
000002d0: 68e5 71bd 51f2 9e3d d871 a03c 17d6 82ba
000002e0: d734 bbbd d233 9cbc f0d7 a4bd d13a 7db9
000002f0: 06bd aabc 0ed4 97bd e5d7 b63c 4894 e7bc
00000300: 63ef ac3d c29d 2b3d aee0 063c cc99 55bd
00000310: c0d4 ff3b 718b 19bd 2c8f bdbd 64d2 013d
00000320: d04b 8d3d c277 7c3d efe3 99bd 258b aebd
00000330: 7f3c 1e3c ca0c e4bc 0a9f f03c 3315 9a3d
00000340: f3e5 5e3d 1769 3ebd 3926 89bd dd2a dcbc
00000350: bd08 0bbd 628f 383c caaa bcbc b994 963b
00000360: 1aaf 85bd 7b9e 2ebd 72ad aabb d644 ac3d
00000370: 58fa ce3d 2813 d1bd 2133 6bbd 1d3b b13c
00000380: 0e34 42bd 3b35 203c 39d0 c93d fb22 77bc
00000390: 97bd 2d3d 2d5a 9dbd f3b9 553d cfa7 a93d
000003a0: 3454 8c3c ba78 df3d 2c5f b63c 486a b6bd
000003b0: 09b0 b0bc b97a c3bd e9c1 833d 5f49 2a3d
000003c0: 1b31 933d 51a9 803d 6645 b4bc bc50 a73d
000003d0: 7374 b0bc b5b3 48bc 2d9f 6dbd 4cf2 973d
000003e0: ecc5 813d f0cb c5bc 5cef 273d 8a37 e43d
000003f0: 7610 cebd a57c 8dbd de55 b9bb dd06 dc3d

mlp2.0.bias f4 [100]
-0.019229902 -0.0025644293 -0.09746401 -0.032973498 0.046495415 0.09628935 -0.040918443 0.0056597283
-0.053357292 0.08110751 0.0706173 0.06450522 0.07674757 -0.044654924 0.09372176 -0.0129141295
0.030367203 0.030956306 0.006269624 -0.08920729 -0.11189168 0.08313958 0.12751152 0.066526465
-0.088101186 0.010269782 0.10728918 0.07682589 -0.045085378 0.016447077 -0.04536305 -0.047753077
-0.06930847 0.011969505 -0.092893176 -0.011534457 -0.08132579 0.013546644 0.10589552 0.061884765
-0.03553167 0.03909774 -0.018425463 0.0120827025 -0.006224985 0.0689433 0.09466795 -0.15277047
0.13316151 0.0011999354 -0.007826017 0.12627152 -0.057826515 -0.06116207 0.059893098 -0.0094458
-0.07420229 -0.085081264 -0.09217212 -0.06748077 -0.008663143 0.03272114 -0.03703483 0.07047933
0.08220124 0.15571117 -0.012879175 0.03257807 -0.037435953 0.04603413 0.07049673 0.13580532
0.0860591 0.0807452 -0.073999934 0.053675216 0.04176403 0.09519814 0.039750557 0.015064636
0.02120086 0.044282213 0.009391732 -0.030989267 0.03800411 0.006121124 -0.04353869 -0.06126532
-0.04862758 0.2111346 -0.019278714 -0.04658127 0.083855845 0.050800864 -0.014453434 0.007922775
-0.08652549 0.02047564 -0.07183749 -0.0057545835
00000000: 0788 9dbc fc0f 28bb 369b c7bd 380f 07bd
00000010: fa71 3e3d 5a33 c53d 199a 27bd 3e75 b93b
00000020: 2d8d 5abd b21b a63d ce9f 903d 501b 843d
00000030: d42d 9d3d 15e8 36bd 32f1 bf3d c995 53bc
00000040: a4c4 f83c 1498 fd3c 6b71 cd3b 50b2 b6bd
00000050: 7727 e5bd 1645 aa3d 6192 023e 073f 883d
00000060: 656e b4bd 9642 283c 6eba db3d e456 9d3d
00000070: 72ab 38bd 05bc 863c 9bce 39bd bb98 43bd
00000080: 99f1 8dbd be1b 443c c73e bebd 05fb 3cbc
00000090: 238e a6bd bef2 5d3c c0df d83d e17a 7d3d
000000a0: a889 11bd f424 203d fff0 96bc 87f6 453c
000000b0: f5fa cbbb 2532 8d3d 45e1 c13d dd6f 1cbe
000000c0: 7e5b 083e 2747 9d3a b238 00bc 524d 013e
000000d0: 7fdb 6cbd 1485 7abd 7752 753d 8fc2 1abc
000000e0: 5ff7 97bd 163f aebd bdc4 bcbd 5c33 8abd
000000f0: dbef 0dbc 9a06 063d d5b1 17bd 7857 903d
00000100: 2059 a83d c072 1f3e 2d03 53bc 9570 053d
00000110: 7156 19bd 498e 3c3d 9760 903d 8d10 0b3e
00000120: c13f b03d bd5d a53d 478d 97bd 8bda 5b3d
00000130: c210 2b3d 3ef7 c23d 7bd1 223d aad1 763c
00000140: 6dad ad3c 4461 353d c7df 193c 34dd fdbc
00000150: 33aa 1b3d b693 c83b a055 32bd 58f1 7abd
00000160: b72d 47bd ab33 583e 65ee 9dbc 00cc 3ebd
00000170: 9dbc ab3d 9114 503d 19ce 6cbc 87ce 013c
00000180: 4734 b1bd 88bc a73c 891f 93bd f290 bcbb

mlp2.2.weight f4 [50, 100]
0.04856273 -0.034880396 -0.022424761 -0.06603805 0.059458874 -0.06788012 0.028841294 -0.006496212
0.023425639 0.11319098 -0.061892 -0.0967133 -0.035890523 0.044874985 0.038699225 -0.00633627
-0.06741431 0.01755881 0.0841117 -0.00044886558 0.04758536 -0.013811366 -0.096686475 0.05847093
0.023911716 -0.069837056 -0.077545136 -0.055506974 -0.045182444 -0.05267636 -0.03410783 0.025866967
0.015657438 0.12281862 -0.09556807 0.058064874 0.094101265 0.044966273 -0.11456792 -0.008224264
-0.09002119 0.018866442 0.014334262 0.048534244 -0.06665086 -0.067699865 -0.07505384 -0.10327139
-0.06140962 0.008092422 -0.050609533 -0.072518796 -0.071279354 0.0053797113 0.0070080366 0.06419347
0.044346124 -0.016440831 0.056202438 0.011867529 -0.019462356 -0.0466703 0.07906838 -0.07741103
0.0015203254 -0.04293396 0.11974197 -0.043134887 0.022660887 -0.09324688 0.010543992 0.022221249
-0.09892587 0.04083964 0.012676473 -0.055977855 -0.09274198 -0.03770941 0.061347615 0.093918346
0.09761014 0.049484253 -0.02047807 0.09508727 0.041535597 0.03984432 0.029540619 -0.016451607
0.012074352 -0.21008168 0.044446647 -0.004487981 0.10968666 0.009554511 0.0053213914 -0.03668231
0.07641475 0.012013764 -0.034629352 -0.0056965877 -0.107663974 -0.033805486 -0.043557797 0.06935274
-0.041536465 -0.07504299 0.050355762 0.034296177 -0.07317293 0.053045478 0.025049675 0.09461314
-0.08923414 -0.069328725 0.021475658 0.053483386 -0.01383757 0.07644105 0.030469796 0.038096093
0.09140934 -0.0975044 0.045154516 0.008892855 -0.059283845 0.04408488 0.09857904 0.057711262
-0.075899385 -0.0143335285 0.04635714 0.045562163 0.026076023 0.059583023 -0.020324437 -0.022015637
-0.05667389 0.03129739 0.07555178 -0.057754353 -0.0014493831 -0.116212085 -0.014182847 0.04670958
0.07807665 -0.07388083 0.031026874 0.06015223 0.113932006 0.012765767 0.011086594 0.017207235
-0.015147566 0.02588833 -0.07534032 -0.054020766 0.07832982 -0.05848318 0.084357336 0.0545245
0.036784295 0.0548027 -0.0021171581 0.051915098 0.12008 0.15028024 -0.03931562 -0.008754118
0.097440176 0.04624863 0.055209942 -0.03939968 0.07658001 -0.085921705 -0.020977918 0.10481895
-0.0010071214 0.06622205 0.023201864 -0.015832026 -0.033925198 -0.054086003 0.08853708 0.0394661
-0.07822636 0.08548814 -0.011262261 -0.0050192093 0.017379332 0.13594025 -0.09637551 -0.008164721
-0.02070549 0.0030191317 0.019476635 -0.07577839 -0.08360657 -0.022539672 0.010020707 0.060709197
0.039652586 0.09083219 0.042652074 -0.053311005 -0.0624057 0.047149226 -0.031895917 0.029008707
-0.066635974 0.010326397 0.10231486 -0.11705225 -0.10536625 -0.035226744 0.028573783 -0.04287547
-0.10635136 0.047888666 0.097232096 -0.083227836 0.07130957 0.0047250832 -0.073200636 0.0070374566
-0.06977054 0.085669324 -0.009189014 -0.0034628606 0.10397656 -0.0158531 0.04193001 -0.066410124
0.08387577 0.077326156 0.07251595 0.023443932 -0.038009096 0.10060062 0.06709804 0.073843375
0.053289298 -0.08503342 -0.083982736 0.05606827 0.008001329 0.018588321 -0.0280292 0.04521287
-0.097978905 -0.0052416218 -0.053739518 0.019152 0.07160346 -0.03065672 -0.02536421 -0.0075198025
00000000: b7e9 463d bfde 0ebd 22b4 b7bc f53e 87bd
00000010: 268b 733d bb04 8bbd 9444 ec3c 2dde d4bb
00000020: 20e7 bf3c acd0 e73d 7782 7dbd 9f11 c6bd
00000030: f101 13bd d5ce 373d 1483 1e3d 7ca0 cfbb
00000040: 8410 8abd 7ed7 8f3c c142 ac3d b855 ebb9
00000050: dee8 423d 1149 62bc 8f03 c6bd 377f 6f3d
00000060: 81e2 c33c bb06 8fbd fccf 9ebd 485b 63bd
00000070: 3a11 39bd 2bc3 57bd a7b4 0bbd f6e6 d33c
00000080: 0744 803c 5488 fb3d 31b9 c3bd 6fd5 6d3d
00000090: 2ab8 c03d 8e2e 383d 96a2 eabd 10bf 06bc
000000a0: 085d b8bd cc8d 9a3c 41da 6a3c d8cb 463d
000000b0: 3f80 88bd 3aa6 8abd d4b5 99bd f37f d3bd
000000c0: a788 7bbd 1496 043c f14b 4fbd bc84 94bd
000000d0: e9fa 91bd 4a48 b03b aca3 e53b de77 833d
000000e0: 48a4 353d ecae 86bc 8734 663d 0670 423c
000000f0: 856f 9fbc 5b29 3fbd 9aee a13d ad89 9ebd
00000100: a845 c73a 85db 2fbd 473b f53d 35ae 30bd
00000110: 53a3 b93c 38f8 bebd b5c0 2c3c 5609 b63c
00000120: a699 cabd 7747 273d fbb0 4f3c 0949 65bd
00000130: 82ef bdbd 2f75 1abd a347 7b3d 4358 c03d
00000140: d3e7 c73d 00b0 4a3d a0c1 a7bc 1dbd c23d
00000150: 3b21 2a3d cc33 233d 2bff f13c 85c5 86bc
00000160: 81d3 453c a71f 57be b00d 363d ea0f 93bb
00000170: 66a3 e03d 868a 1c3c 115f ae3b 3140 16bd
00000180: 567f 9c3d 61d5 443c 82d7 0dbd 71aa babb
00000190: ee7e dcbd 9f77 0abd a969 32bd cf08 8e3d
000001a0: 2422 2abd 24b0 99bd d841 4e3d 267a 0c3d
000001b0: b0db 95bd 3746 593d fa34 cd3c 89c4 c13d
000001c0: 64c0 b6bd 38fc 8dbd b8ed af3c 6511 5b3d
000001d0: fab6 62bc 208d 9c3d cb9b f93c a60a 1c3d
000001e0: d234 bb3d 63b0 c7bd f1f3 383d 56b3 113c
000001f0: 9ed3 72bd 5992 343d cfe3 c93d a562 6c3d
00000200: 2371 9bbd 2dd7 6abc fce0 3d3d 649f 3a3d
00000210: 629d d53c 540d 743d 6f7f a6bc 235a b4bc
00000220: e222 68bd b131 003d e4ba 9a3d d48f 6cbd
00000230: 3af9 bdba 9a00 eebd 2c5f 68bc 8b52 3f3d
00000240: a7e6 9f3d d54e 97bd 122c fe3c 2f62 763d
00000250: 2f55 e93d 8227 513c 8ca4 353c 30f6 8c3c
00000260: 7f2d 78bc c313 d43c 074c 9abd e144 5dbd
00000270: 626b a03d 0f8c 6fbd 8ac3 ac3d 1555 5f3d
00000280: 21ab 163d cc78 603d 05c0 0abb eda4 543d
00000290: 81ec f53d 10e3 193e 6a09 21bd 6f6d 0fbc
000002a0: b78e c73d 346f 3d3d d223 623d 8f61 21bd
000002b0: fbd5 9c3d b8f7 afbd e2d9 abbc 51ab d63d
000002c0: 6301 84ba 6d9f 873d d611 be3c 2ab2 81bc
000002d0: 26f5 0abd 4989 5dbd ee52 b53d 35a7 213d
000002e0: 2435 a0bd 6814 af3d 5985 38bc 2e78 a4bb
000002f0: 1a5f 8e3c ec33 0b3e 8660 c5bd 52c5 05bc
00000300: 8f9e a9bc a0dc 453b 778d 9f3c b331 9bbd
00000310: ec39 abbd 1ea5 b8bc e42d 243c 35aa 783d
00000320: c06a 223d 3a06 ba3d f1b3 2e3d a45c 5abd
00000330: 1f9d 7fbd 8c1f 413d 4ba5 02bd aba3 ed3c
00000340: 7178 88bd 0c30 293c 748a d13d 17b9 efbd
00000350: 43ca d7bd eb49 10bd 9113 ea3c 309e 2fbd
00000360: bece d9bd e826 443d 9f21 c73d 5b73 aabd
00000370: c00a 923d dfd4 9a3b 37ea 95bd 779a e63b
00000380: dbe3 8ebd 6673 af3d 858d 16bc 29f1 62bb
00000390: aaf1 d43d 5cde 81bc cdbe 2b3d 0802 88bd
000003a0: 0fc7 ab3d 2d5d 9e3d 3e83 943d 7d0d c03c
000003b0: 6daf 1bbd b307 ce3d b26a 893d 323b 973d
000003c0: e145 5a3d 0026 aebd 24ff abbd d8a7 653d
000003d0: 0218 033c 8946 983c 7e9d e5bc 2131 393d
000003e0: 2aa9 c8bd e9c1 abbb f81d 5cbd a8e4 9c3c
000003f0: d6a4 923d cd23 fbbc 9bc8 cfbc ad68 f6bb

mlp2.2.bias f4 [50]
0.09522944 -0.07238027 0.05089332 0.042372134 -0.023288958 -0.054571297 -0.14184642 -0.052797474
-0.06045139 0.02527698 0.0340993 0.14760722 -0.032516204 -0.08558691 -0.0003425971 -0.008916805
0.085804075 -0.008921981 0.11676881 -0.036540005 -0.14610678 -0.13765644 0.14608772 0.031813085
-0.017764335 -0.011567998 -0.06002561 -0.06337578 -0.07340298 0.00061108853 -0.0017432196 -0.046535544
0.065398894 0.042826854 0.114804685 0.06684986 -0.14560401 -0.09752001 0.034210622 0.054697063
-0.018642168 -0.08323391 -0.02445148 -0.13082342 -0.030690817 0.08096614 0.11370231 -0.051251445
0.085311174 -0.045422826
00000000: a707 c33d 1b3c 94bd 8475 503d 678e 2d3d
00000010: 7cc8 bebc 2786 5fbd 3040 11be 2a42 58bd
00000020: e09b 77bd ab11 cf3c b5ab 0b3d 5926 173e
00000030: b62f 05bd 3148 afbd 9b9e b3b9 ca17 12bc
00000040: 0cba af3d 802d 12bc 7c24 ef3d f9aa 15bd
00000050: 049d 15be cff5 0cbe 0598 153e 704e 023d
00000060: 8386 91bc b387 3dbc 6add 75bd 29cb 81bd
00000070: 4d54 96bd 7531 203a be7c e4ba 0e9c 3ebd
00000080: dbef 853d 366b 2f3d b81e eb3d 94e8 883d
00000090: 3819 15be 92b8 c7bd 7020 0c3d 070a 603d
000000a0: 76b7 98bc 8a76 aabd 784e c8bc 93f6 05be
000000b0: 4f6b fbbc 93d1 a53d c2dc e83d 09ed 51bd
000000c0: a0b7 ae3d 490d 3abd

attention.0.weight f4 [100, 200]
-0.06781184 0.044221673 0.0013559464 0.0316309 0.0026781529 0.012792494 -0.06314588 -0.007021314
-0.026182938 -0.051216602 0.04336231 -0.06953836 -0.026296547 0.01182618 0.00864324 0.01995324
-0.049686395 -0.053584553 0.017959606 -0.030696958 0.015896786 -0.062199883 -0.01045289 -0.009857878
-0.016778661 -0.021013532 -0.038608443 -0.054536868 -0.022613997 0.03130007 0.037200563 -0.052947436
-0.048670687 -0.012613603 -0.02347059 0.04643349 0.028543577 0.020205008 0.026261887 0.013333932
-0.0113271875 -0.054342184 -0.043902386 0.005969137 -0.052589435 -0.057888992 0.054859016 0.027497578
-0.058294665 0.06851865 -0.012307031 0.029786482 0.031373255 0.053314466 -0.06841141 0.030682068
0.011861299 -0.025223738 0.044175867 0.03596742 -0.052193575 -0.047010504 0.030362112 -0.023355676
-0.029337127 -0.05299054 -0.021078743 -0.025150992 -0.046665184 -0.03954234 -0.04100995 -0.0031608806
-0.04956149 0.06284203 -0.013701184 -0.037410147 0.0009594327 0.060541812 -0.035479527 0.069663525
-0.062280606 -0.06615342 -0.005285728 0.052411243 -0.05866626 -0.0238138 -0.011770832 0.030259032
-0.017795369 0.0013482573 -0.058525175 -0.019262591 0.054222934 -0.017074369 0.060988627 0.033197757
-0.03385958 0.06811905 0.032699507 -0.007540451 -0.014950387 -0.02789613 -0.06261525 -0.053321987
0.060186278 0.010771751 0.04463034 -0.012076012 0.047431987 0.004592863 -0.012591456 -0.044440713
0.05827059 -0.041696098 -0.0031794051 -0.03125811 0.07050366 -0.039364982 -0.00097272417 0.06836285
0.049163137 -0.021783628 0.05405328 0.00069427566 0.042252753 0.052789662 -0.04293237 0.02893111
-0.06580313 -0.06679964 -0.047159072 0.051425498 0.038740855 -0.03997045 0.032629885 -0.05322784
-0.06557578 -0.06267767 0.069281004 0.00842745 0.012504083 -0.05932293 0.02083646 0.05825124
0.067741975 0.0037969886 0.060148247 0.029682955 -0.008433753 -0.03562828 -0.036449082 -0.06469003
-0.03243709 -0.009287641 -0.057445537 0.044079207 0.029941473 0.04249623 -0.053594608 -0.05734847
0.06623433 -0.02569196 -0.069934085 0.06431831 0.01781516 0.06040661 0.0037112697 -0.02839698
0.043984145 -0.006619165 -0.0021860336 0.03387721 -0.010945507 -0.03303153 0.07153217 0.036144674
-0.018349873 0.025308944 -0.034730088 -0.018113298 -0.029397624 0.009615579 -0.04779106 0.021723347
-0.067979336 0.017569387 -0.04220964 0.018599404 -0.06858614 -0.00985345 -0.06704774 -0.04207195
0.041772317 0.027989132 0.04969826 -0.023236249 0.016972756 0.017361712 0.030823518 -0.062405992
0.011908537 -0.036705777 0.010545148 0.01441535 -0.009645072 0.00600476 0.055996556 0.051693026
0.029273951 0.07055413 -0.043831464 0.05310469 0.017997444 -0.03074624 0.045756105 0.032686677
0.007705238 0.061353274 0.030480098 -0.024264496 -0.019172816 -0.04480496 -0.05904413 0.054499205
0.062297247 0.055534177 -0.06573862 -0.053920567 0.0072076377 0.030742573 0.0005497905 -0.027536092
-0.044484477 -0.0670685 -0.035075177 -0.010566579 0.06283999 0.069212034 -0.043246593 -0.044404354
-0.051242273 0.0064897416 0.06820358 -0.03260725 -0.027058907 0.05535507 -0.017648984 -0.07107901
0.0032111648 -0.04455099 0.02377645 -0.033445243 0.010263329 0.038183875 -0.000484305 -0.06310011
00000000: efe0 8abd c921 353d 03ba b13a 678f 013d
00000010: f383 2f3b 9c97 513c a152 81bd 0d13 e6bb
00000020: 9a7d d6bc 80c8 51bd ad9c 313d 216a 8ebd
00000030: db6b d7bc 98c2 413c 609c 0d3c fa74 a33c
00000040: f683 4bbd 7a7b 5bbd 0620 933c 3078 fbbc
00000050: fa39 823c 4ec5 7ebd 9942 2bbc f082 21bc
00000060: 6773 89bc 9224 acbc e323 1ebd 0d62 5fbd
00000070: fd40 b9bc 8134 003d 9e5f 183d 69df 58bd
00000080: ea5a 47bd 49a9 4ebc 6545 c0bc 0b31 3e3d
00000090: 38d4 e93c f984 a53c 2b23 d73c 9076 5a3c
000000a0: ab95 39bc e995 5ebd fdd2 33bd c098 c33b
000000b0: 0568 57bd 021d 6dbd d9b3 603d 9a42 e13c
000000c0: 63c6 6ebd 8253 8c3d 6ea3 49bc c802 f43c
000000d0: 3e81 003d 4560 5a3d 481b 8cbd f658 fb3c
000000e0: e555 423c 03a2 cebc c1f1 343d 9352 133d
000000f0: eec8 55bd 168e 40bd f7b9 f83c 6754 bfbc
00000100: 6a54 f0bc 9c0c 59bd 54ad acbc 7409 cebc
00000110: fe23 3fbd 26f7 21bd 0dfa 27bd c726 4fbb
00000120: fd00 4bbd 52b3 803d ee7a 60bc 623b 19bd
00000130: 7082 7b3a b1fa 773d fb52 11bd c0ab 8e3d
00000140: f319 7fbd 727b 87bd e633 adbb 2cad 563d
00000150: 084c 70bd 2915 c3bc 73da 40bc cae1 f73c
00000160: 98c7 91bc 02b8 b03a 18b8 6fbd 95cc 9dbc
00000170: de18 5e3d 8cdf 8bbc 36cf 793d 5ffa 073d
00000180: 58b0 0abd 0082 8b3d ebef 053d e315 f7bb
00000190: 78f2 74bc 6d86 e4bc 6d3c 80bd 2868 5abd
000001a0: e385 763d 007c 303c 4ece 363d 77da 45bc
000001b0: 0b48 423d ba7f 963b 654c 4ebc 7707 36bd
000001c0: 24ad 6e3d 87c9 2abd 915d 50bb 8108 00bd
000001d0: 3964 903d 2d3d 21bd 6afe 7eba d201 8c3d
000001e0: 495f 493d 9473 b2bc f966 5d3d 0d00 363a
000001f0: 3911 2d3d f939 583d dad9 2fbd ef00 ed3c
00000200: cbc3 86bd 40ce 88bd df29 41bd 8ba3 523d
00000210: bbae 1e3d 0eb8 23bd eaa6 053d 7005 5abd
00000220: 984c 86bd 265d 80bd 33e3 8d3d 4a13 0a3c
00000230: eddd 4c3c 9afc 72bd 39b1 aa3c da98 6e3d
00000240: 4ebc 8a3d e6d6 783b 025e 763d ab29 f33c
00000250: b92d 0abc f6ee 11bd a24b 15bd 357c 84bd
00000260: c1dc 04bd 312b 18bc 034c 6bbd 668c 343d
00000270: d247 f53c 8710 2e3d 0586 5bbd 3be6 6abd
00000280: dda5 873d f277 d2bc 9a39 8fbd 51b9 833d
00000290: 19f1 913c ec6c 773d c638 733b c9a0 e8bc
000002a0: b828 343d 95e5 d8bb 8f43 0fbb d4c2 0a3d
000002b0: c954 33bc 124c 07bd 757f 923d 700c 143d
000002c0: 7952 96bc b454 cf3c 2341 0ebd 5762 94bc
000002d0: 49d3 f0bc a98a 1d3c 8fc0 43bd 29f5 b13c
000002e0: c038 8bbd aded 8f3c 04e4 2cbd c75d 983c
000002f0: e476 8cbd 5d70 21bc 5350 89bd a353 2cbd
00000300: 7319 2b3d 7749 e53c 6790 4b3d f259 bebc
00000310: 730a 8b3c 263a 8e3c 9a81 fc3c 6d9d 7fbd
00000320: 061c 433c cc58 16bd 8ec5 2c3c 5c2e 6c3c
00000330: 5d06 1ebc 94c3 c43b a55c 653d 11bc 533d
00000340: edcf ef3c af7e 903d 9f88 33bd 4e84 593d
00000350: 606f 933c 8adf fbbc c16a 3b3d 77e2 053d
00000360: 397c fc3b 924d 7b3d 66b1 f93c 56c6 c6bc
00000370: 4f10 9dbc 6885 37bd 42d8 71bd 8f3a 5f3d
00000380: 662b 7f3d ce77 633d f8a1 86bd d0db 5cbd
00000390: 0c2e ec3b d9d7 fb3c d11f 103a 5f93 e1bc
000003a0: 5b35 36bd 365b 89bd fdaa 0fbd 721f 2dbc
000003b0: 41b2 803d 0abf 8d3d 5723 31bd 57e1 35bd
000003c0: 6be3 51bd e6a7 d43b 52ae 8b3d 2e8f 05bd
000003d0: a4aa ddbc ffbb 623d 9a94 90bc df91 91bd
000003e0: 6872 523b 197b 36bd d4c6 c23c e1fd 08bd
000003f0: 8627 283c b266 1c3d 51ea fdb9 a13a 81bd

attention.0.bias f4 [100]
-0.021838866 0.008876906 -0.03590396 -0.05303862 0.08012613 -0.050753944 -0.035491668 -0.00059040356
0.041335624 0.07084236 0.03361435 0.012872577 -0.06415242 0.071512416 0.02956302 0.028619768
-0.0015759091 -0.06762819 0.006387955 -0.05800752 0.040341064 -0.06020305 0.025911922 -0.06098654
-0.03911223 0.019293867 0.017180454 0.053072806 -0.00807246 -0.033322476 -0.027605634 -0.059504546
-0.0078054476 0.050576564 -0.0068032253 0.045219004 0.05496468 0.027607566 -0.058839347 0.015879527
0.039056864 0.003935183 0.014620109 0.040334605 -0.020251174 -0.014381708 0.047813278 -0.008081003
-0.0087523665 -0.008851841 0.014413646 -0.06533822 0.025215847 0.018061345 -0.0398454 0.074484505
-0.0087240515 0.045609996 -0.0025903052 0.014465409 -0.06466101 -0.04300155 0.06266149 -0.038702298
-0.044547055 0.0072298404 0.022286402 0.041088954 -0.048764136 0.06844908 -0.06529819 0.064546324
-0.021331659 -0.07108774 0.028912332 -0.005249191 -0.050892986 -0.0102738375 0.034469884 0.0049333754
0.025463419 -0.055770844 -0.011924875 -0.0055936766 -0.030715773 0.04193076 -0.021168888 -0.047749855
-0.061313987 -0.07793941 0.0013360984 -0.05105976 0.027336009 -0.008726906 -0.06437139 -0.01249947
0.046165142 -0.048801124 0.015295675 0.067882486
00000000: 6ce7 b2bc 7170 113c 0810 13bd 063f 59bd
00000010: 2b19 a43d 5ee3 4fbd b65f 11bd 50c5 1aba
00000020: 8b4f 293d cd15 913d 33af 093d 80e7 523c
00000030: 5862 83bd 1a75 923d 262e f23c 0174 ea3c
00000040: bc8e ceba a680 8abd 0d52 d13b 4b99 6dbd
00000050: ac3c 253d 7997 76bd 3d45 d43c 06cd 79bd
00000060: 2534 20bd 2c0e 9e3c 06be 8c3c df62 593d
00000070: 5a42 04bc 267d 08bd 3625 e2bc 0abb 73bd
00000080: d7c4 ffbb 5f29 4f3d 97ed debb 9037 393d
00000090: a522 613d 4329 e23c 8701 71bd c815 823c
000000a0: 17fa 1f3d b5f2 803b 2f89 6f3c e635 253d
000000b0: cae5 a5bc 41a1 6bbc dbd7 433d 2f66 04bc
000000c0: 1666 0fbc 5007 11bc 3727 6c3c 0bd0 85bd
000000d0: 7791 ce3c 63f5 933c ee34 23bd 558b 983d
000000e0: 53ef 0ebc 8cd1 3a3d 1cc2 29bb 5300 6d3c
000000f0: fe6c 84bd 6522 30bd ab54 803d 4d86 1ebd
00000100: f976 36bd 4ce8 ec3b f991 b63c e44c 283d
00000110: e7bc 47bd 082f 8c3d 0fbb 85bd dd30 843d
00000120: bbbf aebc 7396 91bd 8ed9 ec3c 6801 acbb
00000130: 2a75 50bd 9953 28bc 4b30 0d3d 27a8 a13b
00000140: a998 d03c f86f 64bd 8d60 43bc 294b b7bb
00000150: a59f fbbc 97bf 2b3d 606a adbc 5a95 43bd
00000160: 6024 7bbd b39e 9fbd 0620 af3a 0a24 51bd
00000170: c4ef df3c 4cfb 0ebc 26d5 83bd 94ca 4cbc
00000180: a917 3d3d b0e3 47bd b69a 7a3c f905 8b3d
