crowd_nav/data/output/checking-lstm-mamba/il_model.pth (torch, 95558 bytes, 13 tensors)

lstm.weight_ih_l0 f4 [200, 13]
-0.005449559 -0.08584661 -0.08731577 0.05777588 0.013541817 0.07718978 0.020832082 0.12498769
0.089919396 -0.1139161 -0.056633968 0.1481335 -0.08667358 -0.10745509 0.12450333 -0.12755398
-0.035257608 0.00292377 0.039085217 -0.011423716 -0.080675036 0.12278662 0.10724427 0.13961609
0.049152367 0.053367015 -0.05566312 -0.010019688 -0.1125049 -0.022719527 -0.057045985 0.02279441
-0.02012822 0.10159322 -0.07719618 -0.11616548 -0.036558703 -0.105497204 0.0062090214 0.2003365
0.12565604 0.049100306 0.036469165 0.051991135 -0.0660159 0.13613413 0.10530416 -0.006368857
0.012269634 0.04046332 -0.113179564 -0.08868371 -0.080352545 0.12179782 0.04661703 -0.08544346
0.0044123814 0.018115314 -0.13497038 0.13891108 0.050582014 -0.006819598 0.004850255 -0.015086
-0.06580525 -0.13482341 -0.04690275 -0.020647287 0.08092517 -0.13132903 0.045995265 0.006092597
-0.012340243 0.01777834 0.07461038 -0.08494665 0.1276473 -0.12086657 0.08977279 0.06751152
-0.09942596 -0.01940543 0.020529823 0.12942639 -0.114164725 0.06322521 0.13187128 0.113038026
0.07403546 0.00826148 -0.020578032 -0.010557019 -0.05607448 0.06961883 0.037721835 -0.07467703
0.1141909 -0.07292466 0.14686921 0.13678475 -0.12368814 0.09090301 0.1190133 0.10339469
0.06407292 -0.026492221 -0.114872605 0.030516407 -0.08715734 -0.01454407 -0.08679637 0.04361499
-0.026824366 -0.10376146 -0.07133066 -0.034454264 -0.04318176 -0.07335735 0.044952773 -0.012309106
0.1417851 -0.074794985 0.1008562 -0.0115062315 -0.06184796 -0.038071048 0.08090753 -0.010840499
0.07854328 -0.011928035 0.06627783 0.100906454 0.094532825 -0.08051585 0.021930806 0.004722111
0.11474858 -0.10775332 -0.086401656 -0.05073837 -0.060179222 -0.04994398 0.044228457 -0.06977669
-0.11749511 -0.06867239 -0.09696415 0.13291405 -0.07518719 0.05822749 -0.046038203 0.11824731
0.105717964 0.11229198 0.049042545 0.0337735 0.2064478 0.005826354 -0.07547037 0.060319647
-0.092124864 -0.09878289 0.07592473 0.106224924 -0.055481948 0.04726531 -0.12194165 0.13453613
0.058231957 0.119382344 0.13367008 0.022594506 0.044801164 0.057748824 0.02274019 0.10420914
0.06907528 0.09544005 0.12491878 0.13286403 -0.034154627 0.031138666 0.06703608 -0.11076569
0.099585 0.08244403 0.01647609 0.11670452 -0.023085631 0.04660669 -0.19719677 0.18751247
0.06515462 -0.013349288 0.077940345 0.09778692 -0.019080894 0.11392619 0.0051213866 0.09079071
-0.13637309 -0.02573836 0.13692127 0.108734086 0.13143472 0.014658955 0.088038646 0.025227424
0.042351846 0.119310364 -0.13050607 -0.13240731 -0.04235551 -0.111039974 -0.006051196 0.07483904
0.08836764 0.122444265 -0.06798643 -0.074453115 -0.09394959 -0.07739724 0.1039048 0.026330419
0.07119118 -0.030503415 0.008686973 0.018792745 0.090442255 -0.03391528 0.143548 -0.1256958
0.033005122 0.11695965 0.06556258 -0.06972309 -0.034138408 -0.05470574 0.13296744 0.08953514
0.033452507 0.0744133 -0.073235564 0.053839758 0.06652763 0.123743065 0.030871559 0.10629682
-0.0326277 0.055420816 0.07117393 0.083293796 0.03557444 -0.036284 0.021503473 -0.091233574
00000000: 3792 b2bb 59d0 afbd 9cd2 b2bd 67a6 6c3d
00000010: 7fde 5d3c ad15 9e3d 0ba8 aa3c 8cf9 ff3d
00000020: a927 b83d d84c e9bd 05f9 67bd 4fb0 173e
00000030: eb81 b1bd 6a11 dcbd 9afb fe3d 839d 02be
00000040: 486a 10bd b99c 3f3b d217 203d 8a2a 3bbc
00000050: f438 a5bd 8d77 fb3d e2a2 db3d 85f7 0e3e
00000060: fe53 493d 5f97 5a3d 03ff 63bd 9e29 24bc
00000070: f868 e6bd 4d1e babc 0da9 69bd 58bb ba3c
00000080: f0e3 a4bc 1b10 d03d 0819 9ebd 2be8 edbd
00000090: 94be 15bd eb0e d8bd 0c75 cb3b 0325 4d3e
000000a0: faab 003e 671d 493d b160 153d a8f4 543d
000000b0: 5833 87bd bf66 0b3e b5a9 d73d d8b1 d0bb
000000c0: 9306 493c debc 253d b0ca e7bd ce9f b5bd
000000d0: e08f a4bd 2371 f93d 80f1 3e3d fbfc aebd
000000e0: bd95 903b 9166 943c ad35 0abe b53e 0e3e
000000f0: 162f 4f3d ef76 dfbb e3ee 9e3b 452b 77bc
00000100: e7c4 86bd 260f 0abe 191d 40bd 8024 a9bc
00000110: 18bc a53d 1e7b 06be 8865 3c3d 68a4 c73b
00000120: bb2e 4abc e2a3 913c 54cd 983d 82f8 adbd
00000130: f9b5 023e e488 f7bd ccda b73d 7b43 8a3d
00000140: d69f cbbd 23f8 9ebc 292e a83c 5a88 043e
00000150: 32cf e9bd 387c 813d 4409 073e 7b80 e73d
00000160: e79f 973d 295b 073c 4393 a8bc 59f7 2cbc
00000170: 5bae 65bd 5194 8e3d 3682 1a3d 45f0 98bd
00000180: ebdc e93d 8659 95bd e264 163e 4d11 0c3e
00000190: 3550 fdbd 5b2b ba3d 3fbd f33d 98c0 d33d
000001a0: aa38 833d 3706 d9bc 5442 ebbd 8bfd f93c
000001b0: 8c7f b2bd 404a 6ebc 4cc2 b1bd a2a5 323d
000001c0: c6be dbbc e380 d4bd cf15 92bd ea1f 0dbd
000001d0: 5bdf 30bd 613c 96bd 6620 383d 22ac 49bc
000001e0: 1d30 113e 1d2e 99bd b28d ce3d a284 3cbc
000001f0: 4954 7dbd 63f0 1bbd d9b2 a53d 599c 31bc
00000200: 4ddb a03d ce6d 43bc acbc 873d 0ba8 ce3d
00000210: 6d9a c13d 7ee5 a4bd 3ca8 b33c f0bb 9a3b
00000220: 4e01 eb3d c6ad dcbd 5af3 b0bd 09d3 4fbd
00000230: 7d7e 76bd 0f92 4cbd e628 353d 15e7 8ebd
00000240: 47a1 f0bd 1ca4 8cbd 2495 c6bd 9f1a 083e
00000250: befb 99bd f37f 6e3d 8e92 3cbd a52b f23d
00000260: a982 d83d 56f9 e53d d6e0 483d 1556 0a3d
00000270: 0d67 533e 00eb be3b 3690 9abd bc11 773d
00000280: f6ab bcbd af4e cabd 6d7e 9b3d 748c d93d
00000290: 0a41 63bd 4599 413d 8bbc f9bd d7c3 093e
000002a0: a284 6e3d bb7e f43d cfe0 083e 1d18 b93c
000002b0: 6d81 373d 088a 6c3d a349 ba3c 9a6b d53d
000002c0: 5777 8d3d 1376 c33d 6bd5 ff3d 820d 083e
000002d0: b9e5 0bbd 8416 ff3c 364a 893d 1fd9 e2bd
000002e0: 38f3 cb3d 6ad8 a83d ddf8 863c c802 ef3d
000002f0: 141e bdbc a8e6 3e3d f3ed 49be 4503 403e
00000300: c96f 853d f9b6 5abc 309f 9f3d 8244 c83d
00000310: 894f 9cbc 2252 e93d 4ed1 a73b 7bf0 b93d
00000320: 63a5 0bbe 41d9 d2bc 1735 0c3e faaf de3d
00000330: d396 063e 1d2c 703c 9b4d b43d bea9 ce3c
00000340: 2179 2d3d fe58 f43d 62a3 05be c895 07be
00000350: f97c 2dbd ed68 e3bd 1c49 c6bb 3645 993d
00000360: 18fa b43d 0fc4 fa3d 783c 8bbd e07a 98bd
00000370: a568 c0bd 7282 9ebd 0acc d43d e4b2 d73c
00000380: aecc 913d 4ce2 f9bc ce53 0e3c 3ef3 993c
00000390: ca39 b93d c0ea 0abd 3ffe 123e 66b6 00be
000003a0: 6130 073d 8a88 ef3d ad45 863d fbca 8ebd
000003b0: b7d4 0bbd 2013 60bd 9e28 083e 335e b73d
000003c0: 7f05 093d 0066 983d 87fc 95bd 1487 5c3d
000003d0: a33f 883d 016d fd3d 5ae6 fc3c 26b2 d93d
000003e0: a0a4 05bd f000 633d a3c3 913d f095 aa3d
000003f0: 81b6 113d 889e 14bd 0d28 b03c abd8 babd

lstm.weight_hh_l0 f4 [200, 50]
0.13971384 0.114438474 -0.033889182 0.071150474 -0.059606515 0.028231893 -0.12812442 -0.094548635
-0.10527103 -0.035376795 -0.048235778 0.09350619 -0.031549335 -0.066119835 0.07371248 -0.029886287
0.0028958279 0.043020073 0.08821024 0.029481856 0.04697656 -0.05663979 0.094130315 -0.10876475
0.0432042 -0.06980667 -0.08531878 -0.059569046 0.073042616 0.09590855 -0.14107767 0.08581509
-0.13613245 -0.018554498 0.083659485 -0.07307177 -0.02911934 -0.08880083 0.05457632 -0.1064378
-0.012326343 0.08565951 0.06888165 -0.028409291 -0.08448521 0.0034526107 0.1374336 0.07384178
-0.08337275 0.13535535 0.085156366 -0.13978226 0.10538965 0.061036974 -0.0257585 0.07779208
0.039814837 -0.02363868 -0.06675129 -0.014266504 -0.0131249195 0.05318657 0.07119075 0.12704653
-0.032893572 -0.0740541 0.06608162 -0.12130574 0.12892997 -0.021674749 -0.10545152 -0.015668072
-0.08277485 -0.0794624 0.08680478 -0.004081096 -0.05166324 -0.114133395 0.124977745 -0.03169933
-0.0064423396 -0.04299493 0.081005886 -0.11993501 -0.10199081 -0.0026988133 -0.05775852 -0.06647197
0.043457005 -0.051231716 -0.0414588 -0.043618876 0.015558473 -0.047574986 -0.01892083 0.06261885
0.02533832 -0.07170051 0.045042112 0.095870994 0.04160775 0.02358975 0.027092198 -0.05715014
0.05736369 -0.093110666 -0.080235995 0.010277449 0.060376577 -0.008124349 0.11685668 0.08020281
-0.0018732294 0.07913934 0.05271493 0.12987807 -0.059502102 -0.09316637 0.053761043 0.13117626
0.047430795 -0.025669666 0.013594037 0.12780899 0.10570293 -0.07266278 -0.13186198 -0.06905385
0.1214105 0.036895417 0.042138644 0.13561551 -0.009977577 -0.10422068 -0.12750632 -0.0060861004
0.032207556 0.0026267576 0.036361355 -0.06969103 -0.005273594 0.051116124 -0.12595461 -0.075004674
0.08641767 0.13930723 0.020143094 -0.023724804 -0.08290972 -0.109270655 0.09521991 0.06254256
0.13022721 -0.026269048 0.07031257 -0.12805966 -0.1305817 -0.088118464 0.07382729 0.06985693
0.09049814 0.055583496 -0.08290791 0.120428845 0.077485785 -0.005289554 0.08223215 0.012649307
-0.041434374 -0.059140574 0.096326254 -0.0074122217 0.083934024 0.09030909 0.11717662 -0.12066349
-0.077121496 -0.0032816 -0.05562603 -0.09680652 0.07233784 0.034401447 -0.07285352 0.08571218
0.1102522 0.038476102 0.05261751 -0.12015863 0.017090902 0.100441836 -0.012227997 -0.11192439
-0.08328651 0.05202712 0.10185078 0.10392539 8.929558e-05 -0.024687102 -0.017010644 -0.022438072
-0.02848551 -0.08294585 -0.07058832 0.112622865 -0.020879678 -0.07827198 0.07541738 0.047687113
0.08387575 0.011243121 0.1405262 -0.07274387 -0.08671057 0.13789709 -0.05286369 -0.07850217
-0.048087403 0.13244162 -0.02322876 -0.08127875 -0.1306937 0.040039603 0.06437633 -0.002207172
0.1115052 -0.06610318 0.06253802 -0.062229037 0.095616706 -0.10046777 -0.10105609 0.11611276
-0.041637737 0.067738876 -0.0560407 0.045695964 0.10698392 0.085096724 0.13384064 0.097899154
0.09635347 -0.09814556 0.09776194 -0.038493805 0.043928117 -0.06613582 -0.10507364 0.09882902
0.10751785 0.034236684 0.02282244 0.04569444 -0.004309724 -0.13731529 -0.03945815 0.08543784
00000000: 2511 0f3e b85e ea3d 62cf 0abd 57b7 913d
00000010: f625 74bd 9246 e73c 0c33 03be b7a2 c1bd
00000020: 5698 d7bd 42e7 10bd e192 45bd 2c80 bf3d
00000030: e039 01bd d669 87bd 92f6 963d 16d4 f4bc
00000040: eec7 3d3b d135 303d 92a7 b43d ef83 f13c
00000050: 7e6a 403d 20ff 67bd 65c7 c03d 0ec0 debd
00000060: e3f6 303d cdf6 8ebd 9dbb aebd acfe 73bd
00000070: 5e97 953d b46b c43d aa76 10be d2bf af3d
00000080: 4e66 0bbe 9aff 97bc aa55 ab3d a7a6 95bd
00000090: af8b eebc 36dd b5bd 6b8b 5f3d 10fc d9bd
000000a0: 6ef4 49bc 416e af3d d311 8d3d 9aba e8bc
000000b0: 9506 adbd 3245 623b 65bb 0c3e 5c3a 973d
000000c0: 55bf aabd 989a 0a3e 7666 ae3d 1523 0fbe
000000d0: 87d6 d73d e801 7a3d 7d03 d3bc 7451 9f3d
000000e0: e214 233d e8a5 c1bc e6b4 88bd 0ebe 69bc
000000f0: e709 57bc 29da 593d 75cc 913d 7c18 023e
00000100: 69bb 06bd ada9 97bd cd55 873d 256f f8bd
00000110: 3806 043e 3e8f b1bc f7f6 d7bd 545a 80bc
00000120: dc85 a9bd 2fbd a2bd b4c6 b13d b7ba 85bb
00000130: d59c 53bd c5be e9bd 55f4 ff3d 28d7 01bd
00000140: 431a d3bb 741b 30bd 6ae6 a53d 7da0 f5bd
00000150: 8fe0 d0bd 93de 30bb 3394 6cbd 7522 88bd
00000160: f9ff 313d 59d8 51bd b4d0 29bd b5a9 32bd
00000170: f7e8 7e3c fddd 42bd dbff 9abc 503e 803d
00000180: 4f92 cf3c b8d7 92bd 147e 383d 0358 c43d
00000190: e36c 2a3d 4b3f c13c 75f0 dd3c 4416 6abd
000001a0: 30f6 6a3d ceb0 bebd c552 a4bd bf62 283c
000001b0: 6e4d 773d fd1b 05bc 8e52 ef3d 5f41 a43d
000001c0: 2687 f5ba ce13 a23d 9ceb 573d c2fe 043e
000001d0: 7ab8 73bd 03ce bebd 8a34 5c3d 1253 063e
000001e0: cb46 423d 3149 d2bc 86b9 5e3c 5ce0 023e
000001f0: c77a d83d 39d0 94bd d406 07be 1b6c 8dbd
00000200: 11a6 f83d a61f 173d 9299 2c3d cbde 0a3e
00000210: fe78 23bc a771 d5bd 0491 02be e96d c7bb
00000220: 12ec 033d ae25 2c3b a5ef 143d 2cba 8ebd
00000230: 1dce acbb 245f 513d 3ffa 00be 0d9c 99bd
00000240: bffb b03d 8ea6 0e3e 2103 a53c 855a c2bc
00000250: 92cc a9bd 4bc9 dfbd a802 c33d 5016 803d
00000260: 485a 053e 3032 d7bc 0900 903d 1222 03be
00000270: 36b7 05be 7477 b4bd c332 973d 2611 8f3d
00000280: 1757 b93d 85ab 633d 9fcb a9bd 66a3 f63d
00000290: deb0 9e3d ff53 adbb 5469 a83d 0a3f 4f3c
000002a0: 17b7 29bd 633d 72bd b346 c53d 39e2 f2bb
000002b0: 9ae5 ab3d f9f3 b83d 4cfa ef3d 6b1e f7bd
000002c0: e0f1 9dbd 1d10 57bb 1fd8 63bd 7f42 c6bd
000002d0: dd25 943d 88e8 0c3d 3a34 95bd de89 af3d
000002e0: e8cb e13d 1e99 1d3d 7585 573d ba15 f6bd
000002f0: 3802 8c3c 73b4 cd3d f057 48bc 9d38 e5bd
00000300: 1e92 aabd 641a 553d 2497 d03d d6d6 d43d
00000310: 3344 bb38 9b3c cabc e859 8bbc 0cd0 b7bc
00000320: 725a e9bc 84df a9bd 9c90 90bd d1a6 e63d
00000330: dc0b abbc 0f4d a0bd 6d74 9a3d 9053 433d
00000340: 0dc7 ab3d 1135 383c 1ae6 0f3e bdfa 94bd
00000350: 5095 b1bd e534 0d3e 9987 58bd bfc5 a0bd
00000360: 4cf7 44bd c79e 073e 3e4a bebc 7975 a6bd
00000370: 92d4 05be 9100 243d bdd7 833d 34a6 10bb
00000380: d75c e43d 1b61 87bd ef13 803d e0e3 7ebd
00000390: b1d2 c33d 0cc2 cdbd 7ff6 cebd 87cc ed3d
000003a0: 558c 2abd aeba 8a3d ef8a 65bd b12b 3b3d
000003b0: 631a db3d 3147 ae3d 850d 093e 5a7f c83d
000003c0: f854 c53d 8a00 c9bd 6937 c83d aeab 1dbd
000003d0: f8ed 333d 3772 87bd d930 d7bd df66 ca3d
000003e0: 5232 dc3d c43b 0c3d 20f6 ba3c 182a 3b3d
000003f0: 9638 8dbb 619c 0cbe de9e 21bd 09fa ae3d

lstm.bias_ih_l0 f4 [200]
-0.049960077 -0.0071106255 0.06516751 0.08512984 -0.13854317 -0.11983728 -0.06996274 0.10651651
0.010613714 -0.002507054 -0.12637955 0.060487464 -0.0795065 -0.07685375 0.122788556 0.10749333
-0.09280311 -0.088095434 -0.02926243 0.0838169 0.06836239 0.115408994 0.090906166 0.096117906
0.029136617 0.030041957 0.093329296 0.12535113 -0.014399709 -0.083771 -0.042607743 0.12918025
0.020323742 -0.093759574 -0.024178885 -0.035735566 0.1310788 -0.1205919 0.015742686 0.039174035
-0.08045049 -0.09366891 -0.12443621 -0.00061657303 0.07919684 0.05581709 0.08469097 -0.03093615
0.119744256 0.092389904 -0.0029164362 0.062080838 -0.028794777 0.16864127 0.12646908 -0.031397164
0.020809565 0.012681261 -0.11118345 0.150304 -0.06054648 -0.062108096 -0.02308241 -0.11494695
0.114890836 -0.115147226 -0.13316037 0.013361337 -0.0766405 0.075138114 -0.0521688 0.1389688
0.009037712 0.048587717 0.06389734 0.06215902 -0.12205411 -0.0034296077 -0.07127009 -0.07836033
-0.051737107 0.012566767 -0.015317933 0.0075064586 -0.08423972 -0.008688804 0.110772274 -0.10420564
-0.09002914 -0.06578259 -0.018860308 -0.118292 -0.037032433 -0.010249069 -0.011304709 -0.026796935
0.04687941 0.027955668 -0.051677644 -0.10092309 -0.15007791 -0.090343714 -0.10518348 -0.0007904756
0.07968722 0.13443048 -0.07230989 0.0294193 -0.012551999 0.008377615 0.12647656 0.11932405
0.10624016 -0.05846157 0.11161958 -0.11805349 -0.016992263 0.11453318 -0.008244029 0.029470991
0.15990104 0.06710064 -0.061182164 0.0638525 0.1053734 0.13210478 0.0058747926 -0.080355816
0.13072924 -0.12121013 -0.03719323 0.077272385 0.14149423 -0.07269704 0.14305884 0.10579806
-0.12061546 -0.084725685 0.11012996 0.119288646 0.07896056 0.010654659 0.08300166 0.050963692
0.10543447 0.031494427 -0.099031016 0.13143235 0.014031699 0.028335726 -0.030496525 -0.005603582
0.11755531 0.042504754 0.0048589036 0.06347631 0.040745087 -0.0025070356 -0.06289102 -0.097795635
-0.12537546 -0.0605111 0.15402396 0.042944517 -0.02641743 0.052875187 -0.07226643 -0.1282658
0.1115769 -0.13558574 0.09463824 0.0066812877 0.11659881 -0.019538088 -0.041810192 -0.024054248
0.08865085 -0.063448705 0.04487032 -0.11259448 -0.027531251 0.07786205 0.12664255 -0.09200559
-0.03591045 0.09614701 -0.07074392 0.031182095 -0.119491726 0.036695037 -0.04035462 0.13173518
0.061730426 0.09195363 -0.056230452 -0.08435204 -0.083896816 0.09219433 0.10851648 -0.06308909
00000000: f0a2 4cbd 4000 e9bb 8b76 853d 8e58 ae3d
00000010: 43de 0dbe 3f6d f5bd a048 8fbd 5425 da3d
00000020: 25e5 2d3c 634d 24bb a469 01be b4c1 773d
00000030: 4ed4 a2bd 8065 9dbd 9178 fb3d 7725 dc3d
00000040: 8f0f bebd 616b b4bd c3b7 efbc 32a8 ab3d
00000050: 9501 8c3d 8d5b ec3d 032d ba3d 77d9 c43d
00000060: eaaf ee3c 8d1a f63c 6e23 bf3d 0c5c 003e
00000070: c2ec 6bbc 2190 abbd 7585 2ebd d447 043e
00000080: fa7d a63c 0505 c0bd cc12 c6bc 755f 12bd
00000090: 8539 063e e3f8 f6bd cef6 803c f474 203d
000000a0: 3ac3 a4bd 7cd5 bfbd 69d8 febd 84a1 21ba
000000b0: f431 a23d 76a0 643d 7672 ad3d cf6d fdbc
000000c0: 7a3c f53d eb36 bd3d ae21 3fbb 7a48 7e3d
000000d0: 06e3 ebbc 4cb0 2c3e 1c81 013e 509a 00bd
000000e0: d278 aa3c 10c5 4f3c 26b4 e3bd 4be9 193e
000000f0: 96ff 77bd 0f65 7ebd 5317 bdbc 4e69 ebbd
00000100: e34b eb3d 4fd2 ebbd 315b 08be 82e9 5a3c
00000110: b2f5 9cbd 03e2 993d f4ae 55bd d64d 0e3e
00000120: e912 143c ea03 473d 9cdc 823d 759a 7e3d
00000130: 81f7 f9bd 45c3 60bb 0ef6 91bd 617b a0bd
00000140: 4aea 53bd d7e4 4d3c 11f8 7abc bdf8 f53b
00000150: e085 acbd 7c5b 0ebc 93dc e23d c469 d5bd
00000160: 3361 b8bd 06b9 86bd ef80 9abc 1343 f2bd
00000170: 52af 17bd b6eb 27bc 6337 39bc 3f85 dbbc
00000180: a004 403d 4903 e53c f0ab 53bd c4b0 cebd
00000190: 06ae 19be 2006 b9bd 706a d7bd eb37 4fba
000001a0: 0e33 a33d 25a8 093e 3517 94bd be00 f13c
000001b0: e6a6 4dbc 4442 093c 1283 013e 2b60 f43d
000001c0: 7194 d93d 6675 6fbd ce98 e43d 07c6 f1bd
000001d0: 5c33 8bbc 5f90 ea3d f711 07bc 266d f13c
000001e0: 19bd 233e 0f6c 893d 269a 7abd 19c5 823d
000001f0: 02ce d73d 7a46 073e 5581 c03b 9791 a4bd
00000200: e3dd 053e 043d f8bd ee57 18bd fc40 9e3d
00000210: dde3 103e 30e2 94bd 047e 123e a7ac d83d
00000220: 3d05 f7bd a984 adbd d18b e13d 9b4d f43d
00000230: 13b6 a13d e190 2e3c c6fc a93d 4ebf 503d
00000240: 07ee d73d 4d00 013d c6d0 cabd 3496 063e
00000250: 36e5 653c 5320 e83c d9d3 f9bc 419e b7bb
00000260: d7c0 f03d 7719 2e3d 7037 9f3b deff 813d
00000270: 52e4 263d 144d 24bb 02cd 80bd 1449 c8bd
00000280: 6d62 00be 7dda 77bd 75b8 1d3e 97e6 2f3d
00000290: 5e69 d8bc a793 583d 6c00 94bd 1c58 03be
000002a0: 6e82 e43d fdd6 0abe b2d1 c13d b4ee da3b
000002b0: 5bcb ee3d 570e a0bc 2a41 2bbd 6a0d c5bc
000002c0: 948e b53d 65f1 81bd f1c9 373d ef97 e6bd
000002d0: 3889 e1bc 2376 9f3d 96ae 013e 6d6d bcbd
000002e0: d616 13bd b9e8 c43d 30e2 90bd 9871 ff3c
000002f0: 14b8 f4bd 894d 163d e34a 25bd 96e5 063e
00000300: 0bd9 7c3d 2f52 bc3d e751 66bd c3c0 acbd
00000310: 18d2 abbd 62d0 bc3d e33d de3d da34 81bd

lstm.bias_hh_l0 f4 [200]
0.13518688 -0.026847705 0.030897284 0.010906548 0.005158645 0.09728109 0.092490226 -0.07443874
-0.021123167 -0.08079306 -0.09854803 -0.12335679 0.061318047 0.12109095 0.09771326 0.07030547
0.03816631 -0.023940237 -0.07233514 0.10668502 0.04170462 0.13949832 0.0077070277 -0.08943247
-0.10239247 0.01108337 0.12729183 0.07882741 0.05943386 0.11541006 0.09963429 -0.05890143
0.11526295 -0.026070522 -0.13348414 -0.107566975 0.10451006 0.1237407 -0.07092334 -0.09792206
-0.07416567 0.08230353 -0.12496844 -0.11627702 -0.07137616 0.042598844 0.12902282 0.12701091
-0.06390722 -0.075618185 0.08605714 0.06583474 -0.055037435 0.01457179 0.103025086 -0.09357827
0.005508188 0.0645257 0.12622349 0.021375531 0.13850601 0.056601282 -0.10512594 0.088367134
0.09593842 0.04518872 -0.04193536 -0.018611314 -0.12316402 -0.09256672 -0.0973035 0.06363494
0.11006767 -0.106365584 -0.01722072 -0.008139602 -0.10992266 0.06683325 0.12388632 -0.13795336
-0.09413069 0.0025531482 0.14437617 -0.04293167 0.03828731 -0.052276816 -0.06364478 -0.11890936
-0.10328038 0.04067411 0.087718 -0.114625625 0.10179167 0.027395187 -0.008175598 -0.025085006
0.11736623 -0.052057546 -0.12338515 0.04539899 -0.00199626 0.045624822 0.024578536 -0.068273805
0.010977851 -0.049586166 -0.023345197 0.031070627 0.03712873 -0.14641055 0.036526628 -0.024137497
-0.09046111 0.03751 -0.040879738 0.13156225 0.013212678 0.09051124 -0.11709067 0.008935452
-0.060301844 -0.14955166 -0.16052921 0.076436706 0.06395804 -0.093174554 -0.07491671 0.043911263
0.0015019862 -0.029579561 -0.13584477 -0.009602311 -0.032018416 -0.08554296 -0.02506917 -0.07097092
-0.06357441 -0.011941579 0.00993981 0.078995585 -0.07856 -0.15390173 0.07873849 0.0037884298
0.04069252 0.05217319 -0.063064344 -0.0023155347 0.09028386 0.014562835 -0.054803483 0.049474496
0.035800423 0.137425 0.041418836 0.10669643 -0.02278088 -0.10958675 0.023901692 0.06587204
0.049009595 -0.029722344 -0.0021261212 0.12947133 0.054907985 0.015265706 0.12955946 0.13435094
-0.10111073 -0.09918841 -0.028146246 0.085874215 0.11364841 0.1432819 -0.07023166 -0.11958759
-0.12701896 0.1557524 0.1380715 -0.03196988 -0.1149321 -0.045022987 -0.051822767 -0.122399926
-0.13602686 -0.13030866 -0.07789511 0.014725711 -0.02776377 -0.0191562 -0.034043062 0.13853185
0.09211014 0.1217717 -0.014482285 0.035986084 0.04009246 -0.09224231 -0.088961765 -0.11703533
00000000: 6e6e 0a3e b8ef dbbc 4d1c fd3c 61b1 323c
00000010: da09 a93b 4f3b c73d 846b bd3d 5773 98bd
00000020: 7e0a adbc d576 a5bd 8dd3 c9bd 7ca2 fcbd
00000030: a228 7b3d 88fe f73d e41d c83d 50fc 8f3d
00000040: 4754 1c3d 511e c4bc 7224 94bd ad7d da3d
00000050: 77d2 2a3d a6d8 0e3e 3c8b fc3b 5f28 b7bd
00000060: 25b3 d1bd 0697 353c ca58 023e 4470 a13d
00000070: eb70 733d 1c5c ec3d 100d cc3d a042 71bd
00000080: fb0e ec3d d991 d5bc 11b0 08be 134c dcbd
00000090: 5f09 d63d c46b fd3d 4240 91bd 5c8b c8bd
000000a0: 2ce4 97bd c18e a83d 74ef ffbd a522 eebd
000000b0: aa2d 92bd 207c 2e3d 8f1e 043e 260f 023e
000000c0: cae1 82bd b5dd 9abd ba3e b03d 5dd4 863d
000000d0: ef6e 61bd 84be 6e3c d1fe d23d f7a5 bfbd
000000e0: 087e b43b 0d26 843d bb40 013e bd1b af3c
000000f0: 85d4 0d3e bfd6 673d 454c d7bd d4f9 b43d
00000100: 5d7b c43d cf17 393d 69c4 2bbd c176 98bc
00000110: 6b3d fcbd 9f93 bdbd 0f47 c7bd 0953 823d
00000120: 296b e13d 33d6 d9bd 7812 8dbc f75b 05bc
00000130: 221f e1bd dfdf 883d 1cb8 fd3d a543 0dbe
00000140: 97c7 c0bd b852 273b 59d7 133e 1ed9 2fbd
00000150: 28d3 1c3d 3720 56bd 3258 82bd c086 f3bd
00000160: aa84 d3bd e599 263d 7fa5 b33d d7c0 eabd
00000170: 2778 d03d df6b e03c f2f2 05bc 127f cdbc
00000180: b55d f03d 4b3a 55bd 5bb1 fcbd 4bf4 393d
00000190: afd3 02bb 18e1 3a3d ed58 c93c 23d3 8bbd
000001a0: 72dc 333c dd1a 4bbd 6d3e bfbc d487 fe3c
000001b0: 4c14 183d a6ec 15be f29c 153d 00bc c5bc
000001c0: ad43 b9bd 16a4 193d 8371 27bd 41b8 063e
000001d0: fd79 583c f55d b93d 3ccd efbd 0166 123c
000001e0: 11ff 76bd 1224 19be c561 24be d98a 9c3d
000001f0: 6ffc 823d 4dd2 bebd ef6d 99bd 4cdc 333d
00000200: 4bde c43a d650 f2bc e41a 0bbe 0353 1dbc
00000210: be25 03bd 2631 afbd dc5d cdbc 3459 91bd
00000220: 4d33 82bd 9da6 43bc 96da 223c 70c8 a13d
00000230: 11e4 a0bd 6a98 1dbe a541 a13d 4e47 783b
00000240: 33ad 263d 8eb3 553d e127 81bd 3ac0 17bb
00000250: bfe6 b83d f598 6e3c 9e79 60bd c5a5 4a3d
00000260: 77a3 123d 24b9 0c3e cca6 293d a883 da3d
00000270: f89e babc 056f e0bd 7bcd c33c ece7 863d
00000280: 49be 483d 467c f3bc 6556 0bbb 2294 043e
00000290: 32e7 603d 031d 7a3c 3cab 043e 4b93 093e
000002a0: 2413 cfbd 4b23 cbbd f592 e6bc d2de af3d
000002b0: 7fc0 e83d 7eb8 123e 9ed5 8fbd 57ea f4bd
000002c0: 4211 02be 8f7d 1f3e 9e62 0d3e d9f2 02bd
000002d0: 8561 ebbd 066a 38bd 1c44 54bd d0ac fabd
000002e0: a04a 0bbe a26f 05be 7987 9fbd 1c44 713c
000002f0: d970 e3bc 77ed 9cbc bd70 0bbd 4bdb 0d3e
00000300: 3ea4 bc3d 7163 f93d 1b47 6dbc 2566 133d
00000310: fe37 243d 89e9 bcbd 9631 b6bd 38b0 efbd

mambaLayer.A_log f4 [56, 16]
0.0 0.6931472 1.0986123 1.3862944 1.609438 1.7917595 1.9459102 2.0794415
2.1972246 2.3025851 2.3978953 2.4849067 2.5649493 2.6390574 2.7080503 2.7725887
0.0 0.6931472 1.0986123 1.3862944 1.609438 1.7917595 1.9459102 2.0794415
2.1972246 2.3025851 2.3978953 2.4849067 2.5649493 2.6390574 2.7080503 2.7725887
0.0 0.6931472 1.0986123 1.3862944 1.609438 1.7917595 1.9459102 2.0794415
2.1972246 2.3025851 2.3978953 2.4849067 2.5649493 2.6390574 2.7080503 2.7725887
0.0 0.6931472 1.0986123 1.3862944 1.609438 1.7917595 1.9459102 2.0794415
2.1972246 2.3025851 2.3978953 2.4849067 2.5649493 2.6390574 2.7080503 2.7725887
0.0 0.6931472 1.0986123 1.3862944 1.609438 1.7917595 1.9459102 2.0794415
2.1972246 2.3025851 2.3978953 2.4849067 2.5649493 2.6390574 2.7080503 2.7725887
0.0 0.6931472 1.0986123 1.3862944 1.609438 1.7917595 1.9459102 2.0794415
2.1972246 2.3025851 2.3978953 2.4849067 2.5649493 2.6390574 2.7080503 2.7725887
0.0 0.6931472 1.0986123 1.3862944 1.609438 1.7917595 1.9459102 2.0794415
2.1972246 2.3025851 2.3978953 2.4849067 2.5649493 2.6390574 2.7080503 2.7725887
0.0 0.6931472 1.0986123 1.3862944 1.609438 1.7917595 1.9459102 2.0794415
2.1972246 2.3025851 2.3978953 2.4849067 2.5649493 2.6390574 2.7080503 2.7725887
0.0 0.6931472 1.0986123 1.3862944 1.609438 1.7917595 1.9459102 2.0794415
2.1972246 2.3025851 2.3978953 2.4849067 2.5649493 2.6390574 2.7080503 2.7725887
0.0 0.6931472 1.0986123 1.3862944 1.609438 1.7917595 1.9459102 2.0794415
2.1972246 2.3025851 2.3978953 2.4849067 2.5649493 2.6390574 2.7080503 2.7725887
0.0 0.6931472 1.0986123 1.3862944 1.609438 1.7917595 1.9459102 2.0794415
2.1972246 2.3025851 2.3978953 2.4849067 2.5649493 2.6390574 2.7080503 2.7725887
0.0 0.6931472 1.0986123 1.3862944 1.609438 1.7917595 1.9459102 2.0794415
2.1972246 2.3025851 2.3978953 2.4849067 2.5649493 2.6390574 2.7080503 2.7725887
0.0 0.6931472 1.0986123 1.3862944 1.609438 1.7917595 1.9459102 2.0794415
2.1972246 2.3025851 2.3978953 2.4849067 2.5649493 2.6390574 2.7080503 2.7725887
0.0 0.6931472 1.0986123 1.3862944 1.609438 1.7917595 1.9459102 2.0794415
2.1972246 2.3025851 2.3978953 2.4849067 2.5649493 2.6390574 2.7080503 2.7725887
0.0 0.6931472 1.0986123 1.3862944 1.609438 1.7917595 1.9459102 2.0794415
2.1972246 2.3025851 2.3978953 2.4849067 2.5649493 2.6390574 2.7080503 2.7725887
0.0 0.6931472 1.0986123 1.3862944 1.609438 1.7917595 1.9459102 2.0794415
2.1972246 2.3025851 2.3978953 2.4849067 2.5649493 2.6390574 2.7080503 2.7725887
00000000: 0000 0000 1872 313f 549f 8c3f 1872 b13f
00000010: 1002 ce3f 6058 e53f 9613 f93f 9215 0540
00000020: 549f 0c40 8e5d 1340 1e77 1940 b608 1f40
00000030: 2128 2440 51e6 2840 b250 2d40 1872 3140
00000040: 0000 0000 1872 313f 549f 8c3f 1872 b13f
00000050: 1002 ce3f 6058 e53f 9613 f93f 9215 0540
00000060: 549f 0c40 8e5d 1340 1e77 1940 b608 1f40
00000070: 2128 2440 51e6 2840 b250 2d40 1872 3140
00000080: 0000 0000 1872 313f 549f 8c3f 1872 b13f
00000090: 1002 ce3f 6058 e53f 9613 f93f 9215 0540
000000a0: 549f 0c40 8e5d 1340 1e77 1940 b608 1f40
000000b0: 2128 2440 51e6 2840 b250 2d40 1872 3140
000000c0: 0000 0000 1872 313f 549f 8c3f 1872 b13f
000000d0: 1002 ce3f 6058 e53f 9613 f93f 9215 0540
000000e0: 549f 0c40 8e5d 1340 1e77 1940 b608 1f40
000000f0: 2128 2440 51e6 2840 b250 2d40 1872 3140
00000100: 0000 0000 1872 313f 549f 8c3f 1872 b13f
00000110: 1002 ce3f 6058 e53f 9613 f93f 9215 0540
00000120: 549f 0c40 8e5d 1340 1e77 1940 b608 1f40
00000130: 2128 2440 51e6 2840 b250 2d40 1872 3140
00000140: 0000 0000 1872 313f 549f 8c3f 1872 b13f
00000150: 1002 ce3f 6058 e53f 9613 f93f 9215 0540
00000160: 549f 0c40 8e5d 1340 1e77 1940 b608 1f40
00000170: 2128 2440 51e6 2840 b250 2d40 1872 3140
00000180: 0000 0000 1872 313f 549f 8c3f 1872 b13f
00000190: 1002 ce3f 6058 e53f 9613 f93f 9215 0540
000001a0: 549f 0c40 8e5d 1340 1e77 1940 b608 1f40
000001b0: 2128 2440 51e6 2840 b250 2d40 1872 3140
000001c0: 0000 0000 1872 313f 549f 8c3f 1872 b13f
000001d0: 1002 ce3f 6058 e53f 9613 f93f 9215 0540
000001e0: 549f 0c40 8e5d 1340 1e77 1940 b608 1f40
000001f0: 2128 2440 51e6 2840 b250 2d40 1872 3140
00000200: 0000 0000 1872 313f 549f 8c3f 1872 b13f
00000210: 1002 ce3f 6058 e53f 9613 f93f 9215 0540
00000220: 549f 0c40 8e5d 1340 1e77 1940 b608 1f40
00000230: 2128 2440 51e6 2840 b250 2d40 1872 3140
00000240: 0000 0000 1872 313f 549f 8c3f 1872 b13f
00000250: 1002 ce3f 6058 e53f 9613 f93f 9215 0540
00000260: 549f 0c40 8e5d 1340 1e77 1940 b608 1f40
00000270: 2128 2440 51e6 2840 b250 2d40 1872 3140
00000280: 0000 0000 1872 313f 549f 8c3f 1872 b13f
00000290: 1002 ce3f 6058 e53f 9613 f93f 9215 0540
000002a0: 549f 0c40 8e5d 1340 1e77 1940 b608 1f40
000002b0: 2128 2440 51e6 2840 b250 2d40 1872 3140
000002c0: 0000 0000 1872 313f 549f 8c3f 1872 b13f
000002d0: 1002 ce3f 6058 e53f 9613 f93f 9215 0540
000002e0: 549f 0c40 8e5d 1340 1e77 1940 b608 1f40
000002f0: 2128 2440 51e6 2840 b250 2d40 1872 3140
00000300: 0000 0000 1872 313f 549f 8c3f 1872 b13f
00000310: 1002 ce3f 6058 e53f 9613 f93f 9215 0540
00000320: 549f 0c40 8e5d 1340 1e77 1940 b608 1f40
00000330: 2128 2440 51e6 2840 b250 2d40 1872 3140
00000340: 0000 0000 1872 313f 549f 8c3f 1872 b13f
00000350: 1002 ce3f 6058 e53f 9613 f93f 9215 0540
00000360: 549f 0c40 8e5d 1340 1e77 1940 b608 1f40
00000370: 2128 2440 51e6 2840 b250 2d40 1872 3140
00000380: 0000 0000 1872 313f 549f 8c3f 1872 b13f
00000390: 1002 ce3f 6058 e53f 9613 f93f 9215 0540
000003a0: 549f 0c40 8e5d 1340 1e77 1940 b608 1f40
000003b0: 2128 2440 51e6 2840 b250 2d40 1872 3140
000003c0: 0000 0000 1872 313f 549f 8c3f 1872 b13f
000003d0: 1002 ce3f 6058 e53f 9613 f93f 9215 0540
000003e0: 549f 0c40 8e5d 1340 1e77 1940 b608 1f40
000003f0: 2128 2440 51e6 2840 b250 2d40 1872 3140

mambaLayer.D f4 [56]
1.0118254 0.99933976 1.0019687 0.9996026 1.0001205 0.9994772 1.0003413 1.0005664
1.0014459 1.003379 1.006399 0.99840087 1.0028688 1.000803 0.9997976 1.0043732
1.0039668 0.99998206 1.0024425 0.9994255 1.0002571 1.0005212 0.9989031 1.0024426
0.99925244 0.9994527 0.9999307 1.0035228 1.0005777 0.9998741 1.0095229 0.99974525
0.99999714 0.9997536 1.0020066 1.0002155 0.999963 1.0032073 0.9999669 0.9976813
1.001714 1.2998056 1.0004352 0.99949855 1.0000345 0.99947727 0.9981987 1.0049082
1.000117 0.99626505 0.9999249 0.99851686 0.9999236 0.9897202 0.99949455 1.004323
00000000: 7f83 813f bbd4 7f3f 8340 803f f5e5 7f3f
00000010: f303 803f bddd 7f3f 2f0b 803f 8f12 803f
00000020: 612f 803f b96e 803f afd1 803f 3397 7f3f
00000030: 015e 803f 501a 803f bcf2 7f3f 4d8f 803f
00000040: fc81 803f d3fe 7f3f 0950 803f 59da 7f3f
00000050: 6d08 803f 1411 803f 1db8 7f3f 0a50 803f
00000060: 02cf 7f3f 22dc 7f3f 75fb 7f3f 6f73 803f
00000070: ee12 803f c0f7 7f3f 0c38 813f 4eef 7f3f
00000080: d0ff 7f3f daef 7f3f c141 803f 1007 803f
00000090: 93fd 7f3f 1969 803f d5fd 7f3f 0b68 7f3f
000000a0: 2a38 803f 0860 a63f 430e 803f 23df 7f3f
000000b0: 2101 803f bedd 7f3f f389 7f3f d5a0 803f
000000c0: d503 803f 3a0b 7f3f 14fb 7f3f cd9e 7f3f
000000d0: fefa 7f3f 4e5e 7d3f e0de 7f3f a88d 803f

mambaLayer.in_proj.weight f4 [112, 56]
-0.13223398 -0.02053313 -0.046030708 -0.023743926 -0.07562535 -0.06661196 -0.013290516 -0.03869914
-0.12238978 0.029033152 0.0025008782 0.11897449 -0.0034793245 -0.12812583 0.13126871 -0.1119896
0.05514867 -0.07134037 -0.072984606 0.012252499 -0.016926287 0.06376965 -0.121975705 0.125222
0.05380144 -0.12664928 0.042659447 -0.07769565 0.058182277 -0.09000822 -0.0035869575 0.12243157
0.10959021 -0.050518353 0.08774077 0.12143538 0.11212345 0.055671908 -0.031727362 -0.092517324
0.031058103 -0.09891449 -0.0021608458 -0.07360185 -0.07159042 0.011459973 0.06876759 0.10890814
-0.004140753 -0.042715963 -0.07888384 0.0025301338 0.07020097 0.07855035 -0.05981173 -0.119383454
-0.056647427 -0.05303376 0.024059765 -0.021768216 0.049447116 0.13076006 0.08247218 0.10562696
-0.027054965 0.0054184604 0.10285908 0.0055852225 0.1129741 0.10837579 0.05375464 -0.0673917
0.014442696 0.08624803 0.02030044 0.04555909 -0.07332904 -0.027311524 -0.10918216 -0.06668291
0.10315273 -0.0035331964 -0.09828662 -0.05256909 8.696222e-05 -0.03577734 -0.09628647 -0.0016756214
0.07667756 0.07244577 0.051109325 -0.013170848 0.030966843 0.02734106 -0.12607327 -0.110186614
-0.066642135 0.12298505 0.041928314 0.1079327 0.059059653 0.04542743 0.117760584 -0.1082148
0.022683961 0.022348264 0.06758468 0.07491359 0.1091827 0.045987524 0.04464489 0.11229501
0.12818743 0.028708886 -0.10754716 0.09274414 -0.019730901 -0.11340361 0.11255459 -0.050197426
-0.07937358 0.0327357 0.01354906 0.015418401 -0.046650857 -0.016832963 -0.08338453 0.083136134
-0.091076165 -0.08124997 0.098739445 0.0443781 0.06773652 0.10962012 -0.044037014 0.09155754
0.05402566 0.038892705 0.10670556 0.12059749 0.028769096 0.024310697 -0.0008258745 -0.12478435
-0.12793712 -0.10125661 -0.11296421 -0.13089271 -0.121475615 -0.05303273 -0.05971053 0.07975804
0.12970783 0.019171752 -0.13078274 -0.08567559 -0.0037928498 -0.04974131 -0.12150195 -0.12518993
-0.028269237 0.068384394 -0.039507907 0.12992322 0.04907919 -0.100269414 -0.079667784 0.031027831
-0.05328131 -0.12386255 -0.0156065365 0.07650607 0.021721352 -0.034089774 0.061019883 -0.10714171
-0.06009675 -0.06205069 0.056669667 0.024679413 0.034847286 0.062607184 -0.056047387 0.04292408
-0.053873297 -0.116510935 0.071139134 0.053419843 -0.06559643 0.06161696 0.1151129 0.1011855
0.035246674 -0.05339713 -0.017219704 0.03876075 -0.10602125 -0.031725895 -0.11448798 0.105694234
-0.06360431 -0.12402227 0.06675632 0.12705009 -0.081355646 0.08009202 0.06797926 -0.12777273
-0.023660984 -0.12799889 0.044247236 0.11158339 -0.008605321 -0.09906528 -0.04282983 0.07658887
-0.054680374 -0.099167936 0.12455977 -0.12609945 0.054988407 -0.11196334 -0.056149304 -0.1272675
-0.049280696 -0.06440301 0.12963964 -0.08341108 -0.01818872 -0.08493269 -0.12110651 0.020872138
-0.069294885 -0.056847278 0.028808577 0.0061854525 0.019103248 0.011548911 -0.10344678 0.09600413
-0.056660075 -0.0118339 0.061104655 0.10760691 0.067682855 0.060303908 0.08753078 -0.043325216
-0.074933596 0.03897219 0.10488093 0.015711313 -0.057030443 0.040431414 0.09214003 0.07948072
00000000: 5868 07be 1835 a8bc b28a 3cbd 9f82 c2bc
00000010: 77e1 9abd da6b 88bd 77c0 59bc fd82 1ebd
00000020: 7ea7 fabd efd6 ed3c c6e5 233b e6a8 f33d
00000030: 6105 64bb 6b33 03be 4e6b 063e ce5a e5bd
00000040: 92e3 613d e61a 92bd f478 95bd b5be 483c
00000050: ffa8 8abc aa99 823d 66ce f9bd 323a 003e
00000060: e65e 5c3d 59b0 01be acbb 2e3d e61e 9fbd
00000070: 8a50 6e3d 3b56 b8bd 2913 6bbb 67bd fa3d
00000080: d570 e03d 55ec 4ebd 6fb1 b33d 1db3 f83d
00000090: fba0 e53d 3a08 643d 8df4 01bd b979 bdbd
000000a0: 906d fe3c ae93 cabd fa9c 0dbb 91bc 96bd
000000b0: 009e 92bd 9cc2 3b3c 06d6 8c3d 3b0b df3d
000000c0: 27af 87bb eff6 2ebd da8d a1bd 9ad0 253b
000000d0: 87c5 8f3d 02df a03d 25fd 74bd 507f f4bd
000000e0: 2207 68bd ee39 59bd fc18 c53c 4253 b2bc
000000f0: 0f89 4a3d f7e5 053e 2de7 a83d f352 d83d
00000100: 60a2 ddbc 578d b13b c8a7 d23d 3e04 b73b
00000110: f75e e73d 20f4 dd3d d32d 5c3d a904 8abd
00000120: 0fa1 6c3c cfa2 b03d 1c4d a63c 2b9c 3a3d
00000130: 892d 96bd 6bbc dfbc e59a dfbd 0d91 88bd
00000140: bd41 d33d 338d 67bb 7f4a c9bd b052 57bd
00000150: 7d5f b638 438b 12bd d731 c5bd 86a0 dbba
00000160: 2009 9d3d 735e 943d 0358 513d 8aca 57bc
00000170: 2dae fd3c 5cfa df3c 5a19 01be 85a9 e1bd
00000180: ac7b 88bd 96df fb3d 06bd 2b3d d20b dd3d
00000190: 89e8 713d 1d12 3a3d 762c f13d b99f ddbd
000001a0: b7d3 b93c b513 b73c d669 8a3d 4c6c 993d
000001b0: 2e9b df3d 6a5d 3c3d 8fdd 363d edfa e53d
000001c0: 9143 033e e62e eb3c af41 dcbd a4f0 bd3d
000001d0: b3a2 a1bc 2740 e8bd 0583 e63d d19b 4dbd
000001e0: 9e8e a2bd df15 063d e0fc 5d3c 769d 7c3c
000001f0: f814 3fbd 48e5 89bc 82c5 aabd 4743 aa3d
00000200: 2486 babd 6266 a6bd e837 ca3d d0c5 353d
00000210: 72b9 8a3d 8380 e03d 2860 34bd 8582 bb3d
00000220: 034a 5d3d f54d 1f3d 7288 da3d d1fb f63d
00000230: 2bad eb3c 3a27 c73c 807f 58ba f08e ffbd
00000240: f301 03be a05f cfbd c859 e7bd bd08 06be
00000250: 35c8 f8bd d938 59bd 0793 74bd 2f58 a33d
00000260: 21d2 043e 140e 9d3c e9eb 05be af76 afbd
00000270: 7691 78bb 8bbd 4bbd 04d6 f8bd ca31 00be
00000280: e394 e7bc 1e0d 8c3d 0bd3 21bd 980a 053e
00000290: 4307 493d 0d5a cdbd dd28 a3bd 142e fe3c
000002a0: 813d 5abd a6ab fdbd 8fb2 7fbc 37af 9c3d
000002b0: faf0 b13c b8a1 0bbd fcef 793d 1d6d dbbd
000002c0: 0228 76bd dd28 7ebd 741e 683d 7b2c ca3c
000002d0: 07bc 0e3d 3238 803d f291 65bd 29d1 2f3d
000002e0: 3faa 5cbd 499d eebd 65b1 913d c4ce 5a3d
000002f0: 6c57 86bd 1162 7c3d 50c0 eb3d 583a cf3d
00000300: d15e 103d f3b6 5abd 5610 8dbc 98c3 1e3d
00000310: ab21 d9bd 03f3 01bd ad78 eabd 3876 d83d
00000320: fa42 82bd 63ff fdbd 8ab7 883d 6b19 023e
00000330: ca9d a6bd 4907 a43d b638 8b3d dbd6 02be
00000340: aed4 c1bc 2412 03be 973c 353d d585 e43d
00000350: 55fd 0cbc bde2 cabd 556e 2fbd a0da 9c3d
00000360: 87f8 5fbd 8f18 cbbd 3119 ff3d 3720 01be
00000370: 863b 613d 094d e5bd d0fc 65bd 6952 02be
00000380: 8eda 49bd bae5 83bd 41c0 043e 6ed3 aabd
00000390: 8300 95bc 31f1 adbd b106 f8bd 0cfc aa3c
000003a0: 7aea 8dbd b1d8 68bd f7ff eb3c 56af ca3b
000003b0: 6a7e 9c3c a537 3d3c e8db d3bd d09d c43d
000003c0: 6514 68bd f9e2 41bc e048 7a3d 0361 dc3d
000003d0: 4f9d 8a3d 3b01 773d 5643 b33d c875 31bd
000003e0: c976 99bd 4ea1 1f3d d0cb d63d 03b5 803c
000003f0: c198 69bd 699b 253d e9b3 bc3d cac6 a23d

mambaLayer.conv1d.weight f4 [56, 1, 4]
0.35001993 0.08687186 -0.07063109 0.09244549 -0.046656072 0.24089342 0.49583894 -0.20093982
0.1449253 -0.06535733 -0.3522504 0.078470625 -0.06817901 -0.43256682 0.27056885 -0.23948716
-0.26958078 -0.4522949 -0.029272437 -0.32205337 -0.048433423 0.41786212 -0.36011094 -0.099273585
-0.15214467 0.34615904 0.25138104 -0.09824278 0.21917188 -0.26840734 0.09452784 0.16969587
0.26456738 0.114393175 -0.17935473 0.3412543 -0.006743908 0.4796369 -0.10772151 -0.09207061
-0.15055764 0.043329835 -0.16340894 -0.13711041 0.3103013 -0.47210777 -0.4191816 0.46165177
0.12742078 0.36627108 0.006920159 0.28773665 0.35311103 -0.12781507 0.45431942 0.27378482
-0.08377761 -0.47439408 -0.089241505 0.43661782 -0.41509676 0.2230804 0.38261902 -0.35398895
-0.006031871 -0.14727652 0.21764416 0.1487746 0.13251352 0.48816037 -0.48912364 -0.0032449241
0.3426726 -0.4203565 0.47922295 -0.28717214 0.23112267 0.27719325 0.17299151 -0.42683122
-0.3513353 -0.1790331 0.32781392 0.16990052 -0.30387515 0.05124551 0.2935946 0.38108435
0.25439084 -0.039780498 0.034526706 0.50078386 0.19521326 0.043623924 -0.3851881 0.03450667
0.07406354 -0.46428192 -0.11312944 -0.38405213 -0.16204953 0.23954618 0.13259518 0.44966266
0.04568541 -0.12154794 -0.3590449 0.4395334 0.23865467 0.3525188 0.20857745 0.5051267
0.22180563 -0.055646777 0.34030092 0.36849573 -0.217969 -0.34994054 -0.016728401 -0.36763522
-0.477984 -0.024558306 0.09161383 0.4754696 -0.46256602 -0.062120974 0.22557521 0.250426
-0.04433942 -0.20407617 0.09809786 -0.4834477 -0.11875266 -0.18815613 -0.097510755 0.49503836
0.34460747 0.028916478 -0.16732174 0.14565569 -0.3091684 -0.083973885 0.13491076 -0.005987471
0.20492482 -0.14277732 -0.105912566 -0.0037875592 -0.11357188 -0.13602525 -0.07840109 0.39395416
-0.043346286 -0.06566548 -0.2902841 -0.23095208 -0.40671355 0.15024728 0.040053427 0.40234983
-0.47997075 0.33776158 -0.16129196 -0.1693552 -0.4024529 -0.13674664 0.089576185 0.6190615
0.4511224 -0.18768287 0.40873086 0.15747474 0.45078748 -0.42797524 0.49627733 0.05593278
-0.300951 -0.13296711 -0.20439172 -0.2674439 -0.3938595 -0.13331032 -0.07152563 -0.39199334
-0.18128663 -0.06980991 -0.3021952 -0.48349473 0.3783931 -0.33532536 -0.22585976 -0.061108988
0.063945055 0.46289897 -0.2548979 -0.124923594 0.19584256 -0.18943316 -0.101508856 -0.30401528
0.4996112 -0.08866137 0.37434232 -0.4248386 -0.42080003 -0.013580501 0.30425495 -0.42209223
-0.08762866 0.21621794 -0.06930387 -0.25945693 -0.25564963 0.35397947 0.1448915 0.39101025
0.31064898 -0.13177305 0.10471344 0.22824004 -0.40419108 0.019493401 0.43823087 0.16460465
00000000: d035 b33e e0e9 b13d 08a7 90bd 1054 bd3d
00000010: 701a 3fbd c4ac 763e 9ade fd3e 2bc3 4dbe
00000020: 4c67 143e 10da 85bd 2a5a b4be 35b5 a03d
00000030: 70a1 8bbd 6679 ddbe 0088 8a3e 1f3c 75be
00000040: 7e06 8abe 3293 e7be c0cc efbc 2ee4 a4be
00000050: 2062 46bd 06f2 d53e 7660 b8be f34f cbbd
00000060: d0cb 1bbe c23b b13e 04b5 803e 8333 c9bd
00000070: 986e 603e b06c 89be d097 c13d c1c4 2d3e
00000080: 6075 873e f846 ea3d c4a8 37be e2b8 ae3e
00000090: 00fc dcbb f892 f53e 189d dcbd 848f bcbd
000000a0: c82b 1abe a07a 313d ac54 27be ac66 0cbe
000000b0: d0df 9e3e 1cb8 f1be f89e d6be 9f5d ec3e
000000c0: 987a 023e e287 bb3e 80c2 e23b 3852 933e
000000d0: f8ca b43e f4e1 02be 8e9c e83e 862d 8c3e
000000e0: 9893 abbd c8e3 f2be 40c4 b6bd 5f8c df3e
000000f0: 9087 d4be 306f 643e a4e6 c33e 0a3e b5be
00000100: 00a7 c5bb a8cf 16be 1cde 5e3e 5e58 183e
00000110: a0b1 073e 28f0 f93e 6a6e fabe cba8 54bb
00000120: c872 af3e f838 d7be b65c f53e 3a08 93be
00000130: 6cab 6c3e 46ec 8d3e b024 313e 9f89 dabe
00000140: 38e2 b3be 7454 37be 3ad7 a73e 67fa 2d3e
00000150: 8695 9bbe d0e6 513d 0852 963e 7d1d c33e
00000160: 843f 823e e0f0 22bd e06b 0d3d 5f33 003f
00000170: fce5 473e 00af 323d 6037 c5be de56 0d3d
00000180: a0ae 973d 5cb6 edbe 68b0 e7bd 7ba2 c4be
00000190: 50f0 25be 984b 753e 08c7 073e 2f3a e63e
000001a0: a020 3b3d 20ee f8bd bcd4 b7be 860a e13e
000001b0: e461 743e 587d b43e 5495 553e fc4f 013f
000001c0: 0421 633e e0ed 63bd ec3b ae3e 79ab bc3e
000001d0: 4433 5fbe 682b b3be 000a 89bc af3a bcbe
000001e0: 52ba f4be 802e c9bc 08a0 bb3d c070 f33e
000001f0: 74d5 ecbe 9072 7ebd 30fd 663e d637 803e
00000200: 409d 35bd 58f9 50be 88e7 c83d 7586 f7be
00000210: 9834 f3bd 00ac 40be b8b3 c7bd ab75 fd3e
00000220: 6470 b03e 40e2 ec3c 6456 2bbe c426 153e
00000230: 524b 9ebe 80fa abbd 0c26 0a3e 8c32 c4bb
00000240: d0d7 513e 3834 12be b0e8 d8bd b338 78bb
00000250: 6098 e8bd 344a 0bbe c090 a0bd 5cb4 c93e
00000260: e08b 31bd a07b 86bd 1ea0 94be b47e 6cbe
00000270: c23c d0be 6cda 193e 100f 243d cc00 ce3e
00000280: babe f5be 16ef ac3e b829 25be 736b 2dbe
00000290: 4e0e cebe 5007 0cbe b873 b73d d17a 1e3f
000002a0: 84f9 e63e f02f 40be 2c45 d13e 0f41 213e
000002b0: 9ecd e63e 921f dbbe 1018 fe3e c519 653d
000002c0: 4016 9abe 8828 08be 104c 51be 68ee 88be
000002d0: f4a7 c9be 8082 08be 087c 92bd 5ab3 c8be
000002e0: 34a3 39be 80f8 8ebd 54b9 9abe 9f8c f7be
000002f0: bebc c13e c4af abbe c847 67be 6b4d 7abd
00000300: a0f5 823d 1801 ed3e fa81 82be f1d7 ffbd
00000310: f48a 483e c4fa 41be e0e3 cfbd e4a7 9bbe
00000320: 0acd ff3e 1894 b5bd cca9 bf3e 7284 d9be
00000330: 1a73 d7be c080 5ebc 4ec7 9b3e 791c d8be
00000340: a876 b3bd 3c68 5d3e 30ef 8dbd 8ad7 84be
00000350: 82e4 82be cc3c b53e 705e 143e 7f32 c83e
00000360: 620d 9f3e 84ef 06be 0074 d63d c2b7 693e
00000370: 22f2 cebe a0b0 9f3c cc5f e03e 1f8e 283e

mambaLayer.conv1d.bias f4 [56]
-0.48354363 0.037804376 -0.2647153 0.15965086 0.20049232 0.26761246 0.069631055 -0.27697414
0.46169013 0.4044932 0.30961332 -0.42467192 0.33887786 0.041286726 0.090593755 0.25079653
-0.48925897 -0.03357181 -0.41531247 -0.1481403 0.13981137 0.08005433 0.019475669 0.22028899
0.22420356 -0.13606717 -0.19055489 0.035397902 -0.18666229 -0.28531316 0.13862193 -0.21783802
0.011930286 0.47387412 0.33591092 0.024352675 -0.032280877 0.31551695 0.02966184 0.48481336
-0.12671065 0.9377936 0.07548577 0.11484109 0.101335146 0.22165747 -0.21588199 0.40466902
0.42176396 -0.01434448 -0.0017473574 0.17525618 0.26170045 0.4551637 -0.47259146 -0.41509992
00000000: 0893 f7be c3d8 1a3d c488 87be 847b 233e
00000010: dc4d 4d3e 8004 893e ba9a 8e3d 8ecf 8dbe
00000020: a662 ec3e bc19 cf3e a385 9e3e 996e d9be
00000030: 6681 ad3e 451c 293d 3889 b93d 6768 803e
00000040: 2780 fabe 9882 09bd d6a3 d4be 17b2 17be
00000050: b62a 0f3e 86f3 a33d 708b 9f3c 7093 613e
00000060: 9e95 653e 3155 0bbe d220 43be 64fd 103d
00000070: 6624 3fbe 9114 92be e8f2 0d3e ee10 5fbe
00000080: 3f77 433c a19f f23e 84fc ab3e 437f c73c
00000090: f438 04bd 708b a13e 63fd f23c 7539 f83e
000000a0: 70c0 01be 3e13 703f 4998 9a3d ce31 eb3d
000000b0: cd88 cf3d 2dfa 623e 2b10 5dbe c730 cf3e
000000c0: 72f1 d73e 1c05 6bbc 9607 e5ba 5b76 333e
000000d0: 9afd 853e 370b e93e 82f7 f1be fa87 d4be

mambaLayer.x_proj.weight f4 [36, 56]
0.080600485 -0.08991047 0.13274868 0.026480954 -0.10992371 -0.12590906 -0.061734144 -0.019181198
0.11740718 0.12191838 0.024444815 -0.06490761 -0.10553682 -0.10244833 0.114286445 0.0116321845
-0.034588575 0.011588748 -0.024331735 0.10656453 0.024539748 0.010588395 -0.024411066 -0.011123067
-0.13130489 -0.11136914 0.09924618 0.08925671 -0.007960449 -0.011660362 -0.12329538 -0.045616493
0.035493705 -0.036741585 0.052070864 -0.07903748 -0.07333564 0.1049537 0.06928713 -0.118517295
0.046578873 0.109978795 0.06496963 -0.015411633 0.019434914 0.06586767 -0.058104217 0.10073423
-0.061480265 -0.050404254 -0.07631596 0.0678896 -0.0018796198 -0.057843704 0.013647866 0.040966533
0.11354294 0.04337593 -0.02558548 -0.04410826 0.10399808 -0.0840769 -0.06927324 0.04390151
0.06343354 0.12448998 -0.09290135 -0.018169401 0.0025406748 0.09975215 0.091506734 -0.10168059
0.12211547 0.13106202 -0.10974031 0.05896429 0.054292522 0.03897263 0.119730234 0.12710424
0.100737534 -0.123842314 0.12694457 0.039568003 0.05109839 -0.0013833336 -0.07446314 -0.10816011
0.07154046 0.033087015 0.022269662 0.12089625 -0.102484226 -0.066564456 -0.040047213 -0.04349523
-0.053632338 0.08375902 0.061956502 0.10569504 0.0076694647 -0.09666124 -0.078791685 0.07555932
0.103900686 0.09711422 -0.059987567 -0.03871427 -0.04427104 -0.076982774 0.119663775 0.12052766
-0.005119796 0.12063197 0.114203095 -0.10833448 0.02474756 -0.020936772 -0.076765865 0.06776888
-0.03290321 -0.02444487 -0.08043936 -0.036284875 -0.031136995 -0.08882771 0.038505994 -0.030909332
0.073239736 0.018249817 -0.07557693 -0.017894672 -0.08638317 -0.07084617 -0.1300985 -0.12504743
-0.10428253 -0.07282296 -0.028761927 0.0819421 -0.032026056 0.08833004 0.008525107 -0.12062656
-0.027209911 -0.119886674 0.028065523 -0.008928646 -0.109966755 0.022866258 0.025645876 -0.012126367
-0.028984908 -0.0060101077 0.118019044 -0.06928363 -0.095671214 0.062202245 -0.10038542 0.07682165
-0.13063943 -0.027621849 -0.020781858 0.020126663 0.10607849 0.11569063 -0.0151249 -0.057568435
-0.049619474 0.08297515 -0.08012939 0.011657876 0.0533083 -0.09115174 -0.0868619 -0.10872653
0.027345318 0.04379431 -0.009038922 -0.06004714 0.04156748 0.009622622 -0.06597084 0.07764338
-0.097630136 -0.13042648 -0.06426094 -0.08999241 0.00223803 -0.13311169 0.048215482 -0.12887064
0.096324615 -0.06075612 0.10669895 0.058499813 0.09596032 -0.0057624574 -0.07834258 -0.09949268
0.047819927 0.06303953 -0.08569479 0.010601091 0.038177215 -0.12861145 0.11284119 0.11444502
-0.11989786 0.0686088 0.10634461 -0.024844635 0.032242958 0.12791885 -0.05760872 -0.082858324
0.016428549 0.013964929 -0.06831589 -0.043208633 0.044635646 0.030408949 -0.042806458 -0.1265243
-0.010556122 0.020912869 -0.12572555 -0.12961686 -0.06307379 0.114767894 -0.113533795 0.07837046
-0.030356426 0.07445329 -0.08421404 0.057244495 0.04211043 0.12453534 -0.057964966 0.10750186
-0.073468484 0.0794808 -0.06185077 -0.059217744 -0.04031773 -0.019259602 0.028988292 0.020691486
0.036726367 -0.0937513 -0.060902495 -0.0499788 -0.06052813 -0.038444456 -0.034565665 0.12410361
00000000: de11 a53d fb22 b8bd 45ef 073e 96ee d83c
00000010: af1f e1bd 4eee 00be f1dc 7cbd e321 9dbc
00000020: 2d73 f03d 58b0 f93d 7e40 c83c 48ee 84bd
00000030: b023 d8bd 6ed0 d1bd 030f ea3d eb94 3e3c
00000040: c0ac 0dbd bbde 3d3c 5953 c7bc 813e da3d
00000050: 9507 c93c f37a 2d3c b7f9 c7bc 863d 36bc
00000060: ca74 06be 8115 e4bd 9541 cb3d 39cc b63d
00000070: 8b6c 02bc 1a0b 3fbc 4a82 fcbd 5cd8 3abd
00000080: d961 113d 587e 16bd 4248 553d 67de a1bd
00000090: ff30 96bd f7f1 d63d 69e6 8d3d 32b9 f2bd
000000a0: 7dc9 3e3d 903c e13d cc0e 853d 1381 7cbc
000000b0: f835 9f3c a1e5 863d b0fe 6dbd bf4d ce3d
000000c0: bbd2 7bbd b174 4ebd 8b4b 9cbd b409 8b3d
000000d0: 935d f6ba 85ed 6cbd 4d9b 5f3c 86cc 273d
000000e0: 3389 e83d f6aa 313d a498 d1bc ddaa 34bd
000000f0: f2fc d43d 8230 acbd 21df 8dbd 12d2 333d
00000100: 72e9 813d 9af4 fe3d 1043 bebd ffd7 94bc
00000110: 7381 263b db4a cc3d e267 bb3d ea3d d0bd
00000120: ad17 fa3d 1f35 063e 87bf e0bd 8a84 713d
00000130: d661 5e3d c4a1 1f3d 2035 f53d 9d27 023e
00000140: 7b4f ce3d 0aa1 fdbd c2fd 013e 0f12 223d
00000150: 8c4c 513d f950 b5ba 2180 98bd 0c83 ddbd
00000160: ce83 923d 4086 073d de6e b63c 7498 f73d
00000170: 40e3 d1bd f252 88bd 8c08 24bd 0e28 32bd
00000180: 95ad 5bbd d989 ab3d 1ac6 7d3d a476 d83d
00000190: 2250 fb3b 54f6 c5bd 895d a1bd d8be 9a3d
000001a0: e2c9 d43d d2e3 c63d 86b5 75bd db92 1ebd
000001b0: 8d55 35bd 25a9 9dbd 4812 f53d 35d7 f63d
000001c0: f6c3 a7bb e50d f73d 50e3 e93d 78de ddbd
000001d0: 65bb ca3c 9883 abbc 6c37 9dbd 69ca 8a3d
000001e0: 84c5 06bd 9c40 c8bc 64bd a4bd 739f 14bd
000001f0: 0313 ffbc 4deb b5bd 76b8 1d3d 9135 fdbc
00000200: b7fe 953d a480 953c 14c8 9abd d997 92bc
00000210: a9e9 b0bd cc17 91bd 8b38 05be 6f0c 00be
00000220: 1492 d5bd 3424 95bd 229e ebbc 42d1 a73d
00000230: c12d 03bd 61e6 b43d e4ac 0b3c 0f0b f7bd
00000240: 52e7 debc 2587 f5bd abe9 e53c 7549 12bc
00000250: 4036 e1bd 0552 bb3c 4d17 d23c abad 46bc
00000260: c271 edbc 70f0 c4bb f8b3 f13d 93e4 8dbd
00000270: 45ef c3bd c8c7 7e3d df96 cdbd ab54 9d3d
00000280: 58c6 05be 3747 e2bc b73e aabc ace0 a43c
00000290: ae3f d93d 36ef ec3d 6ece 77bc e1cc 6bbd
000002a0: ca3d 4bbd e0ee a93d e11a a4bd ad00 3f3c
000002b0: ce59 5a3d c3ad babd a7e4 b1bd 04ac debd
000002c0: 4a03 e03c aa61 333d fd17 14bc fdf3 75bd
000002d0: a942 2a3d 34a8 1d3c b81b 87bd 7e03 9f3d
000002e0: 4ff2 c7bd 858e 05be 3d9b 83bd f14d b8bd
000002f0: eaab 123b 6e4e 08be 997d 453d aaf6 03be
00000300: d745 c53d 69db 78bd fb84 da3d 809d 6f3d
00000310: d886 c43d ffd2 bcbb 1372 a0bd d1c2 cbbd
00000320: d4de 433d de1a 813d c080 afbd 33b0 2d3c
00000330: b65f 1c3d b8b2 03be 4819 e73d 2762 ea3d
00000340: 028d f5bd c582 8c3d 34cb d93d fa86 cbbc
00000350: 3111 043d 29fd 023e 1ff7 6bbd a0b1 a9bd
00000360: 2a95 863c 28cd 643c 34e9 8bbd 89fb 30bd
00000370: ded3 363d 301c f93c d355 2fbd 968f 01be
00000380: 96f3 2cbc 7751 ab3c 33be 00be 48ba 04be
00000390: d52c 81bd 6e0b eb3d 6884 e8bd b180 a03d
000003a0: 0aae f8bc f77a 983d 6978 acbd 3479 6a3d
000003b0: fc7b 2c3d 620c ff3d ac6c 6dbd ef29 dc3d
000003c0: a576 96bd d4c6 a23d 3c57 7dbd 4e8e 72bd
000003d0: 3424 25bd 50c6 9dbc db78 ed3c 3181 a93c
000003e0: 636e 163d ae00 c0bd e574 79bd 92b6 4cbd
000003f0: 58ec 77bd ef77 1dbd ba94 0dbd 092a fe3d
