crowd_nav/data/output/checking-lstm-mamba/rl_model.pth (torch, 95558 bytes, 13 tensors)

lstm.weight_ih_l0 f4 [200, 13]
000000 f6 49 8b 3a fe 44 a9 bd 9c d2 b2 bd dd 93 70 3d
       0.00106269 -0.08265112 -0.08731577 0.058734763
000010 68 47 19 3c 5b 82 8b 3d a4 b0 da 3c fe 93 f4 3d
       0.0093554035 0.06811973 0.026695557 0.1194229
000020 3c ed b4 3d 59 e4 e3 bd 8f 0b 64 bd 6d 6d 22 3e
       0.08834311 -0.11127538 -0.055675086 0.15862055
000030 75 94 ad bd c0 b7 d7 bd b0 f6 02 3e 83 9d 02 be
       -0.084755816 -0.105330944 0.12789416 -0.12755398
000040 57 3f 0c bd 41 57 3f bb db 3c 0e 3d a9 49 47 bc
       -0.034240093 -0.0029196294 0.034726005 -0.012163558
000050 bf d8 a8 bd 55 54 fa 3d 33 f7 d5 3d 85 02 10 3e
       -0.08244466 0.12223116 0.1044754 0.14063461
000060 79 c2 4a 3d 1f ed 62 3d 4f b6 88 bd 13 af 35 bc
       0.04950187 0.055401918 -0.066753976 -0.011089104
000070 f8 68 e6 bd b2 be bc bc 1f b7 74 bd 82 53 c5 3c
       -0.1125049 -0.02304015 -0.05974495 0.024087671
000080 ff eb b2 bc 8f 31 c0 3d 26 7f 93 bd ae 9d ea bd
       -0.021841047 0.093844526 -0.07201986 -0.11455856
000090 d8 0e 17 bd 01 a0 cd bd 6d 6e b6 3b 25 99 7d 3e
       -0.03687939 -0.10040284 0.005567363 0.24765451
0000a0 36 ac 06 3e 67 1d 49 3d f1 94 1c 3d 7e 8a 4d 3d
       0.13151631 0.049100306 0.03822798 0.050180905
0000b0 91 7a 81 bd 15 59 bb 3d 46 4f 38 3e 83 9c 27 bc
       -0.06322206 0.091478504 0.1799899 -0.010230186
0000c0 ad 0a 71 3d 1e f1 2c 3d 96 53 e8 bd 8e 6b ae bd
       0.05884807 0.042222135 -0.11344068 -0.08516608
0000d0 f3 30 95 bd 36 e1 fe 3d 80 f1 3e 3d 1b 5b ad bd
       -0.07284727 0.12445299 0.04661703 -0.084646426
0000e0 87 9d 06 38 e3 b4 90 3c ba c7 03 be da 2b 19 3e
       3.20948e-05 0.017664379 -0.12869158 0.14958134
0000f0 8c ce 46 3d 24 e3 18 bc 61 07 b9 3b fe db 67 bc
       0.048536822 -0.009331498 0.0056466316 -0.014151571
000100 f9 81 83 bd 49 30 0f be d4 9f 41 bd 80 24 a9 bc
       -0.06421275 -0.13983263 -0.047271565 -0.020647287
000110 21 82 a5 3d 0b cf 07 be a7 e6 38 3d 49 35 3e 3b
       0.08081461 -0.13262574 0.045141842 0.002902346
000120 69 19 4a bc f6 3b 95 3c c3 d4 9a 3d 79 32 ae bd
       -0.01233516 0.018217068 0.07560112 -0.08505721
000130 bc f0 ff 3d b2 fc f7 bd 84 e6 c0 3d f2 dd 8b 3d
       0.12497088 -0.12108745 0.09418967 0.06829442
000140 d6 9f cb bd ec 0b 9d bc 5f 87 7c 3c e5 7e 02 3e
       -0.09942596 -0.019170724 0.015413134 0.12743719
000150 0d 9b d5 bd d0 96 6a 3d be 2d ff 3d 3f 27 f3 3d
       -0.10429964 0.057272732 0.124598965 0.1187272
000160 69 1b 98 3d 9b 43 be 3b a0 ba a4 bc e9 21 0a bc
       0.07427103 0.005806399 -0.020108521 -0.008430936
000170 a7 f5 53 bd 51 94 8e 3d a5 d2 1f 3d 6e 79 9e bd
       -0.051747944 0.06961883 0.039019246 -0.077380046
000180 42 a7 e0 3d 2b 3b a7 bd be c3 1d 3e 3a 41 0f 3e
       0.10969402 -0.08165582 0.15406701 0.13989726
000190 0f 64 03 be 23 d4 bc 3d 1d be 08 3e 07 11 d9 3d
       -0.12831138 0.09220149 0.13353772 0.10598951
0001a0 5f 9e a1 3d 49 63 c6 bc 54 42 eb bd e5 94 ff 3c
       0.07891535 -0.024217265 -0.114872605 0.031198928
0001b0 47 d2 a3 bd c7 43 2e bc 52 52 c7 bd 3f 05 70 3d
       -0.079990916 -0.010636277 -0.09732498 0.058598753
0001c0 09 43 d2 bc d9 3a db bd d4 af 90 bd d2 b6 02 bd
       -0.02566673 -0.10704584 -0.070647866 -0.031912632
0001d0 01 48 2b bd 93 c0 99 bd 54 9c 44 3d 22 ac 49 bc
       -0.041816715 -0.07507434 0.04800065 -0.012309106
0001e0 ee 1f 12 3e bf 56 9c bd eb bb cc 3d 65 e5 8b bc
       0.14269993 -0.07633733 0.0999678 -0.017077157
0001f0 e1 59 72 bd fe dd 18 bd 95 b2 ac 3d 09 a1 22 bc
       -0.059167746 -0.037321083 0.08432499 -0.009926089
000200 86 1d b0 3d 2d 78 25 bc dc 50 be 3d 49 88 d3 3d
       0.08599381 -0.010099453 0.092927665 0.10328729
000210 6d 9a c1 3d a7 6e a3 bd be bf 00 3d ee f4 b5 3b
       0.094532825 -0.0798009 0.03143286 0.0055528795
000220 35 cb f3 3d e2 f5 e3 bd 3b b9 ae bd 02 51 63 bd
       0.11903993 -0.11130883 -0.08531424 -0.055497177
000230 d5 90 73 bd bd 1e 67 bd 78 02 3b 3d 9e 3e a6 bd
       -0.059464294 -0.0564258 0.04565665 -0.08117412
000240 50 b3 f6 bd 1c a4 8c bd ca 66 c8 bd fe 05 01 3e
       -0.1204592 -0.06867239 -0.097852305 0.12599942
000250 35 0c 9f bd 1c 9d 8a 3d 6f c6 2a bd bd 62 05 3e
       -0.07766 0.067682475 -0.041693147 0.13025947
000260 40 e8 c9 3d b0 27 e4 3d 46 68 3e 3d bf 0c 03 3d
       0.09858751 0.11140382 0.04648616 0.031994577
000270 75 ca 90 3e ca 93 54 3c 36 90 9a bd 70 da 7f 3d
       0.28279462 0.012974689 -0.07547037 0.062464178
000280 a7 f8 98 bd 72 03 cc bd e4 65 c1 3d 2a e0 01 3e
       -0.07469302 -0.09961595 0.09443262 0.12683168
000290 35 59 39 bb 39 e7 97 3d 5c 58 f5 bd c8 d0 13 3e
       -0.0028281931 0.07417149 -0.11979744 0.14435112
0002a0 de 0a 80 3d dd 74 ff 3d 6b 48 09 3e 1d 18 b9 3c
       0.06252073 0.12473462 0.13406532 0.022594506
0002b0 1e fd 37 3d c1 41 76 3d 9b ea b8 3c 57 5b d9 3d
       0.044919126 0.0601213 0.022572806 0.10613125
0002c0 50 09 8a 3d 29 99 c4 3d 7d fc f7 3d 1a 2c 08 3e
       0.067400575 0.095995255 0.12108705 0.13298073
0002d0 2d cd 05 bd 36 83 00 3d 89 bf 87 3d 23 66 e6 bd
       -0.032666374 0.031375133 0.06628329 -0.1124995
0002e0 38 f3 cb 3d f2 c7 a7 3d ee f4 ab 3c ba 52 f7 3d
       0.099585 0.081924334 0.020990815 0.12076326
0002f0 59 c1 41 bd ca 15 c4 3d 08 14 4d be 2b 0c 49 3e
       -0.04730353 0.095744684 -0.20027173 0.19633548
000300 51 5f 84 3d f2 8c 2e bc 20 7e 9d 3d 4f 39 c7 3d
       0.06463493 -0.010653721 0.07690072 0.097277276
000310 3a e3 9c bc 22 52 e9 3d dd 1f a7 3b fa 89 b7 3d
       -0.019151319 0.11392619 0.005100234 0.08961864
000320 2f e8 09 be 1b f0 b5 bc 15 2e 0f 3e 26 7f de 3d
       -0.13467477 -0.022209218 0.13982423 0.108640954
000330 d4 cf 06 3e 12 d3 6f 3c 50 28 c1 3d b3 50 ce 3c
       0.13165218 0.014637725 0.09431517 0.025184965
000340 93 59 1c 3d b3 0d f2 3d 62 a3 05 be 2d ee 07 be
       0.038171362 0.11819019 -0.13050607 -0.1327445
000350 9e 7c 24 bd fb ba e0 bd 84 59 21 ba 2b 1d 93 3d
       -0.040157907 -0.10973164 -0.00061550015 0.07183298
000360 d3 85 b2 3d 2d 12 f0 3d 7b ec 8b bd 73 66 a7 bd
       0.08716931 0.11722217 -0.068322144 -0.081738375
000370 6d c9 c1 bd 14 10 8b bd 46 58 d5 3d e4 b2 d7 3c
       -0.09462247 -0.06790176 0.104172274 0.026330419
000380 69 f6 91 3d 4c 05 f2 bc 65 db 13 3c d8 36 a0 3c
       0.07127077 -0.029543541 0.009024476 0.019557402
000390 aa fb b4 3d cc 3c f6 bc 42 38 17 3e 9f a1 00 be
       0.088370636 -0.030058287 0.14767554 -0.12561654
0003a0 fd cc 08 3d 83 dc ef 3d c0 a6 87 3d 16 f3 8e bd
       0.033398617 0.11711981 0.06623602 -0.06979959
0003b0 b7 d4 0b bd f0 2a 60 bd b9 72 08 3e 0f 66 b7 3d
       -0.034138408 -0.05472845 0.13325013 0.08955013
0003c0 a1 e1 10 3d b1 2e a0 3d fc 5c 97 bd b6 f0 53 3d
       0.035371426 0.07821406 -0.07390782 0.05174323
0003d0 c6 33 88 3d 63 17 f5 3d 5a 86 fc 3c 1a 4f da 3d
       0.066505 0.11967351 0.030825783 0.10659619
0003e0 9f c5 01 bd f0 00 63 3d 4a 58 92 3d 9f 33 ae 3d
       -0.031682607 0.055420816 0.07145746 0.0850594
0003f0 d9 5b 06 3d 49 ce 17 bd e1 76 d7 3c a0 ec b4 bd
       0.032802437 -0.037061963 0.026301803 -0.08834195

lstm.weight_hh_l0 f4 [200, 50]
000000 15 cb 0f 3e 24 64 ea 3d 05 c2 0a bd df 88 93 3d
       0.14042313 0.114448816 -0.033876438 0.072038405
000010 d0 20 72 bd 8d 23 e4 3c bd 5d 03 be 58 04 c2 bd
       -0.059113324 0.027848983 -0.12828727 -0.09473485
000020 6e 2d d8 bd 9b 43 11 bd f6 4d 40 bd 6f b8 c0 3d
       -0.1055554 -0.035464864 -0.04694935 0.09410178
000030 b5 da f1 bc e8 97 88 bd 5b 70 99 3d 90 56 f3 bc
       -0.029523233 -0.06669599 0.07492133 -0.029704362
000040 fb 20 35 3b ca 76 31 3d 0e 32 b4 3d e3 74 f9 3c
       0.0027638066 0.043326177 0.0879861 0.030451244
000050 85 b5 3f 3d dc c3 6a bd 75 2a c0 3d 44 ca da bd
       0.04680397 -0.057315692 0.09383098 -0.1068311
000060 7c 23 30 3d 32 bb 8d bd 4b e0 ae bd a1 50 72 bd
       0.04300259 -0.0692047 -0.08538874 -0.059158925
000070 f7 10 98 3d b9 ab c4 3d c0 86 10 be f9 75 b0 3d
       0.07425111 0.09603066 -0.14113903 0.086162515
000080 c4 f1 0a be a8 9d 9c bc a9 05 ad 3d e7 32 96 bd
       -0.13568789 -0.019118145 0.08448345 -0.073339276
000090 a2 57 f5 bc 8f d1 b5 bd 1d b7 5f 3d 5d 0f da bd
       -0.029949013 -0.08877861 0.05461799 -0.106474616
0000a0 31 b7 54 bc 6e 46 af 3d b1 88 8e 3d 33 a3 de bc
       -0.012983129 0.08558355 0.069596656 -0.027177429
0000b0 54 06 af bd d4 2d 81 3b 3c 3c 0c 3e 79 1b 98 3d
       -0.08546129 0.0039422307 0.13694853 0.07427115
0000c0 e8 44 ac bd a5 0d 0b 3e c2 d3 ae 3d 80 44 0f be
       -0.0841158 0.13579424 0.08536483 -0.13990974
0000d0 25 9d d7 3d 44 e8 7f 3d a9 e2 cc bc f9 5b 9f 3d
       0.1052802 0.062477365 -0.025010424 0.07781214
0000e0 e4 bf 22 3d 56 66 c5 bc 42 60 88 bd 4e f5 6e bc
       0.039733782 -0.02409665 -0.06658985 -0.014584852
0000f0 08 f7 3d bc e6 94 5a 3d 1b c7 93 3d 1d 8a 01 3e
       -0.011594541 0.053364657 0.07215711 0.12650342
000100 00 4b 01 bd a3 f0 96 bd 73 88 86 3d 6e e7 f6 bd
       -0.031565666 -0.073701166 0.065689944 -0.120558605
000110 e5 08 04 3e 73 8e ae bc 54 33 d7 bd 15 9a 86 bc
       0.12894018 -0.02130816 -0.10507837 -0.016430894
000120 1a 8b a9 bd 59 a6 9f bd 91 37 b2 3d d6 26 6b bb
       -0.08278485 -0.077954 0.08702005 -0.0035881302
000130 fd 1b 54 bd bf 5a e7 bd 1a 35 02 3e 50 99 02 bd
       -0.051784504 -0.11296605 0.12715569 -0.03188449
000140 2d 85 d4 bb 0d 3b 30 bd ae 09 a9 3d 15 9a f6 bd
       -0.0064856024 -0.043025065 0.082537994 -0.120411076
000150 ee c8 cf bd 68 f4 46 bb 29 85 6f bd ff 50 88 bd
       -0.10145746 -0.003035808 -0.0584766 -0.06656074
000160 14 45 31 3d 32 d0 54 bd 44 cc 2a bd db d2 33 bd
       0.04327877 -0.051956363 -0.04169871 -0.04390226
000170 3d 9b 83 3c 45 61 41 bd 6c a4 a9 bc 0e 29 7e 3d
       0.016065234 -0.047211904 -0.020708285 0.06205087
000180 c2 52 cd 3c ef 20 92 bd fb 8a 37 3d 56 7d c7 3d
       0.025063876 -0.07135188 0.044810276 0.09740703
000190 7d 5d 28 3d 49 56 c1 3c 02 6b e1 3c a7 b9 6c bd
       0.041104782 0.023600714 0.027516846 -0.05779424
0001a0 35 1d 6b 3d 0d 52 be bd ed c3 a3 bd fd a0 23 3c
       0.0574009 -0.09292994 -0.07996354 0.009987113
0001b0 55 f7 77 3d 78 58 07 bc cb 7b f0 3d 29 27 a2 3d
       0.06053861 -0.008260839 0.11742362 0.079176255
0001c0 9d b7 8f ba dd 5c a1 3d 3f 38 59 3d f5 23 05 3e
       -0.0010964755 0.078790404 0.053032156 0.13001998
0001d0 92 4f 74 bd 24 02 be bd 5f 88 5e 3d 51 f1 05 3e
       -0.059646197 -0.09277752 0.054329272 0.13080336
0001e0 99 78 41 3d 4c c7 d3 bc 54 f9 66 3c f4 80 04 3e
       0.04723415 -0.025851868 0.01409753 0.12939817
0001f0 b7 fc d8 3d 12 17 95 bd ed 6f 07 be 1e 7f 8d bd
       0.105950765 -0.07279791 -0.1322629 -0.06909011
000200 42 1f fb 3d 53 cb 12 3d 50 6b 2b 3d e3 af 09 3e
       0.12261821 0.035838436 0.041850388 0.13446002
000210 06 85 10 bc c1 4d d5 bd a8 aa 02 be a8 19 c7 bb
       -0.008820778 -0.10415221 -0.12760413 -0.0060760565
000220 60 2f ff 3c 7b bf 21 3b 87 24 15 3d 03 f3 90 bd
       0.03115052 0.0024680782 0.03641179 -0.07077601
000230 14 7c 8d bb 84 1c 51 3d 32 dd 00 be fa c6 9b bd
       -0.00431777 0.051052585 -0.1258438 -0.07606311
000240 42 6b ae 3d 8a d5 0d 3e c1 e3 a1 3c a5 e0 c0 bc
       0.085165516 0.1385099 0.019761922 -0.023544619
000250 a5 de a8 bd aa b0 df bd f5 a6 c7 3d 38 52 83 3d
       -0.08245591 -0.10922368 0.097486414 0.06412166
000260 c0 8e 04 3e d8 f6 59 bc f7 0b 91 3d f7 a1 02 be
       0.1294508 -0.013303481 0.0708236 -0.12757097
000270 d6 dd 07 be 13 8d b2 bd 92 23 92 3d a0 18 8c 3d
       -0.13268217 -0.08718314 0.07135691 0.06840634
000280 cc 89 b7 3d e8 db 67 3d 27 64 bb bd f3 62 f1 3d
       0.089618295 0.056606203 -0.09149962 0.11786451
000290 42 9f 83 3d c2 cd a3 bb a6 a9 a1 3d 90 d3 19 3c
       0.064268604 -0.0049988935 0.07893686 0.009388819
0002a0 84 05 36 bd 63 8a 6e bd 3b 24 c1 3d 6e a0 f5 bb
       -0.044438854 -0.058237445 0.094307385 -0.0074959313
0002b0 ff 5d ac 3d 7a 56 b8 3d 8c 1a ee 3d 8c ed f4 bd
       0.08416366 0.09000869 0.11626157 -0.11959371
0002c0 8b 26 9b bd 45 5f ac bb 1f 3d 7e bd 87 d9 c8 bd
       -0.07575711 -0.0052603805 -0.06207001 -0.09807115
0002d0 1f d7 8d 3d fc d4 01 3d f6 16 9b bd 7c a1 ad 3d
       0.06925797 0.03169726 -0.07572739 0.08478066
0002e0 82 7f e5 3d 89 cf 21 3d d5 5c 6a 3d 99 1f f3 bd
       0.11205961 0.03950456 0.057217438 -0.11871261
0002f0 18 ce 95 3c f2 11 ca 3d cd 2e 45 bc 81 9a eb bd
       0.01828675 0.09866704 -0.012035084 -0.11504079
000300 bd 89 a9 bd e7 b2 54 3d c0 74 d4 3d 08 d4 da 3d
       -0.082782246 0.051928427 0.10373831 0.10684973
000310 fa 29 05 bb fe 84 b0 bc ce 3d 94 bc 98 7a 59 bc
       -0.002031921 -0.02154779 -0.018095877 -0.0132738575
000320 53 c2 e7 bc f0 fc a9 bd 4c 88 91 bd ab 0e e6 3d
       -0.028290903 -0.08300197 -0.07106075 0.112332664
000330 a6 c3 a7 bc 4c 6d a0 bd 8f 28 9a 3d 92 9e 42 3d
       -0.020479035 -0.07833347 0.07527267 0.047514506
000340 5c 05 ac 3d 0f 89 34 3c 5d 54 10 3e 04 a1 94 bd
       0.0839946 0.011019005 0.14094682 -0.07257274
000350 61 54 ae bd ab 0f 0d 3e 06 03 56 bd d4 c5 a0 bd
       -0.08512188 0.13775508 -0.052248977 -0.07850233
000360 58 42 45 bd 29 ca 07 3e 8b 13 be bc 13 a8 a5 bd
       -0.048158973 0.13260712 -0.023202678 -0.08088698
000370 77 90 05 be 2c 72 22 3d 6a 41 83 3d 21 14 0a bb
       -0.1304339 0.039659664 0.06408961 -0.0021069127
000380 02 47 e4 3d 4f a0 86 bd a5 6e 80 3d a2 ba 7b bd
       0.11146356 -0.06573545 0.06271104 -0.061457284
000390 28 83 c5 3d b4 7e cc bd 2f 8f ce bd 88 1b ef 3d
       0.09644157 -0.09985104 -0.10085904 0.11675173
0003a0 15 4a 29 bd ea 28 8a 3d 6f 93 64 bd 68 43 3a 3d
       -0.041330416 0.06746085 -0.055804666 0.04547444
0003b0 63 54 db 3d 76 44 ae 3d e4 f7 08 3e 71 4e c8 3d
       0.10709455 0.08509152 0.13375813 0.097805865
0003c0 8b cc c4 3d fd 95 c9 bd e0 8d c8 3d 50 98 1b bd
       0.09609326 -0.09843061 0.097926855 -0.037987053
0003d0 22 20 35 3d a1 73 87 bd de 89 d7 bd 3f 34 ca 3d
       0.044220097 -0.06613851 -0.10524343 0.098732464
0003e0 25 a2 db 3d f0 8b 0f 3d eb 39 b9 3c 8a 2e 3c 3d
       0.10724286 0.035045564 0.022610625 0.04594282
0003f0 5d 45 8a bb 22 77 0b be 0b a6 22 bd fb 3b af 3d
       -0.0042196945 -0.13619664 -0.039709132 0.08556362

lstm.bias_ih_l0 f4 [200]
000000 d7 8b 3f bd ac b7 73 bb 54 46 83 3d d9 59 ba 3d
       -0.04676422 -0.0037188334 0.064098984 0.09099168
000010 58 26 0b be 50 2e f6 bd 28 ae 8d bd 77 01 e3 3d
       -0.13588846 -0.12020552 -0.06917983 0.11084264
000020 a0 2b 53 3c 76 bb 0d 3a 23 f3 fd bd cf 9c 6b 3d
       0.012888819 0.0005406657 -0.1239989 0.05752259
000030 2e 30 94 bd 09 97 9c bd 8b eb f7 3d 54 00 dc 3d
       -0.07235752 -0.07645995 0.12105473 0.1074225
000040 d9 5a c0 bd 26 df b3 bd c7 56 f0 bc 17 98 ad 3d
       -0.09392328 -0.087827966 -0.029338254 0.084762745
000050 12 ef 8c 3d 68 f9 f0 3d 52 f5 bf 3d 4b cb ca 3d
       0.068815365 0.117663205 0.09372963 0.09902056
000060 dd 24 fc 3c 7d 05 00 3d 65 f5 ba 3d 52 26 08 3e
       0.030779297 0.031255234 0.091288365 0.13295868
000070 ba 49 83 bc f7 0b 9e bd fd 6e 31 bd e6 8f 04 3e
       -0.016026367 -0.07717126 -0.043318737 0.12945518
000080 9f e3 c6 3c 6f a2 bf bd 1b 6d b5 bc 08 37 10 bd
       0.02427846 -0.093571536 -0.022146752 -0.035208732
000090 b9 6b 0a 3e 41 ea f5 bd 54 70 8c 3c c6 08 30 3d
       0.13517655 -0.12007571 0.017143406 0.042977117
0000a0 98 3b a2 bd 59 8a bb bd 6f 4c fc bd e5 bc b2 3a
       -0.07921523 -0.09157247 -0.12319266 0.0013636617
0000b0 ad 22 c4 3d 53 0c 6e 3d 89 29 af 3d 1a ab fe bc
       0.095769264 0.058117222 0.08552844 -0.031087447
0000c0 28 72 f8 3d 3d 10 b3 3d 29 11 dc b9 1f 1a 85 3d
       0.121311486 0.087433316 -0.00041974455 0.06499123
0000d0 ef 3d ef bc 66 5c 27 3e 68 75 03 3e df 9f fa bc
       -0.029204337 0.16343841 0.12837756 -0.03059381
0000e0 ab ff a3 3c c4 1e a9 3c b6 ab e2 bd 26 2c 1d 3e
       0.020019373 0.020644553 -0.110679075 0.15348873
0000f0 61 38 8f bd 28 53 81 bd 04 d5 b5 bc a8 fe ea bd
       -0.06993175 -0.06314689 -0.0221963 -0.11474353
000100 54 31 e6 3d 76 59 ee bd 7f 01 08 be 9a 71 2d 3c
       0.11239877 -0.11638157 -0.1328182 0.010586167
000110 05 2f 9c bd cf 52 98 3d 75 9f 57 bd e0 0a 12 3e
       -0.07626156 0.074376695 -0.052642304 0.14261961
000120 80 59 2d 3c c4 9b 5a 3d 7f 5e 83 3d b5 80 82 3d
       0.0105804205 0.053371206 0.06414508 0.06372205
000130 ec bf fd bd fe 8e 01 3a 02 65 86 bd dc cf 9e bd
       -0.12390122 0.0004942267 -0.065622345 -0.0775449
000140 74 f9 52 bd 34 f1 7f 3c 50 05 1e bc d8 36 fd 3b
       -0.05150743 0.015621472 -0.009644821 0.007727485
000150 eb a7 aa bd 24 b3 08 bc cb 69 e2 3d fe 0f d4 bd
       -0.08332809 -0.008343492 0.11055335 -0.10354613
000160 36 57 b8 bd 55 3e 81 bd 7c 0d 95 bc a0 4e ef bd
       -0.09001009 -0.06310717 -0.018194906 -0.116849184
000170 8e b3 13 bd 7c d9 55 bc 59 87 83 bc ec c5 e4 bc
       -0.03605991 -0.013052341 -0.01605575 -0.027926408
000180 79 56 3d 3d dd 22 dc 3c 75 d6 51 bd a4 5b d0 bd
       0.046225045 0.026872093 -0.051229913 -0.10173729
000190 56 43 25 be f7 af c0 bd 2f 00 d7 bd 7d 63 74 bc
       -0.16138968 -0.09408563 -0.10498082 -0.014916298
0001a0 b1 32 b3 3d 25 19 0d 3e cf d2 a5 bd 8e d9 10 3d
       0.08749903 0.13779123 -0.08096849 0.035363726
0001b0 f9 9b 2c bc 56 3f 75 3a 5b 1b e0 3d 71 63 f5 3d
       -0.010535234 0.0009355446 0.10942718 0.119818576
0001c0 df b0 2e 3e 82 1e 6f bd 0d ea cb 3d 43 0f 0c be
       0.17059658 -0.058378704 0.09956751 -0.13677697
0001d0 f3 54 a3 bc 76 91 01 3e e4 a0 6a 39 4d d4 09 3d
       -0.019937968 0.12653145 0.00022375915 0.03364973
0001e0 a8 28 28 3e 24 ae 61 3d e5 5d 9a bd 46 d2 9c 3d
       0.16421759 0.055097714 -0.0753744 0.07657294
0001f0 ff 0d ea 3d 8c c3 0c 3e 6d 3f 86 3b 44 54 84 bd
       0.11428451 0.1374647 0.0040969164 -0.06461385
000200 84 92 13 3e d6 bc e8 bd a1 4a 18 bd 54 ae 99 3d
       0.1441136 -0.113641426 -0.037180547 0.075039536
000210 5f 97 19 3e da 28 9e bd 37 6e 14 3e 6c ac d3 3d
       0.1499915 -0.077226356 0.14495169 0.10335621
000220 b9 41 10 be ca 38 b2 bd 47 88 fd 3d 19 a1 d9 3d
       -0.14087571 -0.08702238 0.123795085 0.1062643
000230 e7 be c1 3d 1a 22 42 3c 16 f7 b1 3d 8b e3 33 3d
       0.0946024 0.011848951 0.08689706 0.043918174
000240 a0 48 a3 3d fc 83 01 3d f2 40 ca bd 67 25 03 3e
       0.079728365 0.03162001 -0.098756686 0.12807237
000250 78 8d a5 3c a0 8e 29 3c 93 bf ee bc 40 be ce ba
       0.02020906 0.010348946 -0.029144084 -0.0015773252
000260 bd 27 f0 3d 13 12 6e 3d da 0a ce 3b 1b e4 81 3d
       0.117263295 0.058122706 0.0062879147 0.06342336
000270 24 0a 25 3d 4f 46 9d 3b bc 8b 71 bd fb 0e bf bd
       0.040292874 0.004799641 -0.05897115 -0.09329029
000280 2a 7e fb bd 9e dd 7d bd 96 82 1d 3e 10 5d 35 3d
       -0.12279923 -0.06197893 0.15381846 0.044278204
000290 f6 0d db bc 3d ad 58 3d 66 ad 95 bd b1 95 04 be
       -0.026740056 0.052899588 -0.07308464 -0.12947728
0002a0 c5 51 e2 3d f7 18 0a be 0e 6f c0 3d d9 67 1d 3c
       0.110507526 -0.13486086 0.09396182 0.009607279
0002b0 a3 b9 f6 3d d0 68 a1 bc 73 82 26 bd 53 bf a4 bc
       0.12047126 -0.019703299 -0.04065175 -0.020110762
0002c0 98 44 b1 3d 70 d4 71 bd 6b 95 32 3d 81 0f da bd
       0.08655661 -0.059040487 0.043599527 -0.106474884
0002d0 2d 4c ec bc 1c 49 9f 3d 17 09 05 3e f4 e8 bd bd
       -0.028844917 0.077776164 0.12991749 -0.09272948
0002e0 47 93 0c bd 33 12 c6 3d bb 66 85 bd d9 4c 02 3d
       -0.034320142 0.0967144 -0.06513735 0.03181157
0002f0 5d 04 ef bd 8f 34 30 3d d7 f3 1c bd 87 fd 07 3e
       -0.11670754 0.043018874 -0.03831848 0.13280307
000300 32 fc 80 3d aa 23 bf 3d e5 c7 28 bd 13 f1 a4 bd
       0.062981024 0.09332974 -0.04120626 -0.08053794
000310 13 af ab bd 2f 5a bb 3d 06 0b da 3d 03 0e 6e bd
       -0.08383002 0.091480605 0.10646634 -0.05811883

lstm.bias_hh_l0 f4 [200]
000000 c3 b3 0d 3e 7f 26 c0 bc 65 59 f4 3c c2 5d 89 3c
       0.13838105 -0.023455856 0.029827783 0.01676834
000010 cc 02 00 3c 3e 7a c6 3d fc 05 bf 3d 34 97 8f bd
       0.007813167 0.096912846 0.09327313 -0.070112616
000020 90 67 9a bc e9 38 9f bd 4f f3 c4 bd 65 5a 01 be
       -0.01884821 -0.077745266 -0.0961672 -0.12632139
000030 4f 38 8c 3d ff cc f8 3d de 90 c4 3d 2d d7 8f 3d
       0.068466775 0.12148475 0.09597944 0.070234634
000040 eb bd 17 3d 74 ef c1 bc 8d 4c 94 bd 92 6d dc 3d
       0.037046354 -0.02367375 -0.072411634 0.107630864
000050 d4 ad 2c 3d a7 27 11 3e b9 82 2c 3c 8b 36 b1 bd
       0.042157963 0.14175282 0.010529214 -0.08652981
000060 ee 55 ce bd b4 78 49 3c 76 42 00 3e 89 04 b1 3d
       -0.100749835 0.012296844 0.12525353 0.08643443
000070 35 c7 6c 3d 46 e0 f9 3d 39 98 ca 3d 55 23 70 bd
       0.057807166 0.1220098 0.098923154 -0.058627445
000080 13 28 f4 3d f1 06 d4 bc ce 9b 06 be f7 37 db bd
       0.11921706 -0.025882216 -0.13145372 -0.10704034
000090 f1 6d de 3d 66 7a fe 3d bd 61 8e bd de c0 c0 bd
       0.108608134 0.124256894 -0.06952236 -0.094117865
0000a0 8a 5c 95 bd e4 d9 ac 3d df 62 fd bd 6c 14 ea bd
       -0.07293041 0.08439997 -0.12372374 -0.114296764
0000b0 71 7a 60 bd fd e7 37 3d 7f f9 04 3e 81 e7 01 3e
       -0.05480427 0.044898976 0.129858 0.12685968
0000c0 ac 57 7f bd 63 04 a5 bd 70 5c b5 3d 58 ca 8c 3d
       -0.06233947 -0.08057477 0.08855522 0.068745315
0000d0 39 1c 63 bd 0b 79 19 3c 31 e7 d6 3d 33 01 be bd
       -0.055446837 0.009367238 0.10493315 -0.092775725
0000e0 94 99 9a 3b 31 74 94 3d f1 c3 01 3e 09 34 c9 3c
       0.004718015 0.07248724 0.12672402 0.024560945
0000f0 af 38 04 3e d8 95 63 3d 0d 7c d5 bd 7a 64 b5 3d
       0.12912248 0.055562824 -0.104240514 0.08857055
000100 ce 60 bf 3d 6e 08 34 3d 11 5d 2a bd a2 32 af bc
       0.09344636 0.04395335 -0.04159266 -0.021386448
000110 be 76 fb bd d3 22 bf bd 7b 3e c8 bd 2c cd 89 3d
       -0.12278508 -0.09332814 -0.09777542 0.067285866
000120 90 93 e4 3d 26 0a d0 bd 52 0b 8b bc 51 78 d7 bb
       0.11160958 -0.10158186 -0.016973171 -0.006575622
000130 8d e7 e4 bd c4 e8 90 3d 07 a5 04 3e 9f 6d 0c be
       -0.11176977 0.070756465 0.12953578 -0.13713692
000140 98 4f c0 bd 0e c3 b7 3b a6 a6 19 3e 6e f1 2e bd
       -0.09390181 0.005607969 0.15004978 -0.042710714
000150 b3 8e 20 3d 1c b6 54 bd 7b ca 82 bd fa 2c f2 bd
       0.03919859 -0.051931486 -0.06386276 -0.11824985
000160 ad 7a d3 bd 0e 8f 31 3d 37 02 b5 3d 64 cc e7 bd
       -0.10326133 0.04334932 0.08838313 -0.11318281
000170 8d 75 d2 3d 34 75 c9 3c 8b ca 53 bc bf bf d6 bc
       0.10276327 0.02459202 -0.012926708 -0.026214479
000180 22 06 ef 3d 8f aa 59 bd 73 c6 fb bd 8f 9e 36 3d
       0.116710916 -0.053141173 -0.122937106 0.044584807
000190 96 0a 5a bc 70 8d 2b 3d 8d fe ca 3c 94 c0 a8 bd
       -0.013308188 0.041882932 0.024779582 -0.08239856
0001a0 87 ec 99 3c 37 58 3d bd a6 16 03 bd f5 9c 17 3d
       0.018789543 -0.046226706 -0.03200402 0.03701492
0001b0 c6 56 20 3d 53 8b 1d be c7 8d 9f 3c 99 ae c1 bc
       0.039145254 -0.15385179 0.019476784 -0.023642825
0001c0 87 d3 d5 bc fa fa 19 3d fb cd 58 bd 1e 1a e7 3d
       -0.02610184 0.037592866 -0.052930813 0.11284278
0001d0 9a 35 28 3c 94 f0 d1 3d f7 74 de bd cf dc 56 3c
       0.010266686 0.10250965 -0.10862153 0.013114168
0001e0 81 52 65 bd 47 6e 25 be e6 e9 32 be 06 98 b6 3d
       -0.055986885 -0.16155349 -0.17472038 0.08915715
0001f0 6c 3c 95 3d 8f d8 b3 bd 0d 12 9d bd 26 58 74 3d
       0.07286915 -0.0878154 -0.076694585 0.059654377
000200 89 e2 73 3c 7d 50 b4 bc 2f 17 0b be ab e6 41 bc
       0.014885553 -0.022011036 -0.13583063 -0.011834781
000210 9f ab c0 bc d0 77 b8 bd 2b dd bd bc 6f 59 96 bd
       -0.023519335 -0.090072274 -0.02317675 -0.07341277
000220 df b1 ab bd 58 47 69 bc 0b 5d c1 3c ee 1b 87 3d
       -0.083835356 -0.014238201 0.023603937 0.06597124
000230 3d db 80 bd 81 5f 1c be f5 3b a9 3d ed 7a 55 bb
       -0.062918164 -0.15270807 0.08263389 -0.003257449
000240 3d 8b 75 3c 7b 37 56 3d 0d 98 80 bd 78 f3 b9 bb
       0.01498681 0.052299004 -0.062790014 -0.0056747757
000250 39 8d c5 3d 56 65 60 bb ea ef 5a bd 5d 23 5b 3d
       0.09646077 -0.0034240088 -0.053451456 0.053500522
000260 1b 72 11 3d 50 b7 1c 3e 13 81 2f 3d e5 67 da 3d
       0.03550921 0.15304303 0.042847704 0.106643476
000270 c0 53 be bc 57 78 d1 bd 01 eb e3 3c 05 22 90 3d
       -0.023233294 -0.10228031 0.02782202 0.07037739
000280 19 4e 53 3d 95 83 ff bc 46 ce 18 bb 1e f1 05 3e
       0.05158815 -0.031190673 -0.0023316308 0.1308026
000290 31 94 5f 3d 02 82 7a 3c 39 d5 03 3e b6 55 08 3e
       0.054584686 0.015289785 0.12874307 0.13313946
0002a0 cd 43 d1 bd 64 a7 c9 bd 77 1d ec bc 41 dd b5 3d
       -0.1021801 -0.0984638 -0.028822644 0.088800915
0002b0 c7 ae f0 3d 65 8d 12 3e 8c 76 8d bd 96 d6 ec bd
       0.11752086 0.1431175 -0.06907377 -0.115643665
0002c0 d6 35 04 be cd 00 24 3e 21 16 0c 3e ef c1 d3 bc
       -0.12911162 0.1601593 0.13680317 -0.02584931
0002d0 23 12 ee bd 62 c4 38 bd e0 d8 46 bd 57 28 fc bd
       -0.11624553 -0.04510916 -0.048546672 -0.12312382
0002e0 ca a9 09 be b5 da 04 be 04 0c 94 bd 90 92 7b 3c
       -0.13443676 -0.12974055 -0.07228854 0.015354767
0002f0 5b a1 cc bc 1d 40 52 bc b1 19 03 bd 3c f3 0e 3e
       -0.024979284 -0.012832669 -0.032006923 0.13959974
000300 62 34 bf 3d ec 34 fc 3d 1e 10 0e 3a 86 04 23 3d
       0.09336163 0.123147815 0.0005419272 0.039799236
000310 17 7e 24 3d bc 5f be bd 73 64 ba bd c6 81 e5 bd
       0.04015931 -0.09295604 -0.091011904 -0.11206393

mambaLayer.A_log f4 [56, 16]
000000 00 00 00 00 18 72 31 3f 54 9f 8c 3f 18 72 b1 3f
       0.0 0.6931472 1.0986123 1.3862944
000010 10 02 ce 3f 60 58 e5 3f 96 13 f9 3f 92 15 05 40
       1.609438 1.7917595 1.9459102 2.0794415
000020 54 9f 0c 40 8e 5d 13 40 1e 77 19 40 b6 08 1f 40
       2.1972246 2.3025851 2.3978953 2.4849067
000030 21 28 24 40 51 e6 28 40 b2 50 2d 40 18 72 31 40
       2.5649493 2.6390574 2.7080503 2.7725887
000040 00 00 00 00 18 72 31 3f 54 9f 8c 3f 18 72 b1 3f
       0.0 0.6931472 1.0986123 1.3862944
000050 10 02 ce 3f 60 58 e5 3f 96 13 f9 3f 92 15 05 40
       1.609438 1.7917595 1.9459102 2.0794415
000060 54 9f 0c 40 8e 5d 13 40 1e 77 19 40 b6 08 1f 40
       2.1972246 2.3025851 2.3978953 2.4849067
000070 21 28 24 40 51 e6 28 40 b2 50 2d 40 18 72 31 40
       2.5649493 2.6390574 2.7080503 2.7725887
000080 00 00 00 00 18 72 31 3f 54 9f 8c 3f 18 72 b1 3f
       0.0 0.6931472 1.0986123 1.3862944
000090 10 02 ce 3f 60 58 e5 3f 96 13 f9 3f 92 15 05 40
       1.609438 1.7917595 1.9459102 2.0794415
0000a0 54 9f 0c 40 8e 5d 13 40 1e 77 19 40 b6 08 1f 40
       2.1972246 2.3025851 2.3978953 2.4849067
0000b0 21 28 24 40 51 e6 28 40 b2 50 2d 40 18 72 31 40
       2.5649493 2.6390574 2.7080503 2.7725887
0000c0 00 00 00 00 18 72 31 3f 54 9f 8c 3f 18 72 b1 3f
       0.0 0.6931472 1.0986123 1.3862944
0000d0 10 02 ce 3f 60 58 e5 3f 96 13 f9 3f 92 15 05 40
       1.609438 1.7917595 1.9459102 2.0794415
0000e0 54 9f 0c 40 8e 5d 13 40 1e 77 19 40 b6 08 1f 40
       2.1972246 2.3025851 2.3978953 2.4849067
0000f0 21 28 24 40 51 e6 28 40 b2 50 2d 40 18 72 31 40
       2.5649493 2.6390574 2.7080503 2.7725887
000100 00 00 00 00 18 72 31 3f 54 9f 8c 3f 18 72 b1 3f
       0.0 0.6931472 1.0986123 1.3862944
000110 10 02 ce 3f 60 58 e5 3f 96 13 f9 3f 92 15 05 40
       1.609438 1.7917595 1.9459102 2.0794415
000120 54 9f 0c 40 8e 5d 13 40 1e 77 19 40 b6 08 1f 40
       2.1972246 2.3025851 2.3978953 2.4849067
000130 21 28 24 40 51 e6 28 40 b2 50 2d 40 18 72 31 40
       2.5649493 2.6390574 2.7080503 2.7725887
000140 00 00 00 00 18 72 31 3f 54 9f 8c 3f 18 72 b1 3f
       0.0 0.6931472 1.0986123 1.3862944
000150 10 02 ce 3f 60 58 e5 3f 96 13 f9 3f 92 15 05 40
       1.609438 1.7917595 1.9459102 2.0794415
000160 54 9f 0c 40 8e 5d 13 40 1e 77 19 40 b6 08 1f 40
       2.1972246 2.3025851 2.3978953 2.4849067
000170 21 28 24 40 51 e6 28 40 b2 50 2d 40 18 72 31 40
       2.5649493 2.6390574 2.7080503 2.7725887
000180 00 00 00 00 18 72 31 3f 54 9f 8c 3f 18 72 b1 3f
       0.0 0.6931472 1.0986123 1.3862944
000190 10 02 ce 3f 60 58 e5 3f 96 13 f9 3f 92 15 05 40
       1.609438 1.7917595 1.9459102 2.0794415
0001a0 54 9f 0c 40 8e 5d 13 40 1e 77 19 40 b6 08 1f 40
       2.1972246 2.3025851 2.3978953 2.4849067
0001b0 21 28 24 40 51 e6 28 40 b2 50 2d 40 18 72 31 40
       2.5649493 2.6390574 2.7080503 2.7725887
0001c0 00 00 00 00 18 72 31 3f 54 9f 8c 3f 18 72 b1 3f
       0.0 0.6931472 1.0986123 1.3862944
0001d0 10 02 ce 3f 60 58 e5 3f 96 13 f9 3f 92 15 05 40
       1.609438 1.7917595 1.9459102 2.0794415
0001e0 54 9f 0c 40 8e 5d 13 40 1e 77 19 40 b6 08 1f 40
       2.1972246 2.3025851 2.3978953 2.4849067
0001f0 21 28 24 40 51 e6 28 40 b2 50 2d 40 18 72 31 40
       2.5649493 2.6390574 2.7080503 2.7725887
000200 00 00 00 00 18 72 31 3f 54 9f 8c 3f 18 72 b1 3f
       0.0 0.6931472 1.0986123 1.3862944
000210 10 02 ce 3f 60 58 e5 3f 96 13 f9 3f 92 15 05 40
       1.609438 1.7917595 1.9459102 2.0794415
000220 54 9f 0c 40 8e 5d 13 40 1e 77 19 40 b6 08 1f 40
       2.1972246 2.3025851 2.3978953 2.4849067
000230 21 28 24 40 51 e6 28 40 b2 50 2d 40 18 72 31 40
       2.5649493 2.6390574 2.7080503 2.7725887
000240 00 00 00 00 18 72 31 3f 54 9f 8c 3f 18 72 b1 3f
       0.0 0.6931472 1.0986123 1.3862944
000250 10 02 ce 3f 60 58 e5 3f 96 13 f9 3f 92 15 05 40
       1.609438 1.7917595 1.9459102 2.0794415
000260 54 9f 0c 40 8e 5d 13 40 1e 77 19 40 b6 08 1f 40
       2.1972246 2.3025851 2.3978953 2.4849067
000270 21 28 24 40 51 e6 28 40 b2 50 2d 40 18 72 31 40
       2.5649493 2.6390574 2.7080503 2.7725887
000280 00 00 00 00 18 72 31 3f 54 9f 8c 3f 18 72 b1 3f
       0.0 0.6931472 1.0986123 1.3862944
000290 10 02 ce 3f 60 58 e5 3f 96 13 f9 3f 92 15 05 40
       1.609438 1.7917595 1.9459102 2.0794415
0002a0 54 9f 0c 40 8e 5d 13 40 1e 77 19 40 b6 08 1f 40
       2.1972246 2.3025851 2.3978953 2.4849067
0002b0 21 28 24 40 51 e6 28 40 b2 50 2d 40 18 72 31 40
       2.5649493 2.6390574 2.7080503 2.7725887
0002c0 00 00 00 00 18 72 31 3f 54 9f 8c 3f 18 72 b1 3f
       0.0 0.6931472 1.0986123 1.3862944
0002d0 10 02 ce 3f 60 58 e5 3f 96 13 f9 3f 92 15 05 40
       1.609438 1.7917595 1.9459102 2.0794415
0002e0 54 9f 0c 40 8e 5d 13 40 1e 77 19 40 b6 08 1f 40
       2.1972246 2.3025851 2.3978953 2.4849067
0002f0 21 28 24 40 51 e6 28 40 b2 50 2d 40 18 72 31 40
       2.5649493 2.6390574 2.7080503 2.7725887
000300 00 00 00 00 18 72 31 3f 54 9f 8c 3f 18 72 b1 3f
       0.0 0.6931472 1.0986123 1.3862944
000310 10 02 ce 3f 60 58 e5 3f 96 13 f9 3f 92 15 05 40
       1.609438 1.7917595 1.9459102 2.0794415
000320 54 9f 0c 40 8e 5d 13 40 1e 77 19 40 b6 08 1f 40
       2.1972246 2.3025851 2.3978953 2.4849067
000330 21 28 24 40 51 e6 28 40 b2 50 2d 40 18 72 31 40
       2.5649493 2.6390574 2.7080503 2.7725887
000340 00 00 00 00 18 72 31 3f 54 9f 8c 3f 18 72 b1 3f
       0.0 0.6931472 1.0986123 1.3862944
000350 10 02 ce 3f 60 58 e5 3f 96 13 f9 3f 92 15 05 40
       1.609438 1.7917595 1.9459102 2.0794415
000360 54 9f 0c 40 8e 5d 13 40 1e 77 19 40 b6 08 1f 40
       2.1972246 2.3025851 2.3978953 2.4849067
000370 21 28 24 40 51 e6 28 40 b2 50 2d 40 18 72 31 40
       2.5649493 2.6390574 2.7080503 2.7725887
000380 00 00 00 00 18 72 31 3f 54 9f 8c 3f 18 72 b1 3f
       0.0 0.6931472 1.0986123 1.3862944
000390 10 02 ce 3f 60 58 e5 3f 96 13 f9 3f 92 15 05 40
       1.609438 1.7917595 1.9459102 2.0794415
0003a0 54 9f 0c 40 8e 5d 13 40 1e 77 19 40 b6 08 1f 40
       2.1972246 2.3025851 2.3978953 2.4849067
0003b0 21 28 24 40 51 e6 28 40 b2 50 2d 40 18 72 31 40
       2.5649493 2.6390574 2.7080503 2.7725887
0003c0 00 00 00 00 18 72 31 3f 54 9f 8c 3f 18 72 b1 3f
       0.0 0.6931472 1.0986123 1.3862944
0003d0 10 02 ce 3f 60 58 e5 3f 96 13 f9 3f 92 15 05 40
       1.609438 1.7917595 1.9459102 2.0794415
0003e0 54 9f 0c 40 8e 5d 13 40 1e 77 19 40 b6 08 1f 40
       2.1972246 2.3025851 2.3978953 2.4849067
0003f0 21 28 24 40 51 e6 28 40 b2 50 2d 40 18 72 31 40
       2.5649493 2.6390574 2.7080503 2.7725887

mambaLayer.D f4 [56]
000000 67 df 80 3f 22 d3 7f 3f cc 40 80 3f 76 e6 7f 3f
       1.0068177 0.9993154 1.0019774 0.9996103
000010 7b 21 80 3f 7b 16 80 3f e3 05 80 3f 92 0f 80 3f
       1.0010217 1.000686 1.0001796 1.0004752
000020 57 85 7f 3f f9 53 80 3f cd 29 80 3f 29 98 7f 3f
       0.99812835 1.0025626 1.0012757 0.9984155
000030 f4 e2 7f 3f af 0e 80 3f bc f2 7f 3f fb 0e 80 3f
       0.9995568 1.0004481 0.9997976 1.0004572
000040 e4 5b 80 3f d3 fe 7f 3f 6a 43 80 3f 46 ea 7f 3f
       1.0028043 0.99998206 1.0020573 0.9996685
000050 6d 08 80 3f 30 23 80 3f 1c 83 7f 3f 3f 58 80 3f
       1.0002571 1.0010738 0.9980943 1.002693
000060 ab bf 7f 3f 85 e9 7f 3f 9a fd 7f 3f f1 5f 80 3f
       0.9990184 0.999657 0.9999634 1.0029279
000070 e9 12 80 3f 09 f3 7f 3f eb fc 80 3f 4e ef 7f 3f
       1.0005771 0.9998022 1.0077184 0.99974525
000080 d0 ff 7f 3f da ef 7f 3f 0c f1 7f 3f 10 07 80 3f
       0.99999714 0.9997536 0.99977183 1.0002155
000090 93 fd 7f 3f 13 24 80 3f d5 fd 7f 3f 36 68 7f 3f
       0.999963 1.0011009 0.9999669 0.9976839
0000a0 81 25 80 3f 27 3a aa 3f 43 0e 80 3f 90 de 7f 3f
       1.0011445 1.3298997 1.0004352 0.9994898
0000b0 21 01 80 3f 4a 02 80 3f f2 c1 7f 3f 74 5b 80 3f
       1.0000345 1.0000699 0.9990531 1.0027909
0000c0 58 05 80 3f f3 15 7f 3f 6b fb 7f 3f 83 89 7f 3f
       1.0001631 0.99642867 0.9999301 0.998192
0000d0 fe fa 7f 3f e1 59 7d 3f f2 d4 7f 3f 1d 21 80 3f
       0.9999236 0.9896527 0.99934304 1.0010105

mambaLayer.in_proj.weight f4 [112, 56]
000000 0a 5e 05 be db 82 a3 bc b2 8a 3c bd a6 1a c1 bc
       -0.13024154 -0.019959858 -0.046030708 -0.023572277
000010 2e a4 9a bd 51 70 88 bd e0 0b 59 bc af 05 1f bd
       -0.07550846 -0.06662048 -0.01324746 -0.03882378
000020 82 ee fa bd 19 e7 ef 3c 1d 0e 2c 3b cc c1 f3 3d
       -0.12252523 0.029285 0.002625353 0.11902198
000030 f8 45 6e bb 02 65 03 be f0 52 06 3e 51 a4 e5 bd
       -0.0036357623 -0.128315 0.13117576 -0.112129815
000040 d3 c0 61 3d 61 ed 91 bd e7 11 94 bd 33 90 45 3c
       0.055115532 -0.071253546 -0.07229977 0.012058306
000050 2b 3b 89 bc dc 98 82 3d f6 e6 f9 bd 08 42 00 3e
       -0.016751846 0.06376812 -0.122022554 0.12525189
000060 b2 53 5c 3d 45 94 01 be f2 22 2f 3d 11 7c 9f bd
       0.053790756 -0.12654217 0.042757936 -0.07787336
000070 d8 54 6e 3d 57 c8 b7 bd bc 32 6e bb 84 05 fb 3d
       0.058186382 -0.08973759 -0.0036346158 0.122569114
000080 7f 9f e0 3d 88 59 4e bd b1 aa b3 3d 60 33 f8 3d
       0.109679215 -0.050378352 0.08772791 0.12119174
000090 0b 93 e5 3d eb 0c 64 3d 1f e8 01 bd 7a cd bd bd
       0.11209687 0.055676382 -0.03171551 -0.09267707
0000a0 a8 e8 ff 3c ba ca ca bd 6b 72 09 bb 6d af 96 bd
       0.031238869 -0.09901948 -0.002097274 -0.073576786
0000b0 af b1 92 bd 92 6e 3e 3c c4 ba 8c 3d db e7 de 3d
       -0.07162797 0.011623042 0.0687156 0.10884067
0000c0 c8 ac 82 bb f6 9b 2e bd 9e c2 a1 bd 60 86 2d 3b
       -0.0039878823 -0.042629205 -0.078984484 0.0026477799
0000d0 22 af 8f 3d 1c f6 a0 3d e0 a6 75 bd f2 aa f3 bd
       0.07015826 0.07859442 -0.059973598 -0.118978396
0000e0 2c cb 63 bd 21 42 58 bd fc 18 c5 3c f2 be b1 bc
       -0.05561368 -0.05279744 0.024059765 -0.021697495
0000f0 f6 01 4c 3d 33 05 07 3e 61 b2 a8 3d d9 46 d8 3d
       0.049806558 0.13185577 0.08237148 0.10560388
000100 b2 29 de bc dd 63 b7 3b 9d b4 d2 3d 60 fe b8 3b
       -0.027119491 0.0055966214 0.102883555 0.0056455582
000110 95 27 e7 3d 7f db dd 3d 51 11 5c 3d 8b 45 8a bd
       0.112868465 0.10832881 0.05372745 -0.067515455
000120 21 5b 6b 3c ba 7b b0 3d b3 b4 a8 3c 49 72 3a 3d
       0.014364989 0.08617349 0.020593977 0.045519147
000130 4f d3 95 bd c7 e2 df bc 73 95 df bd 0e 91 88 bd
       -0.073156945 -0.027329816 -0.10917177 -0.06668292
000140 21 50 d3 3d b3 62 69 bb 6a 31 c9 bd 91 a6 57 bd
       0.10318018 -0.0035611808 -0.09823878 -0.052649084
000150 e9 da 2d 39 8d 79 12 bd a2 2a c5 bd 4f 1b d6 ba
       0.00016580116 -0.03576045 -0.09627272 -0.0016335043
000160 1b 0b 9d 3d ef 63 94 3d c4 b5 50 3d 28 2a 5d bc
       0.07668134 0.07245623 0.050954595 -0.01349882
000170 66 9b fd 3c d5 b2 de 3c 6c 28 01 be 56 d1 e1 bd
       0.030957889 0.027184883 -0.12613076 -0.11026256
000180 6b 55 88 bd 02 c8 fb 3d e8 cb 2b 3d 51 2a dd 3d
       -0.06656917 0.12294008 0.041942507 0.10799087
000190 79 a9 71 3d c7 7e 3a 3d 45 49 f1 3d 15 ac dd bd
       0.058999512 0.04553106 0.11781553 -0.10823838
0001a0 4d 4b ba 3c 94 8e b6 3c c8 66 8a 3d bb 9c 99 3d
       0.022740984 0.022284783 0.06757885 0.07500597
0001b0 80 96 df 3d b1 88 3c 3d 76 c0 36 3d 69 76 e5 3d
       0.109173775 0.046028797 0.04461714 0.112042256
0001c0 2b 59 03 3e e1 28 eb 3c af 41 dc bd d1 ef bd 3d
       0.12826984 0.028706016 -0.10754716 0.09274257
0001d0 1c 99 a0 bc 84 81 e7 bd cb 76 e6 3d 2f a8 4d bd
       -0.019604258 -0.11304 0.11253127 -0.05020922
0001e0 d3 97 a2 bd 3d 52 06 3d b6 c8 5d 3c 0e c9 7c 3c
       -0.079391144 0.032793272 0.013536623 0.015428795
0001f0 ce 0a 3f bd 70 f2 89 bc 1d c8 aa bd 9e 45 aa 3d
       -0.046641164 -0.016839236 -0.0833895 0.0831406
000200 73 83 ba bd f8 71 a6 bd 14 7e ca 3d 28 cc 35 3d
       -0.09107103 -0.081272066 0.09887329 0.04438415
000210 e4 e1 8a 3d c8 73 e0 3d 55 56 34 bd 89 83 bb 3d
       0.067813665 0.109595835 -0.044027645 0.09155948
000220 a3 4b 5d 3d e2 48 1f 3d 7e 90 da 3d 2a 01 f7 3d
       0.05402721 0.038887866 0.10672091 0.12060769
000230 45 f8 eb 3c d6 32 c7 3c 53 ca 53 ba 8b 93 ff bd
       0.028804908 0.024316233 -0.000807916 -0.124793135
000240 ed 01 03 be d8 6b cf bd b7 6a e7 bd 44 21 06 be
       -0.12793703 -0.101279914 -0.11299651 -0.13098627
000250 e5 c8 f8 bd 86 8b 59 bd d8 8f 74 bd 21 54 a3 3d
       -0.121476926 -0.053111576 -0.059707493 0.07975031
000260 ad d0 04 3e af 0b 9d 3c 46 e5 05 be 26 73 af bd
       0.12970228 0.01917061 -0.13075742 -0.08566885
000270 c6 4d 79 bb 5d ba 4b bd 16 ca f8 bd f5 30 00 be
       -0.0038040741 -0.049738277 -0.1214792 -0.12518676
000280 9a 9f e7 bc 71 04 8c 3d 09 3b 22 bd 33 0e 05 3e
       -0.028274346 0.06836785 -0.03960708 0.12993698
000290 8b 1b 49 3d 5c 5a cd bd 1b 24 a3 bd 7d db fd 3c
       0.049098533 -0.10027 -0.07965871 0.03098845
0002a0 59 ae 5e bd de b2 fd bd 8f b2 7f bc de aa 9c 3d
       -0.05436549 -0.12387632 -0.0156065365 0.07649778
0002b0 60 d4 af 3c 50 5b 0d bd cf e2 79 3d e5 6c db bd
       0.021463573 -0.03451091 0.061007317 -0.10714129
0002c0 7e 0e 76 bd 25 94 7e bd 7d 26 68 3d 06 1f ca 3c
       -0.060072415 -0.062153 0.05667733 0.024672996
0002d0 8a dc 0e 3d 3c 47 80 3d 9f 92 65 bd 36 d1 2f 3d
       0.03487829 0.06263587 -0.056048032 0.04292413
0002e0 cc 9a 5c bd 30 a2 ee bd 45 f9 91 3d eb b6 5a 3d
       -0.053858563 -0.116520286 0.071276225 0.0533971
0002f0 88 32 86 bd c2 6f 7c 3d 4f c0 eb 3d 58 3a cf 3d
       -0.06552607 0.061630018 0.11511289 0.1011855
000300 18 52 10 3d 35 ac 5a bd 15 38 8d bc f5 c3 1e 3d
       0.03523454 -0.053386886 -0.017238656 0.038761098
000310 bf 20 d9 bd dc a6 01 bd 1d 78 ea bd de 74 d8 3d
       -0.10601949 -0.03165327 -0.11448691 0.10569166
000320 42 43 82 bd 02 21 fe bd b3 ed 88 3d fb 18 02 3e
       -0.06360485 -0.124086395 0.066859625 0.12704842
000330 93 9d a6 bd 97 0a a4 3d 6f 3b 8b 3d b3 d5 02 be
       -0.08135524 0.08009832 0.067984454 -0.12776832
000340 02 2a c2 bc 24 12 03 be e6 11 35 3d d5 85 e4 3d
       -0.023701672 -0.12799889 0.044206522 0.11158339
000350 f1 f3 0b bc 2b c1 ca bd 1d 61 2f bd 86 d7 9c 3d
       -0.008542047 -0.09900125 -0.042817224 0.07658295
000360 f1 e9 5f bd 7b 17 cb bd 02 13 ff 3d a5 20 01 be
       -0.054666463 -0.09916588 0.12454797 -0.12610109
000370 8d 22 61 3d 7b 58 e5 bd 0e 0f 66 bd da 54 02 be
       0.05496459 -0.11198517 -0.0561667 -0.12727681
000380 2e 2e 59 bd e4 1b 86 bd 41 c0 04 3e 2f 7d ab bd
       -0.053022556 -0.065482885 0.12963964 -0.08373486
000390 75 24 a1 bc c9 df ae bd 8d 23 f8 bd 4a c4 ac 3c
       -0.019670704 -0.085387774 -0.12116156 0.021089692
0003a0 80 73 8d bd d8 c5 6b bd b1 a6 ea 3c 3c 52 c6 3b
       -0.069067955 -0.057561725 0.028643938 0.0060522836
0003b0 a5 4e 9f 3c 98 d3 42 3c f8 67 d3 bd 16 34 c5 3d
       0.01944668 0.011891268 -0.10322565 0.09629075
0003c0 78 c7 67 bd 31 05 43 bc 2e 90 74 3d f0 09 dd 3d
       -0.056586713 -0.011903093 0.059707813 0.10792911
0003d0 7b 05 8a 3d 26 7a 77 3d 6f 3d b3 3d e1 c5 31 bd
       0.067393266 0.060419224 0.08751952 -0.043401603
0003e0 f3 3f 99 bd 87 dc 1e 3d 1c 68 d6 3d 87 26 83 3c
       -0.074829005 0.03878453 0.10469076 0.016009582
0003f0 b3 cf 69 bd c0 3f 24 3d 2f ab bc 3d ce 55 a2 3d
       -0.057082843 0.04009986 0.09212338 0.07926522

mambaLayer.conv1d.weight f4 [56, 1, 4]
000000 d0 35 b3 3e e0 e9 b1 3d 08 a7 90 bd e2 01 b6 3d
       0.35001993 0.08687186 -0.07063109 0.08887078
000010 70 1a 3f bd c4 ac 76 3e 9a de fd 3e 52 07 4e be
       -0.046656072 0.24089342 0.49583894 -0.2011998
000020 4c 67 14 3e 10 da 85 bd 2a 5a b4 be 9b db a0 3d
       0.1449253 -0.06535733 -0.3522504 0.078543864
000030 70 a1 8b bd 66 79 dd be 00 88 8a 3e 83 8e 75 be
       -0.06817901 -0.43256682 0.27056885 -0.23980145
000040 7e 06 8a be 32 93 e7 be c0 cc ef bc bf 7a a5 be
       -0.26958078 -0.4522949 -0.029272437 -0.3232021
000050 20 62 46 bd 06 f2 d5 3e 76 60 b8 be e9 c6 ce bd
       -0.048433423 0.41786212 -0.36011094 -0.10096533
000060 d0 cb 1b be c2 3b b1 3e 04 b5 80 3e bb 56 c6 bd
       -0.15214467 0.34615904 0.25138104 -0.09684511
000070 98 6e 60 3e b0 6c 89 be d0 97 c1 3d c4 de 2d 3e
       0.21917188 -0.26840734 0.09452784 0.1697951
000080 60 75 87 3e f8 46 ea 3d c4 a8 37 be da c0 b2 3e
       0.26456738 0.114393175 -0.17935473 0.3491276
000090 00 fc dc bb f8 92 f5 3e 18 9d dc bd 5f 12 c2 bd
       -0.006743908 0.4796369 -0.10772151 -0.0947616
0000a0 c8 2b 1a be a0 7a 31 3d ac 54 27 be cc bd 06 be
       -0.15055764 0.043329835 -0.16340894 -0.1315834
0000b0 d0 df 9e 3e 1c b8 f1 be f8 9e d6 be e6 3d ec 3e
       0.3103013 -0.47210777 -0.4191816 0.46140975
0000c0 98 7a 02 3e e2 87 bb 3e 80 c2 e2 3b 9d b9 92 3e
       0.12742078 0.36627108 0.006920159 0.28657237
0000d0 f8 ca b4 3e f4 e1 02 be 8e 9c e8 3e d9 ba 8b 3e
       0.35311103 -0.12781507 0.45431942 0.2729099
0000e0 98 93 ab bd c8 e3 f2 be 40 c4 b6 bd 36 8c df 3e
       -0.08377761 -0.47439408 -0.089241505 0.4366166
0000f0 90 87 d4 be 30 6f 64 3e a4 e6 c3 3e ea c3 b3 be
       -0.41509676 0.2230804 0.38261902 -0.35110408
000100 00 a7 c5 bb a8 cf 16 be 1c de 5e 3e 4e 6d 18 3e
       -0.006031871 -0.14727652 0.21764416 0.14885446
000110 a0 b1 07 3e 28 f0 f9 3e 6a 6e fa be f3 79 54 bb
       0.13251352 0.48816037 -0.48912364 -0.003242132
000120 c8 72 af 3e f8 38 d7 be b6 5c f5 3e ea b7 92 be
       0.3426726 -0.4203565 0.47922295 -0.2865594
000130 6c ab 6c 3e 46 ec 8d 3e b0 24 31 3e 08 a5 da be
       0.23112267 0.27719325 0.17299151 -0.42704034
000140 38 e2 b3 be 74 54 37 be 3a d7 a7 3e ee e5 2d 3e
       -0.3513353 -0.1790331 0.32781392 0.16982242
000150 86 95 9b be d0 e6 51 3d 08 52 96 3e 16 c7 c3 3e
       -0.30387515 0.05124551 0.2935946 0.38237828
000160 84 3f 82 3e e0 f0 22 bd e0 6b 0d 3d 85 80 ff 3e
       0.25439084 -0.039780498 0.034526706 0.4990274
000170 fc e5 47 3e 00 af 32 3d 60 37 c5 be a1 e3 02 3d
       0.19521326 0.043623924 -0.3851881 0.031955365
000180 a0 ae 97 3d 5c b6 ed be 68 b0 e7 bd 2f d2 c4 be
       0.07406354 -0.46428192 -0.11312944 -0.38441607
000190 50 f0 25 be 98 4b 75 3e 08 c7 07 3e 05 94 e6 3e
       -0.16204953 0.23954618 0.13259518 0.45034805
0001a0 a0 20 3b 3d 20 ee f8 bd bc d4 b7 be 6b c4 e0 3e
       0.04568541 -0.12154794 -0.3590449 0.43899855
0001b0 e4 61 74 3e 58 7d b4 3e 54 95 55 3e cf 05 01 3f
       0.23865467 0.3525188 0.20857745 0.5039949
0001c0 04 21 63 3e e0 ed 63 bd ec 3b ae 3e d6 da bc 3e
       0.22180563 -0.055646777 0.34030092 0.3688571
0001d0 44 33 5f be 68 2b b3 be 00 0a 89 bc 1e 36 bc be
       -0.217969 -0.34994054 -0.016728401 -0.36760038
0001e0 52 ba f4 be 80 2e c9 bc 08 a0 bb 3d bd 9a f2 3e
       -0.477984 -0.024558306 0.09161383 0.4738368
0001f0 74 d5 ec be 90 72 7e bd 30 fd 66 3e d6 37 80 3e
       -0.46256602 -0.062120974 0.22557521 0.250426
000200 40 9d 35 bd 58 f9 50 be 88 e7 c8 3d 8f 95 f7 be
       -0.04433942 -0.20407617 0.09809786 -0.48356292
000210 98 34 f3 bd 00 ac 40 be b8 b3 c7 bd ea 76 fd 3e
       -0.11875266 -0.18815613 -0.097510755 0.49504787
000220 64 70 b0 3e 40 e2 ec 3c 64 56 2b be 8d d5 1a 3e
       0.34460747 0.028916478 -0.16732174 0.15120526
000230 52 4b 9e be 80 fa ab bd 0c 26 0a 3e a0 17 de bb
       -0.3091684 -0.083973885 0.13491076 -0.0067777187
000240 d0 d7 51 3e 38 34 12 be b0 e8 d8 bd 8b 9c 74 bb
       0.20492482 -0.14277732 -0.105912566 -0.0037324752
000250 60 98 e8 bd 34 4a 0b be c0 90 a0 bd ef 7e ca 3e
       -0.11357188 -0.13602525 -0.07840109 0.39549968
000260 e0 8b 31 bd a0 7b 86 bd 1e a0 94 be 58 95 6c be
       -0.043346286 -0.06566548 -0.2902841 -0.23103845
000270 c2 3c d0 be 6c da 19 3e 10 0f 24 3d cf 00 ce 3e
       -0.40671355 0.15024728 0.040053427 0.40234992
000280 ba be f5 be 16 ef ac 3e b8 29 25 be 9d 66 2c be
       -0.47997075 0.33776158 -0.16129196 -0.16836019
000290 4e 0e ce be 50 07 0c be b8 73 b7 3d e4 e6 41 3f
       -0.4024529 -0.13674664 0.089576185 0.75742936
0002a0 84 f9 e6 3e f0 2f 40 be 2c 45 d1 3e eb 4b 22 3e
       0.4511224 -0.18768287 0.40873086 0.15849273
0002b0 9e cd e6 3e 92 1f db be 10 18 fe 3e 64 f8 63 3d
       0.45078748 -0.42797524 0.49627733 0.055656806
0002c0 40 16 9a be 88 28 08 be 10 4c 51 be 85 eb 88 be
       -0.300951 -0.13296711 -0.20439172 -0.26742187
0002d0 f4 a7 c9 be 80 82 08 be 08 7c 92 bd c5 91 c9 be
       -0.3938595 -0.13331032 -0.07152563 -0.39369026
0002e0 34 a3 39 be 80 f8 8e bd 54 b9 9a be 0a db f7 be
       -0.18128663 -0.06980991 -0.3021952 -0.484093
0002f0 be bc c1 3e c4 af ab be c8 47 67 be b5 20 83 bd
       0.3783931 -0.33532536 -0.22585976 -0.06402723
000300 a0 f5 82 3d 18 01 ed 3e fa 81 82 be 24 d0 ff bd
       0.063945055 0.46289897 -0.2548979 -0.124908715
000310 f4 8a 48 3e c4 fa 41 be e0 e3 cf bd fe 06 9c be
       0.19584256 -0.18943316 -0.101508856 -0.30474085
000320 0a cd ff 3e 18 94 b5 bd cc a9 bf 3e c7 8f d9 be
       0.4996112 -0.08866137 0.37434232 -0.42492506
000330 1a 73 d7 be c0 80 5e bc 4e c7 9b 3e 70 8c d7 be
       -0.42080003 -0.013580501 0.30425495 -0.42099333
000340 a8 76 b3 bd 3c 68 5d 3e 30 ef 8d bd c4 d3 84 be
       -0.08762866 0.21621794 -0.06930387 -0.25942814
000350 82 e4 82 be cc 3c b5 3e 70 5e 14 3e d0 29 c8 3e
       -0.25564963 0.35397947 0.1448915 0.390944
000360 62 0d 9f 3e 84 ef 06 be 00 74 d6 3d 5f e8 69 3e
       0.31064898 -0.13177305 0.10471344 0.22842549
000370 22 f2 ce be a0 b0 9f 3c cc 5f e0 3e 4d 5e 28 3e
       -0.40419108 0.019493401 0.43823087 0.16442223

mambaLayer.conv1d.bias f4 [56]
000000 b8 55 f4 be 15 0a 16 3d 60 8d 87 be a6 89 23 3e
       -0.47721648 0.03663071 -0.26475048 0.15970477
000010 d3 ba 50 3e eb 4c 8b 3e 95 ce 8c 3d 5f 99 8d be
       0.20383768 0.2720712 0.0687534 -0.27656075
000020 5f 53 e5 3e 43 9a cd 3e f3 cc 95 3e 70 a1 d9 be
       0.4479017 0.40156755 0.29257926 -0.4250598
000030 02 23 a8 3e fe 3a 19 3d d0 83 b9 3d d2 81 72 3e
       0.3283921 0.037409775 0.09058344 0.23682335
000040 4a a4 f9 be 7d 97 09 bd af 9d d4 be 41 a4 18 be
       -0.48758155 -0.033591736 -0.41526553 -0.14906408
000050 08 ee 0d 3e fc b6 a6 3d d2 a2 d4 3c da 3b 63 3e
       0.13860333 0.0814037 0.025956545 0.221908
000060 79 c3 63 3e f4 34 0b be 82 b2 44 be b9 73 06 3d
       0.22242536 -0.13594419 -0.1920872 0.032825205
000070 d2 35 3d be 76 f1 91 be 5b cb 04 3e 84 fe 5e be
       -0.18477562 -0.28504533 0.12968199 -0.21776778
000080 10 45 35 3c 62 a2 f2 3e e7 e7 a6 3e e3 25 8e 3c
       0.011063829 0.47389513 0.32598802 0.01735205
000090 ed d0 05 bd e1 7a 9c 3e 1d cb f0 3c a4 35 f8 3e
       -0.03266995 0.305625 0.029393727 0.48478425
0000a0 5e b7 fd bd 75 13 56 3f 59 5d 93 3d 0c 66 ea 3d
       -0.1238849 0.8362344 0.07195539 0.11445245
0000b0 9b db ce 3d 88 1c 63 3e f2 c5 5d be ec d9 cb 3e
       0.1010048 0.22178853 -0.21657541 0.398147
0000c0 e8 00 d8 3e f2 36 20 bc 6f 75 e5 ba 15 26 34 3e
       0.4218819 -0.009778725 -0.0017506311 0.17592652
0000d0 fb f9 85 3e 42 f9 e8 3e 6f cc f1 be 12 86 d1 be
       0.26167282 0.4550267 -0.47226283 -0.409226
