crowd_nav/data/output/testing_something/il_model.pth (torch, 125432 bytes, 16 tensors)

mambaLayer.A_log f4 [26, 16]
0	0x00000000	0.0
1	0x3f317218	0.6931472
2	0x3f8c9f54	1.0986123
3	0x3fb17218	1.3862944
4	0x3fce0210	1.609438
5	0x3fe55860	1.7917595
6	0x3ff91396	1.9459102
7	0x40051592	2.0794415
8	0x400c9f54	2.1972246
9	0x40135d8e	2.3025851
10	0x4019771e	2.3978953
11	0x401f08b6	2.4849067
12	0x40242821	2.5649493
13	0x4028e651	2.6390574
14	0x402d50b2	2.7080503
15	0x40317218	2.7725887
16	0x00000000	0.0
17	0x3f317218	0.6931472
18	0x3f8c9f54	1.0986123
19	0x3fb17218	1.3862944
20	0x3fce0210	1.609438
21	0x3fe55860	1.7917595
22	0x3ff91396	1.9459102
23	0x40051592	2.0794415
24	0x400c9f54	2.1972246
25	0x40135d8e	2.3025851
26	0x4019771e	2.3978953
27	0x401f08b6	2.4849067
28	0x40242821	2.5649493
29	0x4028e651	2.6390574
30	0x402d50b2	2.7080503
31	0x40317218	2.7725887
32	0x00000000	0.0
33	0x3f317218	0.6931472
34	0x3f8c9f54	1.0986123
35	0x3fb17218	1.3862944
36	0x3fce0210	1.609438
37	0x3fe55860	1.7917595
38	0x3ff91396	1.9459102
39	0x40051592	2.0794415
40	0x400c9f54	2.1972246
41	0x40135d8e	2.3025851
42	0x4019771e	2.3978953
43	0x401f08b6	2.4849067
44	0x40242821	2.5649493
45	0x4028e651	2.6390574
46	0x402d50b2	2.7080503
47	0x40317218	2.7725887
48	0x00000000	0.0
49	0x3f317218	0.6931472
50	0x3f8c9f54	1.0986123
51	0x3fb17218	1.3862944
52	0x3fce0210	1.609438
53	0x3fe55860	1.7917595
54	0x3ff91396	1.9459102
55	0x40051592	2.0794415
56	0x400c9f54	2.1972246
57	0x40135d8e	2.3025851
58	0x4019771e	2.3978953
59	0x401f08b6	2.4849067
60	0x40242821	2.5649493
61	0x4028e651	2.6390574
62	0x402d50b2	2.7080503
63	0x40317218	2.7725887
64	0x00000000	0.0
65	0x3f317218	0.6931472
66	0x3f8c9f54	1.0986123
67	0x3fb17218	1.3862944
68	0x3fce0210	1.609438
69	0x3fe55860	1.7917595
70	0x3ff91396	1.9459102
71	0x40051592	2.0794415
72	0x400c9f54	2.1972246
73	0x40135d8e	2.3025851
74	0x4019771e	2.3978953
75	0x401f08b6	2.4849067
76	0x40242821	2.5649493
77	0x4028e651	2.6390574
78	0x402d50b2	2.7080503
79	0x40317218	2.7725887
80	0x00000000	0.0
81	0x3f317218	0.6931472
82	0x3f8c9f54	1.0986123
83	0x3fb17218	1.3862944
84	0x3fce0210	1.609438
85	0x3fe55860	1.7917595
86	0x3ff91396	1.9459102
87	0x40051592	2.0794415
88	0x400c9f54	2.1972246
89	0x40135d8e	2.3025851
90	0x4019771e	2.3978953
91	0x401f08b6	2.4849067
92	0x40242821	2.5649493
93	0x4028e651	2.6390574
94	0x402d50b2	2.7080503
95	0x40317218	2.7725887
96	0x00000000	0.0
97	0x3f317218	0.6931472
98	0x3f8c9f54	1.0986123
99	0x3fb17218	1.3862944
100	0x3fce0210	1.609438
101	0x3fe55860	1.7917595
102	0x3ff91396	1.9459102
103	0x40051592	2.0794415
104	0x400c9f54	2.1972246
105	0x40135d8e	2.3025851
106	0x4019771e	2.3978953
107	0x401f08b6	2.4849067
108	0x40242821	2.5649493
109	0x4028e651	2.6390574
110	0x402d50b2	2.7080503
111	0x40317218	2.7725887
112	0x00000000	0.0
113	0x3f317218	0.6931472
114	0x3f8c9f54	1.0986123
115	0x3fb17218	1.3862944
116	0x3fce0210	1.609438
117	0x3fe55860	1.7917595
118	0x3ff91396	1.9459102
119	0x40051592	2.0794415
120	0x400c9f54	2.1972246
121	0x40135d8e	2.3025851
122	0x4019771e	2.3978953
123	0x401f08b6	2.4849067
124	0x40242821	2.5649493
125	0x4028e651	2.6390574
126	0x402d50b2	2.7080503
127	0x40317218	2.7725887
128	0x00000000	0.0
129	0x3f317218	0.6931472
130	0x3f8c9f54	1.0986123
131	0x3fb17218	1.3862944
132	0x3fce0210	1.609438
133	0x3fe55860	1.7917595
134	0x3ff91396	1.9459102
135	0x40051592	2.0794415
136	0x400c9f54	2.1972246
137	0x40135d8e	2.3025851
138	0x4019771e	2.3978953
139	0x401f08b6	2.4849067
140	0x40242821	2.5649493
141	0x4028e651	2.6390574
142	0x402d50b2	2.7080503
143	0x40317218	2.7725887
144	0x00000000	0.0
145	0x3f317218	0.6931472
146	0x3f8c9f54	1.0986123
147	0x3fb17218	1.3862944
148	0x3fce0210	1.609438
149	0x3fe55860	1.7917595
150	0x3ff91396	1.9459102
151	0x40051592	2.0794415
152	0x400c9f54	2.1972246
153	0x40135d8e	2.3025851
154	0x4019771e	2.3978953
155	0x401f08b6	2.4849067
156	0x40242821	2.5649493
157	0x4028e651	2.6390574
158	0x402d50b2	2.7080503
159	0x40317218	2.7725887
160	0x00000000	0.0
161	0x3f317218	0.6931472
162	0x3f8c9f54	1.0986123
163	0x3fb17218	1.3862944
164	0x3fce0210	1.609438
165	0x3fe55860	1.7917595
166	0x3ff91396	1.9459102
167	0x40051592	2.0794415
168	0x400c9f54	2.1972246
169	0x40135d8e	2.3025851
170	0x4019771e	2.3978953
171	0x401f08b6	2.4849067
172	0x40242821	2.5649493
173	0x4028e651	2.6390574
174	0x402d50b2	2.7080503
175	0x40317218	2.7725887
176	0x00000000	0.0
177	0x3f317218	0.6931472
178	0x3f8c9f54	1.0986123
179	0x3fb17218	1.3862944
180	0x3fce0210	1.609438
181	0x3fe55860	1.7917595
182	0x3ff91396	1.9459102
183	0x40051592	2.0794415
184	0x400c9f54	2.1972246
185	0x40135d8e	2.3025851
186	0x4019771e	2.3978953
187	0x401f08b6	2.4849067
188	0x40242821	2.5649493
189	0x4028e651	2.6390574
190	0x402d50b2	2.7080503
191	0x40317218	2.7725887
192	0x00000000	0.0
193	0x3f317218	0.6931472
194	0x3f8c9f54	1.0986123
195	0x3fb17218	1.3862944
196	0x3fce0210	1.609438
197	0x3fe55860	1.7917595
198	0x3ff91396	1.9459102
199	0x40051592	2.0794415
200	0x400c9f54	2.1972246
201	0x40135d8e	2.3025851
202	0x4019771e	2.3978953
203	0x401f08b6	2.4849067
204	0x40242821	2.5649493
205	0x4028e651	2.6390574
206	0x402d50b2	2.7080503
207	0x40317218	2.7725887
208	0x00000000	0.0
209	0x3f317218	0.6931472
210	0x3f8c9f54	1.0986123
211	0x3fb17218	1.3862944
212	0x3fce0210	1.609438
213	0x3fe55860	1.7917595
214	0x3ff91396	1.9459102
215	0x40051592	2.0794415
216	0x400c9f54	2.1972246
217	0x40135d8e	2.3025851
218	0x4019771e	2.3978953
219	0x401f08b6	2.4849067
220	0x40242821	2.5649493
221	0x4028e651	2.6390574
222	0x402d50b2	2.7080503
223	0x40317218	2.7725887
224	0x00000000	0.0
225	0x3f317218	0.6931472
226	0x3f8c9f54	1.0986123
227	0x3fb17218	1.3862944
228	0x3fce0210	1.609438
229	0x3fe55860	1.7917595
230	0x3ff91396	1.9459102
231	0x40051592	2.0794415
232	0x400c9f54	2.1972246
233	0x40135d8e	2.3025851
234	0x4019771e	2.3978953
235	0x401f08b6	2.4849067
236	0x40242821	2.5649493
237	0x4028e651	2.6390574
238	0x402d50b2	2.7080503
239	0x40317218	2.7725887
240	0x00000000	0.0
241	0x3f317218	0.6931472
242	0x3f8c9f54	1.0986123
243	0x3fb17218	1.3862944
244	0x3fce0210	1.609438
245	0x3fe55860	1.7917595
246	0x3ff91396	1.9459102
247	0x40051592	2.0794415
248	0x400c9f54	2.1972246
249	0x40135d8e	2.3025851
250	0x4019771e	2.3978953
251	0x401f08b6	2.4849067
252	0x40242821	2.5649493
253	0x4028e651	2.6390574
254	0x402d50b2	2.7080503
255	0x40317218	2.7725887

mambaLayer.D f4 [26]
0	0x3f8117f4	1.0085435
1	0x3f893171	1.0718213
2	0x3f80d134	1.0063844
3	0x3f806be1	1.0032922
4	0x3f82da46	1.0222862
5	0x3f8325aa	1.0245869
6	0x3f81da09	1.0144664
7	0x3f805d92	1.0028555
8	0x3f8f0aee	1.117521
9	0x3f805b2e	1.0027826
10	0x3f7e0151	0.9922076
11	0x3f813e08	1.0097055
12	0x3f8027b1	1.0012113
13	0x3f8074d6	1.0035655
14	0x3f82fa00	1.0232544
15	0x3f82fef2	1.0234053
16	0x3f86f508	1.0543528
17	0x3f80040d	1.0001236
18	0x3f8174c7	1.0113763
19	0x3f80a779	1.0051109
20	0x3f80b7e7	1.0056123
21	0x3f82a0eb	1.0205358
22	0x3f7fb3b4	0.9988358
23	0x3f8d8b54	1.1058145
24	0x3f8030f1	1.0014936
25	0x3f8194c4	1.0123525

mambaLayer.in_proj.weight f4 [52, 13]
0	0x3e89f5fe	0.2694549
1	0xbe42b1f2	-0.19013193
2	0xbe086a54	-0.13321811
3	0xbd8c4867	-0.06849747
4	0xbd12ad0a	-0.035809554
5	0xbe2c5d1d	-0.16832395
6	0xbe36fd85	-0.17870148
7	0xbd4ca83f	-0.04996514
8	0xbe821e1e	-0.25413603
9	0xbdacaa85	-0.084309615
10	0xbe53a45c	-0.20668167
11	0xbdfdd0d8	-0.123933494
12	0x3e3ab771	0.1823404
13	0x3ea41081	0.3204384
14	0xbe1829e9	-0.14859737
15	0x3e2c3ef7	0.16820894
16	0x3e7dfd72	0.24803713
17	0x3cf8e303	0.030381685
18	0x3de69b9f	0.11260151
19	0x3cc8b6f4	0.024501301
20	0x3d2ead50	0.042645752
21	0x3e7d6218	0.24744451
22	0x3e8bc219	0.27296522
23	0x3e0d9b74	0.13828832
24	0x3e66297b	0.22476761
25	0x3e2b2e93	0.16716985
26	0xbe621bd7	-0.22080933
27	0x3dd827f8	0.105544984
28	0x3e81f4f4	0.25382197
29	0x3e237249	0.15961565
30	0xbe12a9a9	-0.14322533
31	0xbe420320	-0.18946505
32	0xbe5355d3	-0.20638208
33	0xbcab75ec	-0.020930253
34	0x3e792ad2	0.24332741
35	0x3d4b31cc	0.049608037
36	0x3e5f1538	0.21785438
37	0xbc1cbbc6	-0.009566253
38	0x3e382d7a	0.17986098
39	0x3e35c225	0.17749842
40	0x3e027d4b	0.12743108
41	0xbc00a0f2	-0.007850872
42	0xbe2bbc41	-0.16771032
43	0x3e04cfc0	0.12969875
44	0xbde8e907	-0.113725714
45	0xbe6f33c9	-0.23359598
46	0xbe76aa34	-0.24088365
47	0x3e8726d1	0.26396802
48	0x3ca664d3	0.020311749
49	0xbe8937f4	-0.268005
50	0xbe0ec3ca	-0.13941875
51	0x3b866db7	0.0041024345
52	0x3ca6cc3b	0.020361057
53	0x3da9b08f	0.08285629
54	0xbd9c0b15	-0.07619301
55	0xbdfe6afe	-0.12422751
56	0x3c313cbb	0.010817702
57	0xbd19db68	-0.037562758
58	0x3ea93f98	0.3305633
59	0xbe19b762	-0.15011361
60	0x3da009a0	0.07814336
61	0x3dab34ae	0.08359657
62	0xbdd3760b	-0.10325249
63	0x3e8c00ee	0.2734446
64	0x3d424a5f	0.047434207
65	0xbe51c3b7	-0.20484816
66	0xbe452526	-0.19252452
67	0xbd8adf27	-0.06780844
68	0x3e87aed2	0.26500565
69	0xbe7f3185	-0.24921234
70	0x3d957799	0.07298202
71	0xbdce6520	-0.10077882
72	0x3d992edc	0.07479641
73	0xbe20e6a5	-0.15712984
74	0xbccc9828	-0.024974898
75	0x3e72bd4f	0.23705028
76	0x3da577f2	0.080795184
77	0xbe74f3b1	-0.23921086
78	0xbe87995f	-0.264842
79	0xbe15d617	-0.1463245
80	0xbdb6014f	-0.08886968
81	0x3e5fb2f6	0.21845612
82	0xbda3c257	-0.07996052
83	0x3d32ac33	0.043621253
84	0xbe4518c0	-0.19247723
85	0x3dde8749	0.10865647
86	0xbda8b3f8	-0.08237451
87	0x3dcd0479	0.10010619
88	0xbd1f5cbb	-0.038906794
89	0xbb5fcb3f	-0.0034148244
90	0x3e8492e8	0.2589333
91	0xbe10a79e	-0.14126441
92	0x3e79e4ea	0.2440373
93	0xbe617eb9	-0.22020997
94	0x3e2483b9	0.16065873
95	0xbdb77531	-0.08957899
96	0x3c2f3555	0.010693868
97	0x3e82bdf2	0.25535542
98	0xbd6f1b36	-0.05837556
99	0x3e5b4b65	0.2141548
100	0xbc03272c	-0.008004945
101	0xbe30e5b5	-0.17275126
102	0xbe90ce2b	-0.28282294
103	0x3d1b3b38	0.037898272
104	0xbd39799e	-0.045282
105	0xbe4f1f55	-0.20226796
106	0x3e0f8f65	0.14019544
107	0x3de86628	0.1134761
108	0xbe2375bc	-0.15962881
109	0xbecfa17e	-0.40552896
110	0x3df4ee4b	0.11959513
111	0x3ee5c03a	0.4487322
112	0x3e43277c	0.19058031
113	0x3d0d6b93	0.03452642
114	0x3d036485	0.032078285
115	0x3e816faa	0.25280505
116	0xbe065766	-0.13119277
117	0x3e233224	0.15937096
118	0x3d532153	0.051545452
119	0xbd33d9ad	-0.043908764
120	0xbda15a01	-0.07878495
121	0xbdf0d088	-0.11758524
122	0xbd88d74c	-0.066816896
123	0x3e658a4c	0.22416037
124	0xbe222397	-0.15833889
125	0x3e61dd4a	0.22057071
126	0x3e12fbc3	0.14353852
127	0xbdcbf85e	-0.09959482
128	0xbe8271a2	-0.2547732
129	0xbca7558f	-0.02042654
130	0xbd37f3e6	-0.044910334
131	0xbe31d42b	-0.17366092
132	0x3cfc6357	0.030809088
133	0xbdee612f	-0.1163963
134	0x3e1d01c0	0.15332699
135	0xbe23ba64	-0.15989071
136	0x3e77fdba	0.24217883
137	0x3e1e2ff5	0.15447982
138	0xbe0fa73a	-0.14028636
139	0x3e35ca11	0.17752863
140	0x3e5e22d0	0.21692967
141	0x3c031d15	0.008002539
142	0x3e812e1e	0.25230497
143	0x3dd4d980	0.10393047
144	0x3e5b13a6	0.21394214
145	0xbda425bf	-0.08015012
146	0xbdf8b865	-0.121445455
147	0x3d252df5	0.04032703
148	0xbe4966ea	-0.19668165
149	0x3d60be6a	0.054869093
150	0xbc635cd0	-0.013877109
151	0xbce120d3	-0.027481472
152	0xbe4fff54	-0.20312244
153	0x3d857c9d	0.06517909
154	0x3e028945	0.12747677
155	0xbd5b83e0	-0.053592563
156	0xbe0ba635	-0.13637622
157	0xbe69a0c8	-0.2281524
158	0x3e1d8a9f	0.15384911
159	0x3e4b0ea5	0.19829805
160	0xbe32afdd	-0.17449899
161	0xbe7dcade	-0.24784419
162	0x3dc22de0	0.09481406
163	0x3e370d23	0.17876105
164	0xbe45a491	-0.19301058
165	0x3e3e8172	0.18604067
166	0x3e1b24a8	0.15150702
167	0xbe7df998	-0.24802244
168	0xbdf8f437	-0.12155955
169	0xbd616378	-0.0550265
170	0x3e29cb93	0.16581564
171	0x3e4f3b8b	0.20237558
172	0xbe3b43ec	-0.18287629
173	0x3c8f9761	0.017528238
174	0x3e8de031	0.27710107
175	0x3e10e69a	0.14150468
176	0x3cfef3e2	0.031122152
177	0x3e5aff79	0.21386518
178	0x3d14debb	0.036345225
179	0x3e053a45	0.1301051
180	0x3d0c1864	0.03420295
181	0xbe6a29a6	-0.2286745
182	0xbba2e936	-0.0049716486
183	0xbd41129e	-0.047136895
184	0x3e65d428	0.22444212
185	0x3e2ad7c7	0.16683875
186	0xbe71725c	-0.23578781
187	0x3df8cc5f	0.12148356
188	0xbe5bac5c	-0.21452469
189	0xbeaa2f60	-0.3323927
190	0xbd9203f7	-0.071296625
191	0x3e589d79	0.21153821
192	0x3d9fad5b	0.07796737
193	0xbd2e2bf0	-0.04252237
194	0x3e870165	0.2636825
195	0x3cfde372	0.030992243
196	0x3e19398a	0.14963356
197	0x3e550ac2	0.20804885
198	0x3bfc8223	0.007705943
199	0x3df8f8dd	0.12156842
200	0xbe25dec3	-0.16198258
201	0x3e03bee0	0.12865782
202	0x3e7d63c1	0.24745084
203	0x3e0bca20	0.13651323
204	0x3e5b6ad8	0.21427476
205	0xbe196d81	-0.14983179
206	0x3e76fe0d	0.2412035
207	0x3ca9a1c9	0.020707028
208	0x3f108342	0.56450284
209	0x3d4e0df0	0.05030626
210	0x3e6b7783	0.22994809
211	0x3e3b2fa5	0.18279894
212	0xbdc343f8	-0.095344484
213	0xbe07b314	-0.13251907
214	0x3c03c881	0.008043409
215	0xbde58896	-0.11207692
216	0xbe18539c	-0.14875644
217	0x3e122ac6	0.1427413
218	0x3e94096d	0.2891344
219	0x3d47ca7e	0.048777096
220	0x3d3ffa69	0.04686967
221	0xbe1d63aa	-0.1537005
222	0xbe014f92	-0.1262801
223	0xbe866b45	-0.26253715
224	0xbc98f2ef	-0.018670527
225	0xbe39fbd3	-0.1816247
226	0x3a72bb4c	0.0009259477
227	0x3d5ef795	0.05443533
228	0xbe45f903	-0.19333272
229	0xbe916631	-0.28398278
230	0x3e78f145	0.24310787
231	0x3e14e3cc	0.14540023
232	0x3e1834e7	0.1486393
233	0x3e79d7b8	0.24398696
234	0xbe889122	-0.26673228
235	0xbe3c83a1	-0.18409587
236	0xbe81befd	-0.25341025
237	0xbe4fd91d	-0.20297666
238	0xbe8e5722	-0.27800852
239	0x3e328eec	0.17437333
240	0xbe16ee77	-0.14739405
241	0xbe70b9ab	-0.23508327
242	0x3cdc96f4	0.026927449
243	0xbe39e556	-0.18153891
244	0xbdf7998a	-0.12089832
245	0x3e821ba4	0.25411713
246	0x3e3cdd3b	0.18443768
247	0xbda0049f	-0.078133814
248	0xbe77d2f5	-0.24201567
249	0xbd7f0b70	-0.062266767
250	0x3db363f2	0.087592974
251	0x3d51c217	0.05121049
252	0xbd0497f6	-0.032371484
253	0x3e1a8a54	0.1509183
254	0xbe04f477	-0.12983881
255	0x3e5352bc	0.2063703

mambaLayer.conv1d.weight f4 [26, 1, 4]
0	0xbeabcee0	-0.3355627
1	0x3e4f1ab0	0.20225024
2	0xbd1fe780	-0.039039135
3	0x3e4cf018	0.20013463
4	0xbda76338	-0.08173221
5	0xbeceac88	-0.40366006
6	0xbe3f1db0	-0.18663669
7	0x3ec6fd6f	0.3886523
8	0xbe5e0320	-0.2168088
9	0x3eb1f8fa	0.34760267
10	0x3eb94144	0.36182606
11	0xbee731e3	-0.45155248
12	0x3e4c7cc4	0.1996947
13	0xbeb07396	-0.34463185
14	0xbcb09b80	-0.021558523
15	0x3eb45dd3	0.35227832
16	0xbee3288e	-0.44366878
17	0xbea95a50	-0.33076715
18	0xbd5a2700	-0.05325985
19	0x3edb0e06	0.42784137
20	0x3e7ccd78	0.24687755
21	0xbe6d17cc	-0.23153609
22	0x3eb11fe2	0.34594637
23	0x3e992e65	0.2991821
24	0xbe8b5a4a	-0.27217323
25	0x3e2556a0	0.16146326
26	0xbd9c9178	-0.076449335
27	0x3ec8dc20	0.39230442
28	0x3ecf1202	0.40443426
29	0x3edf392c	0.43598306
30	0x3e85190a	0.25995666
31	0x3ed8be1d	0.42332545
32	0xbeb56eaa	-0.35435992
33	0xbe975096	-0.2955367
34	0x3e96bba6	0.2944004
35	0x3f38a5e0	0.72128105
36	0xbcdb15c0	-0.02674377
37	0xbd8f9450	-0.0701071
38	0x3daba908	0.083818495
39	0xbe43ba50	-0.19114041
40	0x3e9c81b0	0.30567694
41	0x3d059160	0.032609344
42	0x3de5b0f0	0.11215389
43	0xbebbe041	-0.3669453
44	0x3ef0f4cc	0.47061765
45	0x3d1a3210	0.0376454
46	0x3eb63184	0.35584652
47	0xbe9fb163	-0.31190023
48	0x3e966540	0.29374123
49	0xbe01e8ac	-0.12686414
50	0x3ea594dc	0.32340133
51	0x3eb122ff	0.34597012
52	0xbeefc048	-0.46826386
53	0x3e303530	0.1720779
54	0x3ef91094	0.4864546
55	0x3e76bf46	0.24096403
56	0xbe8b3eac	-0.27196252
57	0x3e69927c	0.22809786
58	0xbde97db8	-0.11400932
59	0x3ee69d8d	0.45042077
60	0xbe6e6b4c	-0.23283118
61	0xbe3cf9bc	-0.18454641
62	0x3e86f43c	0.2635821
63	0xbea1e777	-0.31621906
64	0xbe50a85c	-0.20376724
65	0x3ec6bf16	0.38817662
66	0xbe354928	-0.17703688
67	0x3f1050bf	0.5637321
68	0x3e43be24	0.19115502
69	0xbef69ef4	-0.48168147
70	0x3edfac10	0.4368596
71	0xbee50767	-0.4473221
72	0x3e7251c0	0.23663998
73	0x3dbace70	0.09121406
74	0xbdfd4780	-0.12367153
75	0x3e6adc0b	0.22935502
76	0xbee895ee	-0.45426887
77	0xbee6635e	-0.44997686
78	0xbe6a867c	-0.22902864
79	0xbe28dede	-0.16491267
80	0xbee8890a	-0.45417053
81	0xbe87509a	-0.26428682
82	0x3bca1200	0.0061666965
83	0x3e8800af	0.26563022
84	0x3ec24136	0.37940377
85	0x3e1606bc	0.14651006
86	0x3ebc8572	0.3682056
87	0x3e9faf04	0.31188214
88	0xbd3fea80	-0.046854496
89	0x3ee7d392	0.45278603
90	0xbca8e000	-0.020614624
91	0xbe93f49d	-0.28897563
92	0xbe862720	-0.26201725
93	0xbea319b6	-0.31855553
94	0x3d8c1530	0.06839979
95	0x3ed4b9f8	0.41548133
96	0xbc046980	-0.008081794
97	0x3ea87112	0.32898766
98	0xbee8b9da	-0.45454293
99	0xbcf1c173	-0.02951119
100	0xbd77f930	-0.060540378
101	0xbe9f75dc	-0.31144607
102	0xbcbd31c0	-0.023095012
103	0xbd10bfcc	-0.03533916

mambaLayer.conv1d.bias f4 [26]
0	0x3e8c0be8	0.27352834
1	0x3eb52e5d	0.35386935
2	0xbedd7ffd	-0.4326171
3	0xbd573c18	-0.052547544
4	0xbde4e1b9	-0.11175866
5	0xbdf68ead	-0.12038932
6	0xbeeba91a	-0.46027452
7	0xbd91a6a2	-0.07111861
8	0x3eb9a335	0.3625733
9	0x3ea26e6d	0.31724873
10	0xbe96434c	-0.29348218
11	0xbe91f58b	-0.28507647
12	0x3e947cee	0.29001564
13	0xbd865e1e	-0.0656092
14	0x3e63f001	0.22259523
15	0xbedb4e40	-0.42833138
16	0x3e05876c	0.1303994
17	0xbe785af5	-0.24253447
18	0x3e80c418	0.25149608
19	0xbe927349	-0.2860358
20	0x3d208814	0.039192274
21	0x3e82f3df	0.25576684
22	0xbdcacc8a	-0.09902294
23	0x3f188883	0.595833
24	0xbe1c86ac	-0.15285748
25	0x3e25eb5a	0.16203061

mambaLayer.x_proj.weight f4 [33, 26]
0	0xbe44ac88	-0.1920644
1	0x3ce64501	0.028109076
2	0x3d89ec98	0.0673458
3	0xbe34d21a	-0.17658272
4	0x3e1c0984	0.15238005
5	0xbd1fb3be	-0.038989775
6	0xbd5c4e71	-0.053785745
7	0x3d8fcf62	0.07021977
8	0x3c13cc97	0.009020946
9	0x3e391227	0.18073331
10	0x3d9df230	0.07712209
11	0xbe43606c	-0.19079751
12	0x3e3564bb	0.17714207
13	0x3d0302a9	0.03198496
14	0x3d7f8ef7	0.0623922
15	0xbe229c6d	-0.15879984
16	0x3e211aff	0.15732954
17	0xbdc3e31b	-0.09564801
18	0x3ddfc2d4	0.109258324
19	0xbd8af02e	-0.06784092
20	0x3e29fd4e	0.16600534
21	0xbe1e5f68	-0.15466082
22	0x3e1e33a6	0.1544939
23	0xbc9afedf	-0.01892036
24	0x3d738eea	0.059462465
25	0xbc668c2b	-0.014071505
26	0x3db78972	0.089617625
27	0x3ccead1f	0.025229035
28	0xbe2451ce	-0.16046831
29	0x3df0ba2e	0.11754261
30	0xbd4efb44	-0.050532594
31	0x3b67b9f3	0.0035358637
32	0xbe465bbd	-0.19370933
33	0xbd453be9	-0.048152838
34	0x3e263237	0.16230093
35	0xbe2acaea	-0.16678968
36	0xbd5faa82	-0.05460597
37	0xbe104a68	-0.14090884
38	0xbdb4be7b	-0.08825394
39	0xbded0af1	-0.115743525
40	0x3dbd7cb6	0.09252302
41	0xbda78643	-0.08179905
42	0x3e114790	0.14187455
43	0xbe30a59a	-0.17250672
44	0xbe45345f	-0.19258259
45	0x3c8da26e	0.017289367
46	0xbe0f3165	-0.13983686
47	0x3b3025ef	0.002687808
48	0xbe25355d	-0.16133638
49	0xbdc66ee9	-0.09689123
50	0xbbacd22f	-0.0052740793
51	0xbd1c086f	-0.03809398
52	0xbd49c5f4	-0.04926105
53	0x3e210074	0.15722829
54	0x3e198407	0.1499177
55	0xbc78e465	-0.015191172
56	0xbdb88f97	-0.090117626
57	0x3e139408	0.14411938
58	0x3cf2a594	0.02961997
59	0x3dd6a78f	0.10481178
60	0x3dbfa844	0.09358266
61	0xbd9d3a3f	-0.07677125
62	0xbd856f03	-0.065153144
63	0xbdaa1b3c	-0.08305976
64	0x3e45106e	0.19244549
65	0x3e4082b5	0.18799861
66	0xbe2d3b21	-0.16917087
67	0x3e1ef5c0	0.15523434
68	0x3cd13d4a	0.02554192
69	0xbe09bac1	-0.13450147
70	0xbe477274	-0.19477254
71	0x3d599c7b	0.053127747
72	0xbe0cb80d	-0.13742085
73	0xbd317b82	-0.043330677
74	0x3d66de95	0.056364615
75	0xbe3943c9	-0.18092264
76	0xbd9413ad	-0.07230315
77	0x3e2ae975	0.1669062
78	0xbcd9b840	-0.026577115
79	0xbbd78131	-0.00657668
80	0xbd696dcc	-0.056989476
81	0x3de4daaa	0.11174519
82	0x3d8dc215	0.06921784
83	0x3de36d86	0.11104874
84	0xbd770a24	-0.060312405
85	0x3e2ba808	0.16763318
86	0x3c8330c0	0.016014457
87	0xbde3b52e	-0.11118542
88	0xbd88e9f2	-0.066852465
89	0xbe44a2f8	-0.19202793
90	0xbc6c38fc	-0.014417883
91	0x3e33627f	0.17518042
92	0x3d74719b	0.059678655
93	0x3b6b8e92	0.0035943133
94	0x3d59b3a0	0.05314982
95	0xba8f455f	-0.0010930708
96	0xbe387ba9	-0.18015923
97	0xbde471d8	-0.111545265
98	0x3e01ac29	0.1266333
99	0xbe4489bb	-0.19193165
100	0xbb3cf904	-0.0028834948
101	0x3e188aad	0.1489665
102	0xbe014ea3	-0.12627654
103	0xbc3733e2	-0.011181803
104	0xbe0f1b12	-0.1397517
105	0x3e30b97f	0.17258261
106	0x3e041403	0.12898259
107	0x3de9d26e	0.114170894
108	0xbd5b6a9d	-0.05356847
109	0x3dfe5eb9	0.12420411
110	0x3cc4830e	0.023988273
111	0x3daf8f49	0.08572251
112	0xbe0e2b7f	-0.1388378
113	0x3d24bc79	0.040218804
114	0xbe1ea528	-0.1549269
115	0xbd1e9919	-0.038720224
116	0x3e38dfd9	0.18054141
117	0x3d402f28	0.04691997
118	0xb92cd100	-0.00016481057
119	0x3d4c858f	0.04993206
120	0xbd8f20e1	-0.06988693
121	0xbd86bbab	-0.065787636
122	0x3e26588a	0.16244712
123	0x3d43825d	0.047731746
124	0xbc39557d	-0.011311886
125	0xbdf6b1ac	-0.12045607
126	0x3e170d2b	0.14751117
127	0x3d546665	0.051855464
128	0xbd3c70e3	-0.046006095
129	0x3e0d7a82	0.13816264
130	0xbe315727	-0.17318402
131	0xbdc1df69	-0.0946644
132	0xbdbd93d2	-0.0925671
133	0x3c157a28	0.009123363
134	0xbdf470dc	-0.11935589
135	0xbd6de28f	-0.05807739
136	0xbe04e1df	-0.12976788
137	0xbd20e581	-0.039281372
138	0xbdd67506	-0.10471539
139	0x3db81dde	0.08990072
140	0x3ca5051e	0.020144042
141	0x3cc1996a	0.023632724
142	0x3d69c41a	0.057071783
143	0xbd051782	-0.032493122
144	0x3e400479	0.18751706
145	0xbe31b9d0	-0.17356038
146	0xbd58f119	-0.052964304
147	0xbd3531a4	-0.044236794
148	0xbc962fd6	-0.018333357
149	0xbdc5e66a	-0.096630886
150	0xbccfa91b	-0.02534919
151	0xbdc19334	-0.09451905
152	0x3e423452	0.18965271
153	0x3b3df3dd	0.0028984465
154	0xbe42f151	-0.19037367
155	0xbd0fd888	-0.03511861
156	0x3d0b1271	0.033953134
157	0x3ced973c	0.029002778
158	0xbb63c7b7	-0.003475649
159	0xbe0b67cc	-0.13613814
160	0xbe0a0cb0	-0.13481402
161	0x3d8388cb	0.064225756
162	0xbde1f981	-0.11033917
163	0x3c5db658	0.013532244
164	0x3d2c623f	0.042085882
165	0xbd297e93	-0.041380476
166	0xbe464c2f	-0.19364999
167	0x3d718670	0.0589661
168	0x3e0e4e5d	0.1389708
169	0x3d2081c1	0.039186243
170	0xbd8b3ec3	-0.0679908
171	0x3e3ce761	0.18447639
172	0x3d05f3c9	0.032703195
173	0xbdc70ee9	-0.09719641
174	0x3e1d5f74	0.15368444
175	0xbe3bb50e	-0.18330786
176	0x3dd9e82e	0.10639988
177	0xbdabeb05	-0.08394436
178	0x3c66ecb4	0.01409452
179	0x3ccd9776	0.025096636
180	0x3cf792bd	0.030221337
181	0xbe2b5377	-0.16731058
182	0xbe0c9383	-0.13728146
183	0xbdafd7f4	-0.08586112
184	0x3e2c5527	0.16829358
185	0xbe020a74	-0.126993
186	0x3e1ba8e8	0.15201151
187	0xbd657c62	-0.056026824
188	0x3dedd4fd	0.1161289
189	0xbe37c3c5	-0.17945774
190	0xbd9d8d12	-0.07692923
191	0x3e1841aa	0.14868799
192	0xbd3ee4b6	-0.046604834
193	0xbe2f6928	-0.17129958
194	0xbdbbe667	-0.09174805
195	0xbc0bf2da	-0.008541787
196	0xbdce0247	-0.10059028
197	0xbc9c7125	-0.01909692
198	0xbce21560	-0.027598083
199	0x3d72b0bd	0.059250582
200	0x3cddabb5	0.027059415
201	0x3c297eea	0.0103452
202	0x3dba2d4b	0.0909067
203	0x3c0e0c34	0.008669902
204	0xbc717a8e	-0.014738692
205	0x3e2ea932	0.1705673
206	0xbde80da3	-0.11330726
207	0xbd823f66	-0.063597485
208	0x399bb3a0	0.00029697735
209	0x3da60ac2	0.08107521
210	0xbccdac2e	-0.025106516
211	0xbe0ef802	-0.13961795
212	0xbd948ba6	-0.07253198
213	0x3d857aeb	0.06517585
214	0x3e291f16	0.16515765
215	0x3dc61dae	0.0967363
216	0xbde8bdb0	-0.11364305
217	0xbda5ccb5	-0.080956854
218	0xbe02bfdf	-0.12768506
219	0x3d5322a3	0.051546704
220	0xbe310023	-0.17285208
221	0x3c2d0a55	0.010561545
222	0xbde66737	-0.112501554
223	0xbd903264	-0.07040861
224	0x3e38a2c4	0.1803084
225	0x3d4d024f	0.05005103
226	0x3d9bc65a	0.07606192
227	0x3e2c6b18	0.16837728
228	0xbe0a6305	-0.13514335
229	0xbd866c68	-0.065636456
230	0xbe0c84dd	-0.13722558
231	0xbcb23688	-0.021754518
232	0xbdadf73a	-0.0849442
233	0x3d86df0c	0.065855116
234	0x3c88a634	0.016680814
235	0xbe3a4a05	-0.18192299
236	0x3d9b93ad	0.07596526
237	0x3e3f8c16	0.18705782
238	0x3d9c631f	0.07636093
239	0xbd842111	-0.064516194
240	0x3e31019a	0.17285767
241	0xbe29e605	-0.16591652
242	0x3c920bb7	0.017827852
243	0xbe0107f3	-0.12600689
244	0xbda9fcb7	-0.08300155
245	0x3cbecd3f	0.023291228
246	0xbd815719	-0.06315441
247	0xbe42684a	-0.18985096
248	0x3c20faf2	0.009825455
249	0x3d9f2629	0.0777095
250	0x3e195aff	0.14976119
251	0x3e37fe7b	0.1796817
252	0x3d834551	0.064097054
253	0x3dc770fa	0.097383454
254	0xbe0c2fc5	-0.13690098
255	0xbe22f18d	-0.15912457

mambaLayer.dt_proj.weight f4 [26, 1]
0	0x3f6b70d6	0.9196905
1	0x3e7dc3c1	0.24781705
2	0xbf1378ca	-0.57606184
3	0x3f49d592	0.7884151
4	0x3f3fb642	0.7488748
5	0x3e021bf9	0.12705983
6	0x3e863058	0.26208758
7	0xbf3d31e6	-0.73904264
8	0xbee795c2	-0.45231444
9	0x3ebd0004	0.36914074
10	0x3f223592	0.6336299
11	0x3eb02750	0.34404993
12	0xbf18eb9e	-0.59734523
13	0x3db64a30	0.08900869
14	0xbf52d586	-0.8235706
15	0x3f508485	0.8145221
16	0xbf2d3dd3	-0.6767246
17	0x3e36e7fb	0.17861931
18	0x3f0db6f4	0.5535729
19	0x3f63dd5c	0.8900964
20	0xbd08494b	-0.033273023
21	0xbf26d0a8	-0.65162134
22	0xbeabadcb	-0.3353103
23	0x3d9568f7	0.07295411
24	0x3f31aef2	0.6940757
25	0xbf4960aa	-0.7866312

mambaLayer.dt_proj.bias f4 [26]
0	0xc05156a0	-3.2709122
1	0xc0394007	-2.894533
2	0xc0a4d202	-5.1506357
3	0xc0a59705	-5.174685
4	0xc0945ebf	-4.6365657
5	0xc0aa1e26	-5.31618
6	0xc0c0d41a	-6.0258913
7	0xc07be36d	-3.935756
8	0xc0222a06	-2.533815
9	0xc09c01a2	-4.8751993
10	0xc09610d8	-4.689556
11	0xc0675109	-3.614321
12	0xc04f5d62	-3.2400746
13	0xc0c6f341	-6.217194
14	0xc0c6e5c3	-6.215547
15	0xc046579d	-3.0990975
16	0xc0bbe889	-5.8721356
17	0xc0378e77	-2.8680704
18	0xc0500ef0	-3.2509117
19	0xc0cdb34e	-6.428138
20	0xc052a206	-3.2911391
21	0xc09e2cce	-4.9429693
22	0xc04f6309	-3.2404196
23	0xc0a91d5c	-5.284834
24	0xc09dd6d5	-4.9324746
25	0xc04dbc41	-3.214615

mambaLayer.out_proj.weight f4 [13, 26]
0	0x38cefaff	9.869597e-05
1	0x3c374aec	0.011187296
2	0x3d6f06ee	0.058356218
3	0xbe1ab73c	-0.15108961
4	0x3e413346	0.18867216
5	0xbe2db4ff	-0.16963576
6	0xbe22551a	-0.15852776
7	0x3d5030df	0.050827857
8	0xbcd65187	-0.026161922
9	0x3c5868cc	0.013208579
10	0x3d853679	0.065045305
11	0x3ce4ad07	0.027914537
12	0xbd984dab	-0.07436689
13	0x3d96ec24	0.07369259
14	0x3e454442	0.1926432
15	0xbd3f8f59	-0.046767566
16	0x3e736360	0.23768377
17	0x3e24658d	0.16054364
18	0xbe0014f9	-0.12508
19	0xbdeb4cd6	-0.11489265
20	0x3dcee546	0.10102324
21	0x3bb07fbf	0.0053863223
22	0x3de8ecaf	0.11373269
23	0x3b0100ec	0.0019684387
24	0xbe2f19bb	-0.17099659
25	0xbd37a978	-0.044839352
26	0x3c95d706	0.018291008
27	0x3e8163e7	0.25271532
28	0xbe2e826f	-0.17041944
29	0xbdeeb510	-0.11655629
30	0x3cc6bc0c	0.02425959
31	0x3de4a1ed	0.111636974
32	0xbe43f13f	-0.19134997
33	0xbe0964fc	-0.13417429
34	0x3e0fd964	0.14047772
35	0x3c4fc216	0.012680551
36	0x3c8b98a9	0.017040567
37	0xbd04e3b7	-0.03244373
38	0xbd579e03	-0.052640926
39	0xbdd01f62	-0.10162236
40	0x3dd4d498	0.103921115
41	0x3d90d739	0.070723005
42	0xbec01747	-0.3751776
43	0x3c983650	0.018580586
44	0x3e4f61e4	0.20252186
45	0xbe1c24fa	-0.1524848
46	0xbe0a63cb	-0.1351463
47	0xbcb3db54	-0.02195517
48	0x3dd8871e	0.105726466
49	0xbda323f5	-0.07965843
50	0x3de7661c	0.11298773
51	0xbddef5af	-0.10886704
52	0x3e3b060c	0.18264025
53	0xbd88bb97	-0.06676405
54	0xbda0f31a	-0.07858868
55	0xbe3f39a5	-0.18674333
56	0x3e1930ab	0.14959972
57	0xbda5094c	-0.08058414
58	0x3cd306df	0.025760112
59	0xbdade879	-0.08491606
60	0x3e180b0b	0.14847963
61	0xbdf450c3	-0.119294666
62	0xbd573fd1	-0.052551094
63	0x3d765d6a	0.06014768
64	0x3bb003b0	0.0053715333
65	0xbe27ecff	-0.16399
66	0x3d5f40c1	0.054505114
67	0xbd20bdd3	-0.03924353
68	0x3e5d6fac	0.2162463
69	0xbca46043	-0.020065432
70	0x3e073676	0.13204369
71	0xbb19635c	-0.002340517
72	0xbdcb7386	-0.09934144
73	0xbcfa614b	-0.030563971
74	0xbe476fe5	-0.19476278
75	0x3d5be438	0.053684443
76	0x3e038ab2	0.12845877
77	0x3e39c783	0.18142514
78	0xbe038fe0	-0.12847853
79	0x3c9427e6	0.018085431
80	0x3c6d89e7	0.0144982105
81	0xbdeb06c3	-0.11475899
82	0x3e1ba66c	0.15200204
83	0x3d8af40e	0.06784831
84	0x3e139987	0.14414035
85	0xbcbdcee5	-0.023169944
86	0xbd5043d6	-0.050845943
87	0xbe416f20	-0.18890047
88	0x3dc8f0a8	0.098115265
89	0xbbaf4ccf	-0.0053497325
90	0x3d8fabc3	0.07015183
91	0x3d275fb3	0.04086275
92	0xbe154834	-0.14578325
93	0xbe20f14b	-0.15717046
94	0x3e284215	0.16431458
95	0xbe0e8a1a	-0.13919869
96	0xbe531770	-0.2061441
97	0x3c640788	0.013917811
98	0xbd1240c3	-0.035706293
99	0xbdf98608	-0.121837676
100	0xbe2e1d39	-0.17003335
101	0x3e636d41	0.22209646
102	0xbdae7cc1	-0.08519889
103	0x3d88eee8	0.06686193
104	0x3e0513be	0.12995812
105	0xbd7a267b	-0.061071854
106	0xbe330b7b	-0.17484848
107	0xbd6b9217	-0.05751237
108	0xbe137863	-0.14401393
109	0xbe1e2eae	-0.15447494
110	0xbe3e7d34	-0.18602449
111	0xbdec73ca	-0.115455225
112	0xbe592fae	-0.21209595
113	0x3d60f6ad	0.05492275
114	0xbd77b7a3	-0.060477864
115	0x3e0dd422	0.13850453
116	0x3d5fe493	0.054661345
117	0x3e25ab44	0.16178614
118	0x3cb59fda	0.02217095
119	0xbd477cda	-0.048703052
120	0xbc2a45eb	-0.010392646
121	0xbd2e62c6	-0.042574666
122	0x3d023bff	0.031795498
123	0xbca32d62	-0.019919101
124	0x3cd0bf1d	0.025481755
125	0x3e3471dd	0.1762156
126	0x3d57e9f5	0.052713353
127	0xbe11eb81	-0.14249994
128	0x3e2b9fcb	0.16760175
129	0xbdb34ae2	-0.08754517
130	0x3e0b58ce	0.13608095
131	0xbe9049b0	-0.2818122
132	0xbe146b46	-0.14494047
133	0x3cfdaa23	0.030964917
134	0xbc06fe18	-0.008239292
135	0xbd8fbd6a	-0.0701855
136	0x3e218a6d	0.15775461
137	0x3de834a9	0.11338169
138	0xbea12b4b	-0.31478342
139	0xbd0608a6	-0.03272309
140	0xbe147339	-0.14497079
141	0x3c796abf	0.015223204
142	0x3e2101ce	0.15723345
143	0x3de182b8	0.11011261
144	0xbe0fe778	-0.14053142
145	0x3e45d7a4	0.19320542
146	0xbe2b4fc0	-0.16729641
147	0x3e11740e	0.14204428
148	0xbd84d48f	-0.06485855
149	0x3d5e0af6	0.054209672
150	0x3e384cf9	0.17998113
151	0xbd7f731b	-0.062365633
152	0xbe3b634d	-0.18299599
153	0x3d58f6a0	0.052969575
154	0x3df39c0b	0.11894997
155	0xbe206c17	-0.15666233
156	0x3e057c51	0.13035704
157	0xbe3a9fd4	-0.18225032
158	0xbe1d9f32	-0.1539276
159	0xbe126c3d	-0.14299102
160	0xbca31fb8	-0.019912586
161	0x3c8aec04	0.016958244
162	0xbe2d208c	-0.16906947
163	0x3e2cadf4	0.16863233
164	0xbda473f4	-0.08029929
165	0xbd75918f	-0.05995327
166	0x3d453b60	0.048152328
167	0xbd481dc2	-0.048856504
168	0x3d405a9a	0.046961404
169	0xbdb80a97	-0.08986395
170	0xbd1d2509	-0.038365398
171	0x3db77e8f	0.08959686
172	0x3dee2efd	0.11630056
173	0x3ce60542	0.028078679
174	0xbd195c4a	-0.03744153
175	0x3d23f59b	0.04002915
176	0xbe331bc9	-0.17491068
177	0xbda781f6	-0.08179085
178	0xbd159b01	-0.036524776
179	0x3e2c9b10	0.16856027
180	0x3d1c510e	0.038163237
181	0xbe1487aa	-0.14504877
182	0x3e029e55	0.12755711
183	0x3d9456df	0.07243132
184	0x3d4409f6	0.047861062
185	0xbe40f002	-0.18841556
186	0xbe0c0427	-0.13673459
187	0x3e74c64f	0.23903774
188	0x3e2e608e	0.1702902
189	0x3df0dec5	0.1176124
190	0x3e5fb606	0.2184678
191	0xbdc9ffbe	-0.09863232
192	0x3d2710fc	0.040787682
193	0x3dcfd7d3	0.10148587
194	0xbc705c11	-0.014670388
195	0xbe51f514	-0.20503646
196	0xbe05c3d0	-0.13062978
197	0xbdc0b4a7	-0.09409457
198	0xbc93e039	-0.018051254
199	0x3dd92086	0.106019065
200	0xbe6ae985	-0.22940643
201	0xbe3eeb3d	-0.18644424
202	0x3db358c1	0.08757163
203	0xbd3e1456	-0.046406113
204	0xbd532e0a	-0.05155758
205	0x3e8a831d	0.27053156
206	0xbd97d6a4	-0.07413986
207	0x3e40e690	0.18837953
208	0x3e310d22	0.17290166
209	0xbe6c18f8	-0.230564
210	0x3d53107b	0.05152939
211	0xbe16d5ce	-0.14729998
212	0xbe3faec6	-0.18719015
213	0xbe12c150	-0.14331555
214	0xbde0212f	-0.10943829
215	0xbd01fccc	-0.031735227
216	0xbe82dd8d	-0.25559655
217	0xbd4c8a82	-0.04993678
218	0x3c181aa2	0.0092836935
219	0x3e2e35e6	0.17012748
220	0xbe307353	-0.17231493
221	0x3d6d6964	0.057961836
222	0x3de2d86d	0.11076436
223	0x3d533da5	0.05157246
224	0x3e012934	0.12613374
225	0x3e2c9a6e	0.16855785
226	0xbe190e8b	-0.14946954
227	0x3e18c9ea	0.14920774
228	0x3ded9e33	0.1160244
229	0xbda72e03	-0.08163073
230	0x3e5116cf	0.20418857
231	0xbdf06b6f	-0.11739241
232	0x3d24d40f	0.040241297
233	0xb7906233	-1.7211865e-05
234	0x3d88fb29	0.0668853
235	0x3e36064b	0.17775838
236	0x3e39efc7	0.18157874
237	0x3dcd4f42	0.10024883
238	0x3e15d478	0.14631832
239	0x3db8afc2	0.09017898
240	0xbd0a619f	-0.033784505
241	0xbe4fed27	-0.2030531
242	0x3e96e36d	0.29470387
243	0x3e26fd34	0.16307527
244	0xbdfe9f0b	-0.12432679
245	0xbe47b30e	-0.19501898
246	0x3d29f55e	0.041493766
247	0xbc7de4be	-0.015496431
248	0x3e264437	0.1623696
249	0xbdfdfecf	-0.124021165
250	0xbda24b7b	-0.07924553
251	0xbdf0d47f	-0.117592804
252	0xbd8aaf56	-0.06771724
253	0x3c729aad	0.014807385
254	0xbe170fb0	-0.14752078
255	0xbe81896c	-0.25300157

value_network.0.weight f4 [150, 13]
0	0xbe3633fb	-0.17793266
1	0xbe3dfddd	-0.18553872
2	0x3e13db50	0.1443913
3	0xbe775a3c	-0.24155515
4	0x3d290743	0.04126669
5	0x3c9c8606	0.019106876
6	0x3dd7f52c	0.1054481
7	0x3e3cba9e	0.18430564
8	0x3dd53279	0.104100175
9	0x3cce4848	0.02518095
10	0xbe3b1469	-0.18269505
11	0xbcec8f7a	-0.028877009
12	0x3dab3a82	0.08360769
13	0x3e65b815	0.22433503
14	0xbe24e313	-0.16102247
15	0x3e7aaa94	0.24479133
16	0xbe0ffad1	-0.14060523
17	0xbe1e825c	-0.15479416
18	0xbe59d324	-0.2127195
19	0xbe8dfa75	-0.27730146
20	0x3e475f3b	0.19469921
21	0xbe39f9ca	-0.18161693
22	0x3cfb6dcf	0.03069201
23	0x3e8edbe5	0.2790214
24	0x3e3eb48d	0.18623562
25	0xbe1d5ffb	-0.15368645
26	0x3e293a5c	0.16526169
27	0x3d287634	0.041128352
28	0x3dc83c34	0.09777108
29	0x3e6d7576	0.23189339
30	0x3e24b93e	0.1608629
31	0xbb5d4d5a	-0.003376803
32	0xbde8aedb	-0.11361476
33	0xbdf91a8e	-0.12163268
34	0xbda6b6b9	-0.0814032
35	0xbe2d4e87	-0.16924487
36	0x3e30c276	0.17261681
37	0xbe2e2e03	-0.1700974
38	0xbcc4b3b9	-0.02401148
39	0xbe699349	-0.22810091
40	0xbe0b7b5a	-0.13621274
41	0xbe289dbf	-0.16466425
42	0xbdb09d06	-0.086237
43	0x3e1e6942	0.1546984
44	0xbe33a80a	-0.1754457
45	0x3c561cfa	0.013068432
46	0x3d1c7f0c	0.0382071
47	0x3dd10ba8	0.102073014
48	0x3e5d033f	0.2158327
49	0x3e09e7b8	0.134673
50	0x3e24d17f	0.16095541
51	0xbe423c26	-0.18968257
52	0x3e521aeb	0.20518081
53	0x3e83de37	0.25755474
54	0x3e5ff4d2	0.21870735
55	0x3cfdd4fa	0.030985344
56	0xbe3677a8	-0.17819083
57	0xbe5887d3	-0.21145563
58	0xbe95a251	-0.292254
59	0x3d0b1810	0.033958495
60	0xbe0738b7	-0.13205229
61	0x3e35b3d7	0.17744385
62	0xbe29e6c8	-0.16591942
63	0xbc093da9	-0.008376517
64	0x3e7f0f7b	0.24908249
65	0x3cbb838e	0.022889879
66	0x3e5e57be	0.21713158
67	0x3db54d1b	0.08852597
68	0x3d42fb7f	0.047603127
69	0x3d8973c6	0.06711535
70	0xbe729aab	-0.23691814
71	0x3d6009d4	0.054696873
72	0xbe574943	-0.21024041
73	0xbb520a02	-0.0032049422
74	0x3d75da92	0.060022898
75	0x3da5462e	0.08070026
76	0x3e0c34c9	0.13692011
77	0xbe05cf72	-0.13067415
78	0xbd3bd25b	-0.045854907
79	0x3e51851f	0.20460938
80	0x3c55dde4	0.013053391
81	0xbd736f96	-0.05943259
82	0xbda2657f	-0.07929515
83	0xbd8003b9	-0.0625071
84	0xbd1a0ff9	-0.03761289
85	0xbd7eebc3	-0.06223656
86	0x3d987743	0.07444622
87	0xbde1963a	-0.110149816
88	0x3b29e792	0.002592538
89	0x3d92c534	0.0716652
90	0xbdad94f1	-0.08475674
91	0x3e81fa5c	0.25386322
92	0x3e0f8626	0.14016017
93	0x3dc32d95	0.095301785
94	0xbe5c1eed	-0.21496172
95	0x3e5656b3	0.2093151
96	0x3b930439	0.0044865874
97	0x3cdc6520	0.026903689
98	0x3e6c8851	0.23098876
99	0x3e0469be	0.12930962
100	0x3dfcd3d1	0.12345088
101	0xbe8ff32c	-0.28115213
102	0x3e8386ef	0.25688884
103	0xbe277917	-0.16354786
104	0xbe350603	-0.17678075
105	0xbe8be64d	-0.27324143
106	0x3e44897a	0.19193068
107	0xbd4b17d5	-0.049583275
108	0x3d3b5175	0.04573198
109	0xbd97b5a6	-0.074076936
110	0xbe8b2398	-0.27175593
111	0xbdb7ada2	-0.08968665
112	0xbe1c7b20	-0.15281343
113	0xbe5054fe	-0.20344922
114	0x3e57a50d	0.21059056
115	0x3e6aba08	0.22922528
116	0x3d827aad	0.06371055
117	0xbe86e829	-0.26349
118	0xbe3c2fb6	-0.18377575
119	0x3dd36fd2	0.103240624
120	0xbe3d399e	-0.1847901
121	0x3e474ed6	0.19463667
122	0x3e5a7365	0.21333082
123	0x3e2cf38e	0.16889784
124	0x3e6fa5c5	0.2340308
125	0x3e6d86c9	0.23195948
126	0x3e275270	0.16340041
127	0x3bb70a7f	0.005585968
128	0xbe044bca	-0.12919536
129	0xbe83f08f	-0.2576947
130	0x3da082ba	0.07837434
131	0x3e5430ac	0.20721692
132	0x3e7390bf	0.23785685
133	0xbdbb68f0	-0.091508746
134	0x3e2e3ead	0.17016096
135	0x3e2b70a3	0.16742186
136	0xbe6c8f65	-0.23101576
137	0x3e4932e1	0.19648315
138	0x3e1f9776	0.15585122
139	0x3e86878f	0.26275298
140	0xbe515334	-0.20441896
141	0x3e356e08	0.17717755
142	0xbe597e01	-0.21239473
143	0x3e7b5ec1	0.24547864
144	0x3d9f00cb	0.07763823
145	0x3e4f6986	0.20255098
146	0x3e2ea5fb	0.17055504
147	0xbe6741de	-0.2258372
148	0x3e2b8221	0.16748859
149	0x3d611fde	0.05496203
150	0xbe8825bc	-0.2659129
151	0x3e6942b3	0.2277935
152	0xbe6590ef	-0.22418569
153	0xbe46a150	-0.19397473
154	0x3db22ef7	0.08700364
155	0xbe6ba9c8	-0.23013985
156	0x3e5b0c1c	0.21391338
157	0xbe0dcc7e	-0.13847539
158	0xbc50c364	-0.012741897
159	0xbe698330	-0.2280395
160	0x3e06d833	0.13168411
161	0x3e1c950b	0.1529123
162	0xbe6678f3	-0.22507076
163	0xbe81f4dc	-0.25382125
164	0xbcf34d86	-0.029700052
165	0xbe777313	-0.24164991
166	0xbe445c6a	-0.19175878
167	0x3de8bc31	0.1136402
168	0xbe3cbac1	-0.18430616
169	0x3e22f473	0.15913562
170	0x3e565249	0.20929827
171	0xbca336c7	-0.01992358
172	0x3e81d0f4	0.2535473
173	0xbd7b48a1	-0.06134856
174	0xbe8df09a	-0.27722627
175	0xbe85125e	-0.25990576
176	0xbdbf9063	-0.093537115
177	0x3e8c6efe	0.2742843
178	0x3e2e8a63	0.17044978
179	0x3e0b65df	0.1361308
180	0xbca4b17c	-0.020104162
181	0x3be71538	0.00705209
182	0x3e4d8947	0.20071898
183	0xbe213d71	-0.15746094
184	0x3c85bdcd	0.016325856
185	0x3e31f659	0.1737913
186	0xbc9d1875	-0.019176701
187	0xbe46a8e1	-0.1940036
188	0xbd35b102	-0.04435826
189	0x3d949428	0.07254821
190	0x3e5365cb	0.206443
191	0x3e13f0e4	0.14447361
192	0xbe81ca1b	-0.25349507
193	0x3e36e225	0.17859705
194	0xbd774786	-0.060370944
195	0xbd938f08	-0.072050154
196	0x3e7a0f62	0.2441993
197	0x3c9a481c	0.018833213
198	0xbda5081e	-0.08058189
199	0xbd293380	-0.04130888
200	0xbe022cb0	-0.1271236
201	0xbe598e25	-0.2124563
202	0xbe80acfd	-0.2513198
203	0xbb706155	-0.0036679108
204	0xbdf02d80	-0.117274284
205	0x3e5a9189	0.2134458
206	0x3d81b4d2	0.06333317
207	0x3d92b5bf	0.071635716
208	0x3e48dbae	0.19615051
209	0x3de9c653	0.114147805
210	0xbcaa2a28	-0.020772055
211	0x3e59dac3	0.21274857
212	0xbe0a4f99	-0.13506927
213	0x3dde1ea4	0.10845688
214	0xbd742b06	-0.059611343
215	0xbc71a0d2	-0.014747815
216	0x3d96dc90	0.07366288
217	0x3dbf0bce	0.093284234
218	0x3dd49f5a	0.103819564
219	0xbd7e6889	-0.06211141
220	0xbe7ad7ea	-0.24496427
221	0x3e7e132f	0.24812005
222	0x3be7ec65	0.007077741
223	0x3e1f8b03	0.15580373
224	0xbe4d16c1	-0.20028211
225	0xbd535a0a	-0.05159954
226	0x3e80ac87	0.25131628
227	0x3e8a7a00	0.27046204
228	0xbe52a9c2	-0.2057257
229	0xbe77a7bf	-0.24185084
230	0x3e1ec8b1	0.15506245
231	0x3bd1590d	0.0063887895
232	0xbd72555e	-0.059163444
233	0x3bf44156	0.0074540777
234	0x3e338b12	0.1753352
235	0xbde0d8a4	-0.10978821
236	0x3e5b2184	0.21399504
237	0xbe24ced0	-0.16094518
238	0x3e4ec740	0.20193195
239	0x3c628817	0.013826392
240	0xbdf73bc3	-0.120719455
241	0x3e6f74dc	0.23384422
242	0x3e5e8838	0.21731651
243	0x3e241e8e	0.1602728
244	0x3db8727f	0.090062134
245	0xbe8ca36f	-0.2746844
246	0xbd6fa3a0	-0.058505654
247	0xbd4bf09a	-0.049790002
248	0xbdaac2d0	-0.08337939
249	0x3e84b852	0.25921875
250	0xbe9593c2	-0.29214293
251	0x3e8f2810	0.27960253
252	0x39c24478	0.00037053577
253	0x3dcd7d9a	0.10033722
254	0xbd7d1b8e	-0.061793856
255	0x3c572cae	0.013133211

value_network.0.bias f4 [150]
0	0x3e38f9ff	0.18064116
1	0x3e0f1e56	0.13976416
2	0xbe558250	-0.20850492
3	0xbe89be25	-0.2690288
4	0xbb747c86	-0.0037305667
5	0xbd820d9c	-0.06350252
6	0x3d90bd8b	0.070674025
7	0x3e830f1f	0.25597474
8	0xbe6a5f39	-0.22887887
9	0xbe88187c	-0.2658118
10	0xbe895e41	-0.26829723
11	0x3d396204	0.04525949
12	0xbe400eb7	-0.18755613
13	0xbe501d3b	-0.2032365
14	0xbe8c9383	-0.27456293
15	0xbd86c41e	-0.06580375
16	0xbe32892e	-0.17435142
17	0x3e35cdcc	0.17754287
18	0x3be21bbb	0.0069002784
19	0xbd07205e	-0.032989852
20	0x3da6e130	0.0814842
21	0x3d1b4402	0.037906654
22	0x3e33a8e7	0.175449
23	0x3e0af502	0.13570026
24	0xbc04701c	-0.00808337
25	0xbd86ecc8	-0.06588131
26	0x3e12514b	0.14288823
27	0xbe68c9b1	-0.22733189
28	0x3e814385	0.25246826
29	0x3d77e5e0	0.06052196
30	0xbdf8e565	-0.121531285
31	0x3e352ee5	0.1769367
32	0xbe067c83	-0.13133435
33	0x3e8444fe	0.25833887
34	0x3e16e5e7	0.14736138
35	0x3e507a7c	0.20359224
36	0xbb9b6742	-0.004742534
37	0x3e5b1562	0.21394876
38	0xbd2e0260	-0.042482734
39	0x3e027188	0.12738621
40	0x3d7ea1f7	0.06216618
41	0x3c769762	0.015050741
42	0xbe332079	-0.17492856
43	0xbcd4ab67	-0.025960637
44	0x3d5344aa	0.051579155
45	0xbdf63862	-0.12022473
46	0x3c645c41	0.013938011
47	0xbd2e62d2	-0.04257471
48	0xbdae63ee	-0.08515154
49	0x3d352ce5	0.044232268
50	0xbcd25fec	-0.025680505
51	0xbd80a6e7	-0.06281834
52	0xbe30b6cf	-0.17257236
53	0x3e48344e	0.19551203
54	0x3d0f2187	0.034944084
55	0x3ca89810	0.020580322
56	0x3e27805c	0.16357559
57	0x3e14b06d	0.14520426
58	0xbe188cd9	-0.14897479
59	0x3e800b1d	0.2500848
60	0xbe3aac23	-0.18229727
61	0xbe8856fa	-0.26628858
62	0xbd1a399b	-0.037652593
63	0x3e69c219	0.22827949
64	0xbdc16bfc	-0.094444245
65	0xbcf08412	-0.029359851
66	0x3e525035	0.20538409
67	0xbd565c32	-0.052334018
68	0x3c3a51b3	0.011372018
69	0x3a84f423	0.0010143559
70	0xbbbd537c	-0.0057777744
71	0x3c8c639b	0.01713734
72	0x3b8ed7cc	0.004359221
73	0x3e1502a8	0.14551795
74	0x3e8a539e	0.2701692
75	0xbe679b26	-0.22617778
76	0xbde70ad5	-0.11281363
77	0x3d86f2a7	0.06589251
78	0xbde25a32	-0.1105236
79	0xbe7c4c05	-0.24638374
80	0xbe88fc84	-0.26755154
81	0x3e7e30ec	0.2482335
82	0x3d15aa7c	0.03653954
83	0x3cdb68c8	0.026783362
84	0x3e8818e1	0.2658148
85	0xbc12b301	-0.008953811
86	0x3d1181a5	0.03552403
87	0xbe8aa003	-0.27075204
88	0x3e279be2	0.16368058
89	0xbe07702f	-0.13226388
90	0x3ad936b7	0.0016572092
91	0xbe73dcd8	-0.23814714
92	0xbdf62d43	-0.12020352
93	0xbe3a62fc	-0.18201822
94	0xbe89fda0	-0.26951313
95	0xbd2711ea	-0.04078857
96	0xbca48c5e	-0.020086464
97	0x3e50a687	0.20376025
98	0x3d3b8fc0	0.045791388
99	0x3e54856f	0.20754026
100	0x3d00f8f8	0.031487435
101	0x3e0062bb	0.12537663
102	0xbe8526ae	-0.26006073
103	0xbe18c309	-0.1491815
104	0xbe032e0f	-0.12810539
105	0xbe04b8ae	-0.12961075
106	0x3e419a5b	0.18906538
107	0x3e2bdf0d	0.16784306
108	0xbdbfdf41	-0.09368754
109	0x3cfa6da1	0.030569853
110	0xbe625649	-0.22103228
111	0xbe7b08bb	-0.24515049
112	0x3d1c5a23	0.0381719
113	0xbe3c5ea5	-0.18395479
114	0xbe822411	-0.2541814
115	0x3e47dc33	0.19517593
116	0xbd92ea1b	-0.07173558
117	0xbc6c3c8e	-0.014418734
118	0xbe3e71d3	-0.18598108
119	0x3e2d86a8	0.16945899
120	0xbe146ecb	-0.14495389
121	0xbe7207c3	-0.23635773
122	0x3df51d1c	0.11968443
123	0x3d728de2	0.05921734
124	0x3d09a663	0.033605944
125	0x3d7c0e7c	0.06153725
126	0xbe3640e4	-0.17798191
127	0x3dfb90f8	0.1228351
128	0xbd97c609	-0.07410819
129	0x3e771aae	0.24131271
130	0xbb1b5523	-0.0023701868
131	0xbe62302f	-0.22088693
132	0xbe497498	-0.19673383
133	0xbe37568d	-0.1790411
134	0x3d0df174	0.034654096
135	0x3e2d3678	0.1691531
136	0x3dd7ee5a	0.10543509
137	0xbd927366	-0.07150917
138	0x3c7b45ed	0.015336496
139	0x3e560bc6	0.20902929
140	0xbe7d5f4b	-0.24743383
141	0xbe5ab304	-0.21357352
142	0xbe833eff	-0.25634
143	0xbd825e86	-0.06365685
144	0x3e8e4afa	0.27791578
145	0xbd97fb92	-0.0742103
146	0x3e76224f	0.24036525
147	0x3e86a546	0.2629797
148	0x3e71bb3b	0.23606579
149	0x3e01efbd	0.12689109

value_network.2.weight f4 [100, 150]
0	0x3d657735	0.056021888
1	0xbcb9a98d	-0.022663856
2	0x3c5af750	0.013364628
3	0xbd7901b2	-0.060792632
4	0x3d44e392	0.04806859
5	0x3da16c2d	0.07881961
6	0xbbe69fef	-0.0070381085
7	0x3d961bf2	0.07329549
8	0xbcc4ea3c	-0.024037473
9	0xbd7927cd	-0.060828973
10	0x3ccd54e8	0.0250649
11	0x3d8c3d8e	0.06847678
12	0x3d103b36	0.035212718
13	0xbcb07bc2	-0.021543387
14	0x3c377b20	0.011198789
15	0xbce92f02	-0.028464798
16	0x3ca3a03f	0.019973872
17	0x3c9c6ca6	0.019094776
18	0xbbd8c3b1	-0.006615125
19	0xbd71556e	-0.058919363
20	0x3da34c4b	0.07973536
21	0xbd40bd32	-0.04705543
22	0x3c8db4b8	0.017298087
23	0x3a115c22	0.000554504
24	0x3ab0a52d	0.0013476961
25	0x3bd0f09c	0.006376339
26	0xbda052c0	-0.07828283
27	0x3d82fb03	0.06395533
28	0xbdb3e073	-0.08783045
29	0xbccf2046	-0.025283944
30	0x3d8eb1e6	0.06967525
31	0xbc72c77e	-0.01481807
32	0xbd2a6a27	-0.04160514
33	0x3d1fba9c	0.038996324
34	0x3d9c2829	0.076248474
35	0x3d5c90ae	0.053848915
36	0x3d5d2be1	0.053996924
37	0xbd8371b8	-0.064181745
38	0x3bd7243a	0.006565598
39	0x3cd4f1b4	0.02599416
40	0xbc25a88f	-0.010110988
41	0x3d9b9a8e	0.07597838
42	0x3c9ad98c	0.018902563
43	0x3d9845e2	0.07435204
44	0x3d8cdd6f	0.068781726
45	0xbd57dc4e	-0.052700333
46	0x3cb9694f	0.022633223
47	0x3d2a9e1d	0.041654695
48	0x3da31a3b	0.079639874
49	0x3d1d035b	0.03833328
50	0x3d932a8c	0.071858495
51	0xbd7199cd	-0.058984566
52	0xbd649398	-0.05580482
53	0x3d63b608	0.05559352
54	0x3ca63bf4	0.02029226
55	0xbcafc84c	-0.021457814
56	0x3c13edfe	0.00902891
57	0xbd327364	-0.043567076
58	0xbcdeb824	-0.027187414
59	0x3d41fa92	0.047358103
60	0xbce9ad3d	-0.02852499
61	0x3d4f85e2	0.05066479
62	0xbd12baee	-0.0358228
63	0x3d33f487	0.04393437
64	0x3d28d907	0.0412226
65	0xbd6da7d6	-0.05802139
66	0x3be745f7	0.007057901
67	0x3cd6a3e6	0.0262012
68	0xbd0c4efa	-0.034255005
69	0xbba3b746	-0.004996213
70	0x3c20a2ae	0.009804411
71	0xbd38138d	-0.04494052
72	0x3d9b8939	0.075945325
73	0xbd8630f1	-0.065523036
74	0xbd7d1dbb	-0.06179593
75	0x3d0ac74a	0.033881463
76	0xbcffc6ed	-0.031222785
77	0x3d95b9d0	0.073108315
78	0x3cd886f4	0.026431538
79	0x3d709eb5	0.058745105
80	0xbcbcec66	-0.023061942
81	0xbb499ee8	-0.0030764882
82	0x3a82116e	0.0009923407
83	0x3c192891	0.009348051
84	0x3d6a1025	0.057144303
85	0xbcd735b2	-0.026270721
86	0xbd7d508e	-0.0618444
87	0xbd69113c	-0.0569012
88	0xbdacf04c	-0.084442705
89	0xbcb84c0e	-0.022497203
90	0xbd8da532	-0.06916274
91	0x3c56d352	0.013111906
92	0x3caf4910	0.021397144
93	0x3cb577e3	0.022151893
94	0x3d8d5758	0.06901425
95	0x3d3d2a6d	0.04618304
96	0x3c927fc2	0.017883185
97	0xbbaefbbc	-0.0053400677
98	0xbcb46147	-0.022019042
99	0x3d214578	0.03937289
100	0xbda8daf6	-0.082448885
101	0x3b0cdaec	0.0021492792
102	0xbd33bb13	-0.04387958
103	0x3d432679	0.047644112
104	0x3b129aa6	0.002237001
105	0x3d6304c0	0.05542445
106	0x3ce07ada	0.02740233
107	0x3d076b09	0.03306106
108	0xbc6b800e	-0.014373792
109	0xbda6aeb2	-0.08138789
110	0xbcb9b2c8	-0.022668257
111	0x3d3e5c8f	0.04647499
112	0x3d014a09	0.031564746
113	0x3d026333	0.031832885
114	0x3d9edfd7	0.07757538
115	0xbd0ba19f	-0.03408968
116	0xbd419399	-0.0472599
117	0x3c8ab2e4	0.016931005
118	0xbd4fa9f9	-0.050699208
119	0x3d430bb3	0.04761858
120	0xbcce84d9	-0.025209831
121	0xbc9e8a55	-0.019353071
122	0x3d027095	0.031845648
123	0x3d0b2a8f	0.033976134
124	0xb7ab9af5	-2.0456946e-05
125	0xbd3a6319	-0.045504663
126	0xbd6fbdb2	-0.058530517
127	0x3c37dd80	0.011222243
128	0x3c80c4ab	0.015718779
129	0x3a999ee3	0.0011720326
130	0xbd49e60f	-0.049291667
131	0xbc6abf4f	-0.014327838
132	0x3cf442fc	0.029817097
133	0x3d2fc6d5	0.04291423
134	0xbc3d1341	-0.011540235
135	0xbc075f6c	-0.008262496
136	0xbd9ef7d0	-0.0776211
137	0xbd315e98	-0.043303102
138	0xbd0aabd6	-0.03385528
139	0x3d219e9f	0.039457913
140	0xbd8df6b6	-0.06931822
141	0x3b1cc638	0.0023921859
142	0x3d29a762	0.041419394
143	0x3b72796f	0.003699865
144	0xbb056ab2	-0.0020357785
145	0xbcce3a31	-0.025174232
146	0xbca0cc65	-0.019628713
147	0xbd4a040e	-0.049320273
148	0xbd3e7152	-0.04649479
149	0xbd98d098	-0.07461661
150	0xbd837bc3	-0.0642009
151	0xb9fdd272	-0.00048412714
152	0x3d0a6f6f	0.033797678
153	0x3d9491cd	0.07254372
154	0x3dccb222	0.09994914
155	0x3d3eebfd	0.046611775
156	0xbd0e1563	-0.034688365
157	0x3cb28cd2	0.021795664
158	0xbd8e7d5b	-0.069575034
159	0x3d08fea2	0.03344596
160	0x3cb0cd9f	0.021582423
161	0x3da4bbcf	0.08043634
162	0xbd63e132	-0.055634685
163	0xbd05f505	-0.032704372
164	0xbb918caa	-0.0044418173
165	0x3d827989	0.06370837
166	0xbb76c852	-0.0037656021
167	0xbce741a1	-0.028229536
168	0xbcdeb13d	-0.027184123
169	0xbd8294f6	-0.06376068
170	0xbc7132d9	-0.014721596
171	0xbb509df7	-0.0031832436
172	0x3d26bb92	0.040706225
173	0xbd41d124	-0.047318593
174	0xbd43869a	-0.047735788
175	0xbb9f20fa	-0.004856226
176	0x3ce77a60	0.028256595
177	0x3ca5a13e	0.020218488
178	0xbd76d7c0	-0.06026435
179	0x3c258cb1	0.010104344
180	0xbd968456	-0.0734946
181	0xba168a1d	-0.00057426264
182	0x3cf0d6b5	0.029399255
183	0xbd380397	-0.0449253
184	0x3cff7f09	0.031188505
185	0x3d8389f2	0.06422795
186	0xbd0ddbf0	-0.034633577
187	0x3c1845c0	0.009293973
188	0x3d37f4fe	0.044911377
189	0x3ce227e7	0.027606918
190	0xbd801898	-0.06254691
191	0xbc43c5b7	-0.011948994
192	0x3d5e3225	0.05424704
193	0x3da28ff3	0.079376124
194	0x3d9da97e	0.07698344
195	0xbc7bfb2c	-0.015379708
196	0x3d28fb67	0.04125538
197	0x3baee746	0.0053376285
198	0xbd2fb392	-0.04289586
199	0x3d7fe99c	0.062478647
200	0x3c82c684	0.0159638
201	0x3bffb0dc	0.0078030657
202	0x3dbce873	0.09224024
203	0xbd85a56a	-0.06525691
204	0x3d971186	0.07376389
205	0xbce6e54b	-0.028185507
206	0xbd6308a3	-0.05542816
207	0xbd0f4723	-0.03497995
208	0x3da5259b	0.08063813
209	0x3d7e1846	0.062034868
210	0xbbb8e7db	-0.0056428737
211	0xbd26d068	-0.040726095
212	0x3d13de5c	0.03610073
213	0xbd7d5741	-0.06185079
214	0x3d1488d1	0.03626329
215	0xbd241a2e	-0.04006403
216	0xbcdda39f	-0.02705556
217	0xbd3fa75e	-0.046790473
218	0x3c9b580d	0.018962884
219	0x3ccaebd4	0.024770655
220	0x3d766b4e	0.060160927
221	0x3d69bd3d	0.057065237
222	0xbcb27ec0	-0.021788955
223	0xbc65a8be	-0.014017282
224	0xbd3b07bb	-0.04566167
225	0x3a9ecab8	0.0012114858
226	0xbd96b136	-0.07358019
227	0x3cf0ffdd	0.02941888
228	0xbd98e0f4	-0.074647814
229	0x3d7e1307	0.062029865
230	0x3c018aa3	0.007906589
231	0xbd83769b	-0.064191066
232	0x3d57c7d1	0.052680794
233	0x3d2e3fa3	0.042541157
234	0x3da12f17	0.0787031
235	0x3dc31892	0.09526171
236	0xbd4364e4	-0.04770364
237	0x3d8ef7dd	0.0698087
238	0xbc9a118a	-0.018807191
239	0xbd0ed571	-0.034871522
240	0xbd7c47ac	-0.06159179
241	0x3c8c23b2	0.017106865
242	0xbda53146	-0.08066039
243	0x3d387f79	0.045043442
244	0xbd0f3957	-0.034966793
245	0xbcdd914f	-0.027046828
246	0x3d979b78	0.074027
247	0xbd2fab11	-0.04288775
248	0xbd497f10	-0.049193442
249	0x3c8012d0	0.01563397
250	0xbd028c09	-0.03187183
251	0x3c492b1b	0.012278344
252	0xbcdb83aa	-0.02679618
253	0x3cad6ccf	0.021170048
254	0xbd946c03	-0.07247164
255	0xbd48d12b	-0.049027603
