crowd_nav/data/output/il_model.pth (torch, 392355 bytes, 20 tensors)

mlp1.0.weight f4 [150, 13]
0.11518988 -0.30058217 0.1067744 -0.15343858 0.1805743 -0.0138569325 -0.053155005 -0.15673319
0.24419826 -0.07394616 -0.24029441 0.06669554 -0.18742076 -0.17510487 0.1287758 0.24971378
-0.13911779 -0.0358956 -0.066634655 0.06059762 0.11427357 0.1960516 -0.2561199 -0.011829988
0.0020082789 -0.12293795 0.24875951 0.2368678 0.17285256 -0.27137572 -0.01019345 -0.2675745
-0.018162122 -0.10569637 0.37828866 -0.1147573 0.1194323 -0.32099304 -0.15967251 -0.053625435
-0.04036943 0.10548981 -0.19246317 -0.25843194 0.1272987 -0.03475026 0.0070565636 0.19938223
-0.06267142 0.14484638 0.3230179 0.016876234 0.0065163174 0.1475297 0.090640955 -0.013821772
0.11958303 -0.22301571 -0.35590956 0.30315405 -0.28599375 -0.18557929 -0.1403456 -0.10735322
0.30866972 -0.22784175 0.08612117 0.2115267 0.08919967 -0.18861996 -0.016918154 -0.065864205
0.17387627 0.24910489 0.23423666 -0.05523001 -0.0993907 -0.24771109 -0.051078953 0.2173378
0.21021862 0.021070069 0.10165978 0.07290327 0.06458254 0.14082882 0.14446892 -0.09524936
0.021643277 0.102937974 0.24315973 0.023021849 -0.14266473 -0.18188056 -0.23098852 -0.030152814
0.35764363 0.2531411 0.2551299 -0.18735571 -0.116982855 0.028930008 0.06241898 -0.21829925
0.18928196 0.06495428 0.2317358 0.048409417 -0.17415252 -0.109142415 -0.15318425 -0.24371664
0.13521886 0.16574116 0.20818101 0.026471745 0.0061087357 0.032082476 0.23352459 -0.17728475
-0.08533943 0.14551795 -0.27079424 -0.11078018 -0.17005554 0.13079567 0.01671401 -0.02811141
0.22826469 -0.24001072 -0.16609648 -0.14442919 0.012466624 -0.21266466 -0.24042039 0.26515198
0.022019733 -0.036160003 -0.16469684 -0.2230166 -0.21683748 -0.019583048 0.2034596 -0.2658204
0.18811156 -0.06860859 0.1756136 -0.21603183 0.23482382 -0.0025202467 0.0099781435 0.22341579
-0.06642403 -0.030390767 0.03645028 -0.18489134 0.18055218 0.049101923 0.24877694 -0.1515661
-0.31501442 -0.10491823 -0.026997412 0.14949098 0.08943635 -0.26304704 -0.22773772 -0.11093573
0.020961449 0.02222639 0.0153428465 -0.2742701 0.0029218975 -0.22515698 -0.023103507 -0.196371
-0.09507496 -0.26319966 -0.029634595 0.22767638 -0.105500154 0.16020447 0.13482907 -0.036905073
-0.066202454 -0.2340696 0.046667915 0.21755387 -0.2200811 0.35940418 0.14801313 -0.022071963
-0.07704888 -0.2585375 0.29112542 -0.16631828 -0.13584611 0.2569198 0.13338722 -0.054703295
-0.07402718 -0.19104822 -0.2558093 -0.046581365 -0.27365032 -0.26005775 0.3111391 0.10412636
-0.22528307 -0.19247985 -0.17700002 0.13313678 -0.26655164 0.20381491 0.14857493 -0.18277276
-0.12666242 -0.20403023 0.23063597 -0.12453282 0.09715981 -0.11245249 -0.18144047 0.25496227
0.10445736 -0.11372697 0.20978862 -0.09379109 0.04106907 -0.25003257 0.25176612 -0.18230066
-0.08488341 -0.24226424 -0.18223624 0.19501719 -0.05057708 0.23733458 -0.024082456 0.0800551
-0.13476872 0.25671014 0.1359415 0.17003559 0.18786888 -0.1995723 0.011667007 -0.07634856
-0.12796436 -0.08772945 -0.20280999 0.13429104 -0.04935981 -0.28523716 -0.004510238 -0.042647384
00000000: ace8 eb3d e8e5 99be 89ac da3d 011f 1dbe
00000010: 78e8 383e 3008 63bc 10b9 59bd aa7e 20be
00000020: 1c0f 7a3e 1671 97bd bd0f 76be ac97 883d
00000030: 3aeb 3fbe b14e 33be cedd 033e f8b4 7f3e
00000040: e574 0ebe 4407 13bd c077 88bd 3635 783d
00000050: 4308 ea3d c0c1 483e 2622 83be 91d2 41bc
00000060: 549d 033b e4c6 fbbd d0ba 7e3e 798d 723e
00000070: 4300 313e c2f1 8abe 6e02 27bc 86ff 88be
00000080: bbc8 94bc 5777 d8bd 0daf c13e e005 ebbd
00000090: ec98 f43d 3359 a4be 3181 23be 58a6 5bbd
000000a0: 6a5a 25bd 0b0b d83d 1115 45be 3151 84be
000000b0: 975a 023e 4a56 0ebd bf3a e73b db2a 4c3e
000000c0: e059 80bd 9c52 143e 9a62 a53e 0740 8a3c
000000d0: d586 d53b 0712 173e f7a1 b93d b774 62bc
000000e0: f3e7 f43d 3b5e 64be c739 b6be 0237 9b3e
000000f0: c66d 92be 7f08 3ebe c2b6 0fbe 01dc dbbd
00000100: f509 9e3e 594f 69be 4c60 b03d 759a 583e
00000110: 51ae b63d 9725 41be f197 8abc d0e3 86bd
00000120: 9f0c 323e 5a15 7f3e bcdb 6f3e dd38 62bd
00000130: 5a8d cbbd faa7 7dbe 2a38 51bd cd8d 5e3e
00000140: 8d43 573e 239b ac3c 0133 d03d 4f4e 953d
00000150: da43 843d 6e35 103e a9ef 133e 1912 c3bd
00000160: 3e4d b13c 25d1 d23d ddfe 783e 5198 bc3c
00000170: b416 12be e63e 3abe 4188 6cbe 0903 f7bc
00000180: 111d b73e b69b 813e 63a0 823e 2dda 3fbe
00000190: b594 efbd a0fe ec3c 0bab 7f3d d789 5fbe
000001a0: 21d3 413e c006 853d 264c 6d3e f448 463d
000001b0: 0a55 32be 0f86 dfbd 55dc 1cbe db90 79be
000001c0: d076 0a3e 0db8 293e 672d 553e 46db d83c
000001d0: ca2b c83b ea68 033d 1221 6f3e 228a 35be
000001e0: 70c6 aebd a802 153e 8ba5 8abe b8e0 e2bd
000001f0: 0a23 2ebe 4def 053e d2eb 883c e649 e6bc
00000200: 38be 693e 5fc5 75be 3215 2abe 3fe5 13be
00000210: d040 4c3c c4c4 59be c330 76be 00c2 873e
00000220: ba62 b43c 831c 14bd 4aa6 28be 775e 64be
00000230: a50a 5ebe a16c a0bc b757 503e 9d19 88be
00000240: 51a0 403e a982 8cbd 0dd4 333e 7337 5dbe
00000250: a875 703e b92a 25bb 5e7b 233c 1cc7 643e
00000260: 5209 88bd 0ff6 f8bc e44c 153d 2854 3dbe
00000270: ace2 383e 191f 493d 62bf 7e3e 2534 1bbe
00000280: 9249 a1be 5edf d6bd ad29 ddbc 2a14 193e
00000290: 682a b73d 1aae 86be 1434 69be 4632 e3bd
000002a0: 58b7 ab3c 1e14 b63c 9060 7b3c 216d 8cbe
000002b0: 4e7d 3f3b 8d8f 66be 9143 bdbc 7b15 49be
000002c0: a9b6 c2bd 1bc2 86be 40c4 f2bc ff23 693e
000002d0: 7710 d8bd a40c 243e a210 0a3e c629 17bd
000002e0: 2795 87bd f1af 6fbe db26 3f3d 71c6 5e3e
000002f0: f15c 61be d303 b83e c190 173e 43d0 b4bc
00000300: cecb 9dbd 075f 84be 640e 953e 574f 2abe
00000310: 3e1b 0bbe fe8a 833e a996 083e 9010 60bd
00000320: 909b 97bd 25a2 43be 70f9 82be 1acc 3ebd
00000330: e51b 8cbe 4a26 85be a04d 9f3e 3340 d53d
00000340: 9bb0 66be 7019 45be 7e3f 35be 0255 083e
00000350: 7579 88be dbb4 503e 0724 183e c828 3bbe
00000360: cbb3 01be 4ded 50be d62b 6c3e 100b ffbd
00000370: b9fb c63d 7e4d e6bd 88cb 39be 6a8a 823e
00000380: beed d53d b0e9 e8bd d4d2 563e 8b15 c0bd
00000390: 0b38 283d 4504 80be 7de7 803e 06ad 3abe
000003a0: 5ad7 adbd 1e14 78be 239c 3abe 96b2 473e
000003b0: ea29 4fbd d607 733e 9248 c5bc eef3 a33d
000003c0: d000 0abe 836f 833e 4034 0b3e cf1d 2e3e
000003d0: b360 403e ae5c 4cbe f926 3f3c a25c 9cbd
000003e0: 1709 03be 7fab b3bd 6cad 4fbe 9783 093e
000003f0: 832d 4abd 9b0a 92be 9eca 93bb 06af 2ebd

mlp1.0.bias f4 [150]
0.0019727924 0.25291985 -0.20783296 0.2526079 0.20177571 0.050838236 -0.050911006 -0.19972435
-0.15713495 -0.14714259 0.14300665 -0.20615482 0.22000894 0.17407915 -0.17708048 -0.07977644
0.2721747 0.21291852 0.14103772 0.0717758 0.14524238 -0.25178945 0.011116393 -0.16970107
-0.11625189 0.14948149 0.123418026 -0.13094625 -0.11556677 -0.20594543 -0.0019096733 -0.19472179
0.27594277 -0.03161237 0.21677761 -0.20325907 0.15663844 0.13292718 -0.102179736 0.022661377
-0.08932182 -0.0005211333 0.04398329 -0.11807871 -0.010115361 -0.17964894 -0.29366484 0.08968148
0.15695068 0.019790653 -0.1402721 0.018060703 -0.17631918 0.03085419 -0.10275335 -0.2322153
0.20855434 -0.13752966 0.2489741 -0.09968305 -0.05463757 -0.2530708 -0.18884872 -0.2032382
-0.21144201 -0.16385509 0.03233103 -0.17055196 -0.010579693 -0.060209125 0.29826063 0.021586496
0.073795356 -0.043287694 0.23316665 0.18674856 -0.24637617 -0.22030054 -0.16897462 0.15593323
0.18811506 -0.22650468 0.08555968 -0.10224479 -0.2748208 0.16095358 0.2674239 -0.037792575
-0.22450139 0.07118994 0.083720624 0.20189722 0.057307128 -0.051776726 -0.1437911 -0.22724183
0.19323297 -0.07152995 -0.038103234 -0.16242279 -0.026451185 -0.2690624 -0.22807698 -0.1273184
0.011407389 0.000566834 -0.2547115 -0.06065174 -0.032868598 -0.2627101 0.19709896 0.12235256
-0.19853991 0.20961381 0.068834335 0.15645884 0.0074249883 0.115726426 -0.24695097 0.040395316
0.09148628 0.020994974 0.22835998 0.05283445 -0.25794613 0.007921383 0.111110225 -0.004521907
-0.17203069 0.0253032 0.07593184 0.21818225 -0.04060487 -0.00082316744 -0.030034857 -0.043572795
0.1222713 0.033962302 -0.022253603 0.14692128 -0.1868651 -0.048004705 0.031800207 0.2439185
0.0022620978 0.2584118 -0.266698 0.25133547 0.06993218 -0.02171347
00000000: f749 013b b67e 813e 2ad2 54be d355 813e
00000010: 4b9e 4e3e c13b 503d 0f88 50bd 8a84 4cbe
00000020: fce7 20be 8cac 16be 5670 123e 401a 53be
00000030: 064a 613e ce41 323e 9654 35be d561 a3bd
00000040: 7b5a 8b3e 5007 5a3e 316c 103e 31ff 923d
00000050: 6bba 143e 8cea 80be 8821 363c 1ec6 2dbe
00000060: 7915 eebd ad11 193e 97c2 fc3d c616 06be
00000070: 45ae ecbd 5ce3 52be 014e faba 2665 47be
00000080: 5f48 8d3e f97b 01bd f3fa 5d3e 2523 50be
00000090: d465 203e 101e 083e 9c43 d1bd 5aa4 b93c
000000a0: 5cee b6bd aa9c 08ba d327 343d 40d3 f1bd
000000b0: e6ba 25bc e4f5 37be 3d5b 96be ecaa b73d
000000c0: aeb7 203e 0220 a23c 7da3 0fbe 0af4 933c
000000d0: 048d 34be edc1 fc3c 5970 d2bd d9c9 6dbe
000000e0: 458f 553e 93d4 0cbe 11f3 7e3e a026 ccbd
000000f0: a5cb 5fbd 7f92 81be 8f61 41be ad1d 50be
00000100: 4184 58be a1c9 27be 8b6d 043d 2ca5 2ebe
00000110: 7356 2dbc d89d 76bd 9eb5 983e 2ad6 b03c
00000120: 0522 973d 704e 31bd 3dc3 6e3e 043b 3f3e
00000130: 094a 7cbe 7796 61be af07 2dbe f6ac 1f3e
00000140: 3ca1 403e d8f0 67be ea39 af3d b765 d1bd
00000150: 50b5 8cbe 04d1 243e c9eb 883e 63cc 1abd
00000160: b1e3 65be 08cc 913d b875 ab3d 25be 4e3e
00000170: e1ba 6a3d d513 54bd f93d 13be 15b2 68be
00000180: ddde 453e 4b7e 92bd 2312 1cbd 2952 26be
00000190: 28b0 d8bc 8cc2 89be 038d 69be c15f 02be
000001a0: 0fe6 3a3c 9697 143a 8c69 82be f56d 78bd
000001b0: 39a1 06bd f081 86be 4fd4 493e fb93 fa3d
000001c0: 0c4e 4bbe 01a5 563e 04f9 8c3d bf36 203e
000001d0: 514d f33b fa01 ed3d b7e0 7cbe 8f75 253d
000001e0: 295d bb3d a7fd ab3c 33d7 693e f068 583d
000001f0: 8411 84be b0c8 013c c28d e33d 812c 94bb
00000200: d028 30be a848 cf3c 2782 9b3d 2b6b 5f3e
00000210: 4b51 26bd d5c9 57ba a90b f6bc 6379 32bd
00000220: 6069 fa3d 0e1c 0b3d 304d b6bc 8872 163e
00000230: 9159 3fbe 95a0 44bd ef40 023d c5c5 793e
00000240: b43f 143b 8d4e 843e a48c 88be 0baf 803e
00000250: 9a38 8f3d 72e0 b1bc

mlp1.2.weight f4 [100, 150]
0.031333163 -0.028305495 -0.06440216 0.035590824 -0.057468206 -0.045416493 -0.088425815 0.02536042
0.07926355 -0.050007023 -0.044291284 0.055630304 -0.060904615 0.07106787 0.063349836 0.028495302
0.00047665462 0.0040039956 0.055575315 -0.06622304 0.033806037 0.042282343 -0.059731547 0.036344912
0.019583832 0.019995145 -0.07654443 0.07859004 0.07370242 0.050454296 0.045895156 0.06205857
0.062047172 -0.00465381 0.051630042 0.02776305 0.037265386 0.07155788 -0.046141833 -0.05803548
-0.05651561 -0.03773603 -0.029886017 -0.059261985 -0.07784281 0.0079479655 -0.03899875 -0.013583726
-0.020678638 0.021091698 0.0071748304 0.079915 -0.027382474 0.049566668 -0.038088094 0.023588814
-0.022948556 -0.024381218 -0.082200915 -0.07497643 -0.03655389 0.0073148264 0.07876806 0.0060004815
0.015525785 -0.038921416 0.018916074 -0.049575236 0.050682157 0.08290505 -0.07499191 -0.018345606
-0.018775748 0.04674806 -0.005453416 0.0030568475 -0.055102512 -0.04965124 0.06552853 0.020317925
0.053012062 -0.05019443 0.036483217 -0.031614035 0.013843523 0.045945358 -0.02265973 0.054734133
0.043421563 -0.06800702 0.011256402 -0.023939136 0.036744874 -0.033696562 0.03070022 0.061799195
-0.062516905 -0.069722645 0.07707933 0.014597364 0.057982467 0.072282456 -0.026235115 0.07514927
-0.00344428 -0.00539035 0.022898627 0.040890194 0.052481413 0.027227947 -0.07194996 -0.025105746
-0.02817911 0.00962231 -0.077820465 -0.056244593 0.02771855 -0.020844761 0.07576155 -0.067935444
-0.07201898 0.009689736 0.040584438 0.031958483 -0.065211624 0.008470865 -0.0687548 -0.020561408
0.062312074 0.04685477 0.0145494165 0.002340778 -0.081249624 0.006365504 0.017636875 0.0630249
-0.010518879 0.003660968 0.000717462 0.07570788 -0.0030770083 -0.03330499 0.05941528 -0.07659664
0.03140177 -0.05430726 -0.049275126 0.048421036 -0.06691586 0.024648856 -0.060219128 0.030346172
-0.03385333 0.017449452 -0.04991145 0.03313075 -0.055279635 0.023999896 0.034031857 -0.07914937
0.018896898 -0.013772578 0.06347819 -0.058198895 -0.031401325 -0.043009795 0.00764454 0.05488883
0.06253688 0.06790762 -0.01913819 -0.011667878 -0.052378885 0.036578957 0.037332065 0.02319962
-0.060816165 0.020673683 0.048200976 0.013627533 0.07249492 -0.047601167 -0.07694332 -0.039017867
0.009234987 -0.029773384 0.035098564 0.03136409 0.040776078 -0.05384048 -0.049618762 -0.0011279831
-0.08159948 -0.030534014 0.058770318 -0.020395454 -0.0518195 0.014612992 0.0342272 -0.017163958
-0.050870683 0.0778458 -0.074670166 -0.013549782 -0.001154477 0.046978045 0.033970945 -0.075538136
0.022109272 -0.035782095 0.00090979936 -0.06214987 -0.04478525 0.0411682 0.0046730842 -0.03368466
-0.06440567 0.007714829 0.0060158093 0.010620537 0.048997384 -0.073180534 -0.037552472 0.07166105
-0.071939364 4.5193887e-05 -0.03242192 -0.022179812 0.06428334 0.06428983 -0.031664457 0.0072840774
0.01830479 -0.07445188 -0.021899147 -0.023907851 0.033678863 0.041412324 0.020183256 -0.025634209
0.04953151 0.012509262 -0.06272714 -0.07226102 -0.014690283 -0.027395502 0.027586564 -0.0341697
-0.05191901 -0.04358062 0.022551116 0.004410729 -0.02273996 0.020290852 -0.041587673 -0.079808675
00000000: 3457 003d ede0 e7bc 48e5 83bd afc7 113d
00000010: c863 6bbd a506 3abd 9818 b5bd a8c0 cf3c
00000020: ee54 a23d 2ad4 4cbd c76a 35bd 9adc 633d
00000030: 1e77 79bd 088c 913d 8fbd 813d fb6e e93c
00000040: 80e7 f939 f333 833b f1a2 633d f29f 87bd
00000050: 3378 0a3d 4030 2d3d 11a9 74bd 67de 143d
00000060: 466e a03c dccc a33c 53c3 9cbd d1f3 a03d
00000070: 4bf1 963d 2aa9 4e3d 8ffc 3b3d 2131 7e3d
00000080: 2d25 7e3d fd7e 98bb 067a 533d 566f e33c
00000090: 97a3 183d f08c 923d 38ff 3cbd 9db6 6dbd
000000a0: ea7c 67bd 1891 1abd 85d3 f4bc b2bc 72bd
000000b0: 0d6c 9fbd 2f38 023c 27bd 1fbd 478e 5ebc
000000c0: 3f66 a9bc 7fc8 ac3c d71a eb3b 7aaa a33d
000000d0: 3651 e0bc 6b06 4b3d 4302 1cbd 543d c13c
000000e0: 9cfe bbbc 1fbb c7bc f458 a8bd 3e8d 99bd
000000f0: 88b9 15bd 36b1 ef3b 2651 a13d b09f c43b
00000100: dd5f 7e3c 106c 1fbd e2f5 9a3c 670f 4bbd
00000110: 1898 4f3d 1fca a93d 5c95 99bd 8649 96bc
00000120: 99cf 99bc e57a 3f3d 92b2 b2bb 6455 483b
00000130: 2cb3 61bd 195f 4bbd d233 863d c771 a63c
00000140: 2d23 593d ad98 4dbd 6d6f 153d b87d 01bd
00000150: f2cf 623c 3331 3c3d e6a0 b9bc e630 603d
00000160: cfda 313d 4447 8bbd c66c 383c 021c c4bc
00000170: cb81 163d 6805 0abd 077f fb3c 2721 7d3d
00000180: dd08 80bd bfca 8ebd c5db 9d3d c829 6f3c
00000190: 067f 6d3d d308 943d 06eb d6bc dce7 993d
000001a0: 6eb9 61bb 88a1 b0bb e795 bb3c 7a7c 273d
000001b0: c0f6 563d 250d df3c 805a 93bd 91aa cdbc
000001c0: e0d7 e6bc e5a6 1d3c 5660 9fbd bb60 66bd
000001d0: 0312 e33c a2c2 aabc df28 9b3d bd21 8bbd
000001e0: b07e 93bd b3c1 1e3c de3b 263d e6e6 023d
000001f0: ac8d 85bd 62c9 0a3c 51cf 8cbd 6670 a8bc
00000200: f23a 7f3d caea 3f3d ad60 6e3c bd67 193b
00000210: 3466 a6bd b895 d03b 357b 903c 3313 813d
00000220: 6057 2cbc daec 6f3b 0f14 3c3a bc0c 9b3d
00000230: a2a7 49bb d06a 08bd 705d 733d b3de 9cbd
00000240: 249f 003d 4a71 5ebd b7d4 49bd 2355 463d
00000250: 2f0b 89bd 66ec c93c 55a8 76bd 8998 f83c
00000260: caa9 0abd 27f2 8e3c f36f 4cbd 1cb4 073d
00000270: e66c 62bd 6e9b c43c fd64 0b3d 1119 a2bd
00000280: abcd 9a3c 61a6 61bc da00 823d f761 6ebd
00000290: ad9e 00bd 0a2b 30bd 0d7f fa3b 1cd3 603d
000002a0: 5613 803d 2613 8b3d b2c7 9cbc a12a 3fbc
000002b0: 3e8b 56bd d1d3 153d 82e9 183d 210d be3c
000002c0: 5f1a 79bd db5b a93c 636e 453d 0446 5f3c
000002d0: 3778 943d 71f9 42bd 7694 9dbd 33d1 1fbd
000002e0: 584e 173c 50e7 f3bc 83c3 0f3d a277 003d
000002f0: d104 273d d687 5cbd 0b3d 4bbd d5d8 93ba
00000300: a11d a7bd 7822 fabc 25b9 703d 5e14 a7bc
00000310: af40 54bd 556b 6f3c d231 0c3d 6e9b 8cbc
00000320: c75d 50bd 9e6d 9f3d acec 98bd e8ff 5dbc
00000330: d251 97ba 0d6c 403d 1e25 0b3d bdb3 9abd
00000340: 811e b53c 3f90 12bd 9a7f 6e3a dd90 7ebd
00000350: bd70 37bd fd9f 283d ac20 993b edf8 09bd
00000360: 1fe7 83bd adcc fc3b 4420 c53b c301 2e3c
00000370: 7bb1 483d addf 95bd 9fd0 19bd 07c3 923d
00000380: f254 93bd 918e 3d38 d9cc 04bd 70b2 b5bc
00000390: fca6 833d 63aa 833d 97b2 01bd 45af ee3b
000003a0: edf3 953c 3a7a 98bd d765 b3bc 66da c3bc
000003b0: d9f2 093d f89f 293d 5b57 a53c d5fe d1bc
000003c0: 8de1 4a3d a6f3 4c3c 1677 80bd 96fd 93bd
000003d0: 83af 70bc 886c e0bc 38fd e13c 87f5 0bbd
000003e0: 07a9 54bd 9881 32bd 1ebd b83c e087 903b
000003f0: 2749 babc 0039 a63c d657 2abd bb72 a3bd

mlp1.2.bias f4 [100]
0.032306023 -0.0049962876 -0.029202726 -0.02519472 0.08629804 0.09711025 0.08382146 0.0026055903
0.09734435 -0.0183243 0.035893127 0.10027384 -0.055690415 0.03997667 -0.013575406 -0.06146022
-0.051451474 -0.051862232 0.07023215 0.091512375 -0.05398928 -0.0088419 -0.096988164 0.09286396
-0.04657643 -0.03970851 -0.10209438 -0.03882731 -0.03037527 -0.012288254 -0.032176305 -0.07949098
-0.01414796 0.06089677 0.010191018 -0.04918372 0.045683976 -0.040366236 -0.0068244576 -0.06206049
-0.0057464633 -0.025215922 0.06429216 0.03115407 0.04326455 0.046991486 -0.0125545105 0.0067794505
-0.04933149 0.007244124 -0.028735738 -0.060764417 -0.021989547 0.07038567 -0.022929521 -0.019562803
0.094570465 0.07006008 -0.08335557 -0.06250079 -0.02314512 -0.07267622 -0.013769942 -0.046963945
-0.012361631 -0.04323359 -0.0048652063 0.058965556 0.055119406 0.023680938 0.089501806 0.029817175
-0.010520916 0.022325847 0.10174823 0.006509831 0.042410012 0.027015688 -0.0744398 -0.08192482
-0.102175556 0.058419276 -0.085798435 0.013828789 0.031177929 0.032281984 -0.059417944 -0.00807608
-0.068976544 -0.028928269 0.056164064 -0.06321023 -0.004779819 0.035777256 -0.04856645 -0.06947544
-0.053399026 -0.06150949 -0.029329691 -0.035638724
00000000: 5253 043d e6b7 a3bb 8e3a efbc 2865 cebc
00000010: 07bd b03d bde1 c63d 96aa ab3d 8dc2 2a3b
00000020: 795c c73d d81c 96bc ac04 133d 5f5c cd3d
00000030: a21b 64bd 94be 233d 616b 5ebc b6bd 7bbd
00000040: c8be 52bd 7e6d 54bd e0d5 8f3d d76a bb3d
00000050: dd23 5dbd 9edd 10bc bba1 c6bd 762f be3d
00000060: edc6 3ebd 64a5 22bd dc16 d1bd 6309 1fbd
00000070: 8fd5 f8bc ac54 49bc 4dcb 03bd 2bcc a2bd
00000080: d8cc 67bc e46e 793d 3af8 263c de74 49bd
00000090: 1f1f 3b3d 1157 25bd b39f dfbb 2433 7ebd
000000a0: d44c bcbb 9f91 cebc 9cab 833d d236 ff3c
000000b0: 2b36 313d 257a 403d 6fb1 4dbc 2726 de3b
000000c0: d10f 4abd 1e60 ed3b 3667 ebbc 1ce4 78bd
000000d0: 6c23 b4bc 5d26 903d b1d6 bbbc 2c42 a0bc
000000e0: 29ae c13d a97b 8f3d 53b6 aabd 6a00 80bd
000000f0: d69a bdbc 45d7 94bd 539b 61bc 445d 40bd
00000100: 7088 4abc b415 31bd 4f6c 9fbb de85 713d
00000110: e3c4 613d 87fe c13c b94c b73d 2643 f43c
00000120: ec5f 2cbc b2e4 b63c 6061 d03d 6c50 d53b
00000130: 1fb6 2d3d 0150 dd3c e573 98bd 33c8 a7bd
00000140: 6b41 d1bd 0d49 6f3d 17b7 afbd 2592 623c
00000150: db68 ff3c 1d3a 043d 3b60 73bd 8951 04bc
00000160: 9343 8dbd fafa ecbc 4a0c 663d 5d74 81bd
00000170: 07a0 9cbb 2c8b 123d 9ded 46bd 2449 8ebd
00000180: f0b8 5abd 60f1 7bbd d244 f0bc e9f9 11bd

mlp2.0.weight f4 [100, 100]
0.044015303 -0.011217373 -0.012736655 -0.062463813 0.090267055 0.051463988 0.003206192 -0.0046909945
0.07781814 0.007393411 0.08135829 0.02090077 -0.11470106 -0.047098067 0.08057193 -0.083540946
-0.10396257 -0.02963548 -0.03383727 -0.059796765 -0.06694301 0.01950438 -0.10257559 0.019828651
-0.021757202 0.055298258 0.007408519 -0.07812665 -0.010661023 0.06961703 -0.06965763 0.04296279
0.025706703 0.06388442 -0.018615996 -0.04811176 0.056434825 -0.08972001 -0.022091806 0.067157015
0.065788954 -0.09872835 -0.04174146 0.029268276 0.005966506 -0.07816636 0.0037993516 0.030790169
0.038973983 -0.08889647 0.047737997 -0.09734453 0.08065173 0.032106232 -0.030896958 -0.020440428
-0.06721369 0.018683786 0.07736585 -0.025275612 0.07431511 -0.0972616 0.07972198 0.06544725
-0.102914155 0.09424111 0.030591276 -0.10754308 0.09044328 0.077795394 0.11043492 0.0522733
-0.05970776 0.10586634 0.027393365 0.034208726 0.0635995 -0.026730437 -0.0012045028 -0.05416768
-0.031685103 -0.015168267 -0.08087482 -0.05180753 -0.05375207 0.080568984 0.084500045 -0.012174792
-0.04741852 0.0710244 0.017388923 -0.040367372 0.070138596 -0.06487941 -0.03733184 0.043190416
0.033281095 0.070363715 -0.033136103 0.052072827 0.021184474 0.052441254 0.008994639 0.008607265
-0.073758624 0.07483309 0.068773486 0.041529823 0.0046806727 0.011007187 -0.09933451 -0.0762106
0.0369816 -0.001730487 -0.0056632645 0.038978692 -0.07163704 0.052019667 -0.039284952 -0.09146851
0.0070465603 0.026703082 -0.07001528 0.09481883 -0.101415835 -0.011668022 0.098897114 0.013743253
0.03832403 -0.083315365 -0.08211736 0.008264967 0.08765487 -0.075196534 0.033762977 -0.030538734
0.0707012 0.080486424 0.07598263 0.08990642 -0.029471628 0.08289607 0.03433184 -0.018881207
0.011216934 -0.045595285 -0.0449513 -0.030814031 -0.02381654 0.023155 0.03214056 -0.006352075
0.023334922 0.09806688 -0.07076614 0.07077192 0.091936395 -0.05835526 0.039346788 -0.03654441
-0.013590962 -0.07993167 -0.036663514 0.039910402 0.039505556 -0.09061023 -0.041298617 0.017708223
0.087210104 0.027472753 0.065425135 0.043059096 -0.080201596 -0.036635127 -0.016733631 -0.028685426
-0.08137758 0.09275992 -0.031939365 -0.011966531 0.059724003 -0.026938258 0.04246201 -0.0892932
0.01038547 0.06888215 0.040598597 -0.05264591 0.070732296 0.07885634 0.04144428 -0.10154498
0.00082176924 -0.06710986 -0.030486703 0.049632765 -0.06331011 0.051818006 -0.06432187 -0.00540169
-0.040985398 0.056101475 0.024496937 -0.055758856 -0.042190958 -0.071075186 0.07594221 -0.03731034
0.034121778 0.024104135 0.029744038 -0.09654673 -0.011398629 -0.02356014 -0.00632185 -0.060736
-0.005451981 0.009549272 -0.028333468 -0.051335655 0.073428534 -0.099252634 0.038525406 0.022032563
-0.011824274 -0.09694898 0.0059166458 0.026951287 0.007236086 -0.029553918 0.080068566 -0.011328418
-0.009911194 -0.007247891 -0.07898058 0.096880995 0.03511973 0.09675094 0.018004965 0.05365016
-0.02190218 0.09623773 0.008823116 -0.010642902 0.05667187 -0.035359543 0.008624239 -0.06574544
0.028761066 -0.086340785 0.01510549 -0.072782256 -0.07653512 0.014390212 -0.060929514 8.6524306e-05
00000000: 6449 343d 13c9 37bc 67ad 50bc 0eda 7fbd
00000010: efdd b83d e7cb 523d fa1e 523b eab6 99bb
00000020: 1e5f 9f3d 6d44 f23b 2d9f a63d 1738 ab3c
00000030: 64e8 eabd e7e9 40bd e502 a53d 8417 abbd
00000040: 54ea d4bd 1bc6 f2bc f398 0abd 74ed 74bd
00000050: 6b19 89bd a6c7 9f3c 2713 d2bd b26f a23c
00000060: 293c b2bc 6d80 623d 29c3 f23b dd00 a0bd
00000070: 92ab 2ebc 6093 8e3d a9a8 8ebd c0f9 2f3d
00000080: dd96 d23c d6d5 823d 9380 98bc d610 45bd
00000090: 3428 673d 20bf b7bd e0f9 b4bc 9e89 893d
000000a0: 5cbc 863d 1732 cabd 18f9 2abd 06c4 ef3c
000000b0: ae82 c33b af15 a0bd 8bfe 783b aa3b fc3c
000000c0: 2fa3 1f3d 5a0f b6bd eb88 433d 925c c7bd
000000d0: bc2c a53d d381 033d 9e1b fdbc af72 a7bc
000000e0: 55a7 89bd bd0e 993c fd71 9e3d cd0e cfbc
000000f0: 8532 983d 1731 c7bd 4745 a33d 3509 863d
00000100: a8c4 d2bd 7c01 c13d 8e9a fa3c 8c3f dcbd
00000110: 543a b93d 3153 9f3d b42b e23d 871c 563d
00000120: 2090 74bd 74d0 d83d 0d68 e03c 731e 0c3d
00000130: 7440 823d caf9 dabc 68e0 9dba eede 5dbd
00000140: 3dc8 01bd 5384 78bc b3a1 a5bd 2234 54bd
00000150: 212b 5cbd 5a01 a53d 5c0e ad3d c778 47bc
00000160: ec39 42bd 3e75 913d 3773 8e3c 4258 25bd
00000170: d3a4 8f3d 7fdf 84bd 45e9 18bd 6fe8 303d
00000180: c251 083d da1a 903d b9b9 07bd 514a 553d
00000190: 108b ad3c a4cc 563d 405e 133c 7c05 0d3c
000001a0: c30e 97bd 1742 993d 1dd9 8c3d 2d1b 2a3d
000001b0: 5460 993b 7d57 343c e46f cbbd 4e14 9cbd
000001c0: 057a 173d 82d1 e2ba e892 b9bb 1fa8 1f3d
000001d0: 71b6 92bd 9312 553d 42e9 20bd d853 bbbd
000001e0: d5e6 e63b 6cc0 da3c 2c64 8fbd 6030 c23d
000001f0: 1bb3 cfbd 3b2b 3fbc 928a ca3d 622b 613c
00000200: a8f9 1c3d 3fa1 aabd 252d a8bd c969 073c
00000210: 6584 b33d a400 9abd 0c4b 0a3d 5e2c fabc
00000220: cacb 903d 11d6 a43d c89c 9b3d db20 b83d
00000230: 7c6e f1bc 6ac5 a93d 8b9f 0c3d c3ac 9abc
00000240: 3bc7 373c 1fc2 3abd db1e 38bd b56d fcbc
00000250: e81a c3bc 8eaf bd3c d2a5 033d 1125 d0bb
00000260: e128 bf3c 4ad7 c83d d7ed 90bd def0 903d
00000270: 2649 bc3d ed05 6fbd 192a 213d 97af 15bd
00000280: a0ac 5ebc 37b3 a3bd 7b2c 16bd 1779 233d
00000290: 94d0 213d db91 b9bd bd28 29bd d610 913c
000002a0: 369b b23d 8a0e e13c 9dfd 853d bc5e 303d
000002b0: bc40 a4bd b70e 16bd f814 89bc b3fd eabc
000002c0: 4aa9 a6bd eaf8 bd3d dad2 02bd 450f 44bc
000002d0: 28a1 743d 9fad dcbc a5ec 2d3d 5adf b6bd
000002e0: d227 2a3c 1612 8d3d b74a 263d 3da3 57bd
000002f0: 18dc 903d 6f7f a13d 7ac1 293d d1f6 cfbd
00000300: 006c 573a e570 89bd 40bf f9bc ba4b 4b3d
00000310: bba8 81bd 1e3f 543d 2fbb 83bd a900 b1bb
00000320: 4ee0 27bd a9ca 653d cdad c83c 6663 64bd
00000330: 6dd0 2cbd de8f 91bd 9787 9b3d bad2 18bd
00000340: 47c3 0b3d 0976 c53c c5a9 f33c 4bba c5bd
00000350: 51c1 3abc 3201 c1bc 8627 cfbb 50c6 78bd
00000360: 88a6 b2bb 8d74 1c3c 971b e8bc 5645 52bd
00000370: b361 963d f744 cbbd d1cc 1d3d a27d b43c
00000380: 9aba 41bc 308d c6bd 6ce0 c13b f2c8 dc3c
00000390: b01c ed3b 0f1b f2bc fdfa a33d d49a 39bc
000003a0: 9062 22bc b77f edbb 92c0 a1bd 8b69 c63d
000003b0: b5d9 0f3d 5b25 c63d 267f 933c 45c0 5b3d
000003c0: 336c b3bc 4918 c53d d58e 103c 915f 2ebc
000003d0: c320 683d 2bd5 10bd ae4c 0d3c 8ca5 86bd
000003e0: 549c eb3c 70d3 b0bd 047d 773c dd0e 95bd
000003f0: 72be 9cbd ecc4 6b3c 3a91 79bd 6274 b538

mlp2.0.bias f4 [100]
0.067037426 -0.07451506 -0.011100727 0.01873024 0.028843878 0.03499363 -0.047205195 0.045012206
0.078570314 -0.05936473 0.12624535 -0.09123218 0.098820016 0.06118042 -0.09800294 0.0655993
0.03754943 0.039002046 0.047204766 -0.0787085 0.03676397 0.03237341 0.06599779 0.047496933
-0.0795318 0.009949526 -0.044330448 0.03782963 -0.006879031 0.07008462 0.048998993 -0.050904654
-0.0319045 0.003120915 -0.061953634 0.1369436 -0.02924647 0.07019121 0.04850405 0.11619072
-0.074261 0.11638968 -0.0665892 0.00901047 0.007245249 0.0668555 0.06891457 0.06657403
-0.014143757 0.089139216 0.08057632 0.047513552 -0.05597544 0.05182338 0.16844283 0.052049007
-0.017377565 -0.024798477 0.08066058 -0.03020138 0.042385567 -0.09848279 0.0067438125 0.047385577
0.1979594 -0.0075205336 -0.023834672 0.05988068 0.03999902 -0.09752242 -0.023484059 -0.039867118
-0.014893518 -0.0019589614 -0.043002818 -0.09415731 0.09187506 0.003759626 -0.05070017 0.07278989
0.06301831 0.08026857 -0.07702764 0.051146623 0.068707116 0.014900166 0.014421655 -0.075074285
-0.006168571 0.077816 0.04416394 0.062125847 0.024210336 0.07529063 0.025449822 -0.04351836
0.076539524 0.023711734 0.060978495 0.083533995
00000000: eb4a 893d 5a9b 98bd d3df 35bc 2970 993c
00000010: ff49 ec3c 7b55 0f3d 3c5a 41bd b85e 383d
00000020: 79e9 a03d 6e28 73bd 7646 013e f0d7 babd
00000030: 2662 ca3d 5298 7a3d c4b5 c8bd ed58 863d
00000040: 6ecd 193d 9cc0 1f3d c959 413d ec31 a1bd
00000050: d195 163d fb99 043d d929 873d 258c 423d
00000060: 91e1 a2bd 5603 233c d893 35bd 3ef3 1a3d
00000070: 7f69 e1bb 8688 8f3d 2bb3 483d 6681 50bd
00000080: 4bae 02bd 4488 4c3b 18c3 7dbd f13a 0c3e
00000090: 4b96 efbc 69c0 8f3d 2fac 463d 66f5 ed3d
000000a0: 2716 98bd b65d ee3d eb5f 88bd a6a0 133c
000000b0: 8e69 ed3b 89eb 883d 1523 8d3d f757 883d
000000c0: 37bb 67bc 9f8e b63d 3305 a53d 929d 423d
000000d0: 8146 65bd c144 543d 477c 2c3e 5731 553d
000000e0: 655b 8ebc 2d26 cbbc 6031 a53d e268 f7bc
000000f0: 7d9c 2d3d 58b1 c9bd 33fb dc3b 6117 423d
00000100: deb5 4a3e cf6e f6bb ee40 c3bc 7245 753d
00000110: 03d6 233d d6b9 c7bd a461 c0bc b44b 23bd
00000120: f103 74bc eb61 00bb b923 30bd 8cd5 c0bd
00000130: fe28 bc3d 0f64 763b fbaa 4fbd de12 953d
00000140: be0f 813d d963 a43d abc0 9dbd 1f7f 513d
00000150: 51b6 8c3d d31f 743c ce48 6c3c 8cc0 99bd
00000160: b921 cabb ff5d 9f3d 3fe5 343d ac77 7e3d
00000170: c154 c63c f931 9a3d 257c d03c 4f40 32bd
00000180: c1c0 9c3d 1c3f c23c 96c4 793d df13 ab3d

mlp2.2.weight f4 [50, 100]
0.020819059 -0.084200755 0.055274907 0.09549295 0.02169313 0.031638164 0.08128404 0.0034418358
-0.00027545015 -0.06625034 -0.10076838 -0.02063628 0.039093394 0.06697688 0.065265425 -0.07557085
0.054349575 -0.0058891154 -0.059077483 -0.050701614 -0.090075545 -0.05821016 -0.024058424 0.044680487
-0.053141084 0.051938966 -0.08351409 0.04613654 0.07249989 -0.016913453 0.013526896 0.046651084
-0.10009759 0.039914113 -0.009525695 0.013480744 -0.044456493 0.070032306 -0.08699395 -0.107597835
0.06702929 -0.16330887 0.08699949 0.08565129 0.05408058 0.0033184318 0.057692487 0.07976194
-0.06779553 0.091469646 0.005122586 0.025771543 -0.054961354 -0.14653859 -0.13390693 -0.030648062
0.088465095 -0.07031035 -0.06686678 0.026215041 0.0025623972 0.02441459 0.0239597 0.030759197
-0.13405013 -0.013329533 -0.008391849 -0.02506734 0.12670887 -0.026614295 0.021164294 -0.028926011
0.06946474 -0.13572048 -0.10159246 0.09480662 -0.08765529 0.09605536 0.09594326 0.02106739
-0.055674545 0.12161567 0.10492366 0.090882555 0.08540567 0.0016740917 -0.011012315 -0.033444826
0.117106624 0.08782077 0.027001634 -0.10341976 -0.013304727 -0.024402471 -0.050329275 -0.04172844
0.06119492 -0.016183876 -0.108334295 -0.008775125 -0.08406223 0.05757786 0.09373042 0.07828315
0.031204408 -0.055207293 -0.08202558 -0.12357335 0.09184239 0.09967933 -0.018094283 0.037536014
-0.07582427 -0.07376695 0.026439281 0.07346814 -0.003039864 0.046662554 0.08295267 -0.037033845
0.039238036 0.06622747 0.06753055 -0.08172249 0.0074453047 -0.060273807 -0.0779733 -0.043362375
0.08792228 0.055358358 -0.07977442 -0.05383406 0.032969125 -0.0045874985 0.08056634 0.078751855
-0.03393138 0.03588835 0.065435655 0.056953378 0.039895102 0.08849327 -0.023071319 0.047928777
-0.019059066 -0.014473931 0.015745517 0.007590044 0.084977105 -0.08502451 0.037451748 0.008765727
0.09746277 -0.024227642 0.019770125 0.055087276 -0.07869886 0.021855282 0.017311973 -0.064382724
-0.055014774 -0.013125589 0.012957303 -0.03266907 -0.042341813 0.06525796 -0.09537864 0.07516436
-0.12130645 0.07107392 -0.09749368 -0.0174274 -0.036637064 0.032024357 -0.061594658 -0.026206631
-0.020455463 0.08100335 -0.12942325 0.08460282 0.0037198954 0.050712142 -0.06660379 0.061396413
0.03437235 -0.03420428 0.047108818 0.08739241 -0.086776964 0.05523945 -0.07460758 -0.09816948
-0.07970259 0.09792356 0.09958841 0.040457297 0.055444434 0.024692943 0.028017333 0.03801354
-0.09112903 -0.09275136 -0.06534089 0.0288555 0.08165726 -0.030675951 0.0035632455 -0.04192171
0.095396094 -0.07784562 0.08060216 -0.08938733 0.003621703 0.0013859805 0.11153525 -0.11387754
0.067546844 0.08904915 -0.06900281 -0.0020021237 0.020787366 0.092917904 -0.10101896 -0.095653415
0.03600724 -0.0062252916 -0.05257834 0.01983551 -0.034160536 -0.033258256 0.06592302 0.01186276
-0.002239486 -0.08263706 0.055400137 -0.061656218 -0.038584273 0.022738019 -0.0841416 0.08486252
-0.044750847 0.029827362 0.07437034 0.1022425 0.063662454 0.055576988 0.079923876 0.01985273
-0.03457408 -0.086608455 0.06771936 -0.10026488 -0.079159126 -0.062169854 0.051714595 0.015725425
00000000: bb8c aa3c 7271 acbd f167 623d cf91 c33d
00000010: cab5 b13c 0597 013d 3f78 a63d 6c90 613b
00000020: 4b6a 90b9 42ae 87bd a75f cebd 6a0d a9bc
00000030: 6520 203d 2d2b 893d e1a9 853d e4c4 9abd
00000040: a99d 5e3d 7bf9 c0bb 3bfb 71bd 7fac 4fbd
00000050: 8779 b8bd c76d 6ebd 2c16 c5bc e302 373d
00000060: 77aa 59bd f4bd 543d 6f09 abbd abf9 3c3d
00000070: d37a 943d 158e 8abc ea9f 5d3c 3515 3f3d
00000080: f7ff ccbd fb7c 233d a911 1cbc 57de 5c3c
00000090: 0318 36bd 196d 8f3d e229 b2bd 415c dcbd
000000a0: a746 893d 713a 27be ca2c b23d f269 af3d
000000b0: 9983 5d3d 0c7a 593b f54e 6c3d 3a5a a33d
000000c0: 62d8 8abd 7054 bb3d 5edb a73b d81e d33c
000000d0: 281f 61bd 360e 16be e61e 09be a511 fbbc
000000e0: 302d b53d dffe 8fbd 73f1 88bd edc0 d63c
000000f0: e4ed 273b 1b01 c83c 2247 c43c b6fa fb3c
00000100: 7044 09be 1d64 5abc f77d 09bc 065a cdbc
00000110: f8bf 013e 3906 dabc be60 ad3c 3ef6 ecbc
00000120: 8843 8e3d 4ffa 0abe b50f d0bd f929 c23d
00000130: 9e84 b3bd acb8 c43d e67d c43d 8595 ac3c
00000140: fe0a 64bd a311 f93d 37e2 d63d a220 ba3d
00000150: 2be9 ae3d 326d db3a ff6c 34bc 71fd 08bd
00000160: 99d5 ef3d 60db b33d 8832 dd3c bdcd d3bd
00000170: 12fc 59bc b1e7 c7bc 1226 4ebd 71eb 2abd
00000180: 86a7 7a3d 0c94 84bc 5fde ddbd 8bc5 0fbc
00000190: d228 acbd c3d6 6b3d bcf5 bf3d eb52 a03d
000001a0: 63a0 ff3c 0b21 62bd 07fd a7bd 0614 fdbd
000001b0: dd17 bc3d ad24 cc3d 763a 94bc 5dbf 193d
000001c0: c149 9bbd 2013 97bd 3197 d83c 7776 963d
000001d0: 7438 47bb 3c21 3f3d 17e3 a93d cdb0 17bd
000001e0: 10b8 203d 45a2 873d 754d 8a3d 1f5e a7bd
000001f0: bef7 f33b abe1 76bd 77b0 9fbd bf9c 31bd
00000200: 9910 b43d 72bf 623d c560 a3bd 1a81 5cbd
00000210: a20a 073d ba52 96bb f7ff a43d a748 a13d
00000220: a1fb 0abd aaff 123d 2103 863d f247 693d
00000230: 0c69 233d f63b b53d 1000 bdbc f750 443d
00000240: c221 9cbc 1124 6dbc befc 803c e7b5 f83b
00000250: 7a08 ae3d 5521 aebd 0167 193d 209e 0f3c
00000260: 909a c73d 0c79 c6bc f5f4 a13c 32a3 613d
00000270: de2c a1bd d909 b33c d7d1 8d3c 17db 83bd
00000280: 2c57 61bd b60c 57bc de4a 543c 01d0 05bd
00000290: 9c6e 2dbd f7a5 853d e055 c3bd c6ef 993d
000002a0: 846f f8bd 348f 913d c4aa c7bd e8c3 8ebc
000002b0: bf10 16bd f92b 033d ae4a 7cbd 4aaf d6bc
000002c0: 3792 a7bc 16e5 a53d 8787 04be 3e44 ad3d
000002d0: 7dc9 733b 89b7 4f3d 9167 88bd ce7a 7b3d
000002e0: 05ca 0c3d c919 0cbd 2df5 403d cbfa b23d
000002f0: 1fb8 b1bd c342 623d dccb 98bd 150d c9bd
00000300: 1d3b a3bd 268c c83d 02f5 cb3d 8db6 253d
00000310: b419 633d db48 ca3c 9b84 e53c 16b4 1b3d
00000320: dba1 babd 6df4 bdbd 72d1 85bd 5f62 ec3c
00000330: ec3b a73d 224c fbbc 5785 693b 19b6 2bbd
00000340: 075f c33d 866d 9fbd bf12 a53d b410 b7bd
00000350: 185a 6d3b caa9 b53a 986c e43d a138 e9bd
00000360: 0056 8a3d 675f b63d 5851 8dbd 1036 03bb
00000370: 444a aa3c be4b be3d 07e3 cebd f0e5 c3bd
00000380: 547c 133d 88fd cbbb 635c 57bd 147e a23c
00000390: ebeb 0bbd cf39 08bd a602 873d 065c 423c
000003a0: 57c4 12bb 9e3d a9bd 41eb 623d 3b8b 7cbd
000003b0: 8b0a 1ebd 1545 ba3c 6e52 acbd 67cc ad3d
000003c0: aa4c 37bd 8358 f43c 7a4f 983d 8464 d13d
000003d0: 7661 823d b2a4 633d 21af a33d 31a2 a23c
000003e0: 8d9d 0dbd c65f b1bd 73b0 8a3d ac57 cdbd
000003f0: 2e1e a2bd d1a5 7ebd afd2 533d 9bd2 803c

mlp2.2.bias f4 [50]
-0.063395955 -0.04937632 -0.07688486 0.024787797 0.028295211 -0.014917944 0.09948353 -0.002991771
0.040158506 0.049878407 -0.075058155 0.03444659 -0.08032788 -0.044267017 -0.06144988 -0.025038363
0.103153735 0.07328146 -0.0715411 -0.05548986 0.096780665 -0.0067273793 0.048759934 -0.075451314
0.012324407 0.010123942 -0.122119516 0.012616048 0.0032685564 0.047991656 0.043480936 0.113247186
-0.030109838 -0.03530646 0.035567023 -0.00806596 -0.09587656 -0.037913017 0.028793495 0.019025607
0.10820765 0.021103757 0.038022164 -0.08410036 -0.0053418027 0.06914781 0.14247036 -0.07980794
0.013460293 -0.06384005
00000000: bdd5 81bd d33e 4abd cf75 9dbd c70f cb3c
00000010: 5ccb e73c 646a 74bc 05be cb3d 9711 44bb
00000020: 3f7d 243d 4d4d 4c3d 17b8 99bd de17 0d3d
00000030: f282 a4bd 5551 35bd dfb2 7bbd 411d cdbc
00000040: 4442 d33d 9714 963d 2484 92bd 5649 63bd
00000050: f134 c63d 5971 dcbb 7fb8 473d 3886 9abd
00000060: 4fec 493c e4de 253c cc19 fabd 8ab3 4e3c
00000070: 4735 563b e692 443d 1119 323d 24ee e73d
00000080: e8a8 f6bc 829d 10bd baae 113d 1727 04bc
00000090: ee5a c4bd ae4a 1bbd 56e0 eb3c 97db 9b3c
000000a0: f99b dd3d c9e1 ac3c 21bd 1b3d cf3c acbd
000000b0: 4a0a afbb 5e9d 8d3d c0e3 113e 5872 a3bd
000000c0: 9088 5c3c 92be 82bd

attention.0.weight f4 [100, 200]
-0.022559572 0.06206161 0.04751237 -0.02098352 0.02742453 0.072779 0.057309445 -0.012980945
0.023987114 -0.044471923 0.055000596 0.052578382 0.056500435 -0.021276567 -0.010266126 0.05484445
0.006133329 -0.029032012 -0.023005076 0.027986988 -0.015047554 -0.018269893 0.02246744 0.0079699075
-0.033566866 -0.0033282528 -0.008325162 -0.061825532 -0.03552281 -0.033418495 -0.0604157 0.05654185
-0.037490565 0.027751474 -0.028977234 0.00481078 -0.028074589 -0.064903826 0.009707708 -0.008791568
-0.04917457 -0.015081461 0.0034104642 -0.03382741 -0.049926735 0.0032269075 0.022966197 0.06842073
0.024224479 -0.0027385554 0.0049666916 -0.056762982 -0.031082258 -0.026114935 0.07295183 -0.06661847
-0.06645036 -0.041583907 -0.057187743 -0.04555831 -0.036117695 -0.038252547 0.060304374 0.038643956
-0.06374855 0.054776695 -0.052512772 0.06535944 0.042557154 0.03449568 0.021409826 0.023649447
0.063155495 0.07068159 0.0033176155 -0.059658945 -0.065968454 -0.012622981 0.010040812 0.023384312
0.005447581 0.0066202246 0.017170468 0.021314323 -0.037429146 0.0012689456 -0.007482688 0.06432063
0.022110974 -0.06915001 0.033143625 -0.0517644 -0.02930789 -0.022176718 0.016849373 -0.0020018634
-0.053123325 -0.048993584 0.0009929256 -0.037594464 0.03021813 -0.03837122 0.05316878 -0.011859247
0.046087306 -0.063545026 -0.058942694 -0.013340515 0.06361061 0.06729492 0.053841203 0.032123968
0.06104033 -0.050415866 -0.009077051 -0.05113027 -0.06815988 -0.020253414 -0.0066884556 -0.0234027
0.0010072063 0.041952413 -0.029435834 -0.031165706 0.052788164 0.041020162 0.00034203488 0.0413183
-0.04685449 0.0078042545 0.004084444 0.052405346 0.06762231 0.06255112 -0.06024744 -0.041586302
-0.016182987 -0.006615783 0.01424055 -0.059109088 0.036600623 0.07130847 0.046950605 -0.028265826
-0.02259802 -0.026794849 -0.030600294 0.071866855 0.03264344 -0.063094184 0.028200217 -0.06490318
0.0049056388 -0.05718786 -0.052150656 0.035085283 -0.036876876 -0.00250241 0.029477289 -0.03675717
0.011408846 0.0403095 0.033641636 0.05608769 -0.06584291 -0.022237182 -0.0466178 -0.050296806
0.018750256 0.012347562 0.010846998 0.013514369 -0.037660122 -0.02855505 -0.003066504 -0.057483718
-0.001492386 0.04191512 0.047739472 0.053153608 0.0019225195 0.002724959 0.025322273 0.0222613
0.053766236 0.036889065 0.061328672 -0.051674597 0.04697454 0.048863437 0.060099345 0.046600264
0.031282827 0.0058469656 -0.05192834 -0.03625056 -0.036760673 -0.04591165 -0.015204807 -0.0123952925
-0.0031126486 0.033876862 -0.03548779 -0.00039717706 0.031226888 0.009359566 -0.019626113 -0.03299709
0.044486023 0.002503266 -0.03423233 0.03280402 -0.056139734 0.07732862 0.03935153 -0.011070561
0.049791288 0.065578535 -0.03239884 0.027846837 0.0065529714 -0.03048378 0.03206859 -0.041526906
0.07273108 0.03990773 0.0012620939 0.038829476 0.0144247925 -0.032368798 0.03607497 -0.023069398
0.042920567 0.053248357 0.06544689 0.06561616 0.039122373 0.013537664 -0.050071366 0.06177966
0.058577813 0.0813871 0.051692482 0.018996846 0.06020829 -0.00039073508 0.05754356 -0.009056206
0.041302197 -0.06059657 0.02154403 -0.020555995 0.011439897 -0.019367458 -0.044350144 -0.013762948
00000000: dace b8bc 5134 7e3d 559c 423d a2e5 abbc
00000010: 68a9 e03c 280d 953d 4fbd 6a3d 08ae 54bc
00000020: a080 c43c 3128 36bd 4e48 613d 6e5c 573d
00000030: 006d 673d 324c aebc 4133 28bc 93a4 603d
00000040: 18fa c83b 8bd4 edbc 2475 bcbc f844 e53c
00000050: 048a 76bc beaa 95bc a30d b83c 3794 023c
00000060: 697d 09bd d11e 5abb 4366 08bc c53c 7dbd
00000070: 5e80 11bd d5e1 08bd 7476 77bd 6d98 673d
00000080: b58f 19bd 0f57 e33c aa61 edbc bfa3 9d3b
00000090: aefc e5bc 4cec 84bd 140d 1f3c 820a 10bc
000000a0: 466b 49bd 3b18 77bc 1882 5f3b 9c8e 0abd
000000b0: fa7f 4cbd 867a 533b 9b23 bc3c 2b20 8c3d
000000c0: 6a72 c63c 5679 33bb a1bf a23b 4d80 68bd
000000d0: 38a0 febc fdee d5bc c567 953d 446f 88bd
000000e0: 2017 88bd e353 2abd b23d 6abd 5a9b 3abd
000000f0: 26f0 13bd b4ae 1cbd b801 773d 2049 1e3d
00000100: 9a8e 82bd 875d 603d a217 57bd 2cdb 853d
00000110: 6950 2e3d 584b 0d3d a963 af3c 7cbc c13c
00000120: ab57 813d 82c1 903d 5a6c 593b f05c 74bd
00000130: 781a 87bd 9fd0 4ebc 3882 243c 7590 bf3c
00000140: 9f81 b23b 78ee d83b 15a9 8c3c 609b ae3c
00000150: 4e4f 19bd c052 a63a 5631 f5bb 89ba 833d
00000160: 1322 b53c 859e 8dbd 9cc1 073d e806 54bd
00000170: 1a17 f0bc f3ab b5bc b207 8a3c b231 03bb
00000180: d897 59bd 7fad 48bd 0e25 823a a7fc 19bd
00000190: 038c f73c 242b 1dbd 82c7 593d 4a4d 42bc
000001a0: 0bc6 3c3d e523 82bd e56d 71bd 2d92 5abc
000001b0: 4846 823d ebd1 893d 9888 5c3d 6c94 033d
000001c0: 6d05 7a3d de80 4ebd e9b7 14bc f96d 51bd
000001d0: 6897 8bbd 7dea a5bc d52a dbbb 05b7 bfbc
000001e0: 3c04 843a 4bd6 2b3d 6b23 f1bc 394f ffbc
000001f0: 6738 583d c204 283d 2553 b339 613d 293d
00000200: 7eea 3fbd d5ba ff3b cdd6 853b fda6 563d
00000210: 917d 8a3d cd1a 803d 05c6 76bd 6656 2abd
00000220: 2f92 84bc 36c9 d8bb 3251 693c 5f1c 72bd
00000230: 89ea 153d 2d0a 923d 474f 403d bc8d e7bc
00000240: 7c1f b9bc df80 dbbc 78ad fabc ee2e 933d
00000250: 21b5 053d 8637 81bd 2404 e73c f5eb 84bd
00000260: 7bbf a03b d13d 6abd ed9b 55bd 96b5 0f3d
00000270: 350c 17bd 79ff 23bb 5b7a f13c b08e 16bd
00000280: 2bec 3a3c 931b 253d d0cb 093d 35bc 653d
00000290: a6d8 86bd c02a b6bc 4ef2 3ebd 0604 4ebd
000002a0: 239a 993c 6e4d 4a3c 9bb7 313c 5f6b 5d3c
000002b0: 8041 1abd 48ec e9bc 66f7 48bb 0c74 6bbd
000002c0: 2a9c c3ba 30af 2b3d 778a 433d 99b7 593d
000002d0: 0dfd fb3a 3a95 323b a870 cf3c 545d b63c
000002e0: fc39 5c3d fd18 173d c633 7b3d bea8 53bd
000002f0: 6068 403d 0725 483d bb2a 763d ebdf 3e3d
00000300: 6c22 003d e797 bf3b d0b2 54bd 787b 14bd
00000310: 5c92 16bd db0d 3cbd 951d 79bc a015 4bbc
00000320: 94fd 4bbb 77c2 0a3d a55b 11bd 343c d0b9
00000330: 88cf ff3c dd58 193c f1c6 a0bc f527 07bd
00000340: fa36 363d d60d 243b 3337 0cbd 825d 063d
00000350: c7f2 65bd 785e 9e3d 122f 213d 4c61 35bc
00000360: f3f1 4b3d 0a4e 863d a5b4 04bd 0d1f e43c
00000370: 4fba d63b 1fb9 f9bc 5b5a 033d 1e18 2abd
00000380: 08f4 943d 4a76 233d d86c a53a a80b 1f3d
00000390: f755 6c3c 2595 04bd 59c3 133d 09fc bcbc
000003a0: 7acd 2f3d f31a 5a3d 0509 863d c461 863d
000003b0: c83e 203d 14cd 5d3c a217 4dbd ab0c 7d3d
000003c0: 4aef 6f3d 48ae a63d 7fbb 533d 469f 9b3c
000003d0: f89c 763d 93db ccb9 ccb2 6b3d 7b60 14bc
000003e0: 7e2c 293d 1c34 78bd 1b7d b03c 0c65 a8bc
000003f0: 686e 3b3c 81a8 9ebc 7fa8 35bd fd7d 61bc

attention.0.bias f4 [100]
0.02541357 0.023464892 0.07265047 -0.04115386 -0.031424552 0.0063560074 -0.009158929 -0.0051694717
-0.0069291266 -0.047270335 0.033655956 0.0047141695 -0.06697513 -0.0049516233 0.024119053 0.06394406
-0.04174425 0.0056224233 -0.04102247 -0.025329838 0.03894648 0.06257646 -0.010618793 0.032537762
0.01356241 0.03789508 -0.021479806 0.05382782 0.0061753225 0.03470064 0.012596566 -0.016692067
0.05342749 -0.020600002 0.04909727 0.021475263 0.027008628 0.05990005 0.011762696 0.06921605
0.065634474 0.05554378 0.007511833 0.053959154 -0.061467137 0.01932631 -0.055105973 0.004312061
-0.06844046 0.043680567 -0.054305576 0.035585534 0.011191843 0.006735194 0.015416166 0.029706819
0.02054936 0.00890564 0.062058605 0.0448433 3.431915e-05 -0.06410112 0.025624584 0.046877135
-0.004180575 0.025640624 0.0051804096 -0.0046011684 0.02455949 -0.027046073 -0.035865035 -0.021071218
0.00170206 0.026175948 -0.023021497 -0.032327194 -0.05633909 0.038890127 -0.01196882 -0.009052506
0.043071274 -0.030195404 0.04997533 0.040084995 0.07066529 0.04400707 0.04655393 0.048545185
0.012627037 -0.009403202 -0.034682855 0.06251419 -0.0023447557 0.006106418 -0.029144343 -0.000596144
-0.023813969 0.011290767 -0.0128040435 0.016403057
00000000: 1f30 d03c 7239 c03c c5c9 943d f390 28bd
00000010: 08b7 00bd 0e46 d03b 550f 16bc ac64 a9bb
00000020: ba0d e3bb 8a9e 41bd d4da 093d 5279 9a3b
00000030: 422a 89bd 3a41 a2bb 5295 c53c 1af5 823d
00000040: 05fc 2abd 4e3c b83b 2d07 28bd 8580 cfbc
00000050: 5886 1f3d 1628 803d 72fa 2dbc 5146 053d
00000060: df34 5e3c df37 1b3d 6bf6 afbc 8f7a 5c3d
00000070: 5c5a ca3b 4222 0e3d d461 4e3c cdbd 88bc
00000080: c9d6 5a3d 56c1 a8bc 381a 493d e4ec af3c
00000090: 3341 dd3c c159 753d 53b8 403c 25c1 8d3d
000000a0: 5e6b 863d e081 633d d325 f63b 4604 5d3d
000000b0: f7c4 7bbd 3652 9e3c cdb6 61bd 304c 8d3b
000000c0: 832a 8cbd 65ea 323d 866f 5ebd 23c2 113d
000000d0: fe5d 373c e7b2 dc3b 1694 7c3c b75b f33c
000000e0: 2257 a83c f6e8 113c 2a31 7e3d 9cad 373d
000000f0: e8f1 0f38 7347 83bd a6ea d13c 3d02 403d
00000100: 34fd 88bb 490c d23c 6dc0 a93b 66c5 96bb
00000110: fc30 c93c ba8f ddbc 37e7 12bd 8c9d acbc
00000120: a817 df3a f16e d63c 9497 bcbc 8569 04bd
00000130: d1c3 66bd 414b 1f3d df18 44bc f650 14bc
00000140: 816b 303d 5a5c f7bc eeb2 4c3d 2a30 243d
00000150: f7b8 903d c240 343d 55af 3e3d 51d7 463d
00000160: a2e1 4e3c e30f 1abc 9c0f 0ebd 7107 803d
00000170: 79aa 19bb 5918 c83b 1ec0 eebc 8c46 1cba
00000180: 8315 c3bc e9fc 383c 0dc8 51bc b45f 863c

attention.2.weight f4 [100, 100]
-0.07858842 -0.045111123 0.0914887 0.021287248 0.04537437 -0.087127954 -0.088328965 -0.08148729
0.10252378 -0.049973357 0.018911073 -0.098645516 -0.014547779 -0.044823207 0.021353561 -0.065973505
-0.062995225 0.07004847 0.04858722 -0.0812969 0.07736164 -0.03317588 -0.02635278 -0.02887822
0.060688894 0.06070333 -0.066546045 0.08292762 -0.08299038 0.01877263 0.011207101 0.098080814
0.07910354 0.04111509 0.0978896 -0.09749499 -0.05113659 -0.060188826 -0.025398904 -0.09952885
0.05633299 -0.03988654 -0.06420119 0.04380197 0.05326628 -0.077878654 0.058466222 0.031659093
-0.050774526 -0.09595999 0.0847441 0.03627868 0.05260485 0.057955857 0.013120818 -0.084345326
0.01652738 -0.052597962 0.070859306 0.10500416 -0.06427228 0.068839185 0.07679203 0.019781105
0.061153837 0.044452623 -0.09665495 4.275838e-05 0.09428516 0.07475242 -0.09129819 0.002706206
0.09019252 -0.09045683 0.06431014 0.098680206 -0.043879658 -0.013005367 -0.03526668 -0.093171515
0.015942402 -0.057838973 0.05305368 0.034662813 0.05665872 0.07516427 -0.03169857 -0.03612074
-0.01287839 0.050535336 0.02490844 0.04043908 -0.056434404 -0.08675271 0.031861253 -0.059957013
-0.016384756 -0.049381472 0.082693286 0.055534173 0.0047629206 -0.0761277 0.016089264 0.006102699
0.0015233675 -0.07940066 0.07529301 0.033187557 0.077137046 0.004276512 -0.039366003 -0.099452525
-0.056678727 -0.09596742 -0.09059805 -0.05500604 0.04194616 -0.08834205 -0.027873434 0.08747873
-0.04725713 0.031110946 -0.01866211 0.07264923 -0.054355282 0.0904406 0.012286077 0.047915325
0.09051392 0.0017135593 -0.09336235 -0.04270976 0.01701775 0.056909066 0.08876569 -0.068017945
-0.0034394686 -0.09168982 0.06666419 -0.045097128 0.07131142 0.028487235 0.07458259 -0.063133806
0.09614213 0.0018948187 0.04696763 -0.0064294706 0.0843365 -0.09585333 -0.03680235 -0.010858231
0.06728879 -0.06808904 0.0968277 -0.058826707 0.038653035 0.030869372 0.00093380944 -0.04595673
-0.009378395 0.03233522 -0.010062755 -0.096989095 -0.08549315 0.06011384 -0.034097776 -0.065743975
0.014104623 -0.04820449 -0.05499328 -0.004107146 -0.04210368 -0.075242415 0.032550834 -0.047686435
0.080074504 0.0824125 0.0734265 -0.002823043 -0.018733947 0.037117124 -0.008073807 0.03172258
0.05406071 -0.06673945 0.048632864 0.072950594 -0.08951011 -0.02213132 -0.053488344 0.059171796
-0.033166375 -0.0820539 -0.07641124 0.065987825 0.027581632 -0.04823899 -0.0016322453 0.005695077
-0.09684467 0.044353113 -0.024303984 -0.008335432 0.064628124 0.03386551 -0.014471526 -0.008439873
0.061097402 0.08734297 -0.095789984 0.07536236 -0.0014866382 0.08994481 0.027977938 -0.0410636
-0.0069575105 0.05886729 0.048327614 0.095356524 0.06351543 -0.054186005 -0.05886121 0.078564
0.054974984 -0.06824557 -0.08786517 0.0881214 -0.05623474 0.022671195 0.010815453 -0.039449148
-0.055101603 0.094698705 -0.051721077 -0.077355854 -0.001024225 -0.0840109 -0.08814942 0.06339572
0.029639218 -0.056486122 -0.06664365 -0.08594359 0.0009874142 -0.093864344 -0.029864946 0.058033463
0.07016362 -0.026478708 -0.015357566 -0.03181682 -0.0617953 -0.08082892 0.0066085816 -0.083155684
00000000: f7f2 a0bd 71c6 38bd 6d5e bb3d 9862 ae3c
00000010: 7ada 393d 2470 b2bd d1e5 b4bd cfe2 a6bd
00000020: fdf7 d13d ddb0 4cbd 65eb 9a3c a906 cabd
00000030: cf59 6ebc 8a98 37bd aaed ae3c 1e1d 87bd
00000040: a403 81bd 9275 8f3d 6503 473d fd7e a6bd
00000050: c86f 9e3d 6ee3 07bd c9e1 d7bc 0492 ecbc
00000060: eb94 783d 0ea4 783d 4b49 88bd f5d5 a93d
00000070: dcf6 a9bd 0fc9 993c fd9d 373c 98de c83d
00000080: 0901 a23d 4c68 283d 587a c83d 74ab c7bd
00000090: 9a74 51bd 8f88 76bd 5d11 d0bc c8d5 cbbd
000000a0: 6cbd 663d 1260 23bd ea7b 83bd b269 333d
000000b0: be2d 5a3d d87e 9fbd 477a 6f3d f7ac 013d
000000c0: f3f8 4fbd ac86 c4bd 518e ad3d f498 143d
000000d0: 2f78 573d 1f63 6d3d b3f8 563c 3ebd acbd
000000e0: 6e64 873c f670 57bd af1e 913d 6c0c d73d
000000f0: 2fa1 83bd 8ffb 8c3d 2445 9d3d fc0b a23c
00000100: 727c 7a3d f413 363d 08f3 c5bd 7657 3338
00000110: 9418 c13d cc17 993d 8cfa babd 9a5a 313b
00000120: dbb6 b83d 6e41 b9bd 09b5 833d d918 ca3d
00000130: 28bb 33bd 7614 55bc cb73 10bd b5d0 bebd
00000140: a499 823c 8fe8 6cbd d14e 593d 98fa 0d3d
00000150: f912 683d baef 993d 5cd6 01bd 57f3 13bd
00000160: e2ff 52bc 24fe 4e3d c90c cc3c 73a3 253d
00000170: c327 67bd 68ab b1bd f280 023d 7c95 75bd
00000180: 5339 86bc 3a44 4abd 195b a93d cd77 633d
00000190: 4612 9c3b d7e8 9bbd a2cd 833c 26f9 c73b
000001a0: bbab c73a d09c a2bd 3933 9a3d adef 073d
000001b0: 07fa 9d3d fc21 8c3b 3f3e 21bd c4ad cbbd
000001c0: f427 68bd 918a c4bd 788b b9bd 034e 61bd
000001d0: bdcf 2b3d adec b4bd d456 e4bc 0c28 b33d
000001e0: b190 41bd 62dc fe3c 48e1 98bc 1fc9 943d
000001f0: a5a3 5ebd ec38 b93d 8b4b 493c dc42 443d
00000200: 5d5f b93d 8299 e03a c234 bfbd 6ef0 2ebd
00000210: cf68 8b3c 7b19 693d c9ca b53d fe4c 8bbd
00000220: b568 61bb dfc7 bbbd 3c87 883d c4b7 38bd
00000230: b90b 923d 105e e93c c2be 983d 4c4c 81bd
00000240: 2ae6 c43d 915b f83a 2161 403d 4fae d2bb
00000250: 9db8 ac3d c04e c4bd 10be 16bd b9e6 31bc
00000260: b5ce 893d 4472 8bbd 9a4d c63d 46f4 70bd
00000270: a552 1e3d c4e1 fc3c e4ca 743a 203d 3cbd
00000280: d7a7 19bc f071 043d 41de 24bc 38a2 c6bd
00000290: 0817 afbd ee39 763d 1caa 0bbd c7a4 86bd
000002a0: 1417 673c 1272 45bd a240 61bd 3d95 86bb
000002b0: e974 2cbd b218 9abd 0654 053d da52 43bd
000002c0: 1afe a33d e3c7 a83d a260 963d cd02 39bb
000002d0: ef77 99bc 2008 183d 0048 04bc 89ef 013d
000002e0: c36e 5d3d b1ae 88bd 4133 473d 1f67 953d
000002f0: 1451 b7bd be4c b5bc 9816 5bbd 205e 723d
00000300: 77d9 07bd e00b a8bd 7f7d 9cbd a024 873d
00000310: e0f2 e13c 3f96 45bd 10f1 d5ba c59d ba3b
00000320: 8056 c6bd 9cab 353d 2619 c7bc 5691 08bc
00000330: c05b 843d 90b6 0a3d fb19 6dbc 6547 0abc
00000340: 4541 7a3d dfe0 b23d 8a2d c4bd 9557 9a3d
00000350: 4ddb c2ba fc34 b83d fd31 e53c 4e32 28bd
00000360: d4fb e3bb d41e 713d 2df3 453d 484a c33d
00000370: 6114 823d 25f2 5dbd 7418 71bd 2ae6 a03d
00000380: 732d 613d 55c4 8bbd a7f2 b3bd fe78 b43d
00000390: 6656 66bd f1b8 b93c 4c33 313c 6e95 21bd
000003a0: 38b2 61bd 65f1 c13d 7bd9 53bd bf6c 9ebd
000003b0: 4a3f 86ba e80d acbd af87 b4bd 9ed5 813d
000003c0: f2cd f23c fe5d 67bd 777c 88bd 3103 b0bd
000003d0: 1f6c 813a f33b c0bd 55a7 f4bc 7fb4 6d3d
000003e0: f2b1 8f3d e0e9 d8bc 4d9e 7bbc 5b52 02bd
000003f0: 121d 7dbd a289 a5bd cd8c d83b 874d aabd
