crowd_nav/data/output/rl_model.pth (torch, 392355 bytes, 20 tensors)

mlp1.0.weight f4 [150, 13]
0.17303796 -0.29403457 0.1067744 -0.15147202 0.17078967 -0.039759368 -0.07605964 -0.17529218
0.24013802 -0.09821535 -0.23832785 0.06781098 -0.18349028 -0.17350216 0.13326432 0.24971378
-0.13727272 -0.03335122 -0.06775918 0.063138284 0.11141156 0.19720978 -0.2583118 -0.010489835
0.0051274966 -0.12025522 0.2834119 0.23868592 0.17285256 -0.2708154 0.010215219 -0.2786101
-0.0063625523 -0.09159061 0.36481678 -0.1191402 0.1199766 -0.335656 -0.15858392 -0.028182933
-0.03480349 0.10548981 -0.19079416 -0.26412308 0.13396423 -0.042177238 0.009179831 0.19905418
-0.06278555 0.1465154 0.33850121 0.020214925 -0.0041816984 0.16258691 0.090640955 -0.0093044955
0.08686604 -0.2007254 -0.32949305 0.343062 -0.31142226 -0.1767484 -0.13582267 -0.11595137
0.3177156 -0.22774579 0.086484484 0.2115267 0.08926747 -0.18871535 -0.016871385 -0.06643958
0.17425516 0.24911565 0.23423275 -0.05511118 -0.098461464 -0.24757549 -0.048544046 0.2222406
0.21021862 0.0225402 0.113679655 0.080565475 0.06132926 0.14463294 0.14477009 -0.086781584
0.023113409 0.08881064 0.24609628 -0.031039692 -0.15880507 -0.18188056 -0.23578009 -0.022913247
0.33798558 0.2241388 0.29308906 -0.16858946 -0.12863901 0.024090769 0.04713737 -0.22798085
0.22115329 0.07069424 0.2317358 0.050132185 -0.18488488 -0.12900203 -0.15161018 -0.2574563
0.12167672 0.14416873 0.20990121 0.03560329 0.00955312 0.011864392 0.23037878 -0.17728475
-0.086280696 0.13900599 -0.26961625 -0.10870574 -0.19863687 0.12674743 0.0037208742 -0.029054334
0.21727365 -0.24189326 -0.16558103 -0.14351465 0.012466624 -0.21240383 -0.24046932 0.26565126
0.022368055 -0.0351177 -0.1646975 -0.22303098 -0.21657665 -0.018531382 0.20400235 -0.26541746
0.18856324 -0.06860859 0.17578734 -0.21586245 0.2351895 -0.004275098 0.010897505 0.22365813
-0.06648236 -0.030263167 0.037744354 -0.18458837 0.19204211 0.05208376 0.24877694 -0.15066858
-0.29537255 -0.11501187 -0.027442535 0.13546884 0.09221395 -0.2706418 -0.2268402 -0.11464625
0.022751907 0.036859028 0.017678173 -0.2742701 0.0036226336 -0.23775789 -0.03543093 -0.19538505
-0.1028456 -0.26880565 -0.031370193 0.22838321 -0.10471911 0.16160384 0.1977571 -0.016272774
-0.066202454 -0.2278798 0.042656437 0.22837028 -0.18933833 0.3748025 0.1190711 -0.00773535
-0.07085764 -0.2762636 0.303505 -0.16051488 -0.13403094 0.2569198 0.13436414 -0.050264947
-0.072993055 -0.19333002 -0.26039627 -0.048292823 -0.27812293 -0.25874633 0.29999733 0.105214484
-0.22597943 -0.1936491 -0.17700002 0.13281572 -0.26409528 0.20535652 0.14971885 -0.18221019
-0.12635525 -0.20418067 0.23031491 -0.124671146 0.096438326 -0.111280434 -0.18020871 0.25496227
0.10486485 -0.11326681 0.21101074 -0.09426016 0.04077586 -0.2500297 0.25259688 -0.18188053
-0.08371532 -0.24144927 -0.17266926 0.19849291 -0.05057708 0.23856382 -0.021657694 0.08234624
-0.13430193 0.26390564 0.13619548 0.17229122 0.18909812 -0.19024308 0.013751126 -0.047042646
-0.12149455 -0.08772945 -0.2005523 0.14705029 -0.049770493 -0.28421336 0.0012350163 -0.037015542
00000000: dd30 313e b38b 96be 89ac da3d 7b1b 1bbe
00000010: 7de3 2e3e b8da 22bd 28c5 9bbd cb7f 33be
00000020: bee6 753e 2125 c9bd 370c 74be 7ce0 8a3d
00000030: e0e4 3bbe 8daa 31be 7176 083e f8b4 7f3e
00000040: 3891 0cbe 4a9b 08bd 53c5 8abd a54e 813d
00000050: be2b e43d 5cf1 493e 7241 84be 8fdd 2bbc
00000060: 8f04 a83b 5e48 f6bd 5d1b 913e 156a 743e
00000070: 4300 313e 51a8 8abe bc5d 273c fca5 8ebe
00000080: f57c d0bb dc93 bbbd 44c9 ba3e c7ff f3bd
00000090: 4bb6 f53d 1adb abbe d363 22be e5df e6bc
000000a0: 1b8e 0ebd 0b0b d83d 8b5f 43be 243b 87be
000000b0: eb2d 093e 0ac2 2cbd 0067 163c dcd4 4b3e
000000c0: b695 80bd 2208 163e 0850 ad3e c599 a53c
000000d0: a106 89bb 2f7d 263e f7a1 b93d e271 18bc
000000e0: d3e6 b13d f68a 4dbe 50b3 a8be d3a5 af3e
000000f0: bd72 9fbe 88fd 34be 1915 0bbe e977 edbd
00000100: 9eab a23e 3136 69be c71e b13d 759a 583e
00000110: ddd1 b63d 993e 41be dc35 8abc 7911 88bd
00000120: f26f 323e 2c18 7f3e b6da 6f3e 43bc 61bd
00000130: 2aa6 c9bd 6e84 7dbe 1fd6 46bd 0a93 633e
00000140: 8d43 573e 3aa6 b83c e1d0 e83d 83ff a43d
00000150: 6434 7b3d a81a 143e 9c3e 143e 8bba b1bd
00000160: 5558 bd3c 5ae2 b53d aa00 7c3e f446 febc
00000170: cc9d 22be e63e 3abe 5670 71be 90b4 bbbc
00000180: 720c ad3e a484 653e c50f 963e b7a2 2cbe
00000190: f2b9 03be 015a c53c 1d13 413d d073 69be
000001a0: 0276 623e 24c8 903d 264c 6d3e 6857 4d3d
000001b0: 7652 3dbe 1c19 04be b33f 1bbe 50d1 83be
000001c0: a531 f93d f8a0 133e 58f0 563e c1d4 113d
000001d0: b084 1c3c de62 423c 6ae8 6b3e 228a 35be
000001e0: efb3 b0bd 9657 0e3e 240b 8abe 1da1 debd
000001f0: 7767 4bbe 14ca 013e e9d9 733b 5b03 eebc
00000200: fc7c 5e3e deb2 77be 138e 29be 81f5 12be
00000210: d040 4c3c 6480 59be 973d 76be 7103 883e
00000220: 363d b73c 94d7 0fbd 76a6 28be 3c62 64be
00000230: 45c6 5dbe 20cf 97bc fee5 503e cce4 87be
00000240: b916 413e a982 8cbd 9901 343e 0c0b 5dbe
00000250: 84d5 703e 1f16 8cbb 738b 323c a306 653e
00000260: e727 88bd 76ea f7bc d399 1a3d bc04 3dbe
00000270: b0a6 443e c855 553d 62bf 7e3e dd48 1abe
00000280: 123b 97be 588b ebbd 2bcf e0bc 58b8 0a3e
00000290: abda bc3d 9091 8abe cc48 68be a7cb eabd
000002a0: 3562 ba3c 7ef9 163d d1d1 903c 216d 8cbe
000002b0: b569 6d3b ce76 73be 0620 11bd 0513 48be
000002c0: b7a0 d2bd e5a0 89be 087e 00bd 4add 693e
000002d0: f976 d6bd 7a7b 253e d680 4a3e 7b4e 85bc
000002e0: 2795 87bd 5359 69be 84b8 2e3d e6d9 693e
000002f0: e8e1 41be 1de6 bf3e 8ddb f33d d278 fdbb
00000300: cf1d 91bd 6c72 8dbe 0265 9b3e 035e 24be
00000310: 683f 09be fe8a 833e c196 093e 9ee2 4dbd
00000320: 627d 95bd 4ef8 45be a952 85be b2ce 45bd
00000330: 2166 8ebe 667a 84be 4099 993e b17a d73d
00000340: 2767 67be f34b 46be 7e3f 35be d800 083e
00000350: 7f37 87be fb48 523e e64f 193e 4f95 3abe
00000360: 4563 01be bd14 51be acd7 6b3e 9653 ffbd
00000370: 7581 c53d ffe6 e3bd a288 38be 6a8a 823e
00000380: 62c3 d63d 6ef8 e7bd 3313 583e 790b c1bd
00000390: 9704 273d e503 80be 6154 813e e43e 3abe
000003a0: f072 abbd 7a3e 77be 36d0 30be ba41 4b3e
000003b0: ea29 4fbd 134a 743e 7a6b b1bc 25a5 a83d
000003c0: 7286 09be a41e 873e d476 0b3e 1c6d 303e
000003d0: f0a2 413e 15cf 42be 674c 613c caaf 40bd
000003e0: 22d2 f8bd 7fab b3bd 955d 4dbe 5a94 163e
000003f0: 25dc 4bbd 6a84 91be 45e0 a13a 9c9d 17bd

mlp1.0.bias f4 [150]
0.008523659 0.2580152 -0.20601489 0.2581785 0.21683286 0.05113462 -0.046009123 -0.21586467
-0.151393 -0.15028843 0.1439212 -0.20570314 0.22299197 0.17641199 -0.15645212 -0.07797219
0.2710769 0.21415028 0.14451344 0.078244895 0.14494248 -0.24987136 0.014201436 -0.17299157
-0.1117649 0.15006864 0.12506898 -0.13208519 -0.115643315 -0.20403072 -0.0020643394 -0.1909347
0.2742468 -0.026925076 0.20767619 -0.19762191 0.15057924 0.13580577 -0.096200116 0.023679283
-0.08351051 0.0012305006 0.04285242 -0.11207691 -0.019886997 -0.18023999 -0.29816365 0.091252
0.15709583 0.021839352 -0.138936 0.021357566 -0.17313434 0.032546796 -0.097535476 -0.2345914
0.2068076 -0.13689776 0.24785902 -0.09230476 -0.052364793 -0.24686666 -0.19195688 -0.20785865
-0.2119144 -0.16554539 0.029130563 -0.1732356 -0.005711602 -0.0498775 0.29735598 0.021330785
0.06587161 -0.05100591 0.23497786 0.18874776 -0.24200165 -0.22373824 -0.17198944 0.16386423
0.19232099 -0.2252253 0.09706606 -0.10767442 -0.26854724 0.1538855 0.272904 -0.03824614
-0.22916864 0.055006735 0.07408602 0.20054655 0.066108696 -0.05216735 -0.15144153 -0.22832009
0.19078319 -0.055239648 -0.024218172 -0.15871425 -0.0403238 -0.2814689 -0.23949397 -0.11155493
0.011365001 0.0014632253 -0.2539259 -0.066366866 -0.032868598 -0.2639484 0.18881342 0.12091651
-0.2051591 0.21104294 0.055856068 0.15452307 0.0076835286 0.115900494 -0.2469462 0.039824687
0.092669845 0.019132623 0.23158975 0.053088363 -0.25949293 0.00707804 0.13499384 -0.0037368177
-0.1732886 0.016725404 0.09502578 0.20703587 -0.042303402 0.011218528 -0.030934637 -0.043328565
0.13261501 0.033662543 -0.028292837 0.14505126 -0.18634203 -0.049464244 0.03448016 0.24159181
0.012417892 0.25061572 -0.2725759 0.266175 0.07689314 -0.017123373
00000000: d1a6 0b3c 911a 843e 91f5 52be f92f 843e
00000010: 6f09 5e3e 8972 513d 1074 3cbd a10b 5dbe
00000020: c406 1bbe 36e5 19be 1460 133e d8a3 52be
00000030: 0258 643e 58a5 343e fc34 20be e2af 9fbd
00000040: 97ca 8a3e 364a 5b3e 55fb 133e dc3e a03d
00000050: cd6b 143e 47de 7fbe 24ad 683c b424 31be
00000060: ffe4 e4bd 98ab 193e 1512 003e 5741 07be
00000070: 67d6 ecbd 6eed 50be de49 07bb 6384 43be
00000080: 146a 8c3e fa91 dcbc 11a9 543e 665d 4abe
00000090: 7231 1a3e ab10 0b3e 9104 c5bd 0efb c13c
000000a0: 8f07 abbd c048 a13a 0586 2f3d 9488 e5bd
000000b0: 0eea a2bc d590 38be e8a8 98be 54e2 ba3d
000000c0: bbdd 203e 71e8 b23c 3d45 0ebe 10f6 ae3c
000000d0: 214a 31be ca4f 053d aec0 c7bd ba38 70be
000000e0: 5fc5 533e ed2e 0cbe c1ce 7d3e 470a bdbd
000000f0: 777c 56bd 9dca 7cbe 5890 44be e6d8 54be
00000100: 1700 59be bb84 29be 38a3 ee3c ac64 31be
00000110: 6428 bbbb 594c 4cbd 0b3f 983e e6bd ae3c
00000120: b2e7 863d 93eb 50bd 099e 703e 1847 413e
00000130: 48cf 77be a31b 65be 001e 30be 06cc 273e
00000140: cbef 443e 76a1 66be 92ca c63d 6884 dcbd
00000150: 067f 89be 2994 1d3e 13ba 8b3e fca7 1cbd
00000160: 2fab 6abe be4e 613d 69ba 973d 135c 4d3e
00000170: ff63 873d 6ead 55bd 7d13 1bbe becc 69be
00000180: ab5c 433e f842 62bd 3065 c6bc fd85 22be
00000190: 922a 25bd b11c 90be e83d 75be e976 e4bd
000001a0: 4534 3a3c b2c9 bf3a 9302 82be 5aeb 87bd
000001b0: 39a1 06bd 3f24 87be 4e58 413e 13a3 f73d
000001c0: 3a15 52be a41b 583e 55c9 643d 4c3b 1e3e
000001d0: 1cc6 fb3b 3d5d ed3d 77df 7cbe 361f 233d
000001e0: b0c9 bd3d 05bc 9c3c dd25 6d3e 2f73 593d
000001f0: 42dc 84be e7ee e73b d33b 0a3e 66e5 74bb
00000200: 9172 31be b703 893c e09c c23d 3601 543e
00000210: 5546 2dbd ebcd 373c a36a fdbc 4b79 31bd
00000220: 3bcc 073e bce1 093d 61c6 e7bc 5188 143e
00000230: 72d0 3ebe 059b 4abd 113b 0d3d d863 773e
00000240: 6a74 4b3c b450 803e 128f 8bbe 1748 883e
00000250: 277a 9d3d 5146 8cbc

mlp1.2.weight f4 [100, 150]
0.037012696 -0.02825212 -0.05857847 0.036814038 -0.0583366 -0.045412365 -0.08981215 0.025550624
0.087601855 -0.048940133 -0.044241995 0.05564741 -0.057879318 0.07148764 0.06679384 0.027960256
0.0005547623 0.0039458694 0.055463612 -0.06633911 0.033325654 0.050072283 -0.059034076 0.038883075
0.019590413 0.019858835 -0.07864059 0.07835787 0.07370242 0.049837932 0.04722088 0.059340984
0.062047124 -0.003555123 0.055532772 0.032251254 0.041067064 0.07230841 -0.049962685 -0.058327857
-0.05273032 -0.038275734 -0.032192387 -0.059635513 -0.07724896 0.007230893 -0.03328439 -0.013584707
-0.021022482 0.02827176 0.010753283 0.08061512 -0.02502477 0.049566668 -0.03508637 0.024460549
-0.024350725 -0.023613013 -0.08154975 -0.07536833 -0.03719219 0.0072680307 0.078008525 0.011108568
0.015509496 -0.038921416 0.021350479 -0.051574327 0.052404728 0.087307066 -0.075983725 -0.018345688
-0.020750813 0.048273154 -0.009992905 8.268921e-05 -0.056394972 -0.043559875 0.06498115 0.02001172
0.05873414 -0.04935122 0.03290029 -0.030999947 0.018482966 0.043894656 -0.019968752 0.05466303
0.049298514 -0.06775685 0.006103379 -0.022589652 0.037321806 -0.034432728 0.034858454 0.061037228
-0.06176482 -0.068769075 0.07953655 0.017664062 0.057141397 0.07495069 -0.022660652 0.07441488
0.0061579538 -0.0054474464 0.022901878 0.04024337 0.052481413 0.029993229 -0.07600062 -0.025326764
-0.02955905 0.0097351875 -0.073594995 -0.052209906 0.027588237 -0.020845009 0.07576155 -0.067935444
-0.06938873 0.009715668 0.042860035 0.02899676 -0.06432312 0.009381294 -0.06700287 -0.020609707
0.06317362 0.049045827 0.014654043 0.0031639913 -0.08312045 0.010443781 0.015451216 0.06257536
-0.0038988586 0.0036625778 0.00038120427 0.07454 -0.0032573212 -0.034841035 0.061447546 -0.083810806
0.038853463 -0.057543278 -0.04540967 0.048139073 -0.06188362 0.024561504 -0.06031107 0.03000042
-0.03401081 0.016895756 -0.050219964 0.03319686 -0.056062486 0.023574607 0.033903897 -0.07934257
0.01888395 -0.013730859 0.0632456 -0.058244713 -0.031445757 -0.04297927 0.0076324823 0.05488883
0.062494762 0.06793588 -0.01914027 -0.011746939 -0.052818365 0.036609773 0.037048265 0.02311193
-0.060988735 0.020804679 0.048200976 0.01319518 0.071814105 -0.048068214 -0.07694332 -0.039045013
0.008841491 -0.029915564 0.035060227 0.031136846 0.040383205 -0.053900883 -0.04958852 -0.0012217711
-0.08206868 -0.030634671 0.05851965 -0.02093565 -0.05194573 0.014614465 0.033954006 -0.017167075
-0.050878868 0.07784242 -0.07495131 -0.013549772 -0.001211352 0.04654193 0.0339826 -0.07556257
0.021976262 -0.035790917 0.0009117179 -0.06212623 -0.04536056 0.041017476 0.004701493 -0.03368495
-0.064806275 0.0074000745 0.006011216 0.009984447 0.048297063 -0.073180534 -0.03842495 0.07131213
-0.07196884 -0.00052621705 -0.03243017 -0.022218218 0.064159796 0.063626714 -0.032119904 0.0072616604
0.018185599 -0.074950814 -0.021906339 -0.024664437 0.03314558 0.041078575 0.02003988 -0.02631478
0.049307752 0.012016129 -0.06294841 -0.072272345 -0.014808372 -0.027417839 0.027259914 -0.03445986
-0.052440364 -0.044136684 0.022333773 0.0043887887 -0.02273268 0.020128539 -0.04158342 -0.079808675
00000000: a09a 173d fd70 e7bc faef 6fbd 51ca 163d
00000010: 5cf2 6ebd 5102 3abd 6fef b7bd 8b4f d13c
00000020: 9a68 b33d 7375 48bd 1837 35bd 8aee 633d
00000030: dd12 6dbd 1d68 923d 35cb 883d e80c e53c
00000040: 786d 113a 5a4c 813b d02d 633d cddc 87bd
00000050: 7b80 083d 9818 4d3d b7cd 71bd dc43 1f3d
00000060: 137c a03c ffae a23c 510e a1bd 177a a03d
00000070: 4bf1 963d dc22 4c3d ae6a 413d 880f 733d
00000080: 2025 7e3d 11fd 68bb 5576 633d e419 043d
00000090: f035 283d 6f16 943d aca5 4cbd 31e9 6ebd
000000a0: bffb 57bd 04c7 1cbd 2adc 03bd 5e44 74bd
000000b0: b434 9ebd 20f1 ec3b 3655 08bd 6492 5ebc
000000c0: 5737 acbc 2e9a e73c 8a2e 303c 8a19 a53d
000000d0: bf00 cdbc 6b06 4b3d bab6 0fbd 7d61 c83c
000000e0: 2c7b c7bc 1470 c1bc 8e03 a7bd b65a 9abd
000000f0: d656 18bd a928 ee3b efc2 9f3d b600 363c
00000100: 8b1b 7e3c 106c 1fbd 33e7 ae3c 9a3f 53bd
00000110: 57a6 563d 0cce b23d 5b9d 9bbd b249 96bc
00000120: 9cfd a9bc 12ba 453d 48b9 23bc 6e69 ad38
00000130: 6afe 66bd d76b 32bd d614 853d 9eef a33c
00000140: 3693 703d 8124 4abd 74c2 063d 9af3 fdbc
00000150: 9769 973c e2ca 333d 8295 a3bc 57e6 5f3d
00000160: 3ded 493d 1ac4 8abd dbfe c73b ef0d b9bc
00000170: c0de 183d 5509 0dbd bdc7 0e3d 2c02 7a3d
00000180: 1cfd 7cbd cdd6 8cbd 0fe4 a23d 39b4 903c
00000190: 190d 6a3d bf7f 993d d5a2 b9bc d466 983d
000001a0: a9c8 c93b 7e80 b2bb b89c bb3c 3bd6 243d
000001b0: c0f6 563d 5cb4 f53c 37a6 9bbd 137a cfbc
000001c0: d225 f2bc 5680 1f3c f9b8 96bd 0eda 55bd
000001d0: ba00 e23c 27c3 aabc df28 9b3d bd21 8bbd
000001e0: ae1b 8ebd 772e 1f3c 018e 2f3d 9d8a ed3c
000001f0: d7bb 83bd 00b4 193c cd38 89bd b0d5 a8bc
00000200: 2c61 813d 47e4 483d 8317 703c f75a 4f3b
00000210: 0e3b aabd 641c 2b3c 1927 7d3c 8327 803d
00000220: fe83 7fbb dc07 703b 5fdc c739 6da8 983d
00000230: c878 55bb 79b5 0ebd 6cb0 7b3d 00a5 abbd
00000240: cf24 1f3d 80b2 6bbd 7dff 39bd 7a2d 453d
00000250: ae79 7dbd 3535 c93c be08 77bd 71c3 f53c
00000260: eb4e 0bbd f868 8a3c 73b3 4dbd 6ef9 073d
00000270: c7a1 65bd 891f c13c d0de 0a3d 5b7e a2bd
00000280: 83b2 9a3c 66f7 60bc e986 813d 0292 6ebd
00000290: 44cd 00bd 080b 30bd e719 fa3b 1cd3 603d
000002a0: 82fa 7f3d f721 8b3d 0ecc 9cbc 3c76 40bc
000002b0: 1258 58bd 21f4 153d ecbf 173d 3b55 bd3c
000002c0: 53cf 79bd 936e aa3c 636e 453d 9930 583c
000002d0: 4613 933d 2de3 44bd 7694 9dbd aaed 1fbd
000002e0: e7db 103c 7c11 f5bc 509b 0f3d b312 ff3c
000002f0: dc68 253d 2cc7 5cbd 551d 4bbd d623 a0ba
00000300: a013 a8bd 90f5 fabc 4db2 6f3d 3e81 abbc
00000310: 0cc5 54bd 8271 6f3c 5b13 0b3d f7a1 8cbc
00000320: 5c66 50bd d96b 9f3d 1380 99bd ddff 5dbc
00000330: 3ac6 9eba c0a2 3e3d 5731 0b3d 8cc0 9abd
00000340: 9007 b43c 7f99 12bd 5a00 6f3a 1378 7ebd
00000350: ffcb 39bd f101 283d fb0e 9a3b 3bf9 09bd
00000360: 27b9 84bd 537c f23b bcf9 c43b ce95 233c
00000370: 24d3 453d addf 95bd 7b63 1dbd 180c 923d
00000380: 6664 93bd d4f1 09ba 7fd5 04bd fb02 b6bc
00000390: 3666 833d b94e 823d 2990 03bd 39f3 ed3b
000003a0: f7f9 943c d07f 99bd ec74 b3bc 130d cabc
000003b0: a9c3 073d 0242 283d ad2a a43c 1892 d7bc
000003c0: edf6 493d 4cdf 443c 19eb 80bd 8603 94bd
000003d0: d09e 72bc 609b e0bc 2f50 df3c c825 0dbd
000003e0: b5cb 56bd abc8 34bd 51f5 b63c d4cf 8f3b
000003f0: e339 babc 9be4 a43c 6053 2abd bb72 a3bd

mlp1.2.bias f4 [100]
0.03233571 -0.005974373 -0.029202726 -0.025373138 0.07823289 0.11292869 0.08154789 -0.0029547014
0.093892 -0.020622095 0.035709675 0.09595251 -0.045371316 0.04540015 -0.016963733 -0.057412565
-0.0545588 -0.0557417 0.06865199 0.080513835 -0.063257374 -0.0039417376 -0.09427302 0.111359216
-0.037980925 -0.03601882 -0.116620004 -0.032223053 -0.03085241 -0.019812748 -0.025341593 -0.09647509
0.0010447893 0.07206876 0.008889476 -0.050559208 0.040757056 -0.035111785 -0.0075324266 -0.06577734
-0.0020265365 -0.016030272 0.07258485 0.033642482 0.04790668 0.054184776 -0.008047437 0.028943013
-0.050126966 0.01959183 -0.037122007 -0.06301304 0.006181675 0.089585826 -0.024476826 -0.017530197
0.09111888 0.07413446 -0.08481685 -0.062637135 -0.00755054 -0.07271281 -0.009577245 -0.049095973
-0.0008134267 -0.047921818 -0.010801902 0.05512798 0.050282057 0.02117197 0.08306158 0.05524403
0.0149437515 0.011506211 0.11853255 0.005443051 0.04991261 0.042694706 -0.05096046 -0.08116712
-0.09103839 0.05778893 -0.08338919 0.008228857 0.024928382 0.025403041 -0.061809164 -0.009191112
-0.07514052 -0.018893689 0.055825282 -0.06449834 -0.0047788573 0.036179535 -0.040817782 -0.06981614
-0.05172751 -0.06181892 -0.029973734 -0.038575985
00000000: 7372 043d acc4 c3bb 8e3a efbc 54db cfbc
00000010: 9138 a03d 2847 e73d 9502 a73d aaa3 41bb
00000020: 734a c03d abef a8bc 4f44 123d c082 c43d
00000030: 46d7 39bd 82f5 393d 87f7 8abc 7029 6bbd
00000040: 0c79 5fbd 6951 64bd 6a99 8c3d 70e4 a43d
00000050: 158d 81bd b129 81bb 3712 c1bd 4d10 e43d
00000060: e391 1bbd 7888 13bd 78d6 eebd 52fc 03bd
00000070: 31be fcbc 584e a2bc 2c99 cfbc bb94 c5bd
00000080: 50f1 883a c998 933d 2aa5 113c 2c17 4fbd
00000090: dff0 263d 60d1 0fbd 93d2 f6bb 45b6 86bd
000000a0: a4cf 04bb eb51 83bc 5ea7 943d b3cc 093d
000000b0: cb39 443d dbf0 5d3d 66d9 03bc e619 ed3c
000000c0: ef51 4dbd 0c7f a03c 3f0d 18bd fb0c 81bd
000000d0: a68f ca3b c678 b73d a083 c8bc 7d9b 8fbc
000000e0: 899c ba3d cfd3 973d 75b4 adbd e647 80bd
000000f0: 856a f7bb 74ea 94bd e1e9 1cbc dc18 49bd
00000100: 243c 55ba ab49 44bd 76fa 30bc e0cd 613d
00000110: 8ff4 4d3d d770 ad3c 311c aa3d 9047 623d
00000120: a3d6 743c 8c84 3c3c 32c1 f23d 9f5b b23b
00000130: 2a71 4c3d a5e0 2e3d eabb 50bd f23a a6bd
00000140: 5672 babd 16b4 6c3d f4c7 aabd 54d2 063c
00000150: 9b36 cc3c 0a1a d03c 9b2b 7dbd 5196 16bc
00000160: 46e3 99bd f0c6 9abc 0da9 643d b517 84bd
00000170: f697 9cbb fe30 143d 8c30 27bd c4fb 8ebd
00000180: 3ae0 53bd d635 7dbd 7a8b f5bc da01 1ebd

mlp2.0.weight f4 [100, 100]
0.043803163 -0.011157483 -0.012736655 -0.06303174 0.08978583 0.049166285 -0.0012378475 -0.012474808
0.07708627 0.0072198147 0.08296934 0.01674284 -0.11926848 -0.04948944 0.07690133 -0.081572376
-0.10542186 -0.030956905 -0.035177298 -0.06312129 -0.067469 0.015889175 -0.10420495 0.017527293
-0.028696446 0.05163258 0.011270751 -0.075924926 -0.010655226 0.067841694 -0.07015337 0.039459158
0.019362284 0.06187196 -0.017527815 -0.04917668 0.054576218 -0.0905064 -0.021189075 0.0667007
0.064552456 -0.10117015 -0.042374387 0.031569302 0.011865643 -0.07596643 0.0039457413 0.039017763
0.039785568 -0.091170914 0.046760883 -0.096949905 0.078457914 0.037363496 -0.031729713 -0.01999166
-0.07057431 0.019418413 0.0778888 -0.025276115 0.076562524 -0.0972616 0.08247645 0.069385335
-0.1014286 0.094045945 0.029002663 -0.10763225 0.08786342 0.078922674 0.11348878 0.0448601
-0.061745025 0.101705894 0.030882379 0.034208726 0.063043535 -0.021790337 -0.0040046084 -0.05416621
-0.032565013 -0.015219664 -0.085692696 -0.057462525 -0.050426055 0.075760655 0.08008083 -0.01582998
-0.04808088 0.07057205 0.017300788 -0.04032423 0.070138596 -0.06522462 -0.033802964 0.043190517
0.031233175 0.07035329 -0.03389597 0.05208224 0.02140847 0.05244907 0.008994639 0.008308649
-0.07395566 0.07699298 0.06999147 0.040398195 0.0054308726 0.011063244 -0.09862285 -0.0754404
0.0351066 0.0008367012 -0.005053073 0.038665403 -0.07210322 0.052216925 -0.038347848 -0.09112945
0.0067586415 0.02374852 -0.06842944 0.09494916 -0.10174327 -0.012014393 0.10022006 0.016936556
0.03832403 -0.08337036 -0.08235369 0.007391935 0.09058526 -0.075104125 0.036155708 -0.030363018
0.07159588 0.08111587 0.07679403 0.090208575 -0.028755186 0.08502538 0.03324623 -0.018530259
0.01418864 -0.040839784 -0.04479061 -0.028217848 -0.019741727 0.023550512 0.032944497 -0.0060592066
0.023151495 0.09730276 -0.07202768 0.07050231 0.091318 -0.058407765 0.039452452 -0.03654441
-0.012491401 -0.07993167 -0.033441477 0.041137215 0.04014259 -0.09010784 -0.04057947 0.0203585
0.090814896 0.030079927 0.06623768 0.043278936 -0.0790805 -0.035034288 -0.013233566 -0.028685426
-0.08144432 0.09437159 -0.031158738 -0.011966949 0.05933458 -0.026918426 0.04444992 -0.085412554
0.0107859755 0.06807234 0.039970603 -0.054393742 0.072043315 0.08057174 0.045857262 -0.101671055
0.00082176924 -0.06744463 -0.02965349 0.0496325 -0.06356763 0.051818006 -0.062400274 -0.0050580963
-0.0392986 0.056101475 0.024496937 -0.05198358 -0.042892538 -0.07196184 0.0749999 -0.030092273
0.03653265 0.024102107 0.029501207 -0.09529945 -0.009504703 -0.018897666 0.0034115727 -0.060882233
-0.004937024 0.008978966 -0.027429929 -0.050778497 0.07935805 -0.09857025 0.044404462 0.023148622
-0.0049386024 -0.09558902 0.009175754 0.038335804 0.007236007 -0.029523598 0.087410025 -0.01116759
0.0011801183 -0.0019303863 -0.07706418 0.09685738 0.038966585 0.09765522 0.019325918 0.055364616
-0.019923234 0.09493296 0.009270532 -0.010663578 0.061464634 -0.02891465 0.008713501 -0.06368585
0.039291225 -0.085920796 0.023239193 -0.07286229 -0.0755932 0.01588653 -0.058706407 5.5318444e-05
00000000: f26a 333d e0cd 36bc 67ad 50bc c916 81bd
00000010: a2e1 b73d 9662 493d 453f a2ba 2363 4cbc
00000020: 68df 9d3d 3294 ec3b d4eb a93d 4828 893c
00000030: 0843 f4bd 70b5 4abd 727e 9d3d 6b0f a7bd
00000040: 6be7 d7bd 5699 fdbc 1216 10bd bc45 81bd
00000050: 302d 8abd 042a 823c 6869 d5bd 6695 8f3c
00000060: cf14 ebbc af7c 533d f5a8 383c 877e 9bbd
00000070: 4293 2ebc 96f0 8a3d 92ac 8fbd ed9f 213d
00000080: a79d 9e3c 746d 7d3d 7e96 8fbc 7d6d 49bd
00000090: 508b 5f3d 6b5b b9bd b694 adbc 609a 883d
000000a0: 1434 843d 4c32 cfbd c490 2dbd d04e 013d
000000b0: 1d68 423c 4a94 9bbd 474b 813b 17d1 1f3d
000000c0: 31f6 223d d1b7 babd 5788 3f3d ac8d c6bd
000000d0: 8bae a03d 770a 193d 04f7 01bd 8dc5 a3bc
000000e0: 4489 90bd 5d13 9f3c 2a84 9f3d db0f cfbc
000000f0: d0cc 9c3d 1731 c7bd 6ae9 a83d e619 8e3d
00000100: ccb9 cfbd 299b c03d fe96 ed3c 4c6e dcbd
00000110: bdf1 b33d 36a2 a13d ce6c e83d 39bf 373d
00000120: 5ae8 7cbd 2e4b d03d 0bfd fc3c 731e 0c3d
00000130: f81c 813d a681 b2bc 1739 83bb 63dd 5dbd
00000140: e462 05bd e65b 79bc a77f afbd d35d 6bbd
00000150: 8d8b 4ebd 6728 9b3d 6b01 a43d e0ad 81bc
00000160: 75f0 44bd 1488 903d 62ba 8d3c 052b 25bd
00000170: d3a4 8f3d 7c94 85bd fa74 0abd 8ae8 303d
00000180: b7dc ff3c 6315 903d 80d6 0abd 3054 553d
00000190: d160 af3c d6d4 563d 405e 133c 0021 083c
000001a0: 1176 97bd 7fae 9d3d b057 8f3d 9478 253d
000001b0: 76f5 b13b 9c42 353c c7fa c9bd 7f80 9abd
000001c0: f0cb 0f3d 1156 5b3a 4094 a5bb 9d5f 1e3d
000001d0: daaa 93bd 6ae1 553d a212 1dbd 14a2 babd
000001e0: 9877 dd3b 428c c23c bc24 8cbd b574 c23d
000001f0: c75e d0bd 04d8 44bc 2d40 cd3d 88be 8a3c
00000200: a8f9 1c3d 14be aabd 0da9 a8bd 0c38 f23b
00000210: c484 b93d 31d0 99bd 0218 143d ddbb f8bc
00000220: dca0 923d 1420 a63d 3046 9d3d 46bf b83d
00000230: ff8f ebbc c921 ae3d 332d 083d c5cc 97bc
00000240: 7877 683c 9e47 27bd 5c76 37bd 1e29 e7bc
00000250: 67b9 a1bc 01ed c03c cff0 063d 4f8c c6bb
00000260: 34a8 bd3c ab46 c73d 4083 93bd 8463 903d
00000270: ee04 bb3d fb3c 6fbd e598 213d 97af 15bd
00000280: bca8 4cbc 37b3 a3bd eef9 08bd 7f7f 283d
00000290: 8e6c 243d 768a b8bd a936 26bd dec6 a63c
000002a0: 29fd b93d 2e6a f63c 9fa7 873d 4145 313d
000002b0: f5f4 a1bd 1d80 0fbd 99d1 58bc b3fd eabc
000002c0: 48cc a6bd e445 c13d 9c40 ffbc 0611 44bc
000002d0: d108 733d 0884 dcbc 1f11 363d c7ec aebd
000002e0: a9b7 303c 8369 8b3d 37b8 233d f9cb 5ebd
000002f0: 728b 933d cc02 a53d d3d4 3b3d ea38 d0bd
00000300: 006c 573a 6920 8abd e0eb f2bc 734b 4b3d
00000310: bf2f 82bd 1e3f 543d 6e97 7fbd 63be a5bb
00000320: 92f7 20bd a9ca 653d cdad c83c bcec 54bd
00000330: 16b0 2fbd bb60 93bd 8c99 993d 1284 f6bc
00000340: 43a3 153d c871 c53c 84ac f13c 5c2c c3bd
00000350: 9db9 1bbc 47cf 9abc b194 5f3b a65f 79bd
00000360: c2c6 a1bb 831c 133c bbb4 e0bc 1dfd 4fbd
00000370: 7986 a23d 33df c9bd 74e1 353d 2ea2 bd3c
00000380: 00d4 a1bb 2dc4 c3bd e755 163c 0106 1d3d
00000390: 071c ed3b 79db f1bc 0704 b33d 44f8 36bc
000003a0: 33ae 9a3a 0405 fdba d3d3 9dbd 295d c63d
000003b0: 6d9b 1f3d 76ff c73d 6351 9e3c 02c6 623d
000003c0: 0d36 a3bc 366c c23d 6ee3 173c 4ab6 2ebc
000003d0: 57c2 7b3d 6bde ecbc 12c3 0e3c ba6d 82bd
000003e0: d6ef 203d 3ef7 afbd 1f60 be3c d338 95bd
000003f0: 9cd0 9abd 7824 823c 2176 70bd ba05 6838

mlp2.0.bias f4 [100]
0.0648467 -0.07272831 -0.0022859117 0.01963825 0.027277114 0.028859213 -0.047826935 0.052725665
0.08894891 -0.058086973 0.12121748 -0.090723366 0.112203725 0.062167052 -0.09650814 0.058195535
0.045718074 0.048948117 0.050216343 -0.08474369 0.035490453 0.037349585 0.066554464 0.04889009
-0.08069131 0.02086746 -0.040672727 0.037003525 -0.0030987049 0.06843429 0.04929527 -0.054592364
-0.028501028 0.0202911 -0.0614849 0.12210841 -0.020414378 0.071485706 0.044743575 0.10936904
-0.06830728 0.07013956 -0.06616845 0.026608484 0.012709225 0.057896245 0.061976 0.06456667
-0.013194415 0.10344083 0.090888016 0.048273705 -0.0681699 0.06298952 0.19958511 0.065558076
-0.008088029 -0.025591733 0.07111348 -0.021501347 0.04387456 -0.098748155 0.009219983 0.057189755
0.20397824 -0.0059320694 -0.022046046 0.05975227 0.03223 -0.093689375 -0.028160283 -0.028617892
-0.015846575 -0.012531969 -0.053573105 -0.100809 0.10590593 0.02490195 -0.039267607 0.07529933
0.065567404 0.08284464 -0.0689724 0.053895257 0.06752725 0.031314947 0.013617193 -0.07780423
0.0016468371 0.073180676 0.04830659 0.06253771 0.023043135 0.090259045 0.027092183 -0.051374972
0.08093408 0.030799225 0.031388443 0.09093684
00000000: 59ce 843d 95f2 94bd 3ccf 15bb 65e0 a03c
00000010: 4174 df3c 286a ec3c 2de6 43bd def6 573d
00000020: d92a b63d 9bec 6dbd df40 f83d 2ccd b9bd
00000030: 11cb e53d e1a2 7e3d 0fa6 c5bd 715e 6e3d
00000040: e042 3b3d d27d 483d a7af 4d3d 1a8e adbd
00000050: 705e 113d e1fb 183d b54d 883d fa40 483d
00000060: 7c41 a5bd 3cf2 aa3c 7298 26bd 0291 173d
00000070: a413 4bbb 4727 8c3d d6e9 493d 3e9c 5fbd
00000080: fd7a e9bc 8539 a63c 97d7 7bbd f913 fa3d
00000090: 0e3c a7bc 1967 923d 0a45 373d e0fc df3d
000000a0: b0e4 8bbd 54a5 8f3d 5383 87bd 09fa d93c
000000b0: 5a3a 503c 9d24 6d3d 8cda 7d3d 883b 843d
000000c0: 632d 58bc c9d8 d33d 7f23 ba3d a6ba 453d
000000d0: a99c 8bbd a600 813d 0a60 4c3e 5043 863d
000000e0: a783 04bc c1a5 d1bc f2a3 913d 9823 b0bc
000000f0: d0b5 333d 793c cabd 690f 173c ce3f 6a3d
00000100: acdf 503e ce61 c2bb e999 b4bc ccbe 743d
00000110: 9b03 043d 37e0 bfbd 65b0 e6bc 1270 eabc
00000120: add0 81bc e352 4dbc 796f 5bbd f374 cebd
00000130: 35e5 d83d 2dff cb3c 12d7 20bd 8936 9a3d
00000140: 3448 863d 73aa a93d 6741 8dbd 46c1 5c3d
00000150: ba4b 8a3d 1a44 003d a61a 5f3c d357 9fbd
00000160: afda d73a c0df 953d 22dd 453d c513 803d
00000170: f5c4 bc3c bcd9 b83d 6df0 dd3c 906e 52bd
00000180: c4c0 a53d a84e fc3c 2b91 003d 183d ba3d

mlp2.2.weight f4 [50, 100]
0.02778574 -0.08465989 0.057318375 0.09631025 0.02627515 0.03565983 0.08126665 -0.0070290635
-0.0066489954 -0.07787526 -0.09943303 -0.015042931 0.045320023 0.06700158 0.05940749 -0.075030856
0.046821926 -0.018365728 -0.065201916 -0.05481987 -0.09909396 -0.06794324 -0.02573017 0.05531126
-0.052694906 0.051614903 -0.08301324 0.0374569 0.068776205 -0.025524385 0.015608823 0.04601138
-0.10048614 0.027215306 -0.010277909 0.009214617 -0.046049234 0.07092431 -0.07549209 -0.099466406
0.061931074 -0.16517712 0.08745478 0.09531517 0.04831541 -0.0021401253 0.06395423 0.070614964
-0.07003649 0.095183425 0.0098796645 0.012005357 -0.055297896 -0.1556639 -0.14129607 -0.044995848
0.09153789 -0.07034701 -0.06987329 0.035656635 0.0049566873 0.024347333 0.027113914 0.026905105
-0.14187947 -0.013081758 -0.019812165 -0.034513842 0.13927475 -0.030106785 0.026443692 -0.024431698
0.072688475 -0.13689984 -0.10245701 0.10742746 -0.08944993 0.08253178 0.09723808 0.024745142
-0.061410833 0.12539467 0.11728685 0.08672597 0.08722113 0.004284076 -0.007079785 -0.032894026
0.12802406 0.09343381 0.0296858 -0.11212311 -0.008586634 -0.027967757 -0.05377288 -0.029820591
0.057688016 -0.017366612 -0.105308354 -0.0045399936 -0.085537635 0.056680154 0.09446209 0.079670295
0.030610703 -0.055166967 -0.08200128 -0.11487568 0.09545749 0.10728514 -0.016381245 0.039129835
-0.072120555 -0.07350761 0.026249686 0.07693076 0.0026759205 0.056834623 0.085415594 -0.031590074
0.042543266 0.07038258 0.07012552 -0.08487976 0.0070693907 -0.061510824 -0.0778115 -0.0404866
0.08964853 0.05988304 -0.08023116 -0.05152344 0.03735464 0.002573408 0.07959671 0.081047244
-0.03209919 0.040772364 0.06055094 0.052905288 0.042279653 0.09351769 -0.023620311 0.04699617
-0.017072449 -0.01039251 0.016440436 0.013888268 0.0906538 -0.08679018 0.03554393 0.018957691
0.09754254 -0.01562398 0.024497654 0.06723556 -0.077975534 0.021690212 0.02032751 -0.066333674
-0.05303621 -0.01314867 0.016181134 -0.030048288 -0.034345202 0.06546255 -0.09022635 0.08338042
-0.12887806 0.07372 -0.09370922 -0.015613325 -0.035843235 0.029524943 -0.06019198 -0.033781797
-0.021299602 0.09226754 -0.1269928 0.080682196 0.008031067 0.05042444 -0.07157823 0.06324705
0.03770761 -0.03324529 0.050318297 0.08839953 -0.09575032 0.05210898 -0.073786706 -0.09298658
-0.075553544 0.100249045 0.10120774 0.03494824 0.058911737 0.027231628 0.029484455 0.036815252
-0.09316773 -0.0932639 -0.0657946 0.029010495 0.08246403 -0.028563814 0.0035804107 -0.043774333
0.09462873 -0.07503849 0.08087903 -0.08678276 0.0041631153 -0.00017702713 0.10964471 -0.12123163
0.070630014 0.08258376 -0.06567234 -0.008538273 0.017531423 0.09027153 -0.09515486 -0.093606815
0.0361666 -0.008600163 -0.05273876 0.0182068 -0.03558786 -0.037669238 0.06602845 0.010020921
0.00031755035 -0.08136579 0.053998057 -0.058925953 -0.038747158 0.022865627 -0.08047013 0.08895717
-0.047297344 0.020656176 0.07436349 0.1052511 0.06627389 0.056371137 0.084528886 0.018697146
-0.031173376 -0.08944937 0.07067962 -0.110403806 -0.080488965 -0.069906265 0.054218784 0.010878101
00000000: ec9e e33c 2a62 adbd acc6 6a3d 4f3e c53d
00000010: fc3e d73c 0b10 123d 216f a63d 0f54 e6bb
00000020: d1df d9bb 107d 9fbd 8ba3 cbbd a076 76bc
00000030: 7da1 393d 2038 893d 4555 733d c7a9 99bd
00000040: 59c8 3f3d b973 96bc 9588 85bd cd8a 60bd
00000050: c6f1 cabd d325 8bbd 14c8 d2bc 0f8e 623d
00000060: 9dd6 57bd 266a 533d d802 aabd 686c 193d
00000070: 8ada 8c3d 8418 d1bc 26bc 7f3c 6e76 3c3d
00000080: adcb cdbd a2f2 de3c ad64 28bc e8f8 163c
00000090: 1f9e 3cbd c440 913d 999b 9abd 0bb5 cbbd
000000a0: 70ab 7d3d 3124 29be 7e1b b33d 9a34 c33d
000000b0: 61e6 453d 5841 0cbb 6ffa 823d 949e 903d
000000c0: 4b6f 8fbd 87ef c23d 51de 213c 1eb2 443c
000000d0: 0c80 62bd 5b66 1fbe ebaf 10be 914d 38bd
000000e0: 3878 bb3d 1812 90bd ba19 8fbd b10c 123d
000000f0: b56b a23b 0f74 c73c 001e de3c 1868 dc3c
00000100: da48 11be df54 56bc 1f4d a2bc 635e 0dbd
00000110: 0a9e 0e3e 81a2 f6bc 71a0 d83c fc24 c8bc
00000120: b2dd 943d 792f 0cbe fbd4 d1bd ee02 dc3d
00000130: 8631 b7bd 6c06 a93d c224 c73d 53b6 ca3c
00000140: ed89 7bbd 7667 003e 1734 f03d 639d b13d
00000150: fea0 b23d 6f61 8c3b 8bfd e7bb e3bb 06bd
00000160: bd18 033e 3a5a bf3d a32f f33c cda0 e5bd
00000170: f4ae 0cbc a31c e5bc f440 5cbd 504a f4bc
00000180: 454a 6c3d 6d44 8ebc e8ab d7bd 3ac4 94bb
00000190: 5b2e afbd 7329 683d 5775 c13d 2e2a a33d
000001a0: 4cc3 fa3c c2f6 61bd 49f0 a7bd f143 ebbd
000001b0: 377f c33d 50b8 db3d f631 86bc 9b46 203d
000001c0: f1b3 93bd 288b 96bd 9509 d73c e08d 9d3d
000001d0: 7f5e 2f3b 6ccb 683d 5fee ae3d 9864 01bd
000001e0: d941 2e3d be24 903d f89d 8f3d 71d5 adbd
000001f0: 59a6 e73b c6f2 7bbd a35b 9fbd 47d5 25bd
00000200: a699 b73d eb47 753d 3c50 a4bd 3e0a 53bd
00000210: 2e01 193d 9fa6 283b 9a03 a33d 19fc a53d
00000220: 717a 03bd ec00 273d 4304 783d 37b3 583d
00000230: 6e2d 2d3d 3486 bf3d 627f c1bc 0e7f 403d
00000240: 85db 8bbc 5945 2abc 18ae 863c 9e8b 633c
00000250: b3a8 b93d 0dbf b1bd 8396 113d 294d 9b3c
00000260: 62c4 c73d b9fb 7fbc 4eaf c83c ccb2 893d
00000270: a3b1 9fbd acaf b13c e185 a63c f3d9 87bd
00000280: 7f3c 59bd 856d 57bc 4c8e 843c d427 f6bc
00000290: 8ead 0cbd 3b11 863d 98c8 b8bd 5bc3 aa3d
000002a0: 9cf8 03be 83fa 963d 9fea bfbd 08cf 7fbc
000002b0: 5bd0 12bd 4bde f13c de8b 76bd c85e 0abd
000002c0: 817c aebc c4f6 bc3d 670a 02be b53c a53d
000002d0: bd94 033c dc89 4e3d 9b97 92bd ab87 813d
000002e0: 4b73 1a3d 372c 08bd 8f1a 4e3d d00a b53d
000002f0: be18 c4bd 3a70 553d 7c1d 97bd c06f bebd
00000300: d1bb 9abd 5f4f cd3d 0146 cf3d e325 0f3d
00000310: 6f4d 713d dd14 df3c 6289 f13c 97cb 163d
00000320: b9ce bebd 2501 bfbd 52bf 86bd 6ba7 ed3c
00000330: e7e2 a83d a9fe e9bc 53a5 6a3b b74c 33bd
00000340: b5cc c13d c8ad 99bd e8a3 a53d 29bb b1bd
00000350: be6a 883b 5ca0 39b9 688d e03d 4a48 f8bd
00000360: 78a6 903d ad21 a93d 387f 86bd 1de4 0bbc
00000370: 0f9e 8f3c 48e0 b83d 8de0 c2bd eeb4 bfbd
00000380: 6e23 143d b3e7 0cbc 9904 58bd 6d26 953c
00000390: 93c4 11bd 0f4b 1abd ed39 873d ca2e 243c
000003a0: e37c a639 1ba3 a6bd 112d 5d3d 575c 71bd
000003b0: 57b5 1ebd b250 bb3c 86cd a4bd 2d2f b63d
000003c0: dcba 41bd 2437 a93c e34b 983d e48d d73d
000003d0: 9bba 873d 6ce5 663d 7b1d ad3d c22a 993c
000003e0: 4f5f ffbc 3b31 b7bd 7ac0 903d 641b e2bd
000003f0: 66d7 a4bd 042b 8fbd 8414 5e3d 103a 323c

mlp2.2.bias f4 [50]
-0.057464138 -0.045580797 -0.06800642 0.02620369 0.031959184 -0.012246106 0.10394159 -0.008682298
0.03958963 0.04777282 -0.07010201 0.04649063 -0.06526664 -0.048504055 -0.061369263 -0.0341057
0.11278438 0.07061912 -0.070438586 -0.049605064 0.11260687 -0.008546782 0.047291137 -0.072222635
0.014677706 0.013673903 -0.12733679 0.012643218 0.017163517 0.044458717 0.059778877 0.11788266
-0.03367515 -0.04231116 0.044263285 -0.013031277 -0.08983392 -0.03308394 0.021052357 0.017887792
0.110662356 0.013100529 0.03696628 -0.094044484 -0.0039060288 0.07036848 0.1517358 -0.07986083
0.015661046 -0.05489897
00000000: 845f 6bbd eeb2 3abd f346 8bbd 1fa9 d63c
00000010: a2e7 023d e4a3 48bc 54df d43d 3240 0ebc
00000020: bc28 223d 6fad 433d a591 8fbd f56c 3e3d
00000030: 84aa 85bd 30ac 46bd 565e 7bbd 6bb2 0bbd
00000040: 7ffb e63d c2a0 903d 1b42 90bd ae2e 4bbd
00000050: 6e9e e63d cd07 0cbc 5ab4 413d 76e9 93bd
00000060: c37a 703c 8208 603c 9364 02be 8025 4f3c
00000070: 819a 8c3c 581a 363d b2da 743d 776c f13d
00000080: f4ee 09bd 784e 2dbd 6b4d 353d 2381 55bc
00000090: d9fa b7bd 0783 07bd fe75 ac3c 6b89 923c
000000a0: f2a2 e23d 9aa3 563c f469 173d 659a c0bd
000000b0: 4afc 7fbb 5a1d 903d a160 1b3e 138e a3bd
000000c0: 984b 803c bedd 60bd

attention.0.weight f4 [100, 200]
-0.021642614 0.062065363 0.04751237 -0.020163981 0.02848047 0.07221675 0.057401344 -0.012546526
0.021528505 -0.044663306 0.054458905 0.05233986 0.055909798 -0.020276759 -0.008603803 0.054166283
0.006885987 -0.028304832 -0.021625921 0.028120548 -0.0109554995 -0.019212767 0.02301989 0.0069414475
-0.03332375 -0.0047673634 -0.0060923384 -0.05786046 -0.035522837 -0.034479603 -0.057880655 0.0567761
-0.0363282 0.027978053 -0.029508505 0.004980214 -0.029644137 -0.064977564 0.009580755 -0.010427567
-0.051328957 -0.014201931 0.003127133 -0.033888113 -0.045536604 0.008722945 0.022885488 0.068084806
0.029208653 -0.0032526203 0.0061964053 -0.056631155 -0.03149964 -0.027994787 0.075892374 -0.067200296
-0.06750559 -0.041634686 -0.056936204 -0.04555831 -0.033524115 -0.038252547 0.06368764 0.039080758
-0.06388402 0.054495726 -0.052787386 0.067063116 0.0434684 0.037837766 0.02513287 0.025599789
0.06742847 0.071549095 0.0029951525 -0.059658945 -0.06588692 -0.011188974 0.009919591 0.02338403
0.007947386 0.0066600824 0.01757611 0.024805853 -0.03643683 0.00022246416 -0.005647819 0.062417053
0.023169383 -0.06870645 0.03633505 -0.0516252 -0.02930789 -0.0229672 0.018288456 -0.0020007645
-0.05318423 -0.04899364 0.0030569865 -0.037943065 0.030538542 -0.03837122 0.05316878 -0.009860835
0.045419756 -0.062829316 -0.05897287 -0.011645891 0.063159004 0.067323565 0.054029457 0.032641385
0.063091956 -0.049834542 -0.0069799447 -0.051362414 -0.067650095 -0.01945059 -0.0062476434 -0.022840245
0.002287084 0.04338219 -0.029458882 -0.029939786 0.05438652 0.041378725 0.0010054247 0.042043556
-0.04685449 0.008307112 0.006573345 0.052917007 0.06832782 0.0638258 -0.060814485 -0.041417293
-0.016417012 -0.0064089 0.014416398 -0.059396762 0.036895946 0.07166285 0.04764649 -0.028474137
-0.0213251 -0.025199093 -0.030471794 0.07311092 0.03464869 -0.06286156 0.030451667 -0.06489662
0.0049287085 -0.0566152 -0.050583538 0.035169136 -0.035993043 -0.002575869 0.02960412 -0.03675717
0.011255499 0.0403095 0.034599252 0.056795616 -0.06620063 -0.02224735 -0.046746463 -0.0492463
0.01896287 0.013421755 0.011470677 0.013988921 -0.035525 -0.027984304 -0.0022179743 -0.057483718
-0.0016011315 0.04291786 0.048021227 0.053153608 0.0033459861 0.002732269 0.02611167 0.022935675
0.054632947 0.037595697 0.062208 -0.050897617 0.047429 0.04949945 0.061785936 0.04664284
0.031282827 0.0059277792 -0.05113371 -0.03625056 -0.035374753 -0.045911644 -0.014738031 -0.012587717
3.4414825e-05 0.03387751 -0.03548779 -0.0025045616 0.037554137 0.009436797 -0.01707988 -0.034537226
0.041496426 0.0018909813 -0.03414453 0.032442283 -0.05764599 0.086075395 0.0353295 -0.009148919
0.056192584 0.06689799 -0.028981283 0.031669743 0.014943211 -0.03532838 0.034917478 -0.047890678
0.07199053 0.039348986 0.0034415307 0.047084395 0.014419304 -0.033078 0.03785203 -0.022846017
0.048451673 0.05151532 0.068134665 0.066509545 0.039014243 0.01263019 -0.049420085 0.057812355
0.054156937 0.087532304 0.05177589 0.019661823 0.06817389 0.007705023 0.057368103 -0.020901266
0.049521532 -0.0622699 0.017714038 -0.020109186 0.009262438 -0.031218369 -0.038503036 -0.015335569
00000000: da4b b1bc 4038 7e3d 559c 423d ef2e a5bc
00000010: e04f e93c 60e6 933d ac1d 6b3d f28f 4dbc
00000020: 8c5c b03c dff0 36bd 4d10 5f3d 5262 563d
00000030: ac01 653d 721b a6bc f7f6 0cbc 77dd 5d3d
00000040: d8a3 e13b 89df e7bc d828 b1bc 105d e63c
00000050: b27e 33bc 1864 9dbc 3594 bc3c 1575 e33b
00000060: 7c7e 08bd 8b37 9cbb 3da2 c7bb 17ff 6cbd
00000070: 6580 11bd 7c3a 0dbd 4414 6dbd 0e8e 683d
00000080: e1cc 14bd 3b32 e53c d2bb f1bc 1031 a33b
00000090: 43d8 f2bc f512 85bd 99f8 1c3c 63d8 2abc
000000a0: 503e 52bd 37af 68bc 96f0 4c3b 43ce 0abd
000000b0: 9784 3abd afea 0e3c 597a bb3c 0c70 8b3d
000000c0: fc46 ef3c ea29 55bb 370b cb3b 12f6 67bd
000000d0: c405 01bd 5355 e5bc 766d 9b3d 4fa0 89bd
000000e0: 5f40 8abd 2289 2abd f035 69bd 5a9b 3abd
000000f0: 9550 09bd b4ae 1cbd aa6e 823d 2513 203d
00000100: a0d5 82bd e936 5f3d 9637 58bd 6358 893d
00000110: ec0b 323d c6fb 1a3d 73e3 cd3c a6b6 d13c
00000120: f017 8a3d 5588 923d 524a 443b f05c 74bd
00000130: b9ef 86bd f551 37bc c885 223c de8f bf3c
00000140: c135 023c d23c da3b c6fb 8f3c a535 cb3c
00000150: c93e 15bd 4545 6939 5711 b9bb 06a9 7f3d
00000160: b8cd bd3c f8b5 8cbd 10d4 143d f274 53bd
00000170: 1a17 f0bc b625 bcbc acd1 953c 421f 03bb
00000180: b5d7 59bd 8ead 48bd b957 483b 306a 1bbd
00000190: f72b fa3c 242b 1dbd 82c7 593d 578f 21bc
000001a0: 110a 3a3d a8ac 80bd 898d 71bd 68ce 3ebc
000001b0: 8259 813d f0e0 893d fe4d 5d3d f9b2 053d
000001c0: 5b36 813d 4e1f 4cbd 05b8 e4bb 6561 52bd
000001d0: 228c 8abd d856 9fbc 08b9 ccbb 771b bbbc
000001e0: e7e2 153b 86b1 313d c153 f1bc 4844 f5bc
000001f0: 66c4 5e3d bd7c 293d 74c8 833a dd35 2c3d
00000200: 7eea 3fbd 8e1a 083c 3765 d73b 81bf 583d
00000210: 75ef 8b3d 1ab7 823d 9c18 79bd 2ea5 29bd
00000220: f87c 86bc c001 d2bb c132 6c3c 054a 73bd
00000230: 3420 173d f9c3 923d f728 433d 9842 e9bc
00000240: fab1 aebc 546e cebc fc9f f9bc 2ebb 953d
00000250: c9eb 0d3d 90bd 80bd c675 f93c 85e8 84bd
00000260: 0181 a13b 57e5 67bd af30 4fbd 830d 103d
00000270: 716d 13bd e9cf 28bb 5784 f23c b08e 16bd
00000280: fc68 383c 931b 253d f2b7 0d3d 85a2 683d
00000290: 3294 87bd 1340 b6bc 3879 3fbd 7db6 49bd
000002a0: 0558 9b3c ece6 5b3c 82ef 3b3c ca31 653c
000002b0: aa82 11bd 573f e5bc 6f5b 11bb 0c74 6bbd
000002c0: 0fdd d1ba a3ca 2f3d e8b1 443d 99b7 593d
000002d0: 5548 5b3b de0f 333b 24e8 d53c 99e3 bb3c
000002e0: ccc6 5f3d f2fd 193d d1cd 7e3d 057a 50bd
000002f0: e944 423d efbf 4a3d 4013 7d3d 900c 3f3d
00000300: 6c22 003d d13d c23b 9571 51bd 787b 14bd
00000310: 1ee5 10bd d90d 3cbd c877 71bc b63c 4ebc
00000320: a358 1038 25c3 0a3d a55b 11bd 9223 24bb
00000330: 5ed2 193d cc9c 1a3c 1beb 8bbc e876 0dbd
00000340: 28f8 293d ceda f73a 22db 0bbd 33e2 043d
00000350: 341e 6cbd 4c48 b03d aab5 103d 59e5 15bc
00000360: 322a 663d d001 893d 286a edbc 22b8 013d
00000370: 5fd4 743c 7eb4 10bd a105 0f3d 0429 44bd
00000380: c56f 933d 672c 213d 4e8b 613b 91db 403d
00000390: f23e 6c3c cc7c 07bd bb0a 1b3d 9227 bbbc
000003a0: 4375 463d ba01 533d 308a 8b3d 2836 883d
000003b0: 66cd 1f3d dbee 4e3c b76c 4abd a6cc 6c3d
000003c0: aad3 5d3d 2344 b33d f512 543d d511 a13c
000003d0: c19e 8b3d 6b7a fc3b d1fa 6a3d 2239 abbc
000003e0: 17d7 4a3d b90e 7fbd 081d 913c 05bc a4bc
000003f0: 7bc1 173c aabd ffbc 5cb5 1dbd 0a42 7bbc

attention.0.bias f4 [100]
0.029286655 0.026118726 0.076300174 -0.041401744 -0.029788068 0.007462347 -0.0068683927 -0.0055445516
-0.0022555783 -0.046848588 0.032445792 0.0029919283 -0.06390834 -0.0021110738 0.02313887 0.06698231
-0.039990246 0.0012640447 -0.041591443 -0.02623565 0.04529379 0.0656846 -0.010819545 0.029358687
0.021070039 0.038228218 -0.023752226 0.05618162 0.010544245 0.035401274 0.013851012 -0.013403774
0.052394968 -0.013549393 0.053050824 0.02318044 0.022388853 0.058982924 0.018858628 0.069034114
0.07039302 0.057015426 0.008588208 0.05767617 -0.06159436 0.024829531 -0.051552318 0.0037067772
-0.06844046 0.042624976 -0.055470414 0.04544808 0.011051276 0.009499199 0.015440505 0.02998252
0.023554035 0.0050537926 0.060763266 0.05148803 0.0001600958 -0.063949116 0.026803816 0.040681202
-0.0043355995 0.02466114 0.0066377125 -0.0031817867 0.03065682 -0.022336308 -0.03500845 -0.0027842533
0.00084801443 0.026310693 -0.022430541 -0.03101713 -0.058045343 0.04579581 -0.010300891 -0.009976048
0.040789984 -0.03061257 0.052975427 0.037979107 0.073186494 0.046803262 0.048844267 0.04982351
0.012138934 -0.0049058776 -0.033290476 0.060617674 -0.0026969993 -0.0016497698 -0.031896003 0.0014119762
-0.020302061 0.013690349 -0.013695576 0.019089498
00000000: 91ea ef3c f0f6 d53c 4443 9c3d e094 29bd
00000010: 1b06 f4bc b486 f43b 4110 e1bb 12af b5bb
00000020: 53d2 13bb 4ee4 3fbd e1e5 043d 3a14 443b
00000030: 60e2 82bd f159 0abb ba8d bd3c 052e 893d
00000040: d0cc 23bd 4dae a53a ca5b 2abd 25ec d6bc
00000050: fb85 393d a685 863d 7644 31bc a181 f03c
00000060: 139b ac3c 3195 1c3d 0794 c2bc b31e 663d
00000070: c5c1 2c3c ed00 113d 5bef 623c 819b 5bbc
00000080: 1b9c 563d 46fe 5dbc d24b 593d e8e4 bd3c
00000090: d468 b73c 1498 713d 697d 9a3c c261 8d3d
000000a0: 372a 903d 0289 693d 8eb5 0c3c d93d 6c3d
000000b0: 5e4a 7cbd 4d67 cb3c 8628 53bd 67ed 723b
000000c0: 832a 8cbd 8797 2e3d f234 63bd c427 3a3d
000000d0: 6910 353c 87a2 1b3c 2cfa 7c3c e79d f53c
000000e0: 64f4 c03c 499a a53b e7e2 783d 1de5 523d
000000f0: 64df 2739 c1f7 82bd ad93 db3c 55a1 263d
00000100: a511 8ebb 2906 ca3c 2b81 d93b 8685 50bb
00000110: 0324 fb3c a2fa b6bc 0565 0fbd 0578 36bb
00000120: 494d 5e3a 8689 d73c 41c0 b7bc a317 febc
00000130: f4c0 6dbd 6394 3b3d 11c5 28bc 9472 23bc
00000140: 6613 273d 36c7 fabc c3fc 583d fb8f 1b3d
00000150: cde2 953d c7b4 3f3d ed10 483d bd13 4c3d
00000160: 61e2 463c 7cc1 a0bb 985b 08bd 3d4a 783d
00000170: 24c0 30bb 173d d8ba 62a5 02bd 0f12 b93a
00000180: 8250 a6bc 7c4d 603c 6963 60bc 9461 9c3c

attention.2.weight f4 [100, 100]
-0.0755018 -0.04402127 0.092918865 0.021697449 0.046905536 -0.08652182 -0.0867264 -0.08085738
0.10479879 -0.04911406 0.019116854 -0.098259814 -0.013136668 -0.041383777 0.022714453 -0.06552819
-0.063463725 0.06888696 0.048977982 -0.0820891 0.08077749 -0.028462533 -0.025997853 -0.028832769
0.062230334 0.06086214 -0.06675713 0.082266964 -0.074986726 0.021232152 0.016943984 0.09840365
0.07857505 0.042729195 0.102345064 -0.095137686 -0.047723267 -0.058864046 -0.019543953 -0.096159555
0.061632924 -0.039402038 -0.06083268 0.048519228 0.05342786 -0.07643069 0.0593015 0.03189592
-0.050774526 -0.09816939 0.08489901 0.03877257 0.052306328 0.059936255 0.013120818 -0.08213922
0.0154972235 -0.052592587 0.07125608 0.11026774 -0.06361725 0.068533964 0.078563094 0.020703342
0.06110094 0.044712994 -0.093667135 0.0036040593 0.09824742 0.0762555 -0.088598475 0.0048390976
0.08991335 -0.09045601 0.06380647 0.10130909 -0.043322455 -0.011608353 -0.034223814 -0.092919014
0.018145988 -0.057775103 0.052918352 0.035015043 0.057724785 0.07376278 -0.030565603 -0.03568703
-0.010927567 0.050315663 0.026490418 0.043090533 -0.056428805 -0.08821493 0.030693255 -0.059056677
-0.017144518 -0.04947498 0.082154475 0.055027563 0.004366315 -0.07664588 0.015827652 0.0060483436
0.0014843174 -0.07940066 0.074980654 0.03277408 0.07698906 0.0041927435 -0.03937055 -0.099573
-0.056745727 -0.09621561 -0.0906703 -0.05503906 0.041710053 -0.08837464 -0.027945623 0.08746778
-0.047772076 0.030655442 -0.018662203 0.07264923 -0.0545744 0.09035003 0.012223364 0.0477863
0.08968723 0.0013695986 -0.093965545 -0.042974457 0.01700684 0.056565642 0.088355854 -0.06835378
-0.0036186844 -0.09204096 0.06621797 -0.045198802 0.07064951 0.02842093 0.0738741 -0.063730925
0.09614213 0.0014603625 0.04657663 -0.0065023648 0.0843365 -0.09585339 -0.036816373 -0.011203319
0.06728879 -0.06829286 0.0968277 -0.058937225 0.038577802 0.030865353 0.0009134074 -0.04636595
-0.009390201 0.03233002 -0.010236487 -0.09703213 -0.08549315 0.06011384 -0.034699045 -0.06639886
0.01390257 -0.04827947 -0.055218797 -0.0043157623 -0.04218294 -0.075242415 0.032478753 -0.04783113
0.080073275 0.08236399 0.07342413 -0.0032003974 -0.01893771 0.037117124 -0.008073797 0.031678945
0.053488553 -0.06678169 0.04824421 0.07241514 -0.08968424 -0.022153169 -0.05355732 0.05902497
-0.033166375 -0.08207408 -0.07650621 0.06562025 0.027466543 -0.048647415 -0.001632271 0.005605961
-0.09750955 0.04334097 -0.024213487 -0.008228995 0.06451365 0.03390907 -0.014641725 -0.009035648
0.06081598 0.08657767 -0.09581258 0.07531242 -0.0015288303 0.08978928 0.02764431 -0.041296363
-0.007759119 0.05900157 0.04835335 0.094876 0.063222654 -0.054521214 -0.05890956 0.07857515
0.054961275 -0.068422005 -0.08792651 0.087568246 -0.05591614 0.022301033 0.010883959 -0.039782487
-0.055579014 0.09438897 -0.0518857 -0.07773465 -0.0012708041 -0.084737636 -0.08820334 0.06335749
0.029106153 -0.05731953 -0.06788645 -0.0866605 0.0009104296 -0.0943365 -0.029990004 0.057932064
0.07016362 -0.026716297 -0.015091033 -0.03202516 -0.06189163 -0.08133669 0.0066085816 -0.08395288
00000000: b0a0 9abd a64f 34bd 3f4c be3d d9be b13c
00000010: 0520 403d 5a32 b1bd 9c9d b1bd 8e98 a5bd
00000020: bfa0 d63d d32b 49bd f39a 9c3c 713c c9bd
00000030: 2e3b 57bc 0982 29bd a913 ba3c a533 86bd
00000040: 45f9 81bd 9b14 8d3d 239d 483d 541e a8bd
00000050: ab6e a53d 422a e9bc 73f9 d4bc b332 ecbc
00000060: 3ce5 7e3d 944a 793d f6b7 88bd 957b a83d
00000070: a492 99bd 0def ad3c 1cce 8a3c da87 c93d
00000080: f5eb a03d cf04 2f3d 4a9a d13d 8cd7 c2bd
00000090: 7979 43bd 6d1b 71bd a41a a0bc 4def c4bd
000000a0: ce72 7c3d 0864 21bd b02b 79bd 19bc 463d
000000b0: 2cd7 5a3d b287 9cbd 21e6 723d 4ca5 023d
000000c0: f3f8 4fbd 080d c9bd 88df ad3d fdcf 1e3d
000000d0: 293f 563d b87f 753d b3f8 563c 9b38 a8bd
000000e0: 11e8 7d3c 536b 57bd b5ee 913d 0ed4 e13d
000000f0: c349 82bd 895b 8c3d b0e5 a03d 0e9a a93c
00000100: fb44 7a3d f924 373d 8ed4 bfbd 1532 6c3b
00000110: f135 c93d d82b 9c3d 1e73 b5bd 4b91 9e3b
00000120: 7e24 b83d 0041 b9bd f7ac 823d 247b cf3d
00000130: e372 31bd f630 3ebc 452e 0cbd 534c bebd
00000140: e5a6 943c 96a5 6cbd eac0 583d ef6b 0f3d
00000150: d370 6c3d f110 973d b764 fabc 902c 12bd
00000160: 8a09 33bc cc17 4e3d 6f02 d93c b37f 303d
00000170: e421 67bd 07aa b4bd 6c70 fb3c 6ae5 71bd
00000180: a972 8cbc 47a6 4abd 9b40 a83d 9564 613d
00000190: 4e13 8f3b 84f8 9cbd fea8 813c 2f31 c63b
000001a0: 6d8d c23a d09c a2bd 758f 993d 1d3e 063d
000001b0: 71ac 9d3d 4863 893b 0443 21bd eeec cbbd
000001c0: 356e 68bd b10c c5bd 5ab1 b9bd a370 61bd
000001d0: 29d8 2a3d c3fd b4bd 38ee e4bc 4f22 b33d
000001e0: a7ac 43bd 1f21 fb3c 7ae1 98bc 1fc9 943d
000001f0: 6889 5fbd 7009 b93d 8144 483c 91bb 433d
00000200: f0ad b73d 1a84 b33a 0271 c0bd fc05 30bd
00000210: ee51 8b3c 60b1 673d eaf3 b43d 11fd 8bbd
00000220: 7327 6dbb f97f bcbd 499d 873d 6122 39bd
00000230: b1b0 903d 03d3 e83c 4e4b 973d 5c85 82bd
00000240: 2ae6 c43d a269 bf3a 23c7 3e3d ca11 d5bb
00000250: 9db8 ac3d c84e c4bd c4cc 16bd 208e 37bc
00000260: b5ce 893d 21dd 8bbd 9a4d c63d 2968 71bd
00000270: c203 1e3d 56d9 fc3c bc71 6f3a 39ea 3dbd
00000280: 5cd9 19bc 7c6c 043d f0b6 27bc c8b8 c6bd
00000290: 0817 afbd ee39 763d 9620 0ebd 20fc 87bd
000002a0: 9bc7 633c b2c0 45bd 1b2d 62bd 3d6b 8dbb
000002b0: 05c8 2cbd b218 9abd 7108 053d 93ea 43bd
000002c0: 75fd a33d 74ae a83d 645f 963d c2bd 51bb
000002d0: 4223 9bbc 2008 183d f647 04bc c8c1 013d
000002e0: d016 5b3d d7c4 88bd b99b 453d 644e 943d
000002f0: 5fac b7bd 907a b5bc ec5e 5bbd 2bc4 713d
00000300: 77d9 07bd 7516 a8bd 4aaf 9cbd e963 863d
00000310: 8401 e13c 8342 47bd edf1 d5ba 36b2 b73b
00000320: 16b3 c7bd 4d86 313d 5d5b c6bc e8d2 06bc
00000330: bc1f 843d 3de4 0a3d d9e3 6fbc 410a 14bc
00000340: 2d1a 793d a24f b13d 6339 c4bd 663d 9a3d
00000350: 0863 c8ba 71e3 b73d 5276 e23c 6026 29bd
00000360: 3540 febb a1ab 713d 2a0e 463d 594e c23d
00000370: e17a 813d a351 5fbd 274b 71bd 02ec a03d
00000380: 131f 613d d620 8cbd d012 b4bd fb56 b33d
00000390: 5308 65bd a8b0 b63c a252 323c f6f2 22bd
000003a0: d2a6 63bd 014f c13d 1a86 54bd 5833 9fbd
000003b0: 1c91 a6ba ed8a adbd f4a3 b4bd 92c1 813d
000003c0: 0770 ee3c e2c7 6abd 0d08 8bbd 0f7b b1bd
000003d0: e5a9 6e3a 7f33 c1bd 99ad f5bc 2c4a 6d3d
000003e0: f2b1 8f3d 23dc dabc 6140 77bc d02c 03bd
000003f0: 1482 7dbd da93 a6bd cd8c d83b 7def abbd
