crowd_nav/data/output_lstmrl_trained_SS_ADBB/il_model.pth (torch, 191490 bytes, 11 tensors)

mlp.0.weight f4 [150, 56]
00000000: ff98 ef3c 7077 ee3c b561 14bd a754 c03a
00000010: e237 8cbd 28fc 533d 2b21 023e 472c 48bd
00000020: e312 213b a096 fdbd e015 553d b4ff d7bd
00000030: fe6b 433d bb63 7b3d 956b 6fbd 3481 e13d
00000040: 79fe c0bd bfed b83c 9677 813d 374d 17be
00000050: abfe 0dbd 6eb0 c9bd 9a8b 11bc cada 963d
00000060: 3567 3cbc 73c0 f33d 00fb c8bd 7509 e8bd
00000070: 277f 0abe 9e3a a3bd 5e03 d83d eb88 b13d
00000080: 91af 31bd 5dfb b63d 5fd8 02be f7d3 b23d
00000090: dae7 3d3d a4ee 85bd d643 0e3e fa65 bcbd
000000a0: 0f64 4b3d 6909 423d 1c8b 21bd f95d bb3d
000000b0: 0338 033d 3395 3a3b f98f c33d c807 1cbe
000000c0: 99b8 d1bd cdbe c4bd 5a84 1a3e 4abf fbbd
000000d0: 56df ff3d f6e6 b7bd fe98 c23b f4bf 943b
000000e0: 5512 85bd dd67 bb3d a0ab 04be bbd0 913b
000000f0: 5508 1b3d 1f61 debd 41e7 61bd 7704 8ebd
00000100: 3955 7dbd d272 953d 61cf d13c 1624 69bd
00000110: e8a3 1fbd fd4f 263d dfc4 973c 4321 14bc
00000120: a8d7 00be 93c9 81bd 2a3a 25bc 35a7 fa3d
00000130: 054a 3d3c 843e 073d 27d7 f33d 6815 adbd
00000140: ad20 023e e218 de3d 61f2 f33d 0d38 373d
00000150: 045f 1cbc 8ac0 f43d dd95 27bc 141d 773d
00000160: aebb f9bd 8c09 6bbd e917 723d 4d38 ae3d
00000170: 43ab b23d c7ff 2ebc 45c1 203d 4882 2f3d
00000180: b704 e93d a3ad ffbd dfba 84bc cfc1 523d
00000190: 2f79 aabc f5f5 bb3d b6a8 5dbc 4dfb c3bd
000001a0: 8606 fa3d 0077 f8bd c60b 96bd 337b e33c
000001b0: d1b5 9d3d 263b 543a c488 15bd 0123 0f3d
000001c0: 4c2a 41bb 1137 ccbc 258f c43b 231f ecbc
000001d0: 68f7 07be a0f1 e2bc d9d2 8a3a 8e6e cabc
000001e0: 981e b13d f269 37bd 660e 8d3d f33b b9bd
000001f0: 1e92 203d 720f 1ebe 30e5 29bd be99 a6bd
00000200: 67b2 89bd 0059 073e 2ad7 b9b9 feed 863d
00000210: 9021 e3bc 3833 e3bd 08a6 d63c f3d3 c4bd
00000220: 4925 1c3c d278 443d ce98 bdbc 3867 1d3d
00000230: b641 17bc 4cdd a1bd 3d56 39bc 3886 013d
00000240: 028f 9fbd d849 09bd 9a8f 493d d234 d6bd
00000250: 0762 893d 9217 683d bec1 ca3d 4a05 43be
00000260: 01a2 953d e84f f7bd c7c8 aa3d b239 e63d
00000270: 5396 3ebd b324 6c3d 40b6 6fba 079b dbbd
00000280: a78d 2abd 4aed 00bd 695e 083e 9c9f 4ebd
00000290: 7e6b 29bd 0098 863c 4bca 833d 2b24 ca3c
000002a0: 1211 9bbd d3f6 e13d 4917 d33c 7918 fcbd
000002b0: feb6 ccbd 0598 c4bd 50a7 cf3d f7fa d8bd
000002c0: fa09 a4bb 098f 093e a2bb 84bd 4cc3 803d
000002d0: 8791 2cbd b900 1abb 5b12 32bd 0236 6dbd
000002e0: 1b2f 023d 7b3c d73c 22b6 fe3c 2400 07bc
000002f0: 2c8d ccbd 8440 f43d 621b aabd 9d71 cebd
00000300: 64c2 bb3d d221 c3bd c4a7 cdbd 1187 fd3c
00000310: 9868 c2bd a89a a13c eb22 ecbd 12c0 85bd
00000320: e548 8abd 2d93 3ebd 7cc9 173c 80eb cc3d
00000330: 539d c13c 50ae 7abd 8f5e 083e 913f efbc
00000340: 8d8f 8abc aed6 83bc e382 08be 025d 08be
00000350: 68e8 d43d f105 6b3c 22f8 12bd 196f c63d
00000360: 9035 05be f1b7 84bd 4ea8 d5bd 6a76 033b
00000370: c2e6 89bd 1e45 e23d c07a 1d3c 6dab fabc
00000380: 64c8 00be c7d4 e7bd 0df3 f3bd e928 cb3d
00000390: 589f babd 4377 863c 3b15 083e 1614 8dbd
000003a0: 8cb6 8fbd f24d d9bd f216 c6bd 06fd d3bd
000003b0: 1a6b 213d b9ef 15bc fd62 8d3d 1500 473d
000003c0: e49f 643a 31bd dcbd d643 ae3d c091 9a3d
000003d0: c1cd 5a3d 4544 063e c970 a0bc 4769 f7bd
000003e0: ea22 01be 8d52 9c3d c2ca 4b3c c795 71bd
000003f0: a1b7 d33d 9459 66bd 225a b53d bd29 92bb
0.029247759 0.029109687 -0.036225993 0.0014673666 -0.06846596 0.051754147 0.12707965 -0.04887035
0.0024577908 -0.12382245 0.052022815 -0.105468184 0.04771041 0.061374407 -0.058452208 0.11010972
-0.09423537 0.022574304 0.06321637 -0.14775549 -0.0346667 -0.098481044 -0.008883381 0.073659495
-0.011499216 0.11901941 -0.098134995 -0.11329929 -0.13525067 -0.07970165 0.10547517 0.08668693
-0.043380324 0.089346625 -0.12777852 0.08731835 0.04636369 -0.06539658 0.13893065 -0.09199138
0.04965597 0.047372255 -0.039439306 0.09148783 0.03203584 0.0028470277 0.09548945 -0.15237343
-0.10240287 -0.09606705 0.1508955 -0.12292345 0.1249377 -0.08979599 0.0059386482 0.004539484
-0.06497637 0.0915067 -0.12956095 0.0044499314 0.037849743 -0.10858368 -0.05515218 -0.06934445
-0.061848853 0.07297291 0.025611581 -0.05691918 -0.038974673 0.040603627 0.018526493 -0.009041133
-0.12582266 -0.06337275 -0.010084668 0.122389235 0.011553292 0.033018604 0.119062714 -0.084513485
0.12707777 0.1084459 0.119114645 0.04473119 -0.009544138 0.119507864 -0.010228601 0.060330465
-0.12194 -0.05738215 0.059104834 0.08506832 0.08724072 -0.010681099 0.039246816 0.042848855
0.113778524 -0.124842905 -0.016202388 0.05145436 -0.020809738 0.09177772 -0.013528993 -0.09569416
0.122082755 -0.121320724 -0.07326464 0.027768707 0.07700694 0.0008095972 -0.036507383 0.03494549
-0.0029474674 -0.024928601 0.0059985095 -0.02882344 -0.13277972 -0.027703106 0.0010591402 -0.02471092
0.086484134 -0.04477877 0.06887512 -0.090446375 0.03920185 -0.1543558 -0.041478336 -0.08134793
-0.06723481 0.13217545 -0.0003544626 0.06588362 -0.027725965 -0.110937536 0.026202217 -0.096107386
0.009530374 0.047966786 -0.023144152 0.038428515 -0.009231975 -0.07903537 -0.011312065 0.03162214
-0.077909485 -0.03351769 0.049209215 -0.104592934 0.0670815 0.056663103 0.09900235 -0.19044986
0.073062904 -0.12075788 0.083390765 0.11241473 -0.04653008 0.057652187 -0.0009144284 -0.107229285
-0.041638996 -0.031476296 0.13317265 -0.050445184 -0.04136228 0.016429901 0.06435069 0.02467545
-0.07571615 0.11033406 0.02576794 -0.12309355 -0.099958405 -0.09599308 0.10139334 -0.10594743
-0.005006072 0.1343347 -0.064811006 0.0628725 -0.042130973 -0.0023498966 -0.043474536 -0.057912834
0.031783205 0.026273957 0.031092707 -0.00823978 -0.09987864 0.11926368 -0.08306004 -0.10080264
0.091679364 -0.09527935 -0.100417644 0.030948194 -0.09492606 0.019727066 -0.115300976 -0.06530775
-0.06752185 -0.046527077 0.009264346 0.100058556 0.023634588 -0.061201394 0.13317321 -0.029205116
-0.016914153 -0.016093578 -0.1333118 -0.1331673 0.103958905 0.014344678 -0.03588117 0.09689159
-0.13008714 -0.064803965 -0.10432492 0.0020059594 -0.06733467 0.11048339 0.009611785 -0.03059932
-0.12576443 -0.11319881 -0.11911593 0.09919912 -0.09112424 0.01641429 0.13289349 -0.06888597
-0.0701724 -0.1061057 -0.09672345 -0.10350995 0.03940878 -0.009151393 0.06903646 0.048584063
0.00087213353 -0.10778273 0.085090324 0.07547331 0.05341888 0.1311198 -0.01958503 -0.12080627
-0.12610975 0.07632933 0.012438478 -0.05898073 0.10337759 -0.056237772 0.08855082 -0.004460542

mlp.0.bias f4 [150]
00000000: 2941 93bd 307f c3bc 1e7e 74bc 5099 2fbd
00000010: 8a98 87bd e851 993c ba91 46bc 5262 cdbd
00000020: b56e 723d f52c 1abd 9a15 b53d 903e 693d
00000030: 13c4 c4bd 4630 a73c 8754 3cbc fae6 ebbd
00000040: 3d8e 40bd c79b df3c 4e73 aa3d 92d1 7b3d
00000050: 2fe8 b0bd 50e2 ae3d 812d 40be 9f64 b23d
00000060: e023 febd 7474 51bd 658d 613c 76b5 53bd
00000070: 0b1f 01be fc1f 5c3c 1c66 083c e1d9 203d
00000080: 9ca7 67bd 47fc b7bd 7c6a 963d 9a89 583d
00000090: 0713 debd 955e 0c3d 16a4 3d3c bb26 fc3d
000000a0: 7e41 1ebe 2c07 e8bd 31a1 003d 41e7 b7bd
000000b0: 0207 9c3d fbf5 003d 99d1 5d3d 65de 79bc
000000c0: d9bd c93d 7808 c1bd 22f2 993d 3249 843d
000000d0: 3105 25bb c93b 82bd 4fda 01be 5f26 c93c
000000e0: cff4 063d e95d f13d b2ca 2dbd d1c8 bc3d
000000f0: 0eb1 513d c19e dfbd 41b6 f9bc 7032 843d
00000100: a9ff 3ebe bce9 b0bc 8c41 9fbd 892f adbc
00000110: 6e12 ce3d bd9f 8d3c f2d4 283c 35a5 20bd
00000120: f73c a0bd 61fa f73d bcb5 babc 2f16 953b
00000130: 622b 02be 7243 0e3d 0678 873d ddce b83d
00000140: aeb6 95bd 64fc 05be b219 743d a069 b2bd
00000150: ae27 503d 4f1c f33d 24c6 103e d304 8d3b
00000160: 7276 203e 4151 dabd ff30 553b 5351 bd3d
00000170: b5bf 163e 14c3 e23d 555d 4a3d a034 f1bd
00000180: 3ebf e4bd 6b19 0ebd fc55 e5bc 8941 02be
00000190: 4fe4 7d3d 8323 773d 6715 c5bd 2f92 6f3b
000001a0: 0bf1 fbbd 37b9 083c a135 96bd 045f d33c
000001b0: 0871 ea3d aab4 e53d 8cdd b4bd e12d 8fbd
000001c0: 9354 29bd 2326 b53d e631 893c a96c ad3d
000001d0: 91b8 1d3e ccfb 0e3d 8d1c 213c 51f0 78bd
000001e0: 2e4c daba 395e 60bd 324e 8f3b 0d32 ca3d
000001f0: a1ef 0a3e e5ef c8bc 7267 9d3d 1ea8 39bc
00000200: f805 1ebd f356 e83c f206 bb3d 4154 5e3d
00000210: 7a04 f5bd 468e 6c3c 9615 063e e8e8 ca3c
00000220: 90b5 973c 95f2 cbbd 804e 9abd d16c c0bc
00000230: 8382 fc3d 1b8c 79bd 65ef 8c3d 7497 72bc
00000240: 25a6 01be 69f0 183e 5b5d 973d 30de b6bc
00000250: debd f73d 2746 0a3e
-0.07190163 -0.023864359 -0.014922647 -0.04287082 -0.066208914 0.018715814 -0.012119705 -0.10028519
0.05918761 -0.03764053 0.08842011 0.05694443 -0.09607711 0.02040876 -0.011494762 -0.11518665
-0.04701065 0.02729596 0.08322774 0.06147916 -0.086380355 0.085392594 -0.18767358 0.08710598
-0.12409186 -0.05113645 0.013766621 -0.051686727 -0.12609498 0.01343536 0.008325126 0.039270286
-0.05655633 -0.08983665 0.07344529 0.052865602 -0.10843473 0.034269888 0.011574766 0.12312075
-0.15454671 -0.11329493 0.031403724 -0.08979655 0.07618524 0.031484585 0.054154966 -0.015250777
0.09850664 -0.094254434 0.07516886 0.064592734 -0.0025180096 -0.06359059 -0.12680934 0.02455443
0.03294831 0.1178549 -0.042429633 0.0921799 0.051194243 -0.10918952 -0.030482413 0.06454933
-0.18652214 -0.021595828 -0.07776174 -0.02114083 0.10062109 0.017288083 0.010304676 -0.039220054
-0.07824128 0.12108303 -0.022791736 0.0045497636 -0.12711862 0.03473229 0.066146895 0.09023831
-0.07310234 -0.1308456 0.059594817 -0.087115526 0.05081909 0.11870634 0.14138085 0.0043035536
0.15670183 -0.10660029 0.0032530425 0.09244027 0.14721568 0.110723644 0.049405415 -0.117776155
-0.11169289 -0.03469221 -0.027995102 -0.12720312 0.06198531 0.0603366 -0.09623223 0.0036555638
-0.12301835 0.00834494 -0.07334448 0.025802143 0.1144734 0.112160996 -0.08831319 -0.069911726
-0.041340422 0.088451646 0.016747426 0.08467991 0.15402438 0.0349081 0.009833467 -0.06077606
-0.0016654783 -0.054777358 0.0043733353 0.09872828 0.13567974 -0.024528453 0.07685746 -0.011331586
-0.03857991 0.028361773 0.09132184 0.05427957 -0.119637445 0.0144382175 0.13094172 0.024769261
0.018519193 -0.09958378 -0.07534504 -0.023489388 0.12329581 -0.06092463 0.068815984 -0.014806617
-0.12661035 0.14935459 0.07390853 -0.022322744 0.12096761 0.13503323

mlp.2.weight f4 [100, 150]
00000000: 6966 d4bb f83d 533d 69e6 8ebd 4f00 40bd
00000010: 41ea 70bd 4a2f 1fbb 158f 24bd 5d3d 393d
00000020: 1d99 e63c 6e90 673c d4a3 c03b e9f9 f0bb
00000030: 8536 7bbd c333 76bd c1f3 8f3d eb45 07bd
00000040: 790f d4bb 8b1b 293c 7788 a63d 2cfc 313b
00000050: 9097 d3bb 2c43 97bc 8b85 893d 1568 e6bb
00000060: ec71 ccbc 031b 753c 5b3d 57bd 73c3 97bd
00000070: aa5d 9d3d 29cc 95bd f0cb 51bd 4374 40bd
00000080: b63a 783d 9ee3 46bc 2f90 3abd 6ed9 30bb
00000090: c80b 73bc d6c1 073d a253 273c eb0a 9dbd
000000a0: 1940 14bd 681b 9d3c f0a2 2a3d 8b3d 4c3d
000000b0: 69b3 9fbd b3a5 9abc 1982 0ebd 3bfd aebc
000000c0: 367b e93b bb4f 743d 6e79 12bd 7bdc 463d
000000d0: e926 38bd cbb9 a3bc 38ed 57bd 35f7 2cbd
000000e0: 47b4 a5bd ae09 bbb9 c3cb cdbc a355 7bbd
000000f0: 2d91 9cbd 994c 6f3d fd2f 84bd 59bb 1cbb
00000100: 672e f53c 40d0 babc 582c 833c 3227 5e3d
00000110: f376 88bd 6f92 6bbd c8d5 8a3d f6fa 683d
00000120: 68ff 0cbd b83d 1538 a144 913d 3aef 37bd
00000130: 7778 203d 80d7 933d 7dd6 48bd 4e0e dc3c
00000140: ba6c 4ebd 387a 56bd 79ab 62bd dc9c 0dbd
00000150: cac0 02bd 881f fdba 894b 87bd b8ef 36bd
00000160: 2701 8b3d 79e8 723d efd1 d5b8 465b 2e3d
00000170: e35d 323c 8ce8 23bd e02a 6ebc e8cd 80bd
00000180: fbc2 3abc b9b6 433d ff17 163d 2bc2 38bd
00000190: 2e99 31bc 1be0 69bd eb3b a73c c291 013d
000001a0: 52b3 77bd 3ae9 8e3d 6c03 df3c 912a 453c
000001b0: f7ca 83bd 637e 56bd abbc 453d 19f3 893d
000001c0: fdab 8fbc 6fc4 1abd 3cdd b2bc d677 083d
000001d0: 2ccf 28bd b83a 67bd 6188 b2bb 2895 8fbd
000001e0: 5de3 d8bc 6649 a63d d557 3a3c a8ad 893d
000001f0: 9d29 a1bd 6bdd b8bc 1d4e 80ba c437 31bd
00000200: 302c 69bd c39f acba 81ea 86bd a292 8abd
00000210: bbea 693d 81a4 90bd d2b2 9e3d 2510 a43d
00000220: 7de1 6cbd 1b20 8d3d cb6c 3b3c 89be b4bc
00000230: 231b 843b e5a7 91bd 42ad 87bd 2b62 503c
00000240: 8742 3b3d ff94 81bd ccfe d8bc 8627 f53a
00000250: c2bd 34bd f7ea 003d 7cab 97bb 180c 89bd
00000260: fee8 80bd e9a7 8f3d 1c9b 06bd cc8a da3c
00000270: 00b6 76bd 54e6 9c3d 2d88 89bd 5f9c e9bc
00000280: a107 ac3c 8cde 62bd 1099 553d 724d 13bd
00000290: c41f 9e3d 7ef9 bfbd c2d4 b33c b490 063c
000002a0: b5cf ae3c 01e2 263d df9c 20bc 9fdb 11bd
000002b0: 5362 00be ae1a a2bc f9ab 1fbd 2ba2 af3c
000002c0: 7cff 14bd a31f e6bd 72c7 0abd 503d c8bd
000002d0: 64b3 14bd 59c8 0abd e803 033d 88c1 a03c
000002e0: 4c99 973b 0b9d 4fbd 4d7e f13c b90c 2d3d
000002f0: 95e3 ad3b 9dbf 49bd 765b e3bd 7277 c73d
00000300: 11d3 87bd b5bf c53d 9a59 a13b b319 b93c
00000310: eb2b 7a39 a4e5 52bb 538c a83c b0f4 03bc
00000320: a69c 963d d26a 923d 7e69 79bd 5734 343d
00000330: a142 b8bc 91bc a63d 364f 4a3d 5edc 53bc
00000340: 16fd c4bd 4af8 6a3d 8e1c 903d f996 233d
00000350: 44d8 39bd 93c0 863d 425b 1cbd 42c7 0fbd
00000360: 9e91 06bc da1a 0f3d 1652 15bd d7ff d23c
00000370: 6c09 253d c94a 213d 49e6 a13d afbb d43d
00000380: b9c2 6abc 37a0 babd aa82 613d b3ee 42bd
00000390: 674b a93c db79 e3bc c434 9bbd 76bd 1fbc
000003a0: 7111 9dbd 0bd6 cfbc 5bb1 203c cbfd a03a
000003b0: cb13 debc 8f7b 593d d9cc 863d ffe7 ea3b
000003c0: 6f5c a0bd 56df ac3d 3d71 afbc f33e 673b
000003d0: 25be 733d d563 333d 544e 34bc aa5e 6a3d
000003e0: fa83 d6bd d8b8 bdbc 5e20 92bd 682e d13d
000003f0: 5931 88bd df22 713c 4119 753d 0961 0c3d
-0.006481935 0.05157277 -0.06977541 -0.046875294 -0.058817152 -0.002428966 -0.040175516 0.045224536
0.028149182 0.014133556 0.005878905 -0.0073540104 -0.06133129 -0.060107958 0.07028914 -0.033025663
-0.006471571 0.010321508 0.08131497 0.0027158363 -0.0064572766 -0.018464647 0.067149244 -0.0070314505
-0.024956666 0.014960053 -0.052548748 -0.07410326 0.076838806 -0.07314331 -0.05121988 -0.046985876
0.060602866 -0.012139229 -0.04554766 -0.0026985067 -0.014834352 0.03314384 0.010212811 -0.07668098
-0.03619394 0.019178107 0.041659296 0.04986338 -0.07797892 -0.01887784 -0.03479204 -0.021360984
0.0071252836 0.05964635 -0.035760336 0.04855011 -0.044958983 -0.019986054 -0.052716464 -0.042227942
-0.08091026 -0.0003567463 -0.025121575 -0.061360966 -0.076448776 0.05842266 -0.064544655 -0.002391538
0.029929353 -0.02280438 0.016012356 0.0542366 -0.06663313 -0.057512697 0.06779057 0.05687996
-0.034423262 3.558185e-05 0.07093168 -0.04490588 0.039177384 0.07218838 -0.049032677 0.02686229
-0.05039666 -0.05236265 -0.05533931 -0.03457342 -0.03192214 -0.0019311765 -0.06606204 -0.044662207
0.06787329 0.059303734 -0.00010195735 0.042567514 0.010886642 -0.040016696 -0.014536589 -0.062892735
-0.011399026 0.04778168 0.03664398 -0.045107048 -0.010839744 -0.05709849 0.020414313 0.031633146
-0.060473748 0.06978078 0.027223311 0.012034074 -0.06435197 -0.052366626 0.04827563 0.0673582
-0.017538065 -0.03778499 -0.021834008 0.03331741 -0.0412132 -0.056452483 -0.0054483865 -0.07010871
-0.026475603 0.081194684 0.01137348 0.067225754 -0.07869265 -0.022566518 -0.0009788905 -0.043266073
-0.056926906 -0.0013170171 -0.06587697 -0.06766249 0.057108622 -0.07062627 0.07748951 0.08010892
-0.05783223 0.06890889 0.0114395125 -0.02206351 0.0040315553 -0.071121015 -0.06624843 0.012718718
0.045717742 -0.06327247 -0.026488684 0.0018703796 -0.04412628 0.03147408 -0.004628597 -0.0669176
-0.0629444 0.07014448 -0.032862768 0.026677512 -0.060232162 0.07661119 -0.067154266 -0.028516946
0.020999731 -0.05538802 0.052147925 -0.03596253 0.077209026 -0.09373759 0.021952037 0.008213211
0.021339277 0.040742878 -0.009803026 -0.035609838 -0.12537508 -0.019788112 -0.038982365 0.021439632
-0.03637646 -0.11236503 -0.033881612 -0.097773194 -0.036303893 -0.033882473 0.031986147 0.019623533
0.0046264287 -0.050686877 0.02947917 0.04224846 0.005306671 -0.049255002 -0.11101429 0.09739579
-0.066320546 0.09655706 0.0049240114 0.022595262 0.00023858219 -0.0032180334 0.020574724 -0.0080539435
0.07354097 0.071492806 -0.06089162 0.043995228 -0.022492709 0.08141435 0.049391948 -0.012930958
-0.09618585 0.057365693 0.070366964 0.0399389 -0.045372263 0.06579699 -0.038172968 -0.035102136
-0.008213429 0.034937717 -0.036455236 0.02575676 0.04029219 0.03937796 0.079052515 0.1038736
-0.014328652 -0.0911259 0.05505625 -0.047590923 0.020665837 -0.027768066 -0.075784236 -0.009749761
-0.07669342 -0.025370618 0.00980791 0.0012282667 -0.027109047 0.05309635 0.0658204 0.0071687694
-0.0783013 0.084410354 -0.0214163 0.0035285323 0.059507508 0.04379638 -0.011005003 0.057219185
-0.10474391 -0.02315943 -0.0713508 0.102139294 -0.06650037 0.014717787 0.059838537 0.034272227

mlp.2.bias f4 [100]
00000000: 5b68 b73c e922 003e f2ad 7ebd 3201 ab3d
00000010: e0fb 293d 2c32 ae3c 05f2 033d 0d26 39bd
00000020: 868a b53b 5800 c33c a7e5 003d dead 12bd
00000030: af28 a4bd 9815 81bc 2507 8cbd 8bf3 de3d
00000040: 9ed5 86bc f086 bbbd 51c5 3b3c a116 403d
00000050: 63a3 6e3d 9f7b 82bc b77f 4c3d 812c 23bc
00000060: 5cce 7f3d 97db 223b 1819 663d 64bb 443d
00000070: 41b1 3cbd 22d7 7dbb 433c 183d 52a6 8dbc
00000080: d297 aabd fd63 4e3d 8190 d93c f3f8 2c3d
00000090: c8e3 d93c f35f 5bbc 800d 683d 4b64 133d
000000a0: e064 5bbc 5ec7 223d f2d7 f43c 12d0 4ebd
000000b0: 083f 293c 0478 79bd f960 563a 26e1 493d
000000c0: 41c8 5c3d 8fc5 273d c3ee 5ebd 1409 413d
000000d0: 0242 983c 1940 c6bb 5e0e 153c c8b8 053d
000000e0: ca3f a0bd 9a30 ea3d 3222 40bd bf8f 8ebd
000000f0: 033d 9dbd 9ea9 37bd d3d2 b93c cea5 cb3b
00000100: 0370 81bd 8f1f dfbc c7a2 97bd 1865 1fbc
00000110: 0db7 9e3d cee4 0fbc 4df7 e5bc 8d83 c2bc
00000120: 97be afbc 54c5 06ba 926e b7bb 7391 aabd
00000130: 50cd 11bd 4fb0 80bd 56c6 953d 4355 663c
00000140: 81be 3ebd 49c5 56bc 3c68 04bc decc 2fbd
00000150: 80db e33b a41f 823d 9ee3 a53c b7e6 633d
00000160: a017 eb3c 59ef efbc 1afc 24bc 11ad 1b3c
00000170: a52b 24bd b930 99bd 6619 8d3d e697 e2bc
00000180: e43e 29bb 5b96 4c3c c203 79bc 9c09 5ebd
0.022388628 0.12513317 -0.062177606 0.08349837 0.041499972 0.021264158 0.03221323 -0.045202304
0.005540195 0.023803875 0.031469014 -0.035810344 -0.08015572 -0.015757367 -0.068373 0.10886296
-0.016459282 -0.09156597 0.011460618 0.04689658 0.058261286 -0.015928088 0.049926486 -0.009959341
0.06245266 0.0024850124 0.056176275 0.048030272 -0.04606748 -0.0038732965 0.037166845 -0.017291222
-0.08329739 0.050388325 0.026558163 0.042229604 0.026597872 -0.013389575 0.0566535 0.03598432
-0.01339075 0.039740913 0.029888127 -0.0504914 0.010329969 -0.06090547 0.0008177902 0.049286984
0.053901915 0.04095989 -0.05442692 0.0471278 0.018586162 -0.0060501215 0.009097664 0.032646924
-0.07824667 0.11435051 -0.04690761 -0.06961011 -0.07677653 -0.044839494 0.022683537 0.006214834
-0.06320193 -0.027236728 -0.07404094 -0.0097286925 0.07749758 -0.008782579 -0.028072024 -0.023744369
-0.021453185 -0.00051410985 -0.005597898 -0.083285235 -0.035596192 -0.06283628 0.0731322 0.014058414
-0.046568397 -0.01310856 -0.008081492 -0.042919986 0.0069536567 0.06353691 0.020250138 0.05563995
0.028697789 -0.029288935 -0.010069871 0.009501711 -0.040080685 -0.07479996 0.0688961 -0.027660321
-0.002582484 0.012487019 -0.01519865 -0.054208383

mlp.4.weight f4 [100, 100]
00000000: cd25 733c d057 813d 3ef4 77bd fd1b 983a
00000010: aea6 3c3d 8fb9 403d fac1 cbbb 141a cabd
00000020: dba6 843d 68a2 603d 4d23 3ebd 32a4 72bd
00000030: ce11 293c 8ffa 38bd b6b3 aebc 1046 99bd
00000040: d3fc b4bc db79 3f3d 8f4c ff3b 2bf3 ad3c
00000050: dbd6 e83a b7d2 cfbd 9483 353d 303c afbd
00000060: 77c8 423c ad19 71bc 9343 7ebd 6d99 773d
00000070: 5bb5 f8bc 369e 1e39 2228 143d 8728 803c
00000080: cdd7 c53d 1c1d 94bd 9063 bc3d 3440 98bc
00000090: ac3c 2d3d cf51 b5bd 1e06 f3bb 9f7f 83bd
000000a0: bd29 cb3d d6d9 99bc fd87 37bd e069 f6bc
000000b0: 5533 edbc 6ea1 babc 916a f6bc da3b b23c
000000c0: afa4 ca3b 8d83 28bd 83cc 613d a161 53bd
000000d0: 9744 b63d 52e8 b33b 9af3 993b 43d2 073d
000000e0: 00e6 e1bc 248c 4bbd 1cdb c23b 3397 823a
000000f0: e229 963d 0d2d a13d 6746 b8bb 242a 9cbd
00000100: d5e0 bcbc 37fe 9a3c e796 b33c 97e7 9cbd
00000110: 2a35 a53d 72da ae3b 9aae 31bd 24ad 58bd
00000120: 7ff1 b43d c651 45bd 73de 8f3c bfac 8ebd
00000130: fa3d 923d 1454 26bd 39d7 06bc 7b3a 8cbd
00000140: d223 9fbd 570e c03d fc8a f2bb 20b1 85bd
00000150: ad2c 143d e9c4 543d c076 17bc 0e07 b03d
00000160: c133 123d c9f8 5fbc 0dea 803c 5ace 5f3d
00000170: ba39 67bd 24ed f03c cbef 3cbd d454 163d
00000180: 63aa 96bd 7606 853c 1b6b ed3c 2316 a3bd
00000190: 970e 6abd 4753 82bd 8efb 2b3d e5de d73b
000001a0: daf7 263d 1d0a 79bc 4921 a93d f1cf 71bd
000001b0: b221 08be dbe8 a53d f270 bf3c 5440 a83d
000001c0: 7ba4 1a3d 7361 6abd eca6 2f3d 2bcb 03bc
000001d0: 8549 fc3a b401 7b3d 38d3 09bd 83ba 63bc
000001e0: 7026 103d 5f90 8c3d df04 aabd 45fd e7bd
000001f0: a795 b4bd 09de ab3b 0227 9c3c 560b 073c
00000200: 0d70 5f3d 1d43 2a3c b824 4e3d 84eb 1bbd
00000210: 4fd3 a3bd eb1e debb 0653 b23d 270a 913c
00000220: 776e a4bd 7aac b63d 247d 55bd af02 a2bd
00000230: 124d ee38 3543 cd3d eb6f d4ba 3781 6e3d
00000240: 77fb 8bbd 3325 76bb e4ba 1bbd fa23 763d
00000250: bb8e 463d f9f1 61bd 9e23 563d b823 cebd
00000260: d1e6 743d 1ea0 1abd 68e6 f4bb 8939 a7ba
00000270: 8634 aabd 04a8 db3d 05c0 35bd 48bb 7cbd
00000280: 0226 00bb 1b80 0dbd 8662 edbc 274a 29bc
00000290: 9762 393d 05ae 1dbd 0255 2dbd 36a7 bb3b
000002a0: d5a5 ab3b 3538 d5bd aabf 9dbd 37fe 76bd
000002b0: 2ef5 ba3d 3c6a 99bc ba4a 623d 8351 03bb
000002c0: 73c4 023d b00d 5e3d 52f3 10bd c0b7 013d
000002d0: a394 ac3c fe79 a63d c754 bcbd 123c a5bd
000002e0: 925b b8bd e294 5e3b ba90 c03c 1d2d fa3d
000002f0: 5e65 023d f7ab 07bd 3dab 963d 3472 b43d
00000300: 7df2 7b3d 1a24 7b3c 6531 9fbd 79a9 c83d
00000310: 6242 a43d cc0d 8cbc 2fcc 123d aa37 13bb
00000320: badd f5bc 1797 8c3d 1269 edbd 4412 8ebd
00000330: bb0c ad3c 8e52 e43c 546e 903d 4d2b 463d
00000340: 5d2b 1e3d 4a12 8fba 9b6d 863d cb04 24bc
00000350: 6b76 ba3d 2d50 7bbd 0883 7b3c 9728 083c
00000360: 4643 b33c d692 63bc 92a0 483d 69e0 6e3d
00000370: 541a c53c 20df 81bd c742 f5bc 5687 4e3d
00000380: 2fc7 92bc 4e87 bd3d 3ac4 d83c 0348 1abd
00000390: 6505 c23d 56a5 193d deec d7b8 e86d b43d
000003a0: 786c 52bd e366 ce3d b282 d2bc c4f1 be3d
000003b0: 98fa 97bd 830d b53d 447a a33c e33c 4fbd
000003c0: 4e6a 9e3c 8a21 b33d 9470 36bc b2bf 6ebd
000003d0: 93fd f4bd fe69 08bc 7a19 46bd e738 223d
000003e0: 9475 bbbc 1592 90bd be6f b5bd 943e 453d
000003f0: ec7c 96bd 11c1 bf3d b0cb c4bd 87bd c43d
0.014840555 0.06315577 -0.060535662 0.0011605021 0.046057396 0.047051962 -0.006218192 -0.09868255
0.06477138 0.054842383 -0.046420384 -0.05923862 0.010319186 -0.045160826 -0.021325927 -0.074840665
-0.022093212 0.04674707 0.007791109 0.021234116 0.0017764227 -0.101476125 0.044314936 -0.08556402
0.011888615 -0.014715594 -0.062076163 0.060449053 -0.030359915 0.00015126992 0.036171086 0.015644325
0.09660301 -0.07232115 0.091986775 -0.018585302 0.04229419 -0.088534944 -0.0074165007 -0.06420826
0.0992007 -0.01878063 -0.044807423 -0.030079782 -0.028955141 -0.022782054 -0.030080112 0.021757055
0.0061841826 -0.04114108 0.05512668 -0.051606778 0.08899801 0.005490341 0.004698229 0.033159506
-0.027575493 -0.049694195 0.00594653 0.0009963274 0.07332207 0.07869921 -0.005623627 -0.07625225
-0.023056427 0.018920047 0.021922542 -0.0766136 0.08066781 0.0053360993 -0.043379404 -0.052899495
0.08835124 -0.04817369 0.017562127 -0.069665425 0.07140727 -0.040607527 -0.008230024 -0.06847092
-0.07770504 0.09377735 -0.007401822 -0.065279245 0.03617542 0.0519456 -0.009244621 0.085950956
0.035693888 -0.013670155 0.015736604 0.05464015 -0.056451537 0.029409952 -0.046127122 0.036701992
-0.073567174 0.016238432 0.028981736 -0.079632066 -0.05714282 -0.0636354 0.041987948 0.0065878504
0.040763713 -0.015200165 0.08258302 -0.0590362 -0.13294104 0.08101054 0.023369286 0.082153946
0.037754517 -0.05722184 0.0428838 -0.0080440445 0.0019247985 0.06128092 -0.0336487 -0.013899448
0.035192907 0.06863474 -0.0830171 -0.11327604 -0.088176064 0.0052449745 0.01906157 0.008242449
0.05455022 0.010391978 0.050327986 -0.038066402 -0.07999288 -0.006778588 0.08707242 0.017705036
-0.08028882 0.08919616 -0.052121297 -0.07910668 0.0001136308 0.10022584 -0.001620767 0.058228698
-0.068350725 -0.0037558794 -0.03802003 0.060092904 0.048475962 -0.055162404 0.05228006 -0.100654066
0.059790436 -0.037750356 -0.0074737556 -0.0012758236 -0.08310799 0.10725406 -0.044372577 -0.061702043
-0.0019553904 -0.034546 -0.028977644 -0.010332621 0.04526004 -0.038496036 -0.042317398 0.00572672
0.0052382746 -0.10411111 -0.07702573 -0.060301032 0.091287956 -0.018727414 0.055247046 -0.0020037598
0.03192563 0.054212272 -0.0353883 0.03166938 0.02106697 0.08128737 -0.091958575 -0.08068098
-0.09001841 0.0033963253 0.023506511 0.12215636 0.031834953 -0.033122983 0.0735688 0.08810845
0.06151055 0.0153284315 -0.07773093 0.09797949 0.08020474 -0.017096423 0.035839256 -0.0022463598
-0.030012954 0.068647556 -0.11592306 -0.06937078 0.021124234 0.027871396 0.070522934 0.04838114
0.038615573 -0.0010915485 0.06563874 -0.010010908 0.09104618 -0.06135576 0.0153510645 0.008310459
0.021882664 -0.013889989 0.048981257 0.058319483 0.024060406 -0.06341386 -0.029939068 0.050422035
-0.017917244 0.09254323 0.026460756 -0.037666332 0.09473685 0.037511192 -0.00010296119 0.088100255
-0.051372975 0.10078218 -0.025697086 0.09323457 -0.07420844 0.08840468 0.019955762 -0.050595175
0.0193378 0.087466314 -0.011135239 -0.058288284 -0.11962428 -0.008326052 -0.04836414 0.039605048
-0.022883214 -0.07059113 -0.08859204 0.048155382 -0.07348046 0.09362996 -0.09609163 0.09606462

mlp.4.bias f4 [100]
00000000: 678f 54bd a762 9b3d fdd7 383d 4c2f aa3d
00000010: 560f a53d d8be 983d 3f1b 29bd 7be6 e6bb
00000020: bfa9 b03b 8020 973d ace4 98bc 827b dc3d
00000030: 57a4 d93d c3d3 abbd e547 853d 7c19 34bd
00000040: 7dd5 283d d095 833d 68a9 30bd 450d 083d
00000050: 2330 1c3d e88c 65bd b1fb 043d d53e c6bb
00000060: 606a ba3d 0eb9 c23d 6f0f ccbb cb98 c6bd
00000070: 6ecf e33c fc61 4ebd fd09 8d3d f892 bbbd
00000080: fb63 f63d c58f d33d d9cb 323d 0626 4cbd
00000090: f438 a3bc e2a6 b6bd 2f83 403c ba00 20bd
000000a0: 72e3 5fbc 3446 5b3d b198 fabc 0f32 aebc
000000b0: 8722 80bd e1db 763c 8aaa 8dbd d9fd 8f3c
000000c0: a86b 89bd ebe1 af3b db63 093d c7be 4abd
000000d0: 232e 983d d81b db3b f900 d1bb c66c d7bb
000000e0: a19c 673b 5d34 a9bc 5dab 083d f6fb 0bbd
000000f0: 1950 873c cc76 d43d e1f7 593c c5e5 8dbd
00000100: 09cd 923d 22cf 3a3d cf24 e9bc dda2 0e3e
00000110: 99a5 973d 6089 683d 2425 9f3c 8e9e c4bd
00000120: 3926 1c3e 8997 bb3d 52f4 123d 7b14 8fbd
00000130: 6f33 1e3d 2858 b0bd 47b5 a9bd 7a25 2fbd
00000140: bdfb 403d 1f52 d3bd 7e8e 08bd 7ee9 ca3c
00000150: 0bd1 393d 5092 3a3c a196 313d d167 56bb
00000160: 79f5 9e3d fe3f 543c 8449 d9bc 3edb 853d
00000170: 265c e7bb 8524 163d 13e7 033d 72cd d93d
00000180: e626 133d 0be0 abbd b166 5bbc 2530 183c
-0.05189457 0.07587176 0.045127857 0.083098024 0.08059566 0.074582756 -0.04128575 -0.0070465184
0.005391329 0.07379246 -0.018663727 0.10765745 0.106270485 -0.0839 0.065078534 -0.043969616
0.041219223 0.06425059 -0.04313031 0.03321578 0.038131844 -0.05604258 0.032466594 -0.0060499706
0.09102321 0.09507953 -0.0062274258 -0.09697112 0.027808871 -0.050386414 0.06886671 -0.091588914
0.120307885 0.10330156 0.043651436 -0.04984095 -0.019924618 -0.08918549 0.011750027 -0.039063193
-0.013665067 0.053533748 -0.030590387 -0.021264104 -0.062565856 0.015067072 -0.06917293 0.017577099
-0.06709987 0.0053675077 0.033542495 -0.049498346 0.07430675 0.006686669 -0.00637829 -0.006574246
0.003534116 -0.020654852 0.03336655 -0.034175836 0.016517686 0.10374221 0.013303728 -0.06928591
0.071680136 0.045607693 -0.028459935 0.13929315 0.07404632 0.056771636 0.01942689 -0.096005544
0.15248956 0.091597624 0.035877533 -0.06986328 0.03862327 -0.086105645 -0.08286529 -0.04276035
0.047115076 -0.10318398 -0.033339016 0.02476954 0.045365375 0.011387423 0.04335654 -0.0032715688
0.07761664 0.01295471 -0.026524313 0.06535958 -0.0070605455 0.03665592 0.03220279 0.10634889
0.03592577 -0.08392342 -0.013391183 0.009288822

mlp.6.weight f4 [1, 100]
00000000: 3a5d d8bd 4223 143e 7cc8 d93d 7814 3b3e
00000010: 8a3d 5f3e 8b40 43be 2b16 94bd 11d5 a83d
00000020: d750 c4bd 58e6 1bbe cfc5 49be b499 12bf
00000030: 294b bebe 88bb 28bd b83a dd3d fe07 823c
00000040: 6ca1 433e d7c6 d2ba 56f3 4a3e 34b9 6ebd
00000050: 13e4 463c 545a 1cbe 0ad7 5f3d 1644 32be
00000060: 8dd8 bcbe 6889 093e 5c3e 6e3e 067c ebbd
00000070: 4b6e 2a3d a362 e3bd d659 45be 72e9 863c
00000080: 8282 163e 2ddd 8a3e c830 bd3d b5c3 923d
00000090: 27d6 59be c0c2 5abd e25c c33d e6d5 97bb
000000a0: cc9d b43d 43ca 2f3e 708b d9bd d4ac 4fbe
000000b0: 0216 b33d 4f16 ccbd 4742 a1bd e85b c13b
000000c0: 6108 12be 6a22 c1bc 3624 373e fb51 a23c
000000d0: 9a8d eb3d 715d 0d3e 8e22 d9bd 5f05 41bd
000000e0: 0310 0ebe 8024 12bd 8cd3 dbbe d329 87bd
000000f0: d4f3 b83d bca0 8e3e 6fff 35be 824a 153d
00000100: c7fa 3cbe 2962 4fbe 0d6d 5bbe bfb1 a23e
00000110: 0cad 7d3e 763d 06be f526 553e 1470 7d3d
00000120: 0bec 9d3e ba9d f23d 1e55 95bc 586b 89bd
00000130: 3400 5c3e b182 223d a252 04bd 9dc5 e7bd
00000140: 06b5 68be 2b52 c7bc 125a 8b3e 5395 c4bd
00000150: 4c61 0cbe 48cd 893e f1e7 c33d 9383 3e3c
00000160: 904c 323e af35 653b 0ccd 873e b0fe a63d
00000170: 223e b5bd 8a38 0e3e 39de b8bd 8b52 7e3e
00000180: 1700 593e bd36 a1b9 95b1 81bd bc83 84bd
-0.105646566 0.14466575 0.106339425 0.18269527 0.21800819 -0.1906759 -0.07230791 0.08243764
-0.095857315 -0.15224588 -0.19704364 -0.5726578 -0.37166718 -0.04119447 0.10802215 0.015872952
0.19104546 -0.0016080987 0.19819388 -0.058282092 0.012139338 -0.15268832 0.054648437 -0.17408785
-0.36883965 0.13431323 0.23265976 -0.11498265 0.04160909 -0.11102798 -0.19272551 0.016468737
0.14698222 0.2712187 0.0923782 0.071662344 -0.21273099 -0.053408384 0.095392 -0.004633653
0.0881916 0.17167 -0.10622299 -0.20280772 0.08744432 -0.099651925 -0.078739695 0.0059008487
-0.14261009 -0.02357598 0.17884907 0.019814482 0.11501618 0.13805176 -0.10602294 -0.047124263
-0.13873295 -0.03567934 -0.42934835 -0.06599774 0.090308815 0.27857006 -0.17773221 0.03644801
-0.18455039 -0.20252289 -0.21428318 0.31776235 0.24773043 -0.13109383 0.20815642 0.061874464
0.3084415 0.1184649 -0.018229064 -0.06709927 0.21484452 0.03967542 -0.032305367 -0.113169886
-0.22725305 -0.024331173 0.27217156 -0.09598794 -0.13708991 0.2691443 0.09565724 0.011628049
0.17412019 0.0034974625 0.26523626 0.081540465 -0.088497415 0.13888755 -0.090267606 0.24836175
0.2119144 -0.00030749096 -0.06332699 -0.06470439

lstm.weight_ih_l0 f4 [200, 13]
00000000: 26ed dbbc acb7 53bc 7135 f9bb e8f4 07be
00000010: be2e 6c3d 784a e83c 868f b2bd ff06 54be
00000020: 5c19 863d a1cb e9bd 4a1d ca3c 6ebc 67bc
00000030: ddda 4fbd 0ef3 813d c629 083d ad62 d83d
00000040: 4440 d0bd f136 f0bd 9367 ab3d 44fa 7f3d
00000050: a17e 153e 4887 833d 2b23 05be 2a53 0e3e
00000060: 80f0 05be 8418 4f3d 50ca 0bbd 4329 09be
00000070: 730c c93d cd59 9b3d 8dab cabd 4846 2e3e
00000080: 5887 993e 92c8 a73e 5bc5 ff3d 3dbd 8bbe
00000090: 9dbe f43d fe06 e2bd 06f7 6f3d 8e52 68bd
000000a0: b21f 64bc e92c 3abc c520 59bd 8074 f33d
000000b0: a3cb 43bd dab4 883b ff57 03be c220 363d
000000c0: 64c4 a33d a741 ac3d 479b e9bc 4d3a 903d
000000d0: 35ca 0f3e 2694 f9bd 716c 7c3c 17f5 063e
000000e0: abf8 f33d aa2d 0cbe a9ce 95bd c676 0dbb
000000f0: 9e43 b7bd c6c7 cfbd 564d 3ebd ebde 343c
00000100: 5c2b 73bd bc3f f03d 6da6 033e 8d90 613d
00000110: 7653 ae3d cfa1 7e3d b071 d1bd 7fff ae3d
00000120: 364d 50bd 63d7 a6bc 0917 0e3e 1de8 dabd
00000130: c8cb a0bd 204a 153e f832 2bbd e22a 69bd
00000140: 1a1f 9abd 787a f03d e094 d83d 4c8f c2bd
00000150: 6fe6 7cbd 8fa2 e8bd 6f26 033d 65da 393e
00000160: c04d b33d 4821 0e3e d639 c13c b81a 0abd
00000170: 13d8 383d d8a7 923d 0763 bbbd c2e4 fb3d
00000180: 07ab 22bd b835 a73d 471c f3bd c67c 1b3d
00000190: 51c5 b53c 7c51 ce3d 0a69 833d ffad 02be
000001a0: a5e0 b9bc f70e 8dbd 0b6a f6bd bd56 d2bd
000001b0: 8230 e8bd 3d45 88bd 42ba 3e3d 3fea abbc
000001c0: 7edc 073e 8f34 9a3d 0989 803c ad39 2d3e
000001d0: 6689 c7bd e561 aa3d fcb8 22bd f2c4 463d
000001e0: 160f a2bd c2ac c5bc 157f 003e 4fae e03d
000001f0: 10fa 9ebc 188f 34be f8df e23d 895d e8bd
00000200: 8df9 d4bd 6c05 6d3d 6138 8dbd c852 a03d
00000210: f5d2 fabc cf23 e2bd 891a ac39 dd6a f7bc
00000220: b12c 63bd fc25 9e3d 3f73 443a c4c7 b2bd
00000230: 0b24 01be 28ba 113e 7527 dd3d 0b0d 1b3e
00000240: e69b 8d3d 7a82 9c3d 03d8 003e 47a0 a9bc
00000250: 11fd b5bc aa44 9e3c 14eb 083e dc17 cd3d
00000260: 2ad1 b83d 5930 b3bc e941 e5bc 6946 763d
00000270: 3888 d93d 66fc 8b3d 0f8f 8abc b4a6 a83d
00000280: e8ab dc3d 1b0c 0dbe 32f3 c73c eb6f 633d
00000290: 697f 1c3d da5c b73c 72a7 b0bd a2d5 cbbc
000002a0: 404c 6d3c 91a7 913e 7da3 e03c 6a1e 093e
000002b0: c527 99bd 189c 34bd ccd2 df3b fbe2 ae3d
000002c0: 5ead 183e cf49 d33d 9421 51bd 38a0 52bd
000002d0: 59a5 f33d 763f fe3b 8557 1d3d a2e9 72bc
000002e0: 8303 a83d eb3f 05be 9b20 d83d 07fe c3bd
000002f0: c6e4 033e 8118 c03b 167a 10be 772c 88bd
00000300: 7c97 1c3d d092 213d 784a cabd 6388 d53d
00000310: 197e 08be ba44 bd3d 0017 6c3c 66dc 2fbd
00000320: c236 febd 10be 193a 3200 e33c 408b e73d
00000330: 3a2a e6bd ecc1 06be 9c81 60bd bb9e 30bd
00000340: d1bd 313e ea2c 923d 024c ffbc 01ff 903b
00000350: 2a28 c2bd cccd d5bd 12a9 b0bd 4b0f b6bd
00000360: 7b4e 023e 87e0 96bc 49ad 56bd c90c c43d
00000370: c99b dbbc 7cc5 3a3e 0e33 d83d 3aad c0bc
00000380: 4dea b13d 04b2 773d 01df efbd 6604 ac3d
00000390: c9c5 fb3c 0036 d8bd 8788 a63c af9d 65bd
000003a0: 37de 443d 367f fb3d 52ac c53d e5fa f2bd
000003b0: ea75 d5bd ab85 bd3d 6a08 6e3d ebaf a5bd
000003c0: d630 523e 09d0 05be c552 113e 61d3 7dbd
000003d0: 1a3a 60bd 09d2 883d 757a 8bbd 2ef6 a13d
000003e0: 9f1a 343d ff93 0b3e 30d2 e33c 9a65 b3bc
000003f0: b756 1a3d 51e2 a73d 9525 82bd 02a2 623b
-0.02684648 -0.012922209 -0.0076052477 -0.13277018 0.057661764 0.028355822 -0.08718781 -0.20705794
0.06547806 -0.11415792 0.02467217 -0.014144046 -0.050745834 0.06345187 0.033242963 0.10565696
-0.10168508 -0.11729229 0.083693646 0.06249453 0.14599086 0.06422287 -0.13001697 0.13898912
-0.13080025 0.05056049 -0.034128487 -0.13394646 0.098168276 0.075854875 -0.09896002 0.17018998
0.29986072 0.3277021 0.124888144 -0.27292815 0.11950419 -0.1103649 0.05858519 -0.056719355
-0.013923572 -0.0113632465 -0.053009767 0.11887455 -0.047801625 0.00417195 -0.12826537 0.044464834
0.07996443 0.0841096 -0.028516425 0.0704237 0.1404198 -0.1218646 0.015406714 0.13179432
0.11912664 -0.13689294 -0.07314808 -0.0021585687 -0.08948444 -0.10145526 -0.046460472 0.011039476
-0.059367523 0.11730906 0.12856455 0.055069495 0.08512013 0.06216603 -0.10226762 0.08544826
-0.050854884 -0.020366376 0.13875975 -0.10688803 -0.07851368 0.14579058 -0.041796654 -0.05692566
-0.075254634 0.11742109 0.10575271 -0.09499988 -0.061743196 -0.113591306 0.032019075 0.18149717
0.08755064 0.13879883 0.023587149 -0.033716887 0.04512794 0.0716092 -0.09149747 0.122994915
-0.039713886 0.08164543 -0.11870628 0.03796079 0.022188814 0.10074136 0.06416519 -0.12761687
-0.022690127 -0.0688762 -0.12031945 -0.1027045 -0.11337377 -0.06653831 0.046564348 -0.02098572
0.13267705 0.07529556 0.015690343 0.16916533 -0.097430035 0.08319453 -0.039727196 0.048527665
-0.07913034 -0.024130229 0.12548478 0.10970747 -0.019406348 -0.17632711 0.11077875 -0.113459654
-0.103991605 0.0578665 -0.06895519 0.07828289 -0.03061817 -0.11041986 0.00032826167 -0.030202324
-0.055462543 0.07722089 0.00074939796 -0.087295085 -0.12611406 0.14231169 0.107985415 0.15141694
0.06914501 0.07642074 0.12582402 -0.020706309 -0.022215398 0.019319851 0.13370925 0.100143164
0.0902427 -0.02187364 -0.02798553 0.060125742 0.10621685 0.068352506 -0.016913919 0.08234921
0.10774976 -0.13774149 0.024407957 0.055526655 0.038207445 0.022383142 -0.08625688 -0.024882142
0.014483511 0.28448156 0.027421707 0.13390508 -0.074782886 -0.044094175 0.006830549 0.08539387
0.14909884 0.10316812 -0.051057413 -0.051422328 0.11896772 0.00775903 0.038413543 -0.01482621
0.08203795 -0.13012664 0.10553094 -0.09569936 0.12880239 0.005862296 -0.14109072 -0.06649106
0.038230404 0.039446652 -0.09877485 0.10426404 -0.13329352 0.09241624 0.0144097805 -0.042934798
-0.12412788 0.00058648083 0.027710054 0.11305857 -0.11238523 -0.13159913 -0.054811105 -0.043120127
0.17357565 0.07137473 -0.031164173 0.00442493 -0.09480317 -0.10439643 -0.086259976 -0.08889636
0.1272525 -0.01841761 -0.05241135 0.09572751 -0.026807683 0.18239397 0.10556613 -0.0235201
0.086872675 0.060472503 -0.117124565 0.083992764 0.03073396 -0.10557175 0.020328773 -0.056058582
0.048063483 0.12280123 0.09652008 -0.118642606 -0.10422881 0.09254011 0.058113493 -0.08090194
0.20526442 -0.1306764 0.1419173 -0.061969165 -0.05474291 0.06680686 -0.06810466 0.07908283
0.0439707 0.13630675 0.027810186 -0.021899033 0.037680354 0.08197463 -0.063548245 0.0034581427

lstm.weight_hh_l0 f4 [200, 50]
00000000: 86c5 b13c 6db3 bc3d 9c0b 81bd bc88 9cbd
00000010: 9705 983c 982f a03d cf69 f7bd f1c0 103e
00000020: 1982 fe3b 5456 13be bec6 41bd 447d c43d
00000030: abb0 4ebc 8940 763c 7e08 acbd 99c9 763d
00000040: a5b4 033e e3b4 95bc a3b9 8abd f152 1f3d
00000050: e733 9bbd 732f aebd 0d6b 513d 414a f7bd
00000060: dc06 643d 68d2 afbc d735 313d 9eab 13be
00000070: 96cc f6bd 0036 a7bd 3ca9 4abc c3cb 5e3d
00000080: 2ecd e63b 1c97 213d f665 ecbd 2e1c d7bd
00000090: 4290 2bbd f7e6 c53d c9d3 ac3d 3a55 debd
000000a0: 485f ddbd fffd 7a3d 835d 51bd 3fb5 a2bd
000000b0: 19fc 3d3d 3950 86bc 861a 0cbd bb0f ecbd
000000c0: 42c1 02be 6835 a13c 006d e1bc 7444 efbd
000000d0: aca1 a2bd 50f8 fa3d 2c93 0b3e 2dda 073e
000000e0: ef73 f43c 1878 473c 8dfc 9cbc 8c13 c03d
000000f0: d514 01be 37d1 ffbc 3659 d6bd 2637 f03b
00000100: a2a8 91bc 9217 1dbd f1ac 843c e0ea bd3d
00000110: 49e1 a83d 126f 123d e0e0 033d 407a 953d
00000120: f469 773c c99b fcbd b9ac a4bd 3896 733c
00000130: d9b9 b3bc 0b82 4abc cdc0 c93d 675b 9fbd
00000140: 1818 ca3d 3ddf 003d a4a3 84bd f28b 3ebd
00000150: 0dbb 05be a3f4 de3d 1cd3 213d 5de0 0d3e
00000160: 38d5 0abe 2ba3 9e3d ebc6 d2bc b954 6cbc
00000170: 6a11 b0bd 777b 05be 2dc7 babd 8606 10bd
00000180: 7f68 303d 5cfc 2c3d 2f86 3bbd d03c 2c3d
00000190: b434 ae3d ad7d dc3b 06a3 063e 99c1 333c
000001a0: 50f4 93bd a459 55bd ae8e fdbc 9c4c 383d
000001b0: 3017 66bd 123e 903d e559 f8bc c707 e33d
000001c0: 3308 043d a1ae 293b 0f31 07bd 52c9 bc3c
000001d0: 74eb d03c 230b 18bc c59f f9bd 76ae cabd
000001e0: 2b86 b0bd 8b5b c4bd 8bf1 4abe dd38 863d
000001f0: edd9 62bd 8641 013d 9676 05bd 8951 b43d
00000200: f55f 083e e7e8 fbbb 0f12 abbd 41cf 36be
00000210: 3d8a c2bd fbbe 473e 632c 8dbd 81f6 ebbd
00000220: b2fe 09be f27e 803d 9f54 843c 7aba c43d
00000230: 83d0 03be 0927 f5bd 60e2 7f3d 827d 893c
00000240: 25cd 03be 1eff ed3d d9f1 c23c 9b07 26bd
00000250: 223e 8a3d 4b13 bb3a e4e3 d03b 4e13 8dbd
00000260: aefa dcbd 1867 d2bd 6137 f33d 0637 e8bd
00000270: 6e15 88bd ceaa 393d 312b 23bd d0c7 2abd
00000280: d99c 5b3d f7b3 d13d 2678 4d3d 5a8e 0cbe
00000290: 42f7 90bd 7785 0cbd 4742 53bd c9ba f1bd
000002a0: 7945 403d e2d5 0cbe fe44 5bbc 0ec0 cdbd
000002b0: a7c2 0fbd 3874 42bd d5d0 d0bd 09f0 b9bd
000002c0: e8de c03d 4696 913c bd26 fd3c e8a1 cebc
000002d0: 90e0 0bbe 4401 d6bd 409e 26bd f438 42bd
000002e0: 4144 693d 96c9 da3c 99fb 8d3d 547a eb3d
000002f0: b6f5 9bbd c7a1 6f3d 7efd 073e 25eb abbb
00000300: b6df 9f3c 28e4 be3d f6ff e2bd 20de dbbd
00000310: 6c8a 81bd 776a 283d b046 06be 8a8e cabd
00000320: f347 043e 67ba b7ba e24c 053e 5da3 d8bc
00000330: 9237 a23d 7735 93bc 10cf 97bd c07d 5abd
00000340: 2450 983d 0635 0dbe fb87 e53d 993a 843d
00000350: b66f eabd 2b3f 743d 1d68 10be 6423 023d
00000360: f81e 813d 3dcd ca3d 099e 17bc 012a f43d
00000370: 746f 43bd b8d3 b0bd 0173 93ba 3e7a c63d
00000380: 617f 0e3e 5f42 103e 5663 53bc f912 0a3e
00000390: 0efc 7c3d ea94 ecbd 1800 3e3d 3a4d f73d
000003a0: aea1 753c 376a b53d 5c27 f7bd aa78 04be
000003b0: 1477 3fbd e2f8 afbd c4b0 033e 38ec ca3d
000003c0: b1c5 87bd 7dd5 5bbc 0e70 1e3c d540 eb3d
000003d0: e193 40bd a3f7 cd3c 25d9 97bb 5b06 7cbd
000003e0: 54cc f33d cb26 b93c c16f 573d 60e5 ad3d
000003f0: 4034 ccbd cf6e 3ebd c64c e1bd 275f 07be
0.021700632 0.0921391 -0.063010424 -0.076432675 0.018557353 0.07821578 -0.12080728 0.14136101
0.0077669737 -0.143884 -0.047308676 0.09594205 -0.012615363 0.015030035 -0.08400057 0.060250852
0.12861879 -0.01827473 -0.06773689 0.03889746 -0.07578259 -0.08505144 0.051127482 -0.1207471
0.055670604 -0.021462634 0.043264236 -0.14420936 -0.120507404 -0.081645966 -0.01236945 0.05439354
0.0070435023 0.03945075 -0.11542885 -0.10503422 -0.04188562 0.09663194 0.08438832 -0.108560994
-0.10809189 0.061277386 -0.05111457 -0.07944726 0.046382997 -0.016395675 -0.034204982 -0.11526438
-0.12769035 0.019678786 -0.027517796 -0.11682978 -0.07940993 0.12254393 0.1363036 0.13266821
0.029840438 0.012174629 -0.019163394 0.09378728 -0.12605603 -0.031227691 -0.104662344 0.007330793
-0.017780606 -0.038352557 0.016195746 0.092733145 0.08246095 0.035750456 0.03219688 0.07298708
0.015100945 -0.12334401 -0.08040757 0.014867358 -0.021939205 -0.012360106 0.09851227 -0.077811055
0.09867877 0.031462897 -0.064765245 -0.04652018 -0.13059635 0.108865045 0.03950797 0.13855119
-0.13557899 0.077459656 -0.025729617 -0.014424496 -0.085970715 -0.1303538 -0.09120021 -0.03516247
0.043068405 0.042232856 -0.045782264 0.042050183 0.08506146 0.006728849 0.13148126 0.01097145
-0.07224333 -0.05208744 -0.030951824 0.044994935 -0.056174457 0.07043089 -0.030316303 0.11085468
0.032234382 0.002589144 -0.03300577 0.023045216 0.025502898 -0.009279999 -0.12188677 -0.09896557
-0.086193405 -0.09587773 -0.19818704 0.065538146 -0.05538361 0.03155663 -0.032583795 0.08804614
0.13317855 -0.007687676 -0.08353054 -0.17852499 -0.09499023 0.19506447 -0.06893232 -0.11521626
-0.13476065 0.06274213 0.016153632 0.0960588 -0.1287251 -0.11970336 0.062471747 0.01678348
-0.12871225 0.11620925 0.023796963 -0.040534597 0.06750132 0.0014272718 0.006374823 -0.06888448
-0.10790001 -0.1027357 0.11875797 -0.1133862 -0.066447124 0.045328908 -0.039836112 -0.041694462
0.05361638 0.10239404 0.05016341 -0.13726178 -0.07078411 -0.03430697 -0.05157688 -0.118032046
0.046941254 -0.13753465 -0.013383148 -0.10046397 -0.035097744 -0.047474116 -0.101960815 -0.09078986
0.09417516 0.017771851 0.03090226 -0.025223687 -0.13659883 -0.1044946 -0.040678263 -0.047417596
0.056949858 0.026707452 0.06932754 0.114979416 -0.07615225 0.058503892 0.13280293 -0.0052465373
0.019515853 0.09320861 -0.11083977 -0.10735726 -0.0632523 0.041117158 -0.13112903 -0.098904684
0.12918071 -0.0014017344 0.1301761 -0.026445085 0.079207554 -0.01796983 -0.07412541 -0.05334258
0.074371606 -0.13789758 0.11207577 0.06456489 -0.114470884 0.059630554 -0.14102216 0.031772032
0.06304735 0.09902427 -0.009253987 0.11922074 -0.04771371 -0.08634132 -0.0011249484 0.096912846
0.13915779 0.14087819 -0.0129021015 0.134838 0.061763816 -0.115518406 0.04638681 0.12075277
0.014992161 0.088581495 -0.12068054 -0.12936655 -0.04674442 -0.085923925 0.128604 0.099083364
-0.066295035 -0.013417599 0.009670271 0.11486975 -0.04701603 0.025142496 -0.00463404 -0.0615295
0.11904207 0.022601506 0.05259681 0.084910154 -0.099709034 -0.046492394 -0.110009715 -0.13219891

lstm.bias_ih_l0 f4 [200]
00000000: 3134 92bc 4ba7 75bc c91b 96bd cc1d 4abd
00000010: 4b9e 9c3d bac8 333d a0f3 84bd b425 14bd
00000020: 79d1 3cbc 9f69 0f3e ddb4 fa3d 1fe5 0e3e
00000030: 3015 09be 74c9 a9bd e953 8d3d 5753 883c
00000040: 9bdf 8fbb 80de 8c3d a542 bf3c 4d3b 9abd
00000050: 3b18 313d 73b9 013e ae65 253d 91ba e8bd
00000060: d6e1 c0bd 7d8c ff3d 07db 2c3d 9f13 7cbd
00000070: 61b8 843d 653f 6d3d 2b20 8e3d f010 9d3d
00000080: b7c4 dcba 84aa 3e3d 01a3 963d c98c 5cbd
00000090: df6c eebc 4c58 8bbc 393c 02bc 50a9 f2bd
000000a0: 01c7 7e3d 9751 ac3d 38f7 05bc fa39 00be
000000b0: bf57 7ebd e247 d83c ab05 0b3e fe86 013e
000000c0: 0335 a03d 57da 3c3d d460 fc3d 718b 01bd
000000d0: f939 4f3e 8a5e 6d3d 90a6 edbc 5ea9 bb3c
000000e0: a57c 86bc 6bf8 e43d 9387 99bd 16ef 5c3c
000000f0: 1be4 b43d 1fb9 f0bd 9471 bb3d 2de8 813d
00000100: 045c 193d 6850 803d 380e fe3d f41d 643d
00000110: 815f 43bd e167 efbd 937d 4a3d 4466 63bc
00000120: 9379 083d 88d9 c7bd ee69 003e 07a1 53bd
00000130: 6f44 633d 49e4 1d3e 6672 0c3e bdff ec3d
00000140: bdd4 0e3e 7ac8 e6bd b87e edbd 3f3d cc3d
00000150: 9306 bc3d 2751 103e a4c4 e2bd 2f6a 9cbd
00000160: c78f ba3d 634d 9a3d 5e32 0d3c 6ecc 003e
00000170: dcc8 1abd 0f2e 0439 e897 2b3e 47e4 d0bd
00000180: 0bee fb3d eb98 113e b072 ecbd 7eee cbbd
00000190: 16f2 5a3d a8a8 d23d 10c7 69bc ae1a 80b8
000001a0: adf4 c83d 6e8e 13bd aae2 1f3e b9ae 653d
000001b0: 8d9a 5bbc 7b7d 9c3c 150e 4f3d 6c6d 263d
000001c0: 483d c4bd 0452 bcbd 2a8d ab3d 0e4a e53d
000001d0: ace0 fabd 369d 10be a258 0d3d 32ec f03c
000001e0: 4027 a3bd 15c1 f5bd da19 e03d 3173 703d
000001f0: 7aed a9bd c028 cc3d 4d39 f53c acc7 68bd
00000200: d056 00bd 1624 b5bd df37 3f3d 734b a53d
00000210: f7a7 343b 8a12 3fbe b8fc d23d d4b0 a6bc
00000220: 4694 f9bc 192e f23d 3f8a e53d 5194 c6bd
00000230: 475c 8dbc 31ed bf3a f010 27bd 960e 333c
00000240: f563 c0bd bc74 793d 8b58 d9bd 93c6 0ebe
00000250: cd65 023e 604b 9dbd 18ef 74bd e848 633d
00000260: e7f7 ba3a dcfc 923d 3edc ffbd 1b57 033d
00000270: 6e33 593d 9d23 ab3d 1d6a 913d 9daf 42bd
00000280: 4223 acbd e25d b9bd d6d5 98bd 9b5d 343e
00000290: 2536 bc3d 347d 4d3d d3e5 6d3b 102a a1bd
000002a0: 3a4a af3c 17e6 7bbb e4d4 fd3d 3c11 c53d
000002b0: 31e1 b03d 5cd4 b53d 1bed 483d 24df b4bd
000002c0: 96b9 163e bbb9 4d3d e1d9 fabd 192b c83d
000002d0: 5bd9 febd af10 1a3e f804 ebbd 152b 6c3e
000002e0: 6f89 b23d 563f fc3b bac6 dabd 1b78 bfbd
000002f0: 607e 923c 1aa3 fe3d 48e5 0dbd d4fc 1f3d
00000300: 360f 7fbc 6609 30bd 2838 27bb 2212 293d
00000310: b0e1 173e 4d29 603d a20c 3c3d 6f88 6c3d
-0.017847152 -0.014993499 -0.07329518 -0.049344823 0.076473795 0.0438926 -0.0649178 -0.03616877
-0.011524552 0.14005135 0.12241528 0.1395459 -0.13386989 -0.08290377 0.0690077 0.016641302
-0.0043906695 0.06878376 0.023347208 -0.07530842 0.043236 0.126684 0.040380172 -0.1136371
-0.09418075 0.12477968 0.04220107 -0.06154215 0.0648048 0.057921786 0.06939729 0.07669246
-0.0016843294 0.046549335 0.07355309 -0.0538452 -0.029104648 -0.017009877 -0.0079489285 -0.118487
0.062201504 0.084139995 -0.008176617 -0.12522116 -0.0620954 0.026401464 0.13576381 0.12649152
0.07822611 0.046106663 0.12323156 -0.031627122 0.20236959 0.057951488 -0.029010087 0.022907909
-0.016416857 0.111801945 -0.07496562 0.013484737 0.0883257 -0.11754059 0.09152523 0.06343112
0.03744127 0.06265336 0.12405056 0.055692628 -0.0476985 -0.11689735 0.049436163 -0.0138793625
0.033319067 -0.09758288 0.12540409 -0.05166724 0.055485185 0.15419115 0.13715515 0.11572216
0.1394834 -0.112687066 -0.11596435 0.09972619 0.091809414 0.14093457 -0.110726625 -0.076374404
0.091094546 0.075342916 0.0086179655 0.12577984 -0.03778921 0.00012605659 0.16757166 -0.101997904
0.123012625 0.1421849 -0.115453124 -0.09957598 0.053453527 0.10286075 -0.014268652 -6.108485e-05
0.09812293 -0.036024503 0.15613809 0.05607483 -0.013403547 0.019102803 0.05055054 0.040631697
-0.09582001 -0.09195331 0.08376534 0.111957654 -0.12249884 -0.14122471 0.034508355 0.029409502
-0.07966471 -0.11999718 0.10942431 0.058703605 -0.08297248 0.0996871 0.02993455 -0.056831047
-0.03133279 -0.088447735 0.046684142 0.080710314 0.0027565935 -0.18659416 0.103021085 -0.02034799
-0.03046621 0.11825199 0.11208009 -0.09696258 -0.017255915 0.0014642832 -0.040787637 0.0109287705
-0.09394065 0.060902342 -0.10612591 -0.13942938 0.12734146 -0.07680392 -0.05979833 0.05548945
0.0014264554 0.07177135 -0.1249318 0.032065492 0.053027563 0.08356402 0.071003176 -0.04753076
-0.084051624 -0.0905111 -0.07462661 0.17613833 0.09190015 0.05016823 0.0036300316 -0.07869351
0.021397699 -0.0038436705 0.12394121 0.09622428 0.08636702 0.08878395 0.049054246 -0.08831623
0.14719233 0.050225955 -0.12248588 0.09773845 -0.12443801 0.15045427 -0.11475557 0.2306331
0.0871762 0.00769798 -0.10682435 -0.0934908 0.017882526 0.12433453 -0.034642488 0.039059475
-0.015567591 -0.042977713 -0.002551565 0.04127706 0.14832187 0.054726887 0.045910485 0.0577473
