crowd_nav/data/output_lstmrl_trained_SS_ADBB/rl_model.pth (torch, 191490 bytes, 11 tensors)

mlp.0.weight f4 [150, 56]
000000 3b c0 83 3c 6b 0a 4a 3d b5 61 14 bd 77 d4 f6 3b
       0.016082874 0.04932634 -0.036225993 0.007532652
000010 58 55 be bc 4e fc 85 3d ef 67 00 3e 51 eb 41 bd
       -0.023234054 0.06542264 0.12539648 -0.047343556
000020 70 3c 8d bd cc 0a 04 be 33 72 a1 3c cf d4 e1 bd
       -0.06896293 -0.12894744 0.019707775 -0.11026918
000030 64 44 7f 3d 94 1e 86 3d c7 60 8e bb 37 f8 de 3d
       0.06232108 0.06548801 -0.004345033 0.10887187
000040 97 d4 a9 bd 69 59 bd 3b 16 cf ab 3d d2 7f 23 be
       -0.082925014 0.005778481 0.08389108 -0.15966728
000050 a5 bb 5c bd 0d 03 c7 bd 56 98 6a bd e8 11 45 3d
       -0.05388989 -0.09717379 -0.057274185 0.04811278
000060 21 e1 8a bc 11 56 ba 3d f8 7c 8f bd 0e cf 25 be
       -0.016953053 0.09098447 -0.07006258 -0.16192266
000070 dd 19 fe bd d1 db e7 bd b6 5c ee 3d 84 47 95 3d
       -0.12407277 -0.113212235 0.11638777 0.07289031
000080 57 42 47 bd 8f e7 dd 3d b7 55 02 be 7e e6 c9 3d
       -0.04864725 0.10835182 -0.1272801 0.09858416
000090 6b 1b 5a 3d bc c8 88 bd fa 81 1d 3e 40 c2 17 be
       0.053248804 -0.06678912 0.15381613 -0.14820194
0000a0 64 d0 80 3d a2 04 7c 3d e1 df 1a bd 3d 41 d1 3d
       0.06289747 0.061527856 -0.037811164 0.10217521
0000b0 27 d3 6e 3c d5 eb 8b bc 84 c4 cc 3d fd 14 0b be
       0.01457671 -0.017080227 0.0999842 -0.13582225
0000c0 d8 ae d5 bd 4b 16 cc bd 14 ca f1 3d 8a d9 e2 bd
       -0.104337394 -0.099651895 0.118061215 -0.110766485
0000d0 f7 7c 01 3e fe 9a b8 bd 65 26 58 3b 8d 1c 8f 3c
       0.12645327 -0.090139374 0.003298187 0.017469669
0000e0 67 68 3f bd 7c ff b0 3d a0 ab 04 be 2d b8 3f 3b
       -0.046730425 0.0864248 -0.12956095 0.0029254064
0000f0 8e 5c 78 3d ff 20 d9 bd ef 9f 5c bd ab 9a 8e bd
       0.060635142 -0.10601997 -0.053863462 -0.06963094
000100 e0 f8 60 bd 35 1c a2 3d 79 40 91 3c a3 fe 77 bd
       -0.054924846 0.07915536 0.017730938 -0.060545575
000110 08 ec 39 bd 32 06 23 3d ef 01 6c 3c 8c ed b8 3a
       -0.045391113 0.03980083 0.014404758 0.001410888
000120 b2 35 00 be 24 50 88 bd 4f e6 3e bc e4 71 f6 3d
       -0.12520483 -0.066559106 -0.01165159 0.12033442
000130 18 8a 2c 3c a7 71 09 3d 89 ad 01 3e 9c eb 91 bd
       0.010530971 0.033555653 0.12663855 -0.07125017
000140 8a 61 00 3e 3f 2f d2 3d bf 11 00 3e de 0c 54 3d
       0.12537208 0.10262918 0.1250677 0.051770084
000150 aa 01 7c bc 7d f1 ec 3d 2b e0 06 bc bf 94 88 3d
       -0.015381256 0.11569498 -0.008232157 0.06668996
000160 2b 74 f7 bd a2 80 6e bd 10 73 81 3d 8e 56 a6 3d
       -0.12082704 -0.058228143 0.063207746 0.08121978
000170 87 d8 b6 3d 0c 7c 2c bc e9 b8 28 3d 14 a0 3a 3d
       0.08928018 -0.010527622 0.04119197 0.04556282
000180 8c aa f6 3d 6a c8 04 be 67 af 8b bc 5d d2 55 3d
       0.12044248 -0.12967077 -0.017051412 0.05220257
000190 f9 d0 b3 bc 0f 08 c2 3d 38 7d 81 bc 67 cd c0 bd
       -0.021950232 0.09474193 -0.01580678 -0.094141774
0001a0 05 f4 fe 3d 5a ba f6 bd fc 27 a9 bd 16 15 dc 3c
       0.12448887 -0.120472625 -0.082595795 0.026865523
0001b0 09 86 a0 3d 63 c3 94 b9 04 2a 1a bd 0c 6f 0e 3d
       0.07838065 -0.00028374334 -0.037637725 0.03477387
0001c0 03 c9 d8 3a a9 69 81 bd 25 8f c4 3b 88 12 25 bd
       0.0016539398 -0.06318981 0.0059985095 -0.040300876
0001d0 42 02 e2 bd 7f 66 5e bc 8e 00 97 3c ff 0d 02 bd
       -0.11035587 -0.013574242 0.018432882 -0.03175163
0001e0 2c dc c0 3d e8 2f 4b bd 62 ae 4c 3d fe 14 d7 bd
       0.094169945 -0.049606234 0.049970992 -0.10502051
0001f0 94 d3 07 3d 7e c1 1e be ef a1 ae bd a0 68 63 bd
       0.03316076 -0.15503499 -0.0852698 -0.0555197
000200 4e 31 98 bd 10 17 ec 3d 1f 02 3d bb 64 5a aa 3d
       -0.07431279 0.11527836 -0.0028840376 0.08318022
000210 f7 bf ba bc 96 4d e6 bd 82 06 59 3d 70 ff 71 bd
       -0.022796614 -0.11245267 0.052984722 -0.059081495
000220 95 a7 df 3c cc 53 38 3d 75 67 d5 bc 43 5d 80 3d
       0.027301589 0.04500179 -0.026050309 0.06267788
000230 bb 74 20 bc 5a 99 8b bd 7f aa 52 bc 95 ef 0d 3d
       -0.009793456 -0.06816359 -0.012858032 0.03465231
000240 da 6b 9c bd 06 b6 05 bd 79 c8 47 3d 71 ca ca bd
       -0.076377586 -0.032644294 0.04877517 -0.09901894
000250 4d 54 91 3d 5e e5 8b 3d f1 ad dc 3d db 52 49 be
       0.07096157 0.06830858 0.10775364 -0.19660513
000260 5e 62 c0 3d 81 41 04 be 8a 90 9c 3d e1 a4 a9 3d
       0.09393762 -0.12915613 0.07644756 0.08283401
000270 2b ee 12 bd 70 40 8d 3d 3f 0b 0f 3c 35 b9 c2 bd
       -0.035871666 0.06897056 0.008730709 -0.09507982
000280 62 3a 35 bd 58 dc 04 bd b7 53 e7 3d e6 a8 22 bd
       -0.04424513 -0.0324367 0.11295264 -0.039711855
000290 5d d5 4a bd 3b 5c bc 3c 5b 3d 80 3d 1d 8c 8d 3c
       -0.049519885 0.022993198 0.062617026 0.017278725
0002a0 8e 54 b3 bd d7 0f dc 3d 49 17 d3 3c be d8 fd bd
       -0.08756362 0.10745209 0.02576794 -0.12394856
0002b0 24 79 c8 bd db 6a c8 bd 6d 27 d2 3d df f7 d9 bd
       -0.09788731 -0.09786006 0.10261426 -0.10642981
0002c0 ed d8 b8 bb c4 86 0a 3e f4 5e 87 bd a0 22 84 3d
       -0.005641094 0.13527972 -0.06609908 0.06451917
0002d0 6d 72 2e bd 52 18 7b bb 94 d6 2f bd 5d 22 6c bd
       -0.042589594 -0.0038314057 -0.042929247 -0.05764996
0002e0 65 0f 06 3d 83 ef ca 3c 55 5d fa 3c 68 0c d7 bb
       0.032729525 0.024772411 0.030562082 -0.0065627582
0002f0 c2 b2 c8 bd d9 bf f3 3d 5f 8f a7 bd 9f 16 cd bd
       -0.0979972 0.119018264 -0.08181643 -0.1001408
000300 30 42 bc 3d 24 04 c2 bd 95 14 cd bd 43 8b fa 3c
       0.09192312 -0.09473446 -0.10013691 0.030583983
000310 cc 0c bb bd 96 d0 a2 3c 78 b7 ec bd 3b e5 87 bd
       -0.091333 0.019874852 -0.115584314 -0.06635519
000320 59 48 8a bd 8b c5 48 bd e6 bf 1c 3c 5e 59 cb 3d
       -0.067520805 -0.049016517 0.0095672365 0.09929155
000330 05 17 be 3c c3 b6 75 bd f2 48 08 3e 2a cf ed bc
       0.023204336 -0.05998875 0.13309076 -0.029029448
000340 a4 29 6c bc b2 5b 6e bc ac ba 07 be a4 72 09 be
       -0.014414225 -0.014548229 -0.13254803 -0.13422638
000350 78 54 d6 3d 25 c9 63 3c e3 68 21 bd c4 8f c7 3d
       0.1046533 0.013902937 -0.03940667 0.09744218
000360 36 15 04 be b0 3a 86 bd ec 00 d6 bd 30 89 31 3b
       -0.12898716 -0.065541625 -0.104493946 0.0027089827
000370 e7 e6 88 bd 1f 1d e4 3d 5a bf 20 3c 96 89 fd bc
       -0.06684666 0.11138367 0.009811247 -0.030949395
000380 35 fb fa bd e2 87 c6 bd 0d f3 f3 bd ff 26 d5 3d
       -0.12254945 -0.09693886 -0.11911593 0.104078285
000390 d2 99 bb bd 3e 4d 91 3c 34 75 0d 3e 40 d4 8b bd
       -0.09160198 0.017737027 0.1381424 -0.06827593
0003a0 ea 96 94 bd 5c 21 d4 bd e4 6f c3 bd d7 bc d3 bd
       -0.07255347 -0.10357925 -0.09542826 -0.10338753
0003b0 7a e6 1d 3d 8d 25 eb bb 5d e4 96 3d d4 55 41 3d
       0.038549878 -0.0071761073 0.073677756 0.047200993
0003c0 72 e1 ad 3b a9 53 dd bd 1f 22 a7 3d de f7 8c 3d
       0.005306416 -0.108069725 0.08160805 0.068832144
0003d0 2d fb 61 3d 2f 1d 0a 3e bb 77 d6 bc 30 9f f6 bd
       0.05517118 0.13487695 -0.026180139 -0.12042081
0003e0 b6 6d 00 be 15 fb a2 3d 2e ad c6 3b bc be 7d bd
       -0.12541851 0.07958046 0.006063125 -0.061949477
0003f0 09 55 dd 3d 36 de 7b bd 8d 20 b2 3d f1 e8 c6 bb
       0.10807235 -0.061491214 0.08697615 -0.0060702492

mlp.0.bias f4 [150]
000000 7a b3 53 bd 3d 1f ed bc d4 d7 59 bd 27 65 3b bd
       -0.051684834 -0.02894556 -0.053184345 -0.045750763
000010 6d 97 4c bd 53 1e 27 3c 74 b5 62 bd 8d ec 14 be
       -0.0499491 0.010200101 -0.05534883 -0.14543362
000020 83 37 a1 3d 2a f0 b3 bc 02 09 99 3d ce 33 31 3d
       0.07871916 -0.021965105 0.07472421 0.043262295
000030 42 d2 bb bd 89 07 0a 3d 28 63 f0 bb 42 85 e6 bd
       -0.09170963 0.033698592 -0.007336039 -0.11255886
000040 b8 6e 73 bd 2c 7f 8a 3c 23 7b a6 3d 41 50 53 3d
       -0.05943176 0.016906343 0.08128955 0.051590208
000050 8e a3 8e bd b0 5d cf 3d 99 e0 43 be e2 64 a4 3d
       -0.06964789 0.10125291 -0.19128646 0.08027054
000060 d9 11 03 be 5f 2e 66 bd 8d 8b 5f 3c 4b 17 31 bd
       -0.12799777 -0.056196567 0.013644111 -0.043235105
000070 01 14 06 be 92 64 85 bc 79 49 8c 3b 70 00 9c 3d
       -0.13093568 -0.016283307 0.0042812196 0.07617271
000080 9d d0 e8 bc 6b b1 d2 bd 49 31 92 3d 57 8d 7b 3d
       -0.028419787 -0.10287746 0.07138307 0.06141409
000090 d7 ff c4 bd 22 bd da 3c 98 90 b5 3c e0 8c b8 3d
       -0.0961911 0.026701514 0.022163674 0.09011245
0000a0 cd 16 2e be c7 20 0b 3d 7a f7 e4 3c 41 2e e6 bd
       -0.17000885 0.033966806 0.027950037 -0.11239291
0000b0 e7 88 c3 3d 44 0e 07 3d 12 23 8b 3d a3 5d 9e bc
       0.095475964 0.03297259 0.067937985 -0.019331759
0000c0 f1 73 d8 3d 0a f4 db bd 87 64 8b 3d ae b7 8a 3d
       0.10568989 -0.10739906 0.068062834 0.06773315
0000d0 d9 e2 96 3c 0a bc 81 bd 85 a3 e5 bd b4 79 6c 3d
       0.018418716 -0.06334694 -0.112128295 0.057733253
0000e0 6e 31 8c 3d 13 5b eb 3d 5d 0e 10 bd 49 bc ba 3d
       0.068453655 0.114919804 -0.035169948 0.09117944
0000f0 95 ed 38 3d 8d 92 07 be 3f 2f 05 bd df b1 8e 3d
       0.04514845 -0.13239498 -0.03251576 0.0696752
000100 cf aa 3a be d0 cf 09 bc cf 62 a6 bd 9c a1 dc bc
       -0.18229221 -0.008411363 -0.08124315 -0.02693253
000110 6e 12 ce 3d 15 43 a4 3b 45 ac 19 3c 7f 1b 08 bd
       0.10062109 0.0050128796 0.009379451 -0.033229347
000120 f7 3c a0 bd 7c d6 ec 3d bc b5 ba bc 5a 6f 75 bb
       -0.07824128 0.11564347 -0.022791736 -0.0037450404
000130 5d 52 07 be 43 6b 36 3d 7f 37 4b 3d 85 13 90 3d
       -0.13215013 0.044535886 0.049613472 0.07034973
000140 e0 d9 c7 bd 55 bf f9 bd c4 32 57 3d 8f d0 a2 bd
       -0.09758353 -0.12194697 0.05253865 -0.07949936
000150 58 b4 12 3d 8b 34 f8 3d 73 3a 13 3e 89 e5 9f 3c
       0.03581652 0.12119397 0.14377765 0.01951863
000160 66 91 3b 3e e2 af e3 bd 8e a2 19 3b 30 0d f8 3d
       0.18317184 -0.11117531 0.0023442837 0.1211189
000170 77 c1 26 3e a7 e6 04 3e d2 78 a7 3d 82 ff fa bd
       0.16284738 0.12978612 0.081773415 -0.122557655
000180 15 f8 ee bd 69 99 3c bd 32 f9 e1 bc 89 41 02 be
       -0.11668412 -0.04604474 -0.027584646 -0.12720312
000190 ba 14 27 3d 16 bd 80 3d ca 05 bd bd dd 7b f1 3c
       0.04079125 0.06286065 -0.0922962 0.029478008
0001a0 d7 5f d3 bd 30 cc 64 3c 38 ee 78 bd 8b 30 33 3d
       -0.103210144 0.013964698 -0.060774058 0.043747466
0001b0 ac dd 04 3e e1 b3 cf 3d ce a1 ca bd bb 91 81 bd
       0.12975186 0.10141731 -0.09894143 -0.06326624
0001c0 ac 48 c6 ba 46 53 df 3d 6f a1 77 bc b0 fe 6b 3d
       -0.0015127859 0.10904555 -0.015114172 0.057615936
0001d0 25 3f 34 3e 49 e1 7f 3d 91 79 68 3c 4a 28 31 bd
       0.17602213 0.062470708 0.01418914 -0.043251313
0001e0 08 22 36 bc 8e 98 88 bd 6c 7e 00 3d 73 ba d2 3d
       -0.011116512 -0.066697225 0.031370565 0.102894686
0001f0 d3 cc fd 3d 26 3e 10 bb ff b2 a1 3d 79 fd ef bc
       0.12392583 -0.00220097 0.07895469 -0.02929567
000200 e2 ba 7c bd ff 6e d6 3c 84 a0 c8 3d 1b a9 cd 3c
       -0.061701663 0.026175974 0.09796241 0.02510505
000210 09 7b 13 be 21 e6 d7 3c 61 8f f7 3d 48 62 dc bb
       -0.14402403 0.026354851 0.12087894 -0.006725583
000220 fb c3 f8 3c 18 0a 97 bd c8 a6 7c bd 0f d1 7b bc
       0.030366888 -0.07374972 -0.061682492 -0.015369668
000230 bd c8 01 3e ee 74 4d bd 37 46 9a 3d 27 ed 1a 3b
       0.12674232 -0.05016034 0.07532924 0.002363989
000240 fc a5 01 be ff 1b ef 3d dc 72 d4 3c 19 99 b4 bc
       -0.12660974 0.11675262 0.025933675 -0.022045659
000250 43 be 19 3e 9d f9 01 3e
       0.15013985 0.12692876

mlp.2.weight f4 [100, 150]
000000 79 3d d3 bb f8 3d 53 3d 69 e6 8e bd 3f f1 3f bd
       -0.006446537 0.05157277 -0.06977541 -0.04686093
000010 41 ea 70 bd 4a 2f 1f bb 15 8f 24 bd ae 61 39 3d
       -0.058817152 -0.002428966 -0.040175516 0.04525917
000020 1d 99 e6 3c 11 88 67 3c 1b 1b c2 3b d1 19 f0 bb
       0.028149182 0.014131562 0.0059236414 -0.0073272963
000030 85 36 7b bd 91 27 76 bd c1 f3 8f 3d c5 0a 07 bd
       -0.06133129 -0.060096327 0.07028914 -0.032969255
000040 79 0f d4 bb 9c 95 29 3c 0f a4 a6 3d 8e 1a 34 3b
       -0.006471571 0.010350611 0.081367604 0.0027481648
000050 90 97 d3 bb 33 f5 96 bc 8b 85 89 3d b4 a7 e5 bb
       -0.0064572766 -0.018427467 0.067149244 -0.007008517
000060 f8 5e cc bc 7f 0f 75 3c 5b 3d 57 bd 20 ad 97 bd
       -0.024947628 0.014957308 -0.052548748 -0.07406068
000070 aa 5d 9d 3d 29 cc 95 bd 28 69 51 bd 41 74 40 bd
       0.076838806 -0.07314331 -0.051125675 -0.04698587
000080 96 44 78 3d ef 6b 46 bc 2f 90 3a bd a4 b6 30 bb
       0.060612284 -0.012110694 -0.04554766 -0.002696433
000090 0f f8 72 bc d6 c1 07 3d 94 65 28 3c 46 e7 9c bd
       -0.01482965 0.03314384 0.010278124 -0.076612994
0000a0 19 40 14 bd c9 30 9d 3c f0 a2 2a 3d a0 9c 4c 3d
       -0.03619394 0.019188302 0.041659296 0.049954057
0000b0 40 99 9f bd bd 66 9a bc 19 82 0e bd 3b fd ae bc
       -0.07792902 -0.018847818 -0.03479204 -0.021360984
0000c0 36 28 eb 3b a3 6d 74 3d 95 59 12 bd 5e 24 47 3d
       0.0071764244 0.05967487 -0.035729963 0.048618667
0000d0 e9 26 38 bd cb b9 a3 bc 38 ed 57 bd bf f8 2c bd
       -0.044958983 -0.019986054 -0.052716464 -0.04222941
0000e0 22 ae a5 bd 78 72 af b9 a5 c6 cd bc a3 55 7b bd
       -0.08089854 -0.00033463887 -0.025119135 -0.061360966
0000f0 a0 8a 9c bd 99 4c 6f 3d 77 1b 84 bd a4 d4 1c bb
       -0.07643628 0.05842266 -0.06450551 -0.0023930455
000100 67 2e f5 3c 0e a6 ba bc 58 2c 83 3c 32 27 5e 3d
       0.029929353 -0.02278426 0.016012356 0.0542366
000110 f3 76 88 bd f0 73 6b bd c8 d5 8a 3d 71 4d 69 3d
       -0.06663313 -0.057483613 0.06779057 0.05695862
000120 68 ff 0c bd b8 3d 15 38 a1 44 91 3d bf e1 37 bd
       -0.034423262 3.558185e-05 0.07093168 -0.044893023
000130 93 87 20 3d 20 e7 93 3d a1 8e 48 bd 4e 0e dc 3c
       0.039191794 0.07221818 -0.048964147 0.02686229
000140 ba 6c 4e bd 38 7a 56 bd 79 ab 62 bd 2e 38 0d bd
       -0.05039666 -0.05236265 -0.05533931 -0.034477405
000150 ca c0 02 bd 43 23 f8 ba 14 46 87 bd ff d1 36 bd
       -0.03192214 -0.0018931407 -0.06605163 -0.04463386
000160 e1 1b 8b 3d 65 e8 72 3d 32 72 c7 b8 46 5b 2e 3d
       0.06792427 0.05930366 -9.51033e-05 0.042567514
000170 b4 82 32 3c a8 e9 23 bd 23 a1 6d bc e8 cd 80 bd
       0.01089542 -0.040017754 -0.01450375 -0.062892735
000180 a6 60 3a bc b9 b6 43 3d 58 3a 16 3d 2b c2 38 bd
       -0.011375582 0.04778168 0.036676735 -0.045107048
000190 b6 c5 30 bc 3b a6 69 bd eb 3b a7 3c 71 0e 02 3d
       -0.010789325 -0.057043295 0.020414313 0.031752054
0001a0 52 b3 77 bd 3a e9 8e 3d 54 3d df 3c c3 86 45 3c
       -0.060473748 0.06978078 0.027250923 0.0120560555
0001b0 c4 99 83 bd 1d 37 56 bd ab bc 45 3d 02 f3 89 3d
       -0.06425813 -0.052298654 0.04827563 0.06735803
0001c0 fd ab 8f bc ea be 1a bd 33 83 b2 bc 13 ca 08 3d
       -0.017538065 -0.037779726 -0.021791076 0.033395838
0001d0 2c cf 28 bd b8 3a 67 bd 61 88 b2 bb 28 95 8f bd
       -0.0412132 -0.056452483 -0.0054483865 -0.07010871
0001e0 5d e3 d8 bc 66 49 a6 3d cd 57 3a 3c 68 cd 89 3d
       -0.026475603 0.081194684 0.011373472 0.06728631
0001f0 9d 29 a1 bd c2 df b8 bc 1d 4e 80 ba bd 37 31 bd
       -0.07869265 -0.022567634 -0.0009788905 -0.043266047
000200 30 2c 69 bd 54 c5 aa ba 81 ea 86 bd a2 92 8a bd
       -0.056926906 -0.0013028779 -0.06587697 -0.06766249
000210 bb ea 69 3d 81 a4 90 bd b4 cb 9e 3d a8 5a a4 3d
       0.057108622 -0.07062627 0.07753697 0.08025104
000220 ee db 6c bd 1b 20 8d 3d 2f 24 3c 3c 89 be b4 bc
       -0.05782693 0.06890889 0.011483236 -0.02206351
000230 b9 da 83 3b 19 9e 91 bd 8f a1 87 bd 6c 36 51 3c
       0.0040238765 -0.07110233 -0.06622612 0.012769323
000240 87 42 3b 3d ff 94 81 bd ab 00 d9 bc 86 27 f5 3a
       0.045717742 -0.06327247 -0.026489576 0.0018703796
000250 4a b4 34 bd f7 ea 00 3d 53 33 a1 bb da 3d 7e bd
       -0.04411725 0.03147408 -0.0049194484 -0.062070705
000260 0a aa 6d bd ee 71 8e 3d 66 52 04 bd 02 28 10 3d
       -0.05802349 0.06955324 -0.032305144 0.035194404
000270 cd 29 80 bd 5e 93 9c 3d f7 7a 8c bd 9c c1 e9 bc
       -0.06257973 0.076452956 -0.06859391 -0.028534703
000280 ce 61 98 bc 9a b4 50 bd f0 53 3d 3d 38 f1 c9 bc
       -0.018601324 -0.050953485 0.046222627 -0.024651155
000290 95 2e a5 3d 70 f4 0f be 3b 82 56 3c 11 c5 52 bc
       0.080655254 -0.1405809 0.013092573 -0.012864367
0002a0 99 0e b9 3b b2 1b af 3c 87 dc 28 bc ea c0 c7 bc
       0.005647492 0.02137551 -0.010306484 -0.02438398
0002b0 3d b0 07 be f5 c8 bf bb 43 78 24 bd fa 2e 93 3c
       -0.13250823 -0.0058528134 -0.040153753 0.017966736
0002c0 de 0c 15 bd 95 38 0a be 3b 3b 0c bd 77 f7 d3 bd
       -0.036389224 -0.13498147 -0.034236174 -0.103499345
0002d0 fa 55 24 bd 14 d0 10 bd 8a bd 0d 3d 0e a3 03 3d
       -0.040121056 -0.03535469 0.034604587 0.032137923
0002e0 f3 83 92 3b da d2 20 bd 56 89 ba 3c 16 21 31 3d
       0.004471296 -0.039263584 0.022770565 0.043244444
0002f0 6d b2 ec bb f1 cb 8c bd f6 0a 1b be e3 cf 80 3d
       -0.0072234184 -0.06874836 -0.151409 0.06289651
000300 d9 94 89 bd 6c b0 a7 3d 55 74 41 3c 61 11 48 3c
       -0.067178436 0.08187947 0.011807521 0.012211175
000310 10 c2 bb 3a 92 23 ab bb 80 94 9c 38 c4 fe 47 3c
       0.0014324803 -0.005222746 7.46632e-05 0.012206737
000320 7e a9 bc 3d 5c cd 86 3d 81 52 51 bd 7e 30 34 3d
       0.092120156 0.06582138 -0.051104072 0.04399156
000330 eb 3e 02 bd 96 c2 94 3d 62 69 64 3d 98 94 48 bb
       -0.031798285 0.07263677 0.055764563 -0.0030606147
000340 45 5a bf bd 85 f9 6a 3d 9c 12 3f 3d 8e f2 2e 3d
       -0.093433894 0.057366867 0.046648607 0.042711787
000350 fb 4e 92 bd 5b 53 8b 3d 77 28 37 bd 8b 19 bc bc
       -0.071439706 0.06803008 -0.044716325 -0.022961399
000360 43 ed 11 bc c1 f1 0f 3d 16 52 15 bd 16 a0 ce 3c
       -0.008906665 0.035142664 -0.036455236 0.02522282
000370 35 09 25 3d 13 2c 34 3d 49 e6 a1 3d 3e fb e3 3d
       0.040291984 0.043987345 0.079052515 0.11131905
000380 b9 c2 6a bc d4 b3 aa bd c7 6f 1f 3d 9a 51 7a bd
       -0.014328652 -0.08335081 0.03892496 -0.061112978
000390 3c b5 97 3c a7 99 dd bc 99 e9 9a bd c3 15 40 bc
       0.018519036 -0.027050806 -0.075640865 -0.011723938
0003a0 ba 3c b1 bd 5d 71 64 bc 77 9e 18 bc 7b 53 bf 3c
       -0.08654161 -0.013943044 -0.009315125 0.023355236
0003b0 3d f5 d3 bc e8 86 81 3d fd 96 3a 3d c0 26 4c 3c
       -0.025873775 0.063245595 0.04555415 0.012460411
0003c0 0d f6 a6 bd ed d3 ab 3d 5c 48 a9 bc 8e 59 4e bc
       -0.08152399 0.08390031 -0.020664386 -0.012594594
0003d0 f9 8d 90 3d b7 45 a7 3c b1 72 2c bc fb 6c 96 3d
       0.07058329 0.020418985 -0.010525391 0.07345005
0003e0 95 fd d0 bd d8 b8 bd bc 46 ef a8 bd 3c fc a9 3d
       -0.10204617 -0.02315943 -0.08248763 0.08300063
0003f0 07 5d 88 bd a0 5a 94 3c 25 d7 85 3d 55 3e 32 3d
       -0.066583686 0.01810962 0.06535176 0.043516476

mlp.2.bias f4 [100]
000000 a8 a6 b8 3c 83 82 e8 3d ac 8e 26 bd ab c0 b4 3d
       0.022540405 0.11353018 -0.040663406 0.08825811
000010 f8 59 7e 3d cb 5d 52 3d b1 88 52 3d 55 9d 25 bd
       0.06209752 0.05135898 0.05139989 -0.040433247
000020 38 ca 4c bc ec 32 63 3d b5 f8 7e bb 7e ea a7 bd
       -0.012499385 0.055468485 -0.0038905565 -0.08199023
000030 6f d8 cb bd 43 8c 3f 3b e0 0c 76 bd 27 cb 23 3e
       -0.09953391 0.002922789 -0.060070872 0.15995465
000040 a5 04 df bb 8e fc 9e bd 48 9e b4 3b 41 93 d9 3c
       -0.0068059736 -0.07763015 0.0055120327 0.026559474
000050 68 6e 6a 3d 13 f2 7f bc 64 24 13 3d 29 6e 88 bb
       0.057234198 -0.01562168 0.035923377 -0.0041635227
000060 c1 60 b9 3c c8 41 a5 bb 91 43 64 3d e5 6f 8c 3d
       0.022629144 -0.005043242 0.0557285 0.0685728
000070 95 5d 75 bd f1 46 dd bc c6 09 21 3d fd 1e 0d 3c
       -0.0599037 -0.027011367 0.03931596 0.008613345
000080 a1 7a dd bd 96 b6 a7 3c 00 33 e0 bc f6 f2 4b 3d
       -0.10814405 0.020472806 -0.027368069 0.049792252
000090 f4 fe c3 bc da 67 24 bc cc 5a 1f 3d 54 c3 e3 3c
       -0.023925282 -0.010034526 0.03890495 0.0278031
0000a0 3b ea 1a bc 67 25 29 3d f5 7f 00 3d dd 17 28 bd
       -0.009455259 0.041295435 0.03137203 -0.041038383
0000b0 f1 10 53 3c 5a 00 a2 bd a6 a1 ca bb 6b 86 34 3d
       0.012882457 -0.07910223 -0.006183821 0.044073503
0000c0 16 85 6b 3d a6 46 59 3d f9 f8 16 bd cf 5c 4c 3c
       0.057499968 0.05304589 -0.036858533 0.012473299
0000d0 49 20 ab 3c 1a f9 74 bc db 91 c0 3b b2 52 01 3d
       0.020889418 -0.014951969 0.0058767623 0.031573005
0000e0 4d 85 c8 bd c2 54 f3 3d 29 0c bb bc 0c fc 91 bd
       -0.0979105 0.11881401 -0.022832947 -0.07128152
0000f0 75 27 b7 bd 4a bf 49 bd f4 b9 08 3d 08 2a e6 3b
       -0.08943073 -0.049254693 0.033380464 0.0070240535
000100 de ff 76 bd 9b aa e2 bc 67 b8 88 bd c5 2e ae bc
       -0.060302608 -0.027669242 -0.06675797 -0.021262536
000110 6e f8 ca 3d bd d3 88 3c 06 95 e6 bc e4 a3 ad bc
       0.099106655 0.016702527 -0.028147232 -0.021196313
000120 44 d9 af bc 5c 93 1b 3d 10 d3 ae 3c bd 46 b2 bd
       -0.021465905 0.03798233 0.021340877 -0.087048985
000130 67 2a 95 bc 0f 82 aa bd f1 c8 8a 3d e1 f8 e8 3c
       -0.018208696 -0.08325588 0.06776608 0.028438987
000140 97 26 0f bd 78 ea 2c bd 01 b3 09 bd 9b cd 62 bc
       -0.03494891 -0.042215794 -0.033617977 -0.0138429655
000150 f2 1c eb bc f3 e2 24 3d d3 b4 e2 3c 8e 2d fc 3c
       -0.028700326 0.0402555 0.027674114 0.03078344
000160 1a 53 83 bc ca 01 64 bc 5d e3 28 bc a4 14 f6 ba
       -0.016030837 -0.013916442 -0.010308114 -0.0018774462
000170 ec 00 06 bd e3 45 ca bd d0 6c 02 3d 18 05 ae bc
       -0.032715723 -0.09876611 0.031842053 -0.021242663
000180 15 ae 5d bc fe 97 cd 3c d0 45 d5 3a 27 16 77 bd
       -0.013530274 0.02509689 0.0016271416 -0.06032386

mlp.4.weight f4 [100, 100]
000000 cd 25 73 3c 32 b9 83 3d f8 a7 65 bd a2 97 60 ba
       0.014840555 0.064318076 -0.05606839 -0.0008567517
000010 03 06 67 3d ba 57 4b 3d f5 aa b7 3b e8 72 c9 bd
       0.056402218 0.04964421 0.0056050965 -0.0983637
000020 cf 5c 6f 3d 39 c1 5f 3d e4 9c 4d bd cb a4 8c bd
       0.05843812 0.05462763 -0.05019845 -0.06867369
000030 ce e4 55 3c 32 37 33 bd 9e d4 af bc d8 25 a8 bd
       0.01305504 -0.04375381 -0.021463688 -0.08210343
000040 d6 2a b8 bc 52 c7 43 3d c9 45 21 3c cd 26 00 3d
       -0.022481363 0.04779751 0.009843298 0.031287003
000050 9c 7b b0 3b 2c 2e c9 bd ec 07 34 3d 0c 28 90 bd
       0.005385829 -0.0982326 0.043952867 -0.07038888
000060 33 42 e6 3c 20 07 62 bc fb 62 7b bd 4f cb a0 3d
       0.028107738 -0.013795644 -0.061373692 0.07851278
000070 4a 42 a3 bc 99 73 0c 3c cc 16 1a 3d 45 8e 65 3b
       -0.01992907 0.0085724825 0.037619397 0.0035027426
000080 cd d7 c5 3d 01 ff 93 bd 3a 37 b9 3d b6 6e 9c bc
       0.09660301 -0.072263725 0.09043737 -0.01909576
000090 8d 1f 5a 3d 89 e1 b6 bd 4c f8 0b bb 77 e3 87 bd
       0.053252745 -0.08929736 -0.0021357713 -0.06635182
0000a0 ad 7b ca 3d f5 72 9a bc cc e9 44 bd c5 f4 f3 bc
       0.098868705 -0.018853644 -0.04807453 -0.029779801
0000b0 23 3b e8 bc 42 cd e4 bc 33 bc f4 bc d9 4c b2 3c
       -0.028348511 -0.027929906 -0.029874897 0.02176516
0000c0 fb 85 2b 3b 06 86 31 bd d2 43 8c 3d 26 b7 0c bd
       0.0026172388 -0.043340705 0.06848873 -0.03435435
0000d0 75 80 ab 3d fb a9 02 3c c3 f0 94 3b ce cd 07 3d
       0.083741106 0.007975097 0.0045453026 0.033155255
0000e0 0f 58 e1 bc 25 67 40 bd 71 5d 9a 3c 33 97 82 3a
       -0.02750781 -0.046973366 0.018843384 0.0009963274
0000f0 7c 08 96 3d 7f 17 a0 3d 39 0e c0 bb 20 7a 8d bd
       0.07325837 0.078169815 -0.0058610705 -0.06908059
000100 ee 84 ad bc ab cf 8b 3c e7 96 b3 3c b1 0c 9c bd
       -0.02118155 0.017066797 0.021922542 -0.07619608
000110 64 e1 a6 3d f4 d2 7b 3c 9a ae 31 bd ae 00 5d bd
       0.081484586 0.015370119 -0.043379404 -0.053955726
000120 7f f1 b4 3d 45 eb 4f bd 17 5f 52 3c c2 a6 8e bd
       0.08835124 -0.05076148 0.012840054 -0.069654
000130 68 f6 9a 3d 85 b5 08 bd 9f 85 06 bc 88 01 7c bd
       0.075665295 -0.033376236 -0.008210569 -0.061524898
000140 be 3d 96 bd 33 32 c9 3d 0c 83 20 bc 28 dc 89 bd
       -0.07335995 0.09824028 -0.009796869 -0.067314446
000150 86 0e 0d 3d fb 76 82 3d 84 72 49 bc 8f 08 c3 3d
       0.03443768 0.0637035 -0.012295369 0.09523117
000160 68 f6 59 3d 37 04 c9 bb ec e9 80 3c cb d2 65 3d
       0.053213507 -0.0061345357 0.015736543 0.05610923
000170 a5 a0 69 bd 55 04 3d 3d 57 b7 43 bd ba 9c 27 3d
       -0.05703797 0.04614671 -0.04778227 0.04092095
000180 57 22 95 bd db 79 5a 3c 58 f4 eb 3c bc 12 a3 bd
       -0.072819404 0.013334717 0.028803036 -0.07962558
000190 9a 0e 6a bd ae d8 60 bd 6b ab 5a 3d 85 96 b6 3b
       -0.05714283 -0.05489414 0.053386133 0.0055721425
0001a0 cc c8 25 3d b4 4b b6 bc a1 da 98 3d 3c d4 72 bd
       0.040474698 -0.022252895 0.07463575 -0.059284434
0001b0 9c 95 04 be 89 08 b1 3d 11 d0 1a 3d 70 8d c4 3d
       -0.12947696 0.08644206 0.037796084 0.095972896
0001c0 43 d3 69 3d 8a b1 87 bd d0 6f 3c 3d 44 b8 a2 3b
       0.05708624 -0.0662566 0.04600507 0.004965814
0001d0 c9 32 a4 3b 62 46 87 3d e9 65 dd bc 69 e6 e3 bc
       0.005010937 0.06605221 -0.027026134 -0.027819829
0001e0 d7 e3 0d 3d 19 c2 82 3d d6 58 a3 bd 1d 38 fc bd
       0.034641113 0.063846774 -0.079759285 -0.1231539
0001f0 69 d3 cb bd aa b3 32 bb 06 24 90 3c b5 5a bb 3a
       -0.09952433 -0.0027267733 0.017595302 0.0014294
000200 11 6d 5f 3d a1 f5 a2 3b c6 12 91 3d c2 65 df bc
       0.054547373 0.004973129 0.07083659 -0.027270202
000210 03 40 a2 bd b5 55 86 bb f6 a3 bd 3d 82 78 c0 3c
       -0.079223655 -0.0040995725 0.09259789 0.023494963
000220 f8 b5 ae bd c5 8b c0 3d d6 56 37 bd 52 68 c7 bd
       -0.085308015 0.09401659 -0.044760548 -0.097366944
000230 83 f3 80 3b 44 3e d3 3d f1 c6 1e bc 42 f7 68 3d
       0.003935279 0.103146106 -0.009690986 0.05687643
000240 8d fb 92 bd 61 bc 72 3a 2c f7 13 bd 59 af 70 3d
       -0.07176886 0.0009259638 -0.036124393 0.058760975
000250 85 96 26 3d a7 dd 68 bd 4e 50 38 3d f0 db ce bd
       0.04067089 -0.05685201 0.04499846 -0.101005435
000260 38 0a 6c 3d fe 0b 27 bd 0f d2 b6 bb 14 50 c7 3b
       0.057626933 -0.04078292 -0.00557924 0.006082544
000270 29 e0 b3 bd d8 ac e8 3d d1 06 20 bd 88 f0 7c bd
       -0.087829895 0.11361092 -0.039069 -0.061752826
000280 9d 33 71 bb bd 6a 12 bd 6a 1d ec bc 56 bb 12 bd
       -0.0036804446 -0.035746325 -0.02882262 -0.03582319
000290 2a de 27 3d d3 23 32 bd 7c 67 2e bd fb 51 49 3b
       0.040983357 -0.043491196 -0.04257916 0.003071903
0002a0 2a 67 7b 3c 63 f9 d0 bd aa bf 9d bd 26 bf 83 bd
       0.01534442 -0.10203817 -0.07702573 -0.06432943
0002b0 6b e5 ba 3d ca a5 81 bc 33 1f 5b 3d b6 94 0d bb
       0.09125789 -0.015826125 0.05349655 -0.0021603531
0002c0 97 25 83 3c 61 24 52 3d 88 09 19 bd 67 dd 8c 3c
       0.016009135 0.051304225 -0.037362605 0.017195417
0002d0 48 85 68 3c 6e 69 86 3d 10 3e a0 bd d7 53 a1 bd
       0.014191933 0.06563078 -0.078243375 -0.07877319
0002e0 51 f6 98 bd 0b 9f be 3b a3 fb 9d 3c 6b 86 03 3e
       -0.07468856 0.0058172992 0.019285029 0.12844245
0002f0 e3 37 92 3c 19 3e 20 bd c1 a9 96 3d 30 63 ac 3d
       0.017848914 -0.03912172 0.07356597 0.08417356
000300 fc 71 83 3d d3 98 95 3a 12 cc a0 bd de d4 c7 3d
       0.06418225 0.0011413343 -0.07851423 0.09757398
000310 a7 1a a0 3d b2 b1 d6 bb 2e c5 12 3d 84 fe fe ba
       0.078175835 -0.0065519447 0.035832576 -0.0019454514
000320 e3 de f5 bc 84 9e 96 3d 7b 87 00 be 08 98 84 bd
       -0.030013507 0.07354453 -0.12551682 -0.0647431
000330 57 6a 94 3c eb cd 74 3c 2c 7c 68 3d 95 e6 43 3d
       0.018117113 0.014941673 0.056759045 0.047827322
000340 8a b1 4b 3d 8e 3c 03 bb 2f de 8d 3d 30 94 d7 bb
       0.04972986 -0.0020025107 0.06927144 -0.0065789446
000350 1d cd b9 3d bb 7c 83 bd 37 f2 9e 3c af 71 1a 3d
       0.090723254 -0.06420275 0.019402606 0.037706073
000360 e9 a0 d7 3c 04 5b 73 bc 66 e6 5d 3d 12 c2 23 3d
       0.026321845 -0.014853243 0.054174803 0.03998
000370 c4 77 cc 3c db 21 87 bd e5 0a f5 bc 0d 12 fe 3c
       0.024959452 -0.06598254 -0.029912421 0.031014467
000380 e4 e7 09 bd f6 72 b5 3d b5 5f 9d 3c 8d fe 2a bd
       -0.033668414 0.08859818 0.019210676 -0.041746665
000390 ff 25 cf 3d d5 94 d1 3c 20 2a 4b 3c 41 e0 a8 3d
       0.10114669 0.025583664 0.01240018 0.08245898
0003a0 36 1d 57 bd 2e 27 b6 3d a2 15 be bc a7 d7 e0 3d
       -0.052518092 0.08894192 -0.023203675 0.109786324
0003b0 be 4c 9b bd 92 43 c8 3d ff 7a ae 3c 85 35 8f bd
       -0.07582997 0.09778513 0.021298883 -0.0699263
0003c0 43 21 d0 3c cf 57 a4 3d ff 9f d0 bc 9b 12 8a bd
       0.025406485 0.08024561 -0.025466917 -0.0674183
0003d0 2a 45 dd bd b8 e4 26 38 8f 47 39 bd 94 00 29 3d
       -0.108042076 3.9790495e-05 -0.04523426 0.041260317
0003e0 5d 16 8c bc c5 8a 9b bd 29 25 c3 bd 1c be 76 3d
       -0.017100507 -0.075948276 -0.09528572 0.060239896
0003f0 2e 4a a2 bd 2e ed d0 3d c4 2c c2 bd 68 cb cc 3d
       -0.07924305 0.102014884 -0.094811946 0.09999734

mlp.4.bias f4 [100]
000000 bc 7a 04 bd 93 18 30 3d cc d0 6f 3d b0 b8 8f 3d
       -0.03234361 0.042992186 0.058548734 0.07017648
000010 13 38 4e 3d 55 99 70 3d c6 03 24 bd 3a 16 c2 bb
       0.050346445 0.05873998 -0.04004266 -0.00592306
000020 c2 f3 ac 3b d1 85 ab 3d d5 d8 f2 bc d1 6e 89 3d
       0.0052780816 0.08375133 -0.02964441 0.0671059
000030 3a d5 83 3d 6b 54 9f bd 43 76 85 3d 03 dd 35 bd
       0.06437154 -0.07779773 0.06516697 -0.044400226
000040 bd 51 0e 3d a8 6c 7f 3d 19 d1 70 bc 6c 95 07 3c
       0.03474592 0.062359482 -0.01469829 0.008275371
000050 82 8d 03 3d 65 e8 51 bd 58 9f 45 3d 94 66 fd bc
       0.032117374 -0.05124702 0.048247665 -0.030932702
000060 12 e8 37 3d 17 d9 de 3d f8 22 47 bd 6b b7 cb bd
       0.044899054 0.1088125 -0.048617333 -0.099470936
000070 81 b1 c2 3c 03 14 75 bd 55 ca 03 3d ab f2 bf bd
       0.023766281 -0.059833538 0.03217538 -0.09372457
000080 66 fd e2 3d 12 08 bb 3d c3 6c 7e 3d 99 bf 28 bc
       0.11083488 0.09132399 0.062115442 -0.010299587
000090 93 05 9d bc 87 d6 c0 bd db 71 9f 3b 60 1a 15 bd
       -0.019167697 -0.09415918 0.0048658676 -0.036402106
0000a0 51 53 8d bc 3e 0a 19 3d f7 db b5 bc 4b 1b b1 bb
       -0.017251642 0.037363283 -0.022199614 -0.005404865
0000b0 a3 b9 7f bd f6 98 54 3c 5a 4d a3 bd a6 ca d1 3c
       -0.062432896 0.012975922 -0.07973738 0.025609326
0000c0 de 12 0a bd 03 00 a1 3a fa b9 8a 3b 3b 84 52 bd
       -0.0337094 0.0012283329 0.004233596 -0.051395636
0000d0 7d ff c8 3d 16 7f 6c bc 7c 39 99 bc 38 8f 2a bc
       0.098143555 -0.0144345965 -0.018704168 -0.010410123
0000e0 01 31 cc 3c 41 69 ef bc 73 ab d1 3c b1 69 3a bd
       0.02492571 -0.029224994 0.025594449 -0.04551095
0000f0 b4 6a 10 3d 06 c8 c4 3d 10 57 fe 3c c6 4f a0 bd
       0.03525801 0.09608464 0.031047374 -0.078277156
000100 cb d8 3d 3d 5a 2d 03 3c 2d 40 20 bc 6d 18 cb 3d
       0.046349328 0.008006418 -0.009780926 0.09916768
000110 23 8e a5 3d cf 1f 8f 3d f2 d8 3c 3d 6c 9f d7 bd
       0.08083751 0.06988489 0.046105333 -0.10528454
000120 20 a5 1e 3e b6 0f c7 3d 0a 92 1a 3d 4b 7d 93 bd
       0.15492678 0.097197935 0.03773693 -0.07201632
000130 67 d1 19 3d 48 e1 b5 bd 46 75 c6 bd 08 9d 21 bd
       0.037553217 -0.088808596 -0.09690337 -0.039456397
000140 2f 29 b2 3d 26 b6 80 bd 55 39 f1 bc c7 e1 7f 3d
       0.086992614 -0.06284742 -0.029446283 0.062471177
000150 c3 29 05 3d b2 21 e9 3c 8b 09 d8 3c c7 96 c1 bb
       0.03251053 0.02845845 0.026371738 -0.0059078666
000160 c4 cd 41 3d 88 65 2d 3c e4 34 8c bd fa 17 88 3d
       0.047315374 0.010583289 -0.068460256 0.06645198
000170 ff a7 aa b8 e8 37 43 3d 80 f7 1c 3d 7d cd f7 3d
       -8.1375234e-05 0.04766074 0.038321972 0.12099741
000180 c2 61 79 3d dd 5f ad bd 06 54 9b bc fc 44 f7 3b
       0.060884245 -0.0846555 -0.018960964 0.0075460654

mlp.6.weight f4 [1, 100]
000000 01 a6 0a be 40 c0 23 3e 5d c4 31 3e bb 1c 59 3e
       -0.13539888 0.15991306 0.17360063 0.21202366
000010 ae f6 85 3e dd eb 7d be 91 21 a4 bd e2 e9 ad 3d
       0.26164764 -0.24797006 -0.08014215 0.08491875
000020 42 df 99 bd 6a 00 57 be b4 2d bc be 40 db 70 bf
       -0.07513286 -0.20996252 -0.3675362 -0.9408455
000030 b8 6c 2a bf 29 fe 2e bd da 05 1e 3e 49 de c3 3c
       -0.6657214 -0.042722855 0.1543192 0.023909705
000040 ee 9b 63 3e de 14 0c bd 1a 0b 89 3e 2d 59 ae bd
       0.22227451 -0.034199588 0.26766282 -0.08513103
000050 ab 2e 77 3c 94 41 3b be fd b2 99 3d fc 07 55 be
       0.01508681 -0.18286735 0.075048424 -0.20803827
000060 23 2c 29 bf d9 27 6b 3e e1 d2 a3 3e 6f 62 33 be
       -0.6608297 0.2296442 0.31996825 -0.17518018
000070 cd f6 49 3d 90 46 1c be fa 9f 78 be ca 36 d3 3c
       0.049307633 -0.15261292 -0.24279776 0.025782961
000080 b9 fd 1c 3e ec cc b1 3e 2b ae f4 3d 2d 93 b8 3d
       0.15331163 0.34726655 0.119472824 0.090124466
000090 c4 58 a8 be 92 08 55 bd 12 07 c0 3d 4a 77 3b bd
       -0.32880223 -0.052010126 0.093763486 -0.04576806
0000a0 00 19 b4 3d 45 31 5b 3e e1 7d 26 be 15 97 c7 be
       0.08793831 0.21405514 -0.16258956 -0.38982454
0000b0 03 a7 b1 3d 2a 07 ee bd a2 f3 cb bd 5e ba 3b bb
       0.08674433 -0.1162246 -0.09958579 -0.002864502
0000c0 31 ca 66 be 5d ab 01 bd c3 67 82 3e a4 29 9e 3c
       -0.22538067 -0.031657565 0.2546979 0.019306965
0000d0 ef ac 41 3e de 9a 0e 3e 35 2c 36 be c8 ec 42 bd
       0.18913625 0.13926265 -0.17790301 -0.047589093
0000e0 12 49 45 be 92 80 c5 bd 3a 36 34 bf d0 1d 01 be
       -0.19266155 -0.096436635 -0.70395243 -0.12609029
0000f0 22 46 0e 3e 18 fe b3 3e ce a2 3d be 5d 92 fc 3c
       0.13893941 0.35154796 -0.18519136 0.03083151
000100 3c f3 94 be ff 43 9a be 41 38 b8 be 90 c2 ac 3e
       -0.29091823 -0.30130002 -0.35980418 0.3374219
000110 2e f0 a2 3e 62 00 5a be 52 58 6f 3e 0e f3 91 3d
       0.31823868 -0.21289209 0.23373535 0.07126437
000120 79 6e bf 3e b4 bc 35 3e 5b a5 07 bd b4 83 fe bd
       0.3738897 0.17747766 -0.03311668 -0.12427464
000130 94 13 7a 3e e5 39 2e 3d 43 92 d3 bc ad e3 2e be
       0.24421531 0.04253568 -0.025826579 -0.17079039
000140 13 24 a5 be 79 f8 98 bd a5 29 ac 3e b0 a9 30 be
       -0.32254085 -0.074692674 0.33625522 -0.1725223
000150 02 70 6a be 73 08 b0 3e 3d e4 c1 3d 48 c7 e8 3c
       -0.2289429 0.34381446 0.09467361 0.028415337
000160 b6 4f 25 3e 91 c1 7e 3c 16 a0 94 3e 3a 79 07 3e
       0.16143689 0.0155490795 0.29028386 0.13229838
000170 f5 57 de bd 08 61 ea 3d 56 ba 15 be a0 a2 89 3e
       -0.1085662 0.114442885 -0.14621863 0.26881886
000180 10 1c 81 3e 09 2f 36 bc 25 e0 aa bd ec 5d 84 bd
       0.25216722 -0.0111196125 -0.083435334 -0.06463227

lstm.weight_ih_l0 f4 [200, 13]
000000 8c 23 43 3d 16 46 05 bc 71 35 f9 bb 70 7c 06 be
       0.047641322 -0.008134386 -0.0076052477 -0.13133407
000010 95 b5 8e 3d 99 ab 1c 3d 2f cc 74 bd 33 94 89 be
       0.06968228 0.038249586 -0.059765037 -0.2687088
000020 1a 4e 76 3d 95 28 ef bd ab e1 d5 3c 3f aa 97 3c
       0.060133077 -0.11677662 0.026108583 0.018513797
000030 7c 16 44 bd 9b 57 c0 3d 3a 59 1b 3d ad 62 d8 3d
       -0.047873005 0.093917094 0.03792689 0.10565696
000040 b7 5f cd bd 82 55 e0 bd 96 1a a6 3d 42 a2 84 3d
       -0.10028022 -0.10953809 0.081105396 0.06476261
000050 cc 26 24 3e 43 e0 8c 3d ce 20 01 be e5 c3 0f 3e
       0.16030425 0.06878712 -0.1261017 0.14039572
000060 f9 53 30 be 55 9e 5a 3d e6 52 8c bc bf ff 11 be
       -0.17219533 0.053373653 -0.017129373 -0.14257716
000070 73 0c c9 3d 04 0b 96 3d 9b 97 3f bd 0e 9c 08 3e
       0.098168276 0.0732632 -0.04677544 0.1334078
000080 22 db 93 3e ff 5f ba 3e f5 45 0c 3d 9e 18 8e be
       0.28878123 0.36401364 0.034246404 -0.27753156
000090 d4 6f ef 3d 3a df 9d be 4b c1 5a 3d 91 e4 48 3e
       0.116912514 -0.3083437 0.053406995 0.19618441
0000a0 cf f0 ff 3c e9 2c 3a bc a8 a1 21 bd 4e 67 dc 3d
       0.031242756 -0.0113632465 -0.039460808 0.10761891
0000b0 44 3b 19 bd b1 5a 12 bd 4e f1 21 be c0 0a 76 3d
       -0.037410036 -0.03573102 -0.15814707 0.060068846
0000c0 ce 21 bc 3d 39 01 c8 3d c0 87 1d be 6a b9 c7 3d
       0.09186135 0.09765858 -0.15383816 0.09752162
0000d0 00 e5 59 3e 50 5f e6 bd 71 6c 7c 3c be d5 09 3e
       0.21278763 -0.11248648 0.015406714 0.13460442
0000e0 df 79 02 3e 4e c4 0c be 00 c1 1a bd ed 11 f7 ba
       0.12741803 -0.1374676 -0.037781715 -0.0018849947
0000f0 f1 1e 1a be 1f 2c 02 be b4 c6 32 bd b3 31 b4 3c
       -0.15050866 -0.12712143 -0.04364653 0.021996355
000100 28 1e 5c bd 44 92 d7 3d 59 fa 02 3e 8d 90 61 3d
       -0.053739697 0.10525945 0.12790813 0.055069495
000110 df eb ad 3d 02 d2 2d 3d a5 a6 ac bd 13 7b c7 3d
       0.084922545 0.042436607 -0.084302224 0.097402714
000120 65 7a ad bd c6 13 f4 bc 6a ab 38 3e b4 4f db bd
       -0.084706105 -0.029794585 0.1803414 -0.107085615
000130 26 45 10 be 89 e2 14 3e c3 ec 07 3d c4 5c 27 bd
       -0.14088878 0.14539541 0.033184778 -0.040859953
000140 1a 1f 9a bd 3c 5a fa 3d 4f a5 e3 3d 0e d3 c2 bd
       -0.075254634 0.12224242 0.111155145 -0.09512912
000150 c3 56 40 bc be 69 07 be bb 31 2b 3d 96 34 5f 3e
       -0.011739436 -0.13223931 0.041795474 0.21797404
000160 84 2d bd 3d 15 85 10 3e f5 19 08 3d a5 fd c8 bc
       0.09237197 0.14113267 0.03322788 -0.02453501
000170 8e cf 68 3d d8 a7 92 3d 4a 32 b4 bd 37 bc fa 3d
       0.056838565 0.0716092 -0.087986544 0.122429304
000180 2f b7 2f bd 14 6d e7 3d 73 4a f7 bd 23 ca 1e 3d
       -0.042899307 0.11300102 -0.12074747 0.03876699
000190 dd 92 9c 3b 39 82 d5 3d 33 5a ad 3d 8a f9 f6 bd
       0.0047782497 0.104252286 0.0846447 -0.120593145
0001a0 d8 47 59 3d bb 8b 61 bd 0b 6a f6 bd 1f da c9 bd
       0.05304703 -0.055064898 -0.12031945 -0.098560564
0001b0 3b ec f7 bd 0d 4c 9c bd 94 de db 3d 24 0d a3 bb
       -0.12105604 -0.07631693 0.10735813 -0.0049759317
0001c0 f2 8c 1d 3e d3 e3 a3 3d 0d 7a a2 3c 4e 99 4a 3e
       0.15385798 0.080024384 0.019833589 0.19785044
0001d0 15 90 b6 bd 18 81 14 3e fc 5e 0d bd f2 c4 46 3d
       -0.089142 0.1450237 -0.034514412 0.048527665
0001e0 4d da 9e bd 6f 0d 03 bd ba a3 07 3e df 45 e2 3d
       -0.07756481 -0.031995233 0.1324605 0.11048483
0001f0 58 d0 72 bd 1f 68 40 be b6 47 ca 3d c0 28 e5 bd
       -0.059280723 -0.18789719 0.09876959 -0.11189413
000200 f5 38 14 be 8e d4 79 3d 2f 6f 18 bd b6 de a8 3d
       -0.14474852 0.060993724 -0.037215408 0.08245604
000210 f5 d2 fa bc f4 94 df bd 33 ae 62 3a 72 8a d6 bc
       -0.03061817 -0.109170824 0.00086471735 -0.026189063
000220 b3 bf 34 bd ec 68 a5 3d 61 37 8f ba 88 c2 bb bd
       -0.04412813 0.08076653 -0.0010926538 -0.09167963
000230 31 b5 ff bd bd f8 30 3e 74 48 e2 3d d0 84 4e 3e
       -0.124857314 0.17282386 0.110489756 0.20167851
000240 07 e1 9d 3d 7a 82 9c 3d a9 48 03 3e d8 c6 5b bc
       0.07708936 0.07642074 0.12820686 -0.013414107
000250 16 d0 96 bc 59 7d 39 3d da 9e fc 3d 29 07 c0 3d
       -0.01840977 0.045285556 0.12334986 0.09376366
000260 1f 82 c3 3d 4a ad 9f bc fb d9 f0 bb 2e e5 84 3d
       0.09546303 -0.01949181 -0.007350204 0.06489025
000270 c4 f3 25 3e b9 b4 a3 3d 0f 8f 8a bc 99 c5 af 3d
       0.1620627 0.079934545 -0.016913919 0.08582611
000280 42 0d e6 3d d1 ef 08 be 8d 46 ff b9 a8 ea 6f 3d
       0.112329975 -0.13372733 -0.00048689955 0.058573395
000290 a4 ca 42 3d 05 c0 89 3c 8d 88 a9 bd 7f 33 2c bd
       0.047556534 0.016815195 -0.08277998 -0.042041298
0002a0 6c 93 af 3c 92 81 aa 3e 9d a3 33 3d 6a 1e 09 3e
       0.0214326 0.3330198 0.043857206 0.13390508
0002b0 29 0f 8f bd d5 a1 2c bd 2c 32 10 3c 74 9f 3c 3d
       -0.069853134 -0.042146523 0.008801024 0.046050504
0002c0 7c aa 16 3e 76 f5 d8 3d 97 d2 61 bd 65 6d 3e bd
       0.14713472 0.10593693 -0.055132475 -0.046491046
0002d0 92 0e e0 3d 7e 5a 90 3c fe 32 43 3d 9d 3e 59 bc
       0.10940279 0.017621275 0.04765605 -0.013259557
0002e0 83 03 a8 3d a2 c3 04 be c6 a4 e8 3d 7f 73 db bd
       0.08203795 -0.12965253 0.11359553 -0.107153885
0002f0 5d 0c 17 3e c4 96 57 3c 59 07 1c be 3c d7 7b bd
       0.1475081 0.013158504 -0.15237178 -0.06148456
000300 21 83 1e 3d 76 58 92 3d d3 5e c8 bd cf ac 02 3e
       0.038699273 0.07145779 -0.09783711 0.12761234
000310 6c cc fe bd ba 44 bd 3d 56 e1 8b 3c 87 a3 2f bd
       -0.12441334 0.09241624 0.017075222 -0.04288056
000320 f7 3f 00 be 73 ee a2 3c bb d0 f3 3c 55 b2 fb 3d
       -0.125244 0.019889092 0.029762616 0.122898735
000330 70 a9 ce bd 0d 06 04 be cf 67 36 bd 9d c9 1a bd
       -0.100909114 -0.12892933 -0.044532593 -0.03778993
000340 09 5b 7d 3e 37 86 ae 3d 02 4c ff bc cc 8b 0c 3c
       0.24741758 0.08521693 -0.031164173 0.008578252
000350 b5 70 a8 bd d9 18 eb bd b0 eb a4 bd e0 4a ae bd
       -0.08224622 -0.11479349 -0.08052766 -0.08510375
000360 6f 19 e1 3d 56 b7 fc bb f9 a9 45 bd 87 56 cd 3d
       0.10991179 -0.007712285 -0.0482578 0.100262694
000370 33 90 97 bc b8 67 5e 3e 3b 75 00 3e 3a ad c0 bc
       -0.018501377 0.21719253 0.1254472 -0.0235201
000380 94 20 be 3d f1 08 5d 3d 90 d2 f5 bd 53 bc ef 3d
       0.092835575 0.053963605 -0.12003052 0.11705842
000390 5a 68 1b bb d0 35 12 be 15 96 d0 bc d6 2e 4d bd
       -0.0023713321 -0.1427834 -0.02546219 -0.050093494
0003a0 c4 33 aa bd c3 f5 09 3e 67 66 c9 3d 0d 32 f7 bd
       -0.08310655 0.13472657 0.09833985 -0.12070093
0003b0 ea 75 d5 bd 19 45 bc 3d 7e 71 67 3d b0 27 b8 bd
       -0.10422881 0.09192867 0.05650472 -0.08991945
0003c0 35 a1 5f 3e 69 02 df bd 85 e4 0b 3e 63 62 80 bd
       0.2183884 -0.108891316 0.13661392 -0.06268766
0003d0 49 c1 62 bd 7d 08 50 3d a4 01 8e bd da 2e b3 3d
       -0.055360112 0.050789345 -0.06933907 0.087491706
0003e0 ae 05 3e 3d ff 93 0b 3e f1 c6 e9 3c 96 06 d3 bc
       0.046392135 0.13630675 0.028537245 -0.025759976
0003f0 81 6c 18 3d d7 41 ee 3d bc 07 a9 bd 72 ab cc 3c
       0.037212852 0.11633652 -0.08253428 0.024984095

lstm.weight_hh_l0 f4 [200, 50]
000000 4a d7 f7 3c ba 29 ba 3d d5 8b a0 bd 2e f7 8d bd
       0.030254025 0.0908999 -0.07839171 -0.069319114
000010 44 a0 95 3c 97 f6 b2 3d c1 f8 04 be de c0 0b 3e
       0.018264897 0.087384395 -0.12985517 0.13647792
000020 e6 96 80 3c 0a 9e 10 be e5 ed 39 bd a6 c2 bc 3d
       0.015696954 -0.14122787 -0.04539289 0.09216814
000030 d1 8d 5e bc 67 23 8a 3a 63 66 af bd ad 02 80 3d
       -0.013583616 0.0010539115 -0.085644506 0.0625051
000040 1e 2e 04 3e 7a 9a f7 bb d6 f0 83 bd 74 37 45 3d
       0.12908217 -0.007556257 -0.0644242 0.048148587
000050 38 a8 a2 bd b7 d1 ad bd 50 4b 3d 3d 57 d5 f9 bd
       -0.079422414 -0.084872656 0.0462144 -0.121988945
000060 41 a1 5a 3d 28 7d 92 bc ae ac 2c 3d 4f 82 11 be
       0.05337644 -0.017881945 0.042156868 -0.14209865
000070 28 16 00 be 30 f2 a4 bd d4 38 35 bc be a0 6d 3d
       -0.12508452 -0.08054006 -0.011060912 0.058014624
000080 4c 96 1e 3c e6 ef 11 3d 0b 83 f7 bd 93 1d af bd
       0.009679388 0.035629176 -0.12085541 -0.08550563
000090 14 a7 18 bd 8a 86 cd 3d dc 71 ab 3d b0 54 e0 bd
       -0.037268713 0.10035427 0.08371326 -0.10953653
0000a0 18 9a e9 bd c4 da 76 3d 28 3d 32 bd 5e 83 a0 bd
       -0.11406344 0.060267225 -0.043515354 -0.07837556
0000b0 38 04 77 3d 12 7a 96 bc 94 1c 03 bd c4 3a f5 bd
       0.060306758 -0.018368755 -0.032009676 -0.11974099
0000c0 66 22 01 be f0 af b9 3c 7e 04 c6 bc c8 79 f4 bd
       -0.12610778 0.022666901 -0.024172064 -0.119372904
0000d0 80 6b 91 bd b8 90 00 3e 07 cb 0b 3e 04 a4 0b 3e
       -0.07100582 0.12555206 0.13651668 0.13636786
0000e0 dd 65 ca 3c 97 52 51 3c bc cc 8a bc f9 db c1 3d
       0.024706775 0.012776039 -0.016943328 0.094657846
0000f0 31 51 ff bd 30 58 09 bd e2 24 db bd bd 3e 45 3a
       -0.12466658 -0.033531368 -0.10700394 0.00075243023
000100 97 62 a1 bc 75 ea 1c bd 1c ae 3a 3c 7a ae c9 3d
       -0.019700332 -0.038309533 0.01139405 0.09847732
000110 cd 9a a2 3d 7f 17 2a 3d cf 99 f8 3c 56 53 99 3d
       0.07939682 0.041526314 0.03034678 0.07486598
000120 da 47 80 3c 90 49 ff bd 19 26 a5 bd d8 41 91 3c
       0.015659261 -0.12465203 -0.08063907 0.017731592
000130 84 a9 c0 bc e4 d1 47 bc c6 c2 c6 3d 53 86 99 bd
       -0.023518331 -0.012196038 0.09705119 -0.074963234
000140 9b 3e cb 3d 1a 25 09 3d 19 eb 86 bd 17 62 41 bd
       0.099240504 0.03348265 -0.0658781 -0.047212686
000150 a5 90 0a be e2 ea e0 3d 6e 57 1d 3d 98 fb 10 3e
       -0.1353174 0.109823 0.038413458 0.14158475
000160 dd 03 0b be d1 20 a0 3d ae e3 e1 bc d4 44 ab bc
       -0.13575692 0.07818759 -0.027574386 -0.020906843
000170 25 62 a9 bd 95 78 05 be 92 81 a7 bd 51 f5 15 bd
       -0.08270673 -0.1303428 -0.081790105 -0.036610905
000180 21 6d 30 3d 14 43 26 3d d8 4e 39 bd 83 b9 2f 3d
       0.043072823 0.040591314 -0.045241207 0.042901527
000190 49 37 c8 3d a4 e6 2b 3b 12 13 17 3e 55 16 bd 3c
       0.0977617 0.0026230002 0.14753368 0.023081938
0001a0 71 79 91 bd 79 a3 01 bd ee 06 6b bd 95 3f 56 3d
       -0.07103241 -0.03165004 -0.057379656 0.05230673
0001b0 5c d2 d2 bc 15 8d a2 3d 94 c3 de bc b9 07 dd 3d
       -0.025735073 0.079370655 -0.027192868 0.107924886
0001c0 57 f3 9b 3c 76 2c 3c bc cb 82 3b bd ee df aa 3c
       0.019036932 -0.01148521 -0.04577903 0.020858731
0001d0 73 79 92 3c 11 22 fc bc 9d 2a 0c be 6f 0c be bd
       0.017880177 -0.030777963 -0.1368813 -0.09279715
0001e0 d4 ec eb bd 66 b9 9d bd 3b f8 3f be 26 46 53 3d
       -0.11519781 -0.077013776 -0.18747036 0.05158057
0001f0 df ff 63 bd e3 0c 48 3d bd 47 47 bc 61 e0 ad 3d
       -0.05566394 0.048840415 -0.0121631 0.084900625
000200 b4 ca fc 3d bb 44 b6 bb 6a 18 ae bd 2e 84 29 be
       0.1234335 -0.0055623925 -0.0850075 -0.16554329
000210 82 83 b2 bd 1b 28 1f 3e 3c 35 7c bd 29 49 63 bd
       -0.087164894 0.15542643 -0.061574206 -0.055489693
000220 4b 92 0f be 2e eb 7a 3d b2 85 2a 3c 11 d8 b4 3d
       -0.1402065 0.06125944 0.010407852 0.08830274
000230 cf 1e 03 be 19 9c 32 be 79 ad 97 3d ee 32 90 3c
       -0.12804721 -0.17442359 0.07406134 0.01760241
000240 4a a3 e1 bd 3d 40 d3 3d c2 46 da 3c 7e 8f 2a bd
       -0.11017473 0.10314987 0.026645068 -0.04164075
000250 83 71 91 3d 58 34 ae 3b 88 45 b9 3c 5e ba 75 bd
       0.07101729 0.0053162985 0.022616163 -0.059992187
000260 76 5b bf bd c8 8c a6 bd ea bf ec 3d 06 1c cc bd
       -0.09343617 -0.08132321 0.11560042 -0.099662825
000270 27 e3 8d bd 52 43 81 3d 90 51 43 bd b0 a7 4b bd
       -0.069280915 0.063116685 -0.047685206 -0.049720466
000280 b5 f3 70 3d 21 2c b4 3d 03 3f 45 3d f4 15 34 be
       0.058826167 0.087974794 0.048155796 -0.175865
000290 2d c8 66 bd 8d 64 a3 bc 45 ec 12 bd 89 14 05 be
       -0.056343246 -0.019945407 -0.035869855 -0.12996115
0002a0 93 a7 b1 3c f1 c4 25 be 48 db ac bc 35 ef a4 bd
       0.02168635 -0.16188408 -0.021100655 -0.080534376
0002b0 e5 20 4d bd 4b 9d 2a bd 21 a3 c5 bd d9 9c 9e bd
       -0.0500802 -0.041653913 -0.09650255 -0.0774476
0002c0 bb 4a b9 3d ce b7 21 3c 78 19 19 3d 94 19 89 bc
       0.09047457 0.009870483 0.037377805 -0.01673583
0002d0 76 8b f9 bd 22 f0 b2 bd da 57 d4 bc 18 2f 53 bd
       -0.12184803 -0.08737208 -0.025920797 -0.051558584
0002e0 99 2b a3 3d 48 4a ab 3b bb 44 4e 3d 92 f1 06 3e
       0.079673 0.005227361 0.050358515 0.1317809
0002f0 00 25 ac bd 6d 0d 79 3d 14 e2 f7 3d bf 23 d4 bc
       -0.08405495 0.06080382 0.12103668 -0.025895951
000300 e6 49 af 3c f1 2d ca 3d 21 5d 02 be 88 42 fe bd
       0.021397542 0.09872044 -0.12730838 -0.124150336
000310 b4 65 84 bd 6f 3f cc 3c bb 62 fc bd 5f 13 b1 bd
       -0.06464711 0.024932591 -0.12323519 -0.08646273
000320 d3 6e 0a 3e 2b 91 b8 38 02 d7 fa 3d 81 96 f0 bc
       0.13518839 8.800843e-05 0.12248041 -0.02936864
000330 32 61 b6 3d 3e df 1b bc f8 ef 9e bd b8 80 45 bd
       0.08905257 -0.009513674 -0.07760614 -0.04821846
000340 a0 4a a5 3d 68 f3 0c be 73 02 e6 3d bc 50 82 3d
       0.08070874 -0.13764727 0.11230936 0.06363055
000350 a4 72 f4 bd 31 89 63 3d a0 a0 17 be f9 63 0d 3d
       -0.119359285 0.055550758 -0.14807367 0.03451917
000360 34 e0 67 3d c6 e3 cf 3d 21 a7 2f bc d2 ed f6 3d
       0.0566103 0.10150866 -0.010720999 0.120570794
000370 6f f6 62 bd 8b d8 b5 bd c9 aa b8 bb 74 24 d1 3d
       -0.0554108 -0.08879193 -0.0056355936 0.10212031
000380 50 44 0f 3e 05 cb 13 3e be e7 b6 bb 65 ec 11 3e
       0.13990903 0.14432915 -0.005581825 0.14250334
000390 88 a6 74 3d ed af e5 bd 92 4c 44 3d 9b 1e fa 3d
       0.05972913 -0.11215196 0.047924586 0.12212869
0003a0 b7 5f 8a 3c 6b b7 b4 3d af 4c 09 be db ac e8 bd
       0.016891344 0.08824047 -0.13408159 -0.113610946
0003b0 12 d1 41 bd 52 68 ad bd 80 d2 02 3e 6b 1d c6 3d
       -0.047318526 -0.08467163 0.12775612 0.0967358
0003c0 63 b8 8e bd 51 a8 55 bc d0 45 4b 3c fe 80 ee 3d
       -0.06968763 -0.013040618 0.012406781 0.11645697
0003d0 21 64 06 bd 4c 89 98 3c 8b c3 47 bb 59 a3 88 bd
       -0.032810334 0.018620156 -0.0030481543 -0.06671781
0003e0 ea 37 f1 3d a0 1a b9 3c c3 c2 52 3d eb 10 ad 3d
       0.11778243 0.022595704 0.05145527 0.084504925
0003f0 ab 60 f3 bd b2 e9 3c bd 1a 94 c5 bd 20 f8 04 be
       -0.11883672 -0.046121307 -0.09647389 -0.12985277
