crowd_nav/data/output/lstm-mamba-5humans-new/il_model.pth (torch, 393198 bytes, 20 tensors)

mlp1.0.weight f4 [150, 13]
00000000: d814 0e3d d0c0 773e cfad 22be fcfb 5dbe
00000010: b0ff 803c 7b67 84be 8bb7 02bb f93c 73be
00000020: fb46 2cbe 343a cdbd 3b68 83be 172b 76be
00000030: 9a0b 3dbe a45c 843d c8f7 c23d c966 5c3e
00000040: 1807 1fbe 4020 77be 11e8 243e 660e 8e3e
00000050: 3fbf 653e 00d1 ca3e f9e3 4c3e 7b65 c2bd
00000060: b5a2 1c3e 1d38 66be 3c64 87be b9de 78be
00000070: c3cb 22be 5a4a 413e d2e2 973d a901 f0bd
00000080: 6cac 3b3e eab9 403e 4dca 3cbd 259b 09be
00000090: 67f9 b83d 8c9d 81be a65c 70be 04f6 39be
000000a0: 793f 343e 1c2d 193e ed1d 283e 3832 75be
000000b0: d5b5 ea3d b3ea 82be a2b8 8c3e d069 7ebe
000000c0: 425d 193e 6a53 5dbe e9cb 0bbb 5f8f 4ebe
000000d0: 0e32 06be a90a 07be abb7 6b3e 1585 5c3e
000000e0: 6ebf 853d 28d5 6c3e c527 5fbc 9164 1ebd
000000f0: fa53 0d3e a559 6c3c eaa3 903c f895 133e
00000100: ff03 ae3c ac7f 303e a819 57be 84dc 35be
00000110: 8626 623c 3ad5 d93c 3564 8cbd 3293 6b3e
00000120: cd70 303c ecd0 2f3e 6cee 813d 9ea1 ae3d
00000130: 5fb4 86be 1637 27be 813f e2bb 2ac2 183e
00000140: b6fa 81be 5832 4cbe df3f 1abc 542b 2dbe
00000150: 707c 64be f163 e13c 5a7c 113d 24fe b93c
00000160: e070 2c3d fb3a 7f3d 5498 42be 9df5 2e3b
00000170: 43e0 4c3e 417c 0b3e 7453 77bd 35b1 c23d
00000180: cfe6 bcbd bd2f 1d3e cb67 d6bd d98d 373d
00000190: fb06 93bd fd8d 0f3e 2bd0 243e 9aa5 5f3d
000001a0: cd6f cabd 88f4 35bc dc74 24be 8907 63be
000001b0: 1e22 66be 4356 5abe b9ff 8d3c 3c99 2c3d
000001c0: 7821 a93d 3298 083e cc64 c1bd ce50 24be
000001d0: f2c4 953c 6ddf 51be 9f8d 343d 7579 06bd
000001e0: ce10 6cbe a149 1e3e edd4 553d 792b 4c3e
000001f0: 8ce3 ac3d 8682 3cbe 16fd a2bb c9fa d93d
00000200: 11b6 dbbd 160d 2fbe dfe8 4f3c 7947 65be
00000210: 2090 4b3e 3c1d 42be b933 23be 2431 4b3e
00000220: 153e 01be 4e1a cbbd 07ce 013e c7e6 2bbe
00000230: ea46 8dbe ed5d 88be 84b1 8dbe f30e 6bbe
00000240: 59a5 f3bc 7ad2 15be 41a5 fb3b a757 64be
00000250: 9cb4 513e af43 90bc 2c22 7cbe ed69 70be
00000260: 30ee 6ebe a632 8bbe 2f69 25be a0f7 6ebe
00000270: 3d75 a53d 2576 a93b 5485 ad3d 827e 64be
00000280: 9dc6 803e 1a78 14bd a7df 493e d811 7cbd
00000290: bc87 483e f64f 2dbd 89ca 6c3e ebfa b7bd
000002a0: 1af2 2e3d 352a 5fbc e89c c43d 1d22 553d
000002b0: 5aa9 1fbe 44f3 b3bd 8bcf 98be e808 903d
000002c0: 3f86 85be 5acd c4ba 6f85 883e 50b2 15be
000002d0: bf6e 8f3e 7784 e2bd 4481 1c3c d2d2 2b3d
000002e0: de69 0d3e aa58 adbd 777f 253e f5fa ba3d
000002f0: dc1d 6abe c5d6 16be 2383 12bb 944c 76be
00000300: 7515 7e3d 779f 8b3e 594a 37be dabe 843d
00000310: 7179 c73d 32b9 09be ac11 2cbe afd2 6cbe
00000320: a401 a7bd 912d d13d 152b 1bbe f4fb ab3e
00000330: 6070 d0be 2dd1 983d ffce 76bd b674 363e
00000340: 8e61 ecbd 850b a13d acd6 1c3e 73d0 74be
00000350: 7d05 7fbc e775 6fbe 557b 00bd 9b97 2bbd
00000360: b633 70bd aa3f f73d 80f2 81be e5b9 e53b
00000370: 0f8c 70be 9016 003e 9074 11be 0f38 6dbe
00000380: d23e 77be c60a 243e af6b c3be aa97 00be
00000390: af5f dabc ddcf 72be d28b 3ebd 9214 6fbe
000003a0: 2491 683d fb7f 54bd b288 6ebd ad4b c93c
000003b0: a66a 2dbe a14b 10bb 5f87 3d3e 79ee 86be
000003c0: 7980 3c3d 4946 a23e ea8a 123e d844 8f3d
000003d0: 102f 4cbd 70ff 883e 86d4 ddbd 4011 41bc
000003e0: 9ff8 013e c33c 843e 6b62 533d 099f a23d
000003f0: f4f4 acbe e84a 6abe 682f 3d3d dfd3 83be
0.034687847 0.24194646 -0.15886615 -0.21678156 0.015746921 -0.258602 -0.0019945826 -0.23753728
-0.16823952 -0.10020867 -0.2566546 -0.24039875 -0.18461457 0.06462982 0.09519917 0.21523584
-0.1553005 -0.24133396 0.16104151 0.2774536 0.22436236 0.3961258 0.2000884 -0.09492012
0.15296443 -0.22482343 -0.2644366 -0.24303712 -0.15898041 0.18876019 0.074163094 -0.11719067
0.18327492 0.1882092 -0.046091367 -0.13438089 0.09031945 -0.2531551 -0.23472843 -0.18160254
0.17602338 0.14958614 0.16417666 -0.23944938 0.11460463 -0.25569686 0.27484614 -0.24845052
0.14976981 -0.21613851 -0.0021331257 -0.20171879 -0.13105032 -0.1318766 0.23019283 0.21535142
0.06530653 0.23128188 -0.013620322 -0.038670126 0.13801566 0.01442567 0.017656285 0.14412677
0.02124214 0.17236203 -0.21005881 -0.17759901 0.01380313 0.026590932 -0.068550505 0.2300537
0.010769081 0.17169541 0.063443035 0.0852692 -0.26309487 -0.16329607 -0.006904543 0.14917818
-0.2538659 -0.1994108 -0.009414642 -0.1691106 -0.22313094 0.027513476 0.03551898 0.022704192
0.042099833 0.062312108 -0.19003421 0.002669669 0.20007424 0.13621618 -0.06038232 0.09506456
-0.09223711 0.15350242 -0.10469016 0.04481301 -0.07179066 0.14019008 0.16095035 0.05460129
-0.098846056 -0.011105664 -0.16060203 -0.22170843 -0.22473952 -0.21321969 0.017333852 0.042138323
0.08258337 0.13339308 -0.094430536 -0.1604645 0.018282387 -0.20495386 0.044080373 -0.032830674
-0.23053285 0.15457775 0.052205015 0.19938459 0.084418386 -0.18409166 -0.004974018 0.106435366
-0.10728086 -0.17094836 0.012689798 -0.22390546 0.19879198 -0.18956465 -0.159377 0.19842964
-0.12621339 -0.099171266 0.1267625 -0.16787253 -0.27593166 -0.2663416 -0.27674496 -0.22954921
-0.02974193 -0.14631072 0.007679612 -0.22299062 0.20479053 -0.017610399 -0.2462241 -0.23477907
-0.23333049 -0.2718708 -0.16153406 -0.23336649 0.08079002 0.0051715546 0.08472696 -0.22313884
0.2515153 -0.03624735 0.19714223 -0.061540455 0.19583029 -0.042312585 0.23124136 -0.08983406
0.042711355 -0.013620903 0.0960024 0.052034486 -0.15591946 -0.087866336 -0.29845843 0.07032949
-0.26078984 -0.0015014813 0.26664302 -0.14618802 0.2801418 -0.11060422 0.009552304 0.0419491
0.13809916 -0.08464177 0.16161905 0.091298975 -0.22862953 -0.14730366 -0.0022355996 -0.2405265
0.06203218 0.272701 -0.17899455 0.064817145 0.0973996 -0.13449553 -0.16803616 -0.23127244
-0.0815461 0.10213769 -0.15153153 0.33590662 -0.40710735 0.07461772 -0.060256 0.17817959
-0.115420446 0.07863525 0.15316266 -0.23907642 -0.015565273 -0.2338482 -0.03136762 -0.04189263
-0.058643065 0.1207269 -0.25380325 0.0070106857 -0.23490928 0.12508607 -0.14204621 -0.23165916
-0.24145058 0.16019735 -0.38168094 -0.12557855 -0.026656954 -0.23712106 -0.04652006 -0.2334769
0.056779042 -0.051879864 -0.05823583 0.024572218 -0.16935214 -0.0022017735 0.18508671 -0.26353815
0.04602096 0.31694248 0.14310804 0.06995553 -0.04984957 0.26757383 -0.10831551 -0.011783898
0.12692498 0.25827608 0.05160753 0.0794049 -0.33780634 -0.22880137 0.04618779 -0.25747582

mlp1.0.bias f4 [150]
00000000: 95eb 933d 6c23 7bbe 8e45 17be 48eb 543d
00000010: cded 04be 8e1f 383d 3d98 f83d 4364 48be
00000020: f3d8 6bbe 1522 61be a220 df3d c9b1 17bd
00000030: 2dfa 8fbe b5c8 5ebe 3e55 2abe 7cf1 3c3e
00000040: fb39 5b3e 9a18 9cbe 0d52 a33d 3eb2 98be
00000050: b68b a03d c130 b53c ced7 84be c261 723d
00000060: 1c78 0f3e e493 20bd 9e88 89be 90b5 c53c
00000070: 845b 92be 57e9 01be 210e e13d 6911 7ebe
00000080: d35c 35be 26c6 4b3e 22b7 a03d f303 aebd
00000090: f516 84be 0f77 53be beac a53d 53ca 1fbd
000000a0: 82b0 1dbe 5798 d0bc bf65 21be f76a 69be
000000b0: 4112 8cbe 9ae9 bd3d b77f 883e 55c6 653e
000000c0: e593 36bd 8543 103e addd 5dbe cd0a 34bd
000000d0: 8a85 1d3e 2467 fabd 0c32 a73d 9d7f 6dbd
000000e0: e5bb 78be dde6 6b3e 0081 60be 3593 6dbe
000000f0: adb8 803e 625c 3e3e 7d63 3fbe 6185 0bbe
00000100: 717d 973d 6a73 d13d 0dd9 283e 3317 25be
00000110: 8ea3 69be 08bd 41be 7578 dfbd 065b 56be
00000120: 88bb 34be 07e5 9d3d ed05 613d 6780 7b3e
00000130: 8859 5dbe f69a afba 6725 fa3d b764 0d3e
00000140: ef3c 9cbc b49a 2cbe 7e77 3b3c 8101 683d
00000150: b40b 7abe 17ee dc3d 8193 6fbe 9368 093e
00000160: 4ff9 063e d840 403e a3bf c73d 8fe5 1a3c
00000170: a3ee febc bdc9 59be c930 21be 3e3c 50be
00000180: da25 88bd 1761 003e d12a c8bd 257e d3bc
00000190: 8110 c73d 8c5d 9fbd c184 3b3e e69e 983c
000001a0: c45a 7e3e 816c cf3d 81d6 16be dc2f 813d
000001b0: bd0f 21be c69d 5fbe 7ac4 2abe 6792 143e
000001c0: 3744 333e 4bb6 843e db57 333e ec5d 4abe
000001d0: 92e9 853e e881 d83b 196a d6bd a8ec 113e
000001e0: 2ecf acbc 56a8 1e3e 2a08 2cbe de6b 7dbe
000001f0: 3831 003c 05f0 293c 1d81 0fbe 810e 87bd
00000200: 58dd 35bd 43e9 1ebc b343 223e 9ef6 953d
00000210: d2ed 34be 7cfe 3fbd 5a7b 0d3e 4b7d 00be
00000220: e970 203e 5e3d 46be f392 6dbe e858 443e
00000230: 56b7 5fbe 70a0 973c ccd6 68be fcce fb3d
00000240: bdb6 513e 65f5 9b3d 3a94 3fbe 531e 91bc
00000250: c72d 11be 0aeb 03be
0.07222668 -0.24525231 -0.14772627 0.051982194 -0.12981339 0.044951968 0.12138412 -0.19569497
-0.23031978 -0.21985658 0.10894896 -0.037034784 -0.28120556 -0.21756251 -0.1663408 0.18451494
0.21408837 -0.3048752 0.07974634 -0.29823488 0.07839148 0.022117974 -0.25945896 0.05917526
0.14010662 -0.03920354 -0.26862043 0.024134427 -0.28585446 -0.12686668 0.10989023 -0.24811329
-0.17711191 0.19899806 0.0784743 -0.08496847 -0.25798765 -0.20650886 0.080895886 -0.03901131
-0.15399364 -0.025463266 -0.1576147 -0.2279471 -0.27357677 0.092730716 0.2665994 0.22438939
-0.044574637 0.14088257 -0.21666594 -0.043955613 0.15382972 -0.12226704 0.081638426 -0.05798303
-0.24290426 0.23037286 -0.2192421 -0.23200686 0.25140896 0.18589929 -0.18690296 -0.13625099
0.07396973 0.102270916 0.16489048 -0.16122131 -0.22816297 -0.18919766 -0.10911647 -0.2093316
-0.17649662 0.07709699 0.054937292 0.245607 -0.21616185 -0.0013397622 0.12214165 0.13807951
-0.019072024 -0.1685589 0.011442063 0.05664206 -0.24418527 0.107875995 -0.23396112 0.13418798
0.13181041 0.18774736 0.09753349 0.009454145 -0.03111965 -0.21268363 -0.15741266 -0.2033548
-0.066478446 0.12537037 -0.097737916 -0.025816986 0.09719945 -0.077815145 0.1831236 0.018630456
0.24839312 0.10128117 -0.14730264 0.063079566 -0.1572866 -0.2183753 -0.16676512 0.14508973
0.1750649 0.25920328 0.17513983 -0.19762391 0.26154763 0.006607283 -0.10469455 0.14250433
-0.021094885 0.15493903 -0.1679999 -0.2474818 0.007824235 0.0103721665 -0.14014097 -0.06594563
-0.044400543 -0.009699169 0.15846138 0.07322429 -0.17668846 -0.046873555 0.13816586 -0.12547795
0.15668072 -0.19359347 -0.23200588 0.1917454 -0.21847281 0.01850912 -0.22738189 0.122953385
0.20479865 0.07615165 -0.18708888 -0.017714655 -0.14177619 -0.12882629

mlp1.2.weight f4 [100, 150]
00000000: eae5 563c a285 683d aa34 fd3c a969 123d
00000010: 4ecb 0c3d 6f47 b5bc 70f9 82bd e7b3 313d
00000020: 1454 b5bc da63 2ebd 4e25 743c a46c 7e3d
00000030: 7fc6 6b3c 9638 75bd f59f 9dbd be43 363d
00000040: e461 813d 3ac6 8cbc ff8b 6e3d 52b1 82bd
00000050: 155e aabc 0316 5b3d b8f1 03bd 1a67 c3bb
00000060: c3b1 47bd 4957 ef3c 2e47 b0bc f4ee 1a3d
00000070: ba19 c23c c813 ad3d d61e 7d3d 2995 3e3d
00000080: 1f78 dcbc acc4 0f3d a623 863d 6db6 9e3d
00000090: 60a3 96bd 454e 8c3d ed86 50bd a7f2 aabc
000000a0: 9556 12b9 75ea 9b3d 3367 a93b d0f3 f43c
000000b0: 5823 c3bc 8324 48bd 98e1 68bd 5fae 843d
000000c0: 6811 91bd 0c3b b4bc 68b2 923d ea9c 3dbd
000000d0: 4467 88bc b148 0cbd 8f0f 48bd 8c91 44bd
000000e0: 2497 7abc 2f4c aebc b758 133d 4ff9 533d
000000f0: 0b87 59bb b15f a03d b0dd 773d e536 98bd
00000100: d8c0 a1bd b352 55bd b56a e7ba 766c d03c
00000110: 20e1 65bd 73ec 8dbd b3e3 85bd 500e 01bc
00000120: 2954 46bd 613d 6fbd 6b39 20bc 53de 903d
00000130: 9ff5 6a3d ad43 a83d af23 99bc 9bf5 0cbd
00000140: aeda d9bc ec57 8ebd d21b 53bd 63ac 753d
00000150: e194 9bbd 5fc2 74bd e02f 2bbd b00a 1d3d
00000160: 4cb2 9b3d 657f 0bbd e491 f0bb ae77 6d3d
00000170: e96b 473c bba2 56bd 4623 263c 7478 88bc
00000180: 9452 9bbd ee02 90bd 67ed 8c3d 6374 eabb
00000190: 2929 9abd f41f 70bd f36f f6bc e087 6ebd
000001a0: 2905 7cbd a20a 3ebd aecc 5fbd d484 aabd
000001b0: 2558 49bd a099 9b3d c642 5a3d d0bf 15bd
000001c0: 1335 92bd e1e5 1f3d 147d 34bd f135 bd3c
000001d0: 9f90 b83b ad7d a33d b385 55bd cc5d 81bd
000001e0: d765 513d 5c01 aebc b909 2e3b 98f6 65bd
000001f0: 0e6a 8b3d fc82 a83c cacf 13bd bb9d 693c
00000200: 9f5e a2bd dd71 523d cf1b bcbc a83d 75bd
00000210: 0b20 69bd db39 193d 33af 89bd 5e2d 94bc
00000220: 39f7 b7bb e3ce 88bc eb29 beba f8a3 56bd
00000230: 98fc d6bc 61a4 64bd 262f 063d b990 23bd
00000240: 5e04 67bd ef1e 7dbd f176 6f3d 70c5 4b3c
00000250: 3b9a 19bc 30f8 bbbc 36d9 a3bd 1f4f 323e
00000260: 4ffb 51bd 659c d9bc 1e3c a63c 0153 1d3d
00000270: f366 b8bd 70bf a83c 33e7 e53b b2fc 053b
00000280: 05d5 49bd 3b42 563c 583e 39bd 3713 3fbd
00000290: ce10 ec3c e9a2 1f3d f989 703d ec45 9cbd
000002a0: 045e a1bc fb9f 1b3d 477a 8cbc 151f d7bc
000002b0: b482 633c 0de3 a13d 8a96 2dbc e27b 28bd
000002c0: 5714 57bd 7839 913c 97f9 edbc 2fdf 95bd
000002d0: 5b5a 673c 4acf 13bd af36 8dbd 300e d8bb
000002e0: 9245 963d 627a 80bd b888 003d d98d b6bd
000002f0: 4742 46bd 3566 8f3d 18f1 2a3d d3f8 7e3d
00000300: 6775 d73d 0766 aa3d d10a 9dbc 9b5c 223e
00000310: a34e e73b 1c4e da3c fc67 91bd efde f0bd
00000320: 1a6d 85bd cb40 60bd 7584 623d 13f7 61bd
00000330: 56df 98bb f724 5b3d af41 0cbe 4d68 553d
00000340: fa02 18be fff4 0a3c e803 453d 7b2d c73d
00000350: 9809 ff3c 7519 86bd 8989 db3d 8126 29bd
00000360: 3f29 b3bc 8bdd d33c 6945 833d a425 933d
00000370: 819b f53a c0ae 95bd 50d5 e1bd 558d 21bd
00000380: 0e86 1bbc ab94 e93a 0244 c7bd 5a42 02bd
00000390: d4a0 95bc fea0 f0bc 7255 6e3d 1761 77bd
000003a0: 9280 8a3c 4602 163d f373 57bc ed94 4b3d
000003b0: 9d1f 593d 2208 24bd 877a 913d 9efc 1d3c
000003c0: 007c 473d e2b3 4e3d 9689 c93c 0980 f23a
000003d0: 716c 88bd b3f3 09bd 49f5 bd3b 0ec9 983d
000003e0: b9d3 8dbc 6431 36bc fcc9 563c ec4d 1e3e
000003f0: 9a2a 4b3d b283 77bd 3bf8 15bc 6f0f e6bc
0.013116339 0.056768067 0.030908901 0.035745297 0.034373574 -0.022128789 -0.06395233 0.04338446
-0.022134818 -0.042575695 0.014901472 0.062115327 0.014390587 -0.059868418 -0.07696525 0.044498198
0.06317499 -0.017184366 0.05823898 -0.063814774 -0.020796815 0.05348779 -0.032212943 -0.0059632184
-0.04875351 0.029216425 -0.021518316 0.03782554 0.023693908 0.084510386 0.061796986 0.04652897
-0.026912747 0.03509967 0.06549768 0.07749639 -0.0735538 0.06850866 -0.050909925 -0.020867659
-0.000139559 0.076130785 0.005169773 0.029901415 -0.023820564 -0.048862945 -0.056855768 0.06478571
-0.07083398 -0.022000812 0.071629345 -0.046292223 -0.016650803 -0.03424901 -0.048842963 -0.047990367
-0.015294824 -0.021276562 0.035973277 0.05175143 -0.0033192064 0.07830752 0.060514152 -0.07432345
-0.0789811 -0.05208082 -0.0017655703 0.025442343 -0.0561229 -0.06929865 -0.06537571 -0.0078769475
-0.048420105 -0.058408145 -0.0097793145 0.07073655 0.05736315 0.08216033 -0.018693773 -0.034413915
-0.026593532 -0.069503635 -0.051540203 0.059978854 -0.07596756 -0.05975568 -0.041793704 0.03834027
0.07602367 -0.03405704 -0.0073416103 0.057975464 0.012171724 -0.052401286 0.010140246 -0.016658999
-0.0758411 -0.07031809 0.068812184 -0.0071549877 -0.07527382 -0.058624223 -0.030082678 -0.05823505
-0.06152836 -0.04639686 -0.054638557 -0.08326116 -0.049156327 0.07597661 0.053286336 -0.03655988
-0.07139029 0.03903759 -0.044064596 0.02309701 0.0056324746 0.07982955 -0.05212946 -0.063167185
0.051122513 -0.021240883 0.0026556088 -0.056143373 0.06807338 0.02057027 -0.036086835 0.014258797
-0.07928204 0.05137812 -0.022962479 -0.059873253 -0.056915324 0.03740869 -0.0672287 -0.018088039
-0.005614188 -0.016700214 -0.0014508342 -0.052402467 -0.026243493 -0.055820826 0.032759808 -0.03993294
-0.05640065 -0.06179708 0.05846304 0.0124372095 -0.00937515 -0.022945493 -0.08000414 0.17412995
-0.051265057 -0.026563833 0.020292338 0.038409237 -0.09004011 0.020599097 0.0070160865 0.0020444808
-0.049275417 0.013077314 -0.04522547 -0.046649184 0.028816607 0.038973723 0.05872533 -0.07630524
-0.01969815 0.037994366 -0.01714815 -0.026259938 0.0138861425 0.079046346 -0.010594973 -0.04113377
-0.052509632 0.017727599 -0.029049678 -0.073179595 0.0141206635 -0.036086358 -0.06895196 -0.006593488
0.07337488 -0.06273343 0.031380385 -0.08913774 -0.04840305 0.07001916 0.04173383 0.062249016
0.105204396 0.083202414 -0.019170197 0.15855639 0.007058935 0.026648574 -0.070999116 -0.11761271
-0.0651495 -0.05474929 0.055302102 -0.05516727 -0.0046652956 0.05350205 -0.13696931 0.052101422
-0.14844885 0.008481263 0.04809943 0.097254716 0.031132504 -0.06547824 0.10719592 -0.041296486
-0.021870254 0.025862476 0.06409723 0.07184914 0.001873836 -0.073087215 -0.11027014 -0.039441425
-0.00949241 0.0017820796 -0.09729768 -0.03180156 -0.018265165 -0.029373642 0.058186956 -0.060395326
0.01690701 0.036623262 -0.013150203 0.049702574 0.053008664 -0.04004682 0.07103448 0.009642748
0.04870224 0.05046452 0.024601739 0.0018501292 -0.066613086 -0.033679675 0.0057970625 0.07460223
-0.017312871 -0.011120174 0.01310968 0.15459412 0.049601175 -0.06042833 -0.009153421 -0.028083531

mlp1.2.bias f4 [100]
00000000: 63bc 3dbd e2be 7e38 88b9 21bd d18e 053d
00000010: 7b59 d13c b1ed 6ebd cc34 b639 1321 b3bc
00000020: 1a7e 7e3d c179 95bc b4ac 8fbd 0e83 d73d
00000030: 7073 b03d 2937 ac3d 3a28 ff3c ae02 0bbd
00000040: 8c8e ec3d 6091 2ebc 4884 4e3d a458 d83c
00000050: 5c7b 183d f9e9 ce3d 6c32 903d 566e c1bd
00000060: eaff a0bd 0a9d 513d 9624 853c 0850 d73b
00000070: e980 edba a4bb a33d b9bd af3b a133 8cbd
00000080: 8f11 a5bc 66d1 873d da0f 1bbd 11b4 97bc
00000090: fac0 84bd 09c6 34bd 82ed 77bd b8e8 4d3c
000000a0: a527 423d bced 9fbd 31e1 623d 7c51 3fbc
000000b0: 9d06 983b 0d13 873d c207 ebbc 17d8 6c3d
000000c0: 3877 debc 3732 8e3d a412 903c 6789 703c
000000d0: 7abf 95bd e793 463d 015a 13bd f821 afbc
000000e0: 66f8 583d d3f9 83bb 66ee 883d 7e94 0abd
000000f0: d15a 663b 159b 933d 612a a63d c104 013b
00000100: 0477 3ebd ea8b 1b3d 0901 5bbd 5bac db3d
00000110: af54 b33d da1f bb3d 8cb4 67bc 0e45 15bc
00000120: 4832 ae3c 1823 433d aa75 61bd ed0e 42bd
00000130: 2d6a 823d 7159 903c d28f d63c 9ebc 8f3d
00000140: 155a a4bd 6349 b63d 9aa0 543d 3338 633d
00000150: a49d 133d 60d1 ef3c 69ab 7ebd 9320 953d
00000160: 7315 a83d 00fb af3c a603 96bd eb4f 58bd
00000170: 5f0c 91bd 6eee 423c 6271 f4bc 2ea7 b7bc
00000180: 21b5 91bd e1cb e2bc 8b75 c0bb 67c3 0f3d
-0.046322238 6.0736093e-05 -0.039483577 0.032606903 0.025555363 -0.05833215 0.00034753082 -0.021866357
0.06213198 -0.018246533 -0.070153624 0.105230436 0.08615768 0.084089585 0.031147111 -0.033938102
0.11550626 -0.010654777 0.050419122 0.026409455 0.03722702 0.101032205 0.07040867 -0.09444873
-0.07861312 0.051175155 0.016252797 0.0065708198 -0.0018120083 0.07994774 0.005363193 -0.06845785
-0.020149974 0.066317365 -0.037856914 -0.01851848 -0.0648212 -0.044134174 -0.06052924 0.0125676915
0.04740109 -0.07809016 0.05539054 -0.011677142 0.0046394602 0.065954305 -0.028690223 0.057823267
-0.027156457 0.069431715 0.017587014 0.014681197 -0.07311912 0.048480894 -0.035974506 -0.021378502
0.052971266 -0.004027584 0.06686096 -0.03383302 0.0035149346 0.07207314 0.08113552 0.0019686671
-0.04650022 0.03797523 -0.053467784 0.107262336 0.087563865 0.091369346 -0.014142167 -0.009110702
0.02126421 0.04764089 -0.055043854 -0.047377516 0.06367908 0.017620774 0.026191626 0.07018398
-0.08024994 0.08900716 0.051910974 0.055473518 0.03603901 0.029274642 -0.06217519 0.07281604
0.08207216 0.02148199 -0.07324915 -0.05281059 -0.07082438 0.011897666 -0.029839221 -0.022418585
-0.07114626 -0.027685108 -0.005873387 0.03509846

mlp2.0.weight f4 [100, 100]
00000000: 072b 0c3d bb95 813c 934a 50bd c11a 3cbc
00000010: a46c ca3c 6af4 5fbc 6861 0dbd 707d 1c3c
00000020: ae27 823d e151 2a3d 5101 90bd ead6 55bb
00000030: e02c 64bd 4339 593d c53b acbd cf9d a239
00000040: 3f93 083d 7e4e 14bd 7f60 483d c915 b4bd
00000050: 4192 8ebd 5d80 453d 5904 e6bc 344a d0bb
00000060: 5b75 cbbd 55a2 0cbd b6a3 1f3c 5f75 8dbd
00000070: 85dc a0bd bd8f a9bd 4101 b43d cd29 503c
00000080: 4ac2 6a3d b5f7 993d f782 bdbb cb73 c53c
00000090: aa6b 6a3d 0c6a 0ebd 9a90 91bd 114e 863d
000000a0: 1049 8bbd 8dee 47bd 2ff6 9fbd c96a 57bd
000000b0: 4dba aa3c 4f40 34bb 00e7 35bd 9808 89bd
000000c0: 6399 bc3d 5c6f 443d b9d9 cfbd f76f 013d
000000d0: b7b3 223d 0222 c4bd 0651 af3c 5f40 9abc
000000e0: 75c1 b43d 396f 6f3d db3f ae3d da49 553c
000000f0: eef3 adbd 0238 52bd 493d 9abd ecf2 02bd
00000100: 7af7 92bc dddc 983c 4ad2 a53d 9be6 323d
00000110: 9619 183d f260 17bb 8ad5 903d aeed c5bd
00000120: 57d7 4c3d 1ebf 0bbd f336 9c3b 2ab6 8d3d
00000130: 407b 873d c6cb b33c fbc0 883d f06a 81bd
00000140: b889 95bd b639 05bb e0f4 233d aaf4 db3c
00000150: 72bd 8d3d 43c5 afbd d71f b83b fc6f 3c3d
00000160: eb84 86bd 16fa 803c d024 343d 6679 373d
00000170: e952 51bd c8a0 a3bd 7baf 943d 0ae2 3f3b
00000180: d97d b8bc 3c1d 83bd de69 57bb d135 303d
00000190: 559c ab3d 2c5f e3bd 9d18 5b3d 089c f8bc
000001a0: 5e4c acbc 305e adbd 62e7 c83d 7955 6a3d
000001b0: 39d4 e93c 47c0 5b3c 31fa f43c 54ed e03b
000001c0: 9f13 d4bd 286b b3bd 99cd 563d 0b06 c03d
000001d0: 8e63 ddbd 94dc b8bd 1e5e e2bc a2b9 f63d
000001e0: c246 ab3d ce91 febc 5389 963d 4bbb 4c3d
000001f0: bb0f 5b3d c623 a6bd 7201 95bd a17a 8bbd
00000200: f8be a53d 8f1a 8b3d 4b0c 6a3d b2d8 173d
00000210: 7a81 453d afa8 d23c e5b3 dbbd a4e1 573b
00000220: 8205 b23d 0af5 d5bc 608b c7bc 6eca 0cbd
00000230: fae5 a3bb fa77 30bd 87b4 9c3d a9ff 9b3d
00000240: 4c6c 9ebd 6bc4 b23d 6c41 bcbd 0859 b2bd
00000250: 2b4a 2c3d 965f 24be 24d0 893d 849e e7bc
00000260: e57e bd3d cd96 8d3d 9693 f63c d505 bfbc
00000270: f9b8 d9bc dd58 31bd 7b19 823d 6077 76bd
00000280: 1008 753d 7e4d a63c aa69 893d 8afb 653d
00000290: 001d 3f3d 69dd c63d 62fb 553c 1ccf a5bd
000002a0: ed2b d13d 26f6 2a3d a757 ebbd 6ecf 42bd
000002b0: 2fc4 ca3d 1aa8 94bd 79e1 143d aff8 f7bc
000002c0: e55c 24bd b411 d03d ae10 08bd d6b0 b1bc
000002d0: 2ecb cd3d 5736 b93d fe30 903d cb9e 173e
000002e0: e9d9 38bb 61b4 8cbd 610b e0bc 4c11 e73d
000002f0: bd61 bbbc 6166 a2bd e5b3 493d 595c 1bbd
00000300: 9af6 3c3d facd 4e3c 7e2e 383d 4568 a7bd
00000310: 1e3b 023e f001 823a 5498 f93d cc7f b0bd
00000320: 9597 2e3d 9b36 a5b9 f6e6 61bd 059f aa3d
00000330: bcc4 463c 061a 143b f744 9e3d e771 22bc
00000340: ec14 a6bd d418 2f3d cad1 43bc c152 033e
00000350: 5033 46bc 9019 65bd 0c76 96bd 4b2b b1bd
00000360: b721 c8bb 0480 62bd 688a 893d 03d0 823d
00000370: 6474 6cbc f88d 2abd 45ad 34bd 17b0 4f3c
00000380: 74af a6bd 59ef af3d 53c0 a73c 646a 4ebc
00000390: edc6 843c 5072 6bbd 4769 44bd 4486 84bd
000003a0: 2d1b 0b3d 8067 a03d 46d4 cabd 9b48 5abd
000003b0: 1ec7 aebc 8fe1 67bd d831 babd 0570 d4bc
000003c0: 0044 afbd 23a6 7bbd 2c7d ea3b 8d71 6abd
000003d0: 2b27 a7bd 9259 193d ccd1 3cbd c451 01bd
000003e0: 0852 6bbd f1d7 cabd 8aa7 0fbc 26bd a63d
000003f0: 7547 a73b faff aebc 4cd8 b93b 0f46 c13d
0.03422072 0.015818467 -0.05085237 -0.011480988 0.024710007 -0.013669113 -0.034516722 0.009551391
0.063552245 0.041581992 -0.07031501 -0.003262932 -0.05570686 0.053033125 -0.08409838 0.00031016624
0.03334355 -0.03620767 0.04892015 -0.08793218 -0.069614895 0.04821812 -0.028078245 -0.006356502
-0.09934493 -0.0343345 0.009743622 -0.069071524 -0.07854561 -0.08279369 0.08789302 0.012705279
0.057314195 0.075179495 -0.0057834345 0.024103066 0.057231583 -0.034769103 -0.07107659 0.06557859
-0.06801045 -0.048811484 -0.07810628 -0.052592073 0.020840788 -0.0027504151 -0.044409752 -0.06691092
0.09208944 0.047957763 -0.10148949 0.03160092 0.03972217 -0.09576799 0.02140094 -0.018829523
0.088259615 0.05845568 0.08508273 0.013018096 -0.084937915 -0.051322944 -0.075312205 -0.03196995
-0.017940272 0.018660003 0.0809675 0.043676954 0.037133776 -0.0023098555 0.07071979 -0.096644744
0.05001005 -0.03411781 0.0047672926 0.06919511 0.06615305 0.021947753 0.06677433 -0.06319225
-0.073016584 -0.0020328588 0.040028453 0.026850063 0.069208995 -0.085825466 0.00561903 0.046005234
-0.06568321 0.01574425 0.04398042 0.04479351 -0.05110446 -0.07989651 0.07260033 0.0029279017
-0.022520946 -0.064020604 -0.0032869498 0.043020073 0.08379427 -0.11102137 0.05349027 -0.030347839
-0.021032508 -0.084652305 0.09809758 0.05721042 0.028543578 0.013412542 0.029904457 0.006864229
-0.10355305 -0.08760673 0.052442167 0.093761526 -0.10810004 -0.09026447 -0.02763277 0.120471254
0.08363105 -0.031075384 0.07350411 0.049983304 0.0534818 -0.08112292 -0.07275666 -0.06810499
0.08093065 0.06792175 0.05714063 0.03707189 0.04821918 0.0257152 -0.107276715 0.0032940889
0.08692457 -0.02611782 -0.024358451 -0.03437274 -0.0050017806 -0.04308317 0.0765162 0.07617123
-0.077355 0.0872887 -0.09192166 -0.087083876 0.04206292 -0.16052088 0.06729153 -0.028273828
0.09252719 0.069135286 0.030099671 -0.02331821 -0.02657746 -0.043297637 0.06352516 -0.06017244
0.059822142 0.020300623 0.06709607 0.05614809 0.046658516 0.097101994 0.013060423 -0.080961436
0.10213456 0.04173865 -0.11491328 -0.0475611 0.099007 -0.07258625 0.03634784 -0.030269949
-0.040127654 0.101596266 -0.033219032 -0.021690767 0.10048519 0.09043568 0.070405945 0.14806668
-0.0028206056 -0.06870342 -0.027349176 0.11282596 -0.022873754 -0.079296835 0.049243826 -0.037929866
0.046133615 0.012622351 0.044966213 -0.08174185 0.12717864 0.000991879 0.121872574 -0.08618125
0.04262503 -0.00031511937 -0.055151902 0.08331112 0.012131866 0.002259852 0.07727998 -0.009914852
-0.08109459 0.042748287 -0.011951873 0.12824537 -0.012097195 -0.05593258 -0.073467344 -0.086508356
-0.0061075347 -0.055297866 0.06715852 0.06387331 -0.014432047 -0.0416393 -0.044110555 0.01267626
-0.08138934 0.08590574 0.02047745 -0.012598608 0.016208136 -0.057482064 -0.047951963 -0.06470922
0.033961464 0.07832241 -0.09903769 -0.0532919 -0.02133518 -0.056611594 -0.09091538 -0.025932321
-0.08557892 -0.061437737 0.007156035 -0.057237197 -0.081617676 0.037438937 -0.046098515 -0.03157212
-0.057451278 -0.09904469 -0.008767972 0.08141546 0.005104954 -0.021362294 0.0056715365 0.09437191

mlp2.0.bias f4 [100]
00000000: 9baf a7bd 937b fa3c 3aeb a63d bb7d c1bd
00000010: bb88 8c3d 8076 9a3c aeee fd3c 3668 17be
00000020: 57c9 a3bd 3c75 a73c 9e47 303d 98d7 d83d
00000030: 1520 18bd 90ed 52bd 311d b6bd e1be 9abd
00000040: de51 2e3d 196e 23bd a479 cc3d b4ce 1dbd
00000050: 9f2f cf3d e27a 723d 6f01 c53c 07d3 ec3d
00000060: 67cf e23d 0e02 2a3d 72be 4e3d 9365 333d
00000070: da89 da3a 4bb0 a13c b6d0 833d 7148 803d
00000080: 2092 153c b5e2 5ebd 7596 483d ad8b 8abc
00000090: 8358 a0bd 9e86 36bd 2ddd 35bd 8989 433d
000000a0: a942 523d e6a4 51bd a9a7 d1bd 0258 ec3c
000000b0: fe85 7f3d 1847 613c 96ac 81bc f305 2a3e
000000c0: 697e b3bd b4e0 173e b4f8 d13d 6826 87bc
000000d0: 7a9c b6bc d7b2 07bd a98b a43d 5234 ad3c
000000e0: bb66 6e3c 2313 3c3e 3a74 7e3d 6781 ea3c
000000f0: 7a73 23bd 101e 4cbd 7f27 a43d 128a 3bbc
00000100: 90d9 9dbd 1379 8dbd d41e 913d c730 f83c
00000110: b002 fc3d 50b6 9c3d c74e 703d 58ef 5b3d
00000120: 73c0 dc3d b1cc 93bd af09 1dbd 6d0f 943b
00000130: e442 cf3d 1994 7abd 45d2 893d 618e ff3d
00000140: 216a 003a f017 b03c ca89 bcbc 44bd a53d
00000150: 1461 86bc dd33 423d 4102 8ebd 6a16 95bc
00000160: 6e23 943d 1437 94bc f67c aabd f80e c93d
00000170: 2b11 a2bd 1e83 0c3e b6f8 863d 4d67 8fbd
00000180: 3f87 a8bd b54c efbc 1c53 07bd 70cd 2cbd
-0.08187791 0.030576503 0.08150335 -0.09447809 0.06862017 0.018855333 0.0309976 -0.14785847
-0.07997387 0.020441644 0.04303705 0.10587996 -0.03713997 -0.05149609 -0.088922866 -0.075559385
0.042558543 -0.03989992 0.099841386 -0.038527206 0.10116505 0.05919922 0.024048535 0.11563688
0.11074715 0.041505866 0.05047459 0.04379804 0.0016673163 0.019737383 0.06436293 0.06263817
0.009129077 -0.054415423 0.048971612 -0.016912306 -0.07829382 -0.044561975 -0.044400383 0.047738586
0.051333103 -0.05118265 -0.10237057 0.02885056 0.062383644 0.01374986 -0.015829366 0.16603832
-0.08764345 0.14831811 0.102525145 -0.016497806 -0.02229141 -0.03312954 0.080344506 0.021143112
0.01455086 0.18366675 0.06212256 0.028626157 -0.03990505 -0.049833357 0.08015346 -0.011446493
-0.077075124 -0.06907859 0.07085958 0.030296696 0.123052 0.07651961 0.058668878 0.053695053
0.10778894 -0.07216776 -0.038339313 0.0045184405 0.1012018 -0.061176393 0.06729559 0.124783285
0.0004898627 0.02149579 -0.023014922 0.0809274 -0.016403712 0.047412742 -0.06934024 -0.018199164
0.0723332 -0.01809267 -0.08324616 0.09817308 -0.07913431 0.13721892 0.065904066 -0.07002125
-0.08228921 -0.029211381 -0.033038244 -0.042188108

mlp2.2.weight f4 [50, 100]
00000000: 927a fe3c 7cb4 99bd f75e 04be ee9a 55bd
00000010: ac8b d13c 0fe0 afbc 493e fbbd 05e9 173d
00000020: 1de4 453d b22e 6fbd 8ef7 313d d129 64bd
00000030: fcb9 bdbd 33fb 8ebd bbba e43c a146 bb3c
00000040: 0b22 143d 2360 e1ba ad66 9f3d 883f d03c
00000050: 2a5d eebd 01ee 32bd d545 183d 1099 ec3d
00000060: b146 443d 0ecd e03d 1faf 0dbd 10fb 7bbd
00000070: 7cd5 fa3d cc4d b8bd 89ed 3bbd 242f b8bd
00000080: 53ba d43d c14f 8ebd d6b2 bdbd 68e6 09bc
00000090: ad1c 25bd d458 8c3d 6c0f 80bd 0682 d73d
000000a0: bec6 17bd d1c6 913d 4142 74bc dfef ebbd
000000b0: a253 57bd e080 b73c c658 823c f310 aebc
000000c0: 2541 cd3d fd66 953b 6656 f43b a8b5 bbbc
000000d0: 3fe2 893d e24a b13d 8676 283d 8b61 eb3c
000000e0: 4ae7 ce3c 50af ad3d 08b3 0fbd 638a 49bd
000000f0: 6509 093c 9022 57bd 9c2b 70bd ac4c 043e
00000100: e096 d93d 0b5c eabb ee51 063e 2c28 c0bc
00000110: 98a3 e9bd 0557 17bd bb5c 8b3d a47f e03d
00000120: b3e7 863c 0f93 9e3d acbb 033e cb0a bebd
00000130: f2a7 1fbd dfdb 4cbc 81e2 293d 824b 0fbd
00000140: 3e13 a6bb 3f57 f6bd 6dce 863c 1bb2 a43d
00000150: 0467 66bc 5387 5dbd b1b1 c7bb bbd9 023d
00000160: 0b0d debd 6e4c d1bc fa9b 543d 917a 97bb
00000170: b733 09bd 29e3 533d 0522 8abd 2784 c2bc
00000180: 2cb9 e9bb 6722 0d3d 7f78 233d ec7c 6dbd
00000190: 5721 113d a6c3 b6bc 7043 23bd bccf c7bb
000001a0: cb71 d3bc 9811 b2bc fe72 1e3d 48ff 85bc
000001b0: 8b85 aebc dba6 cfbb bcd4 b93d c1d9 ca3d
000001c0: 0e6b 283d d191 c73c 31e2 a33d 2d5a a1bc
000001d0: 7110 7a3d 2f42 8a3d 4b2d b43d f208 97bc
000001e0: f22f 593d 52ad 0d3d 67d7 c83d e5f7 7dbd
000001f0: 90bb d23d 2aec 60bc c51c 96bd 7e55 4a3d
00000200: eafc 9c3d e608 c33c 8355 b53d dc0d dbbd
00000210: 9940 643d 382c 533d 637f 413d 5867 a53d
00000220: c3a6 9bbd 2e12 b8bd 91a2 c0bd d33f 66bd
00000230: 4b5c 70bc 44b6 fc3b 9df5 943d 2e3e 123b
00000240: b762 01bd 537a d73b 6b1a 4d3d 31ce a9bd
00000250: ac32 80bd 5813 383d a8cb 763c 677a 723d
00000260: 8250 bc3c d7be ecbc c26b 8fbd 650b 75bd
00000270: 930c 59bd 48f1 71bb 8da2 04bd 0dac 803c
00000280: 836c be3c ff75 463d 7fd1 c23d 8847 a93c
00000290: 40dd cebd 3506 86bd 45d0 3bbc 61bc 743d
000002a0: 044b 8d3d a90a 04b9 cb3d 553d cd1f 363d
000002b0: e0f5 9f3d 7924 ab3c d443 40bd 7d08 cfbd
000002c0: 8f7e 7abd 85e0 b13d bb2a 66bd ddb3 bb3d
000002d0: 52d3 6e3d 4bf1 2f3d c00c e53a e124 5e3c
000002e0: fd46 8d3d d779 1e3d 2bfa a5bc d82b 9c3d
000002f0: 4419 a73b 96d3 383d f511 c1bd 6d8d f1bc
00000300: 5598 49bc 9b56 e7bd 8337 6fbd 14ae c3bd
00000310: 76d2 aabd 95cb 2fbd 66a3 973d 88cb d03c
00000320: 4231 c13b 8b17 e6ba ac5a ce3d 41cf df3d
00000330: 6373 793b a5ec 73bc 3b46 88bd 0853 853d
00000340: 8c77 943d 6c7d d7bc f9ce f4bc e6ee cdbb
00000350: 70f2 72bd ac2e ab3d 5745 cebd 8f50 dc3d
00000360: 6550 76bd 123a c73d c70e 273c 1791 6fbd
00000370: ef20 463d fff5 703c 3dbe fe3c f0ad ce3d
00000380: 0601 623d dbef bd3d b36e 813d 44ab 69bd
00000390: 237c f03c b002 f13c c572 253d df10 8a3d
000003a0: bde0 ba3d aedf e2bc 8110 c33b d43f 9e3d
000003b0: 400f 26bd 3cf7 f53c 831e 9c3d 4799 ae3b
000003c0: b820 053d 0f84 2bbd 2800 8e3d 3340 32bd
000003d0: 4ea5 f33c 3f61 a7bc 53a4 f93c 8e10 4bba
000003e0: 8143 cabd 4aa9 80bd 9fc1 133d c86c 17bd
000003f0: 369a 5f3d b7da a2bd e6f7 2b37 28f4 b3bd
0.031064305 -0.07505128 -0.12926851 -0.052149706 0.025579296 -0.021469144 -0.12267739 0.03708746
0.04831325 -0.05839414 0.043448977 -0.05570394 -0.09263989 -0.06981506 0.027921071 0.022860827
0.03616528 -0.0017194789 0.07783256 0.025420919 -0.116388634 -0.04368401 0.037175972 0.11552632
0.04791898 0.10976611 -0.034590837 -0.06151873 0.1224775 -0.089992136 -0.045880828 -0.08993366
0.10387101 -0.069488056 -0.09262626 -0.00841675 -0.04031055 0.0685288 -0.062529415 0.10522847
-0.03705477 0.07117999 -0.014908374 -0.11520361 -0.052569993 0.02240032 0.015911471 -0.021248316
0.10022191 0.0045593963 0.0074565886 -0.022913769 0.06732606 0.08656861 0.041128658 0.028733036
0.025256772 0.08480704 -0.035082847 -0.04920424 0.008364056 -0.052523196 -0.05863534 0.12919873
0.1062448 -0.0071520857 0.13117191 -0.023456655 -0.11408156 -0.036948223 0.06804796 0.109618455
0.016467905 0.07742893 0.1286456 -0.09279402 -0.038978525 -0.012503593 0.041475777 -0.03498412
-0.005068212 -0.120283596 0.016455853 0.080417834 -0.014062647 -0.054084133 -0.0060941805 0.031945925
-0.108423315 -0.02554914 0.051906563 -0.0046227654 -0.033496585 0.05173031 -0.0674477 -0.023744656
-0.00713267 0.034456637 0.039909836 -0.057980463 0.035432186 -0.02231009 -0.039859235 -0.006097762
-0.025811097 -0.021736905 0.038683884 -0.01635708 -0.021303913 -0.0063370294 0.09073779 0.099048145
0.04111772 0.024361523 0.08002127 -0.01969632 0.061050836 0.06750905 0.087977014 -0.018436883
0.05302424 0.03458912 0.0980671 -0.06200399 0.10289681 -0.013728181 -0.07329706 0.049397938
0.07665427 0.023807954 0.08854201 -0.10696003 0.055725668 0.051555842 0.047240626 0.08076352
-0.07600167 -0.089878425 -0.09406007 -0.05621321 -0.014670442 0.0077121574 0.072734095 0.0022314894
-0.031588282 0.0065758615 0.050074022 -0.08291281 -0.06259665 0.044940323 0.015063204 0.059198763
0.022987608 -0.028899593 -0.07002975 -0.05982532 -0.052990507 -0.0036917496 -0.032381583 0.01570704
0.023245102 0.048452374 0.095126145 0.020663992 -0.10100794 -0.06544153 -0.01146323 0.059749965
0.06899074 -0.00012592472 0.052060883 0.04446392 0.07810569 0.020891415 -0.046939686 -0.10109041
-0.061155852 0.08685402 -0.056193095 0.091651656 0.058307 0.042954724 0.0017475113 0.013558597
0.068983056 0.038690414 -0.020260891 0.0762555 0.0050994474 0.04512366 -0.09427253 -0.029486382
-0.012304385 -0.112958156 -0.05840255 -0.09554687 -0.083409235 -0.04291876 0.07404213 0.025487676
0.0058957646 -0.0017554624 0.10075888 0.109282024 0.003806316 -0.014887963 -0.066540204 0.065099776
0.07249364 -0.026304923 -0.029883849 -0.0062845824 -0.059313238 0.08358511 -0.10071819 0.10757553
-0.060135264 0.09727873 0.010196394 -0.058487978 0.04837125 0.014707088 0.031096572 0.1009177
0.055176757 0.092742644 0.06319942 -0.057048097 0.029356068 0.029420227 0.040392656 0.06741499
0.09124897 -0.02769455 0.005952895 0.07727018 -0.040541887 0.030025117 0.07623007 0.0053283307
0.032501906 -0.041873988 0.069336236 -0.043518256 0.02974191 -0.020432113 0.030473864 -0.0007746302
-0.098761566 -0.06282289 0.036073323 -0.036968976 0.054590426 -0.07951873 1.0250113e-05 -0.087868035

mlp2.2.bias f4 [50]
00000000: 1597 8ebd 5128 843c cc02 9a3b d6c3 2e3d
00000010: 2cf2 c63d 641e 71bd fce0 b8bd 8fde c3bd
00000020: e903 4bbc 5d68 c83d 7c57 1e3d 4a9f b639
00000030: 1533 8dbd 954d 85bd 6c20 5c3d f015 bebd
00000040: 0a52 773d a755 843d dd3f 66bb f049 57bd
00000050: 5e03 173d b031 7a3d aaa7 ed3d efbb 33bd
00000060: 1815 033b c0fa 813d 86f5 95bd 6b64 85bd
00000070: e262 8dbd 6081 2a3d 160c 68bd bad9 c8bd
00000080: 662a 0bbd f75e 5a3d f072 db3c 76e7 24bd
00000090: 97d5 513d a158 8b3d ea8e 4f3d 9773 27bc
000000a0: 3de5 fb3d 813b e83d 9940 bebd df4e 553c
000000b0: ca38 04bd 0f4f d5bc f977 393c e48a 24bd
000000c0: 369d 2b3c 4403 fc3d
-0.0696241 0.016132506 0.0047000404 0.042667232 0.09714159 -0.058866873 -0.09027287 -0.09563934
-0.012391069 0.09785531 0.03865765 0.00034832425 -0.06894509 -0.06508938 0.053741857 -0.09281528
0.060380973 0.064616494 -0.003513328 -0.052560747 0.036868446 0.061082542 0.11604245 -0.0438804
0.0020001587 0.06346655 -0.073222205 -0.06513294 -0.06903626 0.041627288 -0.05665215 -0.09807153
-0.03397598 0.05331322 0.026788205 -0.0402598 0.051229086 0.06804014 0.050673403 -0.01022043
0.12299583 0.113394745 -0.09289665 0.013019293 -0.03228072 -0.026038675 0.011320108 -0.04017152
0.010474494 0.1230531

attention.0.weight f4 [100, 200]
00000000: 4133 833d 722b 53bd bae6 0bbd 381b 0838
00000010: f2ea edba 25da 073d c7a7 863d dc9c 003b
00000020: 5392 fa3c 3072 e43c 989e 60bd 3959 583d
00000030: f512 143c 3bcb d2bc da5b 1bbc 9696 313b
00000040: d018 dd3c 8922 7cbd 237e 443b 64b9 00bd
00000050: 5069 4ebd d7e2 833d 826f e93c 2eb6 6a3d
00000060: 4b4e 693d 8476 e9bb 98df 11bd ecac 453d
00000070: d3f3 9e3c f759 56bd 15ca 3fbd f1e7 cc3b
00000080: 4a38 d83b 7e82 13bd d28f b9bb 805e c6bc
00000090: e81b 20bd 8e5a 193d 72f9 32bc 7f0c 42bd
000000a0: bec6 3abd be5b 533d 8b62 173d f6fd de3c
000000b0: 663c 323d 5691 423c 8633 a8ba ae21 1fbc
000000c0: a3a5 8a3c 394a adbc 5357 88bd e4a2 04bd
000000d0: 6921 65bd 8ad3 843d 82b7 5f3d 215a 8e3d
000000e0: babb 8fbd 0489 d53c 52b3 bb3c c646 6dbc
000000f0: 420a 73bd 30b0 613d ead3 6e3d d8a9 12bd
00000100: 9730 88bd a2c2 32bc 7dae 013d 3a98 aa3c
00000110: 5d7d 083d 9870 843d 24e1 24bd aba0 353d
00000120: 8de8 24bd c4ba 5b3c d4f9 4c3d eb11 0e3d
00000130: 67f4 283d 071f e6bc d3e5 f43c 004d 8e3d
00000140: 24fe 323d 90d9 80bc c90d 533c 9eb3 7b3d
00000150: c617 42bd 9889 8dbd d9dc d23c adb8 5c3c
00000160: 07ff 223d c9f1 903d c8bb 78bd 5370 92bc
00000170: 8929 42bb 93db 81bc fee6 1cbd 0e5e 8ebd
00000180: aec4 b1bc c12a 7dbd 3a75 b73c d0af 4abd
00000190: 12ac ce3c 17d2 ce3c 2f1d 8dbd 964a 00bc
000001a0: 9ec6 413d 632b 173d 2c74 093d 6041 4d3d
000001b0: c39b 6b3d 1efe 373d 4aee e73c b5f8 73bd
000001c0: 7217 3c3d 84b2 10bd c424 8ebc 47c8 8ebd
000001d0: ab0d 87bd 9542 f33b f84c 88bd 1700 37bc
000001e0: b00f 8f3d 22ec b3bc f9b3 53bd 97ac 5cbd
000001f0: 5149 81ba 8986 34bd 4e19 c53c 2d0f 3e3c
00000200: b1d1 633d 264d debc 9f1e 86bd c269 a1bc
00000210: d236 153d 2dbb c23c 3fd4 983c afd5 48bd
00000220: b974 07bd dd20 8dbc 4311 8a3d 3f36 6c3d
00000230: 6bcc 8a3d b3fc 07bd 9cd1 be3c 7fd5 cfbc
00000240: 9e52 843d 74e4 23bd 6cbf 76bd 1236 5ebd
00000250: c1ac 89bc 0f0d 0abb 771d 8e3c d53e f43c
00000260: 828e 63bd f516 303d 24e0 c3bc d160 093d
00000270: 8331 423d 9b39 003c a0b9 433c 0e54 8b3d
00000280: 5fae 3a3d a126 37bd e301 503d 3d63 81bd
00000290: cb07 0f3c 1f6f e23c 36d5 4fbd 196c 853d
000002a0: c60f 31bd 7d2d 5d3c de29 16bc ac2c 67bd
000002b0: 9014 2c3b 5622 8a3c fe6f 80bd 3c26 84bd
000002c0: 303a aebc 44c7 8c3d f079 b5bc 9531 16bd
000002d0: 68f5 62bd 7226 4dbd ccc5 1abd 5dcc 85bd
000002e0: 5c8f 433c fda3 4d3d 971f 23bd 5f23 313c
000002f0: c40b 573d 09bc 8abd 261d 833d cffa 24bd
00000300: 0284 4e3d acf5 1dbb 0a56 0ebd 499d 503d
00000310: 96ab 173d 6cff ecbc 1bec 0abb 7bbc 8abd
00000320: 85e6 52bc bf7f 29bd 9fbd 0bbd 0905 d23b
00000330: f0b2 613d fa30 163a 2210 6d3d 6130 1fb8
00000340: bf01 ec3c e4de e6bc bcbb 3f3d f15e 32bc
00000350: b162 e4bc d6de 453d 50fd ea3c faf6 eabc
00000360: 30b0 e93c c389 dc3b 8468 d7ba d71e 523d
00000370: 8475 13bd 2f63 87bd 9226 773d 0b6c 303c
00000380: fba2 b23c 504a 93bc ba1a 91bb b677 523d
00000390: 8703 f6bb 8a71 52bd fb80 663d 2874 3c3d
000003a0: b794 993c 4f6b 58bd b7e0 1dbc 6895 0dbd
000003b0: 8003 73bd a7db e6bc 4efe b6bc 44fd 87bd
000003c0: 4c62 40bd 5fc8 933c 1d3b 903d 2ef8 1b3d
000003d0: 1abb 0ebd 0348 99bc 6632 893d b726 593d
000003e0: eeac 893d 5121 60bd 31da 78bd c9e9 ddbb
000003f0: 8cf8 f0bc 4f21 cd3c e1c7 83bd 14e6 e6bb
0.0640626 -0.051555105 -0.034155585 3.2450276e-05 -0.0018151684 0.033167023 0.0657497 0.0019624745
0.030587351 0.02788648 -0.054838747 0.052819464 0.009037723 -0.025731673 -0.009482348 0.0027097813
0.02698937 -0.061556373 0.002998241 -0.031426802 -0.050393403 0.06439751 0.028495554 0.057302646
0.05695943 -0.007124724 -0.035613626 0.048260614 0.019403374 -0.05233189 -0.04682358 0.0062532355
0.006598507 -0.03601312 -0.0056628967 -0.024214983 -0.039089113 0.037439875 -0.01092373 -0.0473752
-0.04559969 0.051601164 0.036959212 0.027220707 0.04351463 0.011875471 -0.0012832738 -0.00971262
0.016924685 -0.021153556 -0.06657281 -0.032381907 -0.055940066 0.064856604 0.054618366 0.069507845
-0.07018228 0.02606631 0.022912655 -0.014482206 -0.059335954 0.055099666 0.058307566 -0.035806507
-0.06649893 -0.010910662 0.031660546 0.02082454 0.03332268 0.06466788 -0.040253773 0.044342678
-0.04026084 0.013411228 0.050042942 0.034685057 0.041248705 -0.028090967 0.029894745 0.0694828
0.0436994 -0.015728742 0.012881705 0.061450593 -0.047385953 -0.069110096 0.025740074 0.0134717645
0.039793994 0.07077367 -0.060725957 -0.017875826 -0.0029626808 -0.015851771 -0.03830623 -0.06951533
-0.02170023 -0.06180835 0.022394765 -0.049484074 0.025228534 0.025246663 -0.06890332 -0.007830283
0.047308557 0.03690661 0.033558056 0.050111175 0.057521593 0.04492008 0.028311867 -0.059563357
0.045920797 -0.035326496 -0.017351516 -0.069717936 -0.06594404 0.0074237087 -0.066553056 -0.011169455
0.06985414 -0.021963183 -0.051685307 -0.053875532 -0.0009863769 -0.044073615 0.024059918 0.011600298
0.0556199 -0.027136397 -0.06548809 -0.01970375 0.036429234 0.023770893 0.018655894 -0.04903191
-0.0330703 -0.017227584 0.06741574 0.05766892 0.06777271 -0.033199977 0.023293309 -0.025370358
0.064610705 -0.04001279 -0.060241148 -0.054250784 -0.016806008 -0.0021064912 0.017348034 0.029815117
-0.055555828 0.042990644 -0.02391059 0.033539597 0.0474105 0.007826234 0.011946112 0.068031415
0.04557645 -0.044714574 0.05078305 -0.06317756 0.008729885 0.027640877 -0.050740443 0.065147586
-0.043227933 0.013499615 -0.009165255 -0.056439087 0.0026257373 0.016862076 -0.06271361 -0.06452605
-0.02126798 0.068739444 -0.02215287 -0.03666838 -0.05540982 -0.050085492 -0.03778629 -0.0653312
0.011936035 0.05020522 -0.03982505 0.010811656 0.052501455 -0.06774146 0.06402044 -0.040278252
0.05041886 -0.002410273 -0.034750022 0.05093125 0.03702887 -0.028930388 -0.0021197859 -0.06774231
-0.012872343 -0.041381594 -0.034116384 0.0064092916 0.05510229 0.0005729344 0.057876714 -3.795361e-05
0.028809426 -0.028182454 0.046809897 -0.010886894 -0.027879091 0.048308216 0.028685242 -0.02868222
0.028526396 0.0067302897 -0.0016434346 0.051298942 -0.036000744 -0.06610715 0.060339518 0.010767947
0.02180623 -0.01797977 -0.004428235 0.051383696 -0.0075077447 -0.05137781 0.05627535 0.046009213
0.01874767 -0.052836712 -0.009636096 -0.034566313 -0.05932951 -0.02818091 -0.022338059 -0.066401035
-0.046968743 0.01803988 0.07042525 0.03807848 -0.034846403 -0.018711096 0.06699066 0.053015437
0.06722437 -0.054719273 -0.06075496 -0.006772254 -0.029415391 0.025040297 -0.06434608 -0.0070464704

attention.0.bias f4 [100]
00000000: 7be4 a9bb 4d40 47bd 9c4b 653d 85df aebc
00000010: 57f1 163c 1a4d aebc cca0 1a3b a988 07bd
00000020: e5c6 5d3d c008 66bd f0dc 003d b3ff 77bd
00000030: 4544 2fbd eee8 39bd 1aa8 123d f5a4 0bbc
00000040: cdea 42bd 57e4 7f3d 3326 0c3b 7884 ca3c
00000050: 91ba 103d 1e32 3c3d 3102 753d a100 52bd
00000060: d421 0a3d 67f7 29bd b406 4bbd 8240 5e3d
00000070: 8956 92bc ed0a e13c 999c 053d 970d 793d
00000080: 30a4 7dbd 317a 40bd f324 8a3a 7266 fcbb
00000090: 978f c93d 5101 9f3c a204 563d 63a4 463d
000000a0: f3f6 ee3b 50d1 753c bad8 333c 6d0e 94bd
000000b0: 9b32 b5bc 5131 d6bc ff1e c1bc 76ea 5b3d
000000c0: 10c2 1e3c 4a70 813d c462 903c d3c5 813d
000000d0: 3d92 3e3c 5890 2c3d a708 c3bc b8fd e7bc
000000e0: b08d be3c eb80 71bd 1cc9 6abd 02c4 933c
000000f0: cbe1 b83c b2de 353d 087b 243d c6f0 3ebd
00000100: d95d 143d 8244 8dbd 68e7 fc3b 8d43 a73c
00000110: 8d8e 6ebd d3fd 4a3d d982 71bd ce7d bcbc
00000120: 9852 41bd f76b f73c 0f73 4f3c 80db c13c
00000130: 8e66 b63c c910 293c 9696 8d3d 123d e03c
00000140: 6be3 84b7 35c4 0d3d 31cf 05bd 96fa 21bd
00000150: 3860 91bb 87f2 62bd e8e9 f6bb 0b3a 8c3d
00000160: 087f 403d f4ef 81bd c6fe b73c e011 5e3d
00000170: bb89 adbb 6d7f 0c3d 6f3c 63bd 8947 b33c
00000180: 8345 0f3d 9e8e 3ab8 24d2 e8bb 9fca fd3c
-0.0051847077 -0.048645306 0.05598031 -0.021346817 0.009212813 -0.021277 0.0023594378 -0.033089314
0.05414476 -0.05616069 0.031460702 -0.06054659 -0.042789716 -0.045388155 0.035804845 -0.008523216
-0.047587205 0.06247362 0.0021385073 0.02472137 0.035334174 0.045946233 0.059816543 -0.05127013
0.033723667 -0.041495707 -0.04956694 0.05426074 -0.017863529 0.02747103 0.032620046 0.060803976
-0.06192416 -0.04699153 0.0010539576 -0.007702642 0.09841841 0.019409807 0.052250512 0.048496615
0.0072926222 0.015003517 0.010976965 -0.07229314 -0.022118857 -0.026146563 -0.02357435 0.053690396
0.009689823 0.063202456 0.01762522 0.0633656 0.011631546 0.042129844 -0.023807837 -0.028319225
0.023260921 -0.058960836 -0.0573207 0.0180378 0.022568604 0.044401832 0.040156394 -0.04661634
0.036222313 -0.068978325 0.0077180155 0.020417953 -0.058241416 0.049558472 -0.058962677 -0.023009207
-0.04719791 0.030202849 0.012661709 0.023664236 0.022265699 0.010318943 0.069134876 0.02737287
-1.5841526e-05 0.034610946 -0.032668296 -0.039545618 -0.004436519 -0.055407073 -0.007535208 0.06847008
0.046996146 -0.063445956 0.022460353 0.054216266 -0.0052959598 0.03430121 -0.055477556 0.021884697
0.0349784 -4.447868e-05 -0.007105129 0.030980406

attention.2.weight f4 [100, 100]
00000000: 1e5b 9abd 1cce 2d3b ea23 c6bd 1fb0 32bc
00000010: adf5 ff3c 4f42 c13d b62b 183d ea8e 283d
00000020: 719a a33d 8ff4 87bc 595d be3d ae3b 46bc
00000030: e847 aa3d e05c 1ebd d22c 903d 3c8b 5b3c
00000040: 7d23 b1bd 4df1 7bbd afd9 d2bc ed9f 43bd
00000050: e54e 7f3d d10c b03d db5a 82bc 3458 df3c
00000060: 76d5 f03c 9899 943d 3303 aabd 97a8 053d
00000070: 9799 063d 4c2a 003c 81ee 65bc 8589 bf3d
00000080: bf98 eebc 83c9 54bd bc50 a1bd 995e e9bc
00000090: 909e a9bd d568 cf3a 5639 74bb 5bde 9f3d
000000a0: 2978 0f3d 3a2a 413d 9551 c33d e40b 423d
000000b0: 12a5 8f3c fce3 b43d 4967 303d 6521 25bd
000000c0: add2 b5bd 3f64 a43d b400 183d 674e 31bd
000000d0: 21b9 4738 8d36 a93c 4fff a6bd 6d53 b2bd
000000e0: e836 9c3d 209c ef3c 5d93 c83d adab 033d
000000f0: 696b bd3d 779a 123c 8ddd 633c 6db6 aebb
00000100: fc0a 73bb eda1 a9bd 7edb 243d c345 a03d
00000110: e438 e6bc 40e8 5cbc 2040 a13d c133 0bbd
00000120: 9f61 cf3d 4f68 363d 6d60 23bd 9966 a7bc
00000130: 2de1 d83c ddb1 d13c 481b 733d 7d9c 1e3d
00000140: 1b1a 143d e20b 19bd 3cd5 53bd e06f f1bb
00000150: 8a29 cb3d 14c2 1e3d 6a9b 05bd 52a4 7c3c
00000160: d933 26bd 3041 29bc be84 92bc 56c9 073d
00000170: ebed 42bd 42e2 8ebd 8d36 4ebb d98f 0b3c
00000180: 45d1 2e3d 2709 803c 317e cbbd 09e1 a23c
00000190: e773 36bd 5006 10bd 15d8 4cbd b268 2ebd
000001a0: 76ae 9ebd 2930 e7bc 30b9 a9bd 637b 613d
000001b0: 10ce 83bd bfba 18bd a720 05bc 529f 86bd
000001c0: a0b0 493d 2743 623d 1a9b 46bb ce44 17bd
000001d0: 5be1 8ebd f044 92bd 3f9b 9d3d 2a11 b13d
000001e0: f623 753c 1dd7 713d e23d 1abd 0afe dd3c
000001f0: ff43 9e3d aa03 953b 9c4f 0dbd 1cd3 babd
00000200: ffa2 28bd a319 e8bc c08c 6b3d eccf 14bd
00000210: 2b7a a8bd aa15 90bd 310e 9f3d 3e66 c2bd
00000220: 77be 50bd d7fd 973c 77aa bbbd 67c1 8a3c
00000230: 5b33 2abd ecbd 1ebd 4aaf 9bbd f833 a6bc
00000240: b3e2 c53d 3716 12bd 1a8a c53d dca9 54bd
00000250: 3c08 b8bd 37b3 f7bc af87 953d b8ae 1f3d
00000260: ade3 aabc e031 b3bd c164 bbbd 7281 ae3c
00000270: 21a5 a9bd f6ba 193c 00b5 b13c 2897 c53d
00000280: f596 36bd bcde 49bb 1cc6 ab3d 0d0a 9fbd
00000290: 6de9 81bd 7868 87bd 3d6a fbbb 4480 01bc
000002a0: 5fce c6bd 4275 04bb 2b13 0b3d 7a02 1c3d
000002b0: 4449 10bd 75c9 c2bd 76bb 83bd c9ab 6bbd
000002c0: af7e c83c c2e5 ca3b 7455 b3bb edc3 e1bc
000002d0: 9881 82bd 450b 143d 4267 be3d 9c45 9d3d
000002e0: 1307 8dbd ef8f 943d 1bd5 b73c cf24 ba3d
000002f0: abe1 bb3d 5b97 a3bc e9f7 93bd c11d 8fbd
00000300: 4741 6dbd d4b1 9b3d 87dc 023b b1bd a43d
00000310: f209 c23c db72 343d 68be fcbc 3a3d 8b3d
00000320: a981 443d a839 f63c 7f4c 4d3d ab9f 8abd
00000330: e8f3 8bbc 17e3 96bd 23a6 96bd 40ec 8d3d
00000340: c6eb cbbb 4979 76ba 6044 b0bc 1071 33bd
00000350: d587 91bd 4691 45bd 6846 743d a8c7 803c
00000360: 4ed1 88bc 3912 a63d 908b 293d b027 23bd
00000370: ff87 bc3d f834 4f3d 1420 933d ee89 ba3d
00000380: 05af af3c 9ced 5f3d a526 c5bd a91d 65bd
00000390: d42e 7cbd 6bb4 6cbd 518b 3cbd f176 94bd
000003a0: ff83 6abd ced0 8bbd 9076 babd b210 81bd
000003b0: 8b5f bebd 6d23 963d 4eba 8c3d 8d12 58bd
000003c0: f8f6 0bbd 8ad1 c4bd aa3e 883c 027e ddbc
000003d0: 6fd6 83bd 2ad4 693d 40de ec3c 0489 8e3d
000003e0: fbf2 b93d ac0b ea3c a585 553d be31 40bd
000003f0: 43b3 06bc 77ac d33c 448b 65bd 4a65 b5bd
-0.075369105 0.0026520556 -0.09674819 -0.010906248 0.031245077 0.094364755 0.03715106 0.04115192
0.07988442 -0.016596107 0.092951484 -0.01209919 0.08314496 -0.03866279 0.07039799 0.013399895
-0.08649347 -0.06150942 -0.025738565 -0.04775994 0.0623311 0.085961945 -0.015912464 0.027263738
0.029398661 0.07255858 -0.083013915 0.032631483 0.03286132 0.007822584 -0.014033915 0.09352402
-0.02912557 -0.05194999 -0.07876727 -0.02848749 -0.082821965 0.0015824089 -0.003726562 0.07806083
0.035026703 0.04715941 0.09537045 0.04737462 0.017534766 0.08832547 0.04306725 -0.04031505
-0.08878074 0.08026933 0.037110046 -0.04328766 4.7617712e-05 0.020655895 -0.08154165 -0.087073185
0.0762766 0.02924925 0.09793732 0.032146145 0.092490025 0.00894796 0.013907802 -0.0053318054
-0.0037085405 -0.08282838 0.040248387 0.07825806 -0.0281033 -0.013483107 0.07873559 -0.033984903
0.101260416 0.04453307 -0.03988688 -0.020434665 0.02647456 0.025597507 0.05935219 0.038723458
0.03615771 -0.037364848 -0.051717028 -0.007368073 0.09920032 0.038759306 -0.032618918 0.015420036
-0.04057679 -0.010330483 -0.017885562 0.033150993 -0.047590178 -0.06976749 -0.003146562 0.008518183
0.042680044 0.015629364 -0.099361785 0.019882696 -0.044544127 -0.03516227 -0.05001076 -0.042580314
-0.077481195 -0.028221207 -0.08287275 0.05504931 -0.06435788 -0.03728747 -0.008125461 -0.06573357
0.04924071 0.055239823 -0.003030485 -0.03693085 -0.06976577 -0.07142055 0.076956265 0.08645852
0.014962187 0.05904304 -0.037656672 0.027098674 0.07727813 0.004547556 -0.03449975 -0.09122297
-0.04117107 -0.028332537 0.057507277 -0.036331102 -0.08226427 -0.07035382 0.07766379 -0.094921574
-0.05096289 0.018553657 -0.09163373 0.016937925 -0.041552883 -0.038755342 -0.07601793 -0.020288453
0.0966238 -0.035665717 0.096454814 -0.051919803 -0.089859456 -0.030236823 0.0730127 0.038984984
-0.020860517 -0.08749747 -0.09150077 0.021301959 -0.08283449 0.009382954 0.021692753 0.096479714
-0.044577558 -0.0030802926 0.08387396 -0.07765589 -0.063433506 -0.06611723 -0.0076725767 -0.007904116
-0.09707331 -0.0020211493 0.033953827 0.0380883 -0.03522612 -0.09511081 -0.0643224 -0.057536874
0.02447447 0.00619194 -0.0054728333 -0.027559245 -0.06372374 0.03614356 0.092970386 0.076792926
-0.06886115 0.07254016 0.022440484 0.09089052 0.09173902 -0.019969633 -0.072250195 -0.06988097
-0.05792358 0.076022774 0.001996787 0.08043993 0.023686383 0.044054847 -0.030852512 0.067987874
0.047975216 0.03005679 0.05012178 -0.067687355 -0.017084077 -0.07367533 -0.07355907 0.06929827
-0.0062231747 -0.0009402228 -0.021516979 -0.043808997 -0.07105986 -0.048234247 0.059637457 0.015720204
-0.016701367 0.081089444 0.041392863 -0.03983277 0.09205627 0.050587624 0.07183853 0.09108339
0.02144576 0.05466996 -0.096265115 -0.05593649 -0.061568096 -0.057789247 -0.0460313 -0.07249249
-0.057254788 -0.06826936 -0.09104645 -0.063020125 -0.09295567 0.07330976 0.06871472 -0.052752066
-0.034171075 -0.09610279 0.016631443 -0.027037624 -0.06437384 0.0570871 0.02891457 0.069597274
0.09079548 0.028570019 0.052129406 -0.046922438 -0.00822145 0.025839074 -0.056041017 -0.0885721
