crowd_nav/data/LSTM_RL-test/il_model.pth (torch, 191490 bytes, 11 tensors)

mlp.0.weight f4 [150, 56]
00000000: 3d72 1f3d bc29 e23d 1558 9f3b 53d0 8a3d
00000010: df5f 67bd 3a5d f1bd 5991 41bd da84 b0bd
00000020: b34f d4bc 2843 f7bd e19b c4bd 93e3 673c
00000030: 6a1a 57bd 9808 393d 17be 9dbd a77a 9bbd
00000040: 7f37 c5bd b134 e1ba c797 f43d 3dca e13c
00000050: 6d7e c2bd c2ce 41bd 0cca e83d b625 243d
00000060: c8d7 fbbd 1e63 81bd bd98 c93c a732 40bd
00000070: cb9c babd b34c b93d dc6b b53d b4c4 58bd
00000080: 4b2d 49bc 6fce abbd 36e6 6cbd 9adb f33d
00000090: 38fe a33d adfa f03d 3c21 64bd 023f 9abd
000000a0: 8603 f23d 9edf 42bd b257 763d c6a9 94bd
000000b0: f9ec 623d ab01 cf3c 8ed2 793d 8f46 8b3d
000000c0: 4eec 283d 17db 4a3d 0192 0a3d 607c e83d
000000d0: 6577 00be c262 d5bd 3a8f b23d 239a 26bd
000000e0: 8110 b9bd 322c acbd b678 fc3d 8c60 643d
000000f0: 1c10 acbd 82f8 d43d a61e 3abd 331b b7bd
00000100: 6215 003e 5f46 babd 9779 063e 7bb1 bcbd
00000110: 3118 ab3d 2f82 c73d 555d 893d 3710 883d
00000120: d84d 05be d5cf d3bb e784 0e3d b7a5 c03c
00000130: 17c2 e1bd 132d 833d 1f1a 223c b7f1 aa3d
00000140: 76cb a7bd 1013 59bd c4e2 513d c6b7 863d
00000150: d400 04bd 59a7 21bd 60a6 aebd 98ef 623d
00000160: c45c a7bd 033a c93d 471c e03d c2e4 4cbc
00000170: 78d5 01be 94d2 62bd 7ff2 c63d 261b a53d
00000180: 0dcb 9dbd 6bdb e9bc 5844 093d c65a 9a3c
00000190: e483 ae3d 0c91 f3bc 0bd3 383d b8f8 fb3d
000001a0: 135e 043e bb18 d53d 0e15 fb3d 95ff 6e39
000001b0: 09f0 d3bd 24ea c23c 6f84 bdbd bbaf 9d3d
000001c0: 9f45 3abd 8d8a 8cbd c3be a83d 8720 9cbd
000001d0: f903 01bc 3f18 f43d 29d0 cd3d ae07 0dbe
000001e0: e191 67bd 3128 7a3d 631d b6bc 9680 75bc
000001f0: 75fc b33d a6cd d53d 865d d0bd 457e 593c
00000200: 7154 1bbc 0966 0a3e 9961 98bd b662 013e
00000210: 24b2 e03d b145 993d 66d5 0dbb 62b4 d8bd
00000220: d6f7 be3c 59d9 fabd fd43 683d 2b0a 53bd
00000230: 744e 65bd 57f0 51bc 1ed7 cbbd e82f 03be
00000240: 1bfc 9ebd b968 fd3d 9627 ea3d 9908 3a3d
00000250: 4960 96bc 4571 ba3d 72e8 34bd d432 7d3d
00000260: 6ad3 04be db63 b83d 9418 9bbd 505a e93d
00000270: d589 67bd 38aa 513d 9706 f9bd ad50 bbbd
00000280: 3edd 9dbd a8e1 f13c 6ce6 d1bd b697 b23d
00000290: 73ce 36bd f53b 153d 5f5d e8bc 81a7 183b
000002a0: edb5 ee3d e4b9 a8bd 25ab c6bc a0b8 863d
000002b0: feb7 ee3d 3968 11be b0f0 bf3c c164 3fbd
000002c0: 162b 443d 4174 d8bd 86c2 d5bd 0979 f33d
000002d0: 698d 973d a95d 8e3d 02db fcbd 8500 eabc
000002e0: c186 853d 44d2 1cbd a2ad a73d 0fd4 b13d
000002f0: 7a91 463c 883d cb3b f9b2 943d 16dc 0c3b
00000300: 7304 793d 7ae6 7cbc e3d7 453d 378d 943d
00000310: da5b cb3d cefe 2dbc c253 edbd 4a36 883c
00000320: 0601 8a3d 0da8 01be e1ce 05be 4ad5 07be
00000330: eef0 d83d 8586 7d3d 8de2 543d 6bb3 ce3d
00000340: 3a49 b83c 3f43 c93d 56de 5cbd 23f1 aa3d
00000350: 1915 0e3d ba6b b8bc e4bb b53d dd1d 98bd
00000360: 709c 243d dbd8 b23c cb64 94bd c683 06be
00000370: a6a8 ecbd 74ec c1bd b1eb 213d b338 423d
00000380: efa1 963d c44f 833d aafb bd3a 1633 eb3d
00000390: bfe0 b53d 73da d0bd a05c 8abd 0642 fdbc
000003a0: 5730 2b3c c57e cf3d ec51 97bd 2078 e7bc
000003b0: 6bbc d33d 367b cebd 7368 043e ae3d 62bc
000003c0: 5a90 b0bd 34d6 e63d b8d8 c7bd 070a da3d
000003d0: 0234 943d 858c a2bd 0dba 71bd 60d5 e6bd
000003e0: 932f d3bd fa3d 943c 804c eb3d 31b2 e13d
000003f0: 8918 bfbd f345 b53d 45b7 a7bd 29b1 b63b
0.038927305 0.110431165 0.004862795 0.06778016 -0.056487914 -0.1178536 -0.047257755 -0.086190894
-0.02591691 -0.12073356 -0.09600044 0.014153379 -0.052515425 0.04517421 -0.077022724 -0.075917535
-0.09629726 -0.0017181841 0.11943012 0.027562255 -0.0949677 -0.04731632 0.113666624 0.040075026
-0.122970164 -0.06317733 0.024608964 -0.046923306 -0.09111937 0.09047832 0.08858463 -0.052921966
-0.012278865 -0.083889835 -0.057836734 0.1190712 0.08007473 0.117665626 -0.055695757 -0.07531549
0.11817078 -0.04757654 0.060142227 -0.07258944 0.055401776 0.02526935 0.060991816 0.06800567
0.041240983 0.049525347 0.033830646 0.11351848 -0.12545545 -0.10419227 0.087187245 -0.04067434
-0.09036351 -0.08406867 0.12327711 0.055756137 -0.0840151 0.103989616 -0.045439385 -0.08940735
0.12508157 -0.090954535 0.1313232 -0.09213539 0.083542235 0.097416274 0.06707255 0.06643718
-0.13017976 -0.0064639845 0.034794714 0.023516519 -0.11023348 0.064050816 0.009893923 0.08346885
-0.08193104 -0.052996695 0.05124165 0.06578021 -0.032227352 -0.039466236 -0.08527827 0.055404276
-0.081719905 0.09825518 0.109428935 -0.012505712 -0.12679088 -0.055376604 0.09714221 0.08061819
-0.077047445 -0.02854701 0.033512443 0.018842112 0.0852125 -0.02973225 0.04512314 0.12303299
0.12926511 0.104051076 0.12259875 0.0002279266 -0.103485174 0.023793288 -0.09253775 0.076995336
-0.045476552 -0.06862364 0.0823951 -0.076233916 -0.007874482 0.11918687 0.10049469 -0.13772461
-0.056535605 0.061073486 -0.02223081 -0.014984271 0.08788387 0.10439615 -0.10174088 0.013274734
-0.009480582 0.13515486 -0.0744049 0.12635311 0.10971478 0.07483996 -0.0021642088 -0.1058128
0.023311537 -0.12248487 0.056705464 -0.05152337 -0.05598302 -0.012813649 -0.0995314 -0.12811244
-0.07762929 0.1237349 0.11433332 0.045418356 -0.01835646 0.09103636 -0.04416699 0.06181605
-0.12971273 0.09003421 -0.07573047 0.11394179 -0.05652793 0.051187724 -0.1215946 -0.09146247
-0.07708214 0.029526547 -0.102490276 0.08720343 -0.04463048 0.036434133 -0.028364835 0.00232932
0.11655793 -0.08238581 -0.02425153 0.06578183 0.116561875 -0.14199914 0.023430198 -0.046726946
0.047892652 -0.10569049 -0.10437493 0.1188832 0.07400019 0.06951458 -0.1234646 -0.0285647
0.06519843 -0.038286462 0.08187415 0.08683025 0.012119645 0.0062024035 0.07260699 0.0021493486
0.06079526 -0.015435809 0.04830159 0.07253497 0.09929629 -0.010619832 -0.11588241 0.01662745
0.067384765 -0.12661763 -0.130672 -0.13264957 0.10592829 0.061895866 0.05197387 0.10092815
0.022495855 0.09827279 -0.053922974 0.083467744 0.03468809 -0.022512306 0.08873728 -0.07427571
0.040188253 0.02183192 -0.07245787 -0.13136205 -0.11555605 -0.09468928 0.039531413 0.047417354
0.07355105 0.064116985 0.0014494557 0.11484353 0.088807575 -0.10197916 -0.06755948 -0.030915271
0.010448537 0.10131601 -0.07388672 -0.028255522 0.10338672 -0.10082094 0.12930469 -0.013808651
-0.08621283 0.11271325 -0.09758133 0.10646444 0.07236482 -0.07936958 -0.059015322 -0.11271167
-0.103118084 0.018095959 0.114892006 0.110203154 -0.093308516 0.088512324 -0.08189253 0.0055753184

mlp.0.bias f4 [150]
00000000: 5f05 e1ba aa05 9ebd 4f9a c63d ad94 e7bd
00000010: 1bc1 fabd fcda 89bd 86a5 acbd 346d c3bd
00000020: edfe a53d 165b 6abc 3bf8 00be c09f 033e
00000030: 7432 a3bd 96c6 903d 13eb d53c 61e8 05be
00000040: 7bb4 60bd 5dac 0a3e 9d83 28bd 6b09 a53d
00000050: 3e5a ebbd 81e1 3c3d 9014 afbc 7aff b5bd
00000060: ae80 ed3d 04ba 6dbc a1ee 9f3c 6c9f 263d
00000070: caa3 e9bd d4cb b2bd ba17 4bbd a722 023e
00000080: 82be 97bd f44d ebbd dff4 053e de32 843c
00000090: 8387 9d3d 6449 e73d 215d ef3d 5817 0e3d
000000a0: ee6e 04be 5b2a ebbd fde7 adbd 5151 e5bd
000000b0: fdcf 0b3d d8e5 fd3d cb77 f3bd d8ef 23bd
000000c0: 123e e83d be86 91bb ac51 503d e8a4 38bd
000000d0: c3c1 b9bc f5d5 ce3c 1bc0 fc3d 95f3 0f3d
000000e0: 95a5 de3d 2456 8f3d cee0 57bd 2637 b5bb
000000f0: 7413 92bd 018f df3c 0e10 3b3d 4142 763d
00000100: 38ca 873d 0d1a 56bc a4ce de3d 59e9 80bd
00000110: 77a2 05bd 7204 483d 76ba 9e3d 55a8 203d
00000120: 5988 be3d 6596 15bc 7826 df3d aade 3bbd
00000130: 22c4 8d3d f7b8 5d3d 035b 763d a2e0 a6bd
00000140: a2b9 05bd 5dac cf3d 5cf7 923b b8aa 03be
00000150: ab8b 0bbd c05f 023d e03f 2b3b 0fd7 f3bd
00000160: 5587 d03d edff bb3d 2d24 c0bd f105 013e
00000170: 53a9 073e 4592 97bd 3981 f13d f461 94bd
00000180: c81d abbd 7cf3 e2bd d340 9a3d d12c c1bd
00000190: cc74 db3d 4fcf 3ebb f10a bb3d c575 90bc
000001a0: d6fe 00bd 44a5 e43d 7aff d73d 6f78 9e3d
000001b0: 0a4d adbd a87f 7dbd 2321 f5bd b1c1 a7bd
000001c0: cdf2 f13c d8eb 583d 922a af3d 596e 2c3d
000001d0: 9334 9dbd 8894 02be d41a 76bb 64f1 623d
000001e0: 4472 75bd fdee aabd b2c8 093d d254 873d
000001f0: d863 9fbc 3efc 03bd a58b f9bd 75bf ddbd
00000200: 5c7a 42bd 3b0d a33d 5623 b5bd 2e42 cabd
00000210: 40b8 a03d c960 82bc fe2c 28bc 81aa 75bd
00000220: f658 09be 83d8 b1bd 41ba 013e 7ed7 bc3d
00000230: f8f7 68bd 5d56 dd3d 5197 3a3d ca3a b83b
00000240: efae 34bd 1da5 cbbd eea6 dcbd 87e4 6b3d
00000250: 9f2e 223d 4c52 c93d
-0.0017167738 -0.07715924 0.09697401 -0.113076545 -0.12243863 -0.06731221 -0.084300086 -0.09542313
0.08105264 -0.014303943 -0.12594692 0.12853909 -0.079686075 0.07069127 0.026113069 -0.13076927
-0.05485962 0.13542314 -0.04114114 0.08058437 -0.11491822 0.046113495 -0.02137211 -0.08886619
0.11596809 -0.014509682 0.019522967 0.04067938 -0.114081934 -0.087302834 -0.049583174 0.12708531
-0.07409383 -0.11489478 0.13081692 0.016137537 0.076918624 0.11293295 0.11687685 0.03469023
-0.12932941 -0.11482688 -0.08491514 -0.111971505 0.0341339 0.12397355 -0.11888083 -0.040023655
0.11339964 -0.0044411113 0.05085914 -0.04507914 -0.0226754 0.025248507 0.12341329 0.035144407
0.10871426 0.06998852 -0.052704625 -0.005530256 -0.07132617 0.02728987 0.045669608 0.06012178
0.06630367 -0.013067734 0.10879257 -0.062945075 -0.03262564 0.048832364 0.07750408 0.039223034
0.0930335 -0.009130095 0.10896009 -0.045866646 0.06922175 0.054131474 0.06014539 -0.08148314
-0.032647736 0.101402976 0.004485054 -0.12858093 -0.034068745 0.031829596 0.0026130602 -0.119062535
0.101820625 0.09179673 -0.093819 0.12599923 0.13248186 -0.074009456 0.117922254 -0.072452456
-0.0835529 -0.11081597 0.075318955 -0.09432376 0.107156366 -0.0029115265 0.09132946 -0.017634282
-0.03149303 0.111643344 0.10546775 0.07737815 -0.0846196 -0.06188932 -0.11969211 -0.081912406
0.029534722 0.052959293 0.085530415 0.042097423 -0.07676043 -0.12751973 -0.0037552612 0.05540599
-0.059923425 -0.08346365 0.033638664 0.06607975 -0.019456789 -0.03222298 -0.12184838 -0.10827533
-0.047479972 0.07961508 -0.088446304 -0.09875904 0.07847643 -0.015915291 -0.010264633 -0.05997706
-0.13412842 -0.086838745 0.12668706 0.092207894 -0.056877106 0.10807488 0.045554463 0.0056222426
-0.044112142 -0.09943602 -0.10774027 0.057590988 0.039595243 0.0983015

mlp.2.weight f4 [100, 150]
00000000: 2df3 3c3d 998c 193d e344 773d a5d5 673d
00000010: 44da 2b3c f353 06bd fe74 89bd d3a1 8e3d
00000020: 4a7c d13b 8aee fa3c d765 a4bd 96ea 773d
00000030: 758e 89bd ade1 963d 02f6 8dbd bf75 c13b
00000040: 3388 3fbc 53c0 4bbc 7f4f a73b 20de 62bc
00000050: 2b68 5fbd 73c0 933c ac6f 533d 14fa a23d
00000060: ba28 10bb d344 9c3d 976c 653d 3f8b 583d
00000070: bec7 2c3d 4f31 afba fc0b c5bb 8d2a a7bd
00000080: e4be 8c3a 9292 7bbd ca5f 923d 8687 923c
00000090: b3b1 823c 3135 0f3c 1515 a93c 5823 21bd
000000a0: b1e4 31bc 1412 d6bc dad7 303d 1e4b 09bc
000000b0: 4321 ac3b b8f7 923d b2aa 343d d484 893b
000000c0: bdb0 20bd 3798 f8bc db1d 073b a47a 1cbc
000000d0: cca5 e33c 79d9 003d 8cb2 933d 9e73 a2bd
000000e0: 4c32 853c e794 64bd 42a0 353d 0d54 47bb
000000f0: 7e02 9d3c 43f7 3bbd 1699 53bd 531e 6e3c
00000100: 578a 22bd 5730 81bd 8db7 a13c b81c 77bd
00000110: 2245 f63c d5cc df3c 4e90 91bd 3e31 1c3d
00000120: e066 4abb d465 d5bb 81a1 79bd 95a5 91bd
00000130: 6631 0ebb d7b9 73bd a266 88bd dab1 18bc
00000140: 7ad1 96bd c694 f6bc fa86 d83a e000 813d
00000150: 86d3 96bc 244f a5bd 34ae 42bd 41aa 843d
00000160: e905 113d b849 9fbd 1d48 973d ce91 f2bc
00000170: d1f1 6fbd 71b2 cf3c c24d c6bc 6137 1dbd
00000180: 18fa 16bd aed9 5fbd 2a9a 6e3d 28d1 b0bc
00000190: 1b1c cb3c ff48 83bd 908f 82bd 5a1f 473d
000001a0: e567 02bb 486c 333d c992 6bbd 9889 053d
000001b0: f088 93bd 9dc1 013c 31b6 bd3c 40cf 5f3d
000001c0: 2068 803d ee82 1f3d 5f75 94bd 2378 453c
000001d0: c8c9 7fbd 32f1 d1bc b89e 8a3c 3e6d 98bd
000001e0: 0f06 5dbd 8270 6b3d 93b3 793d 434a 46bb
000001f0: ec68 adbc 18d6 81bd bf68 b63a 2108 06bd
00000200: 91af 27bd 15a5 193d 0a7e da3c 5b88 6b3d
00000210: d750 98bd 5b0c 093d 2530 7cbd 6d32 1cbd
00000220: 81d9 3cbc a59d a0bc 37c0 d0bc 12df a83c
00000230: c81f 3ebd 49e4 d53c 3676 90bd 86c8 8c3d
00000240: 32f3 8bbd c9fd 73bc ef61 993d 3b0c d7bc
00000250: 15e2 89bd 6f15 9e3d 1bee 57bd ed9d 2bbd
00000260: 1956 903b 2f9b 90bd dad9 193d ee30 a53d
00000270: 98be 893b fc94 16bd d0e5 97bd f12b ccba
00000280: 3cde f53c 1c82 953d 826b ed3c 77a8 a13b
00000290: 4c29 8f3d 5887 653d c2b2 28bd 4534 ddbb
000002a0: 8743 46bc 1628 283d 66ed 9f3d 6c6a 483d
000002b0: 2b12 8c3d 3717 833d 7fac 87bd 01c9 6eba
000002c0: 48c3 f6bc 05bc 12bd 273c 06bd 903d 8b3d
000002d0: 8b61 3bba e78b 83bc 92a5 ca3c 902e 17bd
000002e0: 8921 3fbc d5fe 76bd 7ec8 993d 41ee 8ebd
000002f0: 59ad 8a3b 3801 a33c 59e8 febb 8cc1 82bb
00000300: 789e fdbc d6fb 02bd feda a0bd c722 49bd
00000310: e4e3 c4bc 3a10 4b3c 9fda 69bd 303a 413d
00000320: e96b 183c 8cf6 4c3d b324 a73c 4070 253c
00000330: 5e53 3ebd 07f2 303c 7cb0 c93c 4790 96bc
00000340: cc59 973d 2953 82bd 93e7 a33c 3ab9 013d
00000350: 821f 533d 5d5c 9b3d d3a3 5ebc 2cfa a2bd
00000360: 22a8 753c e436 85bd 351f 07bd ddd7 443d
00000370: d9ec ac3b 4d5d 6bbc 3ce7 c63c 0246 ac3a
00000380: bb31 113d 9186 41bd cc5c 2139 0e84 f3bc
00000390: 0aa4 7e3d ece0 9cbd 28f1 12bc 1c60 1cbd
000003a0: e9d8 a13d 25b8 9abd 815b 94bd c718 febc
000003b0: 20cd a5bd 8659 ee3c 0ea2 cf3c 20a7 a63d
000003c0: 84fe 21bc 2cb3 353d e1a2 703b 5ef2 8cbd
000003d0: 2251 943d b366 85bd eb66 833d 3826 8cbd
000003e0: e0ea 24bd 65bf 2c3d 9ec6 9abd 8e32 eb3b
000003f0: f718 3fbd db59 1c3c a48c 123d 9d41 2cbd
0.046130348 0.0374876 0.06036843 0.05660023 0.01048905 -0.032794904 -0.067117676 0.06964459
0.0063929902 0.030631322 -0.08027237 0.060526453 -0.06716625 0.07367263 -0.06931688 0.005903929
-0.011690187 -0.01243599 0.005105912 -0.013846904 -0.0545427 0.018036103 0.05162017 0.07957855
-0.0021996931 0.07630315 0.056011762 0.05286717 0.042182676 -0.0013366136 -0.0060133915 -0.08162413
0.0010738042 -0.061419077 0.071471766 0.017886888 0.015953874 0.008740709 0.020639936 -0.039340347
-0.010857747 -0.026131667 0.043174602 -0.008379726 0.0052529885 0.07176155 0.0441081 0.0041967425
-0.03923105 -0.03034602 0.002061716 -0.009550724 0.027789019 0.031457398 0.072117895 -0.079322085
0.016259335 -0.055806067 0.044342287 -0.0030415088 0.019166227 -0.045890104 -0.051659666 0.014533597
-0.039682712 -0.06308048 0.019740844 -0.060330123 0.030062262 0.027319351 -0.07107602 0.0381329
-0.0030884072 -0.006512383 -0.060945038 -0.071116604 -0.0021696924 -0.059503403 -0.06660201 -0.009319747
-0.07364173 -0.030100238 0.0016519718 0.06298995 -0.01841141 -0.080717355 -0.047529414 0.06477786
0.035406027 -0.077777326 0.073868014 -0.02961054 -0.058580223 0.025353642 -0.024207 -0.03838289
-0.0368596 -0.054650955 0.05825249 -0.021584108 0.024793675 -0.06410407 -0.063750386 0.048613884
-0.0019898352 0.043804437 -0.057513032 0.032601923 -0.07203853 0.007919696 0.023158165 0.05464101
0.0626986 0.038943224 -0.07248949 0.012052569 -0.062448293 -0.025627706 0.016921386 -0.07442711
-0.053960856 0.057480343 0.06096227 -0.0030256666 -0.021168195 -0.06339663 0.0013916715 -0.032722596
-0.040938918 0.03751095 0.026671428 0.057503086 -0.07437294 0.03345905 -0.06156935 -0.038134027
-0.011526466 -0.01960642 -0.02548228 0.02061418 -0.046417028 0.026109831 -0.07053797 0.06874184
-0.06833495 -0.01489205 0.074893825 -0.02625095 -0.06732575 0.07718932 -0.05271731 -0.041898657
0.004404795 -0.07060849 0.037561275 0.08065973 0.0042036287 -0.036763176 -0.0741688 -0.001557706
0.030013196 0.07300207 0.028981928 0.0049334127 0.06990299 0.056037277 -0.0411861 -0.006750616
-0.012101061 0.041053854 0.07808952 0.048929617 0.06839403 0.06400912 -0.06624698 -0.00091089314
-0.030122414 -0.03582384 -0.03277221 0.067988515 -0.0007148019 -0.016057922 0.024737153 -0.03690964
-0.01166571 -0.06030162 0.07508944 -0.06979037 0.0042320904 0.019898042 -0.007779163 -0.0039903577
-0.030959353 -0.03197845 -0.078542694 -0.049105432 -0.024034448 0.012394005 -0.05709326 0.047174633
0.009303072 0.050039813 0.020403242 0.010097563 -0.046466224 0.010799891 0.024620287 -0.018379344
0.07390174 -0.06363518 0.020007884 0.031670786 0.05154372 0.07585976 -0.013588863 -0.07957873
0.014993699 -0.0650461 -0.032988746 0.048057426 0.005277258 -0.014365506 0.024280183 0.0013143423
0.035447817 -0.047247473 0.00015388726 -0.029726055 0.06216816 -0.07660088 -0.008968629 -0.038177595
0.079027005 -0.07554654 -0.072440155 -0.031017674 -0.08095765 0.029095422 0.025345828 0.08137345
-0.009887341 0.044360325 0.0036718177 -0.06882165 0.07242037 -0.06513729 0.064161144 -0.06843227
-0.040263057 0.042174716 -0.075574145 0.0071776574 -0.046654668 0.009542908 0.035778657 -0.04205476

mlp.2.bias f4 [100]
00000000: 3715 853c 1880 803d bb3a 77ba 8510 b4ba
00000010: fafa 9dbc db1b 8bbd 603a 21bd d869 efbc
00000020: fad1 993c fa70 adb9 9fc9 c2bc efb8 cabd
00000030: 1c76 943b 7491 05bd 8188 6dbc 4ccf 91bd
00000040: 7ce2 d3bc 9a19 30bd 2968 41bd 6f75 5b3c
00000050: eb01 e1bc 1eae 6a3d 4e7b efbc 6494 58bd
00000060: f97b 3e3d 9b04 1c3d bfdc 413c 8a3f 18bd
00000070: 1df8 9ebd 4e07 34bd 79cb 693d b480 9b3c
00000080: 910d 913d e4af 013d 940e 983b 6de4 65bd
00000090: 1184 683d edf4 d2bc 71b9 87bd b0bc edbc
000000a0: 06db 5c3d 9b12 61bc fbf9 763d b00a 11bd
000000b0: 849a 273d b65e 3c3d 2dcc d73b 1c63 03bc
000000c0: cda2 b2bc 8850 b73c aacf 1e3c 7b8f 233d
000000d0: 1adb 993d 7c2f bb3c 4ff8 f2bb 10f8 8bbd
000000e0: 55af 323a 647b 06bd ec72 73bd 38fc 10bd
000000f0: 777c 08bc 73e3 333c fdfa bbbd 864d 8fbd
00000100: 73df 37bd 31fb 123d 43bb 773c fe03 a73d
00000110: bd00 67bd 4de0 29bd 03bd 14bd 7fd2 ce3d
00000120: f8d8 da3c b755 28bd 79a3 8cbc ae8f 52bb
00000130: 2915 4abd a50e bbbc 4596 5e3c ffad 323d
00000140: dc19 81bd c5db d93d 6d9b 5dbd 70b3 55bd
00000150: 421c 9fbd 94f4 2cbd 2e8d f8bc 1ab2 89bd
00000160: 711b e83b 8989 a93d 0270 56bd 06cf 303d
00000170: 7c97 acbc abe5 9fbd 2732 823d 9933 013d
00000180: 6cb2 543d aa19 6d3c d8af df3c 75be 283d
0.016245468 0.06274432 -0.0009431054 -0.0013737833 -0.019284714 -0.067924224 -0.03936231 -0.029225275
0.018776882 -0.00033081305 -0.023777781 -0.098985545 0.0045306813 -0.032609418 -0.014497877 -0.07119617
-0.025864832 -0.042993166 -0.047218475 0.013394698 -0.027466735 0.057294957 -0.029233601 -0.05287589
0.04650495 0.03809033 0.011832415 -0.03716997 -0.077621676 -0.04395228 0.057078812 0.018982269
0.07082666 0.031661883 0.0046404097 -0.056126047 0.056766573 -0.025751555 -0.06627167 -0.029020637
0.053919815 -0.013737346 0.060296994 -0.035410583 0.040918842 0.04598876 0.006585619 -0.008019235
-0.021806145 0.022377267 0.009693066 0.039931756 0.075124934 0.02284979 -0.0074148546 -0.068344235
0.00068162876 -0.03283252 -0.05943577 -0.035396785 -0.008330456 0.010979521 -0.091787316 -0.06997208
-0.044890832 0.035884086 0.01512033 0.08155058 -0.05639719 -0.041473676 -0.036313068 0.10098743
0.026714787 -0.04109737 -0.017167794 -0.0032129097 -0.049336586 -0.022834131 0.013585632 0.043622967
-0.063037604 0.10637621 -0.054103304 -0.052173078 -0.077690616 -0.042225435 -0.030340757 -0.06723423
0.0070833494 0.08278186 -0.052352913 0.043166183 -0.021068327 -0.078074776 0.06357222 0.031543348
0.05192797 0.014471451 0.027305529 0.04119726

mlp.4.weight f4 [100, 100]
00000000: 785b 2c3d c375 6e3d 32cd c2bd 2cb4 693d
00000010: a686 9cbc 2be7 8ebd 7de5 093d c5df 143d
00000020: 2f1e f13c e167 973d 3530 873c 82f8 82bd
00000030: a050 78bd ed38 c8bc fd25 60bd 5970 443d
00000040: d056 54bd 00f4 b03d dcf6 bc3d 9311 6a3d
00000050: df2e 8a3d 9eeb 843d 9594 9f3d d926 a7bc
00000060: 8b82 743d f680 233d 4dda bf3b 7593 8c3d
00000070: 4763 a93d 6db5 29bd f430 2abd 3d81 adbc
00000080: 65fb f9bc 63f8 c6bc 9081 ae39 3c46 433d
00000090: 1631 983d 62d9 a8bd f79a c0bd 9ca1 783d
000000a0: 1cd3 d1bb fd68 493d 2a15 0cbd b3ba ab3d
000000b0: 41a7 31bd 4a1a b63c 835d e23c 26ef c33d
000000c0: aa62 5ebd 3dbd 95bd 20ef a53d 6b6b 753d
000000d0: a98b be3d e480 ae3d 736a bfbd 89c4 6e3d
000000e0: 37fc 93bd 7967 60bc aa72 a63d 2a31 c3bc
000000f0: 30c7 a0bc 3f51 c33c 8e31 933d adfc a8bc
00000100: 1049 633d 0ab8 283d fa49 0f3d e153 cdbd
00000110: bac1 a53d 07e4 acbc aa08 90bd 5ef1 ac3d
00000120: c146 f73c 806b ac3c c669 833d aafc 46bc
00000130: 694c 8bbd 0382 6b3d 84b5 c83d faba 16bd
00000140: fc45 cd3c adef 2e3d 8003 fbbb 33ff 453c
00000150: 430f 0d3d fd3a 143d b4e4 2abd a095 083d
00000160: ff40 c73b efa6 9c3d 10fa 67bd feff afbd
00000170: 674c bb3d 0d8b 1ebd fd15 a73c de88 c23d
00000180: 7e8d 0a3c cf52 963d 7cdd a63d 9a59 d83c
00000190: 032a 9a3d 3074 95bd 7e1a 333d 22cb 523d
000001a0: 9836 b9bd 0048 803d f779 0d3d d90b 68bb
000001b0: ece9 d6bc 2473 84bd a015 31bb e0dd b2bd
000001c0: 3aa2 e33c 3761 3dbd 0a4b cb3d 0935 c7bc
000001d0: d009 0abd 1e74 9aba fbbd 8abd 5d87 dabb
000001e0: 7a88 b13c 77b1 04bc c014 55bc 5356 bd3c
000001f0: 6362 103a e83c f13b 134e c03d 6795 bebc
00000200: ba4c 19bd 7354 55bd 5a86 823c 4eaf a7bc
00000210: ebdd 453d 240c 123d 8d7b f0bc 3181 aebd
00000220: 43a5 e93c d020 253d 6044 ddbc 004f 6d3c
00000230: 12f1 813d 2c45 b6bd 93e8 413d 1582 0d3d
00000240: 165e a73d 576e 11bd 22f8 143d d421 97bc
00000250: e0ee 283d c08d c6bc aa97 083d 5d58 a03d
00000260: e14a 903d 4bae 473d 243c 323d e685 823d
00000270: 36f0 bb3d fbd5 7bbd 23be 0fbd 8d78 4b3c
00000280: 574b e93c b912 823d f486 8a3d cdfd 713d
00000290: 0d37 af3c d4d8 993d c209 ccbd 189d 5a3d
000002a0: 1766 153d aad1 8cbc 76cc bc3d 51df afbd
000002b0: bb08 99bd 7252 ffbc d0ee 2fbd b7ff c7bd
000002c0: 8600 bb3d 7ac8 903c b28b 05bd 7c2a 08bd
000002d0: 2982 3d3d 9d84 ccbd faee 253d 2709 74bc
000002e0: b6e9 743d 23b0 2fbd 1fb3 94bd bf26 bebd
000002f0: 2d25 98bc 3d24 bdbc 2116 adbd 4e22 5fbd
00000300: 2012 af38 67cd 433c 81c9 0dbd 7ae0 b73c
00000310: 9e5e aabb 8d66 9ebc 61af ad3d 1cd5 a53c
00000320: b344 f63b d361 bb3d 8358 50bd 3a2c efbc
00000330: 376d 3f3d f328 b7bd f89d b7bd 8564 c23d
00000340: 2af8 903d 204f 60bd dd9f 693d 93ef ebbc
00000350: 4f01 973d a7b6 37bc 87b9 163d 9db3 443d
00000360: b342 2bbd 08d5 893d 401a 9b3c cdf0 ca3d
00000370: c3ec 1abd ad98 b4bd 0095 cf3b 0fe9 aabd
00000380: 3d19 923d 939e f7bc 9d77 323d 3340 37bd
00000390: ddd0 1dbd 674f 173c 601c 4abd e048 62bd
000003a0: 67f4 6c3b 8727 5f3d 0d9f 2dbd a729 5a3c
000003b0: 1363 0bbd 32be acbd ed82 363d bd02 c03d
000003c0: 4883 c43d 93a3 82bc a3f2 b73d ab25 8bbd
000003d0: 9a96 5bbb 27d9 a53c 00ba 26bb d728 a93d
000003e0: 0788 963c 3d42 acbd e7ec 913b d71c 8e3d
000003f0: 60b0 8e3d ed35 52bd a398 973d 4384 31bd
0.04207942 0.058217775 -0.09511794 0.05705659 -0.019107174 -0.069776855 0.033666123 0.036346216
0.029433338 0.0739286 0.01650248 -0.06395055 -0.060623765 -0.024441207 -0.05472373 0.047958706
-0.051840603 0.08640289 0.09226772 0.057145666 0.06747221 0.06490253 0.07792012 -0.020404266
0.059694808 0.03991791 0.005854881 0.06864063 0.08270889 -0.041432787 -0.04155059 -0.02117979
-0.030515382 -0.024288362 0.00033284398 0.047674403 0.074312374 -0.082445875 -0.09404557 0.060700998
-0.00640334 0.04917239 -0.03419987 0.083852194 -0.043372396 0.022229332 0.02763248 0.09567098
-0.054293312 -0.07311485 0.0810225 0.059916895 0.09303982 0.08520678 -0.093464755 0.0582929
-0.072258405 -0.013696545 0.08127339 -0.023827154 -0.01962623 0.023842452 0.07187186 -0.020628298
0.0554896 0.04119114 0.03498266 -0.10025764 0.08093591 -0.021104826 -0.070329025 0.08444475
0.030185105 0.021047354 0.06416659 -0.012145201 -0.068016835 0.057497036 0.09800246 -0.03679941
0.025057785 0.04270904 -0.0076603293 0.01208477 0.034438383 0.036189068 -0.041722015 0.03334582
0.006080746 0.076490276 -0.056634963 -0.085937485 0.09145432 -0.038706828 0.020396227 0.094987616
0.008456586 0.07340013 0.081477135 0.026409913 0.07527544 -0.07297552 0.043726437 0.051463254
-0.09043616 0.06263733 0.034540143 -0.0035407452 -0.02623459 -0.06467274 -0.0027020946 -0.087337255
0.027787317 -0.04623529 0.09926422 -0.024317281 -0.033700764 -0.0011783873 -0.06774517 -0.0066689686
0.021671522 -0.008098952 -0.0130054355 0.023112452 0.0005507825 0.007361997 0.093898915 -0.0232646
-0.037426688 -0.05208249 0.015933204 -0.020469334 0.04830734 0.03565611 -0.029355789 -0.08520735
0.028521186 0.040314496 -0.027010143 0.014484167 0.06344809 -0.08899912 0.04734094 0.034547884
0.08172242 -0.03550562 0.03636945 -0.018448748 0.041243434 -0.024237514 0.033347763 0.07829354
0.07045532 0.048750203 0.043514386 0.06373195 0.09176676 -0.061483365 -0.035093438 0.012418878
0.028478308 0.06351227 0.067640215 0.059079934 0.021388555 0.0751206 -0.09962799 0.053372473
0.036474314 -0.01718982 0.09218685 -0.08587516 -0.07472368 -0.031167243 -0.04295236 -0.097655706
0.09130959 0.01767372 -0.032603927 -0.03324364 0.04626671 -0.099862315 0.04051111 -0.01489476
0.059793197 -0.042892586 -0.07260727 -0.09284734 -0.018572414 -0.023088569 -0.084514864 -0.054476075
8.348026e-05 0.011950827 -0.034615997 0.022445906 -0.0051992675 -0.01933601 0.084807165 0.02024322
0.007515514 0.09149518 -0.05086566 -0.029195894 0.046735015 -0.08943357 -0.08965677 0.09491829
0.070785835 -0.05476296 0.057037223 -0.028800761 0.073732965 -0.011212981 0.036798026 0.048022855
-0.041811656 0.067300856 0.018933415 0.0990921 -0.03782345 -0.08818183 0.006334901 -0.08345234
0.0713372 -0.030226981 0.043571103 -0.04473896 -0.038529266 0.00923524 -0.049343467 -0.05524528
0.0036156417 0.054481056 -0.04238801 0.013315595 -0.03403003 -0.084347144 0.044558454 0.09375522
0.095953524 -0.015947139 0.08981826 -0.06794294 -0.0033506514 0.020245148 -0.0025440454 0.08259743
0.01837541 -0.084110714 0.00445329 0.069390945 0.069672346 -0.05132096 0.0740216 -0.043339025

mlp.4.bias f4 [100]
00000000: 1495 1ebd d454 3bbd 7f4a 8cbd 5791 193e
00000010: e1bc 86bd 3d0e b4bd d23e 273d 18c1 d7bd
00000020: 3f67 273e 3a87 2abc 6d20 84bc 6b2b 71bc
00000030: fe53 8f3d 217a 11bd cd97 673d 3e0e f83d
00000040: fe8e 1a3d 1a2b 9f3d c0b6 7c3a 1437 6fbd
00000050: 374d 50bd 1b61 96bd 540c 353c 804d 15bc
00000060: 15f8 97bd 748e f73c c147 88bd 2f45 e73b
00000070: 4577 b9bc 429c 8c3d 6f91 c9bd f3fd 673d
00000080: d530 a83d e249 ba3c f234 133d 24a5 9f3d
00000090: f400 e13d 9a3b a93d 94c5 dd3c 18d2 bdbd
000000a0: e986 283c 939c 0d3c 217e d3bb f539 c1bd
000000b0: 4f9b 3ebd 99d6 48bd fbb8 173d 041e df3d
000000c0: 9599 a6bd 7468 ffbb 3077 a6bd 213e 493d
000000d0: 171b a7bd 0c63 2fbb 7085 50bd a718 a4bc
000000e0: f6ef d0bd a027 b5bd 13b4 d33b 3266 beba
000000f0: 96eb ed3c 4cec 553c 4658 8b3d a99b 04bd
00000100: 6728 513d 1fa7 adbc c4a3 1d3d 9c81 313c
00000110: 7396 18bd 403c 5dbd 7a78 0d3d 0e77 243d
00000120: bd24 31bd 3ea7 2abc e319 bcba a547 123e
00000130: 64b9 a0bc 6861 bbbd 3da7 bc3d 12c2 a73d
00000140: 927f 383d bba7 a6bc 873c 5bbd d07d c03d
00000150: a295 913c 4d01 8cbd c9f0 44ba e9ca ddbd
00000160: 663f 233c 3a8b d6bc a352 bfbd dde7 0b3d
00000170: da31 b3b7 4ed9 babb 4cc2 f9bc d8d8 a13b
00000180: 4a49 23bc daa1 5bbd 17f2 9bbd c212 41bc
-0.03871639 -0.045735195 -0.068501465 0.14996849 -0.065789945 -0.08791778 0.040831394 -0.105348766
0.16347979 -0.010408217 -0.016128743 -0.014719824 0.06998442 -0.03551686 0.056541253 0.121120915
0.037734024 0.07771893 0.0009640269 -0.058402136 -0.050854888 -0.0734274 0.011050303 -0.009112716
-0.07420365 0.030219294 -0.06654311 0.007057808 -0.02263988 0.06865741 -0.098421924 0.05663867
0.08212439 0.022740308 0.035939164 0.0779517 0.1098651 0.08263321 0.027071752 -0.09268588
0.010286071 0.008643287 -0.0064542447 -0.094348826 -0.046534833 -0.04903278 0.037041645 0.10894397
-0.08134762 -0.007794434 -0.08128202 0.049131516 -0.08159464 -0.0026761917 -0.050908506 -0.020031286
-0.10202019 -0.088454485 0.0064606755 -0.0014526306 0.029043 0.013056826 0.06803946 -0.03237501
0.05106392 -0.021197854 0.038486257 0.010834124 -0.037252855 -0.054012537 0.034538724 0.040152602
-0.043247927 -0.01041585 -0.0014350977 0.14285143 -0.019619651 -0.09149438 0.09211586 0.08191313
0.045043536 -0.020343652 -0.05352452 0.09398997 0.017771546 -0.068361856 -0.00075126864 -0.10829718
0.009963846 -0.026189435 -0.093419336 0.03415667 -2.1361677e-05 -0.0057021743 -0.030488156 0.00493918
-0.009966204 -0.05362115 -0.07614534 -0.011784257

mlp.6.weight f4 [1, 100]
00000000: 0d12 923a 668e 1abd 9aa7 f4ba cb4c b23e
00000010: b076 bbbb 9a84 763c 7b30 353e 4e37 c13d
00000020: cb9c 643e b186 4a3d c4d4 eebd d396 3c3d
00000030: 334c f73d 8c15 9d3d 0b80 e53d 0037 763e
00000040: 3cbf afbe efc3 343e 0b34 ef3d dff7 e43c
00000050: 1e39 71bc 0d47 b3bd f1b1 8e3d 2c64 573d
00000060: 90ef ae3d 23ad 62bd 3c13 bc3c 67ff a03d
00000070: 5e3b fe3d 8095 8c3d f356 f8bc 7c0c e1bd
00000080: c7ab 063e 7357 bb3d f96a 1fbe 7827 693e
00000090: 229a 4a3e 2452 553e 1bea 9d3c 176b 2d3d
000000a0: 7c3a 233e 3152 ddbc 0913 b0bd 0056 873b
000000b0: 1b84 0ebe c2ef 1ebd 848f cebb ddc0 3b3e
000000c0: 8d93 633d 73fa 4abd 36a6 d5bc 71e4 243e
000000d0: fa32 91bc 1aed b2bc 8302 71bd 6350 003d
000000e0: e409 08bd 16fd afbd 30ce cd3d 3c32 63bd
000000f0: b1f1 7abc 3f9c d6bd b9e5 603e ee2f b6bd
00000100: 74cf 253e 42eb b93b dd82 adbd ff7f 25bd
00000110: 5482 89bd ed62 a73d b12e 5fbe 2a31 4cbe
00000120: 08c6 16bd d148 a1bd 6658 f7bd 323a ba3e
00000130: b35a a0bd 4d96 863d 00b2 693e a206 a13d
00000140: ec5c a2bb a2d4 be3d 7b8c 123d 5a13 1b3e
00000150: ae67 c8bc 235c 053d a6c5 593b 59ab abbb
00000160: c3c0 653d d8a9 1d3d eb66 763d 97a0 e1bd
00000170: 6a2f e0ba df24 64be 95f5 243d dcd5 7ebe
00000180: e8b6 8b3e b849 48bd 6b44 9e3d 24b9 b4be
0.0011144296 -0.037733458 -0.0018665672 0.34824213 -0.0057209358 0.015046263 0.17694275 0.09434377
0.22325437 0.049444858 -0.116616756 0.046042275 0.12075081 0.07670125 0.11206063 0.24044418
-0.34325588 0.17652868 0.11679848 0.027950225 -0.01472309 -0.08753786 0.069675334 0.052585766
0.08541787 -0.055340897 0.02295839 0.07861214 0.12413667 0.06864452 -0.030314898 -0.10988709
0.13151465 0.09147539 -0.1556815 0.22768962 0.1978536 0.20832115 0.01927667 0.042338457
0.15940279 -0.027016731 -0.08597381 0.004130125 -0.13917582 -0.03880287 -0.0063037295 0.1833529
0.055560637 -0.049555253 -0.026080232 0.16102768 -0.017724503 -0.021841574 -0.058840286 0.031326663
-0.033212557 -0.08593194 0.10049093 -0.05546783 -0.015316413 -0.1047902 0.21962632 -0.088958606
0.16192418 0.005673797 -0.08472226 -0.04040527 -0.06714311 0.081731655 -0.21795155 -0.1994063
-0.03680995 -0.07875217 -0.120774075 0.36372524 -0.078297995 0.06571636 0.22821808 0.07862593
-0.004954925 0.093179 0.035778504 0.15144101 -0.0244635 0.03255857 0.003322938 -0.005238932
0.056092035 0.038492054 0.060156744 -0.11016958 -0.0017103974 -0.2227969 0.040273268 -0.24886268
0.27287984 -0.04889843 0.077278934 -0.352975

lstm.weight_ih_l0 f4 [200, 13]
00000000: 47e9 20bd 912d 593b 2408 af3d 664e 3b3d
00000010: 77b0 aa3d 6f70 0bbe fca6 30bd ca54 1bbe
00000020: debc 093e c90a c73d 14d2 fe3d d2b2 843d
00000030: cf2d 243c 8458 dc3d 973e 823d eb57 b0bd
00000040: adfd 24bd c845 e33c d5c6 de3c 1d4d f1bd
00000050: 6d91 a7bc 3e55 403d 6cc4 2dbd ae57 1bbd
00000060: 0f7f 813d c4e1 8bbc 3bdc b73d aa1a bdbd
00000070: 21bc df3d 51be bcbd 4942 903d 3c89 d23d
00000080: 6518 dabd ac1e 013d 0ec6 1d3e 6297 033e
00000090: c859 ca3c 707d 90bd be6a cfbd f0f2 033d
000000a0: f4f0 c93d 2683 4f3d 09be a9bd d1e6 233c
000000b0: 5ecc 033e 8126 0f3e b961 25bc d166 0abe
000000c0: f9ab f93d b56b f9bd bdac dcbd aaba d63d
000000d0: e9a0 75bc abda d43d 9b02 193d d5b4 a5bd
000000e0: 8a3f a7bd f3b8 e53d 6df2 603d 0007 34bd
000000f0: 8e1e a23c 874a af3d e696 f53d 8338 d33c
00000100: 1605 2dbd 5b58 f2bd 306d f9bd 9094 8dbd
00000110: 5719 6bbd fb57 cb3d 62e4 f53d 7795 4cbd
00000120: 9467 5a3d af52 99bd 6b4a 103d 5111 acbc
00000130: f3f9 093e 990d adbd 34c9 9bbd 10b0 0c3e
00000140: a8fd babd 2a52 47bd 4d29 3fbd 2e9e 383d
00000150: 660d 2fbc 392a 863d 9b99 a03d 359d 393d
00000160: 8b54 cc3d 2d45 073e 51f8 dcbd 7238 1d3c
00000170: 9fef df3d a8bc cf3b a139 c4bd 38a1 cebd
00000180: 129a 883c cc99 fe3d 7115 9f3d a01d 053e
00000190: f77b 69bc 040e 0f3e 0238 b23d 25db 083e
000001a0: 82ee 613d cf23 2abd b111 513c b971 3bbd
000001b0: b4a6 d0bc efca 8c3d 2c96 ac3d 606b af3d
000001c0: fc0b ffbd 0bf7 933d 4330 93bc 6e20 4dbd
000001d0: 8e20 b0bd b6ef ddbd edaf 023e 39c1 c5bd
000001e0: 708d 8fbd 5075 d1ba f518 f83d 8d44 69bd
000001f0: e8a9 52bc 35f5 943d 31bf 0bbe b79c 98bc
00000200: 804c 1d38 56b4 febc e3ad 79bc 0bc7 073e
00000210: 3af0 123d fd4c ad3d 1985 2bbd 0df2 febd
00000220: c2e7 293e dc54 363e 3e6f 343d 69bd db3d
00000230: 3f26 913d eda3 febc 8008 82bd 5ab0 e03d
00000240: 6ace 103d c680 ad3d 7954 bc3b ba06 86bd
00000250: a41f a4bd e5ed f8bb e5fd cf3d 00ae cc3d
00000260: cc81 8ebc a10b 8c3d b102 193d 310a b0bd
00000270: 450a 0b3e a641 c6bc 28d9 143d d4bc dc3d
00000280: 482f a3bc 57db 033d 638f 8f3d 6569 313c
00000290: 7ed5 28bd 7986 ed3d e7d7 bd3d 256c 203d
000002a0: 2b26 bdbd 66c8 653b b046 a93d 364d d33d
000002b0: 31bc 023e 0a51 e53d 084c 82bd 8863 993d
000002c0: 4c7e 023e 63b1 78bc d9b6 f4bd d8d8 8a3d
000002d0: d25d 963d af48 f2bc d1a1 04bd be81 8dbd
000002e0: 0cd1 e6bd 857b d33d 4567 a9bc 734d e13d
000002f0: 90fb f73d 4f95 9b3d 4b6b 363d a8ee 45bd
00000300: 846f 633d a808 143e 4cdf e63b 86e3 c5bd
00000310: 2395 f4bc a5e5 153d 32ac f9bd 5df0 a3bd
00000320: 7825 04be 0ed9 143d 4715 9a3d 5df1 d83d
00000330: a922 a03c 23e6 f0bc 4e1d 643d 7e03 f03d
00000340: 4ac1 4d3c 1130 9fbd 9013 a93d 1df8 60bd
00000350: e9e7 de3d 1285 90bd 9c05 643d a761 c6bd
00000360: 1158 8cbd 8438 013e c368 f83d 8446 6fbd
00000370: e22a d8bd 7081 9abd 05df e7bd b4d0 b6bd
00000380: 9175 953d 9213 7a3d 0639 e0bd 247f 18be
00000390: dd83 f13d 05f9 103d 51a9 cebd 0110 1cbd
000003a0: 3644 d03d b44d 883d f270 a93d abb5 d8bd
000003b0: fee3 033e 9c13 113d f250 793d cef8 133d
000003c0: c38c 93bd fbd6 1dbd 20b5 bebd 15a5 5d3d
000003d0: 2b6a 1dbd 1cd5 bb3d 9600 8dbd ed57 34bd
000003e0: 3fc8 acbd c886 10bd f0cc 8a38 8834 823c
000003f0: b94f ffbd cc4f a83c 759b b5bd 7b73 093e
-0.03928497 0.0033138732 0.085464746 0.045729063 0.08334439 -0.13617109 -0.043128 -0.15169063
0.13450953 0.09718854 0.12442413 0.0647942 0.010020687 0.107590705 0.06359594 -0.08610519
-0.040280987 0.027743235 0.02719442 -0.11782286 -0.020455087 0.046956293 -0.04242365 -0.037925415
0.06323063 -0.017075427 0.089775525 -0.092336014 0.109245546 -0.092159875 0.07043893 0.10280082
-0.10649184 0.03152339 0.15407583 0.12850717 0.024701014 -0.07055175 -0.10127781 0.032214105
0.09860411 0.050662182 -0.082881995 0.010003761 0.12870929 0.13979532 -0.0100941 -0.13515784
0.12191004 -0.121787466 -0.10775135 0.10484822 -0.014991977 0.1039327 0.037356 -0.080911316
-0.08166416 0.11216917 0.054918695 -0.04395199 0.01978996 0.08559137 0.11991672 0.025783783
-0.04224118 -0.11833259 -0.12179029 -0.06913102 -0.057397213 0.0992889 0.12006451 -0.04994723
0.053321436 -0.07486474 0.03522722 -0.02100435 0.13474254 -0.08449859 -0.07606736 0.13739038
-0.09130412 -0.048662342 -0.046670247 0.045072727 -0.010684347 0.06551022 0.07841798 0.04531594
0.09977063 0.13209982 -0.1078955 0.009595977 0.10934376 0.0063396282 -0.09581304 -0.10089344
0.016675029 0.12431678 0.077677615 0.12999582 -0.014250747 0.1397019 0.08702089 0.13364847
0.0551591 -0.041538056 0.012760566 -0.04576275 -0.025470115 0.06874644 0.084270805 0.08565402
-0.12453458 0.07224854 -0.017967349 -0.050079755 -0.08599959 -0.10836737 0.12762423 -0.09655995
-0.07009399 -0.0015980396 0.12114135 -0.05695014 -0.012857892 0.07273332 -0.13647152 -0.018629415
3.7502963e-05 -0.03109185 -0.015239212 0.13259523 0.03587363 0.0846195 -0.04187498 -0.12448511
0.16592315 0.17805809 0.0440514 0.107294865 0.07087373 -0.031084025 -0.063492775 0.109711364
0.0353531 0.08471827 0.0057473746 -0.06544252 -0.080138475 -0.0075967186 0.101558484 0.09994125
-0.017395876 0.068381555 0.037356082 -0.08595694 0.13578136 -0.024201225 0.03633991 0.107782036
-0.019920006 0.0321916 0.07009771 0.010828351 -0.041219227 0.11597914 0.09269696 0.039165635
-0.092357956 0.0035062074 0.08265436 0.10317461 0.12767102 0.111970976 -0.06362158 0.07489687
0.12743491 -0.015179011 -0.11948938 0.06779641 0.073421136 -0.029575674 -0.032380883 -0.06909512
-0.11270341 0.10326294 -0.020679126 0.110011004 0.121085286 0.07596838 0.044535916 -0.048323303
0.05552627 0.14456427 0.007045662 -0.09662537 -0.02985627 0.03659596 -0.12191047 -0.0800483
-0.12904918 0.036339812 0.075235896 0.105929114 0.019547777 -0.029406613 0.05569201 0.11719416
0.012558291 -0.0777284 0.082556844 -0.05492412 0.10884077 -0.07056631 0.055669412 -0.096865945
-0.06852735 0.12619215 0.12129357 -0.05841686 -0.10555054 -0.075442195 -0.113218345 -0.08926526
0.07297815 0.06105382 -0.10948376 -0.1489225 0.11792729 0.035393734 -0.10090888 -0.0381012
0.1016926 0.06655446 0.08273496 -0.105815254 0.12879941 0.03541909 0.06086821 0.03612595
-0.072045825 -0.0385351 -0.093118906 0.054112513 -0.038431328 0.09171507 -0.068848774 -0.044029165
-0.084366314 -0.035284787 6.6185254e-05 0.01589419 -0.12466378 0.020545863 -0.08867542 0.13422959

lstm.weight_hh_l0 f4 [200, 50]
00000000: 7f5f 8c3d 9376 4c3c e933 bbbd 75a5 233d
00000010: 43cd 8b3d 7814 cdbc 54d3 2dbd 3361 7d3c
00000020: cd4e 013e 5222 e5bd 8a62 f13d f2f4 95bd
00000030: 912b cdbd ccb4 5c3d dce2 f53d 6598 d73d
00000040: 868b 05bd 0d9d 42bc d3b4 46bc 503e 3f3d
00000050: 8295 c5bd 4945 b9bd 0904 c8bd 12cd 823d
00000060: 734f a8bd 769e f0bd 9c4b b0bd 479c ca38
00000070: 1187 f3bd 8787 623d 82ab a8bd b2eb edbd
00000080: 5691 1b3d 81b9 ef3c 784f f2bc 215f cbbd
00000090: e976 cabd 977b b5bd 14f2 9dbc dbbd e7bc
000000a0: 2dde 1ebd 49cf 7d3d a959 64bd a924 08be
000000b0: c4f6 233d cc83 5f3d 5e5a 03be f8d4 bdbd
000000c0: fb01 8c3d 4945 02be c296 11be 0bce ff3d
000000d0: 9609 7b3d 4934 e23d 62a2 333c 97ae 8f3d
000000e0: 5d81 e6bd 34ed c43c e82e 153c fc62 cabd
000000f0: 689a fe3c fcb4 bcbd ff44 e5bd fc4a 353d
00000100: 03b2 403d dbb8 c2bc 5584 8c3d 39dd 763d
00000110: 47dd ad3d 134a d63d 17fa d2bd e64b fe3d
00000120: bac1 d6bd ac77 d1bc f1fb f93b d552 a1bd
00000130: 5861 f0bd 84d1 233d 3286 063c 79dc f53d
00000140: 2141 0d3e 4ceb f13d 2e7b 29bc 4810 b13d
00000150: 88c4 893c 6eaf 683d 4622 3cbc 3b33 98bd
00000160: 361a e13c 587f b83d 9dd7 94bd 0785 06be
00000170: 8ebb eebd ac87 52bc ba7b a9bd 4b68 83bd
00000180: 1b6e 3d3d 19e4 33bd a09a 953d 452c 11be
00000190: ee5f b33d 140f 043d 175f fb3d 76ef 953d
000001a0: f33d 043d 7f94 2e3d 36b5 e03d 1db3 0bbe
000001b0: b253 e9bd 66ce a13d 7a31 f9bd 31af 103e
000001c0: 7d2d e1bd 18b6 443d 11e5 a63d f35a 453d
000001d0: 18ef c2bd bee4 61bd aa63 92bd 56a8 d8bd
000001e0: 6993 0e3e bd44 543d ec2c 423c 4809 d43d
000001f0: 9a4f 23bd 8708 e73d d8e4 b1bd def1 83bd
00000200: 10f7 f3bd 750a ec3d 2938 c33d c8bb 383c
00000210: a284 b83d e41c b93c ba17 c03d 3212 313d
00000220: 8c02 03be 58ac 303d 47f5 d43d de0f 0b3e
00000230: 0b98 f3bd ade5 19bd 8532 cabc 651e e1bd
00000240: 07d5 8b3d 1ca1 29bb c7b9 9f3d 9794 e1bc
00000250: 8438 413d aad6 303d f883 db3d c1f0 db3c
00000260: 7616 4d3c 716c 063e b655 40bd 6287 e33c
00000270: 20f2 00be af4a f0bc 7c95 3abc fd2a e1bd
00000280: b0ac d93c 21af 0b3d 82aa f5bd 34e0 463d
00000290: 5eb6 5d3d b6a4 5c3c 4709 be3d 30b4 e1bd
000002a0: c461 573d 1b58 963d 362b ccbc 05b5 033e
000002b0: b47e 743d 8f13 a1bc 6ea0 ec3c f288 343d
000002c0: 6dc4 eabd ed72 973d c97f b2bd 58ae e0bd
000002d0: 8c06 8d3d 1472 9bbd a159 c7bd 98c2 233d
000002e0: 4add e33d 4f46 103e 9493 3e3c dffe f0bd
000002f0: 8a4e 0abe bc9d d73d b430 0d3e 98ca b53c
00000300: 0782 ecbd d71a 5cbd 4b2e b9bd 658e e03b
00000310: b865 ab3c 0d56 efbd d905 c6bc 19ec a23d
00000320: 8481 83bd c63b 1cbd c2af f73c fc0a 91bd
00000330: ca0d 0c3d 04a6 2a3d dd21 e33d 3baf 0c3e
00000340: 6ea7 943d de26 883d 07d2 fa3d f1ab 77bd
00000350: d63a 943c d20b 463c e816 95bd a255 94bb
00000360: c81b 02be 27fd b9bc 6b70 653d d0c8 c93d
00000370: c3e5 b9ba 7a06 7cba b4d3 ea3d c6c2 4c3d
00000380: 00fb ddbd 278d 55bc e8d1 00be 8cdc 473d
00000390: 855d 4f3d b2a7 4c3c 3908 acbd c4ad c13c
000003a0: 74eb d3bd 2ff9 fbba 4b4f 27bd 6079 76bd
000003b0: 6397 82bd 1f1d 19bc 4d72 e2bd 6a97 84bd
000003c0: 691d 273d aeca 9cbd 0e60 a9bd a86b aabd
000003d0: f0c0 9e3d c12e ad3d b853 e2bd e0b9 f9ba
000003e0: ca3c b63c 3a9c 34bd 8bdd e63d 48b5 843d
000003f0: 99de d03c 4169 bbbd d29b 0dbe f696 6e3c
0.06854152 0.012479442 -0.091407605 0.039952714 0.0682626 -0.025034174 -0.042437866 0.015465069
0.12627716 -0.11188187 0.11786373 -0.0732211 -0.10018075 0.05388336 0.120061606 0.10527114
-0.032603763 -0.011878264 -0.012128073 0.046690285 -0.09647657 -0.09046418 -0.09766395 0.0638677
-0.08218279 -0.11748974 -0.08608171 9.6612195e-05 -0.11890996 0.05530503 -0.082358375 -0.11617221
0.0379804 0.02926326 -0.02957891 -0.09930254 -0.098859616 -0.088614635 -0.01928047 -0.028288772
-0.038786102 0.06196526 -0.05574957 -0.13295235 0.040030256 0.05456905 -0.12827441 -0.09269136
0.06836315 -0.12721743 -0.14217666 0.124904715 0.06128844 0.11045129 0.010964008 0.07015722
-0.11255143 0.024038889 0.009105422 -0.09882161 0.031079486 -0.092142075 -0.111948006 0.044260964
0.047044765 -0.023769787 0.06861178 0.060269568 0.08489471 0.10463347 -0.10301607 0.1241682
-0.10486169 -0.02556976 0.0076289107 -0.07877127 -0.11737317 0.03999473 0.008210706 0.120049424
0.13794376 0.118124574 -0.01034431 0.086456835 0.016817346 0.056807928 -0.011482781 -0.074316464
0.027478319 0.09008664 -0.072676875 -0.13136683 -0.11656867 -0.0128497295 -0.08275552 -0.06416377
0.046247583 -0.043918703 0.07304883 -0.14177044 0.087585315 0.032240942 0.12273996 0.07321064
0.032285642 0.042622086 0.10972063 -0.13642545 -0.11392917 0.079006955 -0.1216764 0.1412933
-0.10995004 0.04802522 0.0814916 0.04818244 -0.0951826 -0.055149786 -0.07147916 -0.105789825
0.1392342 0.051823366 0.0118515305 0.10353333 -0.039870836 0.11280923 -0.086862266 -0.06442617
-0.11912358 0.11525432 0.09532196 0.011275239 0.09009673 0.022596784 0.093795255 0.043230243
-0.1279394 0.04313311 0.103983454 0.13580272 -0.11894234 -0.03757255 -0.024682293 -0.109921254
0.06827741 -0.0025883382 0.07799106 -0.027536673 0.047173038 0.04317347 0.107185304 0.026848199
0.012517562 0.13127305 -0.04695674 0.027774516 -0.12592363 -0.029332487 -0.011388179 -0.109945275
0.026571602 0.034102563 -0.119954124 0.04855366 0.054128997 0.0134670045 0.09279113 -0.11020696
0.05258347 0.073410235 -0.024922948 0.12862022 0.059691146 -0.019662647 0.028885093 0.044075914
-0.114632465 0.07394967 -0.08715779 -0.109707534 0.06886014 -0.07590118 -0.09733892 0.0399805
0.11126192 0.1408932 0.011631865 -0.11767363 -0.13506523 0.10528132 0.1378811 0.02219133
-0.11548238 -0.053736534 -0.09042033 0.0068529123 0.020922527 -0.11686335 -0.02417271 0.07955188
-0.064211875 -0.038142942 0.030235175 -0.07082173 0.034192838 0.04166223 0.11090443 0.1373872
0.07258497 0.06648038 0.12247091 -0.06046671 0.018094461 0.012087779 -0.0727976 -0.00452681
-0.1270591 -0.02270372 0.056015413 0.09852755 -0.0014182854 -0.0009614002 0.114661604 0.049990438
-0.1083889 -0.013034142 -0.12580073 0.048794314 0.050626297 0.012491154 -0.08400006 0.023642428
-0.103476435 -0.0019224043 -0.040847104 -0.060174346 -0.06376531 -0.009345322 -0.110569574 -0.064741924
0.040799532 -0.076558456 -0.08270274 -0.08321315 0.07751644 0.08456183 -0.11051124 -0.0019052587
0.022245783 -0.0440943 0.11272725 0.06479889 0.025496768 -0.09150935 -0.13828972 0.014562359

lstm.bias_ih_l0 f4 [200]
00000000: 58ce 01be 80e8 0f3e 2a0c b3bc 1624 5abd
00000010: 91df fd3d 00ca 00be 10a3 7ebd 85e5 2abd
00000020: 16e3 a93d aa6e 0e3e dfe0 90bc 3dfc 083e
00000030: 9f98 cf3d b2ed 123e f434 a1bb a715 8b3d
00000040: 6805 3a3d 75ec 9cbd 61af 0cbd 19d5 493d
00000050: 997d 6c3c f309 21bd b645 d43d 0796 debc
00000060: 6e41 08be 47e3 d1bd baec 1fbd 8917 c43d
00000070: 40fd e33c 57d3 d7bd b7cd c53d c098 e8bd
00000080: 179c 47bd b1fb 573d 8c43 b03d f167 a6bb
00000090: 9d56 7c3d cd72 a2bd ddee 91bd 5bf9 f53d
000000a0: a9a5 793d ffc9 eebc 7ede bcbc c782 123d
000000b0: e803 10be 8282 073e 67eb b23d 3ea2 d3bd
000000c0: 77ff 81bd 0102 92bd cfd9 67bd 64e9 02bc
000000d0: 7bde e3bd 3d6c 09bd 5b81 0abe e325 d9bd
000000e0: 450a ac3c 24d1 ee3d 0360 d4bd 9855 59bd
000000f0: 76da dd3c 8054 06be 7242 d6bc afd8 d43d
00000100: b456 f23d c15b ba3d 8f54 093e b858 abbd
00000110: 9362 01be 90ba 143d 4fe5 e9bd 75a8 b43d
00000120: 26d3 06be 21db f6bd 75d6 003d be5d 843b
00000130: 9b8c 0cbe 1988 ad3d 9fc0 f2bd 59bb 05be
00000140: aac6 95bd 77cb 4ebc 95a0 fb3d 758b b43d
00000150: 462d 673c d25b 00bc d27c 323d f019 f83d
00000160: 214b fe3d 196e e23a 2976 b0bc d031 96bd
00000170: d312 0b3d cbcf eabc 1e55 5dbd 206c fcbd
00000180: 7108 afbd 9c3f a33d cc50 eb3d 9416 9d3d
00000190: 9871 fa3d a389 babd e6d2 493d 89be 123e
000001a0: 5923 f03d b4e6 d03d 6610 973d 1232 cf3d
000001b0: f7d6 073e d46b 02be 9eca 993c 8076 f0bc
000001c0: 9d4b 44bd bcde 673d 1ecc 94bd e1b8 153e
000001d0: c25f 5bbd 67bb 41bc ca92 393d addf ab3d
000001e0: 60d5 d4bd b765 3dbd b280 17be 1456 d63d
000001f0: a973 08be 384f 0fbc ab1a e63d e157 cdbd
00000200: 5ccc 953d 7667 6ebd 31e0 dbbd ca59 fcbd
00000210: 3647 2b3d ca2a 873d 46f4 cf3d a7e6 f8bd
00000220: 97a1 68bd f70d cf3d 71bc 583c 5f53 813d
00000230: d931 083e 872b abbb a9e0 03bd 38a5 0c3e
00000240: d0db bbbd 4947 bebc 4c85 bcbc dc7a 4f3d
00000250: 51b5 2f3c a177 023d 4f43 d1bd 5fbb 013d
00000260: 1749 d6bd f939 51bc 97c7 33bc a578 c3bd
00000270: f6c6 d13d fcf9 333d 3d98 aabd 613e 053e
00000280: b671 a1bd f469 0c3d c2ba 123e e91d efbd
00000290: 8a93 7a3c 2b27 cd3d 14bb 013d 920c 7dbd
000002a0: 6a72 ebbd f499 83bd d8ad b8bd 6fe6 f8bd
000002b0: 369e a13c 9226 01be 86ed bcbd 696f 0bbd
000002c0: e499 d6bc 320d b93c e14e fe3c a7ec 0bbe
000002d0: 7540 efbc ab72 873d 586f de3d 6acc ce3d
000002e0: 15c3 ee3d eb50 c93d f398 0fbd 758a ff3d
000002f0: 32d1 bcbd f008 7d3d 09c8 65bd 6830 cc3d
00000300: d2b2 0d3e 2ae2 76bd 41cd 25bc 7861 70bd
00000310: 9674 a93c e413 95bd c23f 053d b0ac 85bd
-0.1267637 0.14053535 -0.021856386 -0.05325707 0.123961575 -0.12577057 -0.062167227 -0.041722793
0.08295266 0.13909402 -0.017685352 0.13377471 0.10136532 0.14348486 -0.0049196426 0.06791239
0.045415312 -0.07662288 -0.03434694 0.04927549 0.014434242 -0.03931613 0.10364859 -0.027171148
-0.1330621 -0.10248428 -0.03904412 0.095748015 0.02783072 -0.10538357 0.096583776 -0.1135726
-0.048732843 0.052730266 0.086066335 -0.0050783087 0.06160604 -0.07932053 -0.07125638 0.120104514
0.060949 -0.029149054 -0.023055311 0.03576925 -0.1406399 0.13233379 0.08736306 -0.103336796
-0.06347554 -0.071292885 -0.056604203 -0.007990215 -0.11126419 -0.03355049 -0.13525908 -0.106029294
0.02100099 0.11660984 -0.10369875 -0.053060144 0.02708171 -0.13118172 -0.02615473 0.103928916
0.118329436 0.09099532 0.13411163 -0.08366531 -0.1263526 0.036310732 -0.1142069 0.08821193
-0.13166484 -0.12053514 0.031454522 0.0040394953 -0.13725512 0.08473224 -0.11853146 -0.13059749
-0.07313283 -0.012621752 0.12286488 0.08815662 0.014109915 -0.007834392 0.04357607 0.12114322
0.124166735 0.0017275243 -0.021540718 -0.0733372 0.0339535 -0.028663537 -0.054036252 -0.12325311
-0.08546532 0.07971117 0.1149002 0.07670322 0.122286975 -0.09108283 0.049273394 0.14330496
0.11725492 0.10200253 0.07376175 0.10116972 0.13265596 -0.12736446 0.018773373 -0.02935338
-0.047923673 0.0566089 -0.07265495 0.14621307 -0.05355812 -0.011824465 0.045306005 0.08392272
-0.103922606 -0.04623958 -0.14795187 0.10465637 -0.13325371 -0.008746915 0.11235555 -0.10026527
0.07314369 -0.058204137 -0.107361205 -0.123218134 0.04181596 0.06599958 0.10154013 -0.121533684
-0.05679473 0.101100855 0.013228522 0.0631473 0.13300265 -0.0052236947 -0.032196674 0.13734901
-0.09172785 -0.02322735 -0.02301278 0.050654277 0.010724382 0.03185237 -0.10217916 0.03167283
-0.104631595 -0.012770169 -0.010972879 -0.095444955 0.10243027 0.043939576 -0.083298184 0.13012077
-0.07883017 0.034280732 0.14329055 -0.11675627 0.015293965 0.10017236 0.031672552 -0.061779566
-0.11496432 -0.064258486 -0.09017533 -0.12153327 0.019728761 -0.1261237 -0.092249915 -0.034041796
-0.026196428 0.0225893 0.031043472 -0.13664494 -0.02920554 0.06613668 0.10861081 0.10097583
0.11658303 0.09829887 -0.035057973 0.124775805 -0.09219588 0.0617761 -0.05609897 0.0997017
0.13837746 -0.06027428 -0.010119737 -0.058686703 0.020685475 -0.072791845 0.032531507 -0.06527078
