crowd_nav/data/LSTM_RL-test/rl_model.pth (torch, 191490 bytes, 11 tensors)

mlp.0.weight f4 [150, 56]
0.03921094 0.11469131 0.004862795 0.06905843 -0.05244362 -0.11777126 -0.03862826 -0.09938537
-0.03843151 -0.1170255 -0.10013386 0.01615785 -0.048726235 0.045699943 -0.07695086 -0.07193152
-0.09350032 -0.0034852135 0.11800033 0.028604234 -0.09416088 -0.044219382 0.11359277 0.043116957
-0.12008585 -0.06536122 0.02596673 -0.046238337 -0.09113632 0.09558903 0.08003428 -0.054382663
-0.014580022 -0.08760942 -0.061787643 0.11582522 0.08513254 0.11712998 -0.057212293 -0.07653109
0.118869 -0.04155587 0.056093276 -0.07114665 0.048186637 0.025910059 0.062495362 0.068246305
0.044588584 0.037618265 0.044008818 0.11946483 -0.13241535 -0.11518934 0.087972224 -0.04519103
-0.08950299 -0.082964614 0.12327711 0.056083657 -0.08479224 0.10472455 -0.045282595 -0.08943416
0.12495549 -0.09080865 0.1315708 -0.092138775 0.083629444 0.09763111 0.06713204 0.06640224
-0.1300595 -0.006278194 0.034586523 0.023764124 -0.11000967 0.06412579 0.009801335 0.08356607
-0.082028694 -0.052977517 0.051185474 0.06576263 -0.03226783 -0.03949785 -0.085213974 0.055298444
-0.08177011 0.098625116 0.10924099 -0.012554592 -0.12699413 -0.0555246 0.0971272 0.08061702
-0.07700301 -0.028213544 0.03342345 0.018947173 0.08515222 -0.029805774 0.045266043 0.12336408
0.12926956 0.10379361 0.12279105 0.0003208433 -0.103824325 0.023814874 -0.09254513 0.07711275
-0.044699065 -0.06702106 0.0823951 -0.07575359 -0.01996957 0.1297211 0.09864333 -0.13620715
-0.058072668 0.064138494 -0.022381276 -0.01148189 0.086242974 0.11070595 -0.101551965 0.014821644
-0.0016833773 0.13483366 -0.07317769 0.13036707 0.11766794 0.07256645 -0.0018348423 -0.10228137
0.026685465 -0.1250418 0.053431567 -0.05013783 -0.05615932 -0.009321824 -0.10100446 -0.1358695
-0.07638673 0.1278258 0.11471037 0.04615998 -0.021430507 0.08939628 -0.044559002 0.06079282
-0.13098747 0.09105719 -0.07405501 0.115038484 -0.058023266 0.050006464 -0.12512058 -0.09419862
-0.07552542 0.017106518 -0.100276634 0.08232208 -0.048744973 0.030567944 -0.029252693 0.005997048
0.113619894 -0.081629835 -0.02425153 0.06600995 0.12367452 -0.13355803 0.021144547 -0.05637926
0.05727088 -0.103182234 -0.10027507 0.11660321 0.07750661 0.063787185 -0.120136045 -0.03465258
0.065884285 -0.042156175 0.08273996 0.08808779 0.0141279595 0.0063436124 0.08142732 0.00068958756
0.058456335 -0.014741649 0.053943157 0.06975221 0.093958296 -0.012782652 -0.12194486 0.02491778
0.065420374 -0.12302694 -0.13643166 -0.13725805 0.11084294 0.06226039 0.057612497 0.10323439
0.024812529 0.09645394 -0.055372503 0.082862504 0.03210892 -0.021572141 0.08610735 -0.08253145
0.044925302 0.037376918 -0.07618612 -0.13731162 -0.10961155 -0.09698465 0.0382587 0.042008873
0.06727505 0.06740639 0.0014494557 0.1158298 0.10799451 -0.102430545 -0.0763255 -0.029672345
0.022351827 0.10284792 -0.06475671 -0.032115903 0.10382473 -0.1066602 0.13181576 -0.018483557
-0.08568083 0.11477015 -0.10631816 0.11497159 0.078805774 -0.08064729 -0.051723767 -0.114676476
-0.10326086 0.021763198 0.122383736 0.10470938 -0.09474566 0.08422287 -0.08266153 0.0038809676
00000000: a79b 203d 47e3 ea3d 1558 9f3b 826e 8d3d
00000010: 1fcf 56bd 0f32 f1bd ab38 1ebd 8f8a cbbd
00000020: 5c6a 1dbd 11ab efbd fb12 cdbd 785d 843c
00000030: 2995 47bd dd2f 3b3d 6a98 9dbd d550 93bd
00000040: 197d bfbd 2e68 64bb 28aa f13d 6d53 ea3c
00000050: 6bd7 c0bd 621f 35bd 54a3 e83d 689b 303d
00000060: 92ef f5bd 1adc 85bd 2eb8 d43c 6964 3dbd
00000070: aea5 babd 2ec4 c33d 03e9 a33d 5bc0 5ebd
00000080: 0be1 6ebc 916c b3bd 0a15 7dbd c635 ed3d
00000090: f859 ae3d d8e1 ef3d 7057 6abd 55bc 9cbd
000000a0: 9771 f33d 7d36 2abd 10c2 653d 56b5 91bd
000000b0: 5a5f 453d 5541 d43c 23fb 7f3d b8c4 8b3d
000000c0: 85a2 363d 9c15 1a3d 9742 343d faa9 f43d
000000d0: e497 07be 64e8 ebbd c82a b43d 3b1a 39bd
000000e0: 584d b7bd 5ae9 a9bd b678 fc3d fab7 653d
000000f0: 8ea7 adbd d379 d63d 3e7a 39bd 4229 b7bd
00000100: aae8 ff3d e3f9 b9bd 7fba 063e 41b3 bcbd
00000110: ea45 ab3d d2f2 c73d 867c 893d e6fd 873d
00000120: 512e 05be 4fb9 cdbb 99aa 0d3d fbac c23c
00000130: c04c e1bd 6254 833d c795 203c b024 ab3d
00000140: a9fe a7bd f4fe 58bd dca7 513d 8fae 863d
00000150: 462b 04bd 7fc8 21bd aa84 aebd 9f80 623d
00000160: 1677 a7bd f7fb c93d bdb9 df3d c7b1 4dbc
00000170: c00a 02be c36d 63bd a0ea c63d 891a a53d
00000180: c1b3 9dbd 1720 e7bc 07e7 083d 1a37 9b3c
00000190: 4a64 ae3d 3d2b f4bc e368 393d 4fa6 fc3d
000001a0: 3d5f 043e bf91 d43d e079 fb3d dc36 a839
000001b0: d9a1 d4bd 6917 c33c 4d88 bdbd 4aed 9d3d
000001c0: 5e16 37bd 5642 89bd c3be a83d b324 9bbd
000001d0: 3997 a3bc 9cd5 043e 8405 ca3d e379 0bbe
000001e0: 9bdd 6dbd 0b5b 833d f058 b7bc 8a1e 3cbc
000001f0: 28a0 b03d cdb9 e23d 7afa cfbd 7bd6 723c
00000200: c5a4 dcba d611 0a3e 2fde 95bd f27e 053e
00000210: e4fb f03d b89d 943d 177f f0ba e578 d1bd
00000220: 7a9b da3c f50a 00be 0fdb 5a3d 535d 4dbd
00000230: 5107 66bd 90ba 18bc 6ddb cebd 6021 0bbe
00000240: a570 9cbd c4e4 023e 45ed ea3d 3f12 3d3d
00000250: 088f afbc 6615 b73d 8083 36bd e401 793d
00000260: 9421 06be 317c ba3d 27aa 97bd 4c99 eb3d
00000270: cea9 6dbd 94d3 4c3d 9c1f 00be 35eb c0bd
00000280: 12ad 9abd f822 8c3c d65d cdbd 7b98 a83d
00000290: cfa8 47bd a069 fa3c 58a3 efbc e382 c43b
000002a0: 8cb1 e83d 8b2d a7bd 25ab c6bc 3a30 873d
000002b0: 1149 fd3d 70c3 08be 5437 ad3c f0ed 66bd
000002c0: df94 6a3d 3551 d3bd 045d cdbd aacd ee3d
000002d0: c9bb 9e3d dba2 823d e309 f6bd ddef 0dbd
000002e0: 57ee 863d f4ab 2cbd 9173 a93d 5f67 b43d
000002f0: f578 673c 14de cf3b 5ec3 a63d 70c5 343a
00000300: e96f 6f3d f586 71bc 80f3 5c3d 3fda 8e3d
00000310: 356d c03d 546e 51bc 3abe f9bd 5f20 cc3c
00000320: 1efb 853d 8cf5 fbbd beb4 0bbe 608d 0cbe
00000330: a001 e33d c004 7f3d 15fb 6b3d 8d6c d33d
00000340: a543 cb3c a589 c53d 47ce 62bd d1b3 a93d
00000350: a584 033d 0fb8 b0bc 0d59 b03d 4006 a9bd
00000360: 9803 383d 8a18 193d 7807 9cbd 6b9b 0cbe
00000370: 057c e0bd e39f c6bd 28b5 1c3d 7f11 2c3d
00000380: 80c7 893d 5d0c 8a3d aafb bd3a 2d38 ed3d
00000390: 3a2c dd3d 1bc7 d1bd 8b50 9cbd 6b13 f3bc
000003a0: 2e1b b73c eea1 d23d 2a9f 84bd f78b 03bd
000003b0: 0fa2 d43d aa70 dabd b6fa 063e d46a 97bc
000003c0: 6e79 afbd 9d0c eb3d 56bd d9bd 3a76 eb3d
000003d0: ec64 a13d 682a a5bd 4ddc 53bd 80db eabd
000003e0: 6e7a d3bd bc48 b23c 53a4 fa3d df71 d63d
000003f0: 030a c2bd 0a7d ac3d 734a a9bd d557 7e3b

mlp.0.bias f4 [150]
0.002543302 -0.076055184 0.09857659 -0.112320594 -0.11914923 -0.06731221 -0.080446154 -0.07496803
0.07972603 -0.015378669 -0.12785143 0.122348435 -0.0977736 0.059135433 0.026645217 -0.13076927
-0.04446636 0.14269859 -0.041184444 0.0814279 -0.12073272 0.046113495 -0.025550054 -0.08440638
0.09307345 -0.013858819 0.009158492 0.039579503 -0.13569307 -0.11249651 -0.0481205 0.124584414
-0.08669301 -0.1083098 0.12390113 0.014670664 0.07618073 0.10850629 0.11739309 0.030825173
-0.116017826 -0.1090006 -0.09308306 -0.10460167 0.021804329 0.13115911 -0.11038983 -0.03630805
0.11857583 -0.003338761 0.07848101 -0.04481728 -0.022274092 0.016906716 0.1287791 0.009678331
0.10954282 0.07114751 -0.05289135 0.003593916 -0.063567586 0.021106148 0.040070318 0.063393444
0.07826628 -0.011068276 0.115412086 -0.06979271 -0.03451512 0.048832364 0.088805564 0.050646693
0.07527718 -0.00874161 0.107865386 -0.04570569 0.069693424 0.04026656 0.07182915 -0.086452134
-0.029563373 0.09582126 -0.0010769971 -0.13542575 -0.03860392 0.029078119 -0.0065055313 -0.11943026
0.10116816 0.0951871 -0.06870496 0.1281287 0.13267651 -0.078928374 0.11801188 -0.06893865
-0.08847058 -0.11979869 0.075762495 -0.09904257 0.10440824 -0.020149497 0.090235054 -0.017532932
-0.046912942 0.11546108 0.111706465 0.05688471 -0.0846196 -0.06188932 -0.11373856 -0.0826419
0.02838562 0.06323188 0.06505 0.04419771 -0.077287875 -0.12751973 -0.0037628962 0.06276862
-0.03510232 -0.082320265 0.036279872 0.054490488 -0.02205565 -0.03201528 -0.11637452 -0.10827533
-0.047472786 0.07484406 -0.088446304 -0.10388538 0.08000666 -0.011251192 -0.004915874 -0.06384523
-0.1621732 -0.08815269 0.11093854 0.092401505 -0.06333626 0.10637882 0.037670057 0.006986267
-0.0635979 -0.096049294 -0.11123829 0.06371197 0.038677994 0.09735941
00000000: 87ad 263b d2c2 9bbd 86e2 c93d 5708 e6bd
00000010: 8304 f4bd fcda 89bd f4c0 a4bd d788 99bd
00000020: 6747 a33d d0f6 7bbc 7ceb 02be d191 fa3d
00000030: 863d c8bd ff37 723d 1247 da3c 61e8 05be
00000040: 5c22 36bd 941f 123e 05b1 28bd acc3 a63d
00000050: b742 f7bd 81e1 3c3d 594e d1bc 41dd acbd
00000060: 4b9d be3d 1a10 63bc 800d 163c 1e1e 223d
00000070: 20f3 0abe 9264 e6bd 001a 45bd 1d26 ff3d
00000080: 1b8c b1bd 87d1 ddbd e0bf fd3d 3a5d 703c
00000090: a404 9c3d 8c38 de3d ca6b f03d 1385 fc3c
000000a0: c19a edbd b53b dfbd 55a2 bebd 6639 d6bd
000000b0: fe9e b23c 934e 063e 1014 e2bd c0b7 14bd
000000c0: e2d7 f23d 1dcf 5abb a7ba a03d 5392 37bd
000000d0: 2878 b6bc f47f 8a3c abde 033e dd91 1e3c
000000e0: fc57 e03d c9b5 913d 9aa4 58bd e887 6b3b
000000f0: b92f 82bd cde6 ac3c c620 243d 6cd4 813d
00000100: 124a a03d b757 35bc 2c5d ec3d 7bef 8ebd
00000110: ba5f 0dbd 7204 483d b1df b53d e872 4f3d
00000120: ec2a 9a3d f838 0fbc 87e8 dc3d e435 3bbd
00000130: 6dbb 8e3d 8cee 243d 291b 933d d10d b1bd
00000140: e32e f2bc f03d c43d 072a 8dba 0cad 0abe
00000150: 251f 1ebd 3c35 ee3c 5a2c d5bb da97 f4bd
00000160: 4131 cf3d 74f1 c23d 30b5 8cbd 2c34 033e
00000170: 5adc 073e 33a5 a1bd 36b0 f13d b52f 8dbd
00000180: 1030 b5bd 0459 f5bd 5e29 9b3d d5d6 cabd
00000190: fdd3 d53d 8f10 a5bc 28cd b83d 39a1 8fbc
000001a0: c927 40bd dc76 ec3d 5cc6 e43d f1ff 683d
000001b0: 0a4d adbd a87f 7dbd c3ef e8bd 2840 a9bd
000001c0: f688 e83c b77f 813d ef38 853d a808 353d
000001d0: 1b49 9ebd 8894 02be ec9a 76bb d68c 803d
000001e0: 73c7 0fbd 8797 a8bd 349a 143d 6b31 5f3d
000001f0: 0dae b4bc 7422 03bd c455 eebd 75bf ddbd
00000200: d372 42bd d847 993d 5623 b5bd dcc1 d4bd
00000210: 88da a33d eb56 38bc 5715 a1bb 4ac1 82bd
00000220: bb10 26be 6689 b4bd bf33 e33d 003d bd3d
00000230: 71b6 81bd 24dd d93d eb4b 1a3d 0eed e43b
00000240: 9e3f 82bd 7eb5 c4bd e7d0 e3bd 6c7b 823d
00000250: d16c 1e3d 5f64 c73d

mlp.2.weight f4 [100, 150]
0.046745896 0.0374876 0.06140847 0.05663769 0.012111997 -0.032794904 -0.06646131 0.06970642
0.0063929902 0.030631322 -0.08027237 0.061569937 -0.06716651 0.07367263 -0.06931688 0.005903929
-0.011051588 -0.011983512 0.0051041585 -0.013844807 -0.054477282 0.018036103 0.051694114 0.08057838
-0.0021963262 0.07630836 0.05646375 0.052906647 0.04218272 -0.0013366136 -0.005506187 -0.081381075
0.0009086731 -0.06139226 0.07187021 0.017854674 0.01593663 0.011145896 0.020460598 -0.039644375
-0.010854835 -0.025741292 0.04378013 -0.008379086 0.0052529885 0.07155493 0.0441081 0.0041421414
-0.03856454 -0.03034602 0.0021493468 -0.009540281 0.02954804 0.031457398 0.07422673 -0.079322085
0.016121881 -0.05480997 0.044342287 -0.0010264482 0.01966611 -0.045827743 -0.05165966 0.014554753
-0.03848058 -0.063081615 0.020994598 -0.060335994 0.030992327 0.027319351 -0.07002338 0.038114518
-0.0030884352 -0.006514079 -0.0609517 -0.07100463 -0.0023329994 -0.05942607 -0.066882245 -0.008554741
-0.07314024 -0.030130848 0.0016548146 0.06351532 -0.01871301 -0.08104578 -0.047702655 0.064617135
0.03540627 -0.07718263 0.073847525 -0.028843697 -0.058580223 0.025437823 -0.024207 -0.038142364
-0.035915323 -0.054031663 0.05826289 -0.021584108 0.024965037 -0.06410407 -0.0638467 0.048613884
-0.0021111101 0.04379146 -0.05675192 0.03262287 -0.07203853 0.007919696 0.023140272 0.054640874
0.0626986 0.041110627 -0.07249219 0.012047053 -0.062448293 -0.025627706 0.016921386 -0.07258839
-0.053886946 0.05747219 0.060943183 -0.0018389475 -0.021168195 -0.06339663 0.0013918376 -0.032722596
-0.040938918 0.037950695 0.026671428 0.057226744 -0.07419809 0.033459235 -0.060980443 -0.038130146
-0.011474899 -0.018372795 -0.025702342 0.020617276 -0.045133445 0.026051836 -0.07054226 0.06874184
-0.06833495 -0.014560773 0.075341195 -0.02448608 -0.06732575 0.077923164 -0.059557933 -0.041965682
0.010462511 -0.07755378 0.02435865 0.08065973 0.0049284273 -0.038700867 -0.07416875 -0.0016146781
0.03228635 0.084044814 0.025874335 0.00356284 0.06638149 0.056037277 -0.046028845 -0.0023802784
-0.012124427 0.04078582 0.0781832 0.048929617 0.066907294 0.060144965 -0.06575633 -0.0018207564
-0.03690354 -0.03452605 -0.031230101 0.08429574 -0.00850087 -0.021257093 0.025596287 -0.035378125
-0.008913073 -0.060094368 0.07469454 -0.06800764 0.0040815263 0.024442779 -0.007485168 -0.0011612448
-0.03822806 -0.034199297 -0.07948494 -0.046399366 -0.018699884 0.018875146 -0.052892596 0.047464963
0.0043618507 0.050173476 0.018514177 0.01009753 -0.043331902 0.009249038 0.019462464 -0.009977247
0.0738405 -0.068507425 0.018669317 0.032017443 0.051232982 0.07797376 -0.01079478 -0.07994732
0.0161826 -0.052779544 -0.036371145 0.048057426 0.006570099 -0.013483824 0.023459975 0.0018119346
0.034194075 -0.05199586 8.844208e-05 -0.028277062 0.07085844 -0.07561718 -0.015450979 -0.039145038
0.077929884 -0.075744495 -0.070703186 -0.017585343 -0.083344825 0.030195234 0.025465058 0.08365023
-0.010874537 0.04328683 0.0036761975 -0.06929782 0.07251802 -0.06512166 0.068886854 -0.0684338
-0.040264696 0.042174716 -0.07403404 0.00850046 -0.046715625 0.0095361965 0.037093386 -0.04215443
00000000: a078 3f3d 998c 193d 7387 7b3d ecfc 673d
00000010: 6671 463c f353 06bd de1c 88bd 3dc2 8e3d
00000020: 4a7c d13b 8aee fa3c d765 a4bd c230 7c3d
00000030: 988e 89bd ade1 963d 02f6 8dbd bf75 c13b
00000040: b811 35bc 7e56 44bc c940 a73b 54d5 62bc
00000050: 9223 5fbd 73c0 933c 35bd 533d 4706 a53d
00000060: 3df0 0fbb 8f47 9c3d 8846 673d a4b4 583d
00000070: cac7 2c3d 4f31 afba 3f6d b4bb 1fab a6bd
00000080: 0534 6e3a 7376 7bbd b030 933d f743 923c
00000090: 898d 823c 479d 363c fc9c a73c 2462 22bd
000000a0: 7ad8 31bc 67df d2bc cb52 333d 6f48 09bc
000000b0: 4321 ac3b 648b 923d b2aa 343d cdba 873b
000000c0: daf5 1dbd 3798 f8bc 0edc 0c3b d74e 1cbc
000000d0: bb0e f23c 79d9 003d 2f04 983d 9e73 a2bd
000000e0: 0912 843c 6b80 60bd 42a0 353d e389 86ba
000000f0: d21a a13c dfb5 3bbd 1499 53bd 0f77 6e3c
00000100: d09d 1dbd ef30 81bd ddfc ab3c e022 77bd
00000110: 9fe3 fd3c d5cc df3c 6b68 8fbd f81d 1c3d
00000120: 5867 4abb 0e74 d5bb 7da8 79bd e06a 91bd
00000130: 3ce5 18bb c068 73bd 8ff9 88bd 2f29 0cbc
00000140: 8dca 95bd f8d4 f6bc 5de6 d83a 5214 823d
00000150: 074c 99bc 54fb a5bd dc63 43bd fd55 843d
00000160: 2a06 113d ed11 9ebd 5f3d 973d 9e49 ecbc
00000170: d1f1 6fbd fb62 d03c c24d c6bc 2b3b 1cbd
00000180: f21b 13bd 4e50 5dbd 11a5 6e3d 28d1 b0bc
00000190: 7a83 cc3c ff48 83bd 0fc2 82bd 5a1f 473d
000001a0: 8d5a 0abb ad5e 333d b474 68bd 8f9f 053d
000001b0: f088 93bd 9dc1 013c ab90 bd3c 1ccf 5f3d
000001c0: 2068 803d 9e63 283d c976 94bd 0161 453c
000001d0: c8c9 7fbd 32f1 d1bc b89e 8a3c 39a9 94bd
000001e0: 8fb8 5cbd f667 6b3d 8f9f 793d d708 f1ba
000001f0: ec68 adbc 18d6 81bd 526e b63a 2108 06bd
00000200: 91af 27bd 3072 1b3d 0a7e da3c 9766 6a3d
00000210: 2bf5 97bd 8d0c 093d a1c6 79bd 5b2e 1cbd
00000220: 3701 3cbc 8b82 96bc b88d d2bc 90e5 a83c
00000230: d9dd 38bd a96a d53c 7678 90bd 86c8 8c3d
00000240: 32f3 8bbd 4f90 6ebc 7c4c 9a3d 0897 c8bc
00000250: 15e2 89bd 2e96 9f3d 05f3 73bd 35e4 2bbd
00000260: f46a 2b3c 84d4 9ebd cb8b c73c ee30 a53d
00000270: a57e a13b cd84 1ebd c9e5 97bd 9ba3 d3ba
00000280: b13e 043d b01f ac3d 6af6 d33c 897e 693b
00000290: 05f3 873d 5887 653d be88 3cbd 72fe 1bbb
000002a0: 88a5 46bc 080f 273d 831e a03d 6c6a 483d
000002b0: b106 893d 915a 763d 41ab 86bd 72a6 eeba
000002c0: 2b28 17bd 306b 0dbd 45d6 ffbc 3fa3 ac3d
000002d0: 3c47 0bbc 5b23 aebc 4eaf d13c a7e8 10bd
000002e0: 2308 12bc 8325 76bd 73f9 983d 9747 8bbd
000002f0: 53be 853b 393c c83c 2446 f5bb e934 98ba
00000300: 0795 1cbd 9014 0cbd 00c9 a2bd 430d 3ebd
00000310: 8030 99bc 0da0 9a3c e8a5 58bd 9f6a 423d
00000320: dbed 8e3b b482 4d3d 0bab 973c 1c70 253c
00000330: cb7c 31bd 4789 173c bf6f 9f3c 9b77 23bc
00000340: b039 973d 9f4d 8cbd 65f0 983c b924 033d
00000350: add9 513d b5b0 9f3d 97dc 30bc 6cbb a3bd
00000360: 5f91 843c 5d2f 58bd e9f9 14bd ddd7 443d
00000370: fc49 d73b 42eb 5cbc 222f c03c 707e ed3a
00000380: 160f 0c3d 9cf9 54bd fb79 b938 4ca5 e7bc
00000390: 3b1e 913d 2edd 9abd 1a26 7dbc 8c56 20bd
000003a0: b499 9f3d ee1f 9bbd d5cc 90bd 230f 90bc
000003b0: b1b0 aabd ff5b f73c 199c d03c d050 ab3d
000003c0: 1d2b 32bc 884d 313d 5cec 703b 04ec 8dbd
000003d0: 5484 943d 815e 85bd 8d14 8d3d 0527 8cbd
000003e0: 98ec 24bd 65bf 2c3d 299f 97bd 8345 0b3c
000003f0: e258 3fbd b53d 1c3c 3cef 173d 20aa 2cbd

mlp.2.bias f4 [100]
0.0190745 0.0642999 0.0017954931 0.005208283 -0.020595236 -0.064730346 -0.03938934 -0.02862625
0.016957337 -0.0021920332 -0.013026917 -0.0984795 0.004284554 -0.03270643 -0.015527525 -0.06909714
-0.025864832 -0.043075744 -0.047218475 0.01412422 -0.027466735 0.06644762 -0.027082551 -0.048599634
0.045001652 0.0377857 0.011832415 -0.03716997 -0.07930333 -0.04395228 0.058907237 0.0173127
0.06948217 0.027899113 0.0029033972 -0.05796955 0.054278173 -0.02276824 -0.081124954 -0.024048759
0.05144888 -0.01643352 0.07831027 -0.036953297 0.03520898 0.007076283 0.004148316 -0.0078114904
-0.02016955 0.022377267 0.007128021 0.04541495 0.06293983 0.034093726 -0.007973483 -0.0698287
0.0006058054 -0.041443635 -0.05943577 -0.039463162 0.0065067504 0.012795352 -0.09319866 -0.06997208
-0.044890832 0.050186493 0.024632044 0.08063225 -0.05639719 -0.03686716 -0.037165467 0.1035739
0.022358473 -0.04102857 -0.022024691 0.017206457 -0.047006965 -0.028477782 0.009715562 0.04456106
-0.052309792 0.12665682 -0.0538695 -0.052173078 -0.08123751 -0.038463194 -0.026790604 -0.06770148
0.008971612 0.09134861 -0.05829887 0.034728013 0.0029357627 -0.078074776 0.043370564 0.030135103
0.057676587 0.014471451 0.029714778 0.04605129
00000000: 2042 9c3c aaaf 833d c056 eb3a 3faa aa3b
00000010: 57b7 a8bc 5891 84bd b756 21bd 9981 eabc
00000020: 1dea 8a3c 37a8 0fbb da6e 55bc 9faf c9bd
00000030: 7265 8c3b 2df7 05bd 2967 7ebc cd82 8dbd
00000040: 7ce2 d3bc 3170 30bd 2968 41bd 4669 673c
00000050: eb01 e1bc b115 883d 3adc ddbc 6910 47bd
00000060: a753 383d 2ec5 1a3d bfdc 413c 8a3f 18bd
00000070: c969 a2bd 4e07 34bd b748 713d 5dd3 8d3c
00000080: ab4c 8e3d ae8c e43c ec46 3e3b 7b71 6dbd
00000090: ca52 5e3d 7684 babc d724 a6bd e701 c5bc
000000a0: 10bc 523d 979f 86bc 2361 a03d 575c 17bd
000000b0: 4b37 103d 2ae0 e73b 99ee 873b 88f7 ffbb
000000c0: 9d3a a5bc 8850 b73c 2d92 e93b 0705 3a3d
000000d0: 99e6 803d dda5 0b3d 36a3 02bc 5902 8fbd
000000e0: eace 1e3a cdc0 29bd ec72 73bd 20a4 21bd
000000f0: 9436 d53b 99a3 513c f0de bebd 864d 8fbd
00000100: 73df 37bd 5a90 4d3d 24c9 c93c 8522 a53d
00000110: bd00 67bd 0502 17bd d13a 18bd 8e1e d43d
00000120: 1e29 b73c 930d 28bd 206d b4bc 8ef4 8c3c
00000130: 608a 40bd 3d4a e9bc 052e 1f3c a885 363d
00000140: cb42 56bd 53b2 013e 44a6 5cbd 70b3 55bd
00000150: da5f a6bd 958b 1dbd f877 dbbc 13a7 8abd
00000160: abfd 123c fb14 bb3d ccca 6ebd f63e 0e3d
00000170: ed65 403b abe5 9fbd 55a5 313d e4dd f63c
00000180: 493e 6c3d aa19 6d3c 686c f33c 47a0 3c3d

mlp.4.weight f4 [100, 100]
0.04207942 0.058198616 -0.095043205 0.057171155 -0.01910308 -0.069776855 0.033666123 0.036346216
0.02942952 0.07392565 0.016657911 -0.06395055 -0.06058745 -0.024441207 -0.05472373 0.048018917
-0.051840603 0.08640289 0.09226772 0.057157815 0.06747221 0.06498825 0.07792012 -0.020404266
0.059694808 0.039968725 0.005854881 0.06864063 0.082688764 -0.041432787 -0.04148466 -0.02117994
-0.030382104 -0.024288362 0.00029229056 0.047674403 0.074312374 -0.08244155 -0.09404557 0.060742464
-0.006402844 0.04917239 -0.034159083 0.0838532 -0.043386813 0.022224164 0.02763248 0.09567098
-0.054293312 -0.07311485 0.0810225 0.05992853 0.09313036 0.08535507 -0.093464755 0.05831336
-0.072258405 -0.013624047 0.08127339 -0.023742095 -0.019217001 0.023842452 0.07187184 -0.020628298
0.0554896 0.0411892 0.03498266 -0.100175664 0.08093591 -0.021104539 -0.070329025 0.08447042
0.030257948 0.02104781 0.06416659 -0.012145192 -0.068016835 0.057497036 0.09800246 -0.03662159
0.025034118 0.042984746 -0.0076603293 0.01208477 0.034438383 0.036189068 -0.04163806 0.03334582
0.0061065066 0.07650211 -0.05654921 -0.085937485 0.091649406 -0.038706828 0.02040509 0.094987616
0.008489388 0.07340013 0.081475034 0.026490504 0.07527544 -0.07297552 0.043716405 0.051454205
-0.09043616 0.06263733 0.034540143 -0.0035407452 -0.026247043 -0.06467324 -0.0027271374 -0.087337255
0.027760161 -0.04623529 0.09926422 -0.0243301 -0.033700764 -0.0011783873 -0.06774517 -0.0066861287
0.021671522 -0.008110419 -0.0130054355 0.023112452 0.00055134896 0.007356754 0.093898915 -0.0232646
-0.037426688 -0.05208249 0.015925864 -0.020469334 0.04829701 0.03565611 -0.02936278 -0.08520735
0.028521186 0.04029698 -0.027010143 0.014476034 0.06344809 -0.08899912 0.04731961 0.034540106
0.081710495 -0.03550562 0.03636945 -0.018448748 0.041243434 -0.024237514 0.033347763 0.078268655
0.070424 0.048735097 0.043514386 0.06373195 0.09176676 -0.061497774 -0.035093438 0.012408934
0.02840628 0.06351227 0.0676396 0.059079934 0.021388555 0.0751205 -0.09962799 0.05335915
0.036474314 -0.01718982 0.09218685 -0.085875385 -0.07472372 -0.031167243 -0.04295236 -0.097655706
0.09130959 0.01767372 -0.032603927 -0.03328104 0.046263333 -0.099903226 0.04051111 -0.01489476
0.059793197 -0.042892586 -0.07260727 -0.09284734 -0.018571861 -0.023091158 -0.08452845 -0.05447643
5.2978416e-05 0.011950827 -0.034635972 0.022445906 -0.005220901 -0.01933601 0.08480686 0.020223755
0.007515514 0.09149518 -0.05086566 -0.029195894 0.046735015 -0.08943357 -0.08965677 0.09491829
0.070785835 -0.05476296 0.057037223 -0.028800761 0.073732965 -0.011212981 0.036798026 0.048022855
-0.041811656 0.067300856 0.018933415 0.0990921 -0.03782345 -0.08818183 0.006334901 -0.08345234
0.0713372 -0.030226981 0.043571103 -0.04473896 -0.038529266 0.00923524 -0.049343467 -0.05524528
0.0036156923 0.054481056 -0.04238801 0.013315595 -0.03403003 -0.084347144 0.044558454 0.09375522
0.095953524 -0.015947139 0.08981826 -0.06794294 -0.0033505738 0.020245148 -0.0025440454 0.08259743
0.01837541 -0.084110714 0.00445329 0.069390945 0.069672346 -0.05132096 0.0740216 -0.043339025
00000000: 785b 2c3d ac61 6e3d 03a6 c2bd 4d2c 6a3d
00000010: 107e 9cbc 2be7 8ebd 7de5 093d c5df 143d
00000020: 2d16 f13c 5566 973d 2c76 883c 82f8 82bd
00000030: 8c2a 78bd ed38 c8bc fd25 60bd 7caf 443d
00000040: d056 54bd 00f4 b03d dcf6 bc3d 501e 6a3d
00000050: df2e 8a3d 8f18 853d 9594 9f3d d926 a7bc
00000060: 8b82 743d 3fb6 233d 4dda bf3b 7593 8c3d
00000070: ba58 a93d 6db5 29bd d2eb 29bd 8e81 adbc
00000080: e4e3 f8bc 63f8 c6bc 933e 9939 3c46 433d
00000090: 1631 983d 1ed7 a8bd f79a c0bd 17cd 783d
000000a0: f3ce d1bb fd68 493d 65ea 0bbd 3abb ab3d
000000b0: 5fb6 31bd 730f b63c 835d e23c 26ef c33d
000000c0: aa62 5ebd 3dbd 95bd 20ef a53d 9e77 753d
000000d0: 21bb be3d a4ce ae3d 736a bfbd fdd9 6e3d
000000e0: 37fc 93bd 6537 5fbc aa72 a63d c87e c2bc
000000f0: f96c 9dbc 3f51 c33c 8b31 933d adfc a8bc
00000100: 1049 633d 02b6 283d fa49 0f3d e628 cdbd
00000110: bac1 a53d 6de3 acbc aa08 90bd d4fe ac3d
00000120: 84df f73c 756c ac3c c669 833d a1fc 46bc
00000130: 694c 8bbd 0382 6b3d 84b5 c83d 8500 16bd
00000140: 5a14 cd3c c610 303d 8003 fbbb 33ff 453c
00000150: 430f 0d3d fd3a 143d ac8c 2abd a095 083d
00000160: 1719 c83b 23ad 9c3d 25a0 67bd feff afbd
00000170: afb2 bb3d 0d8b 1ebd 9328 a73c de88 c23d
00000180: 1317 0b3c cf52 963d 62dc a63d 9d02 d93c
00000190: 032a 9a3d 3074 95bd f90f 333d a5c1 523d
000001a0: 9836 b9bd 0048 803d f779 0d3d d90b 68bb
000001b0: 0a04 d7bc 6773 84bd c6b9 32bb e0dd b2bd
000001c0: 4769 e33c 3761 3dbd 0a4b cb3d eb4f c7bc
000001d0: d009 0abd 1e74 9aba fbbd 8abd 5017 dbbb
000001e0: 7a88 b13c 90e1 04bc c014 55bc 5356 bd3c
000001f0: 6788 103a ed10 f13b 134e c03d 6795 bebc
00000200: ba4c 19bd 7354 55bd f576 823c 4eaf a7bc
00000210: 16d3 453d 240c 123d 368a f0bc 3181 aebd
00000220: 43a5 e93c 720e 253d 6044 ddbc e32c 6d3c
00000230: 12f1 813d 2c45 b6bd 35d2 413d ed79 0d3d
00000240: d557 a73d 576e 11bd 22f8 143d d421 97bc
00000250: e0ee 283d c08d c6bc aa97 083d 514b a03d
00000260: 753a 903d 749e 473d 243c 323d e685 823d
00000270: 36f0 bb3d 17e5 7bbd 23be 0fbd d74e 4b3c
00000280: 49b4 e83c b912 823d a186 8a3d cdfd 713d
00000290: 0d37 af3c c7d8 993d c209 ccbd 208f 5a3d
000002a0: 1766 153d aad1 8cbc 76cc bc3d 6fdf afbd
000002b0: c008 99bd 7252 ffbc d0ee 2fbd b7ff c7bd
000002c0: 8600 bb3d 7ac8 903c b28b 05bd b351 08bd
000002d0: 9f7e 3d3d 109a ccbd faee 253d 2709 74bc
000002e0: b6e9 743d 23b0 2fbd 1fb3 94bd bf26 bebd
000002f0: 0424 98bc ab29 bdbc 411d adbd ad22 5fbd
00000300: 2435 5e38 67cd 433c 73de 0dbd 7ae0 b73c
00000310: 1814 abbb 8d66 9ebc 38af ad3d 4aac a53c
00000320: b344 f63b d361 bb3d 8358 50bd 3a2c efbc
00000330: 376d 3f3d f328 b7bd f89d b7bd 8564 c23d
00000340: 2af8 903d 204f 60bd dd9f 693d 93ef ebbc
00000350: 4f01 973d a7b6 37bc 87b9 163d 9db3 443d
00000360: b342 2bbd 08d5 893d 401a 9b3c cdf0 ca3d
00000370: c3ec 1abd ad98 b4bd 0095 cf3b 0fe9 aabd
00000380: 3d19 923d 939e f7bc 9d77 323d 3340 37bd
00000390: ddd0 1dbd 674f 173c 601c 4abd e048 62bd
000003a0: 40f5 6c3b 8727 5f3d 0d9f 2dbd a729 5a3c
000003b0: 1363 0bbd 32be acbd ed82 363d bd02 c03d
000003c0: 4883 c43d 93a3 82bc a3f2 b73d ab25 8bbd
000003d0: 4d95 5bbb 27d9 a53c 00ba 26bb d728 a93d
000003e0: 0788 963c 3d42 acbd e7ec 913b d71c 8e3d
000003f0: 60b0 8e3d ed35 52bd a398 973d 4384 31bd

mlp.4.bias f4 [100]
-0.03828748 -0.045855027 -0.068501465 0.1494579 -0.0665298 -0.088253416 0.04375255 -0.105348766
0.20049752 -0.015263428 -0.03436458 -0.021432392 0.06188496 -0.037013896 0.048725143 0.11286199
0.060764074 0.09732025 0.003370496 -0.052073974 -0.05134339 -0.065524146 0.0005683815 -0.014079415
-0.07420365 0.038814306 -0.071446165 0.0062059397 -0.019927908 0.074554525 -0.098421924 0.06390541
0.07963337 0.031122068 0.048230927 0.09331389 0.10703375 0.094604686 0.025221152 -0.09268588
0.013959641 0.008528116 -0.013525793 -0.094348826 -0.03755937 -0.057024125 0.039182756 0.12238642
-0.08134762 -0.021489399 -0.08238556 0.07046646 -0.08159464 -0.0026729193 -0.05445793 -0.019709453
-0.10602278 -0.091510095 0.0044872053 -0.0014526306 0.031868216 0.020514542 0.08448237 -0.03249275
0.078036934 -0.022989621 0.044248864 0.013805584 -0.040583458 -0.054012537 0.04842825 0.031218052
-0.047444977 -0.011169887 0.006500232 0.16552973 -0.0026356624 -0.09149438 0.110746756 0.0761373
0.044658314 -0.011273346 -0.05352452 0.117529444 0.015423026 -0.067500606 -0.00048248048 -0.108187065
0.01958984 -0.03294571 -0.10861297 0.041122682 0.00042232987 0.009512892 -0.028572254 0.022000726
-0.0012256878 -0.05362115 -0.07614534 0.012534559
00000000: 55d3 1cbd 7bd2 3bbd 7f4a 8cbd 7e0b 193e
00000010: c740 88bd 35be b4bd e035 333d 18c1 d7bd
00000020: 394f 4d3e 7513 7abc e0c1 0cbd fc92 afbc
00000030: 157b 7d3d e29b 17bd 0494 473d 3024 e73d
00000040: c0e3 783d d74f c73d 8ae3 5c3b 854b 55bd
00000050: 724d 52bd 8631 86bd 70ff 143a 59ad 66bc
00000060: 15f8 97bd c0fb 1e3d 5e52 92bd 325b cb3b
00000070: da3f a3bc 0bb0 983d 6f91 c9bd d7e0 823d
00000080: d216 a33d b5f3 fe3c cb8d 453d 5a1b bf3d
00000090: 8334 db3d 1ac0 c13d 979c ce3c 18d2 bdbd
000000a0: fab6 643c 83b9 0b3c 4a9b 5dbc f539 c1bd
000000b0: dbd7 19bd 2192 69bd 197e 203d bba5 fa3d
000000c0: 9599 a6bd 890a b0bc c3b9 a8bd b850 903d
000000d0: 171b a7bd 252c 2fbb 470f 5fbd b875 a1bc
000000e0: 7922 d9bd a569 bbbd 6809 933b 3266 beba
000000f0: 3f88 023d 1d0e a83c 1805 ad3d 1e17 05bd
00000100: d4d1 9f3d bb54 bcbc 4c3e 353d d130 623c
00000110: d73a 26bd 403c 5dbd b35c 463d 00bd ff3c
00000120: aa55 42bd e701 37bc e6ff d43b a080 293e
00000130: 14bb 2cbb 6861 bbbd 32cf e23d dfed 9b3d
00000140: a3eb 363d d7b3 38bc 873c 5bbd 47b3 f03d
00000150: dcb0 7c3c c23d 8abd 6ff5 fcb9 2e91 ddbd
00000160: df7a a03c 15f2 06bd 7a70 debd 4270 283d
00000170: 286c dd39 f6db 1b3c 5c10 eabc de3a b43c
00000180: 42a7 a0ba daa1 5bbd 17f2 9bbd c05d 4d3c

mlp.6.weight f4 [1, 100]
0.0047502075 -0.03773458 -0.0018753121 0.44445544 -0.003440164 0.01462263 0.21214579 0.09434377
0.31174046 0.04911087 -0.16374187 0.050413378 0.14537242 0.080093384 0.14406848 0.31904894
-0.4627715 0.2281454 0.14616829 0.031629577 -0.013654464 -0.09421169 0.08078346 0.05325563
0.08541787 -0.06852763 0.046596043 0.10331203 0.16671519 0.08773337 -0.030314898 -0.15228878
0.16389218 0.115631826 -0.20617008 0.27764016 0.26513568 0.2888224 0.018115226 0.042338457
0.1904192 -0.026998892 -0.085274145 0.004130125 -0.1778779 -0.031121314 -0.010820788 0.25730914
0.055560637 -0.050340503 -0.02591362 0.23194443 -0.017724503 -0.021841645 -0.058425095 0.03134864
-0.031887356 -0.08521564 0.116783954 -0.05546783 -0.03030894 -0.15554641 0.25878307 -0.09290741
0.21119463 0.003355398 -0.12274386 -0.0714424 -0.06677579 0.081731655 -0.26765886 -0.24821027
-0.039557867 -0.07872365 -0.15460299 0.44214204 -0.15201281 0.06571636 0.32306954 0.09139259
0.010100162 0.10240042 0.035778504 0.21179268 -0.036256865 0.0327234 -0.00736935 -0.004834902
0.0658091 0.060427666 0.05821107 -0.1439326 -0.0034293574 -0.31210956 0.040841512 -0.34667674
0.3713558 -0.04889843 0.077278934 -0.4912735
00000000: a1a7 9b3b 938f 1abd 08cd f5ba aa8f e33e
00000010: 6074 61bb c193 6f3c bf3c 593e 4e37 c13d
00000020: 729c 9f3e 7b28 493d f3ab 27be 427e 4e3d
00000030: 82dc 143e 0008 a43d b086 133e 625a a33e
00000040: 63f0 ecbe f39e 693e 24ad 153e 048e 013d
00000050: f9b6 5fbc 0ff2 c0bd cc71 a53d 9322 5a3d
00000060: 90ef ae3d 3758 8cbd 7edb 3e3d 4295 d33d
00000070: 63b7 2a3e 8ead b33d f356 f8bc 97f1 1bbe
00000080: 5ad3 273e 61d0 ec3d 401e 53be da26 8e3e
00000090: ddbf 873e 88e0 933e 6266 943c 176b 2d3d
000000a0: 40fd 423e c82c ddbc 36a4 aebd 0056 873b
000000b0: a025 36be 20f2 febc ad49 31bc 06be 833e
000000c0: 8d93 633d d831 4ebd cd48 d4bc d782 6d3e
000000d0: fa32 91bc 40ed b2bc 274f 6fbd 6e67 003d
000000e0: 519c 02bd 8a85 aebd 6d2c ef3d 3c32 63bd
000000f0: 744a f8bc 8f47 1fbe 377f 843e 3d46 bebd
00000100: 6843 583e 3de6 5b3b 2261 fbbd 6550 92bd
00000110: bfc1 88bd ed62 a73d 950a 89be d52a 7ebe
00000120: 6e07 22bd dd39 a1bd 3f50 1ebe 7160 e23e
00000130: 3fa9 1bbe 4d96 863d 5f69 a53e 0a2c bb3d
00000140: 267b 253c 50b7 d13d 7b8c 123d 2ee0 583e
00000150: 1482 14bd f908 063d 977a f1bb 196e 9ebb
00000160: ecc6 863d 0083 773d bb6e 6e3d 1163 13be
00000170: 12bf 60bb d3cc 9fbe 6e49 273d 9d7f b1be
00000180: 5922 be3e b849 48bd 6b44 9e3d 3388 fbbe

lstm.weight_ih_l0 f4 [200, 13]
-0.004510065 0.007297685 0.085464746 0.046924353 0.097038314 -0.13489665 -0.062264882 -0.16817115
0.14754428 0.12695993 0.12561943 0.07679209 0.012410931 0.14699997 0.07317787 -0.08610519
-0.03740708 0.036002968 0.02230291 -0.13698713 -0.039013855 0.020306563 -0.07317278 -0.03505151
0.058095355 -0.011326606 0.16911548 -0.077585265 0.109245546 -0.08773474 0.07636179 0.104022376
-0.117987916 -0.0038667938 0.1884685 0.16204219 0.029125914 -0.0696317 -0.092426285 0.04748465
0.10279176 0.050662182 -0.08162522 0.010309128 0.13060035 0.14157847 -0.021373428 -0.13396198
0.12170749 -0.120530695 -0.09705958 0.10736094 -0.0102785705 0.10584401 0.037356 -0.08033906
-0.08159163 0.10998633 0.04783676 -0.037255112 0.01729479 0.08973389 0.12048898 0.02957285
-0.041094325 -0.10966179 -0.11928703 -0.06913102 -0.056646477 0.1028225 0.11949361 -0.05221307
0.053286266 -0.07417588 0.03417092 -0.020253016 0.13691604 -0.08299711 -0.061612062 0.13945264
-0.09130412 -0.048044663 -0.043558303 0.045053 -0.01006531 0.06987485 0.074123815 0.044587355
0.100390226 0.13582721 -0.10666014 0.010422291 0.10980532 0.0063396282 -0.09567519 -0.09917926
0.015122903 0.12913547 0.08083503 0.13115749 -0.009218683 0.13984013 0.09273857 0.13392417
0.062508605 -0.03936361 0.012760566 -0.045110412 -0.021273747 0.068652466 0.07541623 0.08801988
-0.11978628 0.06597674 -0.017314944 -0.050168265 -0.084694915 -0.09830647 0.13046484 -0.09655995
-0.06924278 -0.00043904711 0.120651916 -0.054618414 -0.011323661 0.07072059 -0.13603655 -0.017777242
0.000680022 -0.029388068 0.030634033 0.14060286 0.03587363 0.08702194 -0.035083864 -0.123955056
0.17109697 0.22359475 0.03380616 0.06750796 0.07327617 -0.042833228 -0.058686372 0.12458466
0.037581638 0.08471827 0.0064158835 -0.06364794 -0.07902972 -0.013435809 0.10396943 0.096731216
-0.009475566 0.069048464 0.035848103 -0.084620036 0.1531291 -0.02126837 0.03633991 0.108660966
-0.017464958 0.03251206 0.06531567 -0.0019410297 -0.034507375 0.12856068 0.09357589 0.03998828
-0.090598755 -0.01563916 0.07052874 0.10317461 0.124033265 0.100047395 -0.053869657 0.18247052
0.11259402 -0.04357519 -0.2788241 0.06415792 0.10630772 -0.036850818 0.0043867393 -0.06408682
-0.11270341 0.10476385 -0.018240761 0.10753034 0.1372389 0.07025266 0.055209026 -0.05813976
0.057029407 0.15951656 0.0100506535 -0.087211505 -0.026252154 0.03659596 -0.120829165 -0.08227241
-0.12933405 0.035208065 0.06948469 0.10917501 0.032211114 -0.028325353 0.06418328 0.119355015
0.03751745 -0.07382928 0.082556844 -0.05375368 0.11107483 -0.07266767 0.06912149 -0.113472395
-0.07672021 0.12128591 0.12246359 -0.05279465 -0.10320967 -0.08470463 -0.11400405 -0.08926526
0.072743215 0.059519008 -0.10997597 -0.15010172 0.116418146 0.035533812 -0.101166196 -0.038337186
0.100736655 0.066082485 0.09072126 -0.10527539 0.12879941 0.035580557 0.062223066 0.034997433
-0.078532785 -0.03429158 -0.08932982 0.055111703 -0.038269863 0.0926984 -0.06852584 -0.043475285
-0.0821486 -0.035284787 0.00073155365 0.01798405 -0.12349166 0.02076976 -0.096919306 0.13382645
00000000: 2bc9 93bb 6b21 ef3b 2408 af3d c033 403d
00000010: 06bc c63d 5922 0abe 7609 7fbd 0f35 2cbe
00000020: d915 173e c901 023e 61a2 003e 2c45 9d3d
00000030: 3857 4b3c 2987 163e 47de 953d eb57 b0bd
00000040: 2b38 19bd d977 133d 98b4 b63c 5b46 0cbe
00000050: fecc 1fbd f359 a63c 9cdb 95bd 2c92 0fbd
00000060: 65f5 6d3d 3b93 39bc 9c2c 2d3e 06e5 9ebd
00000070: 21bc df3d 45ae b3bd 9263 9c3d af09 d53d
00000080: a6a3 f1bd 096a 7dbb e3fd 403e 63ee 253e
00000090: 7899 ee3c 119b 8ebd fe49 bdbd 447f 423d
000000a0: 7c84 d23d 2683 4f3d 202b a7bd 9ee7 283c
000000b0: 19bc 053e f2f9 103e 5417 afbc 542d 09be
000000c0: c741 f93d ccd8 f6bd 2cc7 c6bd 0de0 db3d
000000d0: 7367 28bc bfc4 d83d 9b02 193d ce88 a4bd
000000e0: 8319 a7bd 8340 e13d 7af0 433d d198 18bd
000000f0: cead 8d3c 67c6 b73d edc2 f63d c342 f23c
00000100: 8652 28bd 5c96 e0bd c24c f4bd 9094 8dbd
00000110: 2306 68bd 9a94 d23d 11b9 f43d 5fdd 55bd
00000120: b342 5a3d 86e9 97bd cef6 0b3d a7e9 a5bc
00000130: b833 0c3e 64fa a9bd ee5c 7cbd accc 0e3e
00000140: a8fd babd 7bca 44bd 316a 32bd 7f89 383d
00000150: f8e8 24bc 8c1a 8f3d 3ace 973d 3ba1 363d
00000160: 6499 cd3d 4a16 0b3e a270 dabd 42c2 2a3c
00000170: 9de1 e03d a8bc cf3b 5bf1 c3bd 7f1e cbbd
00000180: 0dc6 773c 173c 043e d68c a53d 264e 063e
00000190: f509 17bc 4032 0f3e b8ed bd3d 6b23 093e
000001a0: 8304 803d bd3b 21bd b111 513c b2c5 38bd
000001b0: 4846 aebc aa99 8c3d d373 9a3d c443 b43d
000001c0: 8252 f5bd d01e 873d 12d8 8dbc 3d7d 4dbd
000001d0: 8774 adbd e754 c9bd 9398 053e 39c1 c5bd
000001e0: 29cf 8dbd e82f e6b9 5a18 f73d 8fb7 5fbd
000001f0: e086 39bc f5d5 903d 2a4d 0bbe 94a1 91bc
00000200: 8143 323a 3fbf f0bc 39f4 fa3c 32fa 0f3e
00000210: 3af0 123d 8f38 b23d 19b4 0fbd 26dc fdbd
00000220: 0b34 2f3e 06f6 643e 5478 0a3d 9d41 8a3d
00000230: d111 963d e571 2fbd 1f61 70bd 3e26 ff3d
00000240: 34ef 193d c680 ad3d 553c d23b da59 82bd
00000250: 55da a1bd de21 5cbc eded d43d 041b c63d
00000260: 683f 1bbc 4869 8d3d 76d5 123d 454d adbd
00000270: e0cd 1c3e 013b aebc 28d9 143d a489 de3d
00000280: ac12 8fbc 5e2b 053d 39c4 853d 266a feba
00000290: 9b57 0dbd 69a5 033e b7a4 bf3d c0ca 233d
000002a0: d78b b9bd b21d 80bc 5f71 903d 364d d33d
000002b0: 2705 fe3d a6e5 cc3d 6ea6 5cbd 8dd9 3a3e
000002c0: b297 e63d e67b 32bd 08c2 8ebe 3a65 833d
000002d0: ddb7 d93d e2f0 16bd a3be 8f3b f33f 83bd
000002e0: 0cd1 e6bd 6e8e d63d a66d 95bc de38 dc3d
000002f0: 5b88 0c3e a0e0 8f3d dc22 623d f523 6ebd
00000300: ab97 693d 4f58 233e 7fab 243c f29b b2bd
00000310: c20e d7bc a5e5 153d 4875 f7bd 707e a8bd
00000320: 2570 04be 5536 103d fd4d 8e3d 2697 df3d
00000330: cdef 033d 920a e8bc 8672 833d 6770 f43d
00000340: e6ab 193d ce33 97bd 9013 a93d d22c 5cbd
00000350: 337b e33d cad2 94bd 918f 8d3d 3764 e8bd
00000360: 7c1f 9dbd bf64 f83d 31ce fa3d 343f 58bd
00000370: 975f d3bd 9f79 adbd f57a e9bd b4d0 b6bd
00000380: 65fa 943d 34ca 733d 153b e1bd 44b4 19be
00000390: a36c ee3d e78b 113d 3930 cfbd 7407 1dbd
000003a0: 054f ce3d 4156 873d 11cc b93d a09a d7bd
000003b0: fee3 033e ebbc 113d 9ddd 7e3d 7859 0f3d
000003c0: ccd5 a0bd 5475 0cbd 8df2 b6bd cfbc 613d
000003d0: dcc0 1cbd a9d8 bd3d 4757 8cbd 2413 32bd
000003e0: 863d a8bd c886 10bd bcc5 3f3a 4953 933c
000003f0: 32e9 fcbd 5825 aa3c a17d c6bd cd09 093e

lstm.weight_hh_l0 f4 [200, 50]
0.06334053 0.008453572 -0.0940572 0.03914722 0.06925232 -0.026162509 -0.042674247 0.0144828195
0.1269333 -0.11205871 0.116165 -0.07174816 -0.10643216 0.05923792 0.11787687 0.10587098
-0.033363234 -0.011782465 -0.013418405 0.0468741 -0.09489925 -0.091612406 -0.09842223 0.062223323
-0.08157636 -0.11436171 -0.086330175 -0.0040207896 -0.11718718 0.056386337 -0.08118908 -0.11783314
0.036649093 0.028313948 -0.029037653 -0.09681804 -0.09767734 -0.087179765 -0.017022425 -0.028912963
-0.039951142 0.0598189 -0.058502827 -0.12652789 0.03982586 0.052519176 -0.12940729 -0.08835892
0.0687572 -0.12908232 -0.14151497 0.120110966 0.060492303 0.11141219 0.0141252205 0.070082396
-0.109738685 0.022216484 0.010755565 -0.100008965 0.028971493 -0.092895254 -0.11167348 0.041695327
0.04417856 -0.025053626 0.0684211 0.060340814 0.08106764 0.10297945 -0.1033876 0.12321726
-0.10694633 -0.026305452 0.006530693 -0.07551505 -0.119151 0.035589673 0.0053775916 0.12002212
0.14057608 0.11482648 -0.0105402125 0.086024255 0.016686685 0.058129262 -0.01099099 -0.07244214
0.028682219 0.09062844 -0.07228713 -0.13413599 -0.11990419 -0.016188502 -0.07967561 -0.06848744
0.04229525 -0.045919128 0.07230239 -0.1451503 0.07932357 0.027386451 0.11710414 0.07364778
0.03864603 0.04139143 0.11286 -0.13808526 -0.11123773 0.0781435 -0.12024383 0.1462284
-0.12147568 0.056268692 0.08170352 0.04619896 -0.09731477 -0.054632746 -0.07659539 -0.106921524
0.14062499 0.049426552 0.009423113 0.09908039 -0.038461346 0.118746445 -0.08879546 -0.07040939
-0.11978995 0.115516566 0.09550944 0.0048186174 0.087276585 0.020302786 0.09496059 0.05041592
-0.12590058 0.04780814 0.10904507 0.13378924 -0.121727005 -0.040518004 -0.03337447 -0.105118535
0.07026715 -0.005486247 0.070631005 -0.02125852 0.04527558 0.040610325 0.10756369 0.026527075
0.011420564 0.13205409 -0.04586536 0.027879383 -0.12485226 -0.029008789 -0.0108378725 -0.11008107
0.026457313 0.034502517 -0.12038186 0.04821742 0.054687403 0.01300887 0.092374735 -0.10995184
0.051323436 0.072574295 -0.025208743 0.12855335 0.058920555 -0.019654734 0.02916791 0.044172727
-0.115072995 0.07761664 -0.08781749 -0.10974078 0.069001384 -0.0772773 -0.09769969 0.03933928
0.11101948 0.141865 0.0117850965 -0.11665225 -0.13541608 0.10514002 0.1378647 0.023151401
-0.11719317 -0.05422774 -0.08909243 0.007542595 0.0187651 -0.1175517 -0.02459185 0.07973954
-0.0661347 -0.03690203 0.029123714 -0.07053255 0.03511654 0.04163755 0.111515604 0.1373644
0.07281656 0.06671216 0.12188445 -0.060043093 0.0155311655 0.013052711 -0.0721107 -0.004292211
-0.12701526 -0.022622723 0.055943836 0.098468095 -0.0010513609 -0.0010014413 0.11526751 0.049419206
-0.10797874 -0.012882432 -0.12593459 0.048415896 0.051047225 0.012360774 -0.08466119 0.023101509
-0.104119115 -0.002257534 -0.040935215 -0.058304638 -0.06367539 -0.009103042 -0.1100168 -0.06497451
0.04080653 -0.07605668 -0.08466781 -0.083415635 0.077495396 0.087146044 -0.111600466 -0.000332365
0.02170112 -0.043360446 0.11206696 0.06419188 0.024644922 -0.09116531 -0.1373993 0.014463951
00000000: aeb8 813d da80 0a3c 10a1 c0bd d658 203d
00000010: 29d4 8d3d c252 d6bc 31cb 2ebd 5949 6d3c
00000020: cefa 013e 097f e5bd eae7 ed3d b3f0 92bd
00000030: 1bf9 d9bd 76a3 723d 6e69 f13d e2d2 d83d
00000040: e3a7 08bd 3d0b 41bc dfd8 5bbc 0eff 3f3d
00000050: 8a5a c2bd 499f bbbd 9891 c9bd e2dd 7e3d
00000060: 8211 a7bd 7936 eabd e0cd b0bd d4c0 83bb
00000070: d5ff efbd 5cf5 663d 7646 a6bd 8052 f1bd
00000080: 5c1d 163d a7f2 e73c 5fe0 edbc 8948 c6bd
00000090: 0f0b c8bd 4e8b b2bd 9d72 8bbc e1da ecbc
000000a0: cfa3 23bd aa04 753d a9a0 6fbd 8790 01be
000000b0: 7120 233d 591e 573d 5883 04be 85f5 b4bd
000000c0: 93d0 8c3d 282e 04be 4de9 10be bdfc f53d
000000d0: c7c6 773d 132c e43d 786d 673c 5c87 8f3d
000000e0: adbe e0bd 58ff b53c 1c38 303c 80d1 ccbd
000000f0: a055 ed3c de3f bebd 11b5 e4bd b8c8 2a3d
00000100: 94f4 343d 433d cdbc 5d20 8c3d ee27 773d
00000110: ca06 a63d e4e6 d23d e1bc d3bd 5559 fc3d
00000120: ad06 dbbd 887e d7bc 6cff d53b a2a7 9abd
00000130: 7105 f4bd 7ac6 113d 8236 b03b 28ce f53d
00000140: 2df3 0f3e 252a eb3d dbb0 2cbc 7c2d b03d
00000150: 84b2 883c f318 6e3d 8e13 34bc 8b5c 94bd
00000160: f9f6 ea3c 679b b93d 460b 94bd f25a 09be
00000170: 5490 f5bd c09d 84bc f72c a3bd 2543 8cbd
00000180: c93d 2d3d b215 3cbd 4713 943d 48a2 14be
00000190: 6574 a23d 8d59 e03c 4cd4 ef3d a6d4 963d
000001a0: 4d4b 1e3d 0f8a 293d 2523 e73d 3966 0dbe
000001b0: 9bd0 e3bd b309 a03d 6642 f6bd e6bc 153e
000001c0: 3ec8 f8bd 007a 663d 2d54 a73d 1f3b 3d3d
000001d0: f74c c7bd 96c6 5fbd 0bde 9cbd acf9 dabd
000001e0: ffff 0f3e 7f73 4a3d 6763 1a3c a9ea ca3d
000001f0: a589 1dbd 5631 f33d 65da b5bd cc32 90bd
00000200: 6f54 f5bd f393 ec3d 749a c33d 7ee5 9d3b
00000210: 11be b23d 0752 a63c b37a c23d ec80 4e3d
00000220: 15ec 00be 78d2 433d 0653 df3d 0c00 093e
00000230: 024c f9bd 35f6 25bd abb3 08bd 6348 d7bd
00000240: 39e8 8f3d fac5 b3bb fda6 903d 5926 aebc
00000250: e372 393d 0357 263d 5a4a dc3d 4f4f d93c
00000260: 511d 3b3c 3039 073e 51dd 3bbd 4e63 e43c
00000270: 8bb2 ffbd d7a3 edbc 5591 31bc 2f72 e1bd
00000280: 02bd d83c 8352 0d3d c48a f6bd a17f 453d
00000290: e6ff 5f3d 2823 553c f72e bd3d 6e2e e1bd
000002a0: 8638 523d d5a1 943d 9182 cebc 7da3 033e
000002b0: ae56 713d f702 a1bc 8af1 ee3c 76ee 343d
000002c0: 64ab ebbd 79f5 9e3d a8d9 b3bd c6bf e0bd
000002d0: 9950 8d3d 9043 9ebd c616 c8bd 3a22 213d
000002e0: 2e5e e33d 0f45 113e 4716 413c 60e7 eebd
000002f0: 83aa 0abe a753 d73d 672c 0d3e 02a8 bd3c
00000300: f902 f0bd e81d 5ebd 1876 b6bd df27 f73b
00000310: 44b9 993c f2be f0bd d974 c9bc 7c4e a33d
00000320: a171 87bd 9526 17bd db94 ee3c 5f73 90bd
00000330: 5cd6 0f3d 238c 2a3d 4b62 e43d 41a9 0c3e
00000340: d920 953d 63a0 883d 8e9e f93d bfef 75bd
00000350: 6e76 7e3c 0adb 553c c6ae 93bd ada5 8cbb
00000360: 4a10 02be 4a53 b9bc 5d25 653d a4a9 c93d
00000370: d1cd 89ba cb42 83ba 5f11 ec3d cb6b 4a3d
00000380: f523 ddbd d610 53bc fff4 00be bf4f 463d
00000390: e516 513d d884 4a3c d962 adbd 603f bd3c
000003a0: 673c d5bd 23f3 13bb afab 27bd d8d0 6ebd
000003b0: 3e68 82bd ed24 15bc 7d50 e1bd 5b11 85bd
000003c0: bf24 273d 9bc3 9bbd 5166 adbd d1d5 aabd
000003d0: e8b5 9e3d a079 b23d c98e e4bd 4641 aeb9
000003e0: 8cc6 b13c b99a 31bd 5d83 e53d 0877 833d
000003f0: 26e4 c93c e1b4 babd 67b2 0cbe 35fa 6c3c

lstm.bias_ih_l0 f4 [200]
-0.12277953 0.15011676 -0.0071060876 -0.0490694 0.12587099 -0.12326776 -0.060104903 -0.04126097
0.08512882 0.14193463 -0.00967519 0.13600461 0.104297936 0.13135974 8.877162e-05 0.071516484
0.0493159 -0.07740859 -0.03380621 0.05149359 0.01382016 -0.03719184 0.10526826 -0.022769982
-0.13224058 -0.101874396 -0.038789004 0.10890656 0.031738818 -0.10433731 0.102374814 -0.11254254
-0.048966356 0.053487524 0.08967976 0.0013181104 0.061684616 -0.07901473 -0.06869443 0.12071978
0.063982695 -0.02520889 -0.01569748 0.041669816 -0.1348784 0.13776518 0.09311475 -0.09912922
-0.061944768 -0.06656329 -0.04592535 -0.0083406875 -0.1075477 -0.033575837 -0.13344449 -0.10607483
0.021861238 0.11880893 -0.10339592 -0.05181372 0.023687184 -0.13457152 -0.02555232 0.10751399
0.11718108 0.09666995 0.13538396 -0.08341119 -0.1255421 0.036553185 -0.11280678 0.088297985
-0.1268918 -0.11850723 0.036177833 0.003870308 -0.13665895 0.09211058 -0.11638168 -0.133502
-0.06813143 -0.01500653 0.123643816 0.08978335 0.01424396 -0.004906452 0.045249637 0.122466885
0.12301269 0.0018274181 -0.017232906 -0.073805034 0.036161076 -0.026749931 -0.055351954 -0.115687184
-0.085519075 0.08256069 0.11374595 0.08215689 0.12115108 -0.09408392 0.06583469 0.1406382
0.11569757 0.10341725 0.07211701 0.09808413 0.13964066 -0.13029644 0.042698514 -0.02519529
-0.048009317 0.10519578 -0.066231295 0.14536361 -0.050901514 -0.016572608 0.04714462 0.09031685
-0.10945447 -0.057343904 -0.14854558 0.107499644 -0.13818716 -0.016767573 0.114583604 -0.10259244
0.06441827 -0.06281772 -0.1105127 -0.12705152 0.041670203 0.07634073 0.11028568 -0.114670366
-0.044717558 0.09741169 0.016895708 0.066213705 0.1290632 0.018035956 -0.024680138 0.12570609
-0.08469057 -0.015225659 -0.01320375 0.046256922 0.0074166437 0.025023328 -0.09962524 0.04404549
-0.08693656 -0.0073049837 -0.008730613 -0.09288097 0.104934424 0.045309514 -0.08304018 0.13359554
-0.06973949 0.036217723 0.15112007 -0.10820244 0.018205248 0.10169254 0.036454123 -0.06332912
-0.11661827 -0.060425684 -0.09012688 -0.12040924 0.018602004 -0.123759605 -0.088360466 -0.028239226
-0.025677804 0.036372293 0.03525009 -0.1340113 -0.024936592 0.06597871 0.10875687 0.10364167
0.12077728 0.10607813 -0.036964837 0.1271653 -0.08887447 0.06276036 -0.056175984 0.105667
0.14712526 -0.047561575 -0.008643297 -0.042778533 0.024520626 -0.068424225 0.034195263 -0.057017833
00000000: d673 fbbd 35b8 193e 2fda e8bb fffc 48bd
00000010: 53e4 003e cf73 fcbd 8f30 76bd 4301 29bd
00000020: 0558 ae3d 5057 113e b084 1ebc cb44 0b3e
00000030: 289a d53d 2b83 063e e72a ba38 3c77 923d
00000040: 78ff 493d 6588 9ebd 6178 0abd f1ea 523d
00000050: f46d 623c 7956 18bd e396 d73d 1d88 babc
00000060: 136a 07be 86a3 d0bd 38e1 1ebd 670a df3d
00000070: 9000 023d cdae d5bd e3a9 d13d b47c e6bd
00000080: f290 48bd bc15 5b3d 06aa b73d 72c4 ac3a
00000090: 02a9 7c3d 7ad2 a1bd aaaf 8cbd ef3b f73d
000000a0: 5c09 833d e082 cebc 0098 80bc f8ad 2a3d
000000b0: 901d 0abe 5112 0d3e f2b2 be3d 4304 cbbd
000000c0: ccb9 7dbd 5652 88bd 381c 3cbd 61a7 08bc
000000d0: f841 dcbd d186 09bd aca5 08be c33d d9bd
000000e0: 5716 b33c 1952 f33d 3dc1 d3bd a03a 54bd
000000f0: a00b c23c 1ecd 09be 1953 d1bc 4b30 dc3d
00000100: a2fc ef3d e5fa c53d 18a2 0a3e 7cd3 aabd
00000110: 1c8e 00be cbb8 153d 3e07 e7bd 93d5 b43d
00000120: edef 01be ebb3 f2bd 352f 143d fea4 7d3b
00000130: 53f0 0bbe 79a4 bc3d 8559 eebd c0b4 08be
00000140: 7e88 8bbd f3dd 75bc f838 fd3d 55e0 b73d
00000150: 805f 693c 4dc6 a0bb af57 393d ebcf fa3d
00000160: 14ee fb3d fa85 ef3a 062c 8dbc 1827 97bd
00000170: a31d 143d ac22 dbbc bbb8 62bd 67ed ecbd
00000180: a024 afbd 9415 a93d a3f3 e83d df41 a83d
00000190: 0f1e f83d 12af c0bd 57d4 863d 7603 103e
000001a0: d9f2 ec3d 6ccc d33d 15b2 933d 55e0 c83d
000001b0: f6fd 0e3e 6e6c 05be a3e4 2e3d 5a66 cebc
000001c0: 6ba5 44bd e370 d73d 46a4 87bd 33da 143e
000001d0: 1b7e 50bd 47c3 87bc b81a 413d 0af8 b83d
000001e0: aa29 e0bd 71e1 6abd 551c 18be c628 dc3d
000001f0: ef80 0dbe 265c 89bc cfaa ea3d fc1b d2bd
00000200: baed 833d 94a6 80bd 7c54 e2bd cb19 02be
00000210: 60ae 2a3d 8758 9c3d 75dd e13d 4cd8 eabd
00000220: c229 37bd c87f c73d de68 8a3c 0d9b 873d
00000230: 2529 043e 24c0 933c 002e cabc 19b9 003e
00000240: 4072 adbd 0b75 79bc 8b54 58bc e677 3d3d
00000250: 5107 f33b b9fd cc3c 5108 ccbd 0b69 343d
00000260: cc0b b2bd a55e efbb d80a 0fbc 6138 bebd
00000270: dce7 d63d 7896 393d f810 aabd 45cd 083e
00000280: 94d3 8ebd 0959 143d 38bf 1a3e 3e99 ddbd
00000290: 2c23 953c 2e44 d03d eb50 153d b3b2 81bd
000002a0: 8fd5 eebd ec80 77bd 7194 b8bd 1f99 f6bd
000002b0: 3b63 983c ad75 fdbd 55f6 b4bd f355 e7bc
000002c0: 425a d2bc 1dfb 143d 6662 103d 423a 09be
000002d0: d347 ccbc d91f 873d ecbb de3d 1542 d43d
000002e0: 145a f73d 7e3f d93d 7168 17bd 9f37 023e
000002f0: d103 b6bd 8188 803d ca18 66bd f167 d83d
00000300: 01a8 163e edcf 42bd 9d9c 0dbc 8b38 2fbd
00000310: 7bdf c83c 0022 8cbd 5510 0c3d 888b 69bd
