crowd_nav/data/archive/output-lstmRL-trained-on-wrong-sim/il_model.pth (torch, 190913 bytes, 11 tensors)

mlp.0.weight f4 [150, 56]
000000 75 eb 08 3d c5 c9 6d bd 3f 86 d1 3d 6c f5 99 3d
       0.033427674 -0.05805375 0.102306835 0.07517514
000010 41 a4 e6 3c 80 36 1e be 91 88 b1 bd 07 de 03 3e
       0.028154494 -0.15450478 -0.08668626 0.12877665
000020 18 ff ed 3c 12 ca ef 3d c0 41 83 bd 32 5b c5 bc
       0.029052302 0.11708464 -0.06409025 -0.024091337
000030 7a 04 03 3e 65 55 9f 3d a8 3b bf bb 80 d9 ab 3c
       0.12794676 0.077799596 -0.005835969 0.020977736
000040 a5 ab 1e 3e d1 12 c6 bd 3d 01 10 be 7a 8d 24 be
       0.15495165 -0.09671558 -0.14062972 -0.16069594
000050 f8 2b 2c be 36 35 2c 39 f4 15 e8 3c 31 9f c3 3c
       -0.16813648 0.00016423021 0.02833078 0.02387962
000060 a3 09 c3 bd ea 62 de 3c f2 b2 9a 3d 1d 86 93 bd
       -0.095233224 0.027146775 0.07553662 -0.072033145
000070 41 76 3e 3d 86 90 89 bc 59 95 e7 bd 18 e1 a0 3d
       0.046499494 -0.016792547 -0.11307783 0.07855433
000080 06 73 14 3c ac 65 e9 3d 28 97 76 bd 79 d9 af 3c
       0.009060627 0.113963455 -0.060202748 0.021466004
000090 8d ba 15 be c7 82 b2 3d bc 24 e4 3c eb ac b8 3b
       -0.14621945 0.0871635 0.027849548 0.005635848
0000a0 0d ac b1 bd 00 cd a6 bd 42 c3 af bd b7 89 1e 3d
       -0.08675394 -0.081445694 -0.08582164 0.038705554
0000b0 0d 40 f8 bd c4 11 45 3d 36 b3 d9 3d 42 91 aa bd
       -0.12121592 0.048112646 0.10629885 -0.08328487
0000c0 2d a6 0f bd bf 95 bb 3d be 0a 51 bc 32 fd b8 bd
       -0.035070587 0.09159421 -0.012758909 -0.09032668
0000d0 96 f1 ad bd 82 03 21 3e 45 19 b3 3c ca 81 15 bd
       -0.084933445 0.15723994 0.021862635 -0.03650073
0000e0 bb c1 de bc f1 41 96 3d b5 75 57 3c ff e9 ad 3d
       -0.027191987 0.07336796 0.013150622 0.08491897
0000f0 f0 18 a7 3c da 4d 6c be ee 52 3e bd 76 c3 9c bd
       0.020397633 -0.23076573 -0.046465807 -0.07654469
000100 a5 06 f1 bd 63 f4 c7 3d 61 e2 f1 3d eb ed 5b 3d
       -0.117688455 0.0976341 0.118107565 0.053693693
000110 b3 64 f6 bd 7e cf b8 3d d2 99 fe 3d 42 7c 0b bd
       -0.120309256 0.09023951 0.12431683 -0.03405405
000120 e1 ae d9 3c 21 40 54 3d 2b d6 0f be 4c 33 f7 3c
       0.026572647 0.05181897 -0.14046542 0.030175827
000130 2a f0 7d bc 94 c6 ba 3d 14 1d e0 bc dc db 44 bd
       -0.015499154 0.09119907 -0.027357616 -0.048061237
000140 d4 42 06 3e e4 6f 95 bd f3 f3 d2 3d 83 33 e4 3d
       0.1311143 -0.07296732 0.10300436 0.111426376
000150 41 de 3e 3d 10 ba 03 be 88 83 5b 3d 26 4d b2 bd
       0.046598677 -0.12863946 0.053592235 -0.08706121
000160 1f 88 08 be 87 31 6e bc 52 77 4f 3d 3e bc 73 bd
       -0.13333176 -0.014538175 0.050650902 -0.059505694
000170 ca 60 2c bd 06 50 73 bd 49 7c ec bd d3 bf ef 3d
       -0.042084493 -0.05940249 -0.11547143 0.117065094
000180 45 7f 02 bc 5d 95 33 3d 0b 8a 53 3b 51 68 3e bd
       -0.007964914 0.043843616 0.0032278325 -0.046486203
000190 f0 83 c1 3d c2 4d 02 3e be 2e 2a 3b 32 82 ad 3d
       0.09448993 0.12724975 0.0025967802 0.084720984
0001a0 56 01 10 be 70 73 ca bb 4a 30 a4 3d 13 fd e6 bd
       -0.1406301 -0.006178312 0.08017023 -0.11278739
0001b0 d5 75 75 bd fc a6 62 3d 65 64 2b 3d 35 45 15 bd
       -0.059926827 0.05533503 0.04184379 -0.036442954
0001c0 26 0f ae 3d 51 42 99 3b 27 0e 8e 3d c0 f8 e1 3d
       0.08498983 0.004677095 0.06936293 0.110337734
0001d0 71 9e c1 bd 2c 4e 0d 3e e1 c5 16 3e 67 a8 82 3d
       -0.094540484 0.13799351 0.14723922 0.063797764
0001e0 5a a0 17 bd 0d f1 e1 bd da 31 7b bd da 16 15 bd
       -0.037018158 -0.11032305 -0.06132684 -0.036398746
0001f0 53 eb 19 3d a0 d4 83 bd 0b 34 8f bd 36 74 f0 bd
       0.03757794 -0.064370394 -0.06992348 -0.117409155
000200 f5 1d ac 3d c5 c6 e4 bd 3b 18 22 3d e1 ba 8b bd
       0.08404151 -0.11170725 0.03957389 -0.06822754
000210 75 dc 91 bd 9f 60 23 3d 57 7a a2 bc 38 2c 93 bd
       -0.07122127 0.039887067 -0.019833727 -0.071861684
000220 e7 cc 63 bc bf eb 1c be 63 2a b5 bb 0c cc e9 bd
       -0.013903833 -0.15324305 -0.0055287345 -0.11415872
000230 c0 92 e0 3c 6d 64 ce 3d 8a f0 50 3d 1f 20 8e 3d
       0.027413726 0.100777484 0.051010646 0.0693972
000240 ff bd 4b 3e c7 e3 08 3d 4e eb 31 bd f4 09 fd 3d
       0.19896697 0.03342035 -0.043437295 0.12355414
000250 63 d5 0f bb 51 7e 03 bd 36 87 bc 3d 60 c3 1a 3d
       -0.0021947257 -0.032102887 0.09205477 0.03778398
000260 b6 26 e9 bd e8 ae fc 3c 84 a3 0d 3d 80 62 37 bd
       -0.11384337 0.03084512 0.03457977 -0.04477167
000270 11 60 0b bc a3 56 bd bd 47 de ed 3d 37 c1 69 3d
       -0.008506791 -0.0924504 0.11614662 0.05706903
000280 04 1d b6 3d 52 cc 96 3d a6 fd 4f 3d cf ff 27 bd
       0.08892253 0.0736319 0.050779007 -0.041015442
000290 00 69 b8 bd 81 2d e9 3d 1e 47 83 bd 51 7f 8c bd
       -0.09004402 0.11385632 -0.06410049 -0.06860221
0002a0 34 98 b6 bd 54 1f b5 bd d0 f7 04 3e 57 06 05 3e
       -0.08915749 -0.08843866 0.12985158 0.129907
0002b0 83 90 c1 3b 70 48 76 bb e7 46 08 bd 67 89 0f 3d
       0.0059071197 -0.0037579797 -0.033270743 0.035043146
0002c0 e5 f9 a2 3d a1 bc a8 bd 63 6e a9 bd b8 4b 9c 3d
       0.0795782 -0.08239103 -0.08273008 0.0763163
0002d0 d4 a9 ff 3a 81 b0 3a bd ff 4a 64 3d a4 dc a4 3d
       0.0019505569 -0.045578483 0.055735584 0.08049896
0002e0 dd 7f 79 bc b4 7f 09 bd cb 36 d3 bd 13 1e 3a 3d
       -0.015228239 -0.033569053 -0.10313185 0.045438837
0002f0 14 69 04 3e bf b7 a6 3d f9 50 47 3d b6 58 a6 3c
       0.12930709 0.081405155 0.048661206 0.020305973
000300 22 6c a5 3b ae 9c b9 3c cd 4e 19 bd 03 f2 1d 3d
       0.005048291 0.022657719 -0.037428666 0.03856088
000310 b3 59 89 bd f7 e0 78 bd 07 bb 94 3d 2e 9e 89 bd
       -0.06706562 -0.06076142 0.07262235 -0.067196235
000320 d1 78 06 bd 03 da fb bd 10 04 fa 3d 7d 11 03 be
       -0.032830063 -0.12297442 0.12207806 -0.1279964
000330 0b ff af 3d 41 b6 c6 bd 91 37 7a 3d 9d 9e 4c 3d
       0.085935675 -0.09702731 0.06108815 0.049955953
000340 9b 2c 30 3d 8e d7 de bd de d6 bc bd b1 18 3f bd
       0.04301129 -0.108809575 -0.0922067 -0.046654407
000350 4e fb 0a 3a 71 bf 04 3d a1 6a bc bc a5 ce cf bc
       0.00053017295 0.032409135 -0.023000063 -0.02536709
000360 38 16 ab bd 05 1a 7c 3c 79 e6 d3 3d 90 0d 8a 3d
       -0.08353847 0.015387063 0.103466935 0.06740868
000370 9c fd 9b 3d 30 c4 c8 bd 6a d6 df 3d cf 2c 06 3e
       0.076167315 -0.09803045 0.10929568 0.1310303
000380 ea c7 6b 3b f0 38 88 3d be 61 09 3d 3d 09 b9 bd
       0.0035977312 0.06651485 0.03354048 -0.09034965
000390 22 6a f3 3c b0 e1 30 3e 56 80 22 3d 95 62 d3 bd
       0.029713694 0.17273593 0.039673172 -0.103215374
0003a0 9f db fc bc 89 43 97 bd 0a d9 12 bc de 05 f8 bc
       -0.030866442 -0.07385928 -0.008962879 -0.030276235
0003b0 a2 10 0c 3e 7b 91 9d 3d ce ad eb bd df bd de 3d
       0.1367822 0.07693764 -0.1150776 0.10876059
0003c0 f7 06 f9 bb 06 c6 d8 bd ec 69 d4 bd 58 46 d4 3d
       -0.007599707 -0.10584645 -0.103717655 0.103649795
0003d0 ab 10 8d 3d 2c 95 ed 3c 12 0a 00 be 88 13 71 3d
       0.06887945 0.029001795 -0.12503842 0.058856517
0003e0 4d 52 e3 3d 8f f5 a5 bd 78 79 12 bc bd bc fb 3d
       0.11099682 -0.08103477 -0.008940093 0.12291858
0003f0 61 9f 0b be fa d5 d2 3d c3 cf 86 bd c3 a6 71 3c
       -0.13635017 0.10294719 -0.06582596 0.014749232

mlp.0.bias f4 [150]
000000 5e 98 f4 bd cf d9 c7 bd 2e 6e fb bb 7a a7 aa 3d
       -0.11943124 -0.097583406 -0.0076730466 0.08332725
000010 1a 39 de bd 83 38 f8 3d 9b 78 f0 3d 1c bb d3 bd
       -0.10850735 0.12120154 0.11741754 -0.10338423
000020 8b 67 af 3d 98 7a f0 3d 78 e6 dc bd ad 13 24 3e
       0.08564671 0.11742133 -0.10786146 0.1602313
000030 4a 24 01 3e 70 7e c0 bd ea 04 c9 bd 1e 08 85 3d
       0.126115 -0.09399116 -0.098153904 0.06495689
000040 b5 47 d9 bc 0f e7 a6 bd c2 82 f6 bc 21 c6 8c 3d
       -0.02652345 -0.0814954 -0.030091647 0.068737276
000050 54 7a 84 3d 6f 25 02 be fd ad 45 be 49 cf 87 bd
       0.06468645 -0.12709592 -0.19304653 -0.066313334
000060 d3 00 04 3e 9b 7e aa 3b 2e f1 ac bd eb a0 1f be
       0.1289094 0.005203081 -0.08444439 -0.15588729
000070 e1 32 0c 3e cc 5f 84 bd f1 64 f5 bd c1 13 b8 3d
       0.13691284 -0.06463584 -0.11982144 0.08988143
000080 dc d3 3b 3d eb 9b c6 3d ba fe ec bd dc 8b 25 3e
       0.04585634 0.09697708 -0.11572023 0.16166633
000090 4c c5 0a 3d d4 b2 1e bd e0 95 4f bd a8 61 8b 3d
       0.033879563 -0.038744763 -0.05068004 0.06805736
0000a0 87 a1 62 3d 6b 03 ab bc 98 14 a1 3d ef d3 fb bd
       0.055329826 -0.020875653 0.07865256 -0.122962825
0000b0 ab e0 94 3d b1 0a de 3d cc ec cd 3c a6 56 96 3d
       0.072694145 0.10841883 0.025137328 0.07340746
0000c0 c5 b5 dc 3c d5 d9 05 3e 30 64 8e bd ba e3 b5 bc
       0.026942143 0.13071378 -0.06952703 -0.022203315
0000d0 95 35 9c bd 8f 9a 49 bc fd fb 2b 3c c5 e6 83 bd
       -0.076274075 -0.012304916 0.01049709 -0.064405
0000e0 78 76 be 3d a6 af b0 bc e8 fe dd 3d 55 7e b8 3d
       0.0929994 -0.02156813 0.10839635 0.09008471
0000f0 86 22 a2 bd 5e 2d 9b 3d d8 d2 fc bd f2 e2 e1 3c
       -0.07916741 0.075770125 -0.12344903 0.027574036
000100 d6 c6 f9 3c eb d4 f5 3c 3d 3a fe 3c e9 a2 a3 bd
       0.03049032 0.030008754 0.03103363 -0.07990057
000110 25 10 26 3c 9d 27 bb bd 99 a9 ff bd 1e 66 bb 3d
       0.010135685 -0.09138415 -0.1248352 0.09150337
000120 b3 ed f9 3d 36 32 1a be f3 e1 85 bd 0e 68 0d 3e
       0.12203541 -0.15058216 -0.06537237 0.13809225
000130 bf db 31 bd a1 52 f6 3d 9b cb a0 3d 67 7d bd bd
       -0.043422457 0.12027479 0.07851335 -0.09252434
000140 9b e6 a9 3b 3f 17 00 bd 78 1b 88 3c 69 86 34 bd
       0.005184961 -0.03127217 0.01661466 -0.044073496
000150 37 fa 8b 3d 2f 58 58 bd c5 ab c2 3d a3 d0 ec bd
       0.06834834 -0.052818473 0.09505419 -0.11563232
000160 40 52 8c bb ac 9a ae bd 41 fd 1b 3e 3b ed 31 3d
       -0.004282266 -0.08525595 0.15233327 0.04343913
000170 02 b2 40 3d 73 33 20 3d fc 05 aa bc 46 10 97 3d
       0.04704476 0.039111566 -0.020754807 0.07376151
000180 00 04 9f 3d 7a de 02 be e7 74 2b 3d 5e 92 fb 3b
       0.07764435 -0.1278018 0.041859534 0.0076773604
000190 89 60 f2 3d f8 f7 aa 3d 21 91 fe 3d 90 a2 ea bd
       0.11834819 0.083480775 0.12430025 -0.114567876
0001a0 2f 42 63 3d d3 3a 8c 3d b4 98 a9 bd 74 21 ce 3d
       0.05548304 0.06847157 -0.08281079 0.100649744
0001b0 8a 3c a5 bd 1c 63 94 3d c6 8e 8c bd a1 73 5d bb
       -0.080681875 0.07245466 -0.06863169 -0.0033790844
0001c0 d6 3d 3e 3d 9e fe 8d bd f6 29 81 bc 8c 5a f2 bd
       0.04644569 -0.0693333 -0.015767079 -0.11833677
0001d0 67 c9 8a bd be 06 0d 3d 23 3f 8f bd 2f c9 05 be
       -0.06776696 0.034430258 -0.06994464 -0.13065027
0001e0 95 81 34 bd 3c 41 a7 3c 74 f7 0f bd 09 ce 2d be
       -0.04406889 0.020416848 -0.0351481 -0.16973127
0001f0 4c 93 ab 3d 54 f4 0d 3e 11 7c 37 3d 1d fe c9 bd
       0.08377704 0.13862735 0.044796053 -0.098629214
000200 cb cc 71 bd 2c e1 eb bc cc 0b ec 3d 64 28 68 bd
       -0.059033196 -0.028793894 0.115256876 -0.056679145
000210 23 4b d2 bd 9f 38 66 bd 5d 2d a6 bd 1a df 34 3e
       -0.102682374 -0.05620634 -0.08114121 0.17663231
000220 d8 f9 6f bd a2 75 03 bd fd 9a aa bd e2 21 dc bd
       -0.05858788 -0.032094605 -0.08330343 -0.1074865
000230 1f a5 a3 bd 99 bf 45 bd d1 ea 66 bd 75 67 9d 3c
       -0.07990479 -0.048278425 -0.056376282 0.019214371
000240 41 c4 86 3c 8e 56 4f be d9 b5 ab bd 85 cc 95 bd
       0.016451003 -0.20247862 -0.08384294 -0.073144
000250 64 5f 3e bd 13 01 dc 3d
       -0.04647769 0.107423924

mlp.2.weight f4 [100, 150]
000000 85 f5 4b 3c e9 c5 9a bd db fe 90 bd 24 19 85 3c
       0.012448673 -0.075572796 -0.0707986 0.01624734
000010 d2 45 5a 3d 62 c0 ad bc f0 aa a6 bc 5b bf cb 3b
       0.053289242 -0.0212099 -0.020345181 0.0062178797
000020 eb e0 34 3d 16 80 d2 bc 37 d6 90 bd d6 95 94 bd
       0.04415981 -0.025695842 -0.07072108 -0.072551414
000030 32 9f 12 3d 35 33 91 3d dc 78 72 3c 37 c1 aa bc
       0.03579635 0.07089845 0.014799323 -0.020844085
000040 9d 80 bc bd df d1 8e 3d 2d 17 47 bd 1c cf 69 3d
       -0.092042185 0.069736235 -0.048606087 0.05708228
000050 91 4e 4b bd 8d 1e 00 3d 88 f8 84 bd ce dc 07 3d
       -0.049635474 0.031279135 -0.06492716 0.03316956
000060 18 d3 8d bd 08 15 19 3d c8 f5 77 bd fa 2d ac bc
       -0.069250286 0.037373573 -0.06053713 -0.021018017
000070 cc 90 71 bd c4 8c 51 3d 63 8c 80 3d 20 82 ce 3c
       -0.05897598 0.051159635 0.06276777 0.025208533
000080 75 48 0c bc 6f 7e c2 bc 08 bf 02 bd 74 5a 48 3d
       -0.008562197 -0.023741929 -0.031920463 0.048914388
000090 8b a2 49 3d 9a cb a3 3d 15 cf 92 bd 4c 1b 9a bd
       0.04922728 0.07997818 -0.07168404 -0.07524738
0000a0 2d 3d c8 bc e7 bb 14 bd 9e 12 a7 bd 49 38 7c 3d
       -0.024443233 -0.03631201 -0.08157848 0.061577115
0000b0 e1 b5 f6 3c c1 fe 32 3d b9 05 74 bd 99 84 8e bc
       0.030116023 0.043699984 -0.05957577 -0.017397212
0000c0 d6 d1 f1 3c 03 f5 4a 3b 15 5d 25 3d 18 08 08 bd
       0.029519003 0.0030968792 0.040371973 -0.033210844
0000d0 d4 9e cf 3b 59 74 8d bc 65 d7 29 bd 4a 73 f0 3c
       0.0063360725 -0.017267393 -0.04146518 0.02935185
0000e0 8d 15 35 bc 62 04 04 bd b5 ed 5f 3d be ea ba bd
       -0.011052501 -0.032230742 0.054670054 -0.09126805
0000f0 6d bf 8d 3c e4 06 b1 3c ec a4 ed 3c 7f c9 63 bd
       0.017303193 0.021609731 0.029009305 -0.055612084
000100 68 0d 9d bd 73 12 b1 3d a6 ca 33 3d 51 5f 8d 3d
       -0.07668573 0.08646097 0.043894432 0.06902946
000110 02 a6 79 bd 4d f2 af 3c da 27 65 3c 8f 93 4e 3d
       -0.060949333 0.021477843 0.013986552 0.05043369
000120 12 61 d8 bb 5b 8d a7 3d 2e 92 3a bd 5b 18 8f bd
       -0.0066033686 0.08181258 -0.045549564 -0.06987067
000130 73 d2 cc 3c f7 b0 f5 bc aa 33 42 3d 07 0c 56 bc
       0.025002694 -0.02999161 0.047412552 -0.013064391
000140 51 98 5c 3d d3 7b 50 3d 12 07 78 3d fa ef aa bd
       0.053856198 0.050899338 0.060553618 -0.08346553
000150 4c a6 79 bd f4 61 4b bd 96 59 06 3d 89 65 1b 3c
       -0.06094961 -0.049653962 0.03280028 0.009484657
000160 80 ca 57 bd 0d ed 2d bc 53 ec 53 bd 90 be 31 3d
       -0.052683353 -0.010615599 -0.05173905 0.043394625
000170 d4 e7 5c 3c f9 24 9e bd fb 69 00 3d 71 ab b2 bc
       0.0134830065 -0.07721896 0.03135107 -0.021810265
000180 5d 5f 51 3d 97 e3 a1 3d 08 99 8b bd 5d 97 3c bd
       0.051116336 0.079047374 -0.06816298 -0.04604279
000190 09 7a 15 3d fb 4d 29 3d 66 4b ca 3c 27 6c 41 bc
       0.036493335 0.041334134 0.024694156 -0.011805571
0001a0 ba d8 9f 3d 05 c5 43 bd 24 6c 2c 3d 25 ee 43 3d
       0.07805009 -0.047795314 0.04209532 0.047834534
0001b0 7a 0d a2 b9 14 80 4f 3d aa c8 9f 3c 28 67 86 bd
       -0.0003090909 0.050659254 0.019504864 -0.06562644
0001c0 31 2d b3 bd af 5b ac bd 6f ca 8a 3d 13 8b 01 3d
       -0.08748854 -0.08415925 0.067768924 0.031626772
0001d0 6f 9d 69 3d 20 d1 b6 bc e6 99 fb 3c 53 cb 13 3d
       0.057034906 -0.022316515 0.030713033 0.036082577
0001e0 99 b7 90 3d 7b 5b b1 3c 28 41 ac bd f9 3e 69 3c
       0.070662685 0.021650067 -0.08410865 0.014236205
0001f0 0b 6f 9d 3d 67 e5 b0 bd ec d2 96 3c 6b 43 ca 3c
       0.076871954 -0.08637505 0.018411122 0.02469035
000200 4a bd af 3a 9c 0c 7e bd a4 a8 e2 3c 5a 8a 8c 3d
       0.0013407853 -0.062023744 0.027668305 0.06862326
000210 bc 54 2e 3d c7 6f e1 3c 71 d2 03 3c 11 9c a4 3d
       0.042561278 0.02751912 0.008045779 0.0803758
000220 9d 42 a1 bd 33 46 87 bd bb 1b 89 3d 0d 11 30 3d
       -0.078740336 -0.06605186 0.06694742 0.04298501
000230 7d 56 16 bd 13 49 13 3d 0e 3d 0f 3d e7 5b 9f bd
       -0.036703575 0.03595836 0.034970336 -0.07781201
000240 d6 c5 5f 3d 56 70 91 3d b6 10 bc bc a0 b2 53 3d
       0.05463203 0.071015045 -0.022957187 0.051684022
000250 02 e2 10 bd 8a 43 9c 3d be 60 97 bd 7c 85 96 bd
       -0.035371788 0.076300696 -0.07391499 -0.07349679
000260 59 0f 8e bc b7 9d 7f 3c 5b 90 89 bd 22 7b 35 bd
       -0.017341303 0.015601567 -0.06716987 -0.04430688
000270 c5 e7 9d bd db ae 8a bd 3d 82 dc 3c bc 2f 2d bd
       -0.07710222 -0.06771632 0.026917571 -0.04228185
000280 ff 2f 8c bd 93 eb 14 3d e6 c8 ee 3d e1 c9 1a bd
       -0.06845092 0.036357474 0.11659412 -0.037790183
000290 0e 36 1d 3d c9 fc 87 bd 54 a0 11 bd f6 c9 bc 3c
       0.03838163 -0.06640012 -0.03555329 0.023045521
0002a0 85 86 28 3c 40 1f 78 bd 0a 9f a9 3d 81 ef a5 bd
       0.010285978 -0.060576677 0.082822874 -0.08102322
0002b0 b0 35 97 bd 1d bf 8e bd 49 bc e1 3d 4e a4 37 bd
       -0.07383287 -0.06970046 0.11022241 -0.044834428
0002c0 e6 ed a2 3b 57 db c9 3c 11 96 d0 bc 0a d7 6d bd
       0.0049722074 0.024640722 -0.025462182 -0.058066405
0002d0 65 1d cc 3c 09 f5 c3 bd 2a c6 df bc c3 22 63 3c
       0.02491636 -0.09568221 -0.027316172 0.013863268
0002e0 a8 c4 90 bb 1f 30 55 3d 24 71 bb 3d 35 3c 98 3c
       -0.0044179745 0.052047845 0.09152439 0.018583396
0002f0 9a 74 5f 3d 45 43 13 3c e1 04 6e bd 5f 4e 62 bd
       0.05455456 0.008988206 -0.05811012 -0.05525052
000300 d3 a6 da bc b7 fd 9d 3d a0 ed fe 3c 8c 6f 5c 3d
       -0.026690876 0.07714408 0.031119168 0.053817317
000310 d0 3b c1 3d 70 38 34 3d 84 a6 da bc 81 76 a7 3c
       0.094352365 0.043999135 -0.026690729 0.02044225
000320 66 2d 81 3d 39 48 09 be 9b 9a 93 bd 9b 85 03 bd
       0.06307487 -0.13406457 -0.07207223 -0.032109838
000330 d9 74 28 3d 50 66 19 3d 90 0e 77 bd c6 9a 46 3d
       0.04112706 0.03745109 -0.060316622 0.048487447
000340 91 08 a7 bd b7 0a 9a 3b 2a b6 83 3c b4 f4 60 3d
       -0.08155931 0.0047009843 0.016078074 0.054920867
000350 49 5b 66 3d 14 34 7f bd 1b eb 8e 3d c7 e4 bd 3d
       0.0562394 -0.062305525 0.069784366 0.092721514
000360 97 1d 80 bc 24 4a 1b bd c2 f2 b4 3c e3 2b 80 3d
       -0.01563911 -0.037912503 0.022088412 0.06258371
000370 28 ad 0d be c0 3e 9a 3d da 9c a2 3d aa 69 98 bd
       -0.13835585 0.075315 0.07940073 -0.07442029
000380 1c 04 4a bd db be 6f bd be 42 9c bd 4a e3 bd bb
       -0.049320325 -0.058531623 -0.076299176 -0.0057949172
000390 5a 0b 50 3c e7 16 10 3d 34 81 c7 bb 69 f4 01 be
       0.012698019 0.03517809 -0.0060884003 -0.12690891
0003a0 7d c9 b8 bd 89 32 c4 bb 76 75 02 3d 7b 05 0b bc
       -0.09022806 -0.0059874696 0.0318503 -0.008485193
0003b0 00 49 ae bb 16 3c e1 bd 6f 6a bd 3d 53 be 9d bd
       -0.005318761 -0.109977886 0.09248816 -0.07702317
0003c0 24 c8 eb 3d bd a1 54 3d 6a 0b b4 bd e0 e6 3b bd
       0.11512783 0.05191206 -0.087912396 -0.045874476
0003d0 b6 b1 0a 3d 5c 20 a4 bc 09 e6 55 bd 55 5b a7 bd
       0.033860885 -0.020034961 -0.05222133 -0.08171717
0003e0 61 40 3c 3c b8 0c 25 bd 2b 85 50 3d d2 6d 15 3d
       0.0114899585 -0.040295333 0.05090825 0.036481686
0003f0 68 58 79 bc d8 39 a1 3d be a0 9e 3d 1d 9b e2 3c
       -0.015218832 0.07872361 0.07745503 0.027661854

mlp.2.bias f4 [100]
000000 3f 42 75 bd 54 4e 15 3e 4c ea 1b bd b8 a0 8c bd
       -0.05987763 0.14580661 -0.03806524 -0.06866592
000010 7e 8b 60 3c f9 b0 ae bc 58 89 5d 3d 0d 2f 2e bd
       0.0137051325 -0.021324622 0.05408606 -0.04252534
000020 1b c5 00 3e ee 8d 52 bd 1f 15 31 3c 81 8d f8 ba
       0.1257519 -0.051404886 0.010808258 -0.001896307
000030 a5 f4 80 3c 7f 4d 8d bd 46 5e c3 bc 35 e7 26 3e
       0.015741656 -0.06899547 -0.023848664 0.16299136
000040 d1 53 08 3c 09 de 10 bd 02 b2 74 3d c6 2c 96 bd
       0.008320765 -0.035368 0.059740074 -0.073327586
000050 3e fa 9d bd 33 8d 9d bd 87 d9 3d 3d 7e e3 38 bd
       -0.077137455 -0.07692947 0.04635003 -0.04513883
000060 08 5c 51 bd 80 64 4f 3d 8e a7 07 bd 58 b7 40 bd
       -0.05111316 0.050632954 -0.033118777 -0.04704985
000070 86 ed 91 3b 25 3d 0c 3d d0 74 2d 3c 14 6c 65 bc
       0.004453364 0.034238 0.010586932 -0.014002819
000080 cb 18 8d bd 17 bf ae bc 4c 4b e6 3d a2 33 7f 3c
       -0.068894945 -0.021331353 0.112448305 0.015576275
000090 b4 e6 4f 3d 41 17 00 bd b1 47 45 3d 5d 41 04 3d
       0.050757125 -0.031272177 0.048164073 0.032288898
0000a0 76 00 53 3c 43 ea 97 39 54 e3 0e 3e c4 7d 35 bc
       0.012878528 0.00028975503 0.13953906 -0.011077348
0000b0 1c 12 65 3d a8 ca dd 3d f4 da db 3c 15 8f f9 3d
       0.055925474 0.10829669 0.026837803 0.12185494
0000c0 c7 6d 23 3d b0 97 7c bd 8f af 42 bd 06 6d 36 3c
       0.039899614 -0.061668098 -0.047530707 0.011134392
0000d0 1f 48 a9 bd 51 f7 a4 bc 5a c1 78 3c aa 16 87 bd
       -0.08265709 -0.02013746 0.015182817 -0.0659612
0000e0 39 37 d8 3c 14 f4 7e bd 35 5c 75 3d 9f de 74 3d
       0.02639352 -0.06224449 0.05990239 0.05978262
0000f0 cb ee 5f 3d 1b 91 0d bd 9f 02 8c bd 81 3e cc 3c
       0.05467109 -0.03456221 -0.068364374 0.024932148
000100 ad 9a a9 bc 69 64 f9 3d 3f 48 98 bc 15 06 af bd
       -0.020703638 0.12177355 -0.018589137 -0.08546082
000110 5e c9 94 bd 19 4d 4f bd e8 ea b5 bc db 04 11 bd
       -0.0726497 -0.050610635 -0.022206739 -0.03540502
000120 3d 40 8b ba 65 22 6b 3d 9e 48 23 bd 7c 75 8e 3d
       -0.0010624003 0.057405848 -0.039864175 0.06956002
000130 9b a2 3f 3e 0a aa 73 3b ae 5a d3 3b 4a e0 98 3d
       0.18714373 0.0037180209 0.006450019 0.07464655
000140 ba a0 a5 bd 9d 5f 2b 3d e2 44 8b 3d b8 35 55 3d
       -0.08087297 0.04183923 0.06800248 0.052053183
000150 03 8e 84 bc b8 db fe 3b 83 3b d0 3c 25 0a 66 bd
       -0.016180998 0.0077776574 0.025419002 -0.05616202
000160 38 b9 51 3d 72 b7 63 3d 66 ef 5f bd 54 03 33 3d
       0.05120203 0.05559487 -0.054671668 0.043704346
000170 b7 d4 97 3d 58 cf 90 bd b0 9b 84 bd 5f 76 d5 3d
       0.07413619 -0.07070798 -0.064750075 0.10422968
000180 df 9e ca bc 99 3c 1e bd fa 70 27 3d 40 80 01 bd
       -0.024733959 -0.03863201 0.040879227 -0.03161645

mlp.4.weight f4 [100, 100]
000000 ac 29 79 3b fe e0 87 3d c8 07 35 3c 83 6f ab 3d
       0.0038019223 0.06634711 0.0110492185 0.083708785
000010 22 70 4f 3d b7 76 17 3c 6d 35 20 3c db bf 5a 3d
       0.050644048 0.009244612 0.009778363 0.053405624
000020 d8 29 74 bb 5c 71 99 3d c7 a0 5b 3d 1a 23 c5 3d
       -0.0037256386 0.07492325 0.053620126 0.09625836
000030 7a 98 84 3d 4b c4 b4 bd 78 7c 55 bd 38 a1 66 3d
       0.06474395 -0.088265024 -0.052120656 0.056306094
000040 83 e3 8d bd 4a aa d6 3c 97 f4 88 3d 3e 83 ba bd
       -0.0692816 0.026204247 0.06687277 -0.09107064
000050 ed 8a bf 3d 65 96 b2 3d 4d bb 28 bd ad 47 22 bd
       0.0935267 0.08720092 -0.04119425 -0.039619137
000060 31 6d ee 39 ce b8 36 3d 05 a7 95 bc bf e9 a2 bc
       0.0004547625 0.044609837 -0.018268118 -0.01988685
000070 d6 b3 67 bd da 73 7d 3d 8d ec 9d 3c aa 26 f4 3c
       -0.05656799 0.061878063 0.019277835 0.029803593
000080 b1 79 37 bd 32 88 21 3d c5 47 8a 3c c1 be 2e bd
       -0.04479379 0.039436527 0.016879926 -0.042662386
000090 8f 85 a0 bb 9e f7 56 bd 0f 6f 55 bd 91 9d a9 bc
       -0.004898734 -0.05248224 -0.052107867 -0.020705016
0000a0 af 25 ba 3d 50 a8 92 bd 8f 65 96 bd a1 ee ed bd
       0.09089219 -0.07161009 -0.073435895 -0.116177805
0000b0 2b 1b 6d 3d 94 f0 b8 bc 36 14 a5 bd e5 bb 95 3c
       0.057887238 -0.022575654 -0.080604956 0.018278072
0000c0 ea 4f e6 3a ee 24 89 bd 1e 66 0f bd f5 35 a1 ba
       0.0017571424 -0.06696497 -0.035009496 -0.0012299406
0000d0 47 f0 6a 3b 4a 4b 4a bd 23 37 c4 3c 9a 0d 02 3c
       0.0035848783 -0.049388207 0.023952072 0.007937813
0000e0 67 57 c0 3d f7 ef 88 3d 22 cf c5 bb cc 05 e9 bd
       0.09391671 0.06686395 -0.006036655 -0.11378059
0000f0 c5 a3 19 3d 45 d1 90 3c 5a 38 b7 3d db 37 ac bc
       0.0375097 0.017677912 0.08946295 -0.021022728
000100 9e 0a 98 3d 0d f8 dd 3d ca 9d 4e bd 9c 9b b3 3d
       0.074239 0.108383276 -0.050443448 0.087699145
000110 fa a6 cc 3d 76 f2 c5 bc 1c 86 0d 3d 13 c3 40 3d
       0.09992786 -0.024163466 0.034551725 0.047061037
000120 0a c4 d5 3d 7a 2e a8 3d e4 94 a7 3c f7 96 8f bc
       0.10437782 0.0821199 0.020456739 -0.01752804
000130 95 5c eb bc 95 43 14 3d ee b6 52 bd bc 2a ac bd
       -0.02873067 0.036197264 -0.051443987 -0.084065884
000140 d7 5f a3 bd a6 3a c0 bc 6b 73 b9 ba 77 fb 81 3d
       -0.079772644 -0.023465466 -0.0014148777 0.06346791
000150 2a c7 35 3d 25 6f 2c bd a7 dc 38 3d 27 7c 96 3c
       0.04437939 -0.042098183 0.045132305 0.018369747
000160 7c 43 a8 3d f6 5f 3e bd 67 b1 8f 3c 89 90 45 3d
       0.082159966 -0.046478234 0.017540647 0.048233543
000170 bc 0c 49 bc 75 b4 bb bd 14 03 31 3d bb c0 bc 3d
       -0.0122711025 -0.09165279 0.043215826 0.09216448
000180 c1 96 c7 bc fe 2c d2 bd 79 a3 60 3d 81 f9 92 3d
       -0.024363877 -0.10262488 0.0548434 0.07176495
000190 05 29 a9 bd b5 76 25 bd 87 b1 03 3d a7 a5 44 3d
       -0.08259777 -0.04039641 0.032151725 0.04800954
0001a0 93 c2 04 bd 49 19 d5 3c 64 5a 97 3b 1f c3 86 bb
       -0.032412123 0.026013033 0.0046189297 -0.0041126157
0001b0 ec 5c f3 3d 09 6d b2 3b 02 db e4 3c 4b c0 b6 bd
       0.11882958 0.005445127 0.027936462 -0.08923396
0001c0 3a 3f c4 3d da e8 01 3c 0a 9c 8f bd 68 eb 81 3c
       0.09582372 0.007929051 -0.07012184 0.01585932
0001d0 bb 8d 86 bd 59 13 2f bd d9 03 ab bd f9 cd 88 3d
       -0.06570002 -0.04274306 -0.08350343 0.06679911
0001e0 9f ea 07 bd 03 bb b1 3d 38 b1 a7 3d a5 c0 9c 3d
       -0.033182736 0.08678248 0.08188099 0.076539315
0001f0 04 f9 1a bd 3d 76 de 3c 28 2c 83 3d a3 58 87 bd
       -0.037835136 0.02715599 0.064049065 -0.06608703
000200 ae c8 d7 bb 2a 19 2a 3c 2d bb 93 3d 1e f3 9b 3c
       -0.006585202 0.010381976 0.07213435 0.019036826
000210 02 a7 16 3d 34 02 25 3d 48 10 c5 3c 47 93 5d bd
       0.036780365 0.040285304 0.024055615 -0.054095533
000220 b4 48 6c 3c 42 64 62 3c 5f e7 d9 3c ce b8 b4 3d
       0.014421631 0.013817849 0.026599584 0.08824311
000230 ed 8c a3 3d a7 49 19 bd c2 87 c0 3d aa df c8 3d
       0.07985864 -0.037423756 0.09400894 0.098082855
000240 21 9c d6 bc 8a 86 53 3d 7e 5d 11 bd 7a 27 af 3c
       -0.026197495 0.05164198 -0.03548955 0.021381129
000250 02 04 44 3d 50 05 c1 3d ff 0b 6c bc 0b 90 95 bb
       0.047855385 0.094248414 -0.014407157 -0.0045642904
000260 f1 8f 72 bd ea 46 90 bd df 39 3c 3d 0d 04 4d 3d
       -0.059219304 -0.07044776 0.045953628 0.05005269
000270 11 64 9d bd 09 5b 1a bd b3 01 a9 3d 9e 55 cc bc
       -0.07685102 -0.037684474 0.08252277 -0.02494317
000280 d6 e0 b8 3d 2f c3 5f 3c 58 2d d8 bb 69 4e 04 3d
       0.09027259 0.013657375 -0.0065972023 0.03230134
000290 9a 09 c6 bd dd 7e 03 3d bd d4 c7 bd a6 d8 a4 3d
       -0.096698 0.032103408 -0.097573735 0.08049135
0002a0 48 20 20 3d fa 91 b3 bd e3 98 3b 3d 13 3d 8c bd
       0.039093286 -0.08768077 0.0458001 -0.068475865
0002b0 34 cf bc 3d c3 38 85 bd 0f 19 11 3d e6 28 20 bc
       0.09219208 -0.06504967 0.03542429 -0.009775376
0002c0 b8 7c 12 be 9a 84 ef 3c 52 ca c5 bd 75 f2 6e bd
       -0.14305389 0.029238034 -0.0965773 -0.058336694
0002d0 ed 18 49 3d b7 dc 28 3c dc 1e dc ba e3 74 9e bd
       0.049096037 0.010306529 -0.0016793865 -0.07737138
0002e0 4b 69 bc 3d 1e 9b 3e bd 99 c3 bf 3d 62 29 3d bd
       0.091997705 -0.04653465 0.09363479 -0.046182044
0002f0 cb 33 5a 3d 9e d6 68 3d 2a bf 01 3d a9 5f b2 3d
       0.05327205 0.0568453 0.03167645 0.08709652
000300 a2 68 f1 bc 23 9e 60 3d eb bb f1 bd 9e 05 7a bc
       -0.029468838 0.05483831 -0.11803421 -0.015260128
000310 91 e9 1b 3d af cb 84 bd 24 b9 17 3b ac 33 c6 3d
       0.038064543 -0.06484162 0.0023151124 0.096778244
000320 c1 fd cb bd 19 b7 9b bd be 0c 44 bd ae 0f 26 bc
       -0.09960509 -0.076032825 -0.047863714 -0.010135574
000330 32 9b 07 3d d0 06 2e bd be c1 a4 bc 11 3e 63 3c
       0.03310699 -0.042486966 -0.020111915 0.013869778
000340 e9 75 1f ba dd 91 95 bd 8f 76 b3 bc 9c ca 21 bd
       -0.00060829386 -0.07303212 -0.02190712 -0.039499864
000350 4f 51 cb 3d 0e b2 af 3d 61 12 84 3d e0 d2 7d bc
       0.09927618 0.08578883 0.06448818 -0.015492171
000360 cf 4a b4 bc 9f d7 c2 3d 37 99 83 bd 41 f8 a5 bd
       -0.022008328 0.09513783 -0.06425708 -0.08103991
000370 8d 25 a3 3d 66 3b 81 3d 59 f1 47 bd 66 06 80 3d
       0.079661466 0.063101575 -0.04881415 0.062512204
000380 2f 0d 8e bd 94 d0 af bd 54 f1 b0 3a 00 3a 49 3d
       -0.06936108 -0.08584705 0.0013499656 0.04912758
000390 43 42 32 bc d2 4f b7 bd fe 03 c3 3d 56 cd 99 3d
       -0.010880056 -0.089507714 0.09522246 0.07509868
0003a0 17 db e1 bc 05 99 9c bd ee cc 1d 3c 63 ad c1 bc
       -0.02757029 -0.07646374 0.009631379 -0.023642248
0003b0 b4 d8 54 bd 86 0a 43 bd 67 66 b4 bb 75 d7 c0 3c
       -0.051964477 -0.047617458 -0.0055053714 0.023540238
0003c0 1c db b9 3d e0 9a 86 3d 5e 8a 5f ba e3 e4 4c 3d
       0.09074995 0.06572509 -0.0008527393 0.05002297
0003d0 b8 24 00 3d 25 cb 67 37 b9 86 9e bc a8 d9 23 bd
       0.031285018 1.3815971e-05 -0.01935135 -0.040002495
0003e0 3f 73 87 bd 50 e1 80 bd 8d 2e ea bb fc c8 22 3b
       -0.06613778 -0.06292975 -0.0071466626 0.0024839034
0003f0 ad 69 52 bc 62 d9 7c bd 23 c7 ed 3c 9f 5c c2 3d
       -0.012842578 -0.06173075 0.02902562 0.09490322

mlp.4.bias f4 [100]
000000 67 3f 33 3b 7f f2 d9 3c 56 b0 2d 3c 1a 69 bd bd
       0.0027351023 0.026604889 0.010601124 -0.09248562
000010 a8 f7 7c bd ed 2f 1b bd b9 3c 8e bc 97 fb 51 3c
       -0.06175962 -0.037887502 -0.01736294 0.012816331
000020 07 04 8e 3c 4b 7e 88 3b 33 d4 a3 bd 49 92 78 3d
       0.017335905 0.004165446 -0.07999458 0.060686383
000030 9c 40 bc 3d 37 b2 9c bd 6d 07 aa bd de 80 76 bd
       0.09192011 -0.07651179 -0.083021976 -0.06018149
000040 ff c2 24 3d f9 2a ee 3d 75 fe 95 bc a9 47 d8 3d
       0.040225025 0.1162929 -0.018309811 0.10560543
000050 7c 09 40 bc 4a 68 15 bd 76 3b 55 3d 03 7a 49 bb
       -0.011721011 -0.03647641 0.05205866 -0.003074289
000060 fc 85 44 3c 5e 6d 07 3e c3 f7 05 bc c3 07 89 3c
       0.011994835 0.13225314 -0.008176747 0.016727334
000070 5b 90 f2 3c 8a e3 77 3d e5 a5 c9 bc e0 7d c4 3c
       0.02960985 0.060519733 -0.024615237 0.023985803
000080 98 96 18 3d c3 22 8a 3d 0b e4 81 bd a2 6b c8 3c
       0.037252992 0.067449115 -0.06342324 0.024465386
000090 09 16 44 bc 72 cd 38 bd 91 32 fb 3c 4c a8 a7 3c
       -0.011968144 -0.045117803 0.03066376 0.020465992
0000a0 75 cf ac bc f7 8d 00 bd 9b 88 59 3d ad a9 b5 bd
       -0.021095017 -0.03138539 0.053108793 -0.08870254
0000b0 03 50 b8 3b a3 a5 8d 3c a3 f8 4c bd c0 c3 0c bd
       0.0056247725 0.017290896 -0.050041806 -0.03436637
0000c0 3c 06 7c 3d e7 5c 66 bd d9 4b 15 3b 1b 2d 65 bd
       0.061529383 -0.056240942 0.0022780804 -0.05595122
0000d0 e7 cc a7 bd cf a0 d1 3d 2c ef fd 3c 0f fe 94 3c
       -0.08193379 0.1023575 0.030997835 0.01818755
0000e0 a9 87 a4 bc 9e fd 79 3d 8a 87 1a bd 3a 29 82 bd
       -0.020084219 0.061032884 -0.037726916 -0.063555196
0000f0 07 f9 6e 3d 60 76 b3 bd d1 f3 94 3c 35 99 6a 3c
       0.05834296 -0.087628126 0.018182667 0.014318754
000100 6b 0d 26 3d a5 ab fb bb 9d 20 38 3c 8c 11 6c 3d
       0.04054014 -0.0076803737 0.011238244 0.05763392
000110 ad 08 af bc b7 7e 81 bd 48 64 7b 3d 3f ee 23 3d
       -0.021366442 -0.06322997 0.061374933 0.04002213
000120 6e e9 b0 bd 26 32 27 3d ca 24 9d bc 05 32 bd bd
       -0.08638273 0.04081931 -0.019182581 -0.09238056
000130 b5 6b 34 bc 38 bc 9b bd 30 13 92 3d 6a 26 c5 3d
       -0.0110120075 -0.07604259 0.07132566 0.096264675
000140 48 4a 53 3d b4 52 b3 3d ea ca 80 bd 88 ec 64 bd
       0.051584512 0.08756009 -0.06288703 -0.055889636
000150 86 20 87 3d f5 24 48 3a 75 59 86 3d e6 e0 0f 3d
       0.06598 0.00076349016 0.06560031 0.03512659
000160 63 92 eb bd 2c 4b 29 3d 8c e7 9a 3d c7 ba df 3d
       -0.115025304 0.041331455 0.07563695 0.10924297
000170 ab 2b 1f 3d 85 ee 81 3d 74 36 6a 3d bb 81 ea 3d
       0.038860004 0.06344322 0.057180837 0.114505254
000180 f0 b2 23 bd 26 f4 4c 3d b5 d4 9b 3d 18 f5 01 3e
       -0.03996557 0.050037526 0.0760893 0.12691152

mlp.6.weight f4 [1, 100]
000000 24 4f 15 3e 98 10 44 be 28 ad 58 bd 02 71 c9 3d
       0.14580971 -0.19146955 -0.05289951 0.09836008
000010 35 1a 31 bd 13 86 23 bd 89 ee 46 be a8 66 e6 3d
       -0.043237884 -0.039922785 -0.19426931 0.11250049
000020 51 28 1a 3e 34 e1 4a bd 33 b1 4e bc 41 c8 fd bd
       0.15054442 -0.049531177 -0.01261549 -0.12391711
000030 25 2b 12 3e 7d 3d a2 bd cd 0e aa bb b5 a4 fc bd
       0.14274271 -0.07921884 -0.0051897527 -0.12336103
000040 b8 42 e4 3d 1f 8e fb bd 17 a5 5c bd 81 b3 26 be
       0.11145538 -0.12282967 -0.05386838 -0.16279413
000050 c3 4c c4 bd ba 2c 65 be 0e fc 29 3e 42 8b 58 3d
       -0.09584954 -0.22380343 0.16600057 0.05286718
000060 fb 50 93 be c4 2d ea be b7 8d 76 bd 06 36 c8 3d
       -0.2877272 -0.4573804 -0.060193744 0.09775929
000070 22 99 24 3d 64 8f 44 3e ca ca 8d 3d 50 57 a6 3d
       0.0401851 0.19195324 0.069234446 0.08122122
000080 4f eb 15 3d 3b 68 1c be 2b 06 c1 3b da 98 57 3e
       0.03660136 -0.15274136 0.005890628 0.21054402
000090 21 37 89 bc 43 fd e8 bd 57 f3 b4 3d 01 ed db bd
       -0.01674992 -0.11376431 0.08835476 -0.10738564
0000a0 3b 41 5c 3e 53 3c 43 3e de 32 3b 3c de 52 5a 3d
       0.21509258 0.1906598 0.011425702 0.053301685
0000b0 2e 24 bb 3d fd e3 8a 3d b1 f1 b3 bc e4 be 73 3d
       0.0913776 0.067817666 -0.021965833 0.05950822
0000c0 1c 3f 52 be 4a 30 0e be 15 6c ef 3d 6f d4 78 bd
       -0.20531887 -0.13885608 0.11690537 -0.060749467
0000d0 4b 65 c2 bd 59 31 83 be e2 60 82 3d 2b 7e 8e bd
       -0.09491976 -0.25623587 0.06366135 -0.069576584
0000e0 67 28 71 bd e0 c0 14 3e 4d cb 5e 3d 53 80 38 be
       -0.05887642 0.14526701 0.0543931 -0.18017702
0000f0 47 6e 06 3e ab 4d 92 3d 9e 46 c7 3e db db c1 3d
       0.13128005 0.0714372 0.38921064 0.09465762
000100 91 31 68 bd 0f 3e ed bd 7f f3 35 3d 71 ac fb bd
       -0.056687895 -0.11584102 0.04442167 -0.1228875
000110 06 34 21 bc 12 61 91 bd 2b 79 6e 3e 34 7e 0f 3d
       -0.0098390635 -0.07098593 0.2328841 0.035032466
000120 47 f4 ba bd 25 e5 94 3c 85 49 02 be 39 61 8b 3c
       -0.091286235 0.01817567 -0.12723358 0.017014133
000130 8d 16 86 bd 94 71 13 3d 5e 11 6f 3d a1 d2 95 be
       -0.0654727 0.03599699 0.058366172 -0.2926226
000140 54 7c a1 3d 38 2c 20 bf 60 e8 76 3d 25 79 e5 3d
       0.07885042 -0.6256747 0.060280204 0.11204747
000150 f7 58 89 3e a0 a4 c2 3d c6 fc 57 3d 32 80 e7 3d
       0.26825687 0.09504056 0.052731298 0.11303748
000160 3d 29 3c 3d ae 80 1e 3d 82 8f 86 3e ed a0 0a be
       0.045937765 0.038696937 0.26281363 -0.13537951
000170 56 93 9b bd f9 32 26 3e 64 58 22 bc a8 ce 86 3e
       -0.075964615 0.16230382 -0.009908769 0.2632954
000180 7d 80 9f 3d 91 ec 2a bd fa d4 ea 3d 48 e4 b1 3e
       0.07788179 -0.041729514 0.11466403 0.34744477

lstm.weight_ih_l0 f4 [200, 13]
000000 f2 35 36 3e 3a 89 1f bc 83 10 0f 3e 86 8d 78 3d
       0.17794016 -0.009737307 0.13971142 0.060681842
000010 9a 2a aa bd 1a 8e 94 bd 02 ed 19 3e e8 fa f4 3b
       -0.08308907 -0.07253666 0.15031818 0.0074761994
000020 94 cf b9 3d 60 78 cd bc 81 19 99 3d 00 40 a6 bc
       0.090727955 -0.025081813 0.074755676 -0.02029419
000030 a4 28 d8 bd b5 19 64 3c 0a be 8d bd 2a c7 f1 bd
       -0.105546266 0.013922145 -0.06921013 -0.11805566
000040 c3 b7 a5 3d 76 92 f2 bd 1c 6f c3 3d 1c da ca 3d
       0.080916904 -0.118443415 0.09542677 0.09904882
000050 8c 1e 04 3e ad 01 cf bd b7 a6 a4 3d 09 85 ce 3d
       0.12902278 -0.101077415 0.08039611 0.10083968
000060 c5 ec f9 3c d5 6e a5 3c e7 11 9a bd ec 2f 29 bd
       0.030508408 0.02019445 -0.07522946 -0.041305467
000070 63 43 39 bd 56 ef d7 bd a2 8e af bd d6 65 9c 3d
       -0.04523028 -0.105436966 -0.08572127 0.07636611
000080 1f 3c 2a 3b b9 fb 02 be d5 9f 0c 3d 7a 47 0c 3d
       0.0025975776 -0.12791337 0.034332115 0.034247853
000090 cb 5d cf bd 61 52 08 be 6b 54 e1 3d 69 b6 76 bc
       -0.101253115 -0.13312675 0.110024296 -0.015058138
0000a0 d9 7c 1e bd f7 55 bb 3c 58 68 f8 bc be 2f 8d 3c
       -0.038693283 0.02286814 -0.030323192 0.01723468
0000b0 72 83 21 bd ec 09 36 3e 81 83 92 bd 59 79 b0 3c
       -0.039431997 0.17777222 -0.07153989 0.021542238
0000c0 e9 09 01 be a6 2e 29 3d c1 67 a0 3c a7 ab ab 3d
       -0.12601437 0.041304253 0.019580724 0.083823495
0000d0 21 50 c0 3d 58 f8 d1 bc b1 08 3f 3d b6 05 c3 3d
       0.093902834 -0.025631115 0.04663915 0.09522574
0000e0 97 a5 d3 bd 14 69 e6 bb 97 80 54 bd 1d 96 bd bd
       -0.10334318 -0.0070315693 -0.051880445 -0.092571475
0000f0 d7 b4 c2 3d ac 66 21 bd ba ad ee bc 1c f1 06 be
       0.09507149 -0.039404556 -0.029135574 -0.13177913
000100 8e aa 01 3c a4 b4 4c ba 1f 5e 9c 3d bf 45 19 3d
       0.007914199 -0.00078089 0.0763514 0.03742003
000110 ba 68 c0 3d cf af 8b 3c 19 da f0 bd 91 fa d7 bd
       0.09394975 0.017051606 -0.11760349 -0.105458386
000120 cf e5 cd bd 3f 4d 06 be 71 e9 cd 3d 46 c5 74 bd
       -0.10053598 -0.13115405 0.10054291 -0.059758447
000130 a3 13 94 3d 9b 84 d6 3d 91 8c 00 be f6 bd ca 3d
       0.07230308 0.10474511 -0.12553622 0.098995134
000140 36 2a 5c 3d d6 81 9c 3d 35 ae c1 3d 5f 25 df bd
       0.053751193 0.07641952 0.094570555 -0.108958
000150 f9 37 ed bd f9 46 a9 3d 45 4a aa 3c 7f a0 9d bb
       -0.115829416 0.0826549 0.020787368 -0.0048103924
000160 4a f3 f8 3d 0a 39 a9 3d 22 75 41 3d 86 ed 9b bc
       0.12155779 0.082628325 0.047230847 -0.019034158
000170 d1 43 b0 3d 03 9e 50 3d 43 7f 86 bd 29 b5 32 3d
       0.08606685 0.05093194 -0.06567242 0.0436298
000180 64 7f cb bd 44 d8 13 3e cb 29 b5 3b c2 ae dd 3d
       -0.09936407 0.14437968 0.0055286638 0.10824348
000190 ee 3b 12 3e 3e 58 fb 3b 25 87 da 3d 3d 76 b6 bd
       0.14280674 0.0076704314 0.10670308 -0.08909271
0001a0 eb 61 1d 3d de c5 09 3e 5b 03 c6 bd 09 b1 f2 3d
       0.03842346 0.13454387 -0.09668609 0.11850173
0001b0 8e 11 2e 3d d9 7d 0a 3d 3a d4 2a 3d 91 e0 44 bd
       0.04249721 0.033811424 0.0417063 -0.048065726
0001c0 9d 1e 0e be 46 5c c4 3d 62 e6 02 be 6c 0d 06 3e
       -0.13878866 0.09587912 -0.12783197 0.13091058
0001d0 ef 78 dd 3c 3e 19 c9 3d 64 f3 af 3d aa 97 99 3b
       0.027035205 0.09819268 0.08591345 0.004687269
0001e0 3b 7c 1e bd 7b ef 8e 3c 01 db 2c bd a9 cb 80 be
       -0.038692694 0.017448178 -0.042201046 -0.2515538
0001f0 c3 ee cd bb e4 44 dd bd 0c af ae bc 57 78 92 3d
       -0.006284566 -0.108041555 -0.021323703 0.07151859
000200 d5 46 5f bd 8f 2a c4 bc 09 b8 21 3e 3a c9 92 bd
       -0.05451091 -0.023946075 0.1579286 -0.07167287
000210 bf 6d aa bd 46 da 9c bb fa fa 0d 3e 00 39 7d bd
       -0.08321714 -0.0047867624 0.13865271 -0.061821938
000220 54 64 34 3e e5 dc ce 3d 14 6e d6 bd 33 f3 96 39
       0.17616397 0.10100726 -0.104702145 0.00028791427
000230 77 f2 42 bd 9c 5f a9 bc 70 7c 9d 3c dc 2f aa 3d
       -0.047594514 -0.020675473 0.019224375 0.0830991
000240 64 0b c0 3d 56 b3 34 3d ca 4c d1 bd 0d 8d d1 3c
       0.093771726 0.04411634 -0.102197245 0.025579954
000250 4b bb 02 3e 37 db 08 3e a8 c6 05 be 35 b5 e5 bd
       0.12766759 0.13364874 -0.13064063 -0.11216203
000260 4d 31 70 3d 59 c9 5e bd d9 28 06 bc 3f 12 04 3e
       0.058640767 -0.05439124 -0.00818845 0.12897585
000270 9d 97 77 bd 74 e5 18 3e 59 6a 0f bd af 47 06 3e
       -0.060447324 0.1493128 -0.03501353 0.13113283
000280 5d 7e cf 3d 13 5f be bd e1 67 b9 3c 7e f6 de 3d
       0.10131524 -0.09295478 0.022632541 0.108868584
000290 83 e7 ad 3d 7f df 85 3d dc d4 08 3e dd 7a 1b 3e
       0.08491423 0.06536769 0.1336245 0.15183587
0002a0 2f 11 c8 3d a4 71 79 3d 1c ad 01 be 49 79 70 bc
       0.097689025 0.06089939 -0.12663692 -0.014677354
0002b0 0f 39 5e bd d7 c9 d8 bc f3 47 9a 3d 30 e1 06 be
       -0.054253634 -0.026463432 0.075332545 -0.1317184
0002c0 6a d0 2c 3e 4e e8 ab be 2e 8c bf 3e 94 1e b5 3d
       0.16876379 -0.33575672 0.37411636 0.08843723
0002d0 4d de 5a be 28 74 d7 bd 7d 84 29 3e 98 df 0b 3e
       -0.21373864 -0.10520202 0.16554447 0.13659513
0002e0 15 32 0b 3d bf 6b 89 3d 10 00 1a 3e c8 6f 7b bd
       0.03398331 0.06710004 0.15039086 -0.0613859
0002f0 61 4f 0c 3d a0 db 9a bd de f7 c6 3b 81 3f 4a bd
       0.03425539 -0.075614214 0.0060720285 -0.04937697
000300 43 4f fe bd b6 61 97 3d 75 d5 ea 3d 0c f8 5f 3d
       -0.12417462 0.07391684 0.11466495 0.054679915
000310 4d 76 02 3e 0a 92 68 bc 7c 39 e0 3d d2 35 c0 bc
       0.1274044 -0.014194975 0.10948464 -0.023463164
000320 4a f9 6d bd 9b 03 9b be a2 2c f3 3d e8 8c 22 3e
       -0.05809907 -0.30276188 0.118737474 0.15874064
000330 02 d9 d7 3c 6e 63 3f bc b7 bd be be 71 65 99 bd
       0.026348595 -0.011681421 -0.37254116 -0.074900515
000340 f8 1e 1c 3e f7 c9 fd bb 77 22 0c 3d 38 ef 08 be
       0.15246189 -0.0077450234 0.034212556 -0.13372505
000350 dc d6 df bd 58 4e 17 3d 00 20 bb bd 25 a4 71 bd
       -0.10929653 0.03693995 -0.09136963 -0.05899443
000360 44 31 82 bd ce 92 db 3d 84 29 c7 3d 28 4e f1 3d
       -0.06357053 0.1072136 0.09724715 0.11782485
000370 62 0f 34 bd 7e d8 8e 3e 7c df 75 bd 05 c6 a9 bd
       -0.043959983 0.27899545 -0.060027584 -0.08289722
000380 8b 4b a0 3d 8d e8 7b 3d 6d 8e e3 bc 4a 2f 8e bc
       0.07826909 0.061501075 -0.027777875 -0.017356534
000390 16 14 9e bd bc e6 c9 3d 99 8c cf 3c 99 cf b5 3d
       -0.07718675 0.09858462 0.025335597 0.08877487
0003a0 c9 30 01 3e 52 1e e0 bd d1 0b 9e 3d b6 1e c9 39
       0.12616266 -0.10943283 0.077170976 0.0003836059
0003b0 c8 2c 9c 3d c7 4a b6 3d 60 e5 b5 bd ef 34 ad 3d
       0.07625729 0.089009814 -0.088816404 0.08457362
0003c0 df 3e 57 bd 4b e6 be bd b7 63 cc 3d 2a 1f 98 bb
       -0.052550193 -0.09321269 0.099799566 -0.004642387
0003d0 b6 53 97 bc 9b 22 5c 3d 4d 6f eb 3a f8 c6 fa 3d
       -0.018472534 0.05374394 0.0017962247 0.122449815
0003e0 e7 49 00 3e 67 81 05 be 6e b9 0e be fc 2c f8 b9
       0.12528192 -0.13037644 -0.13937923 -0.00047335762
0003f0 77 30 92 bc 01 0b 66 3d a3 74 66 3d 80 0c 17 bc
       -0.017845375 0.056162838 0.056263577 -0.009219289

lstm.weight_hh_l0 f4 [200, 50]
000000 69 06 81 3d ea 1d c8 bb b1 b0 5b 3d f3 4b d2 3d
       0.06300051 -0.0061070817 0.053635303 0.102683924
000010 9e a9 31 bc 86 19 0d be 4f 77 08 be 30 56 c1 bd
       -0.010843663 -0.13779268 -0.13326763 -0.09440267
000020 c0 e9 a5 bd dd e5 a3 3d 03 93 01 3e c7 a0 44 3d
       -0.08101225 0.08002827 0.12653737 0.04800489
000030 5d 1d 86 3d 45 a8 f7 3d 2d 27 a1 3d 32 b1 11 be
       0.06548569 0.12092642 0.078688 -0.14227751
000040 a1 57 92 3d 67 e3 eb bd f6 7d b4 3d 3f 73 07 be
       0.0714562 -0.11517983 0.08813088 -0.13227557
000050 ea 40 51 3d 6d 7a fd bd 45 0a a2 3d 72 77 00 bd
       0.051087297 -0.123768665 0.07912115 -0.031363912
000060 12 1e da bd a4 48 c4 bd 5e 74 30 bd 63 70 c3 bc
       -0.10650267 -0.095841676 -0.043079726 -0.023857301
000070 cd a1 2a bd 8a 4a fa bd 61 b9 b4 bc b7 f3 1a 3d
       -0.04165821 -0.122212484 -0.022061052 0.03783008
000080 fc 29 e0 bd 70 17 8c 3d cf be 08 3e 26 2e a2 bd
       -0.10945508 0.06840408 0.13354038 -0.07918958
000090 20 f8 70 3c 06 a0 0e bd 42 c9 66 3d f3 87 07 be
       0.014707595 -0.03482058 0.05634428 -0.13235454
0000a0 2c 1c 03 bd 73 c2 a1 bd 47 42 4e 3d 78 8f 22 3d
       -0.03200929 -0.07898416 0.050356176 0.039687604
0000b0 a3 0c 0f 3e 90 71 0b 3e 7f 96 d8 3d 05 d3 c4 bd
       0.13969664 0.1361754 0.1057558 -0.09610561
0000c0 ef a6 40 3d b8 55 c1 bd c2 a3 ef 3d 7a a5 06 3e
       0.0470342 -0.09440178 0.11701156 0.13149062
0000d0 69 20 a4 3c 60 0b be 3d 45 0c 17 bd e5 4d 0c 3e
       0.020034986 0.09279513 -0.036876936 0.1370159
0000e0 bd 79 c0 3d 70 6b ac bc fb 4e c7 3b 0b 72 94 3d
       0.0939822 -0.021047324 0.0060824133 0.072483145
0000f0 99 5d 0c be 88 67 d0 3d fe 23 bd 3d 97 15 1b 3d
       -0.1370758 0.10175997 0.092353806 0.037862387
000100 22 fb dd bd 9c b0 60 bd 5a 92 d6 3d 7b aa 47 3d
       -0.108389154 -0.054855928 0.10477133 0.048746567
000110 b6 e7 2d bd 2d 0e 8a 3d 11 62 da 3d 2a 49 77 3d
       -0.042457305 0.06740985 0.10663236 0.06037251
000120 82 f0 cf bd 6b 50 9c bd 5b e2 ce 3d 4b 94 e5 bd
       -0.10153295 -0.07632526 0.10101768 -0.11209925
000130 7a 38 03 3d ed fb 64 bb 5e 46 15 bd 96 e8 05 3e
       0.032036282 -0.0034940199 -0.03644406 0.13077006
000140 0d 31 1e bb b4 da 03 be b6 83 3a 3c 0a c6 d7 3d
       -0.0024138123 -0.12876397 0.011383941 0.1053582
000150 8c 0c 9f bc 67 de 49 bd 6f ca cd 3d d0 05 c3 3d
       -0.019415163 -0.049284365 0.10048377 0.09522593
000160 e9 52 ea bd 4d de e0 bc 29 a5 92 bd 2e 91 06 be
       -0.11441595 -0.027449751 -0.07160408 -0.13141319
000170 66 01 ca bd 44 19 89 3d 60 08 c0 3d 50 4a 0a 3b
       -0.09863548 0.06694272 0.093765974 0.0021101423
000180 f0 39 ae bc 5c a3 98 3d 42 9e c0 3d b8 68 2b 39
       -0.021267861 0.07453033 0.09405185 0.00016346842
000190 e8 a3 62 3d 7c 58 e5 3d 49 24 b5 bd 35 7c 88 bc
       0.055332094 0.11198518 -0.088448115 -0.016660789
0001a0 21 d0 9e 3c a5 22 b3 bd e1 a7 f9 bd 5e d2 8c bd
       0.019386353 -0.08746842 -0.121902235 -0.06876062
0001b0 92 d3 e3 bd a4 8f ad bc e2 d4 fb bd 91 bc 07 bd
       -0.11124338 -0.021186657 -0.122964635 -0.033138815
0001c0 9c 67 b7 bd 10 b9 fd bb 04 85 07 3e 88 ac 31 bd
       -0.08955309 -0.0077430084 0.13234335 -0.04337743
0001d0 68 3c cf bd 88 59 11 bb 33 ba a5 3d 52 6d a7 bb
       -0.101189435 -0.002217861 0.08092155 -0.0051094675
0001e0 66 98 c1 3d 2f bc 85 bd fa a3 5e 3d f3 2b f1 3c
       0.09452896 -0.06530034 0.0543556 0.029439902
0001f0 78 5a ff bd 23 ff 0a be 21 01 06 3e d8 d3 04 3e
       -0.124684274 -0.1357389 0.13086368 0.12971437
000200 a5 a2 ce bd 89 24 14 3d fc b2 85 bd ca 08 35 3b
       -0.10089616 0.036167655 -0.06528279 0.0027623647
000210 69 1c 4d 3d b8 39 ef bb 31 22 1c 3d a2 61 0f 3e
       0.050075922 -0.007300582 0.038118545 0.14002088
000220 c7 ca f9 3d be a3 02 bd 87 1f 96 bd 8a 86 f1 bd
       0.1219688 -0.031894438 -0.07330232 -0.117932394
000230 56 be 36 3d 08 75 ca 3c 42 24 e9 3d 84 2f c2 bc
       0.044615112 0.024714008 0.11383869 -0.023704298
000240 65 95 ae 3c 0d db 07 be cb 0a 04 be 65 21 dc 3d
       0.021311471 -0.13267155 -0.12894742 0.10748557
000250 e0 b4 f2 3d b4 3a f8 3d ca 9b 56 bc a4 c9 01 3e
       0.118509054 0.12120572 -0.013098666 0.12674576
000260 db dd 09 3e 27 7f c9 3d e5 77 da 3d 8a 7c a1 bd
       0.13463537 0.098387055 0.10667399 -0.07885082
000270 3d e5 f9 bd a7 e2 da bc ca ee ef bd bf bb 9a 3b
       -0.12201927 -0.026719404 -0.11715467 0.004722088
000280 d8 0b 9c bd 23 43 81 bd 47 ec ba 3d 71 c5 49 3d
       -0.076194465 -0.063116334 0.091270976 0.04926056
000290 74 18 83 3c 08 bc 07 3d 3e 11 ef bd 33 0d b6 bd
       0.016002871 0.033138305 -0.116732106 -0.08889236
0002a0 f3 c6 0a 3e 98 4e 00 3e 90 87 cc 3c 7d b7 f4 bd
       0.13552456 0.12529981 0.024966985 -0.1194906
0002b0 c9 2e ee bd 9e 3d 08 3d 1b 8c 69 3d 1c 66 1b 3d
       -0.11630017 0.033261888 0.05701838 0.037939176
0002c0 e8 40 47 bd c0 b8 0a be af 2f 00 3e ee f5 37 bd
       -0.048645884 -0.13547039 0.1251819 -0.04491227
0002d0 c6 22 28 3d e5 01 5d 3c 38 b7 b4 bd a0 c6 b8 3d
       0.041048788 0.013489221 -0.08824009 0.0902226
0002e0 f1 f7 49 3d fe 31 ff bd 65 18 07 bd e5 f9 8c 3c
       0.04930872 -0.12460707 -0.03298225 0.017209003
0002f0 31 d5 05 be 83 a3 a7 bd dc b5 a7 bd d3 b5 00 38
       -0.13069607 -0.08185484 -0.08188984 3.0686915e-05
000300 21 ee a9 3d 42 f0 2f 3c f8 ff b4 3d d8 e9 cf 3d
       0.082973726 0.010738434 0.08837885 0.10152024
000310 1a 0f e3 bd 9e 8b 9a 3d 5e e1 d4 bd 97 a5 6d 3d
       -0.11086865 0.07546161 -0.10394548 0.058019247
000320 6d 92 eb 3c e9 8b 6f bd c1 fd 39 bd 44 d9 f4 bd
       0.028756345 -0.058483038 -0.045408014 -0.11955503
000330 e8 bd 9e bd 9f 2a 0e be e7 cf 45 bd 52 77 ec 3d
       -0.077510655 -0.13883446 -0.048293974 0.11546196
000340 1a 0a 2d 3d 0c 06 be 3c a9 d7 03 be dd 8e b3 3c
       0.04224596 0.023196243 -0.12875237 0.021918708
000350 4c b7 88 bd 99 5d 13 be ca ad 81 bc 10 ea fd bc
       -0.06675586 -0.14391173 -0.01582994 -0.030995399
000360 11 87 9e bd b9 ab 13 3e 74 ab 0c bd 40 29 fd bd
       -0.077406056 0.14420976 -0.034343198 -0.123613834
000370 28 d1 e1 bd ff a6 ba bd 46 b3 2d 3d af 96 f9 bd
       -0.110262215 -0.09113883 0.042407297 -0.12186944
000380 7d ae 00 be 47 22 84 3d fc 34 05 3e 85 5e 77 3c
       -0.12566562 0.064518504 0.13008493 0.015098219
000390 49 2b f1 bc 00 65 81 3d 76 95 f7 3d df a4 91 3d
       -0.029439585 0.06318092 0.12089054 0.07111525
0003a0 30 e3 b4 bd 3e e8 04 3e 10 9b 8c bc fa 74 0c 3e
       -0.08832395 0.12979218 -0.017163783 0.13716498
0003b0 30 1c 38 bd 87 32 b1 3d c8 e9 65 3d a3 2a 9b 3c
       -0.044948757 0.086522155 0.056131154 0.01894123
0003c0 cd e0 ff bd 2a 54 05 3e ec b1 87 3c e3 36 e7 bc
       -0.12494049 0.13020387 0.016564332 -0.028224414
0003d0 51 a9 6a 3c 20 71 06 be bc 68 54 bb 08 fc 47 3d
       0.014322595 -0.13129091 -0.003241106 0.04882434
0003e0 18 49 ed bd 64 ce 84 bd f4 14 cf 3d ca 85 e0 3c
       -0.11586207 -0.064846784 0.10111418 0.027407546
0003f0 ae 98 da 3d 0d b8 eb 3d ac 5d 13 3d 83 e9 f1 bb
       0.106736526 0.11509714 0.035978004 -0.007382573
