crowd_nav/data/archive/output-lstmRL-trained-on-wrong-sim/rl_model.pth (torch, 190913 bytes, 11 tensors)

mlp.0.weight f4 [150, 56]
00000000: 4d78 183c 07c0 94bd 3f86 d13d b9ff 903d
00000010: 6dc1 c63c 8834 0abe da2f dabd 8bed 073e
00000020: c577 dd3c 9ac9 d83d 968b 4dbd 66d9 08bd
00000030: 2f9d 083e 4c45 ab3d 116d cf3b e055 a53c
00000040: 850e 233e 8994 ecbd b540 08be d5c4 04be
00000050: d884 3bbe c98b e23c ff20 063d 0821 873d
00000060: b94a eebd c1f7 633c dcd9 7c3d 731e a1bd
00000070: ef5a 313d a262 23bc 5bcf ebbd 5a6b 993d
00000080: 2238 a53b 3395 f53d ea47 e1bd 82c3 003d
00000090: e735 1abe adac a43d 402f 363d ed61 68ba
000000a0: 759a b4bd 5088 a0bd a08d babd e935 a23c
000000b0: df52 04be b3f7 443d e3d1 d53d 3c09 b9bd
000000c0: d409 0cbd 136b c23d 04d1 70bc 2e9b c4bd
000000d0: 4851 87bd 0212 183e 8386 343c c804 27bd
000000e0: 9dc7 03bb 06b2 b13d b575 573c 5e26 b63d
000000f0: 10ad 483c e8bb 5dbe 14b5 3ebd 7e7d a5bd
00000100: 4274 e6bd 587f d03d 47bc f83d 1767 5b3d
00000110: e699 fdbd e88a d13d d16e f63d 1dcf c7bc
00000120: 64bf 003d a72c 573d f19e 10be 69da 123c
00000130: 3632 45bc b60d f83d d5af d7bc 6bee 2cbd
00000140: a499 093e 8d16 82bd 2ed5 eb3d 82b7 f93d
00000150: ef76 4b3d c4ae 04be 7337 4c3d 2827 aebd
00000160: 6c8a 01be c5d8 87bc abaf 9e3d 35bb 1bbd
00000170: 209b 01bd 893f 3abd 5ae0 fcbd 0ee3 f63d
00000180: d601 19bc a572 093d 6d2b 58bc 481d 59bd
00000190: 477e c63d 2f80 073e 53af 203c 0078 5d3d
000001a0: 1709 14be c915 35bb c328 9c3d 029b efbd
000001b0: 4d49 b7bd 88d3 db3c 5be7 d33c 5258 33bd
000001c0: 0c77 bf3d d228 fc3b 270e 8e3d a0d4 e33d
000001d0: 990a c0bd a54c 043e ce01 333e d761 773d
000001e0: e8bc 08bd bd5a f9bd 4c73 5dbd ea5a 13bd
000001f0: 19c6 193d 9f6f 89bd 8243 99bd 2062 f6bd
00000200: 0968 b83d e2fa f1bd a173 2b3d 3d9d 9abd
00000210: 205f a1bd c655 633d 1098 65bc 2138 9bbd
00000220: 232f 3fbc a107 25be 2a8e b43b 3f7c fcbd
00000230: b6c5 c93c cbd2 c73d 9252 4b3d 0c60 803d
00000240: 65e7 463e 76fe 0a3d 1de0 14bd 8e8c c93d
00000250: ed53 1a39 af6e 4cbc d443 b93d 2a2d 1a3d
00000260: af44 e9bd 7429 ee3c c645 1c3d 068f 68bd
00000270: 5b72 a9bb d9fc bebd fd69 073e 08c3 813d
00000280: 1c68 b33d a94d 9c3d 8cf4 693d 6272 57bd
00000290: 9fea c1bd 08b9 e43d f5f8 6ebd cbcb 8fbd
000002a0: 03a4 b4bd f635 babd d0f7 043e 764f 043e
000002b0: 3c96 4d3b 6094 1aba b315 05bd ff80 0f3d
000002c0: 8220 a33d ae8c a8bd 2c98 a8bd 3595 9e3d
000002d0: f9b5 343b 22b9 3dbd c8f0 613d 3bd1 a23d
000002e0: d0b8 81bc f20d 05bd e061 d6bd 58ab 3c3d
000002f0: 58c2 013e fc3e a53d 7016 463d 8ddd 9b3c
00000300: 9af2 b63b 4b96 b23c 9ceb 16bd 8d69 1e3d
00000310: 769c 8bbd 938b 7dbd 8848 933d dced 8cbd
00000320: 93ab 06bd 9215 fabd 2e0c fb3d 459d 05be
00000330: ee65 af3d 858a c4bd 63e0 7a3d 7706 503d
00000340: 224c 313d 27ed ddbd bffe b9bd d1c7 3bbd
00000350: 1d20 093b 8cf5 043d 31ef babc 147e ccbc
00000360: 8f77 acbd feeb 7a3c f53c d73d 0d05 8b3d
00000370: 323e 993d 4b82 c7bd 84dd df3d 4e55 063e
00000380: 9b2a 223c e3d8 913d be61 093d cd26 b6bd
00000390: 1709 5a3c 8cc4 2b3e 66aa 1e3d 46cd e8bd
000003a0: 257c 0cbd 8161 9bbd ee12 70bc be9c e6bc
000003b0: 74b9 103e f948 b83d 3d31 f0bd 0840 063e
000003c0: 23eb b0bb 2f15 98bd 9c19 aebd 7008 f73d
000003d0: 9a70 be3d e0cb 113d 7045 04be b5af ad3c
000003e0: 57d0 0f3e 8a65 91bd faad 483c 364d 163e
000003f0: 8a51 16be 5492 c73d d22a a8bd 0ad8 ef3a
0.009306026 -0.07263189 0.102306835 0.07080025 0.024262154 -0.13496602 -0.10653658 0.13274209
0.02703465 0.105853274 -0.050181948 -0.033410452 0.13341211 0.08362827 0.0063301404 0.02018255
0.15923508 -0.11551768 -0.13305934 -0.1296571 -0.18312395 0.027654545 0.03274631 0.06598097
-0.11635346 0.01391405 0.061731204 -0.07867136 0.04329961 -0.009972246 -0.11514159 0.07491179
0.005042092 0.11991348 -0.11000045 0.03143645 -0.15059625 0.08040748 0.044478655 -0.000886469
-0.08818523 -0.078384995 -0.09109044 0.019801097 -0.12922238 0.048087787 0.10440423 -0.090349644
-0.03418906 0.09493079 -0.014698271 -0.09599911 -0.066073 0.1485062 0.011018398 -0.040776044
-0.0020107992 0.086765334 0.013150622 0.08894037 0.012248293 -0.21653712 -0.04655941 -0.08080576
-0.11252643 0.10180539 0.12145286 0.05356511 -0.123828694 0.102315724 0.12032855 -0.024390751
0.031432524 0.05253282 -0.14123131 0.008963206 -0.012035897 0.1211199 -0.02632896 -0.04221956
0.13437515 -0.063519575 0.1151527 0.121932045 0.04967397 -0.12957293 0.049857568 -0.08503562
-0.1265046 -0.016582856 0.0774835 -0.03802033 -0.03164208 -0.045470748 -0.12347479 0.12055026
-0.009338817 0.0335566 -0.013193947 -0.05300644 0.09692054 0.13232492 0.009807426 0.05406952
-0.14456593 -0.0027631393 0.07624962 -0.11699487 -0.08949528 0.026834264 0.025867155 -0.0437854
0.09348878 0.007695296 0.06936293 0.111245394 -0.09377021 0.12919863 0.17481157 0.06039604
-0.03338328 -0.1217551 -0.054065034 -0.035975374 0.037542436 -0.06710743 -0.07483579 -0.120304346
0.09004218 -0.1181543 0.04185832 -0.07549522 -0.07879472 0.05550172 -0.014013305 -0.07579065
-0.011668953 -0.16116191 0.0055101113 -0.123283856 0.024630409 0.097570024 0.049639292 0.062683195
0.19424208 0.03393408 -0.036346544 0.09841262 0.00014717849 -0.012477561 0.0904614 0.037640728
-0.113900535 0.0290725 0.03815248 -0.056777023 -0.005171103 -0.093255706 0.13224025 0.063360274
0.08760092 0.07632 0.057117984 -0.05259932 -0.094685785 0.111681044 -0.058342893 -0.07021292
-0.08820345 -0.090923235 0.12985158 0.12920937 0.0031370064 -0.00058967434 -0.032491397 0.03503513
0.07965185 -0.082299575 -0.082321495 0.07743303 0.0027574284 -0.046319135 0.055161268 0.07950064
-0.015835196 -0.032484002 -0.10467887 0.046061844 0.12671793 0.08068654 0.04836124 0.019026542
0.0055831196 0.02180018 -0.03684579 0.03867488 -0.06816952 -0.061900686 0.071915686 -0.068813056
-0.03287847 -0.122111455 0.122581825 -0.13048275 0.085643634 -0.09596733 0.061249148 0.050787415
0.043285497 -0.10836249 -0.09081792 -0.045844857 0.0020923682 0.032460734 -0.022819133 -0.024962462
-0.084212415 0.015315054 0.105096735 0.06788073 0.07482566 -0.09741648 0.109309226 0.13118479
0.009897853 0.07121446 0.03354048 -0.088941194 0.013307831 0.16774195 0.038736723 -0.11367278
-0.03429808 -0.07586957 -0.014652951 -0.028150912 0.14133245 0.089982934 -0.117281415 0.13110363
-0.005399124 -0.074259154 -0.08500978 0.12062156 0.09298821 0.03559482 -0.12917113 0.021201948
0.14044319 -0.07099445 0.0122485105 0.14677891 -0.14679542 0.09744707 -0.08211292 0.0018298638

mlp.0.bias f4 [150]
00000000: 0e39 09be bb69 acbd eb89 98bb d790 a53d
00000010: 049a d4bd a40c f83d 191a c73d 60f7 d3bd
00000020: d817 be3d 59af f03d 0381 e6bd 4c18 313e
00000030: 37eb 013e 0cf9 c5bd ea04 c9bd 6dad 863d
00000040: 6d72 9fbc 9442 a7bd d61a 34bd 1de6 7e3d
00000050: fae1 933d a85c 06be dcb4 53be 8c4f 93bd
00000060: 45bd 043e 9efc 45bb e671 87bd 11eb 1dbe
00000070: 3c1e 113e 04b8 a2bd 0311 f6bd 6d48 933d
00000080: bc31 723d 20d8 c13d 2071 ebbd 7dc3 183e
00000090: de9f 373d 7ec3 1ebd da95 40bd b50f 9a3d
000000a0: 81e7 803d 0b8f a4bc 3c78 ba3d b9d6 f8bd
000000b0: e542 b93d 2a75 ce3d 2a20 ce3c 687f 723d
000000c0: 1a90 2e3d 30d4 043e 9f35 96bd fe14 9cbc
000000d0: 9535 9cbd f318 47bc ce8d 223c 5b76 85bd
000000e0: e587 d93d e2d0 043c 655e de3d 86df c53d
000000f0: 2a0b 80bd 83c3 953d 88b9 fcbd 2fc2 9e3c
00000100: a339 3d3c 6ce3 393d dbf5 e03c c009 9ebd
00000110: cd19 463c 447a b7bd 6839 01be a0cd ba3d
00000120: 9313 fc3d 5421 14be 2c2a 97bd a085 153e
00000130: 8e0d c0bc a1bd 033e 2b6c a33d bfa6 bdbd
00000140: 0b60 4bbc 1fa9 29bd 9c04 373d 50c4 06bd
00000150: 07c8 ae3d 66b5 47bd 8b92 d93d 6152 f4bd
00000160: 4479 6f3b e660 a5bd d1f9 203e df04 c03c
00000170: 7796 363d 1d72 203d 63bd abbc f6ab 983d
00000180: 34b7 843d 5c20 f5bd 30a0 2c3d 6b1c c4bb
00000190: 3a09 0a3e cd08 b23d 8800 fa3d 90a2 eabd
000001a0: de70 763d 674c 8f3d 1309 b1bd 5b6b d93d
000001b0: 9397 87bd 6e91 923d c427 94bd e5c6 803b
000001c0: f124 463d 5c27 9bbd 306f 80bc 7d99 fbbd
000001d0: 03ad 81bd 1307 e93c def0 92bd 401f fabd
000001e0: a8a5 31bd 6414 e13b 3bd0 2bbd 7d8f 35be
000001f0: 4c93 ab3d 6c5f 123e 3fa4 483d e4c5 c9bd
00000200: cbcc 71bd 2ce1 ebbc 23dc 103e 3a9d 87bd
00000210: 5c71 c3bd caf4 7fbd 5d2d a6bd 7fd9 383e
00000220: 3db9 22bd fc76 4c3c f0a4 aabd 7cd3 f4bd
00000230: ccd1 a2bd ed3f 3cbd 1234 4bbd 558a ff3c
00000240: ebbc 693c 073c 4ebe fd92 a2bd 2f55 93bd
00000250: 70ff 47bd 3013 f43d
-0.13400671 -0.08418604 -0.004655113 0.08084267 -0.10380939 0.12111786 0.097217746 -0.103499174
0.092818916 0.11752195 -0.11255076 0.17294425 0.12687384 -0.096666425 -0.098153904 0.06576047
-0.019463742 -0.08166996 -0.043970905 0.062231172 0.07220836 -0.13121283 -0.20674461 -0.07192907
0.12962826 -0.0030210386 -0.06613521 -0.15421702 0.1417169 -0.079452544 -0.120149635 0.071915485
0.05912946 0.09465051 -0.11496186 0.14918323 0.044830196 -0.038760655 -0.04701791 0.07522527
0.06294156 -0.02008774 0.09104964 -0.1215033 0.09045962 0.10080941 0.025161821 0.059203535
0.042617895 0.12971568 -0.07334446 -0.019052979 -0.076274075 -0.012151944 0.009921504 -0.06516715
0.10621623 0.008106442 0.10857848 0.09661774 -0.062521294 0.073126815 -0.12340075 0.019379703
0.011549386 0.045382902 0.027460983 -0.077167034 0.012091112 -0.08958867 -0.12619555 0.09121251
0.12308421 -0.14465839 -0.073810905 0.14601755 -0.023443963 0.12865306 0.07979616 -0.0926032
-0.012413035 -0.041421052 0.04468213 -0.032902062 0.08534246 -0.04875698 0.10623654 -0.11929775
0.0036540786 -0.080751225 0.15720297 0.023439823 0.04457709 0.039171327 -0.02096433 0.07454674
0.06480256 -0.11969063 0.042144954 -0.005984833 0.13480082 0.08693085 0.122071326 -0.114567876
0.060166232 0.069969945 -0.08644309 0.106161796 -0.06620707 0.07156645 -0.07234147 0.00392996
0.048375074 -0.075758666 -0.015678018 -0.12285135 -0.063318275 0.028445756 -0.07174848 -0.12212992
-0.043370873 0.006868886 -0.04194663 -0.17730518 0.08377704 0.14294213 0.048984762 -0.09852198
-0.059033196 -0.028793894 0.14146475 -0.066217855 -0.09543106 -0.06248931 -0.08114121 0.18051718
-0.03972744 0.01247954 -0.083322406 -0.119544 -0.07950172 -0.045959402 -0.049610205 0.031193892
0.014266233 -0.20140086 -0.07938192 -0.07193982 -0.04882759 0.11917722

mlp.2.weight f4 [100, 150]
00000000: fb8a c73b f891 96bd ff04 91bd ecd3 843c
00000010: 0bab 733d 6f34 aebc fd50 bcbc 5eb8 cb3b
00000020: 0080 3a3d 1680 d2bc 2b64 90bd 82e5 9bbd
00000030: e3dd 1b3d 3533 913d dc78 723c b46f 97bc
00000040: 70c0 bebd 9655 8f3d dc0d 47bd 2455 783d
00000050: 9c52 49bd 3553 1b3d 5f75 6dbd 5fd9 d13c
00000060: a5f2 91bd 6eef 163d cea7 63bd e7c0 2abc
00000070: c9bd 71bd 1bb3 473d 638c 803d 90ec db3c
00000080: d8b8 73bc 07dc bbbc 9835 05bd 471e 2b3d
00000090: 2861 523d 9acb a33d 8fce 92bd 4d54 abbd
000000a0: 6a8e aabc 574a 13bd d728 9ebd 8ea9 813d
000000b0: fb8f f53c 3425 153d 9955 72bd fd31 bebc
000000c0: fbca e73c c034 b53b 1a02 323d e0b0 03bd
000000d0: d49e cf3b 8fb1 15bc d89f 4ebd e41c f03c
000000e0: 90a2 eebb 0c94 a4bc b5ed 5f3d f20b c3bd
000000f0: 4dab 9b3c 01d2 b93c 2ea8 ed3c 8045 59bd
00000100: 8c2d 92bd a18c b03d 4dfe 383d 25df a43d
00000110: 0c9a 79bd 5a77 583c 6f4d c53c 8d93 4e3d
00000120: a645 d5bb 1993 ab3d 38b1 56bd f3d2 92bd
00000130: 0aa4 ce3c ea98 f6bc af41 093d 070c 56bc
00000140: e3a5 5b3d d37b 503d dae7 813d 7bc1 afbd
00000150: 3299 76bd 9455 1bbd 275a 0a3d 997f 383c
00000160: c05c 6ebd 0c0b 9cbc 06a8 57bd d774 2b3d
00000170: bd2e 073c f924 9ebd 0d6a 003d e49d b5bc
00000180: 88d4 543d 577a b33d 8273 8bbd 8fb8 08bd
00000190: 05db 0f3d afca 0b3d c5fa b13c 276c 41bc
000001a0: 4fa9 9f3d 05c5 43bd 1505 2c3d d22d 3e3d
000001b0: 08ce 95bb cffc 463d 8615 a03c b16a 88bd
000001c0: 13b2 a3bd 847a b3bd efd0 8a3d 2f8b 013d
000001d0: 159f 6d3d 7038 90bc 5e28 063d 6b10 243d
000001e0: 9102 903d 8968 af3c 3261 a4bd c085 803c
000001f0: 0b6f 9d3d 8955 a8bd 36ed 963c 133e ca3c
00000200: 4abd af3a 9c0c 7ebd 2856 eb3c 181e 973d
00000210: 9387 203d 2639 233d 71d2 033c 4e5d a73d
00000220: 256b 9fbd 4bb4 84bd 2eec 993d 2a87 3b3d
00000230: 7b5a 16bd 1c96 143d 7bcb 0a3d 6c0d 9fbd
00000240: b1eb 573d 911c 913d afe0 cbbc 0642 643d
00000250: 574f c5bc 401f 9b3d 3ca4 9cbd 4c56 3bbd
00000260: 1445 b8bb d47b 493c 3532 9dbd 31b0 48bd
00000270: 263a a3bd d3aa 8abd 5772 1d3d de2f 2dbd
00000280: d79e 89bd c2ac 133d 37e2 ee3d 60ef 19bd
00000290: 0e36 1d3d c3b0 64bd 6bdb 0dbd ed2a b93c
000002a0: ad1a 0abc 652b 95bd e95d ad3d 8e13 c0bd
000002b0: 7bb9 9abd 39cf 41bd 11cf ad3d bdae 6fbd
000002c0: 0edf f73c cd72 2a3d 33b6 d3bc af82 88bd
000002d0: 4413 cd3c 25fa 75bd 3d12 90bc 8bbc 8b3b
000002e0: fce3 a1bb b4d5 053d 3199 b63d 353c 983c
000002f0: 8587 5f3d bee3 a4bb d6bb 4abd a2b9 62bd
00000300: 0980 42bd e94f ab3d 5c46 553d 4af8 683d
00000310: 9f31 bb3d fbad dd3c 192c 15bd bbbb bd3c
00000320: 9ef6 a33d 1cd4 ffbd 9b9a 93bd 6390 bdbb
00000330: f159 143d 89be 193d 8340 7dbd 412e bb3c
00000340: c708 a7bd 2649 8b3c 6edb 0ebb 71d9 683d
00000350: 985c 673d 6cfc 48bd d4b7 323d bac0 ac3d
00000360: 9aa6 a2bc c9e3 dabc de9d b13c 959c 9f3d
00000370: 58f3 1abe 953c 9a3d ec6b a23d ea4a 68bd
00000380: 0063 21bd 534a 86bd a4ae 8cbd 3184 16bc
00000390: 7f25 203d bc1b 103d c239 17bc 65e9 09be
000003a0: d649 d4bd 66ea caba f8a8 c43c 7ee8 8dbc
000003b0: 79da c0bb 776c b9bd 8460 bd3d 58c2 bfbc
000003c0: dc7d fb3d 1d81 553d 31c2 c2bd 59da 3bbd
000003d0: 5454 003d d096 f3ba 4308 04bd 63e3 a2bd
000003e0: 4d6a 3d3c 8cbc 47bd 453e 1f3d 55a7 213d
000003f0: cbf1 743c d839 a13d d443 9c3d ef9f e23c
0.006089566 -0.0735206 -0.07081031 0.016214333 0.05948929 -0.021265237 -0.022987837 0.0062170466
0.045532227 -0.025695842 -0.070503555 -0.076121345 0.038053405 0.07089845 0.014799323 -0.018485881
-0.09314048 0.06998746 -0.0485972 0.06062807 -0.049151048 0.03792115 -0.057973262 0.025616346
-0.07126359 0.03684943 -0.055579953 -0.010421968 -0.059018884 0.048754793 0.06276777 0.0268462
-0.014875613 -0.022932066 -0.032521814 0.04177692 0.051362187 0.07997818 -0.07168304 -0.083656885
-0.020819861 -0.035959568 -0.07722633 0.06331168 0.029975882 0.036412433 -0.059163664 -0.023217196
0.02829503 0.00552997 0.043459035 -0.032151103 0.0063360725 -0.009136572 -0.050445408 0.029310651
-0.0072825626 -0.020090126 0.054670054 -0.09523763 0.019002581 0.022683145 0.029010858 -0.053044796
-0.071375936 0.08620573 0.045164395 0.08050374 -0.060937926 0.013212049 0.024084775 0.050433684
-0.006508547 0.08377666 -0.052415103 -0.071691416 0.025224704 -0.030102212 0.033509906 -0.013064391
0.053625 0.050899338 0.0634305 -0.08581825 -0.060204692 -0.03792341 0.033777382 0.01126089
-0.058193922 -0.019048236 -0.052650474 0.041859474 0.008250889 -0.07721896 0.031351138 -0.022170015
0.051960498 0.08763569 -0.06809141 -0.033379134 0.035120983 0.03412884 0.021726022 -0.011805571
0.07795965 -0.047795314 0.041997034 0.046430416 -0.00457168 0.04858094 0.019541513 -0.06660975
-0.07992949 -0.087636024 0.06778132 0.031626876 0.05801304 -0.017605036 0.03275334 0.04005472
0.070317395 0.021412151 -0.08026351 0.015688777 0.076871954 -0.082194395 0.018423658 0.024687802
0.0013407853 -0.062023744 0.028727606 0.07378787 0.039191794 0.039849423 0.008045779 0.08172093
-0.07784108 -0.06479701 0.07515751 0.0457832 -0.036707383 0.036275968 0.03388546 -0.07766232
0.052715007 0.07085527 -0.02488741 0.055727027 -0.024085684 0.0757432 -0.07648513 -0.045736596
-0.005623469 0.012297589 -0.07675592 -0.048996154 -0.07970075 -0.067708634 0.03843912 -0.042281978
-0.067197494 0.036053427 0.11664241 -0.0375818 0.03838163 -0.055832636 -0.03463308 0.022603476
-0.008429212 -0.072836675 0.084651776 -0.0937873 -0.07554909 -0.047316764 0.084867604 -0.058516253
0.030257728 0.04161339 -0.025843715 -0.06665551 0.0250336 -0.06005301 -0.017586822 0.0042644194
-0.004940508 0.032674506 0.08915938 0.018583396 0.0545726 -0.005032032 -0.04949554 -0.055352814
-0.047485385 0.08364851 0.052069053 0.056877412 0.09140324 0.0270605 -0.036419008 0.023160806
0.08006023 -0.124916285 -0.07207223 -0.0057850345 0.036218587 0.037535224 -0.0618291 0.022849204
-0.08155971 0.017002653 -0.002179827 0.056847993 0.05648479 -0.049068853 0.043632343 0.08435197
-0.019854832 -0.026719945 0.021681722 0.077935375 -0.15131891 0.07531086 0.07930741 -0.05671207
-0.039401054 -0.06557145 -0.068692476 -0.00918679 0.03909826 0.0351827 -0.009230079 -0.13467939
-0.103656456 -0.0015481233 0.024006352 -0.017322775 -0.005885419 -0.09053891 0.092469245 -0.0234081
0.12279865 0.052125085 -0.09509695 -0.04586253 0.03133042 -0.0018584374 -0.03223444 -0.07953527
0.011560989 -0.048763797 0.038877744 0.03946622 0.014950226 0.07872361 0.07630125 0.027664153

mlp.2.bias f4 [100]
00000000: 0562 7cbd 23a6 143e d253 1cbd 93f3 80bd
00000010: b596 1e3c 008d 2bbd ebf4 013d 72f6 e3bc
00000020: 714e 1c3e df93 66bd a768 7b3c 6fb1 a53b
00000030: 6399 25bd 797c 16bd 7930 cfbc 74b3 263e
00000040: a4b0 0aba b239 fcbc f318 1d3d de8b 1ebd
00000050: 408f 9ebd b800 9cbd eaa5 673d d4d8 d0bc
00000060: 8c2f 71bd e101 123d 6cf7 05bd 5411 42bd
00000070: db84 af3c ea4b fc3c c9cd 35b9 42e2 b23c
00000080: ac2a 8fbd f8bc b9bc 9210 d63d 5e4e e43c
00000090: 85e7 0e3d 6d56 04bd 19a4 763d ff23 063d
000000a0: a6ed 1d3c 3b92 ceba 46a9 cf3d 4e3d dcbc
000000b0: 992f b93d ffc6 d83d a13a 263d 9ce4 0c3e
000000c0: 68e1 183d 4e39 2fbd 118e 69bd 7ba7 52bb
000000d0: 6c03 bcbd d490 b9bc 15bd 0bbc aa16 87bd
000000e0: 7cc9 043d e4aa 79bd 1a5b 2a3d 93c0 5d3d
000000f0: 4b5b 883d 0817 14bd 51a0 8fbd 647c a03b
00000100: aba7 acbc 2c12 f13d 6020 c3bb b1b0 81bd
00000110: f07e 8abd 23bb 50bd e15a acbc 8907 21bd
00000120: c0c9 26bc 3278 653d 61af 29bd dad3 8f3d
00000130: f714 4d3e 9b88 963c ce81 84bb e192 823d
00000140: baa0 a5bd d09d 133d 6034 363d e164 ef3c
00000150: f5d0 abbc f0b3 d43c 3057 2f3d 5b97 32bd
00000160: 9458 6d3d 8495 af3d 5bd3 c5bc f53a 4b3d
00000170: 3b37 b23d 5536 93bd 1c64 b5bd 8eb7 fd3d
00000180: 1178 b13b 93b6 14bd 63ab 333d e457 9a3c
-0.061616916 0.14516501 -0.038165875 -0.06296458 0.009679486 -0.041882515 0.031727713 -0.027827475
0.15264298 -0.056293365 0.015344775 0.005056552 -0.040429484 -0.0367398 -0.025291668 0.16279393
-0.0005290604 -0.03078923 0.03835387 -0.038707606 -0.077421665 -0.076173246 0.056554712 -0.025494017
-0.058883235 0.035646323 -0.032706663 -0.047379807 0.021425655 0.030797917 -0.00017338166 0.021836404
-0.06990561 -0.022673115 0.10452379 0.0278694 0.034888763 -0.032308985 0.06021509 0.032749172
0.009639179 -0.0015760133 0.10139708 -0.026884701 0.09042282 0.105848305 0.040583257 0.13759083
0.03732434 -0.04277926 -0.05702025 -0.0032143283 -0.0918034 -0.022652067 -0.008528967 -0.0659612
0.032418713 -0.06095399 0.041590787 0.05413873 0.06658038 -0.036154777 -0.07013 0.004897641
-0.021076044 0.11771044 -0.005954787 -0.06332529 -0.06762493 -0.050959717 -0.021039428 -0.039313827
-0.010179937 0.05602283 -0.04142702 0.07022829 0.20027529 0.018375685 -0.0040437942 0.06375671
-0.08087297 0.036039174 0.044483542 0.029222907 -0.020973662 0.025964707 0.042807758 -0.043601375
0.057945803 0.0857344 -0.024148634 0.049616773 0.087019406 -0.071880974 -0.08856985 0.12388526
0.0054159244 -0.03630693 0.04386462 0.018840738

mlp.4.weight f4 [100, 100]
00000000: e8c9 b83b 776a 7b3d f4ef 343c e885 ab3d
00000010: ade8 4b3d 5f15 813c dac5 2f3b f46c 563d
00000020: c7cc 6cbc 41c2 a03d 095f 5e3d 60d6 c43d
00000030: 0feb 5c3d 13be b6bd 42c6 54bd a31b 7b3d
00000040: b184 96bd 822c e43c f639 933d 5033 b9bd
00000050: 1dbf bf3d 6596 b23d c02e 18bd 3602 4bbd
00000060: 0c36 1939 850b 323d 6bea eabc 611b a2bc
00000070: fa72 6ebd 2bd9 683d 5bd2 973c ff27 f13c
00000080: a0f4 37bd 32fa 213d 83dd d13c c012 2bbd
00000090: 5d89 52bb 12a3 57bd e17d 27bd 5c48 b0bc
000000a0: 55bf b93d 3f0d 79bd f2e7 a1bd b80b f0bd
000000b0: e1f3 843d 4fbe a9bc 8414 a7bd e6c3 bb3c
000000c0: 155b 513b 4258 88bd 0ed8 1dbd 9d1c 39bb
000000d0: f74a 653c 8083 55bd 1f5b dd3c 9a0d 023c
000000e0: 9c6d ba3d 96f6 883d e10b 2dbc ffc6 e5bd
000000f0: ec3a 263d d9fa 903c 9115 b73d 44f8 84bc
00000100: 8c72 9a3d 1209 df3d e983 63bd 4d70 b23d
00000110: ae69 cd3d 45f6 c5bc e386 0d3d b7c6 403d
00000120: 033a e13d 1680 ad3d bf64 d13c 227d 81bc
00000130: b435 3dbd 4c14 113d ec5e 52bd 598d c5bd
00000140: d75f a3bd f3c3 00bd 069b 0cbc 475f 9b3d
00000150: 493e 373d 7038 2dbd 76ca 483d beac 9a3b
00000160: a4a0 943d 71ee 26bd 73e5 a83c 30c8 3b3d
00000170: 0b48 24bc 31d7 b5bd 4b0c bf3c 1700 ba3d
00000180: 82c5 bcbc fbf8 d6bd 24c2 3d3d d410 a13d
00000190: 3a3a aabd 5556 23bd 01b3 033d 3c95 443d
000001a0: d833 00bd 413c cc3c 4f1e 773b f9e4 8fbb
000001b0: 6cff f13d 181c c73b fb76 dd3c 9604 bbbd
000001c0: e3f6 e43d b901 123c 1219 90bd 03a7 e33c
000001d0: 98ab 7ebd 73f7 49bd 4038 b7bd 2289 863d
000001e0: a7d4 08bd 03bb b13d f2fe a23d 7776 a63d
000001f0: fab3 2cbd cf3a 163d 8507 9d3d af68 87bd
00000200: b2cb 48bb c58f 513c 878d 933d 70f2 a53c
00000210: e858 173d afe8 223d 55bb d83c 96dc 5dbd
00000220: ddfc 853c b955 623c b7c5 c33c a003 c23d
00000230: e4b9 a33d d42c 21bd a091 d83d 42bd ce3d
00000240: 345b ffbc cd04 713d e795 33bd d5ee 9c3c
00000250: b4e8 453d c2f2 be3d 80a1 2cbc 7d95 95bb
00000260: 210c 65bd 262b 89bd 5853 323d 0d04 4d3d
00000270: 4a3c 94bd 2cad 1abd 542a b93d d158 e4bc
00000280: 5163 b33d a723 5f3c ccef dabb badb dd3c
00000290: 075a bfbd d6d9 163d 8579 c4bd 58f1 a43d
000002a0: 0f76 1e3d 6e91 b3bd e398 3b3d 133d 8cbd
000002b0: 0747 cd3d 6f1f 88bd 803e d73c 3503 87bc
000002c0: c49e 0dbe 9305 fb3c d99b c7bd 205a 80bd
000002d0: ed18 493d 0799 623c 631e a53b 4fed 96bd
000002e0: 7c3f c23d 07be 41bd 0868 b83d 543d 1fbd
000002f0: 1024 723d 923e 783d c9e1 e53c 5bb6 b23d
00000300: deb2 05bd 1517 673d de0e 02be a7c5 9cbc
00000310: 7148 1c3d 8317 84bd fbb7 233c daf7 c03d
00000320: f53d cdbd d405 96bd be0c 44bd a2a9 29bc
00000330: 76f7 083d feb7 37bd 0785 a8bc b266 6a3c
00000340: 2232 1c3c 79c7 95bd 3c54 b5bc 9139 22bd
00000350: 02de d23d d2db ae3d fbf9 833d 8524 9abc
00000360: 7203 a8bc 5263 ba3d e848 86bd 4cfe a5bd
00000370: 2228 a33d 6b3b 813d d5bd 4fbd 9afb 863d
00000380: 77c0 8ebd d797 a9bd d7a8 9d3b e980 493d
00000390: 5c07 2bbc e1ab b1bd b214 c33d 0a44 9a3d
000003a0: 0277 e1bc a72a 9cbd 1827 f13b f96e c5bc
000003b0: 0d2c 58bd c6e5 42bd 28ab ffbb b55f c23c
000003c0: cdfd b93d 42b4 873d 8ecb 123a 62b4 523d
000003d0: 4532 f93c 7e47 05b9 aeac abbc b3a0 2bbd
000003e0: f710 89bd d009 81bd 5288 d2bb d083 503a
000003f0: f12b 68bc b1c4 78bd c0b8 e03c 9f5c c23d
0.0056393035 0.06138083 0.011043537 0.0837515 0.049782444 0.01575726 0.002682081 0.05235
-0.01445312 0.07849551 0.05428985 0.09611201 0.053935107 -0.089229725 -0.051946886 0.061305653
-0.073495276 0.027853254 0.071887895 -0.0904299 0.09362624 0.08720092 -0.03715396 -0.049562655
0.00014611351 0.043468017 -0.028676232 -0.019788446 -0.05821512 0.056847733 0.018532922 0.029438017
-0.044911027 0.039545245 0.02561832 -0.04176593 -0.0032125332 -0.05264575 -0.04089153 -0.021518879
0.09069697 -0.060803648 -0.07905568 -0.11720985 0.06491829 -0.020720629 -0.0815821 0.02292056
0.0031945158 -0.06657459 -0.038536124 -0.0028245815 0.013994924 -0.05212736 0.027020989 0.007937813
0.091029376 0.066876575 -0.010561914 -0.11219596 0.040583536 0.017697738 0.0893966 -0.016231664
0.07541379 0.10890402 -0.05554572 0.08712826 0.100299224 -0.024165282 0.034552466 0.04706451
0.10997393 0.08471696 0.025560735 -0.015806738 -0.046193793 0.035419747 -0.051360056 -0.096461006
-0.079772644 -0.03143687 -0.008581882 0.07586532 0.044737134 -0.04229015 0.049021207 0.0047202995
0.07257202 -0.04075474 0.020617222 0.04584521 -0.010026942 -0.08878935 0.023321291 0.090820484
-0.023043398 -0.10496708 0.046327725 0.07864538 -0.08311887 -0.039877255 0.032153133 0.047993883
-0.031299442 0.024931075 0.0037707274 -0.0043913093 0.11816296 0.006076347 0.027034273 -0.09131734
0.111799024 0.0089115435 -0.07036032 0.027789598 -0.062175363 -0.04930825 -0.08946276 0.06569125
-0.033405926 0.08678248 0.07958783 0.08128064 -0.042163827 0.036677178 0.0766745 -0.06611764
-0.003063899 0.012790625 0.072047286 0.020257205 0.036950022 0.039772686 0.026456514 -0.054165445
0.016355926 0.013814383 0.023897989 0.09473348 0.0799444 -0.039349392 0.10574651 0.10094692
-0.031171419 0.05884247 -0.04384413 0.019156853 0.048317626 0.09323646 -0.0105365515 -0.0045649395
-0.05591977 -0.06697683 0.043536514 0.05005269 -0.07238062 -0.037762806 0.090412766 -0.027874382
0.087591775 0.01361934 -0.006681418 0.027082313 -0.09343343 0.03682884 -0.095934905 0.08053845
0.03868681 -0.08767973 0.0458001 -0.068475865 0.10023313 -0.066466205 0.02627492 -0.016481021
-0.13830096 0.030642306 -0.097465225 -0.0626719 0.049096037 0.01383043 0.005039023 -0.07369482
0.09484765 -0.047300365 0.090042174 -0.038876846 0.059116423 0.060606547 0.028061764 0.08726188
-0.032641284 0.056418497 -0.12700984 -0.019137217 0.038155023 -0.06449797 0.009992595 0.09422274
-0.10021583 -0.073253304 -0.047863714 -0.010355385 0.033439122 -0.044853203 -0.020571245 0.014306711
0.009533437 -0.07313437 -0.022134893 -0.03960568 0.10296251 0.08538021 0.06444164 -0.018816242
-0.020509455 0.09100975 -0.065568745 -0.08105144 0.07966639 0.06310161 -0.050718147 0.06590958
-0.069703035 -0.08280914 0.004811387 0.049195204 -0.010438766 -0.086753614 0.09525432 0.07532509
-0.027522568 -0.07625323 0.0073593967 -0.024100767 -0.052776385 -0.04758241 -0.007802386 0.023727277
0.09081612 0.06626178 0.000559979 0.051441558 0.030419478 -0.00012710501 -0.020956364 -0.0419013
-0.06692689 -0.063007 -0.006424942 0.0007954212 -0.014170633 -0.060734455 0.027431846 0.09490322

mlp.4.bias f4 [100]
00000000: 6d25 753c c65e 203c adf4 42ba 1a69 bdbd
00000010: b32b 49bd ed2f 1bbd 2b23 53bd 95f9 e43a
00000020: a74c d93c 0816 523c 33d4 a3bd a246 893d
00000030: 2e3c d03d 37b2 9cbd 8fb9 a9bd de32 6ebd
00000040: f29e 7b3d 6e06 d93d d5c8 7fbb acf9 8a3d
00000050: 77ba 4fbc b04f 0fbd da2f 883d 4e2d 403c
00000060: 022a a63c 92dc 033e 1cc1 82bc 5cea 253c
00000070: 4b2c aa3c 4cf1 7f3d c04c f8bc 1d7b 263d
00000080: 093e 0b3d 73a3 813c 0e4e 8dbd 5ffb 043d
00000090: 82a5 6ebc c1bb 7bbd 2125 bb3c 7579 a23c
000000a0: aed3 95bc 6605 bdbc fead 613d cb81 a8bd
000000b0: 2a5c 39bb 34e0 d43a 3b92 f8bc 83d6 85bc
000000c0: 50b8 383d 5036 2dbd 7ce6 96bb 4516 5cbd
000000d0: e590 a7bd ee37 e93d 8e40 c13c 7a00 3c3d
000000e0: 0fb3 bcbc efb9 573d c159 ddbc c140 5cbd
000000f0: 2be6 403d f5f1 b1bd a307 873c 386a 773c
00000100: 3c62 2c3d dc71 c2bc a56b 0e3b 3b1b 4a3d
00000110: c277 a8bc e161 66bd f1f1 7c3d f646 343d
00000120: 6e43 abbd 197f 2d3d 3691 0abd d877 b7bd
00000130: 1b38 05bd eb04 a2bd c605 ac3d aeab de3c
00000140: 77c5 303d e109 f83b 35ef 80bd 50b2 99bd
00000150: 6285 883d 8f26 3c3c 0688 0a3d 8b66 083d
00000160: b2e0 f8bd 22e1 1e3d c8eb b33d b864 d23d
00000170: 7fc2 6a3d c32d 863d 2b34 5b3d a4a8 ef3d
00000180: 52d2 0fbd e298 543d e6b5 a23d 4bba 073e
0.014962536 0.009788221 -0.0007436972 -0.09248562 -0.04911394 -0.037887502 -0.05154721 0.0017469401
0.026525808 0.0128226355 -0.07999458 0.06702925 0.10167728 -0.07651179 -0.082873456 -0.05815398
0.06143088 0.105969295 -0.0039029617 0.067859024 -0.012678734 -0.034988105 0.06649752 0.0117295515
0.020283703 0.1287711 -0.015961222 0.010126676 0.020773074 0.062485978 -0.030310035 0.040644754
0.03399471 0.015825009 -0.068996534 0.03246629 -0.014565827 -0.061458353 0.022844853 0.019833306
-0.018289413 -0.023073863 0.055097573 -0.08227881 -0.0028283694 0.0016241134 -0.030343166 -0.016337639
0.04509765 -0.042288125 -0.0046051126 -0.053732175 -0.08181933 0.11387621 0.023590352 0.045898892
-0.0230346 0.052667554 -0.027020337 -0.05377269 0.047094505 -0.08688728 0.016483134 0.015101008
0.04208587 -0.023735933 0.0021731642 0.049342375 -0.020564917 -0.05624569 0.06175417 0.044012986
-0.083624706 0.042357538 -0.03382989 -0.08958405 -0.03252421 -0.07911094 0.08399539 0.027181473
0.043157067 0.007569537 -0.06295625 -0.075047135 0.06666066 0.011483802 0.03382113 0.033300918
-0.12152232 0.038788922 0.08785206 0.10273117 0.057314392 0.06551697 0.053516548 0.117020875
-0.035112686 0.051903613 0.079448506 0.13254659

mlp.6.weight f4 [1, 100]
00000000: 97c2 293e dd8b 66be 8986 63bd 0271 c93d
00000010: 25d5 4bbd 1386 23bd 1a29 7cbe 1b20 f53d
00000020: 2c1f 173e f4b4 58bd 33b1 4ebc 9114 0cbe
00000030: 3376 193e 7d3d a2bd 0fe3 acbb 18ba 30be
00000040: a6ae 3d3e f362 f6bd ab8c 98bd 7858 56be
00000050: ebcf c1bd 7e57 a4be 09c7 2f3e 76b7 743d
00000060: 49be e1be ee4c 2cbf 8872 7ebd 9fc5 cc3d
00000070: 63d0 693d 593c 5f3e f8c9 8c3d dbb6 e83d
00000080: 4bf3 243d 195a 52be bde0 1f3c db6f 713e
00000090: 2b97 4abc 9d10 00be 2564 c83d f661 02be
000000a0: ef13 673e 8e0f 5a3e 0a10 833d 2294 563d
000000b0: 43c8 f43d 0fcd 983d 8d44 7abd c13b a43d
000000c0: d8bf 7fbe 91fe 28be 1000 183e 0a66 82bd
000000d0: 8265 c2bd e3f3 94be 68ad 943d 60f9 e2bd
000000e0: 56a6 98bd ce9d ee3d 0c3b 593d e95f 88be
000000f0: 09de 2e3e ea56 923d c22d db3e cbaa 013e
00000100: ed41 59bd 64a3 0dbe ffd3 123d 01b0 08be
00000110: 72ce 2cbc 815b 95bd 52ba 8a3e 9de7 3c3d
00000120: c136 bbbd e7ae 983c dfae 35be 44b0 b93c
00000130: b8ea 8ebd ec12 233d 15f2 ae3d efef cabe
00000140: 0717 cd3d 3826 46bf a2e3 763d 4f2a 063e
00000150: fec0 943e 0302 003e 5047 793d 40c8 163e
00000160: cb3d 3a3d 36a2 113d d724 8a3e 6c40 31be
00000170: 3239 c7bd a810 533e bbf7 eabb 4914 973e
00000180: e55e c93d 587a 3ebd 666e f03d ef8e d23e
0.16578136 -0.22514291 -0.055548225 0.09836008 -0.049763817 -0.039922785 -0.24625054 0.11969014
0.14757985 -0.052906945 -0.01261549 -0.1367972 0.14986496 -0.07921884 -0.005276091 -0.17258489
0.18523654 -0.12030592 -0.07448705 -0.20932186 -0.09463485 -0.32098 0.1716577 0.059745274
-0.4409049 -0.67304885 -0.062120944 0.09998631 0.0570835 0.21800365 0.0687446 0.11363002
0.040271085 -0.20542182 0.009758172 0.23577826 -0.012365143 -0.12506337 0.09784726 -0.12732682
0.22566198 0.21294996 0.063995436 0.052387364 0.119522594 0.07460987 -0.06110053 0.0801921
-0.24975526 -0.1650336 0.14843774 -0.06367119 -0.09492017 -0.2909232 0.07259637 -0.11082721
-0.07453601 0.116511926 0.053034827 -0.26635674 0.17076887 0.07145484 0.42808348 0.12662809
-0.053041387 -0.1383186 0.035846706 -0.1334839 -0.010547267 -0.072928436 0.27095276 0.04611932
-0.09141303 0.018638087 -0.1774249 0.022667058 -0.06978363 0.039812967 0.08542267 -0.3963618
0.10014158 -0.7740207 0.06027568 0.13102077 0.2905349 0.12500767 0.060859025 0.14724827
0.045469087 0.035555087 0.26981232 -0.17309731 -0.09727706 0.20611823 -0.007170645 0.29507664
0.09832553 -0.046503395 0.11739807 0.41124675

lstm.weight_ih_l0 f4 [200, 13]
00000000: 1270 5d3e dd7f 99bb 8310 0f3e aac4 7e3d
00000010: 48fa a2bd 7303 91bd f00a 293e e838 b13c
00000020: 9f16 b23d 1d66 83bc 0232 9c3d 5c38 41bc
00000030: 82f1 d1bd 4892 0f3d 3cc4 86bd 2ac7 f1bd
00000040: fdd2 a73d 57fe f4bd 3b13 c13d d94b dc3d
00000050: 5f66 043e 15d0 e7bd 78e7 a13d 43a0 d03d
00000060: a06a d73c 1328 b63c 9748 9ebd 36db 2ebd
00000070: 6343 39bd 75c9 d8bd 0ceb b1bd 930f 963d
00000080: 75c3 debb 2df3 f9bd a6e2 023d 352c fa3c
00000090: ea37 d0bd bd7c 08be 7ea2 df3d 0029 39bc
000000a0: 2223 22bd f755 bb3c 8997 fabc ad56 793c
000000b0: 9194 0bbd 4a63 413e a602 c6bd c75d cd3c
000000c0: e15b 02be 4417 283d 00a9 8d3c 4494 aa3d
000000d0: 3e96 d43d a450 c2bc b108 3f3d 7233 c43d
000000e0: c175 d3bd b0e4 a7bb 0e08 11bd 8421 b2bd
000000f0: b133 c13d ca58 2fbd e7fa e9bc b368 fdbd
00000100: c275 143c 22e7 613c 93ba 9d3d bf45 193d
00000110: 4dd1 c03d 1ccc b73c d71c f0bd 698a d6bd
00000120: 5396 cbbd 4e26 08be af5b d33d 43f3 73bd
00000130: 84f2 a43d 9e56 d73d cf89 ebbd b26c d13d
00000140: 362a 5c3d 9c81 9e3d 2484 c23d 0784 d9bd
00000150: e4a1 e8bd c08f 9e3d a47a db3c 102d 3bbb
00000160: 10f3 fa3d e0ba ba3d 437a 493d 180d 973c
00000170: 33a6 ba3d 039e 503d 7361 83bd 1c2c 413d
00000180: c68f c7bd a794 263e 1d47 c03b b480 cc3d
00000190: 0c6a 0f3e 2896 163c bb46 ea3d f03c b0bd
000001a0: ec81 373d 1bb1 0a3e 5b03 c6bd 743e f33d
000001b0: dccf 363d 91df 0e3d b652 283d 044d 2dbd
000001c0: e468 0dbe bd05 bd3d 4da1 02be 9afe 013e
000001d0: 39e4 e13c 3f7f 9e3d 0edf a53d aa97 993b
000001e0: bc87 24bd c285 8f3c 5294 4ebd a4b6 94be
000001f0: 1574 dbbc c583 0cbe 6d67 babc 1172 8f3d
00000200: 9b0b 0cbe 205c dcbc b891 f63d dcf4 a4bd
00000210: bf6d aabd 100e f4bb b421 103e 5327 6fbd
00000220: 87a9 253e b818 1b3e e39b f8bd 0030 9a3b
00000230: a8d8 4dbd 652a 8ebd 59c4 633c 1c40 013e
00000240: b5b7 cb3d 56b3 343d efcb cdbd cbb7 c63c
00000250: 4377 013e e243 0f3e 0da9 fdbd 24fc e6bd
00000260: c1da 523d 2bc9 57bd 084a b6ba 1a93 073e
00000270: 16de 9bbc 8ba9 203e 596a 0fbd b39b 083e
00000280: b01c b83d 4add c3bd d6c6 a33c 6c9c cd3d
00000290: 1636 af3d 4734 923d e028 0b3e b2a6 493e
000002a0: 6061 d13d 1ce2 463d 2007 0bbe 4979 70bc
000002b0: de71 69bd f2d7 9fbc 2825 cc3d 8443 3abe
000002c0: c1c8 0e3e c9ab cebe 582f ab3e 1181 af3d
000002d0: 0eb3 9dbe f6ac e2bd c0b4 3c3e ddea 0f3e
000002e0: 1532 0b3d 0dd8 8b3d e9ee 1c3e 62fd 81bd
000002f0: 7e6d f43c 0cda acbd bea9 663a be9e 75bd
00000300: f5e2 fbbd eeac 983d 59ac ef3d 2e63 f13d
00000310: b83b 0d3e 0a92 68bc d0b0 e63d f9bf 8abc
00000320: 40d6 6cbd 2084 88be 0a1b e43d d310 133e
00000330: 8fa2 4b3a 89ad 0bbc 29b3 c4be c976 8cbd
00000340: 3a42 1f3e 80c6 f8bb 7722 0c3d f0e2 08be
00000350: 3eb6 e5bd 9823 143d 205b c4bd 9640 5fbd
00000360: 5038 8fbd fb24 ee3d 9941 c73d 15a6 f03d
00000370: 22af 33bd ae92 963e 59f9 6ebd 05c6 a9bd
00000380: 8d54 a13d e4d0 803d b908 02bd c3a4 27bc
00000390: 063d 6dbd 1e79 cb3d 17db cc3c 9bd8 b63d
000003a0: 3e7a 093e 2d0c debd 2560 0a3e c239 383c
000003b0: c82c 9c3d 27f8 bc3d 052a bcbd 65e7 ac3d
000003c0: 78c2 68bd 02b7 96bd 5706 a63d 1cfb 92bc
000003d0: f044 79bc 6632 2f3d c032 083c c62c 043e
000003e0: 6873 023e 6781 05be f913 0ebe 52ba 37ba
000003f0: a4e8 9cbc 3c10 223d fb72 8e3d e950 0ebc
0.21624783 -0.004684432 0.13971142 0.062199272 -0.079578936 -0.07080736 0.16508079 0.02163358
0.08695721 -0.016039902 0.07626726 -0.011793222 -0.10251142 0.035051614 -0.065803975 -0.11805566
0.0819454 -0.11962574 0.09427496 0.10756654 0.12929676 -0.113189854 0.07905477 0.101868175
0.02629596 0.022235906 -0.07728689 -0.042689525 -0.04523028 -0.105853 -0.0868741 0.07327189
-0.0067982026 -0.12204585 0.03195443 0.030538658 -0.10166915 -0.13328834 0.10919665 -0.011301279
-0.039584287 0.02286814 -0.030589836 0.015218419 -0.03407723 0.18885532 -0.09668474 0.02506913
-0.12730362 0.041037813 0.0172925 0.08329061 0.10380219 -0.023720093 0.04663915 0.09580125
-0.10325194 -0.005123697 -0.035408072 -0.08697799 0.094336875 -0.042809285 -0.028562022 -0.123734854
0.009061279 0.0137880165 0.07701602 0.03742003 0.09414921 0.022436194 -0.11724251 -0.104756184
-0.099407814 -0.13295862 0.10320222 -0.059558164 0.08054069 0.10514568 -0.11500894 0.1022581
0.053751193 0.07739565 0.0949786 -0.10620885 -0.11359003 0.07742262 0.026791878 -0.0028560795
0.12253392 0.09117675 0.049188863 0.01843886 0.09113731 0.05093194 -0.06415071 0.047161207
-0.097442195 0.16267644 0.0058678524 0.09985486 0.14005297 0.0091910735 0.11439272 -0.08605373
0.044801638 0.13544123 -0.09668609 0.11877146 0.044631824 0.03488118 0.041094504 -0.042309776
-0.13809544 0.0922961 -0.12756844 0.12694779 0.027574645 0.07739114 0.08099185 0.004687269
-0.04016851 0.017519835 -0.050434418 -0.29045594 -0.02678875 -0.13722141 -0.022754395 0.07004178
-0.13676302 -0.026899397 0.120395124 -0.08054516 -0.08321714 -0.0074479654 0.14075357 -0.058387112
0.16177951 0.15146148 -0.12139108 0.004705429 -0.050255448 -0.0694168 0.013901793 0.12622112
0.09947149 0.04411634 -0.10048663 0.024257561 0.12643151 0.13990739 -0.123857595 -0.11278561
0.05147815 -0.052682083 -0.0013907561 0.13239709 -0.019026797 0.15689676 -0.03501353 0.13340645
0.08989847 -0.09563692 0.019992273 0.10039601 0.08555238 0.07138877 0.13589811 0.19692495
0.10223651 0.04855548 -0.13576937 -0.014677354 -0.056993358 -0.01951215 0.099680245 -0.18189818
0.13943769 -0.40365437 0.33434558 0.08569539 -0.3080067 -0.11068146 0.18428326 0.14054437
0.03398331 0.06828318 0.15325512 -0.06347157 0.029837366 -0.08440027 0.0008799097 -0.05996584
-0.12299148 0.07454859 0.117027946 0.11786495 0.13792312 -0.014194975 0.11264193 -0.016937243
-0.057821512 -0.26663303 0.1113797 0.14361887 0.00077680586 -0.008525261 -0.38417938 -0.06858594
0.15552607 -0.0075920224 0.034212556 -0.1336782 -0.112164006 0.036166757 -0.09587693 -0.054504953
-0.06993163 0.11628147 0.09729309 0.11750428 -0.04386819 0.29408783 -0.058343265 -0.08289722
0.07877455 0.06289843 -0.0317466 -0.010232153 -0.057919525 0.09935211 0.025006814 0.08928033
0.13425538 -0.10842166 0.13513239 0.011244239 0.07625729 0.09227019 -0.09187702 0.084425725
-0.056826085 -0.07359125 0.08106678 -0.017942004 -0.01521419 0.042772673 0.008312881 0.12907705
0.12739336 -0.13037644 -0.13874806 -0.000700866 -0.0191539 0.039566264 0.069555245 -0.008686283

lstm.weight_hh_l0 f4 [200, 50]
00000000: 76ea 803d 5fa5 00bc c7db 613d a6b7 d73d
00000010: 32ec 06bc 1de1 0ebe d97c 09be 63df bbbd
00000020: d641 acbd cea1 a23d f52a 053e d9dd 3a3d
00000030: d094 773d ac5b f03d 86e2 a83d e486 0fbe
00000040: ab3e 8e3d 6673 e8bd 5a69 b53d 4f2e 0abe
00000050: 16df 5b3d f4b0 fbbd 482c a53d 4af0 f9bc
00000060: 74b2 dabd 26cc c2bd d266 31bd f1dd a5bc
00000070: cca6 1cbd 7158 fdbd 7d01 acbc 8a63 283d
00000080: 637a e4bd b813 913d b041 0a3e 7cfd a7bd
00000090: 7488 983c a576 0cbd 1887 683d cfc3 06be
000000a0: dd36 07bd 49ae a3bd 4bd8 523d 4152 243d
000000b0: ce3e 0e3e 74c1 0b3e 0517 da3d db3d c8bd
000000c0: 5de2 413d 2014 c2bd a415 ee3d 57a8 063e
000000d0: 5497 a43c 8ead be3d 6e6c 16bd 0d05 0a3e
000000e0: 071d c03d 66bb afbc b714 d53b 707b 8c3d
000000f0: e73d 06be 73ac ce3d 394b c63d f619 2a3d
00000100: 1c21 e2bd 7044 5ebd 7c78 d43d 1e24 3d3d
00000110: f40f 36bd 64e5 8d3d 7beb d93d cffc 7a3d
00000120: 82b4 cebd b3de 98bd 0bc0 cd3d 9f46 e4bd
00000130: 4a0f 013d f3b3 16bb 8a4c 21bd cd44 0a3e
00000140: 8bac 05bb 33d9 05be 0f9a 3e3c 4548 d93d
00000150: 7f1f 9abc 587e 4ebd 4247 c93d e24c ca3d
00000160: 73cf e9bd b48a ddbc cd62 93bd 2bcc 01be
00000170: 3227 c7bd 92ef 853d 2850 c13d 2021 243b
00000180: dc8f 9abc b461 9e3d b7e7 bf3d bc30 a239
00000190: 3e9e 6c3d 7c00 e53d d3d6 b5bd 2efc 87bc
000001a0: fc5d 9f3c 389f b1bd 901a f9bd f1d4 8bbd
000001b0: e51f e2bd fa7a abbc 8db5 00be 84c5 07bd
000001c0: 75b9 babd f95a 27bc 2212 083e 7410 33bd
000001d0: 4074 cebd 02c1 81b9 83b6 a63d 9dbb ccbb
000001e0: a439 c23d feb2 87bd 4423 5c3d bff2 e73c
000001f0: 8f35 ffbd b83f 0bbe b4dc 083e d0fe 043e
00000200: 77dc c8bd ece1 023d ae13 87bd f941 6c3b
00000210: 1409 4e3d 7f2c 04bc 74b8 1d3d 29fb 0f3e
00000220: b988 003e 18e9 0abd 7c45 97bd c4b7 f2bd
00000230: 89b4 303d 040e b93c 22e5 e73d 4f82 c0bc
00000240: 40a3 af3c bcb0 07be 0201 06be ee78 e13d
00000250: 6655 f33d 548e f93d 356b 77bc ded5 013e
00000260: 0973 093e 2c72 cb3d 398e db3d 1927 a2bd
00000270: 0c55 f8bd 715a d6bc d0d9 eebd feee b73a
00000280: c359 94bd 1226 80bd 0d03 bb3d f0e3 553d
00000290: 30ea 8f3c 6410 0d3d 6b93 efbd f78d b8bd
000002a0: 4716 093e 9f0d 013e 0680 cd3c 2be0 f2bd
000002b0: 3da5 eebd efad 0a3d 5b81 653d b40f 1b3d
000002c0: cc27 49bd 0551 0abe bae2 013e eebc 31bd
000002d0: 003b 283d 5503 603c 9dc1 b2bd 2e21 bb3d
000002e0: 81e9 453d 07c4 febd c57c 12bd b842 aa3c
000002f0: 954f 05be bba5 a7bd 59e3 aabd ffbf 213b
00000300: 22a5 aa3d c1f5 243c 8041 b53d f203 d23d
00000310: 4443 e3bd 8bec 923d 8ccf d6bd fb94 6e3d
00000320: 750e f33c a554 73bd 93c9 37bd f414 f3bd
00000330: d04e 9dbd d07f 0ebe 6e4d 48bd 24f2 ed3d
00000340: 70df 2b3d e5b6 be3c 598c 05be 7b28 b03c
00000350: 5123 8fbd c357 16be 3aca 49bc b77b 00bd
00000360: ecbc 9fbd 1283 173e 6aaf 07bd eaf0 00be
00000370: b4ec dfbd a808 babd 77da 2e3d bcd3 fabd
00000380: bd95 00be a68a 833d 774f 043e 8da3 833c
00000390: ff4a dfbc 7107 723d 351f f83d 183c 953d
000003a0: 96e2 b6bd cdd4 043e f359 87bc 9ead 0b3e
000003b0: e132 29bd a2b2 af3d 6ea2 663d 6b53 9e3c
000003c0: a3ec 00be ca5c 033e 9bd2 873c 0964 e3bc
000003d0: b2ea 793c 06a4 06be 38d2 8abb 5a50 423d
000003e0: da10 ecbd 57b3 84bd b4e7 d13d 5400 da3c
000003f0: f30d db3d 9b56 ec3d 1290 173d d159 eabb
0.0629472 -0.007851928 0.055141237 0.10533075 -0.008235024 -0.13953061 -0.13426532 -0.09173467
-0.08410995 0.07941018 0.13004668 0.045621727 0.060444653 0.11736235 0.08246331 -0.140163
0.06945547 -0.113501355 0.08857985 -0.13494228 0.05367955 -0.122896105 0.080650866 -0.030510087
-0.106785685 -0.095115945 -0.043310948 -0.020247431 -0.038245007 -0.123703845 -0.020996803 0.041110553
-0.11156156 0.07083839 0.1350162 -0.08202645 0.018619753 -0.034292836 0.05676946 -0.13160633
-0.033011306 -0.07992227 0.051475804 0.040117506 0.13891146 0.13648015 0.10648922 -0.09777423
0.047335017 -0.09476495 0.11625221 0.13150154 0.02009169 0.09310447 -0.0367245 0.13478489
0.093805365 -0.021451663 0.0065027135 0.06859481 -0.13109551 0.10091486 0.09682316 0.041528665
-0.11041471 -0.054264486 0.10374543 0.046177022 -0.044448808 0.069285184 0.106406175 0.061276253
-0.10093023 -0.074643515 0.10046395 -0.111462824 0.03150872 -0.0022995442 -0.039379634 0.13502808
-0.0020397033 -0.13071136 0.01163341 0.106094874 -0.018813847 -0.05041346 0.098280445 0.098779455
-0.11416521 -0.027043678 -0.07196579 -0.1267554 -0.09724273 0.06539835 0.09439117 0.0025044158
-0.018867426 0.07733479 0.09370368 0.00030935358 0.0577681 0.11181733 -0.08878865 -0.01659974
0.019453995 -0.08672947 -0.121632695 -0.06827725 -0.1104124 -0.020932663 -0.12569256 -0.03314735
-0.09117404 -0.010214561 0.13288167 -0.043716863 -0.10080767 -0.000247486 0.0814028 -0.006247951
0.0948365 -0.06625937 0.05374457 0.028313993 -0.12461387 -0.13598526 0.13365442 0.12987828
-0.09807675 0.031953737 -0.065955505 0.0036050065 0.050301626 -0.008067249 0.038505986 0.14060654
0.12552156 -0.0339137 -0.073863 -0.11851457 0.04314092 0.022589691 0.113230005 -0.023499636
0.021440148 -0.13251013 -0.13086322 0.11009394 0.11881523 0.1218535 -0.015101244 0.1267924
0.13422789 0.09933886 0.10720486 -0.079176135 -0.121255964 -0.026166173 -0.11662638 0.0014033017
-0.07243683 -0.06257261 0.09131441 0.05221933 0.017567724 0.03443946 -0.116980396 -0.09011453
0.13387404 0.12602852 0.02508546 -0.11859163 -0.116526105 0.033857282 0.056031566 0.037856773
-0.04911022 -0.13507469 0.12684146 -0.043393068 0.04107189 0.013672669 -0.08728335 0.09137188
0.04831839 -0.12439733 -0.03576352 0.020783767 -0.1301864 -0.081859075 -0.083441444 0.002468109
0.08332278 0.010068358 0.08850384 0.10254659 -0.11096814 0.07174023 -0.10488805 0.058247548
0.02966998 -0.059406895 -0.04486997 -0.11869231 -0.07681048 -0.13915944 -0.048901968 0.1161845
0.041961133 0.02328057 -0.1304182 0.021503678 -0.06989158 -0.14681916 -0.012316281 -0.031367984
-0.07799706 0.14796093 -0.033126272 -0.12591901 -0.109338194 -0.09083682 0.042688813 -0.122474164
-0.1255712 0.064229295 0.12920938 0.016069198 -0.02725744 0.059089128 0.12115327 0.072868526
-0.089299366 0.12971802 -0.016522383 0.13640448 -0.041308288 0.085789934 0.05630725 0.019326886
-0.1259027 0.12828365 0.016579917 -0.027757661 0.01525371 -0.13148507 -0.004236486 0.04743991
-0.11526652 -0.06479519 0.10249272 0.026611485 0.1069602 0.11539956 0.03700263 -0.00715182

lstm.bias_ih_l0 f4 [200]
00000000: bae8 babc 82a2 753c a17b 083e 3bf1 de3c
00000010: 86ee 983d cfcc e23d b81f 6dbc ab05 8a3d
00000020: 671e 3a3d 5187 ee3c 3a5a 373d a72a 88bd
00000030: e39f 0e3e 1a8c 6e3d fc7d f13c df81 1b3e
00000040: 940f a7bd bff3 c6bd e7d9 f2bc 71c3 a8bd
00000050: 6085 ecbd acdc ee3c 8f5c 70bd 4ede b4bd
00000060: 62ad eebd b23f 043e 8162 053c 6180 be3d
00000070: 3216 fcbd 644b 26be ed16 91bd a4c9 013e
00000080: 1142 b23d d6a4 823d b2d3 b9bd 05c0 0bbe
00000090: 75eb a4bd 9ed3 083e badb 4a3d b965 5b3c
000000a0: e9d8 0cbd 7ec4 d63d bb3e 0c3e 2675 92bc
000000b0: d5cc 97bd 80fc 99bb 834f af3d 3af6 a0bd
000000c0: 11a0 02bc 0323 023e 6840 2d3c f0e0 a9bd
000000d0: dfdd 91bd c73f d53d cd56 87bd 8895 8f3d
000000e0: 6f24 033e 858b f93d 7316 b23d 5587 a43d
000000f0: a042 26bd 954d cd3d 5ee5 143e 5ff1 69bc
00000100: 37a2 20bd e46e d8bc 68ce dabd 2c16 613d
00000110: b358 edbd c960 d2bd 42af e83d 6a3e 0bbc
00000120: 8c14 cf3d 912b 00be 92a4 ca3d f8c2 113e
00000130: 4339 a23d 961f c33d cd7f 023e 58d0 43bd
00000140: 0ed4 ee3b 953c 90bd aa70 29bc 6c91 173e
00000150: 98a3 b53d 8371 613d a7b7 c33d 1033 08be
00000160: b05d f73d 30e8 e6bd e249 cbbd 8e82 993d
00000170: a04c 9fbd 0657 663b f90c 8ebb 806f f6bd
00000180: d5a8 0abd 19ad 8b3c ebe0 31bd bfe2 043d
00000190: 7d47 28bd 1674 84bd 2a2a 093e b0d9 8bbd
000001a0: dec9 d5bb ab26 81bd cb35 d93d eca2 033e
000001b0: a234 b83d 55e0 1fbd 816e 05be 4432 0fbc
000001c0: 05e4 7bbd 0879 0bbe bb29 c3bd e106 52bb
000001d0: 4c87 e6bd c325 d23d 4648 ed3d 1871 f9bd
000001e0: f9b5 0a3e 829f bf3c 9918 adbd f844 843d
000001f0: 17a5 843d 9a46 04be 8294 73be eed2 223b
00000200: 9d23 b2bd e148 13bc 9f00 b0bd 2ae0 a7bd
00000210: ee40 1bbe 1f0f 8c3c d867 6e3d e684 03be
00000220: ffc3 103e e21d 883d f52b 603d 46af fbbd
00000230: 0906 c2bd aac2 ac3d 97ac 333c 41ac 22be
00000240: 05c8 e8bd 0c84 2bbc 22fa 193c 25d9 16be
00000250: e921 953c 8f4b c93d 7ddf c5bc 29ac 4ebd
00000260: 07b2 d9bd 1da8 113e 7cbc e9bd 2e2c f33c
00000270: 6c3b e63d aee9 8fbd 0c4f 4fbd 3cfa bbbd
00000280: dcda 863d e88a a53c 88f3 4c3d ce6e 083e
00000290: e1c5 c63d ba01 95bd 466b 4abd 2faf dd3d
000002a0: 76b2 183e 2111 22bd 1927 0e3e 3227 31bd
000002b0: 5dd4 21bd 6e44 1b3e 609e 083b ae36 a9bd
000002c0: 8892 0bbd 106f dc3b 08f9 0c3e 4f7e c03d
000002d0: 730f 62bb 39e4 3e3d 5385 983d 7031 30bd
000002e0: 244a eabc 6fc6 153e ffd6 073e 0079 bfbc
000002f0: d340 cb3d 7772 ad3c 7a9c 023e 0400 633a
00000300: 38fe e93d 9766 e6bd 6b6b a83c 75c9 103e
00000310: a934 953a 88e3 033d 0c29 ee3b 9f4f 91bd
-0.02281605 0.014992358 0.1332841 0.027214637 0.0746737 0.110742204 -0.014472894 0.06739362
0.04543915 0.029117258 0.04476378 -0.0664876 0.1392818 0.05823908 0.02947902 0.1518626
-0.08157268 -0.0971446 -0.02964492 -0.082404025 -0.11548877 0.029157959 -0.05868202 -0.08831464
-0.11654164 0.12914923 0.008141161 0.0930183 -0.12308921 -0.16239697 -0.07084451 0.12674576
0.087040074 0.06379096 -0.09073581 -0.13647468 -0.08052722 0.13361976 0.049525954 0.013390952
-0.03438655 0.10486697 0.13695805 -0.017878126 -0.074121155 -0.00469929 0.085600875 -0.07859464
-0.007972733 0.12708668 0.010574438 -0.082948565 -0.07122397 0.10412555 -0.06608353 0.07010943
0.12806867 0.12184814 0.08695688 0.08033625 -0.040590882 0.10024563 0.14540622 -0.014278739
-0.0392172 -0.026420064 -0.106839 0.054952785 -0.11589184 -0.102723666 0.11361553 -0.008498767
0.10111341 -0.1251662 0.098946705 0.14234531 0.07921078 0.09527509 0.12744065 -0.047806114
0.0072884625 -0.07042805 -0.010341803 0.14801568 0.08869094 0.055039894 0.09556513 -0.13300729
0.12078416 -0.11274755 -0.099262014 0.074956045 -0.07778287 0.0035147085 -0.0043350426 -0.12032986
-0.033852417 0.017050313 -0.04342739 0.032442804 -0.0410838 -0.06467454 0.1339499 -0.0682863
-0.0065243086 -0.063062035 0.10605963 0.12855119 0.08994414 -0.0390323 -0.13030435 -0.008740012
-0.061496753 -0.13620389 -0.09529444 -0.0032047557 -0.112562746 0.10261109 0.11586051 -0.12179774
0.1354598 0.023391489 -0.08451957 0.06458467 0.06476801 -0.12917557 -0.2378712 0.0024844962
-0.08698199 -0.008989544 -0.085938685 -0.08197053 -0.15161487 0.017097054 0.058204502 -0.12843665
0.14137267 0.06646325 0.05472942 -0.1228929 -0.09473807 0.08435567 0.010966442 -0.15886022
-0.11366276 -0.010468494 0.009398015 -0.14731272 0.018204646 0.09828865 -0.02415442 -0.050457153
-0.10629659 0.14224286 -0.11412904 0.029684152 0.112418026 -0.07026993 -0.050612494 -0.09178588
0.06584713 0.020207837 0.050036937 0.13323519 0.09705711 -0.0727572 -0.04941871 0.10824429
0.14911827 -0.039567117 0.13882102 -0.04325027 -0.039509166 0.15162823 0.0020846352 -0.082623824
-0.03407529 0.006727107 0.13766873 0.093990915 -0.0034494072 0.04660437 0.074473046 -0.043015897
-0.028599806 0.14626478 0.13265608 -0.023373127 0.099244736 0.021172745 0.12755004 0.0008659365
0.114254415 -0.11250036 0.020559033 0.1413935 0.0011383492 0.032199413 0.0072680768 -0.07095265
