crowd_nav/data/troubleshooting/output_SARL_cpu_3/rl_model.pth (torch, 392547 bytes, 20 tensors)

mlp1.0.weight f4 [150, 13]
0	0x3e3cb40a	0.18428054
1	0xbe800543	-0.25004014
2	0x3e4357ac	0.19076413
3	0x3e635d99	0.22203673
4	0x3da2eaff	0.07954978
5	0x3e3787d2	0.17922905
6	0x3d91671d	0.070997454
7	0x3e1f1624	0.1553579
8	0x3e92b78b	0.28655657
9	0x3cb7dfb4	0.022445537
10	0xbda60734	-0.08106843
11	0xbd0422bd	-0.03225969
12	0xbe0d7242	-0.13813117
13	0x3e18c936	0.14920506
14	0xbe194778	-0.1496867
15	0x3e864a86	0.26228732
16	0xbc962296	-0.018327039
17	0xbe96100f	-0.29309127
18	0xbdee8acb	-0.116475664
19	0x3e96fdc1	0.29490474
20	0xbd9fbcc7	-0.07799678
21	0xbd0c2f27	-0.034224655
22	0xbe308742	-0.17239097
23	0xbdf36ec6	-0.11886363
24	0xbb8c9de5	-0.0042912834
25	0x3d2f9a6d	0.04287188
26	0x3ce2e7c7	0.02769841
27	0xbd1ab89b	-0.03777371
28	0x3d142915	0.03617199
29	0xbdac38c0	-0.08409262
30	0x3dace64c	0.08442363
31	0x3d219eef	0.03945821
32	0xbd04d87e	-0.032433026
33	0xbe92bd14	-0.2865988
34	0xbdcbb825	-0.09947232
35	0xbe87c368	-0.2651627
36	0xbe0513ce	-0.12995836
37	0x3cab94ca	0.020944972
38	0x3cc869d2	0.024464522
39	0xbe06d8a2	-0.13168576
40	0xbe1f5687	-0.15560351
41	0x3d6d8976	0.05799242
42	0x3e7335c3	0.23750977
43	0x3e657a56	0.22409949
44	0xbcc655ca	-0.02421083
45	0x3df5fb1e	0.120107874
46	0x3e4baa9b	0.198893
47	0x3d93a553	0.072092675
48	0x3dbe22ee	0.09284006
49	0x3e5c02b8	0.21485412
50	0xba7f7684	-0.0009745138
51	0xbe83e41f	-0.2575998
52	0x3e7867f2	0.24258402
53	0x3e426ba3	0.18986373
54	0x3ded8395	0.11597363
55	0xbca8badc	-0.020596914
56	0x3c84001a	0.01611333
57	0xbe612722	-0.21987584
58	0xbe7e0741	-0.24807455
59	0x3da7bfd6	0.08190887
60	0xbe27feb6	-0.16405758
61	0x3e47a27c	0.19495577
62	0x3c5d93e9	0.013524034
63	0xbe8bec10	-0.2732854
64	0x3dbe7032	0.09298743
65	0xbe75848b	-0.23976342
66	0x3db06342	0.08612682
67	0xbe8a4578	-0.27006125
68	0x3e3b54b8	0.18294036
69	0x3c09ecda	0.008418286
70	0x3e860b0d	0.26180306
71	0xbe849c46	-0.25900477
72	0xbd5507d5	-0.052009422
73	0xbdd3de26	-0.10345106
74	0x3df4b784	0.11949065
75	0xbe5041fd	-0.20337673
76	0x3e310cda	0.17290059
77	0xbdc064d5	-0.09394232
78	0xbe0de1bd	-0.13855644
79	0x3d192fef	0.03739923
80	0x3d3414ed	0.04396527
81	0xbd9b09b2	-0.075702086
82	0xbe88e9cb	-0.2674087
83	0xbe208db4	-0.15679055
84	0xbdacce59	-0.08437795
85	0x3da40f36	0.08010714
86	0xbd994607	-0.0748406
87	0x3e77312e	0.24139854
88	0xbe866489	-0.26248577
89	0x3e34256c	0.175924
90	0x3d3054ba	0.04304955
91	0xbd951b6a	-0.072806194
92	0x3db88562	0.09009816
93	0x3e26e746	0.16299161
94	0x3df592fe	0.11990927
95	0x3e3cfd38	0.1845597
96	0x3e3c918c	0.18414897
97	0xbe20b868	-0.15695345
98	0xbcab2caf	-0.02089533
99	0x3e2948bb	0.1653165
100	0xbd0f7462	-0.0350231
101	0xbe036c91	-0.12834384
102	0x3e7e27ea	0.24819914
103	0xbc2dc953	-0.010607081
104	0xbe681168	-0.2266289
105	0x3e570cdf	0.21001004
106	0xbe895660	-0.2682371
107	0xbe0cb358	-0.13740289
108	0xbe321512	-0.1739085
109	0x3d0fff69	0.035155687
110	0xbc8eeaa7	-0.017445875
111	0xbd934527	-0.07190924
112	0xbe20cc2f	-0.1570289
113	0x3e14415c	0.14478058
114	0xbe0488ec	-0.12942857
115	0x3e17abc2	0.14811614
116	0xbe6fbb4e	-0.23411295
117	0x3db312f5	0.0874385
118	0xbd654628	-0.05597511
119	0x3e1461bd	0.14490409
120	0x3e056c96	0.13029703
121	0x3e5ccd4c	0.2156269
122	0xbd39c7ed	-0.04535668
123	0x3ea32920	0.31867313
124	0xbe36019a	-0.17774048
125	0x3e22a532	0.1588333
126	0xbe4f0597	-0.20216976
127	0x3d34880e	0.044075064
128	0xbe6478f2	-0.22311762
129	0x3e1a0b09	0.15043272
130	0xbd39fef5	-0.04540916
131	0x3df438e0	0.119249105
132	0xbe42dc9f	-0.19029473
133	0xbe7164f8	-0.23573673
134	0xbd5f1ffd	-0.054473866
135	0x3be88c04	0.0070967693
136	0xbe8d3ba4	-0.27584565
137	0x3e1490f2	0.14508417
138	0x3e477e80	0.1948185
139	0xbe89d49e	-0.26920027
140	0xbd122855	-0.035682995
141	0xbd3f946d	-0.04677241
142	0x3e3a90d8	0.18219316
143	0x3e66301c	0.2247929
144	0xbe69ddbf	-0.22838496
145	0xbe612970	-0.21988463
146	0x3d093d6c	0.033505842
147	0x3de553ae	0.11197601
148	0x3d7ac0c9	0.06121901
149	0x3e830ff5	0.25598112
150	0xbe0d0351	-0.13770796
151	0x3ec00819	0.37506178
152	0xbdf8371b	-0.121198855
153	0x3d16c015	0.036804277
154	0xbdb27b4a	-0.08714922
155	0xbc036a23	-0.00802091
156	0xbca55e10	-0.020186454
157	0x3e13ee4b	0.1444637
158	0x3e45ff80	0.19335747
159	0x3db7bfdc	0.08972141
160	0xbd4ef745	-0.050528783
161	0x3d2333ad	0.039844204
162	0xbdced063	-0.1009834
163	0xbe88a89f	-0.26691148
164	0xbda1d17c	-0.07901284
165	0xbe4c6811	-0.19961573
166	0x3e53e40d	0.20692463
167	0x3d6a30d5	0.057175476
168	0x3e1b0c30	0.15141368
169	0xbdf8a5bb	-0.121409856
170	0x3e4f331e	0.20234343
171	0x3e4f20bf	0.20227335
172	0x3e7a5fc8	0.244506
173	0x3e8ca3fa	0.27468854
174	0xbe9f206a	-0.31079417
175	0x3dfb583c	0.12272689
176	0x3e8b4b15	0.2720572
177	0xbb96999b	-0.004595948
178	0xbdd0c29b	-0.10193368
179	0xbdd139f5	-0.102161326
180	0xbdfa340d	-0.12216959
181	0x3e63bb82	0.22239497
182	0xbd33feda	-0.043944217
183	0xbd73ec38	-0.059551448
184	0x3e732c07	0.23747264
185	0x3e460174	0.19336492
186	0x3ea21f0e	0.31664318
187	0xbcb4d953	-0.022076285
188	0xbe15333d	-0.14570327
189	0x3e548fb0	0.20757937
190	0xbd964d1b	-0.073389255
191	0xbdb4d78c	-0.08830175
192	0x3dc3a8c7	0.09553676
193	0x3eb6c03b	0.35693535
194	0xbe062a72	-0.13102129
195	0x3e0cf057	0.13763557
196	0xbe832a05	-0.25617996
197	0x3e5e4ec0	0.21709728
198	0x3e8796ac	0.2648214
199	0xbce75fbc	-0.028243892
200	0x3dbeb360	0.09311557
201	0x3e7bce50	0.2459042
202	0x3e303694	0.1720832
203	0x3de9c67e	0.114148125
204	0x3e9a201c	0.30102623
205	0x3e2901aa	0.16504541
206	0xbe0fb5d9	-0.14034213
207	0xbe4aee7e	-0.1981754
208	0xbd3b94b0	-0.045796096
209	0x3e74fb21	0.23923923
210	0x3e0ae8ca	0.13565364
211	0xbe3efbec	-0.18650788
212	0xbaec6433	-0.0018035233
213	0x3ebebd65	0.37253872
214	0x3e0d6d66	0.13811263
215	0xbd829083	-0.0637522
216	0x3e37747a	0.17915526
217	0xbea3c8d5	-0.3198916
218	0x3d569267	0.052385714
219	0x3cc0ea73	0.023549294
220	0xbdae2be4	-0.08504465
221	0xbe2877dc	-0.16451973
222	0xbe88500e	-0.26623577
223	0xbc39b7e9	-0.0113353515
224	0x3e14af5d	0.14520021
225	0xbe045ad9	-0.1292528
226	0x3e239319	0.15974082
227	0x3e0e1804	0.13876349
228	0x3e6eeb44	0.23331934
229	0x3e8a9159	0.27064016
230	0x3e5f5576	0.21809945
231	0x3c9a25f7	0.018816931
232	0xbd2ef249	-0.04271153
233	0x3e8c6cf2	0.2742687
234	0x3ded3148	0.11581665
235	0x3e1ef380	0.15522575
236	0x3e7b341a	0.24531594
237	0x3e281fa3	0.16418318
238	0xbd2a1643	-0.041525137
239	0x3e0f65c4	0.14003664
240	0x3eb72111	0.35767415
241	0x3c7f80a1	0.015594632
242	0x3e63f2de	0.22260615
243	0x3c8423d4	0.016130365
244	0x3e1568a6	0.14590701
245	0xbea47da5	-0.3212711
246	0xbe6a998f	-0.2291014
247	0x3dbc3e88	0.091916144
248	0xbe008dbd	-0.12554069
249	0x3d56cee6	0.052443407
250	0x3d9e20d4	0.07721105
251	0xbba6d99b	-0.0050918586
252	0x3bf764b8	0.0075498484
253	0x3e502ba6	0.2032915
254	0xbea1e04a	-0.3161643
255	0x3e92baa7	0.2865803

mlp1.0.bias f4 [150]
0	0xbe4bef1a	-0.19915429
1	0xbdf01782	-0.11723234
2	0xbe08997f	-0.13339804
3	0xbde6caed	-0.11269174
4	0xbdcb5eab	-0.09930166
5	0x3dd60d8b	0.10451802
6	0xbdf19e5b	-0.11797782
7	0xbddb51f6	-0.10708992
8	0xbe6062a0	-0.21912622
9	0x3dc9093c	0.098162144
10	0xbb6ef844	-0.0036463896
11	0xbe2e9d8d	-0.17052288
12	0xbe27d82c	-0.16391057
13	0xbe38e222	-0.18055013
14	0x3de6ed3a	0.11275716
15	0x3e3d1a88	0.18467152
16	0xbde4ec66	-0.11177902
17	0xbd614d30	-0.055005252
18	0x3e12f17c	0.14349931
19	0xbc78a0ec	-0.0151750855
20	0xbe7be8bb	-0.24600498
21	0x3e83ab36	0.2571656
22	0x3d895e6e	0.06707464
23	0x3dffb493	0.12485614
24	0xbd3e5705	-0.046469707
25	0x3b4ab434	0.0030930163
26	0x3e973e44	0.29539692
27	0x3e2d8a5e	0.16947314
28	0xbe7f8560	-0.24953222
29	0x3e1fb120	0.15594912
30	0xbd54a8e8	-0.051918894
31	0xbd9eb3cf	-0.077491395
32	0xbd79f259	-0.061022136
33	0x3e780b68	0.24223101
34	0xbe0a119b	-0.13483278
35	0x3e5e11be	0.21686456
36	0x3e3dd920	0.18539858
37	0xbdd8fb93	-0.10594859
38	0x3dd7e0a6	0.10540895
39	0x3e200389	0.15626349
40	0xbe6d9b81	-0.23203851
41	0x3cfe83ce	0.031068709
42	0x3dd7edd8	0.10543412
43	0x3e7e5b9f	0.24839638
44	0x3deec761	0.11659122
45	0x3d889758	0.066694915
46	0x3df96e00	0.12179184
47	0x3e5bad9a	0.21452942
48	0xbe5f03bc	-0.21778768
49	0x3dd371af	0.10324418
50	0xbccaff16	-0.024779838
51	0x3e3af7b3	0.18258552
52	0x3e75faa1	0.24021389
53	0x3e517487	0.20454608
54	0x3e869666	0.2628662
55	0xbe4d3893	-0.20041113
56	0x3e3b0d17	0.18266712
57	0x3e7e6309	0.24842466
58	0xbe241beb	-0.16026275
59	0xbd2acea8	-0.04170099
60	0x3dee28d3	0.1162888
61	0xbdd41dc7	-0.10357242
62	0x3da0a3b0	0.07843721
63	0x3dff7880	0.124741554
64	0x3e33c7d4	0.17556697
65	0x3e5820a5	0.21106203
66	0x3e858c58	0.26083636
67	0x3e690aa5	0.22757967
68	0x3cb184e1	0.021669807
69	0x3e93ea63	0.2888976
70	0xbe1af4ef	-0.15132497
71	0xbd13f37a	-0.03612087
72	0x3e895b18	0.26827312
73	0x3c92aa04	0.017903335
74	0xbddde4d8	-0.10834664
75	0x3d87e54f	0.06635534
76	0xbd4675d6	-0.04845222
77	0xbe6bf312	-0.23041943
78	0x3e3b59f9	0.1829604
79	0x3d0d336e	0.034472875
80	0xbd6a3c4e	-0.057186417
81	0x3e7a0964	0.24417645
82	0xbe7be2a8	-0.24598181
83	0xbd18827c	-0.037233815
84	0x3db18c8c	0.08669385
85	0xbd2c727f	-0.04210138
86	0x3e2e6751	0.170316
87	0xbe5d2558	-0.21596277
88	0x3c008d64	0.00784621
89	0xbdffe2d5	-0.12494437
90	0x3e028cb4	0.12748986
91	0xbe282cc5	-0.16423328
92	0x3e240e2c	0.16021031
93	0x3e2d1339	0.16901864
94	0xbd9f65b3	-0.077830695
95	0xbe43844e	-0.19093439
96	0xbe40fa23	-0.1884542
97	0x3d1d99ee	0.038476877
98	0x3e5cedab	0.21575038
99	0xbcfeb0d5	-0.03109018
100	0xbddb2a7c	-0.107014626
101	0xbe4ddce1	-0.2010379
102	0x3d01276b	0.031531733
103	0xbe3c7ad4	-0.1840623
104	0x3dc878af	0.097886436
105	0xbb8de0a9	-0.00432976
106	0xbe5f245f	-0.21791218
107	0x3e04438e	0.12916395
108	0xbe396836	-0.1810616
109	0x3e818a57	0.25300857
110	0xbd4add1e	-0.04952728
111	0xbd9fba3d	-0.07799194
112	0xbd0fa810	-0.035072386
113	0xbda5219d	-0.08063052
114	0xbdcc1d8c	-0.09966573
115	0xbdba9581	-0.09110547
116	0x3e832a70	0.25618315
117	0x3d02fe1f	0.03198063
118	0x3e0f7953	0.14011125
119	0x3d9334d3	0.0718781
120	0xbcacb2e4	-0.021081395
121	0xbe44050a	-0.19142547
122	0x39bdcbd9	0.00036200767
123	0x3e2e81ab	0.17041652
124	0x3d3ff28d	0.046862174
125	0xbca7c05c	-0.020477466
126	0xbd2362ea	-0.039889254
127	0x3d89a981	0.067217834
128	0x3e6e5d99	0.23277892
129	0xbe666456	-0.22499213
130	0xbe7df607	-0.24800883
131	0x3e62e1b1	0.22156407
132	0xbe18f179	-0.14935865
133	0x3e79e9e5	0.2440563
134	0x3e1b5505	0.15169151
135	0xbe396b3f	-0.18107317
136	0x3bea7ded	0.007156125
137	0xbdfa887b	-0.12233063
138	0x3e8e0269	0.27736214
139	0xbe009976	-0.1255854
140	0xbe053ed8	-0.13012254
141	0xbda515ad	-0.08060775
142	0x3e071412	0.1319125
143	0xbe18bb5f	-0.14915226
144	0xbe536c3f	-0.20646761
145	0xbde45373	-0.11148729
146	0x3e80a65e	0.25126928
147	0xbe81a3af	-0.25320193
148	0x3d89001b	0.06689473
149	0x3e89f4cb	0.26944575

mlp1.2.weight f4 [100, 150]
0	0x3d57a758	0.052649826
1	0xbda01925	-0.07817296
2	0x3d80c0aa	0.06286748
3	0x3d353194	0.044236735
4	0xbbbdeb68	-0.005795885
5	0x3d56bfa3	0.052428853
6	0xbc5ef15d	-0.01360735
7	0x3da74600	0.08167648
8	0xbc50d197	-0.012745283
9	0xbcda3fa6	-0.026641678
10	0xbda099fd	-0.07841871
11	0xbb03fa99	-0.0020138382
12	0xbc8cda4b	-0.017193934
13	0xbd64c8b0	-0.055855453
14	0xbd67dbc0	-0.056606054
15	0x3d853bea	0.06505568
16	0x3d95a5c7	0.0730701
17	0x3d8715be	0.06595944
18	0x3d6ca79e	0.05777704
19	0x3d0a8186	0.03381493
20	0x3bc8dd33	0.0061298846
21	0x3ce1fc6e	0.027586188
22	0x3d631a0b	0.05544476
23	0xbda1e067	-0.079041295
24	0x3d21fcff	0.039547917
25	0xbb523430	-0.0032074563
26	0xbd30d3aa	-0.04317061
27	0xbd782233	-0.06057949
28	0x3c2ca145	0.0105364965
29	0x3d81bfa8	0.06335384
30	0x3cd1866a	0.025576789
31	0xbc2096ab	-0.009801547
32	0xbcff413a	-0.031159032
33	0xbd8a9905	-0.067674674
34	0x3c070a05	0.008242135
35	0xbd14d07f	-0.03633165
36	0x3ca77e7e	0.020446058
37	0x3b9d5c64	0.0048022736
38	0xbd8e1e62	-0.06939389
39	0xbd75e3e2	-0.06003178
40	0xbd8edcb0	-0.069756866
41	0x3cc2d233	0.023781871
42	0xbd9d8dde	-0.07693075
43	0x3d170216	0.036867224
44	0xbbb91778	-0.0056485496
45	0xbcb590ae	-0.022163715
46	0x3d5e3d1b	0.054257493
47	0x3d91478e	0.07093726
48	0xbcc5284e	-0.02406707
49	0xbcc08a19	-0.02350335
50	0x3d7995c6	0.06093385
51	0x3d4030f9	0.046921704
52	0xbc1a2155	-0.009407361
53	0x3ce23b67	0.027616216
54	0x3d4deeb1	0.050276462
55	0x3d89b303	0.06723597
56	0x3d2aa43a	0.041660525
57	0xbd38ced7	-0.045119133
58	0x3c808615	0.015688935
59	0xbd8b5c9f	-0.068047754
60	0x3cf55201	0.02994633
61	0xbccee905	-0.025257597
62	0x3b59c445	0.0033228558
63	0x3d4d556e	0.0501303
64	0xbd796815	-0.060890276
65	0xbc932ad7	-0.017964764
66	0x3d5be90b	0.053689044
67	0x3d635a72	0.055506177
68	0x3d0925ed	0.033483434
69	0xbdb1b7ab	-0.0867761
70	0xbd399c08	-0.04531482
71	0xbd750c62	-0.059826262
72	0xbcf8a8e4	-0.03035397
73	0xbd5c1ff2	-0.053741403
74	0xbd83b11c	-0.06430265
75	0xbcd57b05	-0.026059637
76	0xbd36ab04	-0.044596687
77	0x3d1060dd	0.035248626
78	0x3d52bd21	0.0514499
79	0x3c76f43d	0.015072879
80	0x3ccfcf99	0.025367545
81	0xbd2044ba	-0.039128043
82	0xbd887d79	-0.06664557
83	0x3cda2bfb	0.0266323
84	0xbd2131e9	-0.03935424
85	0xbd1f4b49	-0.038890157
86	0x3d6ae9f5	0.057352025
87	0x3d95907d	0.073029496
88	0x3c2ad546	0.010426825
89	0xbd28a273	-0.04117055
90	0x3d40ef95	0.047103483
91	0xbd975973	-0.07390108
92	0xbd1f9214	-0.03895767
93	0xbd126c0c	-0.035747573
94	0x3bc00fce	0.005861259
95	0xbbda1a29	-0.0066559506
96	0x3c7c8efa	0.015414948
97	0x3d686b17	0.056742754
98	0xbbb44ad8	-0.005502086
99	0x3b428ecb	0.0029687162
100	0x3c38cf0c	0.011279833
101	0x3da709aa	0.0815614
102	0x3d08db79	0.03341243
103	0xbb19d9d6	-0.0023475788
104	0xbd6c3af3	-0.057673406
105	0x3d761341	0.060076956
106	0xbd02de1e	-0.03195011
107	0xbcd1ef57	-0.025626821
108	0xbcc36d9c	-0.023855977
109	0xbc6ada69	-0.0143343
110	0x3c12b501	0.0089542875
111	0xbd9a272a	-0.07527001
112	0xbd2cdb3d	-0.04220127
113	0xbcc873ad	-0.024469221
114	0xbda7d22c	-0.08194384
115	0xbd570333	-0.052493285
116	0x3cf18bff	0.0294857
117	0x3ceb7435	0.028741935
118	0x3c8fba75	0.017544964
119	0x3d7bd9f1	0.061487142
120	0x3ba4ecf3	0.0050331294
121	0xbb8ebb73	-0.004355842
122	0x3d0f85c7	0.03503969
123	0x3d738b9f	0.059459325
124	0x3ca721ef	0.020401923
125	0x3ca32bb0	0.019918293
126	0xbc4d5f13	-0.0125348745
127	0xbc9bd71a	-0.019023467
128	0x3d64871c	0.055792913
129	0xbc4a2fd8	-0.012340508
130	0xbc45f642	-0.012082638
131	0x3c824a90	0.015904695
132	0xbd735c70	-0.059414327
133	0xbd8337e7	-0.06407147
134	0x3bd3c334	0.006462479
135	0xbcb910a4	-0.022590943
136	0x3d8d8bf1	0.06911457
137	0xbd47ac23	-0.048748147
138	0x3d8d5aab	0.06902059
139	0xbd9b5ca0	-0.07586026
140	0xbc256f40	-0.010097325
141	0x3ca075c9	0.019587414
142	0x3d0016d7	0.03127178
143	0xbc4f2191	-0.01264228
144	0xbd8e2052	-0.06939758
145	0xbd58d227	-0.052934792
146	0xbd04b353	-0.03239758
147	0xbd82157d	-0.06351755
148	0x3bc8f6ea	0.00613295
149	0x3bf6da52	0.00753335
150	0xbd419083	-0.047256958
151	0x3b2ff34c	0.0026847897
152	0xbd445a0a	-0.04793743
153	0x3c920453	0.017824328
154	0xbd6414c1	-0.055683855
155	0xbd894033	-0.06701698
156	0x3cf60b51	0.030034693
157	0xbd0a6180	-0.03378439
158	0x3b8e707b	0.004346905
159	0xbcff362a	-0.031153757
160	0xbd3963cb	-0.045261186
161	0x3d26f65e	0.040762298
162	0xbd2aeb3d	-0.041728247
163	0x3d8a3e37	0.06750148
164	0x3c5fded1	0.013663963
165	0x3d9e21f7	0.07721322
166	0x3c2d321f	0.010571032
167	0x3dae9631	0.085247405
168	0x3dbcbf32	0.09216155
169	0x3d16083a	0.03662894
170	0xbd0f4c4b	-0.034984868
171	0xbcc51c48	-0.024061337
172	0x3d8e4660	0.06947017
173	0x3d071df8	0.032987565
174	0x3d3a5414	0.04549034
175	0x3d8aadcb	0.0677143
176	0xbd93e714	-0.07221809
177	0xbd153deb	-0.036436003
178	0x3da1669a	0.07880898
179	0xbd8eb20f	-0.06967556
180	0x3cd7f5a7	0.026362253
181	0xbc50ea12	-0.012751119
182	0x3da38f0e	0.0798627
183	0x3c274d34	0.010211278
184	0xbd739d25	-0.059476037
185	0xbd54f8fe	-0.05199527
186	0x3d7facae	0.06242054
187	0xbd3a8221	-0.045534257
188	0x3c942b58	0.018087074
189	0x3d1da445	0.038486738
190	0x3d6239b3	0.055230808
191	0x3c80f734	0.015742876
192	0x3d22c7aa	0.039741196
193	0x3d573c57	0.05254778
194	0xbd253866	-0.04033699
195	0xbcb2813f	-0.021790145
196	0xbd3ed168	-0.046586424
197	0xbd063e6b	-0.03277437
198	0x3db180a5	0.08667115
199	0xbca9ed20	-0.020742953
200	0xbd998206	-0.07495503
201	0xbd332490	-0.04373604
202	0x3d9219a3	0.07133796
203	0xbd284c97	-0.041088667
204	0x3d87a182	0.06622602
205	0x3d9a0f3c	0.07522437
206	0xbd46306b	-0.04838602
207	0x3b3d88dd	0.0028920688
208	0xbc3a5d6a	-0.011374811
209	0x3c54e95b	0.012995089
210	0xbadc1542	-0.0016791003
211	0x3c8744b9	0.016512262
212	0x3d5de10e	0.054169707
213	0xbd77b7e2	-0.0604781
214	0x3d6be254	0.05758889
215	0xbd775a1d	-0.060388673
216	0xbd65d6e0	-0.056113124
217	0xbc048d4a	-0.008090327
218	0x3d156693	0.036474776
219	0x3b282171	0.0025654698
220	0x3d84a28f	0.06476318
221	0xbc5a80c5	-0.013336365
222	0xbd2155a6	-0.03938832
223	0x3bfea26f	0.0077708284
224	0x3d042a72	0.03226704
225	0xbd926388	-0.0714789
226	0x3d75d862	0.06002081
227	0x3d8afac4	0.06786111
228	0xbd361262	-0.044451125
229	0x3bdd52d0	0.006754257
230	0xbd844eb3	-0.06460323
231	0x3db51b31	0.08843077
232	0xbd57058c	-0.052495524
233	0xbd753ca7	-0.059872296
234	0x3d2ebe15	0.042661745
235	0xbba5e73c	-0.0050629657
236	0xbd78691a	-0.060647108
237	0x3cdfe57a	0.027331103
238	0x3d9abb57	0.075552635
239	0xbcbdf932	-0.023190115
240	0x3cd3eba2	0.025869194
241	0xbdacb806	-0.08433537
242	0x3bb3d0d2	0.00548754
243	0xbd7ff871	-0.06249279
244	0x3d1c4aa8	0.038157135
245	0x3d9896fd	0.07450674
246	0xbd8d65fd	-0.06904218
247	0xbc936071	-0.017990323
248	0x3c8cafcd	0.017173672
249	0x3d8ce975	0.06880466
250	0x3c4134b5	0.0117923515
251	0x3d449b2e	0.047999553
252	0x3d762fa0	0.060104012
253	0x3d210b86	0.03931763
254	0x3b9b3710	0.0047367886
255	0x3d9da0a9	0.07696659

mlp1.2.bias f4 [100]
0	0xbd8ec151	-0.06970466
1	0xbba7f5bf	-0.0051257308
2	0x3d5690e7	0.052384283
3	0xbc881580	-0.016611814
4	0x3caf2f49	0.021384852
5	0xbd2bc7cb	-0.041938584
6	0x3d2a80e2	0.04162682
7	0x3d85b5f6	0.06528847
8	0x3c5d1b4c	0.013495278
9	0x3bdaedbf	0.0066811736
10	0xbcc45c5b	-0.02396982
11	0xbc97d755	-0.018535296
12	0xbd858684	-0.065197974
13	0xbd2d4272	-0.042299695
14	0xbb6e0fa1	-0.0036325234
15	0xbd88d1a3	-0.0668061
16	0xbd9c4181	-0.076296814
17	0xbca90477	-0.020632012
18	0x3cd6d386	0.02622391
19	0x3be11f51	0.0068701883
20	0x3ce4b653	0.02791897
21	0xbbb0ac2e	-0.005391619
22	0x3d1716c6	0.036886953
23	0xbd777b01	-0.06042004
24	0x3c874811	0.016513856
25	0xbcbd04db	-0.023073604
26	0xbd14ea94	-0.036356524
27	0x3d796883	0.060890686
28	0xbcf3c732	-0.02975807
29	0xbc7d2859	-0.015451514
30	0xbd4a72b7	-0.049425807
31	0x3e073116	0.13202319
32	0x3d97401e	0.07385276
33	0x3c127cb3	0.008940863
34	0x3d267077	0.0406346
35	0xbc69d9be	-0.014273105
36	0xbda87540	-0.08225489
37	0x3c317dca	0.010833213
38	0xba0f7674	-0.0005472668
39	0x3d85e681	0.06538106
40	0x3d075509	0.03304008
41	0x3daed1d0	0.08536112
42	0x3d6077dd	0.05480181
43	0x3d51efc1	0.051254038
44	0xbcfb0a6e	-0.030644622
45	0x3cc97e73	0.024596428
46	0xbbd88f3b	-0.0066088713
47	0x3d584dbd	0.052808512
48	0xbd3f363d	-0.046682585
49	0x3d7dd16c	0.0619673
50	0xbdab0277	-0.083500795
51	0x3d77253a	0.060338236
52	0xbc8e8a30	-0.017399877
53	0xbd9466de	-0.07246183
54	0x3d45cfcf	0.048293885
55	0xbc5c8590	-0.013459578
56	0xbcf5ccfe	-0.030004974
57	0x3d94ba9d	0.07262156
58	0xbcc77d02	-0.0243516
59	0x3d8de5c5	0.06928591
60	0xbd804c08	-0.06264502
61	0x3ceeff64	0.029174514
62	0x3b8aa183	0.0042306795
63	0xbd97b970	-0.07408416
64	0xbd9804f9	-0.074228235
65	0xbd4a802a	-0.049438633
66	0x3daa8c25	0.08327512
67	0xbb3ee314	-0.0029127048
68	0xbda34d7e	-0.07973765
69	0x3d82bebd	0.06384037
70	0xbd28840d	-0.04114156
71	0x3cb4cc9c	0.022070222
72	0x3d6dd29d	0.058062185
73	0xbc6e78b6	-0.014555147
74	0x3da905f4	0.082530886
75	0x3b4900ec	0.0030670715
76	0xbd84fd71	-0.064936526
77	0xbaf68c1f	-0.001881007
78	0xbd8701e4	-0.065921575
79	0xbcd991f1	-0.026558848
80	0x3d726869	0.059181605
81	0xbd1d94d3	-0.038472008
82	0xbdc93f24	-0.09826496
83	0x3d543a91	0.051813666
84	0x3dbfe198	0.093692005
85	0xbc132145	-0.0089801
86	0xbc845cf5	-0.016157607
87	0xbdc5d4be	-0.09659718
88	0xbda1fc20	-0.07909417
89	0xbd794c57	-0.06086382
90	0x3b5a01ec	0.0033265306
91	0x3dc997b2	0.09843387
92	0xbd497207	-0.04918101
93	0xbc5f8861	-0.013643355
94	0x3bbb74e9	0.005720724
95	0x3cf9d186	0.030495416
96	0x3d440a5b	0.04786144
97	0xbd92e8c5	-0.071733035
98	0x3ceb1fb3	0.028701639
99	0xbd68ac7e	-0.056805126

mlp2.0.weight f4 [100, 100]
0	0x3bb046d1	0.0053795357
1	0x3de0555e	0.109537825
2	0xbd1db3ac	-0.038501427
3	0x3d0f56ea	0.034994997
4	0xbdca9541	-0.09891749
5	0x3dc2d2a4	0.09512833
6	0x3d331586	0.0437217
7	0xbd8263f3	-0.0636672
8	0xbd8e131e	-0.0693724
9	0x3dba725a	0.09103842
10	0xbc542931	-0.012949274
11	0x3d60a2f7	0.054842915
12	0x3dd64ade	0.104634985
13	0xbd0e3be3	-0.03472508
14	0x3d9f45d2	0.07776989
15	0xbd63419f	-0.055482503
16	0xbdc27084	-0.09494117
17	0xbda0f293	-0.07858767
18	0x3c8c3956	0.017117184
19	0xbdc61882	-0.09672643
20	0x3ad57820	0.001628641
21	0xbc26c01e	-0.01017764
22	0xbb789d3a	-0.0037935511
23	0x3d98cf4f	0.07461416
24	0x3e059a30	0.13047099
25	0xba3a2cce	-0.00071020133
26	0xbdbe368a	-0.09287746
27	0x3cce0354	0.025148071
28	0x3e4c2510	0.19936013
29	0xbcb369d2	-0.021901045
30	0xbd7a07a4	-0.061042443
31	0xbe1346d2	-0.14382485
32	0x3cdf3f23	0.027251786
33	0xbd538c6a	-0.05164758
34	0xbde01e44	-0.10943273
35	0xbdd09f15	-0.101865925
36	0x3d495076	0.049149
37	0x3d94cf22	0.0726607
38	0x3d8e6f7b	0.06954857
39	0xbd8089ac	-0.06276259
40	0xbd0ebd6a	-0.034848608
41	0x3dd82781	0.1055441
42	0xbd33a4ae	-0.043858223
43	0xbde498b9	-0.11161942
44	0xbdbe738b	-0.09299382
45	0x3d97c408	0.07410437
46	0xbd8931ac	-0.06698927
47	0xbcaafc34	-0.020872213
48	0x3cd16b19	0.025563763
49	0x3d118360	0.03552568
50	0xbdabd6a1	-0.083905466
51	0x3de540ab	0.11193975
52	0x3da9d406	0.082923934
53	0xbc26ce91	-0.010181085
54	0x3d981482	0.074257866
55	0xbbe15b89	-0.006877367
56	0x3c9b24bb	0.018938413
57	0xbdff787f	-0.12474155
58	0x3c50c589	0.012742409
59	0xbd93165e	-0.071820006
60	0x3d2c6692	0.042090006
61	0xbcd82a7f	-0.026387451
62	0xbc998178	-0.018738493
63	0x3de7fc3a	0.11327405
64	0x3e1223d4	0.1427148
65	0xbd18f941	-0.037347082
66	0xbd62918b	-0.05531458
67	0xbda38569	-0.0798443
68	0xbd947dd0	-0.07250559
69	0x3d945852	0.07243408
70	0x3c5326bb	0.012887652
71	0xbd9f99ea	-0.07793029
72	0x3d94e288	0.0726977
73	0x3d3ce687	0.046118286
74	0xbce17ced	-0.02752539
75	0xbe298f19	-0.16558494
76	0xbd7e03d3	-0.062015366
77	0x3c29a19b	0.010353471
78	0xbc23d115	-0.0099985795
79	0xbd19bc42	-0.037533052
80	0xb9631818	-0.00021657383
81	0x3dc4eb36	0.096151754
82	0x3d82aa40	0.06380129
83	0x3dc5f8bf	0.09666585
84	0xbbf1e347	-0.00738183
85	0x3d25c1da	0.040468074
86	0x3ddbe0af	0.10736214
87	0x3c654874	0.013994325
88	0xbd05735f	-0.03258073
89	0x3db9f958	0.09080762
90	0xbd584547	-0.052800443
91	0xbde10d9f	-0.10988926
92	0xbda05613	-0.07828917
93	0x3dfb391b	0.122667514
94	0xbcc9ab2d	-0.024617756
95	0x3c3f52d2	0.011677461
96	0xbd1338de	-0.035942905
97	0xbd4f0773	-0.050544214
98	0xbdbb3021	-0.09140039
99	0x3d2769ea	0.040872492
100	0x3c51c35e	0.012802927
101	0x3b076383	0.002065868
102	0xbbb59666	-0.0055416105
103	0xbdc5be85	-0.09655479
104	0x3d7b7fcd	0.061401177
105	0xbd193bd2	-0.037410565
106	0xbc9ef35b	-0.01940315
107	0x3d05ed5e	0.032697074
108	0x3cc3c6b0	0.023898453
109	0x3d5a9a5c	0.053369865
110	0x3dbbf9d2	0.09178509
111	0x3cccb7a5	0.024989912
112	0xbdbd73cb	-0.092506014
113	0x3dc20286	0.094731376
114	0xbd35272f	-0.04422682
115	0x3da4afd2	0.080413476
116	0xbceb9a8f	-0.028760223
117	0xbb90faf5	-0.0044244477
118	0x3cb302f2	0.02185199
119	0xbd9871f9	-0.074436136
120	0xbda76f25	-0.08175496
121	0xbccdf5aa	-0.025141556
122	0x3dbe2999	0.09285278
123	0xbd66e2c9	-0.056368623
124	0x3d9c8dd6	0.076442406
125	0xbc9f4d9e	-0.01944619
126	0xbd55f672	-0.05223698
127	0x3d7adc5f	0.06124532
128	0x3c9becbc	0.019033782
129	0xbb1ab3f8	-0.0023605805
130	0xbd38c81f	-0.045112725
131	0xbcd873a0	-0.026422322
132	0x3d81f065	0.0634468
133	0xbc89ce93	-0.016822135
134	0xbdbe705b	-0.09298774
135	0x3d0f1d5e	0.034940116
136	0x3d99f826	0.07518034
137	0x3da3de31	0.08001364
138	0xbd912c44	-0.07088521
139	0x3daed40a	0.08536537
140	0xbd9a2e24	-0.07528332
141	0xbd682bef	-0.056682523
142	0x3db45dc0	0.08806944
143	0x3cb81a14	0.022473373
144	0xbba18633	-0.004929328
145	0xbd9a7844	-0.0754247
146	0xbce19607	-0.027537359
147	0xbd7b09cb	-0.061288636
148	0x3d30bd0e	0.043149047
149	0xbd149b39	-0.036280844
150	0x3d8021c5	0.06256441
151	0x3db9e93a	0.090776876
152	0x3c991426	0.018686365
153	0x3ce59145	0.028023371
154	0x3d59152e	0.052998714
155	0x3c1cea1b	0.0095772995
156	0xbdbaf2b1	-0.09128321
157	0x3df28943	0.11842587
158	0x3d9033fb	0.070411645
159	0xbce48795	-0.027896682
160	0xbdab6202	-0.08368303
161	0xbda0fed8	-0.078611076
162	0x3bafc57c	0.005364118
163	0x3cc1fc94	0.023680009
164	0xbd5651e6	-0.0523242
165	0x3c87ded3	0.016585743
166	0xbd8efcbe	-0.069818005
167	0xbda6f892	-0.0815288
168	0x3d9fbf0f	0.078001134
169	0x3dacc483	0.08435919
170	0x3c8883f1	0.016664477
171	0xbc35a5b7	-0.011086873
172	0xbd2f1d71	-0.042752687
173	0x3db08b64	0.08620337
174	0x3d9a1a84	0.07524589
175	0x3d2df4e7	0.042469885
176	0x3dc7e381	0.0976019
177	0x3d828a96	0.063740894
178	0xbd8407ae	-0.06446777
179	0x3ccff528	0.025385454
180	0x3cb226b6	0.021746974
181	0xbc446e30	-0.011989161
182	0x3bcbfdef	0.0062253396
183	0x3d03457c	0.032048687
184	0x3dcab48d	0.098977186
185	0x3cbcf477	0.023065789
186	0x3dbc89ad	0.09205947
187	0x3ce9d1fd	0.028542513
188	0xbdc43d6f	-0.0958203
189	0x3cc4dadc	0.024030142
190	0xbda52200	-0.080631256
191	0xbdad5c1e	-0.084648356
192	0xbd65dcc1	-0.05611873
193	0xbc5c8a5d	-0.013460723
194	0xbd8fdb98	-0.07024306
195	0x3d406beb	0.04697792
196	0x3d266282	0.040621288
197	0xbd32054f	-0.043462094
198	0xbbfba991	-0.007680126
199	0xbd3cf907	-0.04613593
200	0xbdb3d534	-0.087809
201	0x3d8157de	0.063155875
202	0x3dcf0c97	0.10109823
203	0xbd354029	-0.04425064
204	0xbcd88d53	-0.026434576
205	0x3d8deef3	0.069303416
206	0xbd1cb3a6	-0.038257264
207	0xbddeca97	-0.10878485
208	0xbded1280	-0.11575794
209	0xbd98ad26	-0.074549004
210	0xbe1d5971	-0.1536615
211	0x3d5a0338	0.053225726
212	0x3cfa2f27	0.030540062
213	0xbdd35b6e	-0.10320173
214	0xbe609492	-0.21931675
215	0xbdc4e0a6	-0.09613161
216	0xbbd583f8	-0.006515976
217	0x3d7f9033	0.06239338
218	0x3d1c1421	0.038105134
219	0x3ddbcb1c	0.107320994
220	0xbc4c316f	-0.012462958
221	0x3d86e936	0.0658745
222	0x3dbf0f13	0.09329047
223	0xbe0caad7	-0.13737045
224	0x3c0a9343	0.0084579615
225	0xbbebb471	-0.007193141
226	0x3c56c188	0.013107665
227	0xbd191fc4	-0.03738381
228	0xbe1be8b7	-0.15225492
229	0x3d0c440f	0.034244593
230	0xbd33be3d	-0.043882597
231	0x3e3302f9	0.17481603
232	0xbe922db9	-0.2855051
233	0x3e1cf0c2	0.15326217
234	0x3cf81a73	0.03028605
235	0xbd23d43b	-0.03999732
236	0xbdb00329	-0.08594353
237	0x3daa2381	0.08307553
238	0x3df383db	0.11890384
239	0xbd89231d	-0.066961505
240	0x3d665bf8	0.056240052
241	0x3da50bd0	0.08058894
242	0xbc893a6b	-0.016751489
243	0x3bef1733	0.0072964667
244	0xbdb8c472	-0.09021844
245	0xbe0ac904	-0.13553244
246	0x3cad32ac	0.021142326
247	0x3dbdbf20	0.0926497
248	0x3da1eed9	0.07906885
249	0x3d71dcb0	0.059048355
250	0xbe004774	-0.12527257
251	0x3d05235b	0.03250442
252	0xbd83cc29	-0.06435425
253	0xbe7c0c42	-0.24614051
254	0x3e207860	0.1567092
255	0xbe537aa8	-0.20652258

mlp2.0.bias f4 [100]
0	0xbd9e8292	-0.07739748
1	0xbc898c1e	-0.016790446
2	0x3e84a9b2	0.25910717
3	0x3c161163	0.009159419
4	0x3da1e0f1	0.07904232
5	0x3b1ee10a	0.002424302
6	0x3da12b6f	0.078696124
7	0x3d3c963c	0.046041712
8	0xbce2301e	-0.027610835
9	0xbd5687e1	-0.052375678
10	0xbd9d6aea	-0.07686408
11	0xbdaf4f9a	-0.08560105
12	0x3dcd0c33	0.100120924
13	0xbdd99087	-0.106232695
14	0x3d1a5a56	0.037683807
15	0xbc97c8e1	-0.018528404
16	0x3dfe17de	0.12406896
17	0xbd8fe446	-0.070259616
18	0xbdd65613	-0.10465636
19	0xbd8d2206	-0.06891255
20	0x3b5f9330	0.003411483
21	0xbc5b3cd7	-0.013381205
22	0xbbd0cd67	-0.006372142
23	0xbd00883c	-0.031379923
24	0xbd6e771f	-0.05821907
25	0xbcac7234	-0.02105055
26	0xbd90f380	-0.07077694
27	0xbcbf5e01	-0.023360254
28	0x3c96e1d2	0.018418226
29	0xbd3f77f0	-0.04674524
30	0xbc16a221	-0.009193928
31	0xbd9f6d18	-0.0778448
32	0x3d9ffc6f	0.0781182
33	0xbd6f7997	-0.058465566
34	0xbd68ccce	-0.056835942
35	0x3d5b732e	0.05357664
36	0xbdf8a398	-0.12140578
37	0xbce3727e	-0.027764555
38	0x3d307aea	0.04308597
39	0xbb95d964	-0.004573034
40	0xbd8c6c12	-0.0685655
41	0xbd8e7e2c	-0.06957659
42	0x3e0e7060	0.13910055
43	0xbb338b8b	-0.0027396407
44	0x3ccb3b52	0.02480856
45	0xbdaf73a9	-0.08566982
46	0x3c8ab862	0.016933624
47	0xbd97b119	-0.074068256
48	0xbc481c4f	-0.012213781
49	0xbd095bbb	-0.033534747
50	0xbd7de3b3	-0.06198473
51	0x3de76391	0.11298288
52	0x3d41cecd	0.04731636
53	0x3ca715d9	0.02039616
54	0x3c6027bc	0.013681348
55	0x3da83406	0.08213048
56	0x3d135102	0.035965927
57	0x3d6b8f84	0.057509914
58	0xbb5072a0	-0.0031806603
59	0x3c12e1b8	0.008964948
60	0xbc9363da	-0.017991949
61	0xbcb63a81	-0.022244694
62	0x3db30cbd	0.08742664
63	0x3cd08316	0.025453132
64	0x39c8b3a9	0.0003828083
65	0xbbaa6a87	-0.0052006873
66	0x3c8f7240	0.017510533
67	0xbd16acc7	-0.036785867
68	0xbd9dcfe6	-0.07705669
69	0x3cedf07b	0.029045334
70	0xbda0dc8d	-0.07854567
71	0x3dcd12c3	0.10013344
72	0xbc4f2872	-0.01264392
73	0x3da6d803	0.0814667
74	0x3db68965	0.08912925
75	0xbd9f9182	-0.07791425
76	0x3d5749fc	0.05256079
77	0x3ca9e3ae	0.020738449
78	0xbd50ff1f	-0.051024552
79	0x3c892e0c	0.01674559
80	0x3c2a7589	0.010403999
81	0xbd96aca0	-0.07357144
82	0xbd632602	-0.05545617
83	0x3d95c4b5	0.073129095
84	0x3d71543b	0.05891822
85	0x3de37cc5	0.11107782
86	0x3d8a4744	0.06751874
87	0x3d0bf79b	0.03417168
88	0x3d8c2c16	0.06844346
89	0x3cb2c2df	0.021821437
90	0xbdc207f6	-0.09474175
91	0x3db9bbd8	0.090690315
92	0x3de65f49	0.11248643
93	0xbc4ce237	-0.012505106
94	0xbd4db540	-0.05022168
95	0xbd7fcb25	-0.062449593
96	0xbcbc65a6	-0.022997689
97	0x3b27d7fe	0.002561092
98	0x3d19c2af	0.03753918
99	0x3d61e304	0.05514814

mlp2.2.weight f4 [50, 100]
0	0xbdc25db3	-0.09490528
1	0xbbe3941a	-0.0069451453
2	0x3e5cae9c	0.21550983
3	0xbd94ccd4	-0.0726563
4	0x3d460814	0.048347548
5	0x3d3e8763	0.046515834
6	0x3ce0e5d5	0.027453342
7	0x3d96a57e	0.07355784
8	0xbd9721f5	-0.07379524
9	0xbd557254	-0.052110985
10	0x3c906579	0.017626511
11	0x3dcc504d	0.09976254
12	0x3e0fb11a	0.14032403
13	0xbbac67bd	-0.00526139
14	0xbc0baa5b	-0.008524503
15	0xbdf8bbe0	-0.12145209
16	0x3e2e0cb2	0.1699703
17	0xbe06e59e	-0.1317353
18	0x3bc4a84a	0.006001507
19	0xbdadb14b	-0.084810816
20	0x3dcfdad4	0.1014916
21	0xbd3dc0bd	-0.046326388
22	0xbd9aa13e	-0.07550286
23	0x3d50de10	0.050993025
24	0xbc4c9f29	-0.012489119
25	0x3dc37466	0.095436856
26	0xbdd7d58e	-0.10538779
27	0x3e1836e2	0.14864686
28	0xbda61bd9	-0.0811078
29	0xbd675ebd	-0.056486834
30	0xbc54a024	-0.012977634
31	0xbd715149	-0.05891541
32	0xbd07651c	-0.03305541
33	0xbda56642	-0.08076145
34	0x3d1fe29e	0.03903448
35	0xbdad6b2f	-0.08467709
36	0xbd7d7bd5	-0.061885674
37	0xbc3d7d76	-0.011565557
38	0x3d752677	0.059851136
39	0x3b74a0c5	0.0037327271
40	0x3c8e14f5	0.017343977
41	0x3d86bd33	0.06579056
42	0x3dcd26f5	0.10017196
43	0x3d94179a	0.07231064
44	0x3d6fe60e	0.058569007
45	0xbda488a7	-0.08033877
46	0xbc397cd6	-0.011321267
47	0xbd5fce4d	-0.054640103
48	0xbd0458b5	-0.03231116
49	0x3e19f5a4	0.1503511
50	0x3dd117cb	0.10209616
51	0xbb852228	-0.0040629096
52	0xbe28f560	-0.16499853
53	0x3c6d7e88	0.014495499
54	0x3c830faf	0.01599869
55	0xbd6e0dac	-0.058118507
56	0xbdb6a835	-0.08918802
57	0xbd1ffd8a	-0.039060153
58	0x3dd0eb0c	0.10201082
59	0xbbf63928	-0.007514138
60	0x3ce69ac6	0.028149974
61	0x3db2dbf7	0.08733361
62	0xbd876e29	-0.06612808
63	0xbc2802b4	-0.010254551
64	0xbd1187e1	-0.035529975
65	0xbd858d49	-0.06521089
66	0x3da185cd	0.078868486
67	0xbcaabf18	-0.020843074
68	0xbcece3ab	-0.028917154
69	0xbcf2c0bc	-0.029632919
70	0xbd900496	-0.07032125
71	0x3ce657ea	0.028118093
72	0x3da7e3c9	0.081977434
73	0x3e14db98	0.14536893
74	0xbc94f418	-0.0181828
75	0xbd66199c	-0.056176767
76	0xbdbb72f8	-0.09152788
77	0xbd0936e2	-0.033499606
78	0xbd36d462	-0.044636138
79	0xbd108f83	-0.035293113
80	0xbd981f99	-0.07427902
81	0xbd09897d	-0.033578385
82	0xbd070ab8	-0.032969207
83	0xbc92b8e3	-0.017910426
84	0xbda4b364	-0.080420285
85	0x3d4f2da2	0.05058063
86	0x3c5f5c23	0.013632807
87	0xbda69a61	-0.08134914
88	0xbde9f7c1	-0.114242084
89	0xbc13ffc1	-0.009033144
90	0xbe272a22	-0.16324666
91	0x3cf569b5	0.029957632
92	0x3caccf12	0.021094833
93	0xbb1cf496	-0.0023949496
94	0xbcb2c8d1	-0.021824272
95	0x3cfea80f	0.031085996
96	0xbd55d0a1	-0.052200917
97	0xbc332e92	-0.010936396
98	0xbc6b618c	-0.014366519
99	0x3d730845	0.05933406
100	0x3db53882	0.08848669
101	0xbd8d7120	-0.069063425
102	0xbe6f580c	-0.23373431
103	0x3d459775	0.048240144
104	0xbd8db3da	-0.069190696
105	0xbe03acd6	-0.128589
106	0x3d853fd6	0.06506316
107	0x3d5d52d3	0.054034065
108	0xbc36f4bf	-0.01116675
109	0x3d830c16	0.063987896
110	0xbc46b598	-0.012128256
111	0x3baa8a21	0.0052044545
112	0xbd1c7289	-0.038195167
113	0x3d71b061	0.0590061
114	0x3ddd2699	0.107983775
115	0x3d0d4253	0.03448708
116	0xbc8784c9	-0.01654281
117	0x3e0c0b5c	0.13676208
118	0x3b56e207	0.0032788531
119	0xbdd81078	-0.10550016
120	0xbc85094e	-0.016239788
121	0xbb56b23a	-0.003276004
122	0xbdb647d8	-0.08900422
123	0x3cbf218d	0.023331428
124	0x3e13d650	0.14437222
125	0x3d27b2ac	0.04094188
126	0x3dc0be75	0.09411327
127	0xbdf4e619	-0.1195795
128	0x3d9333fa	0.07187648
129	0x3dd8bba9	0.10582668
130	0x3dcc9afb	0.09990498
131	0x3bf480d6	0.0074616475
132	0xbdb904a2	-0.09034087
133	0xbcd2cb09	-0.02573158
134	0x3aaf0ae7	0.001335469
135	0x3d8e7252	0.069553986
136	0x3d143c27	0.03619018
137	0xbbbd7dc2	-0.0057828138
138	0x3dea2efe	0.11434744
139	0x3d916636	0.07099573
140	0x3d3009d1	0.04297811
141	0x3dbf7a1a	0.09349461
142	0xbdf24ce6	-0.118310735
143	0x3d402dc0	0.04691863
144	0x3c41d939	0.011831575
145	0xbd768db3	-0.06019373
146	0xbcac9043	-0.021064883
147	0xbca20af8	-0.019780621
148	0xbd01f37c	-0.031726345
149	0xbd105144	-0.03523375
150	0xbcab8df3	-0.02094171
151	0xbd0d8924	-0.034554616
152	0x3e116023	0.1419683
153	0x3cbae672	0.022814963
154	0x3cdff049	0.027336257
155	0xbb3ca6a3	-0.0028785847
156	0xbcc70caa	-0.02429803
157	0x3d0242ae	0.031801872
158	0x3d94057c	0.072276086
159	0xbd1b9db4	-0.037992194
160	0xbd48f85c	-0.04906498
161	0xbd460c48	-0.048351556
162	0xbd001d87	-0.03127816
163	0x3da3408b	0.07971295
164	0x3daa3be1	0.08312202
165	0xbd8fecbd	-0.07027576
166	0xbd05ecf9	-0.032696698
167	0x3dfb7438	0.12278026
168	0xbd284519	-0.04108152
169	0x3ca8e3fe	0.020616528
170	0x3decd4a0	0.115639925
171	0xbdf3517c	-0.11880776
172	0xbd8ded2e	-0.06930004
173	0xbd0bf975	-0.034173448
174	0xbc784522	-0.015153201
175	0xbdb9542a	-0.09049256
176	0x3d73961d	0.05946933
177	0xbc8ebe06	-0.017424595
178	0xbd0e017a	-0.034669377
179	0xbdbc79d1	-0.09202922
180	0xbd6cebdc	-0.05784212
181	0x3dc7ff3e	0.097654805
182	0x3d0d681a	0.034523107
183	0x3d4fbc79	0.05071685
184	0x3da8bbff	0.082389824
185	0x3cb98746	0.022647511
186	0x3dc9c300	0.098516464
187	0x3d2cec56	0.042217575
188	0x3cdf2a5a	0.027241874
189	0x3be47ea6	0.0069731055
190	0x3db1f996	0.08690183
191	0xbdce6d96	-0.100794956
192	0x3cf0acd5	0.029379288
193	0xbd72dddd	-0.059293617
194	0xbc308b0a	-0.010775337
195	0x3cf1c092	0.02951077
196	0x3d6a510f	0.05720621
197	0x3dc100f2	0.094240084
198	0x3dff8086	0.12475686
199	0xbbc9ae2a	-0.006154795
200	0xbd3073da	-0.043079235
201	0x3dd5562e	0.10416828
202	0x3e1be874	0.15225393
203	0xbd563066	-0.05229225
204	0x3dc4e088	0.096131384
205	0xbd42138e	-0.04738193
206	0x3d87d2e5	0.06632022
207	0xbdc0bf19	-0.09411449
208	0xbc9d7405	-0.019220361
209	0xbd11d973	-0.035607766
210	0x3da58923	0.080827974
211	0xbdaa02cf	-0.08301317
212	0x3d566c4e	0.05234938
213	0x3b5e43d0	0.003391493
214	0xbdc1e0f5	-0.09466735
215	0x3d826405	0.063667335
216	0x3dcf014f	0.101076715
217	0xbd897db4	-0.06713429
218	0x3da41165	0.0801113
219	0x3d07b9ce	0.03313618
220	0xbb02a3bd	-0.0019934021
221	0x3d52f59c	0.051503763
222	0x3dc51e37	0.09624904
223	0x3b8778b4	0.004134262
224	0xbdc6f47c	-0.097146004
225	0x3d787cbd	0.060665835
226	0x3db73a73	0.08946695
227	0x3ddd0379	0.10791678
228	0xbd92d015	-0.07168595
229	0xbd8b5b43	-0.06804516
230	0xbd3e98c3	-0.046532404
231	0x3c8d3e6a	0.017241675
232	0x3df756bb	0.120770894
233	0xbcfefdb0	-0.031126827
234	0xbd6288a7	-0.055306103
235	0x3c5bf9bc	0.0134262405
236	0x3cccde83	0.025008446
237	0xbd2ad73d	-0.041709173
238	0x3c34e2e9	0.011040428
239	0x3da0233c	0.078192204
240	0xbd871b36	-0.06596987
241	0x3d561a42	0.052271135
242	0xbd041f67	-0.03225651
243	0x3d888a73	0.06667032
244	0xbd8d19bb	-0.06889673
245	0xbd729313	-0.059222292
246	0xbd5f309a	-0.05448971
247	0x3e0b1b58	0.1358465
248	0x3d045a33	0.032312583
249	0x3dd306f6	0.10304062
250	0x3d9f8364	0.07788733
251	0xbd0caa5d	-0.03434216
252	0xbdabf0ae	-0.083955154
253	0x3d509c65	0.0509304
254	0x3dd31672	0.103070155
255	0xbcb31917	-0.02186255

mlp2.2.bias f4 [50]
0	0x3d384686	0.04498913
1	0x3ccaa606	0.02473737
2	0x3d7583b7	0.059940066
3	0x3d41c72c	0.047309086
4	0x3d97d7f6	0.07414238
5	0xbd7ec337	-0.06219789
6	0xbd90cf4e	-0.0707079
7	0x3dcac6b3	0.0990118
8	0x3dd52c98	0.10408896
9	0xbda5b84e	-0.08091794
10	0xbddada54	-0.10686174
11	0xbd738db7	-0.05946132
12	0xbd063a94	-0.03277071
13	0x3befe036	0.007320429
14	0xbd361151	-0.044450108
15	0x3e0d3267	0.13788758
16	0x3c5bcd1f	0.013415604
17	0xbdc269c0	-0.094928265
18	0xbbfb3c2c	-0.007667085
19	0xbd9a5690	-0.07536042
20	0x3d526ce8	0.051373392
21	0xbdc6710d	-0.096895315
22	0x3da5bc48	0.080925524
23	0x3d902c0c	0.07039651
24	0x3d97b1df	0.07406973
25	0xbdc49ea7	-0.09600573
26	0x3d441315	0.04786976
27	0x3d406cd6	0.046978794
28	0x3dae5a56	0.08513324
29	0xbd018435	-0.031620223
30	0x3e06da8b	0.13169305
31	0x3cf5e7a4	0.030017681
32	0xbd73cad1	-0.059519593
33	0x3d0de5ce	0.034642987
34	0x3b5eff20	0.0034026578
35	0xbc96b613	-0.018397367
36	0xbde33307	-0.11093717
37	0x3c69a587	0.014260656
38	0x3d5cf6e5	0.053946394
39	0xbd5b47f9	-0.053535435
40	0x3df9d500	0.1219883
41	0x3bf720c1	0.0075417464
42	0x3c005350	0.007832363
43	0xbd091417	-0.033466425
44	0x3d3085d4	0.04309638
45	0xbdc3bb10	-0.09557164
46	0xbdaf54f7	-0.08561128
47	0x3d045ec3	0.032316934
48	0x3c9c03d9	0.019044803
49	0xbd7b70e4	-0.061386958

attention.0.weight f4 [100, 200]
0	0x3d7bfeb3	0.061522197
1	0x3d215236	0.039385043
2	0x3d55206e	0.05203288
3	0xbd0f5af1	-0.034998838
4	0xbd4c0a76	-0.049814664
5	0xbc59d356	-0.013295015
6	0xbac5faaa	-0.0015104611
7	0xbbc72b09	-0.0060781282
8	0x3c8d2daa	0.017233688
9	0x3d961e68	0.07330018
10	0xbd4da068	-0.050201803
11	0xbcbfeb3f	-0.023427604
12	0x3d08b46b	0.033375185
13	0x3d472b7a	0.048625447
14	0xbc9df768	-0.019283012
15	0xbd5c49a8	-0.05378118
16	0x3996fe87	0.00028799867
17	0x3ce01550	0.027353913
18	0x3d650330	0.055911243
19	0xbbe0d025	-0.0068607503
20	0x3ca549dc	0.02017682
21	0x3d80df7c	0.06292626
22	0xbd65f9ea	-0.05614654
23	0x3d6ed1d8	0.05830559
24	0x3d19a1e1	0.037507895
25	0x3d53e447	0.051731374
26	0xbd848adf	-0.064718
27	0x3d4865a3	0.048925053
28	0xbd2abf7a	-0.041686513
29	0x3c1db493	0.009625572
30	0xbcb64657	-0.022250338
31	0x3d1c86f1	0.038214628
32	0xbd9bbec7	-0.07604747
33	0x3d9c3538	0.07627338
34	0xbd552792	-0.05203969
35	0x3ca66e52	0.020316277
36	0xbc1e37be	-0.009656845
37	0x3d7c7845	0.061638135
38	0x3b81eab3	0.003964746
39	0x3da75085	0.08169655
40	0x3d2bf186	0.04197838
41	0x3d2cc5af	0.042180713
42	0x3c84cc76	0.016210776
43	0x3d8f6e7c	0.07003495
44	0xbd27a2b1	-0.04092664
45	0xbd3fd42f	-0.046833213
46	0xbc3a0e11	-0.011355893
47	0x3cff346f	0.031152932
48	0xbd354ca2	-0.044262536
49	0xbd4bceec	-0.049757883
50	0x3d7b37e3	0.061332595
51	0xbd884ba6	-0.06655054
52	0x3d68ba8f	0.05681854
53	0xbd273cd4	-0.040829495
54	0xbc98ec16	-0.018667262
55	0xbc3e406f	-0.011612042
56	0x3c76f128	0.015072145
57	0x3d527244	0.051378503
58	0x3d2c8ff5	0.042129476
59	0xbc84cf0a	-0.016212005
60	0xbd1ab3fd	-0.037769306
61	0x3d63453e	0.055485956
62	0x3d8b96a4	0.06815842
63	0xbd13fbfb	-0.03612898
64	0xbd1a73ed	-0.03770821
65	0x3c16c387	0.009201891
66	0xbd4eb89b	-0.050469022
67	0x3c32d7bf	0.010915696
68	0x3d3530a0	0.044235826
69	0xbd8bce81	-0.06826497
70	0x3d13d31b	0.036089998
71	0xbd717a81	-0.05895472
72	0x3c929894	0.01789502
73	0x3cf7d964	0.030255027
74	0x3d2be0a4	0.04196228
75	0xbcd15ab0	-0.025555938
76	0xbc1e9478	-0.009678952
77	0xbb5dbba0	-0.0033833757
78	0x3d1abc85	0.037777442
79	0x3c32c5c1	0.010911406
80	0xbd0708d6	-0.03296741
81	0x3c75c883	0.015001419
82	0xbcdd1b1c	-0.026990466
83	0xbb674fdf	-0.003529541
84	0x3d9a15d3	0.07523694
85	0xbcbfe3bf	-0.023424027
86	0xbd8b4d23	-0.06801822
87	0xbd05632f	-0.032565292
88	0x3c978338	0.018495187
89	0xbc8af231	-0.016961189
90	0x3c589c74	0.013220895
91	0x3d8bf651	0.068340905
92	0xbc179459	-0.009251677
93	0xbbceabd0	-0.0063071027
94	0xbc80276a	-0.015643794
95	0x3b87f5ef	0.0041491906
96	0x3da6d1c0	0.081454754
97	0x3d80fd4f	0.06298315
98	0xbd4dc0d6	-0.05023273
99	0x3da6c81f	0.08143639
100	0x3c9aa406	0.01887704
101	0x3c099310	0.008396879
102	0xbd0a10ff	-0.033707615
103	0xbc1ce475	-0.009575953
104	0xbd05eef5	-0.03269859
105	0xbd2fc00d	-0.042907763
106	0xbd27762f	-0.040884193
107	0x3d2dcfe3	0.042434584
108	0xbd34237a	-0.043979146
109	0xbced6e4f	-0.028983263
110	0x3b08ef16	0.002089446
111	0x3c998e28	0.018744543
112	0xbd37b5c8	-0.044851094
113	0x3d987840	0.07444811
114	0x3cd737e0	0.02627176
115	0xbd5b4648	-0.053533822
116	0x3ca728b1	0.020405145
117	0xbd244e44	-0.040113702
118	0x3d953545	0.07285551
119	0x3ceed588	0.029154554
120	0xbc39fff5	-0.011352529
121	0x3b98fb76	0.0046686484
122	0xbceada8e	-0.028668668
123	0xbb8bd9bd	-0.0042679
124	0x3b8108d1	0.0039378186
125	0x3bff3296	0.0077880127
126	0xbc7ce4e2	-0.015435429
127	0x3cb16e90	0.021659166
128	0x3d1e7d55	0.038693745
129	0x3c9b5f23	0.018966263
130	0x3cb6c925	0.02231271
131	0xba443e56	-0.00074860954
132	0x3d4a179b	0.04933892
133	0xbd50e68b	-0.051001113
134	0xbd3a9ca0	-0.045559525
135	0x3d1c5eea	0.038176455
136	0xbc1d7073	-0.0096093295
137	0x3d87fcca	0.066400126
138	0xbd1db97a	-0.038506962
139	0xbaa82c56	-0.0012830596
140	0x3d810625	0.063
141	0x3d39273f	0.045203444
142	0xbd827975	-0.06370822
143	0xbd1556fb	-0.036459904
144	0xbd23b056	-0.03996309
145	0xbce87d79	-0.028380143
146	0xbd495fe4	-0.049163714
147	0x3c849082	0.016182188
148	0xbd7ef2e4	-0.062243357
149	0xbd08ec4f	-0.033428486
150	0xbd310a7d	-0.043222893
151	0xbb872ee2	-0.004125462
152	0x3c9d1d9e	0.019179162
153	0xbc83a2bc	-0.016068809
154	0xbd05c969	-0.032662783
155	0x3d8a18f4	0.06743041
156	0x3c88e4fc	0.01671075
157	0xbd570109	-0.05249122
158	0xbd495e52	-0.049162216
159	0x3b7d1c84	0.0038621733
160	0x3cd3cd6b	0.025854787
161	0xbd0e574e	-0.03475123
162	0x3d08dad0	0.0334118
163	0xbd1328fc	-0.035927758
164	0xbcc751ea	-0.024331052
165	0x3bfd024e	0.007721222
166	0xbd592976	-0.053018056
167	0xbd2205a6	-0.039556168
168	0xbd46c8ca	-0.04853133
169	0xbd8cd75d	-0.06877015
170	0x3d4a1287	0.049334075
171	0x3d226d3a	0.039654948
172	0x3cb25bcd	0.02177229
173	0x3cbbf754	0.022945084
174	0xbcb95c08	-0.022626892
175	0xbcbc6631	-0.022997947
176	0x3d544d68	0.051831633
177	0x3d6fcdd6	0.05854591
178	0xbcb66605	-0.022265444
179	0x3d9ad1e1	0.075595625
180	0xbca2b2e0	-0.019860685
181	0x3a02a80f	0.0004984149
182	0x3c20865c	0.009797659
183	0x3d822b04	0.06355861
184	0xbbffffce	-0.0078124767
185	0xbb811d53	-0.0039402633
186	0x3d122096	0.035675608
187	0xbd21335a	-0.039355613
188	0x3c279050	0.010227278
189	0xbb91683b	-0.004437474
190	0xbb569332	-0.0032741544
191	0xbbcc937d	-0.006243168
192	0x3d8d366a	0.06895144
193	0xbd0522d8	-0.032503933
194	0xbcf04f57	-0.029334707
195	0xbd504e53	-0.050855946
196	0x3d8f97af	0.07011353
197	0x3d74d89b	0.059776884
198	0xbd897517	-0.06711786
199	0x3ca5104d	0.020149374
200	0xbd855df4	-0.06512061
201	0xbd4059e9	-0.046960745
202	0xbd35debe	-0.044401877
203	0x3d420f87	0.04737809
204	0xbcec922e	-0.028878298
205	0xbd192ea6	-0.037398003
206	0x3cff94f7	0.031198962
207	0x3d0e7bb3	0.034785938
208	0xbc07144d	-0.008244586
209	0x3d16988b	0.03676657
210	0xbc1c4188	-0.009537108
211	0x3c4866a1	0.0122315
212	0xbcdce2f6	-0.026963692
213	0xbd4ff97f	-0.050775047
214	0x3cbd2ebe	0.023093577
215	0x3cf232ae	0.029565182
216	0x3d42edc4	0.047590032
217	0xbb8cfeed	-0.0043028505
218	0xbd739df4	-0.059476808
219	0x3d2239b3	0.039605808
220	0x3c31c943	0.010851207
221	0x3d4b9c93	0.049709868
222	0xbd48eeb6	-0.049055777
223	0xbbd5de0e	-0.006526715
224	0xbd279b07	-0.04091933
225	0x3d43b9b8	0.047784537
226	0x3b7b0a23	0.0038305603
227	0x3d34adf3	0.044111203
228	0xbd04e053	-0.032440495
229	0xbd6d083e	-0.05786919
230	0xbd307adb	-0.043085914
231	0x3d8c5ad2	0.0685326
232	0xbd954566	-0.07288627
233	0x3d32082f	0.043464836
234	0x3cc8bd02	0.024504188
235	0x3c999c14	0.018751182
236	0x3d753013	0.0598603
237	0x3d308e97	0.043104734
238	0xbc2d798c	-0.010588061
239	0xbcfa5c47	-0.03056158
240	0xbb175804	-0.0023093233
241	0xbd7342e1	-0.059389953
242	0xbd8a929f	-0.06766247
243	0x3d4e3186	0.050340198
244	0xbd4f5068	-0.05061379
245	0xbcd43046	-0.025901925
246	0xba1488fe	-0.00056661654
247	0x3b041df1	0.0020159448
248	0xbd0dc4c9	-0.034611497
249	0xbd84a574	-0.0647687
250	0x3d289b0c	0.04116349
251	0xbca0215d	-0.019547159
252	0x3bfa724b	0.0076430193
253	0x3b356699	0.0027679561
254	0x3d9019b3	0.07036152
255	0xbc8ad071	-0.016945096

attention.0.bias f4 [100]
0	0x3d2c307c	0.042038426
1	0x3d3d4a75	0.046213586
2	0x3d65c04b	0.056091588
3	0x3d17e891	0.037087027
4	0xbd4004ca	-0.046879567
5	0x3d543dfa	0.051816918
6	0xbd824b57	-0.06362026
7	0xbd85b8ef	-0.06529414
8	0xbcc53be7	-0.024076415
9	0xbd8c0b3f	-0.068380825
10	0xba8bca1f	-0.0010665095
11	0x3cc4535b	0.023965528
12	0x3d425840	0.047447443
13	0x3b3a79f0	0.0028454028
14	0x3cc3c72e	0.023898687
15	0x3d7ffa84	0.06249477
16	0xbc829ba8	-0.015943363
17	0x3c231acf	0.009955122
18	0xbce558b7	-0.027996404
19	0x3ce0fd5e	0.027464565
20	0x3d09e223	0.033662926
21	0xbd74ec32	-0.059795566
22	0xbd94af07	-0.07259946
23	0x3d18c4a9	0.037296925
24	0x3d250c8d	0.040295172
25	0x3d865b13	0.0656034
26	0x3cfa5f69	0.030563073
27	0xbb455adf	-0.0030113978
28	0x3d82ca27	0.06386214
29	0xba38bb3e	-0.0007046944
30	0x3d682de7	0.0566844
31	0x3c233795	0.009961982
32	0xbd2c7b06	-0.04210951
33	0x3d5d41cd	0.05401783
34	0x3c6ad27f	0.014332413
35	0x3ce39321	0.027780117
36	0xbd9705f2	-0.07374181
37	0x3ba4065d	0.0050056414
38	0xbd7a42d9	-0.061098907
39	0x3bf9fbc0	0.007628888
40	0xbd884120	-0.066530466
41	0xbbf27326	-0.0073989807
42	0x3da65573	0.08121767
43	0xbd52de98	-0.051481813
44	0xbc99beb1	-0.018767687
45	0xbd7c2255	-0.06155618
46	0xbc640164	-0.013916347
47	0xbcc1bd21	-0.023649754
48	0xbd4162de	-0.047213428
49	0x3d3b9884	0.045799747
50	0x3d89800a	0.06713875
51	0xbca6156e	-0.02027389
52	0xbd0f650d	-0.03500848
53	0xbac0febf	-0.0014724358
54	0x3bb00e1a	0.005372775
55	0x3cf6cef7	0.030127985
56	0x3dbe7b8f	0.09300911
57	0xbd5b0679	-0.05347297
58	0x3d7957e3	0.06087483
59	0xbd73de58	-0.059538215
60	0x3d51e8e4	0.051247492
61	0xbd8adcd6	-0.06780402
62	0xbd8f6d07	-0.07003217
63	0x3cac93ae	0.021066513
64	0x3c86d687	0.016459716
65	0xbd4b4eac	-0.049635574
66	0x3c021a54	0.007940847
67	0xbc9290e1	-0.01789135
68	0xbd004222	-0.03131307
69	0x3ae0e8f8	0.0017159274
70	0x3c57f67f	0.013181328
71	0x3c69863f	0.014253198
72	0x3d9fc78b	0.07801732
73	0x3d57c575	0.052678544
74	0x3c3fa531	0.0116971
75	0x3cdd8331	0.027040096
76	0xbd49384d	-0.04912596
77	0xbd40634d	-0.0469697
78	0x3d461315	0.04835804
79	0xbc12478b	-0.00892819
80	0x3cd8381b	0.02639394
81	0xbb078b40	-0.0020682365
82	0xbc95f712	-0.018306289
83	0x3c38dd9b	0.011283304
84	0xbad0a415	-0.0015918041
85	0x3d3ebc70	0.046566427
86	0xbd67528d	-0.05647521
87	0x3d207f9b	0.039184194
88	0x3d90e831	0.07075537
89	0xbd5ab472	-0.053394742
90	0xbd98fb30	-0.07469785
91	0x3d7383ac	0.059451744
92	0x3c4f73c9	0.012661883
93	0x3d13ed4c	0.036114976
94	0x3c18cdb3	0.009326386
95	0xbd83cc6a	-0.06435473
96	0xbd24f406	-0.04027178
97	0xbd533875	-0.051567513
98	0xbc8364b3	-0.016039228
99	0x3cb4465d	0.022006208
