crowd_nav/data/output_cadrl2/il_model.pth (torch, 112844 bytes, 7 tensors)

value_network.0.weight f4 [150, 13]
0	0x3e609179	0.21930493
1	0xbd693c6a	-0.05694238
2	0x3e3a95d9	0.18221225
3	0xbe89e319	-0.26931074
4	0xbdaccb99	-0.08437271
5	0x3e8ebebe	0.278799
6	0xbe87265a	-0.26396447
7	0x3c9c1f99	0.019058036
8	0x3e744f51	0.23858382
9	0x3debe141	0.11517573
10	0x3e51e420	0.20497179
11	0x3e354e87	0.17705737
12	0x3e334bdc	0.17509407
13	0x3e230c73	0.15922718
14	0xbd354f02	-0.0442648
15	0x3e8c44d5	0.27396265
16	0x3d029300	0.03187847
17	0x3e025f13	0.1273158
18	0xbe673dcc	-0.22582167
19	0xbdeca6da	-0.11555262
20	0x3e8c55f5	0.2740933
21	0x3b13d9f3	0.0022560328
22	0x3d91d22d	0.07120166
23	0xbc82a0ed	-0.015945876
24	0xbe366ac1	-0.17814161
25	0xbe40055c	-0.18752044
26	0xba996e97	-0.0011705932
27	0x3e58a3c5	0.21156223
28	0x38f04128	0.00011456228
29	0x3e0e4858	0.13894784
30	0x3de003db	0.10938235
31	0xbe88d8af	-0.26727816
32	0x3c21a5c9	0.009866186
33	0xbe509e58	-0.20372903
34	0x3db86d7d	0.09005258
35	0x3e1895d3	0.14900903
36	0xbc0ff169	-0.008785584
37	0xbe4eda99	-0.20200576
38	0x3d9873c1	0.07443953
39	0x3df13283	0.117772125
40	0x3e03ecb8	0.1288327
41	0x3d40b287	0.047045257
42	0x3e4aa76a	0.19790426
43	0x3e499ce3	0.19688754
44	0x3de93720	0.113874674
45	0xbe85a596	-0.26102895
46	0x3de494ec	0.11161217
47	0xbe7c11a0	-0.24616098
48	0x3e2590b9	0.16168489
49	0x3d1eb989	0.03875116
50	0x3e3574ef	0.17720388
51	0x3dd76fb4	0.105193526
52	0x3d362fdd	0.04447924
53	0x3e8df28c	0.2772411
54	0x3e175c81	0.14781381
55	0xbe171b2b	-0.14756458
56	0x3e0c4a08	0.13700116
57	0x3e6c0785	0.23049743
58	0xbe7819ed	-0.2422864
59	0x3e5a98cb	0.21347348
60	0xbe8ddd7a	-0.27708036
61	0x3c53a811	0.012918488
62	0xbe8cf238	-0.27528548
63	0x3e890600	0.2676239
64	0x3db24952	0.08705391
65	0xbd6ff459	-0.058582637
66	0xbde7a789	-0.11311252
67	0x3b61291e	0.0034356783
68	0xbe11337d	-0.14179797
69	0xbe11537d	-0.14192005
70	0xbc149545	-0.009068792
71	0x3df6ae72	0.120449916
72	0x3e4c5cca	0.19957271
73	0xbe1333c1	-0.14375211
74	0xbe3d4595	-0.18483575
75	0x3de2f814	0.110824734
76	0x3e96745f	0.2938566
77	0xbe84db40	-0.25948524
78	0x3e8f228d	0.27956048
79	0xbe008c58	-0.12553537
80	0x3d64b0ee	0.055832796
81	0xbe80bfd9	-0.25146368
82	0xbe072841	-0.1319895
83	0xbe40476a	-0.18777242
84	0x3e89ee51	0.26939633
85	0xbe6f6f04	-0.23382193
86	0x3dbbba46	0.09166388
87	0xbe5438d8	-0.20724809
88	0xbe439e5b	-0.19103377
89	0xbe71f622	-0.23629048
90	0x3e6a1254	0.22858554
91	0x3d3b854c	0.04578142
92	0x3e310b02	0.17289355
93	0x3cd538ff	0.026028154
94	0x3e15916a	0.14606252
95	0x3e17bed9	0.14818896
96	0xbadc928e	-0.0016828345
97	0x3e8fe033	0.28100738
98	0x3e35fa42	0.17771247
99	0x3d77de13	0.06051452
100	0x3e3c2d6e	0.18376705
101	0x3e652263	0.22376399
102	0xbe32f2bc	-0.17475408
103	0xbd060240	-0.03271699
104	0x3e1418fd	0.14462657
105	0x3d22cfb7	0.039748874
106	0xbdbd0763	-0.092299245
107	0xbd761066	-0.060074233
108	0x3db0e17b	0.08636757
109	0xbe131647	-0.14363967
110	0x3d1d0883	0.038338196
111	0x3e15d4d9	0.14631976
112	0x3daed57a	0.08536811
113	0x3df4bb36	0.1194977
114	0xbe067b26	-0.13132915
115	0x3e0a948b	0.13533227
116	0xbb06714a	-0.0020514303
117	0xbe4bac5b	-0.19889967
118	0x3e5deb64	0.21671826
119	0xbe30f841	-0.17282201
120	0xbd86e9fb	-0.06587597
121	0xbe6143db	-0.21998541
122	0xbd7ecd17	-0.062207308
123	0xbe3db488	-0.18525898
124	0xbdea2ba8	-0.11434108
125	0xbe468914	-0.19388229
126	0xbd81a7ef	-0.06330859
127	0xbd215ae2	-0.039393313
128	0x3e010852	0.1260083
129	0xbdf71801	-0.12065125
130	0xbd92b67b	-0.07163712
131	0x3e4da70a	0.20083252
132	0xbe2aeffd	-0.16693111
133	0xbe52af01	-0.20574571
134	0x3d952469	0.07282335
135	0xbd19ef9a	-0.037582017
136	0xbd831f88	-0.064024985
137	0xbd820fdb	-0.063506804
138	0xbe30ccec	-0.17265671
139	0x3dfd211e	0.12359832
140	0x3da1cd17	0.07900446
141	0x3dce0d1f	0.100610964
142	0x3e87450b	0.26419863
143	0xbe92a3da	-0.28640634
144	0x3e5ca6a8	0.2154795
145	0x3da41f51	0.08013786
146	0x3d14ed31	0.036359016
147	0xbd824057	-0.06359928
148	0x3dc384fe	0.095468506
149	0x3dd7d70e	0.10539065
150	0xbe0f634a	-0.1400272
151	0x3e1168ef	0.14200185
152	0x3de14566	0.10999565
153	0xbdebfe6a	-0.11523135
154	0x3e812e7b	0.25230774
155	0xbda061e6	-0.07831173
156	0xbe5b856e	-0.21437618
157	0xbde6617a	-0.11249061
158	0x3d6abc7a	0.05730865
159	0xbe576620	-0.21035051
160	0xbd6be05b	-0.05758701
161	0xbdf540f9	-0.11975283
162	0xbe696324	-0.22791725
163	0xbda63422	-0.08115412
164	0x3e83fe7f	0.25780103
165	0xbe19abfc	-0.15007013
166	0x3dcdc6d0	0.10047686
167	0xbc262b62	-0.010142179
168	0x3d2b829f	0.041872617
169	0xbe6a1839	-0.22860803
170	0x3e62477a	0.22097579
171	0x3bc0bdf8	0.005882021
172	0x3cd211d5	0.025643269
173	0xbd597da8	-0.05309835
174	0xbc34f8b6	-0.011045625
175	0x39dfdfc9	0.00042700607
176	0x3e337c6c	0.17527932
177	0x3e8351dc	0.2564839
178	0x3e835a22	0.25654703
179	0x3da32b3a	0.07967229
180	0x3e83d678	0.25749564
181	0xbd5e572e	-0.05428236
182	0xbddefb23	-0.10887744
183	0x3d874334	0.06604615
184	0xbe8810ad	-0.26575223
185	0x3d5847f1	0.052802984
186	0xbe1d2b1f	-0.1534848
187	0xbe4e2327	-0.20130597
188	0xbdafa5e4	-0.08576563
189	0xbe2efe4c	-0.17089194
190	0xbe67f36a	-0.22651449
191	0x3e5113e5	0.20417745
192	0xbe820e7d	-0.2540168
193	0xbdf2ce3c	-0.11855742
194	0xbe50c0bc	-0.20386022
195	0xbd01f269	-0.03172532
196	0xbdeb6e80	-0.114956856
197	0x3b3bed26	0.0028675287
198	0xbd8734ca	-0.066018656
199	0x3d1a2c07	0.037639644
200	0x3d5ad4bc	0.053425536
201	0x3dfd732e	0.123754844
202	0x3d979d3d	0.07403038
203	0x3e0ba3e8	0.13636744
204	0x3d2d8c4c	0.042370126
205	0x3e1949ed	0.14969607
206	0xbe38295b	-0.17984526
207	0xbd6bb476	-0.057545148
208	0x3e863e75	0.26219526
209	0xbe628448	-0.22120774
210	0xbe42b038	-0.19012535
211	0xbd0008cc	-0.03125839
212	0x3e86dafd	0.2633895
213	0xbe01b567	-0.12666856
214	0x3e74e4ac	0.23915356
215	0xbda78c6a	-0.08181079
216	0x3e253de3	0.16136889
217	0x3d147970	0.036248624
218	0xbd9e5f38	-0.07733005
219	0xbe850a06	-0.2598421
220	0xbe795f7e	-0.24352834
221	0xbe150184	-0.1455136
222	0x3d66827b	0.05627678
223	0xbdba583c	-0.090988606
224	0x3da3bc60	0.07994914
225	0xbbbedc49	-0.0058246
226	0x3b74ab74	0.003733364
227	0xbe09836b	-0.13429038
228	0xbe099cd7	-0.13438736
229	0x3df254e3	0.11832597
230	0xbe786855	-0.2425855
231	0xbe6d2ce0	-0.2316165
232	0x3e880888	0.2656901
233	0xbca1cf16	-0.019752067
234	0x3def1ab5	0.11675016
235	0x3e7ca430	0.24672008
236	0x3d85b907	0.06529432
237	0x3dae6d09	0.085168906
238	0xbe5ea995	-0.21744378
239	0xbdac9e57	-0.084286384
240	0x3e585dd4	0.21129543
241	0xbe93cd16	-0.28867406
242	0x3e0e5f89	0.13903631
243	0x3d6dcd92	0.058057375
244	0x3dfec406	0.12439732
245	0x3dec9218	0.11551303
246	0xbe21bfb6	-0.15795788
247	0x3e7563af	0.23963808
248	0x3de23871	0.110459216
249	0xbe2c255f	-0.16811131
250	0x3db76e4c	0.08956584
251	0x3e2817d8	0.16415346
252	0xbd3b90f7	-0.045792546
253	0xbd15596b	-0.03646223
254	0x3e5fedc8	0.2186805
255	0x3e2ce835	0.16885455

value_network.0.bias f4 [150]
0	0xbd2f1606	-0.042745613
1	0xbe6fefa0	-0.23431253
2	0x3e730101	0.23730852
3	0xbdacd9c1	-0.08439971
4	0x3dacb968	0.08433801
5	0x3d005e53	0.031339955
6	0xbd756510	-0.059910834
7	0xbe81ee0a	-0.25376922
8	0x3e58c71f	0.21169709
9	0xbe2bf2d2	-0.16791847
10	0xbe6a7035	-0.22894366
11	0x3d793be2	0.060848124
12	0xbd525b78	-0.051356763
13	0xbe5d01de	-0.21582744
14	0x3e221768	0.15829241
15	0xbdcb4094	-0.09924427
16	0x3d942a77	0.07234662
17	0x3e773007	0.24139415
18	0xbdeca8f1	-0.115556605
19	0x3c93861e	0.018008288
20	0xbd63bd42	-0.055600412
21	0x3e55f3e9	0.20893826
22	0xbd28d16c	-0.041215345
23	0x3e5a7055	0.21331914
24	0x3ddc4779	0.1075582
25	0x3d0fb4b9	0.03508446
26	0xbe88ab3a	-0.26693135
27	0x3e890835	0.26764074
28	0x3e1aab8e	0.15104505
29	0xbe100520	-0.14064455
30	0xbe6853dd	-0.22688241
31	0x3e2f2666	0.17104492
32	0x3e84ec43	0.25961503
33	0xbe6ac05b	-0.2292494
34	0x3d96c1a7	0.07361155
35	0xbe15db20	-0.14634371
36	0x3d95a907	0.0730763
37	0xbe7d0b83	-0.24711423
38	0xbe7e0871	-0.24807908
39	0xbe290910	-0.16507363
40	0x3e0346bc	0.12819952
41	0x3e354f4a	0.17706028
42	0x3e69e415	0.22840913
43	0x3e17ecb7	0.14836393
44	0x3e7cacdd	0.24675317
45	0xbe09a355	-0.13441212
46	0x3e7a7e77	0.24462305
47	0xbc996954	-0.018726982
48	0x3e8008f4	0.2500683
49	0xbcb6677e	-0.022266146
50	0x3e45100e	0.19244406
51	0xbe442cde	-0.1915774
52	0x3c8c1182	0.017098192
53	0x3e095eb9	0.1341504
54	0xbdf5e63d	-0.12006805
55	0x3e02795d	0.12741609
56	0x3e7eca41	0.24881841
57	0x3e224d26	0.15849742
58	0xbde77a56	-0.113026306
59	0x3e835576	0.2565114
60	0xbe310aff	-0.17289351
61	0xbe788736	-0.24270329
62	0xbe3f4b74	-0.18681127
63	0x3c0c5b19	0.008566641
64	0xbdbe49b3	-0.09291401
65	0xbe45ca13	-0.19315366
66	0xbe0d9d77	-0.138296
67	0x3e00f3e6	0.1259304
68	0x3e7cea13	0.24698667
69	0xbdd4431e	-0.10364364
70	0x3e5c8b65	0.2153755
71	0xbdfe7724	-0.12425068
72	0x3d77edfd	0.060529698
73	0x3d958971	0.073016055
74	0x3df6c463	0.120491765
75	0xbdeff785	-0.117171325
76	0xbcfbf1d6	-0.030754965
77	0xbbb1b6f3	-0.0054234206
78	0xbe672745	-0.22573574
79	0xbe58a644	-0.21157175
80	0x3e2536e4	0.1613422
81	0x3e2a4c8e	0.16630766
82	0x3e3f570e	0.18685552
83	0xbcaae69a	-0.020861913
84	0xbe52f285	-0.20600326
85	0xbd9769ae	-0.07393204
86	0xbe121de7	-0.1426922
87	0x3e554818	0.20828283
88	0x3e86838a	0.2627223
89	0xbdaf54e6	-0.08561115
90	0xbe67c53b	-0.22633831
91	0x3963ef18	0.00021737476
92	0xbe41155f	-0.18855809
93	0xbe69e07e	-0.22839543
94	0xbe541ccd	-0.20714112
95	0x3dbccc46	0.092186496
96	0xbc914209	-0.017731683
97	0x3d675ca8	0.05648485
98	0x3e8103b9	0.25198153
99	0xbd790238	-0.06079313
100	0x3e7d1cde	0.24718043
101	0x3d88b038	0.06674236
102	0xbe73ae1c	-0.23796886
103	0x3e200c75	0.15629752
104	0xbd8bafab	-0.068206154
105	0xbe978bce	-0.2959885
106	0xbe8b8aa9	-0.27254227
107	0x3e9676e6	0.29387587
108	0x3d07fb63	0.033198725
109	0xbe78ff28	-0.24316084
110	0x3cf59ba5	0.029981444
111	0x3e39adf6	0.18132767
112	0xbe3b1ea5	-0.18273409
113	0xbac2ffd3	-0.0014877267
114	0xbe4f67cb	-0.20254438
115	0x3e6135ca	0.21993175
116	0xbd3d3edd	-0.04620253
117	0xbc92d621	-0.01792437
118	0x3d174fe4	0.036941424
119	0xbb9b4931	-0.0047389497
120	0xbe4e57f9	-0.20150746
121	0x3e34594b	0.17612188
122	0x3e7b9f7f	0.24572562
123	0xbe44fef8	-0.19237888
124	0x3dc1cc04	0.09462741
125	0x3ce4b178	0.027916655
126	0xbe0bf22e	-0.13666603
127	0xbcff5412	-0.031168018
128	0xbc9992a6	-0.018746685
129	0xbdfc2641	-0.12311984
130	0xbe42a8f7	-0.19009767
131	0x3e1bcfff	0.15216063
132	0x3e8c40b6	0.2739312
133	0xbdb6e1e0	-0.08929801
134	0x3e186bc6	0.14884862
135	0xbe37a186	-0.1793271
136	0x3d045d84	0.032315746
137	0x3e2948d0	0.16531682
138	0x3daf52e1	0.0856073
139	0xbe22e38f	-0.15907119
140	0xbd144e85	-0.036207695
141	0x3dc1d690	0.09464753
142	0x3e1f76d4	0.15572673
143	0xbddbd0d5	-0.10733191
144	0xbdbb1031	-0.09133948
145	0xbd19f1ef	-0.03758424
146	0xbc9d8ac6	-0.019231211
147	0x3e1e72e9	0.15473522
148	0xbde1315c	-0.10995743
149	0x3d46bdc3	0.048520815

value_network.2.weight f4 [100, 150]
0	0xbc34d315	-0.011036654
1	0xbd423353	-0.047412228
2	0xbd54c0ff	-0.051941868
3	0xba481bf8	-0.0007633562
4	0xbd888ee3	-0.066678785
5	0xbd970f02	-0.073759094
6	0xbd8d8886	-0.069108054
7	0xbc20e33a	-0.0098198
8	0xbd5d7e78	-0.054075688
9	0xbc801709	-0.015635984
10	0xbcd96bb4	-0.026540615
11	0xbb2e69d5	-0.0026613374
12	0xbc8f6462	-0.017503921
13	0x3d858b2f	0.06520688
14	0x3d1799a8	0.037011772
15	0xbc328527	-0.010896004
16	0xbbec022e	-0.0072024083
17	0xbd87a1a0	-0.066226244
18	0xbc494669	-0.0122848535
19	0xbd255369	-0.04036275
20	0xbd28085e	-0.041023605
21	0xbd79bb29	-0.060969505
22	0x3d696be8	0.056987673
23	0xbd68944a	-0.056782044
24	0xbd9043e4	-0.07044199
25	0x3d9bf28c	0.076146215
26	0xbd55de74	-0.0522141
27	0x3d956768	0.07295114
28	0xbcb32976	-0.021870356
29	0x3d20440f	0.039127406
30	0xbc573b70	-0.01313673
31	0x3d54f872	0.05199475
32	0x3c21b56f	0.009869917
33	0x3b8287c7	0.003983471
34	0xbc15e224	-0.009148154
35	0xbc17312e	-0.009228034
36	0xbd52cb4f	-0.05146342
37	0xbd9c7e70	-0.076413035
38	0xbd554edb	-0.052077156
39	0x3d3ac73a	0.045600154
40	0xbd04f7b9	-0.03246281
41	0x3c3f9c76	0.011695018
42	0xbd26b243	-0.040697347
43	0x3c0b0bdd	0.008486715
44	0xbcdc46de	-0.02688926
45	0xbc5cb936	-0.013471892
46	0x3d9ee97b	0.077593766
47	0xbd37c0f6	-0.044861756
48	0xbd5f0d50	-0.054456055
49	0x3d00cb34	0.03144379
50	0xbd635646	-0.0555022
51	0x3ce4b5f9	0.027918803
52	0xbd81483e	-0.06312607
53	0x3d21198d	0.039331008
54	0x3c35e889	0.011102804
55	0xbd4169d4	-0.047220066
56	0x3d37bea0	0.04485953
57	0x3c977860	0.018490016
58	0x3d800464	0.062508374
59	0x3cd2fbaa	0.025754768
60	0xbd58c160	-0.05291879
61	0xbca6db93	-0.020368373
62	0x3cfaa08a	0.03059413
63	0x3be90fd7	0.007112484
64	0x3d9980ac	0.07495245
65	0x3cdf88f8	0.027286991
66	0xbca7b117	-0.020470185
67	0x3c37be62	0.011214824
68	0xbd334397	-0.04376563
69	0x3cbe3759	0.023219751
70	0x3cefe633	0.029284572
71	0x3c9ca17e	0.019119974
72	0x3d5f3af6	0.05449959
73	0x3cead01d	0.02866369
74	0xbda0b463	-0.07846906
75	0xbd3b8de9	-0.045789633
76	0xbce71633	-0.028208828
77	0x3d4c38e7	0.049858954
78	0x3d9d71b2	0.07687701
79	0xbc96d682	-0.018412832
80	0x3d2c34aa	0.042042412
81	0xbd9c4b2c	-0.076315254
82	0xbd36dbe2	-0.04464329
83	0xbda4ad9b	-0.08040925
84	0x3cf6b721	0.03011662
85	0x3cb351ae	0.021889534
86	0xbd540c15	-0.051769335
87	0x3d4b2ecf	0.049605187
88	0x3d6321aa	0.055452026
89	0x3d2091b5	0.039201457
90	0xbce07387	-0.027398838
91	0xbd2c1fca	-0.042022504
92	0x3cd082ba	0.02545296
93	0xbd0b7d12	-0.034054823
94	0x3b3b385a	0.0028567524
95	0xbd9e9d36	-0.07744829
96	0x3c117238	0.0088773295
97	0xbc96c64b	-0.0184051
98	0xbd5b7bfa	-0.05358503
99	0xbd617055	-0.05503877
100	0x3b618a16	0.003441458
101	0xbd403dc8	-0.04693392
102	0xbbfc2f40	-0.0076960623
103	0xbbf07221	-0.007337824
104	0x3ae56e85	0.0017504251
105	0x3d5eb75d	0.054374088
106	0xbd63358f	-0.055471
107	0xbba76553	-0.0051085143
108	0xbd4fdb56	-0.050746284
109	0xbc1f2a87	-0.009714729
110	0x3d66bd9e	0.056333177
111	0x3cb5222b	0.02211102
112	0x3d7ec7ab	0.062202137
113	0x3d8d436f	0.068976276
114	0x3bb8c698	0.0056389086
115	0x3cdd5655	0.027018705
116	0x3cc46de2	0.023978177
117	0xbd0cd20c	-0.034380004
118	0x3d7678c6	0.060173772
119	0xbc2bec9e	-0.010493426
120	0xbc3534ed	-0.011059982
121	0x3d22c160	0.039735198
122	0x3d68f648	0.056875497
123	0x3cc136f5	0.023585776
124	0x3c8cff68	0.017211631
125	0xbd9a8f37	-0.07546847
126	0x3b3cd739	0.0028814806
127	0xbd8a3c48	-0.06749779
128	0xbd503720	-0.05083382
129	0xbd4e5bb3	-0.05038042
130	0xbd7ef329	-0.062243614
131	0x3b60e0e2	0.0034313728
132	0x3d4b3dab	0.049619358
133	0x3da07d80	0.07836437
134	0x3d909830	0.070602775
135	0x3d7ecf6b	0.062209528
136	0x3d1472e9	0.0362424
137	0x3da4c82d	0.08045993
138	0x3d4afd80	0.049558163
139	0x3c4d52ca	0.0125319455
140	0x3b0fb29a	0.0021926523
141	0xbd61a00e	-0.05508428
142	0x3d27156c	0.040791914
143	0xbd9abc4d	-0.07555447
144	0x39a830bd	0.0003207977
145	0x3d2375ea	0.039907373
146	0x3d9862c1	0.07440711
147	0xbd90cde8	-0.070705235
148	0xbd249899	-0.04018459
149	0xbd9bd192	-0.07608332
150	0x3d3d1d47	0.0461705
151	0xbd836b1d	-0.064169146
152	0x3d9bccae	0.07607399
153	0xbd2cb3ab	-0.042163532
154	0x3d78bd57	0.060727444
155	0xbcbede14	-0.023299254
156	0xbd378e0a	-0.044813193
157	0x3cf3067d	0.02966618
158	0xbdae3374	-0.08505908
159	0xbc297823	-0.010343584
160	0xba08b4b5	-0.0005214916
161	0x3d96ded8	0.07366723
162	0xbd7f58b2	-0.062340446
163	0x3d7b7b86	0.061397098
164	0x3d1b76a4	0.03795494
165	0x3d97c088	0.07409769
166	0xbd8358e9	-0.06413443
167	0x3cba7b0f	0.022763757
168	0xbcd47dcd	-0.025938893
169	0xbd650dc4	-0.05592133
170	0x3c528548	0.01284916
171	0x3d3cea73	0.046122026
172	0x3d58a1c4	0.052888647
173	0xbbabd770	-0.005244188
174	0x3d98cb51	0.074606545
175	0x3cbd2715	0.023089925
176	0x3cb07a4b	0.021542689
177	0x3d1c023d	0.038088072
178	0x3c8145c4	0.015780337
179	0x3c812ae4	0.015767522
180	0x3d9dabb9	0.07698769
181	0x3d891a5d	0.066944815
182	0xbbab803e	-0.0052337935
183	0x3d7d1a72	0.0617928
184	0x3d5d13d9	0.053974006
185	0xbcbf8024	-0.023376532
186	0xbced57cb	-0.028972527
187	0x3ca58482	0.020204786
188	0x3c695cf1	0.01424335
189	0xbd8fa160	-0.07013202
190	0xbcb4cc95	-0.022070209
191	0x3d974a77	0.0738725
192	0x3daf5951	0.08561958
193	0x3cf8e3ba	0.030382026
194	0xbd99080e	-0.074722394
195	0xbd0cd7da	-0.03438554
196	0x3cc0e99b	0.023548892
197	0xbaf116fb	-0.001839369
198	0xbd805dbc	-0.062678784
199	0x3d6db47e	0.05803346
200	0x3d50f9fb	0.05101965
201	0xbb5f051e	-0.003403015
202	0x3da22d1a	0.07918759
203	0x3d1f9f26	0.038970135
204	0xbca3c053	-0.019989168
205	0xbdb6c7dd	-0.0892484
206	0xbd6a3152	-0.05717594
207	0x3cd9ad28	0.026571825
208	0xbc4ed00e	-0.012622846
209	0x3b5566c5	0.0032562476
210	0xbd24e599	-0.040258024
211	0xbc9e16f3	-0.019298052
212	0xbd41f149	-0.047349248
213	0xbaaff90d	-0.0013425663
214	0x3d94c199	0.07263488
215	0xbd85c107	-0.06530958
216	0xbaa75f9b	-0.0012769582
217	0xbd431809	-0.047630344
218	0x3c909e6d	0.017653668
219	0xbd501c96	-0.05080851
220	0xbc0172a2	-0.007900866
221	0x3c8381b9	0.016053068
222	0x3d8a136e	0.06741987
223	0xbd29a638	-0.041418284
224	0xbd3af350	-0.045642197
225	0xbce3e420	-0.02781874
226	0x3d2d90de	0.042374484
227	0x3c68cd23	0.014209065
228	0xbdb0b79e	-0.08628772
229	0xbc3d6aea	-0.011561135
230	0xbd7c5a9f	-0.06160986
231	0x3cf4b385	0.029870758
232	0x3ccba593	0.024859225
233	0x3ccfe115	0.025375882
234	0x3cc9ad42	0.024618749
235	0x3c952dbb	0.018210283
236	0xbc4d0abb	-0.012514765
237	0x3d918234	0.071049124
238	0x3b51893a	0.0031972663
239	0x3cbbfce7	0.022947742
240	0x3da5e432	0.081001654
241	0x3d8bba95	0.06822697
242	0x3d1fc138	0.039002627
243	0x3cffde31	0.031233879
244	0x3d895a43	0.06706669
245	0x3dbd9b22	0.09258105
246	0xbd445da1	-0.047940854
247	0xbceeb313	-0.029138124
248	0x3d997cc2	0.07494499
249	0x3d59a65b	0.053137165
250	0x3d1929ad	0.03739326
251	0xbd8d8894	-0.06910816
252	0x3cc6549d	0.024210269
253	0xbd8a5b8b	-0.06755742
254	0xbd93677d	-0.07197473
255	0xbd822a05	-0.06355671

value_network.2.bias f4 [100]
0	0x3d5d7f8b	0.054076713
1	0x3d578636	0.052618228
2	0xbd5a01e5	-0.053224463
3	0xbd22fc2a	-0.039791264
4	0x3d2335df	0.039846297
5	0x3ca3323c	0.019921415
6	0xbb948d87	-0.004533473
7	0x3d14e1dd	0.036348213
8	0xbd9dee34	-0.07711449
9	0x3d6f5caa	0.05843798
10	0x3b918a41	0.00444153
11	0x3d03f4ff	0.03221607
12	0x3c87f40f	0.016595868
13	0x3c6ae0b1	0.014335797
14	0xbd6d256f	-0.057897028
15	0x3daacd2a	0.08339913
16	0x3cecd52b	0.02891024
17	0xbd6afa50	-0.057367623
18	0x3d83e491	0.0644008
19	0x3d42f597	0.047597494
20	0x3dbeb3dd	0.0931165
21	0x3d6075f6	0.054799996
22	0xbca9de24	-0.020735808
23	0xbd77347d	-0.06035279
24	0x3d1a84a1	0.03772414
25	0xbd17eaee	-0.03708928
26	0x3cbb94fa	0.022898186
27	0x3c28d305	0.010304217
28	0x3d51018f	0.051026877
29	0x382a8ada	4.0660474e-05
30	0xbcb3853c	-0.021914117
31	0xbd494272	-0.049135633
32	0xbd88e65c	-0.066845626
33	0xbd06e363	-0.032931697
34	0xbdb9c369	-0.09070475
35	0xbca6297d	-0.020283455
36	0xbd02870d	-0.031867076
37	0xbcd9cb3c	-0.026586168
38	0x3d9dd7a5	0.077071466
39	0xbd38c3e8	-0.045108706
40	0x3d4095ec	0.047017977
41	0x3db2ee91	0.08736909
42	0xbd71ceec	-0.059035227
43	0x3dc509dd	0.09621022
44	0x39c889f1	0.00038249747
45	0x3b3551f1	0.002766725
46	0xbd6a6da2	-0.05723346
47	0xbb8a753c	-0.004225401
48	0x3c9c31fd	0.019066805
49	0x3cfd9f15	0.030959645
50	0xbc7bb4bf	-0.015362917
51	0x3db2dfa8	0.08734065
52	0xbc9669f8	-0.018361077
53	0x3c369993	0.011145013
54	0x3d7dff05	0.062010784
55	0xbc37d12b	-0.011219303
56	0xbd8a08a3	-0.067399286
57	0x3d1f6450	0.038914025
58	0x3c9a1d2d	0.01881274
59	0x3c0fab4f	0.0087688705
60	0xbc5f8d84	-0.01364458
61	0x3d9d117d	0.07669351
62	0x3d8f8982	0.070086494
63	0x3cc39734	0.02387581
64	0xbb87c18f	-0.004142947
65	0xbcad17dd	-0.021129543
66	0x3beb2972	0.0071765715
67	0x3d9e28cf	0.07722627
68	0xbaf06a8c	-0.00183423
69	0xbd3db213	-0.046312403
70	0x3b56240e	0.00326753
71	0xbdc020b9	-0.09381241
72	0x3d2d0358	0.042239517
73	0xbd3410ec	-0.04396145
74	0xbd419d19	-0.04726896
75	0xbd7065f4	-0.05869098
76	0xbcb38258	-0.021912739
77	0xbd14dc25	-0.03634276
78	0xbd2e2d9f	-0.042523976
79	0xbd75e430	-0.06003207
80	0x3d88f7ac	0.06687865
81	0xbbefcb03	-0.007317902
82	0xbd26aab7	-0.04069015
83	0xbd721ae1	-0.059107665
84	0x3b094752	0.0020947051
85	0x3d658776	0.05603739
86	0xbd12c377	-0.03583094
87	0x3d9e1a31	0.07719839
88	0x3d634d91	0.055493895
89	0xbd34717d	-0.044053543
90	0xbda7f816	-0.082016155
91	0x3d00d5df	0.031453963
92	0xbd29a28f	-0.041414794
93	0x3d5e13e0	0.054218173
94	0xbd72db69	-0.059291277
95	0x3c97a380	0.01851058
96	0xbcffe968	-0.031239226
97	0xbcf529cd	-0.029927159
98	0x3b5e2ec9	0.0033902398
99	0xbce41201	-0.027840616

value_network.4.weight f4 [100, 100]
0	0xbdc8fdbb	-0.0981402
1	0xbc790683	-0.015199306
2	0xbd3f2dfd	-0.046674717
3	0xbd162750	-0.036658585
4	0xbc31f9cb	-0.010862778
5	0xbd66a6fe	-0.0563116
6	0xbd196ac7	-0.037455346
7	0x3b909d6a	0.0044132965
8	0x3a8e2e72	0.0010847582
9	0xbb648427	-0.0034868808
10	0xbd1f37d6	-0.03887161
11	0x3acecea9	0.0015778142
12	0xbc90ef0a	-0.017692108
13	0x3bfeb988	0.007773582
14	0xbd7316fd	-0.059348095
15	0xbd8f68c1	-0.07002402
16	0x3d59c8cd	0.053170014
17	0xbdb30a13	-0.08742156
18	0x3da6863d	0.08131073
19	0x3dab4fd6	0.08364837
20	0x3d940248	0.072269976
21	0xbd9548a8	-0.07289249
22	0xbd872270	-0.06598365
23	0x3d109303	0.03529645
24	0xbdc5d2d8	-0.09659356
25	0x3cf9ba64	0.030484386
26	0xbd792d15	-0.06083401
27	0x3dc58208	0.09643942
28	0xbd400939	-0.046883795
29	0x3d99fce4	0.07518938
30	0x3cc1795d	0.02361744
31	0xbdcbae9d	-0.09945414
32	0x3dad334c	0.0845705
33	0xbbf963df	-0.0076107825
34	0xbd436ffb	-0.047714215
35	0x3c53b8ba	0.01292246
36	0xbd86a8e9	-0.06575186
37	0xbccabf76	-0.024749499
38	0x3dda6013	0.10662856
39	0x3d06e657	0.032934513
40	0x3cdcf76e	0.026973452
41	0xbd854b90	-0.06508553
42	0x3e056fca	0.13030925
43	0x3dd9e9aa	0.10640271
44	0x3d9f6cbb	0.077844106
45	0xbdd70363	-0.10498693
46	0x3d6e38b0	0.05815953
47	0xbb07c105	-0.0020714414
48	0x3d4e69d5	0.050393898
49	0xbd91fd54	-0.07128397
50	0x3d67a627	0.05655494
51	0x3d79ae27	0.0609571
52	0x3da5cd46	0.080957934
53	0xbd5f22fd	-0.054476727
54	0xbd8d6a64	-0.06905058
55	0xbdb91e40	-0.09038973
56	0x3dceb554	0.10093179
57	0x3c2602c0	0.010132492
58	0x3dc2a8b0	0.09504831
59	0x3dc16e17	0.09444826
60	0xbc4dbf43	-0.012557807
61	0x3d93918a	0.07205494
62	0xbcdc6eaf	-0.026908247
63	0x3d333bba	0.04375813
64	0x3d35092b	0.044198196
65	0xbd98f085	-0.074677505
66	0xbc3243d9	-0.010880434
67	0xbd66eaa6	-0.056376122
68	0xbd8fac80	-0.07015324
69	0x3c7961e7	0.015221096
70	0x3d2b3ec2	0.041807897
71	0xbd0cff7e	-0.034423344
72	0xbda5f1b3	-0.08102741
73	0x3a708dbe	0.00091763947
74	0x3cad4ca8	0.021154717
75	0x3d0407fb	0.032234173
76	0x3d973da3	0.07384803
77	0xbcff2514	-0.03114561
78	0x3d3559a9	0.04427496
79	0xbd3d3ba9	-0.046199474
80	0x3dfe1a01	0.124073036
81	0xbd859f73	-0.06524553
82	0x3de40ccc	0.11135253
83	0xbd7e3be9	-0.062068854
84	0x3d66c083	0.056335937
85	0x3dc3c3d9	0.09558839
86	0x3d87a693	0.066235684
87	0xbd5f779b	-0.054557424
88	0x3ddf853d	0.10914085
89	0xbc3ac187	-0.01139868
90	0xbd7d93e8	-0.061908633
91	0x3cd05611	0.025431665
92	0x3dabf03f	0.08395433
93	0xbdaa469b	-0.08314248
94	0x3cd1b45a	0.025598694
95	0xbda2c34c	-0.07947406
96	0x3d25db08	0.040492088
97	0xbd646520	-0.055760503
98	0xbd65f617	-0.056142893
99	0x3d4b3a37	0.049616065
100	0x3c54c600	0.01298666
101	0xbc6588f3	-0.014009702
102	0x3d93477d	0.0719137
103	0xbda6c157	-0.081423454
104	0xbdab4aa1	-0.08363844
105	0xbdc1ecad	-0.094689704
106	0xbd6f5627	-0.05843177
107	0x3ce83532	0.028345678
108	0x3d74827d	0.059694756
109	0xbc2f94af	-0.010716601
110	0xbdcc6b08	-0.09981352
111	0x3d606012	0.05477912
112	0xbc2a5c1b	-0.010397936
113	0x3b709d67	0.0036714913
114	0xbcb5454d	-0.022127772
115	0x3cbf252e	0.023333158
116	0x3d555d60	0.052091002
117	0x3dab2452	0.08356537
118	0xbd8d23d8	-0.06891602
119	0x3d9edac8	0.07756573
120	0xbd7ef529	-0.06224552
121	0x3c27e14d	0.010246587
122	0x3d91f272	0.07126321
123	0xb9517627	-0.00019975808
124	0x3cb5f07a	0.022209395
125	0x3d928af2	0.07155408
126	0x3d9e96c2	0.077435985
127	0xbc9b7c2d	-0.01898011
128	0x3d933e0c	0.07189569
129	0x3d301c27	0.0429956
130	0xbb7c5391	-0.0038501958
131	0xbd9d6182	-0.07684614
132	0xbd61dd5a	-0.055142738
133	0x3d90a69f	0.070630305
134	0xbd28b6b7	-0.041189875
135	0x3d8ccaf3	0.06874647
136	0x3d7729f7	0.060342755
137	0x3b030e25	0.0019997444
138	0x3d9158d7	0.07097023
139	0x3d77ceba	0.060499884
140	0xbcf7c5d7	-0.030245705
141	0x3d787045	0.060653944
142	0x3d818d3d	0.06325767
143	0xb98b699a	-0.00026590825
144	0x3d8e4091	0.06945909
145	0xbbf775c5	-0.007551881
146	0x3b5c3281	0.0033599439
147	0xbdbeb0d5	-0.09311072
148	0x3c839bd1	0.01606551
149	0xbda26ca0	-0.07930875
150	0xbd4f494d	-0.050607014
151	0x3d443b9f	0.04790842
152	0x3dcc7056	0.09982364
153	0x3ccc1e27	0.024916722
154	0x3da97150	0.08273566
155	0x3d637957	0.05553564
156	0x3c1be567	0.009515143
157	0x3dab5e81	0.083676346
158	0x3d214463	0.03937186
159	0x3d9020a5	0.070374765
160	0xbcfb89b5	-0.030705312
161	0xbd52e54d	-0.05148821
162	0xbbfad872	-0.007655197
163	0xba9c08bd	-0.001190446
164	0xbd6f6897	-0.058449354
165	0x3db79def	0.0896567
166	0x3c9e0f6f	0.019294469
167	0xbd8e694f	-0.0695368
168	0xbd292377	-0.041293588
169	0x3dc200a0	0.094727755
170	0x3d8ad182	0.06778242
171	0xbd5d834c	-0.054080293
172	0x3dafaa32	0.08577384
173	0xbd246ae6	-0.04014101
174	0x3ca4e83e	0.020130273
175	0x3dca0447	0.09864097
176	0xbd5e476f	-0.054267343
177	0xbdcc20fc	-0.09967229
178	0xbd09c68e	-0.033636622
179	0x3d010ab8	0.031504363
180	0xbcaf5dda	-0.021407057
181	0xbc984487	-0.018587364
182	0xbc98510e	-0.018593337
183	0xbc8810d1	-0.016609581
184	0xbdc24b73	-0.09487047
185	0xbdbc1689	-0.09183986
186	0x3d60200e	0.05471807
187	0xbd869f2d	-0.06573329
188	0xbafb78f6	-0.001918583
189	0xbdab130c	-0.08353242
190	0xbd955108	-0.07290846
191	0xbdb10c59	-0.08644933
192	0xbd6f9688	-0.058493167
193	0x3d5d52ec	0.05403416
194	0x3d4ea34a	0.050448693
195	0xbb2f8848	-0.002678411
196	0xba9c5ccb	-0.001192951
197	0x3d89b760	0.06724429
198	0xbd92f2d2	-0.071752205
199	0x3dad44b8	0.08460373
200	0xbd0871a5	-0.033311505
201	0x3d3774b5	0.044789035
202	0x3d722e51	0.059126202
203	0x3c574d40	0.013140976
204	0xbd8470b6	-0.064668104
205	0xb8b5bdd0	-8.666108e-05
206	0xbd7bb41e	-0.06145107
207	0xbd8ff368	-0.07028848
208	0xbd6cfe47	-0.057859685
209	0x3d410656	0.047125183
210	0x3d36c239	0.04461882
211	0x3d3be99c	0.045877084
212	0x3d0cd726	0.03438487
213	0x3d4af1bb	0.04954694
214	0x3dbaa38b	0.091132246
215	0xbd9e20d7	-0.077211075
216	0x3db7886f	0.089615695
217	0xbd54affa	-0.051925637
218	0xbc42c7a0	-0.011888415
219	0x3c492dca	0.012278983
220	0x3d88e741	0.06684733
221	0x3da493cd	0.08036003
222	0x3d7b5397	0.061359014
223	0x3d80afff	0.062835686
224	0x3d3d469c	0.046209916
225	0xbdbf4578	-0.09339422
226	0xbc3d2015	-0.0115432935
227	0xbd448785	-0.047980804
228	0xbdc2009c	-0.094727725
229	0xbd9ce710	-0.07661259
230	0xbdba39c1	-0.09093047
231	0x3dac9f18	0.08428782
232	0xbda61913	-0.08110251
233	0x3d31d3c0	0.04341483
234	0x3c37fb2f	0.01122932
235	0x3cd03e4a	0.025420327
236	0x3b8f785e	0.0043783626
237	0x3c8b53db	0.017007759
238	0xbdf242cb	-0.11829146
239	0xbc39db12	-0.011343734
240	0xbdb4d89f	-0.0883038
241	0x3dbbb261	0.091648825
242	0xbc65584d	-0.013998103
243	0x3d81784d	0.06321774
244	0x3d9c2d04	0.076257735
245	0xbd076710	-0.033057272
246	0x3d9d38f1	0.07676876
247	0xbc961355	-0.018319765
248	0xbc7355f2	-0.014852034
249	0xbd18c543	-0.0372975
250	0xbdb52788	-0.088454306
251	0xbdb91d0c	-0.090387434
252	0x3d56b4c7	0.052418496
253	0x3db6206d	0.088929035
254	0x3dac3d82	0.08410169
255	0xbda0f208	-0.07858664

value_network.4.bias f4 [100]
0	0xbd1939b8	-0.03740856
1	0xbd9d7eca	-0.07690199
2	0x3d00f5ba	0.031484343
3	0xbc78747a	-0.015164489
4	0xbcbc0233	-0.022950267
5	0xbbf8ecf7	-0.007596608
6	0xbd87f878	-0.066391885
7	0xbd7cfbe0	-0.061763644
8	0xbd489464	-0.04896964
9	0xbd179c80	-0.037014484
10	0x3d47b0bb	0.048752528
11	0x3d4deacb	0.050272744
12	0x3d5ee75d	0.054419864
13	0xbd0109a7	-0.031503346
14	0x3d6d82f1	0.057986204
15	0xbd1a20fa	-0.037629105
16	0x3d4f79d5	0.050653297
17	0x3c7668d1	0.015039639
18	0x3e16d0a5	0.14728029
19	0x3d2826c2	0.041052587
20	0xbdcf73b3	-0.1012949
21	0xbb9f189a	-0.0048552277
22	0x3d76a221	0.060213212
23	0xbdaded66	-0.08492546
24	0xbd7d49d7	-0.061837997
25	0x3cc81e75	0.024428586
26	0x3d0c72a2	0.03428901
27	0x3d8b80e2	0.06811692
28	0xbd23275c	-0.039832458
29	0xbdc6ce74	-0.097073466
30	0xbd13f078	-0.036118
31	0xbd1dd6a0	-0.03853476
32	0x3db76889	0.089554854
33	0x3d977756	0.073958084
34	0x3dbf2d23	0.09334781
35	0xbd5cb983	-0.053887855
36	0xbc9e832f	-0.019349663
37	0xbcbc097d	-0.022953743
38	0xbd812219	-0.06305332
39	0xbd0022b9	-0.031283114
40	0xbd18d872	-0.037315793
41	0x3d85608e	0.06512557
42	0x3d3eafa2	0.046554215
43	0xbd84ca11	-0.064838536
44	0xbd2acaf2	-0.04169745
45	0x3bf5f75f	0.0075062956
46	0xbd4c276c	-0.049842283
47	0xbd9e93b6	-0.077430174
48	0x3da6771a	0.081281856
49	0xbd1f5e66	-0.038908385
50	0xbd8ac719	-0.06776256
51	0x3c7705a8	0.015077032
52	0x3d985040	0.074371815
53	0xbc8bf0a5	-0.017082522
54	0x3d22d3f3	0.03975291
55	0x3c5f3668	0.013623811
56	0x3e117dfd	0.14208217
57	0xbbf9b995	-0.007621
58	0xbba3d850	-0.0050001517
59	0xbdb7b00d	-0.08969126
60	0x3d3063ab	0.0430638
61	0xbd5f6a55	-0.054544766
62	0x3e09ba6b	0.13450019
63	0x3cc581d1	0.024109753
64	0x3d82c795	0.063857235
65	0x3dbf9fdb	0.09356662
66	0xbcf0b90d	-0.029385114
67	0x3cd422ac	0.02589544
68	0xbd0c0883	-0.034187805
69	0x3e3c6eca	0.18401638
70	0x3d78dee3	0.060759436
71	0xbb86c9b3	-0.0041134
72	0xbdb0627b	-0.08612534
73	0xbb3f02be	-0.0029145922
74	0xbd21ec95	-0.039532263
75	0xbd87f036	-0.066376135
76	0x3d55bcdf	0.052182075
77	0x3e04f366	0.12983474
78	0x3d074fbc	0.033035025
79	0xbd7d73fa	-0.061878182
80	0x3c105801	0.008810044
81	0x3c2b0a6f	0.010439499
82	0xbca6869c	-0.020327859
83	0xbda8e0f2	-0.0824603
84	0x3dbc34e3	0.09189775
85	0x3cbc494f	0.022984175
86	0x3e018e8e	0.12652037
87	0x3db4f2a2	0.08835341
88	0xbd337d65	-0.043820757
89	0xbda84b06	-0.082174346
90	0xbdb3472a	-0.08753808
91	0x3e0a2ff3	0.13494854
92	0xbdcd7e61	-0.100338705
93	0x3db546ea	0.088514164
94	0x3dc28724	0.09498432
95	0x3cef0667	0.029177858
96	0xbd33e81d	-0.043922532
97	0x3d4af264	0.049547568
98	0x3c55ac73	0.013041603
99	0xbccf91b8	-0.025338039

value_network.6.weight f4 [1, 100]
0	0xbe598442	-0.21241859
1	0xbda33540	-0.07969141
2	0x3e35b453	0.1774457
3	0xbd95c61c	-0.07313177
4	0xbc00d65a	-0.007863605
5	0xbdcc4e6d	-0.09975896
6	0x3d218b89	0.03943971
7	0x3dcbd2ec	0.099523395
8	0xbc99448c	-0.018709444
9	0x3d2218b4	0.03957434
10	0x3d298a76	0.041391812
11	0x3ccb85fd	0.024844164
12	0xbcdcd5bc	-0.026957385
13	0xbca9449d	-0.0206626
14	0xbc99448e	-0.018709447
15	0x3d666604	0.056249633
16	0x3e14970e	0.14510748
17	0x3d9df9be	0.0771365
18	0x3e89b0de	0.2689275
19	0x3e1c9ff9	0.152954
20	0xbdaae8e8	-0.083452046
21	0xbda83750	-0.08213675
22	0x3da4039b	0.080085
23	0xbca43304	-0.020043857
24	0xbd0e401a	-0.0347291
25	0xbc34a8f7	-0.0110266125
26	0x3bfced77	0.0077187377
27	0x3d81b49f	0.06333279
28	0xbd020cc5	-0.03175046
29	0xbe34493d	-0.17606063
30	0xbdaea523	-0.08527591
31	0x3d66b47e	0.056324475
32	0x3d98e798	0.07466048
33	0xbe8d7839	-0.27630785
34	0x3e53b4c5	0.20674427
35	0xbdf3d982	-0.11906721
36	0x3df54247	0.11975532
37	0xbe4d4d6d	-0.20049067
38	0x3d4853f5	0.048908193
39	0x3ca89f1c	0.020583682
40	0xbb2895a1	-0.0025723951
41	0x3e1a0b3f	0.15043353
42	0xbcc929b0	-0.024556011
43	0xbc81ecc0	-0.015859962
44	0xbe6b0cf8	-0.22954166
45	0x3d98266d	0.07429204
46	0xbda1bf52	-0.078978196
47	0xbcaeec8c	-0.021353029
48	0xbdd615a5	-0.10453347
49	0xbbed5b21	-0.0072435294
50	0xbcab3268	-0.020898059
51	0xbd3f5042	-0.0467074
52	0x3e3221e1	0.17395736
53	0xbddda4b4	-0.1082243
54	0x3e52f282	0.20600322
55	0xbda13250	-0.078709245
56	0x3dc886df	0.097913496
57	0xbc259f3e	-0.010108767
58	0xbde938a2	-0.11387755
59	0x3da4c0d3	0.08044591
60	0xbdad7912	-0.08470358
61	0xbda1639c	-0.07880327
62	0x3e2440fb	0.16040413
63	0xbd0ff9de	-0.0351504
64	0xbd1cafa9	-0.03825346
65	0x3df45ec3	0.11932137
66	0x3cc00fed	0.023445094
67	0x3c6746c0	0.014115989
68	0x3d0c869f	0.034308072
69	0x3e83802c	0.25683725
70	0x3e17066f	0.14748548
71	0x3d00ae63	0.031416308
72	0xbc280c9a	-0.010256911
73	0xbcf36706	-0.029712211
74	0x3d869f8b	0.06573399
75	0xbc795f2c	-0.015220445
76	0xbddeff71	-0.10888565
77	0x3e65a0c0	0.22424603
78	0x3dd45d0a	0.10369308
79	0xbbd6a300	-0.006550193
80	0xbe9129ae	-0.28352112
81	0xbd25049b	-0.040287595
82	0xbdcea00a	-0.10089119
83	0xbcc54833	-0.024082279
84	0x3d060ae2	0.032725222
85	0x3daeca2d	0.08534656
86	0x3da15a37	0.07878535
87	0x3e282dc5	0.1642371
88	0xbdb4c0a0	-0.08825803
89	0x3e04cdaa	0.1296908
90	0xbdabfc63	-0.08397748
91	0x3e1845fb	0.14870445
92	0xbe63bca9	-0.22239937
93	0x3e708366	0.23487625
94	0x3e34d8ef	0.17660879
95	0xbd318c51	-0.043346707
96	0xbcf78c9a	-0.030218411
97	0x3d71164e	0.058859162
98	0x3e50a1d4	0.20374233
99	0x3b56f436	0.003279937
