crowd_nav/data/output_cadrl2/rl_model.pth (torch, 112844 bytes, 7 tensors)

value_network.0.weight f4 [150, 13]
0.21738352 -0.065458514 0.18221225 -0.27187815 -0.06764733 0.26710582 -0.2656586 0.024521101
0.22877581 0.12742954 0.20241879 0.18771893 0.1699854 0.12624793 -0.04815568 0.27396265
0.030709866 0.12487419 -0.23358643 -0.12659854 0.2804396 0.00232625 0.092572816 -0.017112887
-0.17700829 -0.18985212 -0.018164426 0.2165834 0.00011456228 0.14045665 0.095782414 -0.2570078
0.015786625 -0.2147172 0.07396057 0.15836695 -0.007279276 -0.23592468 0.07745151 0.11651313
0.13875861 0.047045257 0.20087625 0.19930139 0.10680295 -0.26027218 0.113155015 -0.25611663
0.1706928 0.041728746 0.18106718 0.1111487 0.045518488 0.28614357 0.14781381 -0.14489464
0.11511536 0.21666028 -0.2501504 0.21357712 -0.29536858 0.024167774 -0.27263588 0.2805212
0.09238751 -0.046895158 -0.11224668 0.0034356783 -0.14153568 -0.1170631 -0.011611913 0.12939052
0.22027607 -0.13237922 -0.1674109 0.11108611 0.2921763 -0.25896066 0.25470623 -0.13192606
0.055832796 -0.2533857 -0.15054226 -0.16486208 0.29347742 -0.2509314 0.11455749 -0.22958313
-0.19293585 -0.263339 0.22475208 0.061623365 0.16647953 0.026028154 0.14414376 0.14131138
-0.003152162 0.29648772 0.16466351 0.05194401 0.17411335 0.22184522 -0.18086156 -0.0365635
0.1529111 0.03401951 -0.092299245 -0.061792325 0.090932176 -0.14160913 0.026200466 0.14130907
0.09144483 0.1102647 -0.1330538 0.14428964 -0.0054882243 -0.19978839 0.21652432 -0.17282201
-0.065935396 -0.21506588 -0.06118105 -0.18065514 -0.118179515 -0.19420801 -0.062767945 -0.03945346
0.12644893 -0.12077155 -0.073701106 0.19691083 -0.16693111 -0.206916 0.07715961 -0.03970687
-0.095958374 -0.06356474 -0.16672987 0.113524176 0.07782665 0.10406301 0.26185805 -0.26577923
0.2302047 0.08013786 0.040775128 -0.0608441 0.08463062 0.11030797 -0.1284997 0.15458086
0.11157988 -0.110815346 0.26047903 -0.0694795 -0.21487693 -0.11212068 0.05730865 -0.21035127
-0.056622658 -0.11867209 -0.23132971 -0.08034346 0.2578268 -0.14875288 0.10058534 -0.006172773
0.04209537 -0.21981257 0.23822716 0.005882021 0.03081833 -0.049750194 -0.030430352 -0.016294993
0.15028507 0.2550531 0.25650698 0.08484745 0.2689357 -0.043932237 -0.11324565 0.063811235
-0.26575223 0.052131966 -0.15198931 -0.20122534 -0.081176884 -0.17004956 -0.22620721 0.20417815
-0.25452223 -0.120548286 -0.20524052 -0.03172532 -0.114956856 0.0028675287 -0.066018656 0.037639644
0.053425536 0.123754844 0.07403038 0.13636744 0.042370126 0.14969607 -0.17984526 -0.057545148
0.2624149 -0.22504877 -0.19012535 -0.03241133 0.2525449 -0.12488942 0.24670908 -0.081480585
0.17392536 0.03366411 -0.07848203 -0.26995528 -0.2458323 -0.12563212 0.06413305 -0.090988606
0.08230436 -0.00024600167 -0.00047478676 -0.13239628 -0.14331217 0.11566454 -0.24582227 -0.22925247
0.2737354 -0.01503986 0.101227395 0.24681984 0.06529432 0.085198715 -0.21027672 -0.07445233
0.21377309 -0.31074893 0.14159192 0.03942758 0.12442713 0.09425709 -0.15789826 0.21809947
0.09988235 -0.16811131 0.08639091 0.16687799 -0.03416535 -0.040839612 0.21984492 0.19089298
00000000: c999 5e3e 1d0f 86bd d995 3a3e 9d33 8bbe
00000010: af8a 8abd 18c2 883e 6704 88be 7ae0 c83c
00000020: 3544 6a3e e47c 023e df46 4f3e 6439 403e
00000030: a710 2e3e 2347 013e e43e 45bd d544 8c3e
00000040: 4293 fb3c 0abe ff3d 4831 6fbe 0ca3 01be
00000050: c795 8f3e 0074 183b d196 bd3d 5330 8cbc
00000060: a941 35be 9868 42be 90cd 94bc 0ac8 5d3e
00000070: 2841 f038 ded3 0f3e 9229 c43d 8796 83be
00000080: f452 813c d3de 5bbe a478 973d f22a 223e
00000090: fe86 eebb 3d96 71be e69e 9e3d 709e ee3d
000000a0: bd16 0e3e 87b2 403d 81b2 4d3e aa15 4c3e
000000b0: 81bb da3d 6542 85be d1bd e73d b821 83be
000000c0: 18ca 2e3e c3eb 2a3d ad69 393e eea1 e33d
000000d0: 9871 3a3d 6981 923e 815c 173e 435f 14be
000000e0: 9ac1 eb3d 31dc 5d3e b713 80be f6b3 5a3e
000000f0: 8d3a 97be 7ffb c53c ee96 8bbe 7aa0 8f3e
00000100: aa35 bd3d 2315 40bd 96e1 e5bd 1e29 613b
00000110: bbee 10be c7be efbd e53f 3ebc f37e 043e
00000120: 0d90 613e 6b8e 07be c36d 2bbe 1d81 e33d
00000130: 2298 953e 7e96 84be db68 823e a017 07be
00000140: eeb0 643d c5bb 81be c027 1abe 9bd1 28be
00000150: ac42 963e 157a 80be 1e9d ea3d d717 6bbe
00000160: fa90 45be 5fd4 86be 6925 663e c868 7c3d
00000170: 9c79 2a3e ff38 d53c 6c9a 133e eeb3 103e
00000180: 8194 4ebb 3dcd 973e 8d9d 283e 3ec3 543d
00000190: c54a 323e 652b 633e c633 39be 9cc3 15bd
000001a0: ba94 1c3e 0b58 0b3d 6307 bdbd f319 7dbd
000001b0: a63a ba3d fc01 11be 5ca2 d63c 53b3 103e
000001c0: 6d47 bb3d 76d2 e13d 413f 08be aac0 133e
000001d0: 90d6 b3bb 5495 4cbe 8db8 5d3e 41f8 30be
000001e0: 2309 87bd 3b3a 5cbe fb98 7abd a9fd 38be
000001f0: 1a08 f2bd 77de 46be 7b8c 80bd f499 21bd
00000200: d47b 013e 1357 f7bd 9bf0 96bd fea2 493e
00000210: fdef 2abe cae1 53be dc05 9e3d aca3 22bd
00000220: d385 c4bd 3b2e 82bd 3cbb 2abe 5d7f e83d
00000230: 9463 9f3d fd1e d53d 4212 863e 3714 88be
00000240: c8ba 6b3e 511f a43d d203 273d aa37 79bd
00000250: d252 ad3d 25e9 e13d 6d95 03be 724a 1e3e
00000260: fe83 e43d 28f3 e2bd 825d 853e 454b 8ebd
00000270: b308 5cbe 879f e5bd 7abc 6a3d 5366 57be
00000280: 29ed 67bd 5a0a f3bd b2e1 6cbe 1d8b a4bd
00000290: e001 843e ad52 18be b0ff cd3d f944 cabb
000002a0: 326c 2c3d 8c16 61be d2f1 733e f8bd c03b
000002b0: b976 fc3c dcc6 4bbd 1349 f9bc 147d 85bc
000002c0: 54e4 193e 5296 823e e254 833e 80c4 ad3d
000002d0: f1b1 893e 4af2 33bd 56ed e7bd 77af 823d
000002e0: ad10 88be 5488 553d 16a3 1bbe 040e 4ebe
000002f0: 1140 a6bd 7921 2ebe dda2 67be 1414 513e
00000300: bd50 82be 05e2 f6bd 922a 52be 69f2 01bd
00000310: 806e ebbd 26ed 3b3b ca34 87bd 072c 1a3d
00000320: bcd4 5a3d 2e73 fd3d 3d9d 973d e8a3 0b3e
00000330: 4c8c 2d3d ed49 193e 5b29 38be 76b4 6bbd
00000340: 3f5b 863e 2f73 66be 38b0 42be bec1 04bd
00000350: 914d 813e 06c6 ffbd 4ea1 7c3e 4bdf a6bd
00000360: 7d19 323e 61e3 093d 30bb a0bd 9437 8abe
00000370: 76bb 7bbe b5a5 00be 3058 833d 3c58 babd
00000380: 308f a83d c9f9 80b9 cdec f8b9 e492 07be
00000390: 6dc0 12be 88e1 ec3d d5b8 7bbe 29c1 6abe
000003a0: 0c27 8c3e bf69 76bc 4f50 cf3d 57be 7c3e
000003b0: 07b9 853d aa7c ae3d c852 57be 777a 98bd
000003c0: 55e7 5a3e 7c1a 9fbe 79fd 103e d07e 213d
000003d0: a7d3 fe3d dc09 c13d 15b0 21be 7855 5f3e
000003e0: 1e8f cc3d 5f25 2cbe b8ed b03d 10e2 2a3e
000003f0: f7f0 0bbd 7047 27bd 071f 613e 7379 433e

value_network.0.bias f4 [150]
-0.0512625 -0.2382054 0.24232969 -0.07447774 0.09322803 0.032203652 -0.06629882 -0.26017493
0.2059614 -0.16811241 -0.23286533 0.075571574 -0.050986208 -0.19857606 0.15604775 -0.09924427
0.06850443 0.24924742 -0.11546156 0.0074327714 -0.051681772 0.2111498 -0.041195028 0.21727507
0.1239971 0.034877293 -0.27102098 0.2648248 0.14950295 -0.1410324 -0.22679858 0.16790947
0.26794168 -0.23404855 0.07516991 -0.14718471 0.08081771 -0.25226414 -0.249937 -0.16244045
0.1302928 0.1840145 0.23382768 0.15402313 0.23216254 -0.13909736 0.23899493 -0.018475201
0.25136882 -0.024335472 0.1908165 -0.18628179 0.032281686 0.14364435 -0.1177335 0.121596254
0.24137941 0.17805646 -0.10995703 0.24930418 -0.17816935 -0.23523249 -0.18671171 0.009112083
-0.100557186 -0.19017313 -0.14098126 0.14174989 0.26527542 -0.10850212 0.21327417 -0.1238176
0.0625077 0.057692904 0.119683295 -0.12294864 -0.030754965 -0.003078604 -0.23165692 -0.21377859
0.15933613 0.14177974 0.18857263 -0.021240644 -0.21392387 -0.07639272 -0.12537391 0.20629574
0.26212528 -0.08541098 -0.22400577 -0.0003569894 -0.19903085 -0.22695816 -0.20714228 0.09133205
-0.011507388 0.056733463 0.25390753 -0.073751666 0.25095785 0.07054203 -0.21339406 0.15438528
-0.06745251 -0.29667345 -0.2848413 0.29652575 0.026968572 -0.23625867 0.018793331 0.17885672
-0.17317168 0.0018931525 -0.20101228 0.22067624 -0.045310427 -0.009221643 0.034219604 -0.00013074683
-0.19144654 0.1817493 0.24211678 -0.19347605 0.09016358 0.02671772 -0.13948375 -0.029142492
-0.020079529 -0.12311984 -0.19492197 0.1580725 0.2839186 -0.09446075 0.15249944 -0.18010192
0.037809435 0.1642752 0.088714205 -0.13985789 -0.03344138 0.101444304 0.1533131 -0.09688293
-0.08661843 -0.043399233 -0.019410651 0.16127251 -0.09286932 0.051045354
00000000: a1f8 51bd 1eec 73be 4625 783e c987 98bd
00000010: 56ee be3d fae7 033d adc7 87bd a635 85be
00000020: 8ce7 523e a925 2cbe 4074 6ebe 45c5 9a3d
00000030: ead6 50bd 8657 4bbe fbca 1f3e 9440 cbbd
00000040: 0d4c 8c3d b73a 7f3e 1c77 ecbd 9b8e f33b
00000050: 44b0 53bd a737 583e 1ebc 28bd 5b7d 5e3e
00000060: 31f2 fd3d 7edb 0e3d 43c3 8abe 1e97 873e
00000070: 4d17 193e cc6a 10be e33d 68be 76f0 2b3e
00000080: a72f 893e 6caa 6fbe aff2 993d 97b7 16be
00000090: c183 a53d c428 81be 7cef 7fbe ca56 26be
000000a0: 7a6b 053e 4c6e 3c3e 8670 6f3e 3db8 1d3e
000000b0: 04bc 6d3e 8a6f 0ebe 16bb 743e 4e59 97bc
000000c0: 6ab3 803e 2f5b c7bc 6765 433e a7c0 3ebe
000000d0: cd39 043d 8117 133e 431e f1bd 7507 f93d
000000e0: 2a2c 773e 6f54 363e 2731 e1bd 9849 7f3e
000000f0: 0772 36be c9e0 70be 5b31 3fbe d94a 153c
00000100: edf0 cdbd bfbc 42be 645d 10be e226 113e
00000110: 2ed2 873e 5c36 debd 8b64 5a3e 1594 fdbd
00000120: 0904 803d 654f 6c3d 841c f53d 7fcc fbbd
00000130: d6f1 fbbc 67c2 49bb 7937 6dbe c6e8 5abe
00000140: 0329 233e b52e 113e 2f19 413e dc00 aebc
00000150: dc0e 5bbe c973 9cbd 0562 00be 313f 533e
00000160: 4935 863e f4eb aebd c561 65be 4e2a bbb9
00000170: bece 4bbe b867 68be 1b1d 54be 4c0c bb3d
00000180: 7c89 3cbc 5961 683d 2b00 823e 1d0b 97bd
00000190: 8c7d 803e 5778 903d f983 5abe 2d17 1e3e
000001a0: 8b24 8abd 95e5 97be b8d6 91be 39d2 973e
000001b0: 32ed dc3c cbed 71be 79f4 993c 3726 373e
000001c0: eb53 31be a823 f83a 2ad6 4dbe f4f8 613e
000001d0: 6d97 39bd 6016 17bc db29 0c3d 1619 09b9
000001e0: 900a 44be 7d1c 3a3e 76ed 773e 961e 46be
000001f0: afa7 b83d 1fdf da3c d4d4 0ebe 3cbc eebc
00000200: d37d a4bc 4126 fcbd a099 47be c2dd 213e
00000210: c75d 913e a374 c1bd d028 1c3e a36c 38be
00000220: 11de 1a3d c237 283e cbaf b53d e836 0fbe
00000230: d4f9 08bd 08c2 cf3d 1cfe 1c3e 8f6a c6bd
00000240: 0165 b1bd 65c3 31bd 1603 9fbc 9f24 253e
00000250: 4532 bebd ef14 513d

value_network.2.weight f4 [100, 150]
-0.014017504 -0.047412228 -0.05100722 -0.0022478565 -0.06873913 -0.07318967 -0.069457866 -0.010396472
-0.054660566 -0.016410789 -0.027332898 -0.00524866 -0.017519131 0.06588249 0.036494713 -0.010896004
-0.007132222 -0.06799709 -0.015775325 -0.040394288 -0.041026372 -0.06050073 0.056987673 -0.056953687
-0.06986736 0.07623177 -0.052484516 0.072519585 -0.021460552 0.040165875 -0.013143541 0.051471256
0.0104911225 0.0040953243 -0.0070694345 -0.010089042 -0.052034315 -0.07903936 -0.05249409 0.045514476
-0.032548904 0.011067705 -0.04045958 0.008486715 -0.03031783 -0.013657058 0.0775878 -0.044861756
-0.054754093 0.029089184 -0.05579073 0.027918803 -0.063426934 0.039201684 0.010773019 -0.048420273
0.041358083 0.018066538 0.060106896 0.021891272 -0.05432293 -0.020611 0.030540615 0.0070881946
0.07486342 0.027209884 -0.020792542 0.009670492 -0.04376563 0.018995672 0.031361964 0.018880187
0.054809235 0.03034374 -0.07862541 -0.046286006 -0.028208828 0.05019476 0.0771744 -0.02227822
0.04224109 -0.07752857 -0.04464329 -0.07964638 0.02992043 0.021583159 -0.051769335 0.04949579
0.055452026 0.03923288 -0.028983241 -0.042022504 0.025234705 -0.034284376 0.0028567524 -0.07717349
0.007187 -0.01788509 -0.052212458 -0.05499995 0.004510317 -0.047097858 -0.010218891 -0.0071153347
0.0015103833 0.05445775 -0.056474082 -0.010920696 -0.05077878 -0.011149628 0.05633339 0.022199836
0.06222062 0.066107936 0.0048913797 0.025201572 0.023887405 -0.034501392 0.05992899 -0.0131639475
-0.0110819815 0.04118699 0.05685709 0.023585776 0.014575576 -0.07546847 0.002450045 -0.06750699
-0.05223132 -0.05038042 -0.062512286 0.003547207 0.05036316 0.07326715 0.07076239 0.059513655
0.03213286 0.08042446 0.049558163 0.010764558 0.0021798282 -0.0566958 0.040810063 -0.07591897
0.00039654877 0.03635936 0.07442307 -0.07253156 -0.041122463 -0.07826715 0.048210364 -0.06505415
0.07171242 -0.03734193 0.067587934 -0.024570903 -0.048993625 0.039159924 -0.08205081 -0.009234143
0.0030643851 0.07201647 -0.059372388 0.06407354 0.03735661 0.07409769 -0.06686662 0.022455385
-0.03562073 -0.05725886 0.00880976 0.042339984 0.05276886 -0.0046985056 0.07676787 0.0232378
0.035154935 0.031055529 0.015945332 0.0250462 0.07698769 0.07469148 0.00033444873 0.07468441
0.05283482 -0.038711116 -0.02083089 0.015944002 0.021920038 -0.057898883 -0.014588372 0.07811483
0.081480466 0.03720242 -0.090967774 -0.034294046 0.028911782 -0.0018253542 -0.063548736 0.05716948
0.043481342 -0.0043137693 0.077442594 0.041394267 -0.010895355 -0.082290865 -0.070886575 0.035000954
-0.015916055 -0.00836992 -0.04275933 -0.018397221 -0.04964681 0.0043360437 0.07830188 -0.06543432
-0.009273176 -0.052421764 0.025805842 -0.06382801 -0.007200485 0.017863527 0.06979713 -0.035502974
-0.03850758 -0.027667271 0.042374484 0.0093235755 -0.08326017 -0.019705867 -0.060859296 0.02540171
0.017211588 0.025889307 0.023602786 0.011684029 -0.021507157 0.06996494 0.0032057238 0.02172476
0.084065914 0.068126954 0.041769836 0.030876562 0.08762736 0.090133205 -0.05136743 -0.030038537
0.08003582 0.06625413 0.036156204 -0.053807475 0.018857112 -0.06783604 -0.07217831 -0.06861018
00000000: aca9 65bc 5333 42bd f2ec 50bd c650 13bb
00000010: 1ac7 8cbd 77e4 95bd ed3f 8ebd f755 2abc
00000020: c2e3 5fbd eb6f 86bc 3ee9 dfbc f4fc abbb
00000030: 4884 8fbc 66ed 863d 7b7b 153d 2785 32bc
00000040: 6ab5 e9bb 0f42 8bbd 413b 81bc 7b74 25bd
00000050: 450b 28bd 9dcf 77bd e86b 693d 4548 69bd
00000060: 9e16 8fbd 671f 9c3d 01fa 56bd 2685 943d
00000070: 0ace afbc f984 243d 0258 57bc 86d3 523d
00000080: f5e2 2b3c 1232 863b b7a6 e7bb 824c 25bc
00000090: ef21 55bd 63df a1bd 0b04 57bd 636d 3a3d
000000a0: 0052 05bd 5255 353c f2b8 25bd dd0b 0b3c
000000b0: 195d f8bc dac1 5fbc 5ae6 9e3d f6c0 37bd
000000c0: d445 60bd 714c ee3c d284 64bd f9b5 e43c
000000d0: fbe5 81bd f291 203d 5181 303c 5654 46bd
000000e0: 1867 293d 4700 943c a632 763d 5355 b33c
000000f0: b881 5ebd 66d8 a8bc 5030 fa3c 1644 e83b
00000100: fe51 993d 43e7 de3c 1f55 aabc fc70 1e3c
00000110: 9743 33bd d09c 9b3c 6775 003d 9faa 9a3c
00000120: a67f 603d 6f93 f83c 5c06 a1bd 6596 3dbd
00000130: 3316 e7bc 0599 4d3d 9d0d 9e3d d080 b6bc
00000140: fe04 2d3d 4dc7 9ebd e2db 36bd a41d a3bd
00000150: b11b f53c 2acf b03c 150c 54bd 19bc 4a3d
00000160: aa21 633d a8b2 203d 436e edbc ca1f 2cbd
00000170: 03b9 ce3c c66d 0cbd 5a38 3b3b 220d 9ebd
00000180: ed80 eb3b c183 92bc bbdc 55bd a147 61bd
00000190: 48cb 933b afe9 40bd 236d 27bc c127 e9bb
000001a0: 0ef8 c53a 170f 5f3d 5e51 67bd b8ec 32bc
000001b0: 69fd 4fbd eeac 36bc d7bd 663d 6edc b53c
000001c0: 0ddb 7e3d 9963 873d de47 a03b 8773 ce3c
000001d0: 85af c33c 5551 0dbd 1a78 753d 99ad 57bc
000001e0: 3391 35bc b0b3 283d fbe2 683d f536 c13c
000001f0: 66ce 6e3c 378f 9abd ef90 203b 1b41 8abd
00000200: 82f0 55bd b35b 4ebd 7106 80bd 4278 683b
00000210: 9a49 4e3d 160d 963d dfeb 903d 97c4 733d
00000220: bf9d 033d 94b5 a43d 80fd 4a3d d45d 303c
00000230: 73db 0e3b db39 68bd 7428 273d 687b 9bbd
00000240: e0e7 cf39 8ded 143d 1f6b 983d 6d8b 94bd
00000250: 0770 28bd 874a a0bd 3b78 453d 1c3b 85bd
00000260: f6dd 923d daf3 18bd 8b6b 8a3d eb48 c9bc
00000270: 8aad 48bd 2866 203d 410a a8bd ce4a 17bc
00000280: dad3 483b 5f7d 933d 7630 73bd fd38 833d
00000290: 3f03 193d 88c0 973d 5ef1 88bd 5bf4 b73c
000002a0: 0be7 11bd 4488 6abd d056 103c b16c 2d3d
000002b0: 2924 583d ecf5 99bb 7938 9d3d 335d be3c
000002c0: 9ffe 0f3d 2a68 fe3c c99f 823c b02d cd3c
000002d0: b9ab 9d3d d9f7 983d f358 af39 24f4 983d
000002e0: 5369 583d 8c8f 1ebd 8ba5 aabc ff9c 823c
000002f0: a791 b33c 6127 6dbd 1104 6fbc abfa 9f3d
00000300: 3bdf a63d 9161 183d 504d babd ea77 0cbd
00000310: 67d8 ec3c b940 efba d725 82bd 8b2a 6a3d
00000320: 7e19 323d 855a 8dbb 399a 9e3d 098d 293d
00000330: 6e82 32bc 1d88 a8bd fb2c 91bd 295d 0f3d
00000340: 6362 82bc fd21 09bc 6824 2fbd c5b5 96bc
00000350: 745a 4bbd 5f15 8e3b bc5c a03d 6e02 86bd
00000360: 85ee 17bc 34b8 56bd c666 d33c 42b8 82bd
00000370: 0cf2 ebbb 8856 923c ccf1 8e3d 916b 11bd
00000380: 20ba 1dbd 79a6 e2bc de90 2d3d e9c1 183c
00000390: 4f84 aabd 336e a1bc 9947 79bd 3f17 d03c
000003a0: 51ff 8c3c d015 d43c a15a c13c 5f6e 3f3c
000003b0: c72f b0bc c749 8f3d 1f17 523b 20f8 b13c
000003c0: c02a ac3d 2586 8b3d d916 2b3d d8f0 fc3c
000003d0: f975 b33d c297 b83d a766 52bd 6113 f6bc
000003e0: d2e9 a33d 3fb0 873d 8718 143d 3a65 5cbd
000003f0: 3b7a 9a3c 9fed 8abd 39d2 93bd 7e83 8cbd

value_network.2.bias f4 [100]
0.05293333 0.04907818 -0.043766394 -0.03125833 0.04167731 0.019489037 -0.0031109059 0.046239473
-0.08097658 0.061381508 0.008428032 0.032268543 0.018055996 0.017740548 -0.057897028 0.09187936
0.027690211 -0.05455058 0.0644008 0.046010043 0.097704045 0.054228865 -0.020735808 -0.06433318
0.0497597 -0.039299637 0.015237017 0.012511144 0.053723086 -0.00309357 -0.055836283 -0.041626785
-0.06487318 -0.031773433 -0.086879805 0.010728103 -0.02077053 -0.029505601 0.05082586 -0.04430352
0.04522154 0.07723654 -0.054102145 0.10090812 -0.004835765 0.010810447 -0.0710936 -0.0055317967
0.00062931323 0.039835542 -0.022751475 0.09388137 -0.019090101 0.011145013 0.062765114 -0.0062341318
-0.06759775 0.039813597 0.018859055 0.003802052 -0.020314716 0.06839272 0.061355498 0.02135889
0.0005352341 -0.021129543 -0.0009666555 0.05882439 -0.00183423 -0.045571048 0.0082406225 -0.09336071
0.041547842 -0.04384692 -0.046372022 -0.04978423 -0.02213217 -0.030107813 -0.023407677 -0.06351749
0.07397464 -0.002899825 -0.028313473 -0.056923512 0.0020947051 0.06404649 -0.02896084 0.08227288
0.05706811 -0.043689393 -0.08475824 0.030810796 -0.048609447 0.06370712 -0.06293516 0.009178407
-0.03665285 -0.016154114 0.0033902398 -0.033072174
00000000: 9fd0 583d 3406 493d 6444 33bd bc08 00bd
00000010: d4b5 2a3d 79a7 9f3c 57e0 4bbb 9a65 3d3d
00000020: 0dd7 a5bd 2d6b 7b3d ba15 0a3c 052c 043d
00000030: 2bea 933c a054 913c 6f25 6dbd 3f2b bc3d
00000040: 95d6 e23c 6e70 5fbd 91e4 833d 0775 3c3d
00000050: 0f19 c83d 161f 5e3d 24de a9bc 1dc1 83bd
00000060: d4d0 4b3d a8f8 20bd aea4 793c 8bfb 4c3c
00000070: bd0c 5c3d 7ebd 4abb 96b4 64bd d980 2abd
00000080: 3bdc 84bd dc24 02bd 0aee b1bd edc4 2f3c
00000090: f526 aabc bbb5 f1bc c72e 503d 9c77 35bd
000000a0: 393a 393d 312e 9e3d 369a 5dbd eba8 ce3d
000000b0: 5675 9ebb 4d1e 313c 8599 91bd 1344 b5bb
000000c0: 7ff8 243a 982a 233d 4d61 babc e044 c03d
000000d0: d862 9cbc 9399 363c ff8a 803d b047 ccbb
000000e0: b070 8abd 9513 233d 4e7e 9a3c d92b 793b
000000f0: 0c6b a6bc 7b11 8c3d e74f 7b3d d7f8 ae3c
00000100: f44e 0c3a dd17 adbc 2767 7dba d8f1 703d
00000110: 8c6a f0ba b5a8 3abd ad03 073c e633 bfbd
00000120: 122e 2a3d d498 33bd 97f0 3dbd 8cea 4bbd
00000130: 864e b5bc a9a4 f6bc 75c1 bfbc 7515 82bd
00000140: 0480 973d fe0a 3ebb a8f1 e7bc a128 69bd
00000150: 5247 093b ce2a 833d 493f edbc af7e a83d
00000160: 40c0 693d a6f3 32bd ba95 adbd ec66 fc3c
00000170: b31a 47bd e178 823d 26e4 80bd 0761 163c
00000180: 4d21 16bd a255 84bc c92e 5e3b b076 07bd

value_network.4.weight f4 [100, 100]
-0.09797099 0.0048388806 -0.05280843 -0.03313815 -0.024022102 -0.056005355 -0.043856304 -0.0021118864
0.002582872 -0.0066722757 -0.04898321 0.0048012934 -0.028335745 0.011214244 -0.059348095 -0.0731122
0.0539606 -0.08200048 0.08131073 0.08364211 0.07166743 -0.07447305 -0.06598365 0.030461248
-0.09108256 0.028463576 -0.057214484 0.08885018 -0.053976152 0.07644553 0.02171065 -0.09976194
0.08698123 -0.006587483 -0.05375712 0.06736131 -0.06847819 -0.026425216 0.10060883 0.032180753
0.027620677 -0.06780155 0.13622381 0.10867161 0.06804325 -0.1049191 0.05312258 0.00075789436
0.05229007 -0.05976526 0.05714168 0.046856828 0.067751385 -0.054476727 -0.06870568 -0.08314119
0.112688415 0.011497751 0.09504831 0.09397882 -0.015482889 0.07910799 -0.028872704 0.040602542
0.0463566 -0.074677505 -0.008706913 -0.05217157 -0.07015324 0.01570363 0.04378126 -0.039197907
-0.08088626 0.0012265844 0.013391613 0.036665298 0.072873175 -0.023766948 0.037174582 -0.042233437
0.10581877 -0.06537814 0.08861135 -0.063665174 0.056335937 0.10005465 0.06377375 -0.05135771
0.10763956 -0.00480008 -0.061507955 0.021411665 0.08340637 -0.08687928 0.021107743 -0.065487295
0.04569237 -0.058723297 -0.056142893 0.05072592 0.013120548 -0.014307171 0.06711509 -0.08076958
-0.08302561 -0.094689704 -0.058261152 0.022849968 0.060102496 -0.010788699 -0.1007698 0.055966254
-0.009028029 0.0046604234 -0.022127772 0.025091236 0.052093405 0.085718825 -0.06891602 0.07756573
-0.058660064 0.010459738 0.07126321 -0.0012988313 0.022528589 0.07155408 0.077435985 -0.025362676
0.070963025 0.043517336 0.0046304967 -0.07695758 -0.05514257 0.070630305 -0.040461835 0.06795661
0.06130976 0.0027517797 0.083775856 0.06048962 -0.03139769 0.07068075 0.062783085 -0.00026270802
0.06632067 -0.002876562 0.0028420815 -0.09311072 0.023495577 -0.079309605 -0.050607014 0.047782063
0.09263356 0.024916722 0.082031555 0.059134074 0.015976498 0.084371686 0.039357368 0.070293196
-0.026755342 -0.046145122 -0.0058013014 -0.0103662 -0.060509507 0.0896567 0.019560019 -0.063819826
-0.041293588 0.09473194 0.06524321 -0.05377387 0.08577384 -0.03992186 0.025135001 0.09861336
-0.046737134 -0.09900344 -0.03444561 0.027111368 -0.014414068 -0.018592525 -0.031706348 -0.015697883
-0.09487047 -0.092186354 0.055769 -0.06347399 -0.011587424 -0.082342505 -0.07290784 -0.08681879
-0.058466718 0.053687613 0.06337617 0.0051566307 -5.739497e-05 0.07008292 -0.071752205 0.08460373
-0.033010647 0.029654784 0.05078457 0.008826964 -0.058624744 -0.00031623026 -0.057702135 -0.066539176
-0.059928376 0.049064234 0.0412669 0.042217482 0.04109485 0.04938192 0.091132246 -0.07430042
0.08906794 -0.058671433 -0.011888415 0.0122836055 0.06719957 0.08169246 0.061359014 0.06650568
0.043857917 -0.092498064 -0.010571675 -0.047136024 -0.0903193 -0.078656085 -0.09435043 0.08577806
-0.08209091 0.043414347 0.0068791173 -0.0191191 0.0076342644 0.017896617 -0.114297174 -0.010634446
-0.09379274 0.08687324 -0.027336773 0.05794667 0.08387865 -0.033626452 0.07063715 -0.01834828
-0.018115839 -0.044515748 -0.088450335 -0.08444018 0.049572013 0.088929035 0.08682143 -0.08610826
00000000: 04a5 c8bd 798f 9e3b a74d 58bd debb 07bd
00000010: 00ca c4bc df65 65bd aba2 33bd 9367 0abb
00000020: 6745 293b 1ba3 dabb 9ea2 48bd 2b54 9d3b
00000030: 5d20 e8bc f3bb 373c fd16 73bd d9bb 95bd
00000040: ca05 5d3d deef a7bd 3d86 a63d 8e4c ab3d
00000050: 60c6 923d 5485 98bd 7022 87bd de89 f93c
00000060: 7e89 babd 722c e93c bc59 6abd 15f7 b53d
00000070: 1916 5dbd 798f 9c3d 88da b13c fd4f ccbd
00000080: 3723 b23d d0db d7bb 6d30 5cbd baf4 893d
00000090: 4b3e 8cbd b279 d8bc 010c ce3d f7cf 033d
000000a0: c244 e23c 8adb 8abd 417e 0b3e 398f de3d
000000b0: 425a 8b3d d3df d6bd 1097 593d 6ead 463a
000000c0: 1d2e 563d 6bcc 74bd 650d 6a3d f2ec 3f3d
000000d0: 3dc1 8a3d fd22 5fbd 90b5 8cbd ee45 aabd
000000e0: 2fc9 e63d 1061 3c3c b0a8 c23d f877 c03d
000000f0: f1ab 7dbc 5f03 a23d 7386 ecbc da4e 263d
00000100: 6be0 3d3d 85f0 98bd 71a7 0ebc dbb1 55bd
00000110: 80ac 8fbd e6a4 803c fa53 333d fc8d 20bd
00000120: b2a7 a5bd 58c5 a03a 7f68 5b3c 5a2e 163d
00000130: 883e 953d e7b2 c2bc 6044 183d f8fc 2cbd
00000140: 83b7 d83d f9e4 85bd de79 b53d e362 82bd
00000150: 83c0 663d 74e9 cc3d d09b 823d 765c 52bd
00000160: 2172 dc3d fd49 9dbb c4ef 7bbd 8467 af3c
00000170: f5d0 aa3d c4ed b1bd 25ea ac3c 341e 86bd
00000180: ec27 3b3d d787 70bd 17f6 65bd fbc5 4f3d
00000190: 91f7 563c a068 6abc a373 893d 866a a5bd
000001a0: 5509 aabd adec c1bd 3fa3 6ebd db2f bb3c
000001b0: 092e 763d 15c3 30bc 6660 cebd df3c 653d
000001c0: 4cea 13bc 77b6 983b 4d45 b5bc 238c cd3c
000001d0: e55f 553d 5a8d af3d d823 8dbd c8da 9e3d
000001e0: 8945 70bd 525f 2b3c 72f2 913d 8c3d aaba
000001f0: e08d b83c f28a 923d c296 9e3d 63c5 cfbc
00000200: 1055 913d 3c3f 323d 6cbb 973b f09b 9dbd
00000210: 2ddd 61bd 9fa6 903d 4fbb 25bd d62c 8b3d
00000220: f11f 7b3d 3457 343b ad92 ab3d f7c3 773d
00000230: dd9a 00bd 12c1 903d 6b94 803d 13bc 89b9
00000240: 22d3 873d b484 3cbb 3742 3a3b d5b0 bebd
00000250: cc79 c03c 136d a2bd 4d49 4fbd 20b7 433d
00000260: aab6 bd3d 271e cc3c 2900 a83d 9236 723d
00000270: 25e1 823c 10cb ac3d 3135 213d e1f5 8f3d
00000280: 052e dbbc ab02 3dbd d818 bebb fed6 29bc
00000290: d1d8 77bd ef9d b73d 553c a03c f8b3 82bd
000002a0: 7723 29bd d202 c23d 3b9e 853d fd41 5cbd
000002b0: 32aa af3d 1b85 23bd ebe7 cd3c cdf5 c93d
000002c0: 706f 3fbd 51c2 cabd d716 0dbd a918 de3c
000002d0: fc28 6cbc 5a4f 98bc 84de 01bd d998 80bc
000002e0: 734b c2bd 33cc bcbd 096e 643d a7fe 81bd
000002f0: 2ed9 3dbc 30a3 a8bd b550 95bd 0dce b1bd
00000300: cc7a 6fbd 8be7 5b3d 5ecb 813d f4f8 a83b
00000310: 61bb 70b8 a287 8f3d d2f2 92bd b844 ad3d
00000320: 2c36 07bd 97ee f23c 7b03 503d f89e 103c
00000330: 8020 70bd b5cb a5b9 1359 6cbd b145 88bd
00000340: 7577 75bd 94f7 483d 7b07 293d 3dec 2c3d
00000350: 1353 283d b244 4a3d 8ba3 ba3d d22a 98bd
00000360: 4169 b63d 7551 70bd a0c7 42bc 2d41 493c
00000370: ee9f 893d 604e a73d 9753 7b3d 2134 883d
00000380: 5ca4 333d a06f bdbd d234 2dbc b411 41bd
00000390: 53f9 b8bd 7116 a1bd cc3a c1bd 68ac af3d
000003a0: 471f a8bd 3ed3 313d 386a e13b a99f 9cbc
000003b0: da28 fa3b ed9b 923c a314 eabd 193c 2ebc
000003c0: 6816 c0bd 99ea b13d 5ef1 dfbc 7d59 6d3d
000003d0: 92c8 ab3d e4bb 09bd 36aa 903d 224f 96bc
000003e0: ab67 94bc 2556 36bd 7325 b5bd f9ee acbd
000003f0: 060c 4b3d 6d20 b63d 6fcf b13d 8759 b0bd

value_network.4.bias f4 [100]
-0.04079323 -0.06875696 0.039437048 -0.028736413 -0.022975994 -0.017613105 -0.06560062 -0.053232785
-0.048302677 -0.043737326 0.05120143 0.05170282 0.06295796 -0.04678311 0.05695609 -0.044378914
0.04451291 0.011654556 0.16461313 0.038928814 -0.1012949 -0.0048552277 0.05980631 -0.08429185
-0.061837997 0.039846748 0.034406714 0.081193075 -0.039923497 -0.11499106 -0.043320857 -0.03285055
0.08786259 0.0792579 0.09902141 -0.030490065 -0.02862145 -0.018549278 -0.06305332 -0.028303523
-0.037929695 0.06731216 0.048212186 -0.064838536 -0.036751628 0.0044998173 -0.050522648 -0.073289156
0.08595804 -0.044736207 -0.06931752 0.02585642 0.06387876 -0.038602814 0.034604385 0.019859161
0.14406236 -0.009189184 0.0034599125 -0.09902643 0.050480645 -0.04723508 0.13676798 0.025762936
0.046302628 0.101930276 -0.029385114 0.02035525 -0.03299259 0.18697882 0.051034544 -0.00555737
-0.08612534 -0.0029145922 -0.037406266 -0.06456539 0.036869008 0.13207379 0.030729268 -0.061878182
0.02877081 0.00867068 -0.009137577 -0.07517335 0.087883554 0.002201781 0.13085897 0.08082673
-0.037222024 -0.07916274 -0.08750864 0.1367912 -0.067154154 0.08603367 0.09135941 0.030032158
-0.04273249 0.05823471 0.016273579 -0.025154142
00000000: cd16 27bd 73d0 8cbd be88 213d a068 ebbc
00000010: 2738 bcbc 5c49 90bc 9e59 86bd 9f0a 5abd
00000020: 07d9 45bd e925 33bd 97b8 513d 56c6 533d
00000030: 1af0 803d a59f 3fbd ca4a 693d aac6 35bd
00000040: 2b53 363d c0f2 3e3c 5890 283e d273 1f3d
00000050: b373 cfbd 9a18 9fbb 76f7 743d 35a1 acbd
00000060: d749 7dbd 5836 233d 0eee 0c3d 8e48 a63d
00000070: d286 23bd 6f80 ebbd 3671 31bd 4c8e 06bd
00000080: 4df1 b33d f751 a23d bdcb ca3d 4dc6 f9bc
00000090: 8877 eabc a8f4 97bc 1922 81bd cadc e7bc
000000a0: 2b5c 1bbd f5da 893d 247a 453d 11ca 84bd
000000b0: e088 16bd 3473 933b d6f0 4ebd a018 96bd
000000c0: c50a b03d 503d 37bd 58f6 8dbd d8d0 d33c
000000d0: ded2 823d fc1d 1ebd 54bd 0d3d aeaf a23c
000000e0: 1585 133e 3b8e 16bc b3bf 623b 5ece cabd
000000f0: cbc4 4e3d 9279 41bd e80c 0c3e cb0c d33c
00000100: d3a7 3d3d d2c0 d03d 0db9 f0bc 0ec0 a63c
00000110: 3d23 07bd 6077 3f3e 9909 513d 991a b6bb
00000120: 7b62 b0bd be02 3fbb 5037 19bd dc3a 84bd
00000130: f503 173d 5a3e 073e f2bb fb3c fa73 7dbd
00000140: c3b0 eb3c 780f 0e3c c7b5 15bc 7cf4 99bd
00000150: 4bfc b33d c14b 103b e5ff 053e 7c88 a53d
00000160: 1f76 18bd 1320 a2bd bb37 b3bd fe12 0c3e
00000170: 1e88 89bd 6c32 b03d a41a bb3d 0006 f63c
00000180: 4308 2fbd 8587 6e3d 2b50 853c 0f10 cebc

value_network.6.weight f4 [1, 100]
-0.19029994 -0.080488965 0.1682901 -0.09797328 -0.007836933 -0.115186594 0.043877702 0.11463451
-0.020099165 0.05132956 0.038183667 0.050691232 -0.04507502 -0.023236686 -0.038888548 0.075739816
0.14354852 0.10351449 0.28865215 0.15862937 -0.083452046 -0.08213675 0.06472919 -0.018693503
-0.0347291 -0.04778045 0.008156574 0.093658485 -0.032364562 -0.22046615 -0.10586624 0.062366243
0.07791165 -0.36611092 0.21877791 -0.13756561 0.14045839 -0.19481486 0.048908193 0.017685026
-0.004094323 0.15965569 -0.0248562 -0.015859962 -0.2252953 0.07587222 -0.078967884 -0.041913655
-0.16506256 -0.043263208 -0.050446436 -0.06988475 0.15768963 -0.1293469 0.21711133 -0.12797134
0.113709934 -0.013607907 -0.1367669 0.095372915 -0.09506807 -0.118375875 0.15612039 -0.067619115
-0.02729567 0.14041503 0.023445094 0.011481736 0.035832547 0.23153457 0.18121864 0.029480541
-0.010256911 -0.029712211 0.06665657 -0.03788702 -0.1224473 0.23904666 0.10860392 -0.006550193
-0.35164195 -0.054786153 -0.105796285 -0.055023525 0.047291365 0.08986616 0.07607178 0.16316596
-0.099558406 0.17373915 -0.08397748 0.18228725 -0.23862709 0.28793845 0.17284794 -0.010690441
-0.032860037 0.065004505 0.24023248 0.004334607
00000000: fddd 42be 66d7 a4bd 3d54 2c3e 37a6 c8bd
00000010: 7b66 00bc f3e6 ebbd 1bb9 333d 7fc5 ea3d
00000020: 01a7 a4bc f23e 523d 7a66 1c3d 9ca1 4f3d
00000030: 96a0 38bd dd5a bebc 9949 1fbd 7a1d 9b3d
00000040: 62fe 123e 68ff d33d 37ca 933e bd6f 223e
00000050: e8e8 aabd 5037 a8bd bd90 843d 1e23 99bc
00000060: 1a40 0ebd 6fb5 43bd 27a3 053c 05d0 bf3d
00000070: b490 04bd e1c1 61be 66d0 d8bd bf73 7f3d
00000080: 2590 9f3d e472 bbbe 5107 603e 00de 0cbe
00000090: 53d4 0f3e 8c7d 47be f553 483d 30e0 903c
000000a0: ac29 86bb c87c 233e 3b9f cbbc c0ec 81bc
000000b0: d0b3 66be e562 9b3d eab9 a1bd a7ad 2bbd
000000c0: 2906 29be c334 31bd eca0 4ebd bc1f 8fbd
000000d0: 6479 213e 8473 04be 6f52 5e3e eb0a 03be
000000e0: c1e0 e83d b3f3 5ebc 9f0c 0cbe e052 c33d
000000f0: 0cb3 c2bd 0d6f f2bd 06de 1f3e e47b 8abd
00000100: 2b9b dfbc f5c8 0f3e ed0f c03c e41d 3c3c
00000110: 26c5 123d 6617 6d3e 6191 393e 2d81 f13c
00000120: 9a0c 28bc 0667 f3bc 3d83 883d 6b2f 1bbd
00000130: a6c5 fabd a6c8 743e bb6b de3d 00a3 d6bb
00000140: 6a0a b4be 7267 60bd b9ab d8bd 5960 61bd
00000150: 97b4 413d c00b b83d 85cb 9b3d fa14 273e
00000160: 47e5 cbbd ade8 313e 63fc abbd 82a9 3a3e
00000170: a95a 74be ab6c 933e 0dff 303e f626 2fbc
00000180: 3f98 06bd 1521 853d 81ff 753e 5209 8e3b
