crowd_nav/data/output/omSARL/il_model.pth (torch, 421347 bytes, 20 tensors)

mlp1.0.weight f4 [150, 61]
-0.014115789 0.04320841 -0.11868901 0.10633557 -0.08203051 0.104181595 0.043804064 -0.08890475
-0.08387959 -0.09164402 -0.04032946 0.08311686 0.10593863 -0.07854597 -0.0426493 0.04800739
-0.06478269 0.0054707713 -0.07110788 -0.04529927 -0.026228495 -0.04604838 0.025848843 0.017850846
0.10647106 -0.028580463 -0.120335564 -0.01231675 -0.082803376 0.07893738 -0.06081289 -0.09917324
-0.017217275 -0.07591109 -0.015882311 0.04106024 0.078240514 -0.045908425 -0.055155482 0.045023315
-0.06528698 0.053140525 -0.088744 -0.115800545 -0.06865371 -0.08782055 -0.058271673 -0.08405935
0.12388303 0.08574306 0.10297042 0.059610292 0.007362498 -0.051473428 -0.08323725 0.036349956
-0.07696312 -0.047015592 0.083477 0.083826974 -0.12013814 -0.072878875 -0.043165755 0.019660372
-0.07002485 -0.02057595 -0.033043277 0.014088839 0.054362826 0.10119507 -0.015247444 -0.03520951
0.09744335 0.04233932 -0.062290173 0.015443928 -0.088180356 -0.10164123 0.034251973 -0.11704791
-0.1159274 0.026087243 -0.12172072 0.057589184 0.06750602 0.10653589 -0.06876526 0.07151861
-0.033311803 -0.033685748 0.014061329 -0.041952718 -0.084735416 -0.09200385 -0.0010805681 0.069174975
-0.09180329 0.0077951234 -0.07918227 0.0068099364 -0.0058146976 -0.11753563 -0.03644392 -0.07188991
0.015270549 0.12853973 -0.026060142 -0.095467985 0.13238308 0.0759431 -0.02139262 -0.10775747
-0.028515209 -0.121253416 -0.037899315 0.10483654 0.027944934 -0.1045407 -0.014112828 0.136937
0.09362278 -0.120723024 -0.03715643 0.10522277 0.08946854 0.029547632 -0.04323927 -0.030077972
0.11934912 0.14463185 0.12787399 0.09501957 -0.022354284 0.082231194 -0.0004779254 -0.008719194
-0.06243063 -0.11006644 0.014712292 -0.11520652 -0.02920399 -0.00400927 0.079511285 0.039064247
0.13248067 -0.12798342 0.12315981 -0.07525439 -0.08639011 -0.13865109 0.13883565 -0.025260637
-0.08064596 -0.10182081 -0.062074218 -0.08515542 0.015891677 0.026199363 -0.0940694 0.07507896
-0.036092024 0.062972516 0.035642978 0.0656109 0.05695445 0.022621721 -0.1261995 0.060164534
-0.061300885 0.042343315 -0.021776117 0.10914488 -0.046623223 0.103467576 -0.119016975 -0.13614799
0.06679129 0.011624949 -0.025198083 -0.14214346 0.119750604 0.079955205 -0.019429779 -0.028443152
-0.12770657 -0.08038891 0.08974837 0.14520492 0.03404397 -0.049545918 -0.07348811 0.041658327
-0.06352096 0.101841375 -0.03791061 0.08427869 0.08621018 0.108291864 -0.08129025 0.21720292
0.025900558 -0.06849538 0.048859067 -0.026269848 0.17256643 -0.0826425 -0.13803987 0.105877526
0.097306155 -0.10593996 -0.10691409 -0.11373951 -0.10781813 0.06724991 -0.027615046 -0.050792072
-0.043561757 -0.020730313 -0.11758284 0.08485813 0.108898945 -0.06613618 0.06965707 0.09935871
-0.006427041 -0.022322927 -0.043888923 -0.023144785 0.07199893 -0.0020895675 0.07959676 -0.07964972
0.0701625 0.11724761 0.009603808 0.118777916 0.04710409 -0.12422561 0.10421642 -0.034824215
-0.10078834 0.0496829 0.047822345 0.03256167 0.06990235 0.0674881 -0.12342484 -0.09168005
0.037387587 -0.020239232 -0.006901159 0.0066767423 0.045325335 -0.11379989 0.010798716 -0.09152781
00000000: e945 67bc 4dfb 303d 3913 f3bd 77c6 d93d
00000010: 9dff a7bd 295d d53d e46b 333d b213 b6bd
00000020: 10c9 abbd dcaf bbbd 8130 25bd 2c39 aa3d
00000030: 5af6 d83d b6dc a0bd 08b1 2ebd 66a3 443d
00000040: c9ac 84bd 2844 b33b 02a1 91bd ba8b 39bd
00000050: 24dd d6bc 3a9d 3cbd f4c0 d33c f03b 923c
00000060: 800d da3d 9321 eabc 7e72 f6bd 32cc 49bc
00000070: d194 a9bd eca9 a13d f016 79bd 571b cbbd
00000080: 3e0b 8dbc 4677 9bbd 9f1b 82bc c82e 283d
00000090: 903c a03d 790a 3cbd b7ea 61bd 5e6a 383d
000000a0: 2eb5 85bd e1a9 593d 6abf b5bd d628 edbd
000000b0: 519a 8cbd 43db b3bd 47ae 6ebd 4f27 acbd
000000c0: 63b6 fd3d 0f9a af3d 28e2 d23d ec29 743d
000000d0: 1c41 f13b cdd5 52bd 4b78 aabd b1e3 143d
000000e0: d79e 9dbd 6c93 40bd fdf5 aa3d 7aad ab3d
000000f0: fc0a f6bd 8541 95bd 93ce 30bd ca0e a13c
00000100: 3069 8fbd e58e a8bc 6358 07bd e0d4 663c
00000110: 8eab 5e3d 5c3f cf3d 6ad0 79bc d937 10bd
00000120: 6190 c73d ff6b 2d3d fb23 7fbd 8708 7d3c
00000130: e797 b4bd 4729 d0bd cc4b 0c3d d1b6 efbd
00000140: 586b edbd eab4 d53c b648 f9bd a3e2 6b3d
00000150: 9940 8a3d 7d2f da3d cdd4 8cbd 5978 923d
00000160: f571 08bd 11fa 09bd 7d61 663c 9dd6 2bbd
00000170: c389 adbd 846c bcbd d9a1 8dba 9cab 8d3d
00000180: 5d03 bcbd 3c6e ff3b 502a a2bd e325 df3b
00000190: 3889 bebb 85b6 f0bd 3846 15bd 043b 93bd
000001a0: 5331 7a3c eb9f 033e 147c d5bc b884 c3bd
000001b0: 6e8f 073e 0e88 9b3d 933f afbc f3af dcbd
000001c0: ba98 e9bc b653 f8bd 503c 1bbd 8ab4 d63d
000001d0: c6ec e43c 6f19 d6bd 7e39 67bc 3739 0c3e
000001e0: 4dbd bf3d a23d f7bd 5731 18bd 097f d73d
000001f0: 483b b73d e00d f23c a91b 31bd 1466 f6bc
00000200: 506d f43d 5f1a 143e 66f1 023e 9f99 c23d
00000210: 5520 b7bc d468 a83d 1092 fab9 f3da 0ebc
00000220: 43b7 7fbd 846a e1bd d30b 713c 65f1 ebbd
00000230: 353d efbc 3260 83bb d0d6 a23d d501 203d
00000240: 03a9 073e 160e 03be 363b fc3d f91e 9abd
00000250: 4ced b0bd 8dfa 0dbe ef2a 0e3e 65ef cebc
00000260: b629 a5bd 6e87 d0bd 8941 7ebd f765 aebd
00000270: 432f 823c 0ca0 d63c 75a7 c0bd ffc2 993d
00000280: 3bd5 13bd bcf7 803d 5ffe 113d 025f 863d
00000290: 1249 693d 3051 b93c 713a 01be 166f 763d
000002a0: a316 7bbd 2f70 2d3d d463 b2bc 5a87 df3d
000002b0: fef7 3ebd cfe6 d33d 2cbf f3bd 616a 0bbe
000002c0: dfc9 883d 9276 3e3c 366c cebc 0e8e 11be
000002d0: ce3f f53d 8ebf a33d 332b 9fbc 9d01 e9bc
000002e0: 83c5 02be f1a2 a4bd fecd b73d 99b0 143e
000002f0: b171 0b3d a9f0 4abd ef80 96bd eca1 2a3d
00000300: 4717 82bd 3692 d03d 2848 1bbd 4e9a ac3d
00000310: f68e b03d 20c8 dd3d 817b a6bd 716a 5e3e
00000320: 682d d43c 4e47 8cbd 7220 483d dd33 d7bc
00000330: 41b5 303e 7940 a9bd 535a 0dbe 51d6 d83d
00000340: 7348 c73d 0df7 d8bd c6f5 dabd 43f0 e8bd
00000350: c0cf dcbd 52ba 893d f338 e2bc 590b 50bd
00000360: d06d 32bd 9ed2 a9bc 46cf f0bd 19ca ad3d
00000370: 6906 df3d 6872 87bd 5ea8 8e3d 947c cb3d
00000380: ed99 d2bb 92de b6bc dfc4 33bd 229a bdbc
00000390: 2d74 933d 20f1 08bb a003 a33d 641f a3bd
000003a0: 5bb1 8f3d 841f f03d 4a59 1d3c d641 f33d
000003b0: 38f0 403d ff69 febd 6b6f d53d d6a3 0ebd
000003c0: 1e6a cebd 4c80 4b3d 5de1 433d 635f 053d
000003d0: f728 8f3d 3337 8a3d 2ac6 fcbd c0c2 bbbd
000003e0: ba23 193d bfcc a5bc 1e23 e2bb 93c8 da3b
000003f0: 0fa7 393d eb0f e9bd 19ed 303c ef72 bbbd

mlp1.0.bias f4 [150]
0.066054076 0.011697244 -0.11282694 -0.030217065 0.048403077 0.07070839 -0.06406244 0.07407947
-0.051474553 -0.12980793 -0.039301377 -0.019634955 -0.03788218 -0.0570518 -0.10182439 0.12118591
-0.030440511 -0.12732843 0.08256525 0.08572536 0.07127711 0.12058206 0.047328398 -0.07571274
0.112464525 0.042264167 0.09544399 -0.08920046 -0.06478076 -0.009883553 -0.09389491 0.10052312
-0.01596734 -0.045541216 0.0068587707 0.0743585 0.07344309 -0.063942395 0.044523373 -0.0497278
-0.023952125 0.012827893 0.002577534 -0.05910049 0.093285486 0.011812252 -0.08353302 0.008395802
-0.01746659 0.026494054 -0.10654707 0.08689512 0.049987357 -0.10459641 0.09671871 0.052203633
0.05272537 -0.027494015 0.09846124 -0.098222345 0.018230299 0.04160912 -0.0075098868 0.071370274
0.045426756 -0.029140223 -0.04740275 0.13972978 0.11968123 0.025936622 0.08744658 0.13223937
-0.10830005 0.107075155 -0.10464314 0.14890036 0.08489706 -0.06790564 -0.13340141 0.045482468
-0.02269535 -0.020426303 0.033301733 -0.13621409 -0.0056350864 0.0010763477 0.052529536 0.09335397
0.024746375 -0.07752695 -0.08562045 -0.11624625 0.09272522 0.056979626 0.09643071 -0.0072544143
-0.0034582152 0.08278577 -0.033177927 -0.10789854 -0.055762935 0.08455165 -0.06659558 0.02318361
0.1250815 0.09089732 0.091913566 -0.095066115 0.12121495 -0.08276839 0.08384839 0.0924507
-0.017048381 0.0049680662 0.03781776 0.03979062 -0.10751423 -0.14687298 -0.12507458 -0.08052494
0.069457725 -0.068448685 -0.10677127 -0.024737826 0.016019223 -0.10997607 -0.08786853 0.10119438
-0.09363817 -0.0019179928 0.07650642 -0.14755026 0.086092904 -0.01659864 -0.063529216 0.010659579
-0.073218435 0.060701784 -0.06627098 0.03365721 0.11732964 0.08654436 0.0027426472 -0.0955435
0.11707646 -0.07890378 0.09711073 -0.12164152 -0.0904854 0.009940057
00000000: 5c47 873d cca5 3f3c d011 e7bd c789 f7bc
00000010: 4e42 463d 8fcf 903d 2b33 83bd fab6 973d
00000020: fbd6 52bd 5fec 04be 7bfa 20bd 7cd9 a0bc
00000030: 582a 1bbd 26af 69bd 4e89 d0bd 5230 f83d
00000040: 615e f9bc 6262 02be f817 a93d c790 af3d
00000050: bcf9 913d baf3 f63d 6cdb 413d 480f 9bbd
00000060: cd53 e63d 311d 2d3d 2378 c33d bbae b6bd
00000070: c6ab 84bd a0ee 21bc f94b c0bd 11df cd3d
00000080: f0cd 82bc 6d89 3abd 8abf e03b 4549 983d
00000090: 5569 963d 3bf4 82bd 245e 363d 61af 4bbd
000000a0: 3f37 c4bc 152c 523c d8eb 283b 5b13 72bd
000000b0: 760c bf3d 2d88 413c 5c13 abbd 8c8e 093c
000000c0: 1816 8fbc 0f0a d93c 5a35 dabd 12f6 b13d
000000d0: 8bbf 4c3d a536 d6bd 7614 c63d 7ad3 553d
000000e0: 8ff6 573d 213b e1bc 0ca6 c93d cc28 c9bd
000000f0: b557 953c 536e 2a3d 7f15 f6bb 942a 923d
00000100: 6811 3a3d 7ab7 eebc 6329 42bd 5315 0f3e
00000110: 6f1b f53d 0a79 d43c 3117 b33d c269 073e
00000120: 6bcc ddbd 384a db3d 254f d6bd 5679 183e
00000130: 83de ad3d 1d12 8bbd 619a 08be d34b 3a3d
00000140: 99eb b9bc 1055 a7bc 6667 083d b57b 0bbe
00000150: 88a6 b8bb 3c14 8d3a 3629 573d 5e30 bf3d
00000160: e9b8 ca3c 73c6 9ebd c659 afbd 8412 eebd
00000170: b8e6 bd3d 7863 693d 777d c53d 70b6 edbb
00000180: 39a3 62bb 968b a93d 94e5 07bd e9f9 dcbd
00000190: ad67 64bd 6a29 ad3d 4363 88bd 8eeb bd3c
000001a0: 5d15 003e 6028 ba3d 2e3d bc3d 06b2 c2bd
000001b0: 8b3f f83d 7982 a9bd b4b8 ab3d cb56 bd3d
000001c0: 0ca9 8bbc 29cb a23b cce6 1a3d 7dfb 223d
000001d0: 6c30 dcbd df65 16be 8d13 00be 42ea a4bd
000001e0: da3f 8e3d d32e 8cbd e5aa dabd fba6 cabc
000001f0: bf3a 833c 223b e1bd 6af4 b3bd 003f cf3d
00000200: 5ec5 bfbd 2965 fbba 66af 9c3d 6a17 17be
00000210: 7a51 b03d dff9 87bc 9b1b 82bd 84a5 2e3c
00000220: 8cf3 95bd 6fa2 783d 14b9 87bd 25dc 093d
00000230: 864a f03d 2b3e b13d fcbd 333b 4fac c3bd
00000240: c8c5 ef3d 4e98 a1bd fee1 c63d 301f f9bd
00000250: 6950 b9bd 9fdb 223c

mlp1.2.weight f4 [100, 150]
-0.03812024 -0.06745984 -0.044318628 -0.06462951 -0.083026424 -0.06835293 0.012567394 -0.021062182
0.025035415 -0.08150763 0.044126935 0.055758957 -0.005712198 0.033102293 -0.045624312 -0.025191767
-0.026614772 0.025893765 -0.048156746 0.03983365 -0.016574401 -0.014996971 -0.018414464 -0.06352748
-0.05606988 -0.04929789 -0.0742847 0.07157309 0.06449802 0.04599031 0.04934845 -0.009979934
-0.020956915 -0.037594605 0.067197986 -0.04240717 -0.09190826 -0.016086144 0.061145566 0.04625828
0.073120065 0.011902216 -0.068263784 0.04137735 0.07463307 -0.016631547 -0.07412103 0.045799494
0.02937516 -0.0052443477 -0.07166488 0.09282158 0.009388662 0.07193826 0.039519418 -0.012642727
0.06165776 0.029683713 0.066862606 -0.06807155 0.026503077 0.073741645 0.078873016 -0.057868768
-0.029509557 -0.023533247 0.010995469 -0.08404591 0.06529534 -0.05473032 -0.010902457 0.045486085
-0.046221517 0.05673325 -0.0010456295 -0.016162321 0.064643234 0.011139365 -0.07669311 0.053843144
-0.0023927628 0.05227135 -0.03625511 0.06052989 -0.053229325 0.015655447 -0.052098494 0.05169686
-0.004441402 0.060634594 0.10351661 -0.0037968843 0.07078217 -0.05746856 -0.05250381 -0.045217473
-0.026692467 -0.029444825 -0.025455859 -0.031598054 -0.015648529 -0.00931795 0.008719195 0.01244355
-0.025374642 -0.0053304383 -0.020598449 -0.008883486 -0.08204397 0.012601633 0.00056301267 0.029273644
0.05887922 -0.024939789 -0.015422709 -0.058323227 -0.036722332 0.046736024 0.048569065 0.0012161921
-0.046914186 -0.05408649 0.022261979 -0.0033464876 0.058831472 -0.08029473 0.02760236 0.002765071
-0.031585738 -0.068195716 -0.030282233 0.060261965 -0.015134705 -0.029353928 -0.0064451997 0.01704933
0.038437508 0.044890124 -0.030095015 -0.011908475 0.039096702 -0.024820648 0.03209497 -0.037674725
0.030874884 0.04884855 -0.053996697 0.014942002 -0.061685678 -0.066132724 -0.07784014 -0.0643549
-0.09467808 -0.13671952 0.06652787 -0.022289578 0.06953234 -0.019595936 0.03867653 -0.012279226
0.054083597 0.061092876 0.046114396 -0.024292655 0.03031186 -0.10937484 0.049669653 -0.015350421
-0.026391167 -0.04796656 -0.090284646 -0.01757833 0.072330296 0.0073323483 0.03406868 -0.1611286
-0.030119237 -0.10682758 -0.039295375 0.087577075 -0.055710774 -0.065313675 -0.08876834 -0.08737918
0.005961346 -0.053384434 -0.10023348 0.03814082 0.05495868 0.025950862 -0.022701085 -0.04274556
0.0670333 -0.13757779 0.07094337 0.12315426 -0.046332724 -0.08944354 0.03589548 0.050532285
-0.029233562 -0.119677395 0.063904375 0.02676749 -0.074485786 -0.025504814 0.04468573 -0.0003714083
-0.041369066 0.039785292 0.06790068 -0.035677712 0.012285064 0.10875006 0.05364694 -0.032869224
-0.02740302 -0.07061469 -0.12181925 -0.09472787 0.046020273 0.0018144996 0.03562647 -0.035161797
-0.06826256 0.089855194 0.010517856 -0.053362362 0.013455971 -0.033125564 0.054851737 0.017167652
0.025518777 -0.027466187 -0.067050315 0.029769048 -0.005725517 0.033827715 -0.05320305 0.01840413
-0.0023797413 -0.041341297 0.0050676824 0.079376414 -0.0026547576 -0.019869594 0.0367638 0.06734588
-0.019780671 0.011274665 -0.064919084 0.059898872 -0.091050446 -0.041294802 -0.07584942 -0.135354
00000000: f823 1cbd 6228 8abd 7387 35bd 7a5c 84bd
00000010: c209 aabd 9ffc 8bbd 79e7 4d3c 998a acbc
00000020: 1217 cd3c 79ed a6bd 72be 343d 8163 643d
00000030: 642d bbbb 4596 073d 8fe0 3abd f75e cebc
00000040: 3907 dabc 291f d43c 0240 45bd 9c28 233d
00000050: 0ac7 87bc dbb5 75bc eed9 96bc b21a 82bd
00000060: 88a9 65bd 96ec 49bd 9422 98bd ea94 923d
00000070: 8a17 843d 5660 3c3d 9a21 4a3d e182 23bc
00000080: d6ad abbc cdfc 19bd 199f 893d 24b3 2dbd
00000090: 663a bcbd 17c7 83bc c673 7a3d 5279 3d3d
000000a0: f9bf 953d 8301 433c e2cd 8bbd 4c7b 293d
000000b0: 39d9 983d e23e 88bc c4cc 97bd 4098 3b3d
000000c0: 2da4 f03c c7d8 abbb 09c5 92bd 3e19 be3d
000000d0: e7d2 193c 5e54 933d 1ddf 213d 7123 4fbc
000000e0: d98c 7c3d 422b f33c 43ef 883d 1969 8bbd
000000f0: fb1c d93c dc05 973d 2d88 a13d cd07 6dbd
00000100: 07be f1bc ccc8 c0bc 5726 343c 4320 acbd
00000110: 90b9 853d e62c 60bd 38a0 32bc 9e4f 3a3d
00000120: c652 3dbd 2061 683d 810d 89ba d866 84bc
00000130: ac63 843d e281 363c 4711 9dbd a18a 5c3d
00000140: e6cf 1cbb 7c1a 563d 3d80 14bd 31ee 773d
00000150: fe06 5abd da3f 803c 3b65 55bd 16c0 533d
00000160: 2e89 91bb fb5b 783d 8400 d43d 26d5 78bb
00000170: 3ef6 903d 2764 6bbd 3c0e 57bd f535 39bd
00000180: 29aa dabc 4636 f1bc ce88 d0bc f66c 01bd
00000190: 5831 80bc 51aa 18bc f4da 0e3c 08e0 4b3c
000001a0: 7bde cfbc f5aa aebb 14be a8bc 0a8c 11bc
000001b0: ab06 a8bd 1477 4e3c 2497 133a 48cf ef3c
000001c0: 562b 713d 874e ccbc 88af 7cbc 56e4 6ebd
000001d0: 286a 16bd 466e 3f3d 5bf0 463d a368 9f3a
000001e0: 1729 40bd cc89 5dbd c15e b63c bf50 5bbb
000001f0: 45f9 703d 9071 a4bd 581e e23c 3236 353b
00000200: 0c60 01bd 32aa 8bbd 7212 f8bc 40d5 763d
00000210: 8ef7 77bc a677 f0bc 4132 d3bb 09ab 8b3c
00000220: a670 1d3d b5de 373d d289 f6bc c41b 43bc
00000230: dd23 203d ac54 cbbc 0476 033d d050 1abd
00000240: 53ed fc3c 6b15 483d a42b 5dbd 4ccf 743c
00000250: 1faa 7cbd 9870 87bd a76a 9fbd 80cc 83bd
00000260: 95e6 c1bd 3400 0cbe c43f 883d a298 b6bc
00000270: f966 8e3d a887 a0bc 486b 1e3d cf2e 49bc
00000280: c386 5d3d 863c 7a3d 73e2 3c3d 6401 c7bc
00000290: 9450 f83c ebff dfbd 6872 4b3d 5580 7bbc
000002a0: 4a32 d8bc 9578 44bd 28e7 b8bd 6e00 90bc
000002b0: e821 943d 3244 f03b 9a8b 0b3d e5fe 24be
000002c0: 9ebc f6bc 6bc8 dabd 30f4 20bd 9c5b b33d
000002d0: fb30 64bd 2dc3 85bd 2dcc b5bd dbf3 b2bd
000002e0: 6557 c33b a3a9 5abd 3647 cdbd 8c39 1c3d
000002f0: 5a1c 613d e796 d43c a0f7 b9bc f815 2fbd
00000300: c148 893d 31e1 0cbe c24a 913d 4d38 fc3d
00000310: 62c7 3dbd 2d2e b7bd 2407 133d f1fa 4e3d
00000320: 397b efbc 6c19 f5bd 4ce0 823d 7f47 db3c
00000330: 018c 98bd 79ef d0bc 6208 373d 94b9 c2b9
00000340: 9c72 29bd e7f5 223d 830f 8b3d cb22 12bd
00000350: 4b47 493c 5ab8 de3d e5bc 5b3d e1a1 06bd
00000360: 4c7c e0bc 6f9e 90bd 5f7c f9bd af00 c2bd
00000370: c17f 3c3d 81d4 ed3a 10ed 113d d105 10bd
00000380: 3ecd 8bbd 0006 b83d 1653 2c3c 7e92 5abd
00000390: 6f76 5c3c acae 07bd 37ac 603d 2da3 8c3c
000003a0: c10c d13c c500 e1bc ad51 89bd 38de f33c
000003b0: 1e9d bbbb ee8e 0a3d 71eb 59bd 42c4 963c
000003c0: 6ff5 1bbb 7e55 29bd cd0e a63b 1a90 a23d
000003d0: 71fb 2dbb 8fc5 a2bc a395 163d a3ec 893d
000003e0: 130b a2bc 5fb9 383c 4cf4 84bd 8558 753d
000003f0: a878 babd bd24 29bd f156 9bbd 3d9a 0abe

mlp1.2.bias f4 [100]
0.05687684 0.09315225 0.0035242275 -0.031420227 0.034760498 -0.026533382 -0.042344194 0.0268866
0.09049327 0.0074715097 -0.024272472 -0.063369066 0.14762335 0.07721141 0.030667337 0.03272331
0.02308116 0.102373526 0.045168508 0.044659436 0.101911634 -0.00015419329 0.0012516832 -0.06716785
-0.039086185 -0.026811285 -0.04349365 0.042520735 -0.03724905 -0.00090726005 0.0077870768 0.015284559
0.027037237 -0.014487413 -0.026781188 0.014119883 0.050673783 -0.019069267 0.01158287 0.047879092
0.0062614125 0.045354474 0.0008295879 0.141496 -0.0385858 -0.03036448 -0.0072628637 0.08811491
-0.06657786 0.034288373 -0.014708351 0.08542701 0.0013095997 -0.00052099593 0.059140712 -0.084382996
-0.06003588 0.03569258 -0.03312843 -0.04126894 -0.009997603 -0.026173541 -0.05064053 0.039918866
-0.058325294 0.048600078 -0.0134217795 -0.046980113 -0.05521299 0.0041097607 0.040081646 -0.013452284
-0.0047066496 0.0674801 0.029525261 0.04769814 0.089045726 0.06920145 0.019121269 0.0006099652
-0.01947387 -0.08284522 -0.018431168 0.0015280023 -0.07313035 -0.06969018 0.034939386 -0.028239373
-0.029480476 -0.03635652 0.021284372 -0.07046758 -0.015368607 -0.011750095 0.08796368 -0.070804454
-0.02930441 0.054769162 0.034136254 -0.020967215
00000000: b0f7 683d 9bc6 be3d baf6 663b 7fb2 00bd
00000010: 0661 0e3d 895c d9bc 1b71 2dbd 4941 dc3c
00000020: 8954 b93d 91d3 f43b 10d7 c6bc a4c7 81bd
00000030: 932a 173e 0421 9e3d 113a fb3c e108 063d
00000040: b314 bd3c 36a9 d13d 9d02 393d d0ec 363d
00000050: 0cb7 d03d f2ae 21b9 850f a43a 4c8f 89bd
00000060: d618 20bd 57a3 dbbc 6626 32bd 392a 2e3d
00000070: 7692 18bd 31d5 6dba bc2a ff3b 166c 7a3c
00000080: 327d dd3c 9d5c 6dbc 3964 dbbc 1557 673c
00000090: 508f 4f3d 2737 9cbc 14c6 3d3c de1c 443d
000000a0: 892c cd3b 9dc5 393d b478 593a 54e4 103e
000000b0: 250c 1ebd eebe f8bc 51fd edbb 9775 b43d
000000c0: f959 88bd f771 0c3d 4cfb 70bc 5bf4 ae3d
000000d0: e0a6 ab3a 7293 08ba 883d 723d fed0 acbd
000000e0: 2fe8 75bd 6232 123d adb1 07bd 9f09 29bd
000000f0: fccc 23bc e569 d6bc 726c 4fbd f781 233d
00000100: 81e6 6ebd e010 473d 06e7 5bbc 386e 40bd
00000110: 0427 62bd 2cab 863b a72c 243d f866 5cbc
00000120: 3d3a 9abb 0233 8a3d f6de f13c 205f 433d
00000130: 9b5d b63d 7db9 8d3d 35a4 9c3c 12e6 1f3a
00000140: aa87 9fbc c1aa a9bd f6fc 96bc 4047 c83a
00000150: 5dc5 95bd bab9 8ebd 9a1c 0f3d 4256 e7bc
00000160: 0a81 f1bc 93ea 14bd 905c ae3c 4e51 90bd
00000170: 9ccc 7bbc 7883 40bc 4d26 b43d ed01 91bd
00000180: cd0f f0bc a155 603d 75d2 0b3d 70c3 abbc

mlp2.0.weight f4 [100, 100]
-0.089192055 -0.04910959 -0.08610456 0.029380925 0.09700292 0.098136105 0.08161769 0.020475253
-0.004266819 0.09426465 0.022032412 0.078847125 -0.09377559 -0.08066683 -0.06695655 0.07517183
-0.032676768 0.011336407 -0.03595907 -0.014070142 0.07774782 -0.0011281885 -0.08019208 -0.067705795
-0.09929011 -0.058352873 0.079484746 -0.063014165 -0.09522351 -0.048016574 -0.023751132 -0.076260805
0.06911284 0.0973797 -0.069290064 0.036429454 0.089587726 -0.08121214 0.04927126 0.089917496
-0.091738656 -0.041499604 -0.08453793 -0.06712307 0.044968396 0.054307096 -0.008253444 -0.015948704
-0.053828634 0.007958489 -0.00954154 0.077628545 0.050133362 -0.041755084 -0.039582644 0.05401063
0.039038606 -0.07150817 -0.086152606 0.09005575 -0.07611225 0.018165309 0.0032022533 -0.019489916
0.041929048 0.08200234 0.09595791 -0.020487424 -0.00614212 -0.09759503 -0.012572996 0.054604474
-0.08938896 -0.027509162 -0.0989796 -0.003457427 -0.09999265 0.021845372 -0.08545146 -0.02127678
0.089115955 0.0032641226 -0.009724811 0.03596453 0.04961097 0.031341385 -0.005596093 -0.0747334
0.039155915 -0.0039665317 -0.08590322 0.03013574 0.08985714 0.08973311 -0.079455316 0.046763945
0.014371459 -0.09711764 -0.04272843 -0.08988528 -0.017079324 -0.032800145 -0.06098824 0.09614483
0.014398641 0.030068899 -0.034692798 0.047070462 -0.05671956 0.036131795 -0.003374309 -0.03229116
-0.0365278 -0.08054291 -0.03252185 0.092292935 0.08475652 0.098589815 -0.06506608 -0.0646422
-0.10848584 0.046044108 -0.07151983 -0.09692489 -0.04737481 0.033481333 0.09542888 0.067639716
0.06440478 0.10874223 -0.072221704 0.025529103 0.014668806 0.0015420942 0.02308157 -0.038805995
0.0400739 0.029546993 -0.098762326 0.03992847 0.009593381 0.014879891 0.0032627082 0.02081471
0.050730895 -0.017006826 -0.010960158 -0.07677955 0.0638649 -0.06893424 0.01709373 0.0010149874
0.04674458 0.033167206 -0.022304555 -0.052429892 -0.08061229 0.07108719 -0.05810696 0.101336315
-0.098929085 0.0049960082 0.09353297 -0.00066375564 0.07623452 0.08274365 -0.07125636 -0.03969492
0.010732932 0.043467242 -0.09187518 0.07867066 -0.078738205 0.09078248 0.09215643 0.03408147
-0.0336364 0.051470805 0.09032634 -0.026441231 -0.006654039 -0.05685322 -0.046096623 0.009602499
-0.030227734 -0.03846964 0.0732304 0.084896326 0.033123918 0.028906576 -0.0015637118 -0.09259963
-0.05692463 0.08743089 -0.07879562 -0.016968332 0.046225607 0.030110307 0.064050995 -0.07554754
0.07245129 0.05378336 0.07969752 -0.08359315 0.04098022 0.0031020415 0.048015352 0.06237652
0.08456987 -0.00096186576 -0.07914943 0.022437481 -0.03147628 -0.01608381 -0.07737621 -0.08082987
0.0626555 -0.09205473 -0.09666586 0.027385304 0.05340002 0.040249493 0.03529194 0.029249871
0.030331839 -0.07590327 0.023257565 -0.03744682 0.045597356 -0.0718156 -0.0004768144 -0.006385087
0.022691065 -0.020331109 -0.05099568 -0.05385765 0.052874204 -0.019314494 0.041918457 -0.0062481235
0.021766271 -0.07162441 0.013374463 -0.06975758 -0.09673424 -0.058381386 -0.09242403 0.036046155
-0.07680325 0.059456 0.090417445 0.07554205 0.018506506 0.018473135 0.08939845 0.07581795
00000000: 53aa b6bd 2327 49bd 9657 b0bd 44b0 f03c
00000010: 78a9 c63d 95fb c83d 2d27 a73d b8bb a73c
00000020: acd0 8bbb d30d c13d 517d b43c 9a7a a13d
00000030: 6b0d c0bd a734 a5bd 8420 89bd b0f3 993d
00000040: 13d8 05bd 56bc 393c d149 13bd 7486 66bc
00000050: 403a 9f3d b9df 93ba bf3b a4bd 56a9 8abd
00000060: 9d58 cbbd 6c03 6fbd e6c8 a23d 920d 81bd
00000070: 8b04 c3bd 07ad 44bd bc91 c2bc a02e 9cbd
00000080: 088b 8d3d 026f c73d f3e7 8dbd 0d37 153d
00000090: c579 b73d 8d52 a6bd a9d0 493d aa26 b83d
000000a0: 7ae1 bbbd 7dfb 29bd 3922 adbd d277 89bd
000000b0: c830 383d 1e71 5e3d 7439 07bc dba6 82bc
000000c0: 6a7b 5cbd 5264 023c 1f54 1cbc b7fb 9e3d
000000d0: a458 4d3d 6107 2bbd 6921 22bd 403a 5d3d
000000e0: f2e6 1f3d e072 92bd c770 b0bd 266f b83d
000000f0: bde0 9bbd 6acf 943c e5dc 513b 51a9 9fbc
00000100: cbbd 2b3d d8f0 a73d 9585 c43d 3ed5 a7bc
00000110: d643 c9bb e7df c7bd f8fe 4dbc f1a8 5f3d
00000120: 8f11 b7bd e55a e1bc d1b5 cabd 0096 62bb
00000130: f2c8 ccbd 11f5 b23c 2d01 afbd a44c aebc
00000140: 6d82 b63d e4ea 553b d054 1fbc 8b4f 133d
00000150: df34 4b3d d35f 003d 6e5f b7bb d30d 99bd
00000160: f461 203d aef9 81bb 07ee afbd 3adf f63c
00000170: 0507 b83d fec5 b73d 78b9 a2bd 8d8b 3f3d
00000180: 4576 6b3c 9de5 c6bd 0204 2fbd c615 b8bd
00000190: f0e9 8bbc 7259 06bd cece 79bd 95e7 c43d
000001a0: 47e8 6b3c 0d53 f63c 091a 0ebd f5cc 403d
000001b0: c552 68bd effe 133d 8323 5dbb bc43 04bd
000001c0: 2d9e 15bd aef3 a4bd a235 05bd 1404 bd3d
000001d0: d494 ad3d 75e9 c93d 5d41 85bd 2163 84bd
000001e0: d32d debd bf98 3c3d fd78 92bd 8f80 c6bd
000001f0: 170c 42bd b923 093d 3770 c33d b186 8a3d
00000200: a7e6 833d 3fb4 de3d f9e8 93bd 6922 d13c
00000210: 6f55 703c 1820 ca3a 9015 bd3c 09f3 1ebd
00000220: 8824 243d 890c f23c e743 cabd 098c 233d
00000230: 8e2d 1d3c c9ca 733c 29d3 553b 9c83 aa3c
00000240: 33cb 4f3d e651 8bbc 3c92 33bc 993e 9dbd
00000250: 9acb 823d 652d 8dbd 2608 8c3c 5309 853a
00000260: 3f77 3f3d 56da 073d 0bb8 b6bc bac0 56bd
00000270: 0e18 a5bd 2996 913d 9001 6ebd 6a89 cf3d
00000280: 559b cabd 8eb5 a33b 378e bf3d e3ff 2dba
00000290: d820 9c3d 8175 a93d dbee 91bd 2497 22bd
000002a0: 2ed9 2f3c b50a 323d 0e29 bcbd 151e a13d
000002b0: 7f41 a1bd 2aec b93d 83bc bc3d 0399 0b3d
000002c0: 52c6 09bd 0dd3 523d 04fd b83d 489b d8bc
000002d0: 200a dabb ecde 68bd d0cf 3cbd cd53 1d3c
000002e0: 27a0 f7bc 5792 1dbd d2f9 953d 20de ad3d
000002f0: f2ac 073d 7ccd ec3c 76f5 ccba e0a4 bdbd
00000300: cd29 69bd f70e b33d 995f a1bd 2c01 8bbc
00000310: 1057 3d3d e4a9 f63c 2b2d 833d abb8 9abd
00000320: 5861 943d f14b 5c3d 7438 a33d e332 abbd
00000330: e0da 273d 9f4b 4b3b bfab 443d 867e 7f3d
00000340: f832 ad3d b825 7cba 1919 a2bd cfce b73c
00000350: 46ed 00bd 32c2 83bc 6b77 9ebd 228a a5bd
00000360: 8751 803d 3187 bcbd c0f8 c5bd 2557 e03c
00000370: fbb9 5a3d a7dc 243d 488e 103d 6d9d ef3c
00000380: 7a7a f83c 2c73 9bbd a686 be3c d661 19bd
00000390: 4bc4 3a3d 0f14 93bd f2fc f9b9 fe39 d1bb
000003a0: 9de2 b93c 6d8d a6bc d9e0 50bd d799 5cbd
000003b0: 9f92 583d 6e39 9ebc b0b2 2b3d 0fbd ccbb
000003c0: 2e4f b23c d2af 92bd 9020 5b3c 10dd 8ebd
000003d0: 9a1c c6bd 5221 6fbd cf48 bdbd 22a5 133d
000003e0: 064b 9dbd 2288 733d c82c b93d cab5 9a3d
000003f0: f59a 973c f954 973c 8916 b73d 7146 9b3d

mlp2.0.bias f4 [100]
-0.080938995 0.043515883 -0.024705304 0.041906785 -0.05707843 0.07085379 0.036941882 0.08640031
-0.012976656 0.039767366 -0.050601706 -0.0375046 0.009199972 -0.06379688 0.009822704 0.0058319755
0.05820012 -0.08182217 0.03942351 0.0064886482 -0.08365111 0.05434079 0.10003548 -0.11071711
0.038484834 -0.067602195 -0.035998974 -0.06051764 0.053330567 0.08546576 -0.08728153 -0.09435608
-0.055786632 0.028527062 0.10703371 -0.0058408426 0.12494536 0.036635377 -0.046407666 0.0480876
0.04253435 4.612376e-05 0.071694195 -0.05523459 -0.070970975 0.112010255 -0.03016742 -0.0022046184
0.036369476 0.09407752 -0.034771636 -0.039491728 -0.051147614 -0.017700374 -0.07449763 0.06869786
-0.052285176 0.05466629 0.075852565 0.028420594 0.047273394 -0.08208416 0.036058262 0.09644621
-0.02945364 0.02389897 -0.058032863 0.012424618 -0.08349053 0.015361379 0.008973148 0.12041303
-0.09158848 -0.08235575 0.05672548 -0.02712882 0.0064575407 0.06442961 0.008202033 0.010848435
0.010968748 0.09495435 0.057458367 -0.016797053 0.0526224 0.03812313 0.04311371 0.068354234
-0.05342999 0.091840185 -0.09572704 0.069359004 -0.0194478 0.065290846 0.06488069 -0.03390887
0.004377538 -0.087121546 -0.01697107 0.114344336
00000000: 58c3 a5bd b63d 323d c762 cabc 73a6 2b3d
00000010: 12cb 69bd cb1b 913d 5f50 173d a5f2 b03d
00000020: 0a9c 54bc 1be3 223d bc43 4fbd 6c9e 19bd
00000030: 7bbb 163c f0a7 82bd 68ef 203c 281a bf3b
00000040: 4063 6e3d 6292 a7bd 8c7a 213d ba9e d43b
00000050: 4651 abbd 7394 5e3d 67df cc3d a7bf e2bd
00000060: 46a2 1d3d 0573 8abd a973 13bd 58e1 77bd
00000070: 2771 5a3d ac08 af3d a9c0 b2bd c33d c1bd
00000080: 8680 64bd 96b1 e93c 7d34 db3d 8a64 bfbb
00000090: 5ae3 ff3d fa0e 163d f715 3ebd 81f7 443d
000000a0: 8038 2e3d 0375 4138 68d4 923d aa3d 62bd
000000b0: 3b59 91bd a265 e53d aa21 f7bc 5c7b 10bb
000000c0: 29f8 143d b7ab c03d b46c 0ebd 14c2 21bd
000000d0: 2980 51bd 6000 91bc 3792 98bd 77b1 8c3d
000000e0: fb28 56bd c2e9 5f3d 9758 9b3d 4ed2 e83c
000000f0: bfa1 413d bd1b a8bd d4b1 133d 9785 c53d
00000100: c348 f1bc c6c7 c33c deb3 6dbd a090 4b3c
00000110: 15fd aabd 4bae 7b3c 1c04 133c 1b9b f63d
00000120: be92 bbbd 22aa a8bd fa58 683d 423d debc
00000130: c799 d33b acf3 833d d261 063c a2bd 313c
00000140: 43b6 333c 6d77 c23d 7759 6b3d f999 89bc
00000150: 968a 573d 0027 1c3d 0098 303d 4efd 8b3d
00000160: 68d9 5abd b516 bc3d 8a0c c4bd 180c 8e3d
00000170: fe50 9fbc 35b7 853d 2be0 843d 07e4 0abd
00000180: 7371 8f3b c86c b2bd ea06 8bbc 5d2d ea3d

mlp2.2.weight f4 [50, 100]
0.031240642 -0.07270292 -0.086923845 -0.008318994 -0.09972078 -0.015070264 0.027040193 -0.044002447
0.082424976 0.006540148 0.06532561 -0.011902797 0.061119955 -0.07900632 -0.08874304 -0.009580912
-0.15018445 0.016220516 0.06271059 -0.09635127 0.082103446 -0.026367094 -0.020353157 -0.024411602
-0.019206865 -0.10723761 -0.048750468 0.0060670516 0.02465389 -0.0745821 -0.09428626 0.06481183
-0.09872689 0.022739056 -0.08736009 -0.072295666 -0.13216887 -0.042124 -0.08270181 0.03903704
-0.11215939 -0.049537253 0.02491325 -0.054212388 -0.017332291 0.03307502 -0.07568944 0.0017015814
-0.096676946 -0.110089846 -0.05443281 0.106464066 -0.07453963 -0.014945689 0.0823029 -0.09513836
0.01889396 -0.046970442 -0.009444428 0.07335296 0.061917953 0.040049512 0.10018073 -0.12875989
0.03189409 -0.005846707 -0.08298467 0.027673632 0.02805104 0.052580185 -0.08589133 -0.16534442
0.07685909 0.059537455 -0.029697495 0.023791853 -0.03508152 0.043480713 -0.013594696 0.06616702
0.031165432 0.012993744 -0.05795916 -0.0076107453 -0.047769364 0.04137046 0.073045544 0.014664436
-0.07603305 -0.1588746 0.037460733 0.09914019 -0.09423062 0.02981625 -0.019219534 0.05173914
0.08671603 -0.08628149 -0.020673485 -0.08909816 0.015619672 -0.048563153 -0.06513227 -0.05557867
0.05539218 0.08253963 0.016634375 -0.029517287 -0.043893054 0.023425015 -0.018932814 0.039094917
0.045289174 -0.0036949855 -0.0324117 -0.021525979 0.053192813 -0.0974968 -0.028074749 -0.0007230073
0.0558938 -0.058658764 0.09245006 0.059516378 -0.0739241 0.077971816 -0.029931024 -0.0859121
0.09177605 -0.036855146 -0.037761524 -0.094363146 -0.09158448 -0.11294592 -0.073194385 0.0611228
-0.0056740763 0.01435755 -0.014470483 0.058697652 -0.034668848 -0.015303125 3.1590374e-05 -0.053218383
0.04477325 -0.053703316 0.062269684 0.07210667 0.00074550934 -0.032459967 -0.0838414 0.019868879
-0.07909993 0.04772745 -0.0829791 -0.06797462 -0.04559129 -0.06570082 0.027217634 -0.09883204
0.019532192 -0.012217938 0.10967564 -0.10072395 -0.005095045 -0.00042913124 0.07479107 -0.031485334
-0.0014094735 -0.081906915 0.086361244 -0.10687961 -0.026062632 0.078967184 -0.035842694 0.048904844
0.055450793 0.092376865 -0.036875177 0.10504416 -0.045470685 0.033163905 0.05352338 0.1077086
0.005831077 0.12933213 -0.057078194 0.07729849 0.09352612 -0.1340172 -0.012023919 0.005383293
-0.07344343 -0.09586878 0.078908026 -0.0019165226 -0.022406656 -0.036974132 -0.089289516 -0.1061019
0.09980857 0.064528175 0.02075723 -0.04760482 0.047580007 -0.014196536 0.04806248 -0.06289353
0.07894142 -0.03320487 -0.075000264 0.010137994 -0.029412832 0.023991043 -0.06561191 -0.013311505
0.10592085 0.08534223 0.02130959 0.07370101 0.018305847 -0.03970043 -0.06258833 -0.07084383
0.07565487 -0.04122626 -0.013771704 -0.051191855 0.04901856 -0.022465521 -0.06775435 0.061821695
0.010551962 0.06659616 -0.09635991 0.011150387 0.042554136 0.07998047 0.031598978 0.09068618
0.08535199 -0.036540173 -0.054392397 0.09861767 0.026029846 0.028236177 -0.06880382 -0.04465108
-0.07509841 -0.061731983 -0.07625165 -0.064550266 0.048735112 0.083894394 -0.0033770264 0.08175627
00000000: 60ec ff3c 45e5 94bd 2105 b2bd 644c 08bc
00000010: 693a ccbd 45e9 76bc 6583 dd3c e93b 34bd
00000020: 6dce a83d bd4e d63b 6fc9 853d f303 43bc
00000030: eb58 7a3d 11ce a1bd e9be b5bd 42f9 1cbc
00000040: f4c9 19be e3e0 843c 696e 803d d153 c5bd
00000050: da25 a83d ceff d7bc aabb a6bc d7fa c7bc
00000060: b757 9dbc 649f dbbd 92ae 47bd 1ece c63b
00000070: f4f6 c93c 80be 98bd 2819 c1bd 11bc 843d
00000080: 5331 cabd 4247 ba3c d9e9 b2bd c00f 94bd
00000090: 4757 07be 378a 2cbd 915f a9bd 4ee5 1f3d
000000a0: d2b3 e5bd 93e7 4abd df16 cc3c cf0d 5ebd
000000b0: 73fc 8dbc ac79 073d 1103 9bbd 9907 df3a
000000c0: 90fe c5bd c976 e1bd f0f4 5ebd d509 da3d
000000d0: 3ca8 98bd c3de 74bc 6c8e a83d e7d7 c2bd
000000e0: 82c7 9a3c 1464 40bd cdbc 1abc 143a 963d
000000f0: ae9d 7d3d f50a 243d 8e2b cd3d a2d9 03be
00000100: 61a3 023d bc95 bfbb def3 a9bd d0b3 e23c
00000110: 4bcb e53c 525e 573d cbe7 afbd 0c50 29be
00000120: 4c68 9d3d 8cdd 733d 2948 f3bc 22e7 c23c
00000130: a4b1 0fbd d518 323d 4abc 5ebc 9382 873d
00000140: a64e ff3c b6e3 543c 9666 6dbd 8f63 f9bb
00000150: cfa9 43bd 1274 293d e798 953d 1a43 703c
00000160: 37b7 9bbd 06b0 22be 6d70 193d 030a cb3d
00000170: fcfb c0bd 3541 f43c 4972 9dbc 6cec 533d
00000180: 2d98 b13d 5ab4 b0bd 715b a9bc 1979 b6bd
00000190: a7e9 7f3c 28ea 46bd 1164 85bd 76a6 63bd
000001a0: e9e2 623d 8a0a a93d d044 883c 3dce f1bc
000001b0: 34c9 33bd d1e5 bf3c fd18 9bbc fe21 203d
000001c0: 2481 393d 9227 72bb 21c2 04bd 4057 b0bc
000001d0: b5e0 593d 67ac c7bd 04fd e5bc 3388 3dba
000001e0: e6f0 643d 2c44 70bd 7556 bd3d 72c7 733d
000001f0: 8565 97bd b0af 9f3d e831 f5bc aff2 afbd
00000200: 15f5 bb3d 6cf5 16bd d4ab 1abd 7741 c1bd
00000210: a590 bbbd 3150 e7bd f0e6 95bd e75b 7a3d
00000220: 9aed b9bb ee3b 6b3c 9b15 6dbc f36c 703d
00000230: ec00 0ebd f5b9 7abc e87f 0438 85fb 59bd
00000240: 2864 373d 02f8 5bbd 7f0e 7f3d a9ac 933d
00000250: 496e 433a bef4 04bd 0ab5 abbd 0fc4 a23c
00000260: 25ff a1bd dc7d 433d f2f0 a9bd 4736 8bbd
00000270: efbd 3abd 278e 86bd 84f7 de3c 7468 cabd
00000280: fa01 a03c bf2d 48bc 9f9d e03d 5c48 cebd
00000290: 56f4 a6bb 05fd e0b9 0f2c 993d c4f6 00bd
000002a0: 15be b8ba d0be a7bd 2ade b03d b2e3 dabd
000002b0: 4d81 d5bc 8cb9 a13d cacf 12bd 7250 483d
000002c0: 5f20 633d 1530 bd3d 6d0a 17bd 6421 d73d
000002d0: 783f 3abd e0d6 073d 553b 5b3d 5496 dc3d
000002e0: 9f12 bf3b a46f 043e d3ca 69bd ac4e 9e3d
000002f0: 9f8a bf3d ce3b 09be f9ff 44bc 5666 b03b
00000300: 8269 96bd da56 c4bd 889a a13d d433 fbba
00000310: 2a8e b7bc 3072 17bd 6cdd b6bd f44b d9bd
00000320: 7068 cc3d 5927 843d 110b aa3c 46fd 42bd
00000330: 41e3 423d 9698 68bc 2add 443d 53ce 80bd
00000340: 0aac a13d d401 08bd bd99 99bd d419 263c
00000350: 2ef3 f0bc dd88 c43c 895f 86bd 8018 5abc
00000360: 08ed d83d e8c7 ae3d 7391 ae3c 8ef0 963d
00000370: 25f6 953c eb9c 22bd 4f2e 80bd 9216 91bd
00000380: f1f0 9a3d dedc 28bd b7a2 61bc 8dae 51bd
00000390: b0c7 483d 9d09 b8bc cbc2 8abd bf38 7d3d
000003a0: 23e2 2c3c 9163 883d 5858 c5bd 1db0 363c
000003b0: 3f4d 2e3d cdcc a33d ee6d 013d adb9 b93d
000003c0: 06cd ae3d 26ab 15bd 90ca 5ebd 10f8 c93d
000003d0: 8b3c d53c 8e4f e73c 04e9 8cbd 0de4 36bd
000003e0: 32cd 99bd adda 7cbd d329 9cbd ee32 84bd
000003f0: 789e 473d d3d0 ab3d 1a51 5dbb d56f a73d

mlp2.2.bias f4 [50]
-0.083994046 -0.003911113 -0.008780097 0.028490933 0.09306101 0.10882535 -0.075920306 0.035937797
0.032632776 0.114076 0.02664858 0.040760722 -0.025542848 0.123938434 0.08214115 0.10271225
-0.022867445 0.015882552 0.028022487 0.070712656 -0.0918781 0.06917066 -0.08508172 0.037134852
-0.0963115 -0.053880967 -0.063175835 0.07063249 -0.07105422 -0.05830224 0.003096235 0.054474052
-0.011017812 -0.015101173 -0.041506406 -0.10741145 -0.07803253 -0.11219616 -0.07349176 0.07200544
-0.052768264 -0.08918819 -0.03240834 0.08084551 0.033219997 0.088870585 -0.047548186 0.097516134
-0.009910785 -0.09153005
00000000: 1205 acbd cb28 80bb 65da 0fbc d165 e93c
00000010: c596 be3d d3df de3d 1b7c 9bbd 8333 133d
00000020: f2a9 053d aea0 e93d 1f4e da3c b7f4 263d
00000030: 3c3f d1bc 6fd3 fd3d 9f39 a83d cd5a d23d
00000040: 8254 bbbc 201c 823c 6a8f e53c ccd1 903d
00000050: 962a bcbd 59a9 8d3d 533f aebd b71a 183d
00000060: f73e c5bd 4ab2 5cbd 5562 81bd c4a7 903d
00000070: e084 91bd 54ce 6ebd 34ea 4a3b 2f20 5f3d
00000080: 0e84 34bc e96a 77bc 9f02 2abd 89fa dbbd
00000090: 85cf 9fbd 1ac7 e5bd d982 96bd 9777 933d
000000a0: 8923 58bd 4ca8 b6bd 9cbe 04bd 5592 a53d
000000b0: b111 083d c801 b63d e3c1 42bd 8ab6 c73d
000000c0: d860 22bc 1b74 bbbd

attention.0.weight f4 [100, 200]
-0.021479784 0.06610706 0.054048833 -0.030607417 -0.015872631 0.04934868 0.01622594 -0.058935985
0.07095261 0.014126536 0.007156599 0.033188 0.056831498 -0.047912303 0.06812857 -0.0325161
0.0044430466 -0.020838624 0.05138387 -0.017320743 -0.028566413 -0.043100663 -0.033169203 0.039208543
-0.041426893 -0.04626342 0.039466858 -0.023437468 0.044694394 0.037652988 -0.049197756 7.151297e-05
0.023367994 -0.06876604 -0.042888954 -0.028452301 0.035997394 0.02367648 0.012118842 -0.06270383
-0.009981208 -0.06711419 0.063166216 -0.0014498394 -0.034775358 -0.040739536 0.030027738 -0.056482177
0.009597437 0.042557046 0.069000244 0.055525865 0.06263098 0.041724693 0.04014159 -0.029948013
0.06746489 0.04982893 0.019319369 -0.018275898 0.044052564 -0.031778835 0.021714812 0.002832847
-0.006728021 -0.008770194 -0.0226246 -0.05980648 0.05415084 -0.07016183 0.037726987 0.007858711
0.01671837 -0.037415985 0.019830188 0.058583323 0.060492333 -0.03225915 0.041191313 -0.049641117
0.00024290702 0.027687352 -0.03635091 -0.012453461 -0.0049959566 -0.027892534 0.06465708 -0.011139564
0.0057105953 0.0083206175 0.012628007 0.032140896 -0.023111409 0.0038890962 -0.0059191277 0.046590406
-0.029192472 0.054556962 -0.048303798 0.020832947 0.038155545 0.020148711 0.0098931985 -0.031949434
-0.021190178 -0.06819433 0.0017427069 0.06067547 0.02517582 0.02902686 -0.04269683 -0.04612373
0.0010079768 -0.04080351 -0.030929908 0.057542294 -0.06597288 -0.005459814 0.003186619 -0.026796859
-0.07073851 -0.055455193 -0.02721746 0.0077460865 0.034545653 0.01788212 0.0036504713 0.04967779
0.029395657 0.03412828 0.06439913 0.04651249 -0.027415339 0.054728933 0.048288617 -0.005114861
0.02996198 -0.052471925 0.046169113 -0.019840766 -0.0636642 -0.010108869 -0.019194523 -0.030640975
0.01829155 0.035625733 0.04396161 -0.031639975 -0.02229307 -0.032207735 -0.018085431 0.02419835
0.068633474 0.057331372 0.031767886 -0.062278856 0.029400244 -0.035979163 0.06947604 0.018305099
-0.0031380362 -0.044953205 -0.038842596 -0.049289264 0.016897121 -0.0052123354 0.014098531 0.05839526
-0.012978939 0.0299372 -0.019809006 0.05830628 -0.046625294 -0.0407118 -0.020025406 0.0030735726
0.06407381 0.027789813 0.044793457 -0.06638898 0.01852998 0.019109566 -0.040786367 -0.016216995
-0.018500132 -0.023094688 0.00862396 -0.05466982 0.03624542 0.06264662 0.047268666 0.009805105
-0.06995807 0.0018946064 0.005996039 0.020155469 -0.014780266 0.01365403 -0.050461214 0.064388454
0.04156749 -0.06544694 -0.012983045 -0.040116575 0.011723571 -0.0077161794 -0.057029672 -0.05787265
0.006756211 -0.02339844 -0.027382698 -0.037043817 -0.013484892 0.0038390132 0.010790491 -0.045806207
0.0034099468 0.040506475 -0.0014628599 -0.05852943 -0.043865114 0.05167469 0.039720014 0.057567943
0.05229344 0.029447768 -0.06824394 -0.03192773 0.020784948 -0.059160203 0.05487011 -0.06919232
0.04368487 -0.063015014 -0.032815304 0.011489907 0.046082325 0.040643558 -0.038505502 -0.048951525
-0.035789147 -0.024451591 0.01661703 -0.025414169 -0.050028432 -0.015460282 -0.025633335 -0.055906754
0.0023316932 -0.0106482245 -0.048871297 0.041381374 0.0694814 0.02405969 -0.014816586 0.0026887236
00000000: 5ff6 afbc 2363 873d 4f62 5d3d 68bc fabc
00000010: 5207 82bc d721 4a3d 43ec 843c dc66 71bd
00000020: 9a4f 913d fd72 673c e781 ea3b 24f0 073d
00000030: 25c8 683d b13f 44bd fe86 8b3d 9a2f 05bd
00000040: fa96 913b c3b5 aabc e577 523d 3be4 8dbc
00000050: 1c04 eabc 528a 30bd 6edc 07bd 2399 203d
00000060: 3faf 29bd b67e 3dbd 00a8 213d efff bfbc
00000070: 7811 373d 053a 1a3d 9683 49bd 3cf9 9538
00000080: 3c6e bf3c 36d5 8cbd 54ac 2fbd cd14 e9bc
00000090: 0172 133d 2df5 c13c 1c8e 463c de6a 80bd
000000a0: 3888 23bc 2a73 89bd 4a5d 813d 8a08 beba
000000b0: 9b70 0ebd 80de 26bd bbfc f53c db59 67bd
000000c0: 923e 1d3c 4c50 2e3d 0050 8d3d 176f 633d
000000d0: ac44 803d 83e7 2a3d 826b 243d 8955 f5bc
000000e0: 082b 8a3d 6c19 4c3d a743 9e3c 56b7 95bc
000000f0: 7670 343d 862a 02bd 43e3 b13c 49a7 393b
00000100: bb76 dcbb dcb0 0fbc 3a57 b9bc a4f7 74bd
00000110: 45cd 5d3d 01b1 8fbd 9d87 1a3d d3c1 003c
00000120: f7f4 883c 8141 19bd eb72 a23c 11f5 6f3d
00000130: cfc6 773d 2c22 04bd 39b8 283d 7c54 4bbd
00000140: dbb4 7e39 96d0 e23c b1e4 14bd 9a09 4cbc
00000150: 1fb5 a3bb e27e e4bc ee6a 843d b882 36bc
00000160: f21f bb3b 3353 083c b3e5 4e3c 2ca6 033d
00000170: 2354 bdbc 35e0 7e3b 3ef5 c1bb 95d5 3e3d
00000180: 0d25 efbc 1f77 5f3d 34da 45bd dba9 aa3c
00000190: fd48 1c3d e90e a53c 1517 223c 69dd 02bd
000001a0: 0697 adbc 78a9 8bbd 8a6b e43a d786 783d
000001b0: 853d ce3c bdc9 ed3c dfe2 2ebd 3cec 3cbd
000001c0: 171e 843a 9521 27bd b860 fdbc 78b1 6b3d
000001d0: ca1c 87bd 3de8 b2bb 98d6 503b 1685 dbbc
000001e0: 5adf 90bd fc24 63bd 27f7 debc e2d2 fd3b
000001f0: be7f 0d3d 867d 923c bf3c 6f3b f07a 4b3d
00000200: 29cf f03c 18ca 0b3d b1e3 833d e183 3e3d
00000210: 2296 e0bc 722b 603d 49ca 453d 909a a7bb
00000220: d472 f53c cdec 56bd d31b 3d3d 1a89 a2bc
00000230: 6062 82bd ab9f 25bc d53d 9dbc c802 fbbc
00000240: 29d8 953c 4aec 113d 1711 343d eb98 01bd
00000250: f59f b6bc 42ec 03bd e627 94bc 9e3b c63c
00000260: b58f 8c3d 4dd4 6a3d 0b1f 023d 1d18 7fbd
00000270: c8d8 f03c e35e 13bd 7449 8e3d 93f4 953c
00000280: 83a7 4dbb da20 38bd 6a19 1fbd 8ae3 49bd
00000290: d56b 8a3c 3dcc aabb 86fd 663c de2f 6f3d
000002a0: 9ea5 54bc dc3e f53c 7f46 a2bc 91d2 6e3d
000002b0: 2afa 3ebd 6bc1 26bd 520c a4bc fe6d 493b
000002c0: 2139 833d 76a7 e33c 5879 373d f2f6 87bd
000002d0: 2fcc 973c aa8b 9c3c 9b0f 27bd 81d9 84bc
000002e0: 978d 97bc 1231 bdbc 834b 0d3c 76ed 5fbd
000002f0: 1476 143d df4c 803d ca9c 413d 97a5 203c
00000300: 2d46 8fbd 7154 f83a 6c7a c43b 151d a53c
00000310: ee28 72bc 27b5 5f3c 6bb0 4ebd 18de 833d
00000320: ac42 2a3d 0c09 86bd d6b6 54bc 4751 24bd
00000330: 3914 403c 01d8 fcbb f297 69bd df0b 6dbd
00000340: 3563 dd3b 16ae bfbc ae51 e0bc 42bb 17bd
00000350: bdef 5cbc f497 7b3b 99ca 303c 4a9f 3bbd
00000360: 6a79 5f3b 1eea 253d 6fbd bfba 8ebc 6fbd
00000370: e8ab 33bd d7a8 533d 74b1 223d 5dcc 6b3d
00000380: a531 563d 723c f13c 7bc3 8bbd a7c6 02bd
00000390: 3245 aa3c f851 72bd 7bbf 603d b4b4 8dbd
000003a0: e8ee 323d 040e 81bd 5769 06bd 2a40 3c3c
000003b0: d2c0 3c3d dc79 263d f2b7 1dbd 6581 48bd
000003c0: a497 12bd b44e c8bc 7020 883c 6031 d0bc
000003d0: 9dea 4cbd 1f4d 7dbc 00fd d1bc 7bfe 64bd
000003e0: 52cf 183b e475 2ebc 452d 48bd 847f 293d
000003f0: 444c 8e3d d418 c53c 44c1 72bc 4c35 303b

attention.0.bias f4 [100]
0.04927179 0.015406546 -0.06053985 -0.023887634 -0.067613564 0.037532274 0.073632866 -0.061698396
0.0032825784 0.019643659 0.060860097 -0.03004505 -0.04060905 -0.018477349 -0.0006100741 0.019453138
-0.023758112 -0.045501996 -0.03878423 -0.0039271084 -0.026897084 0.051766507 -0.057767365 0.069976576
-0.051212594 -0.049243413 0.013953422 -0.00048415942 -0.015109963 -0.055691678 0.05081649 0.061090756
-0.029022086 -0.067437604 -0.033100013 0.009007769 0.058067918 0.009846119 0.06810209 -0.015526567
-0.00695958 0.002526723 0.008787319 0.0017085915 0.011477567 0.044115692 0.018124623 -0.022605132
0.0044995337 -0.0072318474 -0.033834692 -0.052641567 0.06712434 -0.034013465 -0.0357143 -0.062146317
0.05013228 0.048144646 -0.060865622 0.07001085 0.044422984 0.061382953 0.0016726018 0.034296185
0.06831708 0.0054295994 -0.06626932 0.019555785 0.038860776 0.03382122 -0.052103892 -0.0680833
-0.03270487 0.026607398 0.015038296 -0.02376643 -0.024050035 0.021674544 -0.052812092 0.047112457
0.07360563 -4.256612e-05 -0.03733238 0.041105434 0.034430042 0.0728168 -0.019969078 0.05551898
0.06448413 0.01845542 -0.043799456 -0.01646087 -0.043058082 0.024841804 -0.010126681 -0.026398528
-0.031122694 0.011740476 -0.047079172 -0.046261072
00000000: 37d1 493d bd6b 7c3c a2f8 77bd 00b0 c3bc
00000010: fb78 8abd 71bb 193d d4cc 963d 75b7 7cbd
00000020: 8720 573b bdeb a03c 7048 793d 0921 f6bc
00000030: ad55 26bd cf5d 97bc 61ed 1fba 305c 9f3c
00000040: 5fa0 c2bc 4d60 3abd 36dc 1ebd f9ae 80bb
00000050: 4657 dcbc 1e09 543d 799d 6cbd e14f 8f3d
00000060: 4cc4 51bd 76b3 49bd e59c 643c c7d6 fdb9
00000070: c78f 77bc f51c 64bd f424 503d 4d3a 7a3d
00000080: babf edbc ba1c 8abd e193 07bd 5295 133c
00000090: a0d8 6d3d 9e51 213c 1c79 8b3d 2463 7ebc
000000a0: 300d e4bb 6197 253b b0f8 0f3c d1f2 df3a
000000b0: 680c 3c3c a8b2 343d 177a 943c 662e b9bc
000000c0: d370 933b 22f9 ecbb 3f96 0abd af9e 57bd
000000d0: 7c78 893d b451 0bbd 2849 12bd 238d 7ebd
000000e0: 8157 4d3d 5233 453d 3b4e 79bd d961 8f3d
000000f0: e0f4 353d b16c 7b3d 343b db3a 287a 0c3d
00000100: d3e9 8b3d c8ea b13b 36b8 87bd 7433 a03c
00000110: 7a2c 1f3d 1f88 0a3d e46a 55bd 426f 8bbd
00000120: 8bf5 05bd c2f7 d93c 2f63 763c d1b1 c2bc
00000130: 9404 c5bc d08e b13c 7e51 58bd fef8 403d
00000140: 8cbe 963d 0689 32b8 d6e9 18bd 2c5e 283d
00000150: 8406 0d3d f920 953d 3196 a3bc df67 633d
00000160: 4110 843d d22f 973c 0f67 33bd f2d8 86bc
00000170: ac5d 30bd 0a81 cb3c 61ea 25bc ba41 d8bc
00000180: 05f5 febc 205b 403c 17d6 40bd 407c 3dbd
