crowd_nav/data/output/omSARL/rl_model.pth (torch, 421347 bytes, 20 tensors)

mlp1.0.weight f4 [150, 61]
0	0xbad09748	-0.0015914226
1	0x3d51068b	0.05103163
2	0xbdf31339	-0.11868901
3	0x3dde9406	0.10868077
4	0xbd999af7	-0.0750026
5	0x3db91df0	0.09038913
6	0x3d64f87f	0.055901047
7	0xbdadf674	-0.08494273
8	0xbd869832	-0.06571998
9	0xbdf28301	-0.11841393
10	0xbd1b9252	-0.03798134
11	0x3dfae23d	0.12250183
12	0x3de29489	0.11063487
13	0xbd95ff0f	-0.07324039
14	0xbd2d2c47	-0.042278554
15	0x3d434597	0.047673788
16	0xbd803669	-0.06260378
17	0x3c1f7029	0.009731331
18	0xbd8b65a1	-0.068064936
19	0xbd0a4f4d	-0.033767033
20	0xbc9cae27	-0.019126011
21	0xbd3fe150	-0.046845734
22	0x3c9195f7	0.017771704
23	0x3c3e9723	0.0116327135
24	0x3dcac4b7	0.09900802
25	0xbd06c986	-0.03290703
26	0xbdfb6157	-0.122744255
27	0xbb87f53a	-0.0041491063
28	0xbd90e0e3	-0.07074144
29	0x3dae3e0d	0.08507929
30	0xbd72f8e8	-0.059319407
31	0xbdcff43d	-0.10154007
32	0xbc4399fb	-0.011938567
33	0xbd989752	-0.07450737
34	0xbc632b8f	-0.013865366
35	0x3d267ac8	0.040644437
36	0x3da2cd1a	0.07949276
37	0xbd2ae172	-0.041718908
38	0xbd5eb6a6	-0.054373406
39	0x3d5e6147	0.05429199
40	0xbd9ee546	-0.07758574
41	0x3d4d1397	0.05006751
42	0xbdb2eb48	-0.087362826
43	0xbdf04d47	-0.117334895
44	0xbd85daca	-0.06535871
45	0xbdb3fc30	-0.08788335
46	0xbd51afa3	-0.05119289
47	0xbdb016fe	-0.085981354
48	0x3dff787b	0.12474152
49	0x3db3420a	0.0875283
50	0x3dcdf670	0.1005677
51	0x3d71565b	0.058920246
52	0xbb882502	-0.0041548023
53	0xbd49a1a6	-0.049226426
54	0xbda63b21	-0.08116747
55	0x3ce04819	0.027378129
56	0xbda7751a	-0.08176632
57	0xbd41858b	-0.047246497
58	0x3dae2ea1	0.085049875
59	0x3da93a9f	0.08263134
60	0xbdf96db5	-0.12179128
61	0xbda2179e	-0.07914661
62	0xbced3608	-0.028956428
63	0x3ca10eca	0.019660372
64	0xbd86acd3	-0.06575932
65	0xbd0ab3a5	-0.03386273
66	0xbcae9b45	-0.021314273
67	0x3d26535b	0.040606838
68	0x3d0ef0ba	0.034897543
69	0x3df1f9ae	0.11815201
70	0x3b1a458f	0.0023539995
71	0xbcfd8684	-0.030947931
72	0x3e157c14	0.14598113
73	0x3d505517	0.050862398
74	0xbd7e285c	-0.06205021
75	0x3c7b87ea	0.015352229
76	0xbdb422aa	-0.08795674
77	0xbdd1e49c	-0.10248682
78	0x3d01fa55	0.031732876
79	0xbdef7a1a	-0.11693211
80	0xbe023816	-0.12716708
81	0x3c9998bb	0.018749585
82	0xbdfd286e	-0.12361227
83	0x3d55cd15	0.052197535
84	0x3d8d0198	0.068850696
85	0x3dcf7a7b	0.10130783
86	0xbd88053a	-0.06641622
87	0x3d922805	0.07136539
88	0xbd0c7b32	-0.034297176
89	0xbd044db1	-0.032300655
90	0x3c5eaab0	0.0135905
91	0xbd2a4a61	-0.04157484
92	0xbdb2a8c9	-0.087235995
93	0xbdb80258	-0.08984822
94	0xbaec1da9	-0.001801421
95	0x3d8b0f3b	0.06790014
96	0xbdb98b60	-0.09059787
97	0x3bd1a94f	0.006398357
98	0xbd9bb55b	-0.0760295
99	0x3c01f6bb	0.00793236
100	0xbba124e9	-0.00491773
101	0xbde899ae	-0.11357437
102	0xbd0da21b	-0.034578424
103	0xbd933f04	-0.07189754
104	0x3c751629	0.014958897
105	0x3e072379	0.13197125
106	0xbccc700e	-0.024955776
107	0xbdc258d6	-0.094896
108	0x3e07bf1e	0.13256499
109	0x3d9cb754	0.076521546
110	0xbc9ebe4d	-0.019377852
111	0xbdd99044	-0.106232196
112	0xbce63c46	-0.028104912
113	0xbdfbd6ac	-0.12296805
114	0xbd194b1c	-0.037425146
115	0x3dd46e99	0.10372657
116	0x3c824691	0.01590279
117	0xbddef5bc	-0.10886714
118	0xbc2db33b	-0.010601814
119	0x3dfb2418	0.12262744
120	0x3db8608b	0.09002789
121	0xbde6a78a	-0.11262424
122	0xbc54d55f	-0.012990325
123	0x3dd89b78	0.10576528
124	0x3db73b48	0.08946854
125	0x3cf36410	0.0297108
126	0xbcbcea9c	-0.02306109
127	0xbc42dd50	-0.011893585
128	0x3e013bad	0.12620421
129	0x3e391c46	0.18077192
130	0x3e1794bc	0.14802831
131	0x3deac37d	0.11463068
132	0xbcb5cab3	-0.022191381
133	0x3db42a35	0.08797113
134	0xb91ff07e	-0.00015253012
135	0xbc6d4183	-0.014480951
136	0xbd73eb84	-0.059550777
137	0xbddac158	-0.10681409
138	0x3c8559ed	0.016278232
139	0xbde60500	-0.112314224
140	0xbcf1b944	-0.029507287
141	0xbc880fa9	-0.01660903
142	0x3d93dd41	0.07219935
143	0x3d0aba94	0.03386934
144	0x3e0a1806	0.13485727
145	0xbdfc7a27	-0.12327986
146	0x3dfdc073	0.123902224
147	0xbda447e3	-0.08021524
148	0xbdafca87	-0.08583551
149	0xbe0defa0	-0.13860941
150	0x3e174553	0.14772539
151	0xbc2b8832	-0.010469483
152	0xbda69b84	-0.08135131
153	0xbda66173	-0.08124056
154	0xbd59836d	-0.053103853
155	0xbdb26469	-0.08710558
156	0x3cf48b7f	0.029851673
157	0x3ccba633	0.024859523
158	0xbdc009a1	-0.093768366
159	0x3d6e1d1c	0.05813323
160	0xbd151004	-0.036392227
161	0x3d6910fa	0.056900956
162	0x3d20242a	0.03909699
163	0x3d8f0a6b	0.06984409
164	0x3d732420	0.059360623
165	0x3c76bac9	0.0150591815
166	0xbdef2966	-0.11677818
167	0x3d3322ec	0.043734476
168	0xbd81de1d	-0.06341193
169	0x3d24dd3d	0.04025005
170	0xbc732a8a	-0.014841685
171	0x3dcd456b	0.10023006
172	0xbd3e838a	-0.046512164
173	0x3db11646	0.086468264
174	0xbdd5b9ad	-0.104358055
175	0xbe0b1087	-0.13580523
176	0x3daa67f3	0.08320608
177	0x3c58af9f	0.013225465
178	0xbc8316f2	-0.016002152
179	0xbe1449e3	-0.1448131
180	0x3df8a354	0.12140527
181	0x3d9dbf5c	0.077025145
182	0xbcd96260	-0.026536167
183	0xbc323b6a	-0.010878423
184	0xbe08ec3f	-0.1337137
185	0xbda4a2f1	-0.08038891
186	0x3db41c9f	0.087945215
187	0x3e077558	0.13228357
188	0x3c86ba7b	0.016446343
189	0xbb93ec80	-0.004514277
190	0xbdbbe7a6	-0.09175043
191	0x3cc6d3ea	0.02427097
192	0xbdcd7368	-0.100317776
193	0x3dcce0d7	0.10003822
194	0xbd12ec2e	-0.03586977
195	0x3da538d0	0.08067477
196	0x3d9b59c0	0.07585478
197	0x3deae237	0.11468928
198	0xbd8761bc	-0.06610438
199	0x3e5ce4e9	0.21571697
200	0x3ce5a001	0.028030397
201	0xbd6c6eee	-0.05772298
202	0x3d1d8b44	0.038462892
203	0xbcda745e	-0.026666816
204	0x3e2e26d9	0.17007007
205	0xbd7f00b9	-0.06225655
206	0xbe0f1296	-0.13971934
207	0x3dfcd873	0.12345972
208	0x3db09837	0.08622783
209	0xbdcaed68	-0.09908563
210	0xbdc14338	-0.09436649
211	0xbde220f7	-0.11041444
212	0xbdbd464b	-0.09241923
213	0x3d93564d	0.07194195
214	0x3aa5df85	0.0012655115
215	0xbd297225	-0.041368622
216	0xbd4cb9d9	-0.049981926
217	0xbc0b65d0	-0.008508161
218	0xbdf8eee8	-0.12154943
219	0x3dda33a3	0.1065438
220	0x3dda4a0b	0.10658654
221	0xbd88f75b	-0.06687804
222	0x3d9257b2	0.07145633
223	0x3de4c9a1	0.1117127
224	0x3bc4b6e8	0.0060032494
225	0xbd089264	-0.033342734
226	0xbd3c8916	-0.046029173
227	0xbc9b4914	-0.018955745
228	0x3d9464a7	0.072457604
229	0x3c30d6ee	0.010793431
230	0x3d96311c	0.073335856
231	0xbda1a462	-0.07892682
232	0x3d5d3a14	0.054010466
233	0x3df3a37c	0.118964165
234	0x3c130f08	0.008975752
235	0x3de89947	0.1135736
236	0x3d916dc0	0.07101011
237	0xbe0194dd	-0.12654443
238	0x3e076155	0.13220723
239	0xbccfd10f	-0.025368242
240	0xbdf4412c	-0.11926493
241	0x3d8a9f0c	0.06768617
242	0x3d3d4c88	0.046215564
243	0x3c88c484	0.016695268
244	0x3dc00415	0.093757786
245	0x3d83b558	0.06431073
246	0xbdfcc62a	-0.12342484
247	0xbdbdb5c3	-0.09263184
248	0x3d592ea4	0.053022996
249	0xbd2fd7d2	-0.04293043
250	0x3b74c25f	0.00373473
251	0xbd021d51	-0.03176624
252	0x3d26fb43	0.040766966
253	0xbe0f70e0	-0.14007902
254	0x3c215105	0.009845977
255	0xbdd798b9	-0.105271764

mlp1.0.bias f4 [150]
0	0x3d974f9a	0.0738823
1	0x3cd438b1	0.025905939
2	0xbde5f561	-0.11228443
3	0xbd146184	-0.03622581
4	0x3d393f1d	0.045226205
5	0x3d9518c8	0.07280117
6	0xbd7637ef	-0.060111936
7	0x3d772fde	0.060348384
8	0xbd6cd699	-0.057821844
9	0xbe0e5104	-0.13898093
10	0xbd23ec00	-0.04001999
11	0xbd1f28c8	-0.03885725
12	0xbd0b1f48	-0.03396538
13	0xbd6a8f0d	-0.05726533
14	0xbdf2b2a6	-0.11850481
15	0x3dffcd77	0.12490361
16	0xbc9429aa	-0.018086273
17	0xbe0b7f3b	-0.13622753
18	0x3da2a6a5	0.07941941
19	0x3d9561cd	0.07294045
20	0x3da785e8	0.081798375
21	0x3e00a8ee	0.12564442
22	0x3d46203a	0.048370577
23	0xbd98b818	-0.07456988
24	0x3de8bfa4	0.113646775
25	0x3d15f68e	0.036612086
26	0x3dbfb268	0.093602
27	0xbdd3dc7e	-0.1034479
28	0xbd81dca1	-0.0634091
29	0x3b9cef3f	0.0047892625
30	0xbdb67e26	-0.0891078
31	0x3dd3d288	0.1034289
32	0xbb8cace3	-0.0042930706
33	0xbd8d44d0	-0.068978906
34	0x3c10c1ea	0.008835295
35	0x3d95aaac	0.07307944
36	0x3dabb2c8	0.08383709
37	0xbd84bb0b	-0.06480988
38	0x3d5969bb	0.053079348
39	0xbd0b0783	-0.03394271
40	0xbcc78bf5	-0.024358729
41	0x3ccad491	0.024759563
42	0x3b0efcbc	0.0021818122
43	0xbd9312da	-0.0718133
44	0x3dd71b49	0.10503251
45	0x3ce6fb01	0.02819586
46	0xbdb67a0d	-0.08909998
47	0x3c882dd5	0.016623417
48	0xbc3ead83	-0.011638048
49	0x3cde9782	0.027171854
50	0xbdbda8bc	-0.09260699
51	0x3d97257c	0.073801965
52	0x3d52044b	0.051273625
53	0xbdc82aba	-0.097737744
54	0x3dc10838	0.09425396
55	0x3d5e0d07	0.054211643
56	0x3d58dd6e	0.052945547
57	0xbc61dc93	-0.013785499
58	0x3dca503d	0.098785855
59	0xbdc4b73a	-0.0960526
60	0x3c9e18f5	0.01929901
61	0x3d243c3c	0.040096506
62	0x3a9af1ff	0.0011821388
63	0x3db2604c	0.087097734
64	0x3d36992e	0.044579677
65	0xbd5e9fd3	-0.05435164
66	0xbd422963	-0.04740275
67	0x3e046d2b	0.1293227
68	0x3decd9b4	0.11564961
69	0x3ccf3630	0.025294393
70	0x3db20122	0.08691622
71	0x3e1e471c	0.15456814
72	0xbe05b9be	-0.13059136
73	0x3dcc1bd5	0.09966246
74	0xbdd8e838	-0.10591167
75	0x3e217fae	0.15771362
76	0x3dada3e5	0.08478526
77	0xbd8f742f	-0.07004582
78	0xbe08a32f	-0.133435
79	0x3d50aad0	0.05094415
80	0xbc9c6d7f	-0.01909518
81	0xbcca3eb5	-0.024688104
82	0x3d2c13a9	0.042010937
83	0xbe1beb55	-0.15226491
84	0xbc44095a	-0.01196512
85	0x3a7bdc70	0.0009607738
86	0x3d53a84e	0.05167418
87	0x3dd7dad2	0.105397835
88	0x3c91a210	0.017777473
89	0xbdb1e5ca	-0.08686407
90	0xbdc55b46	-0.0963655
91	0xbdf0a28b	-0.117497526
92	0x3da41177	0.08011144
93	0x3d59fcf6	0.053219758
94	0x3dcb2aaa	0.09920247
95	0xbbcbbaac	-0.0062173214
96	0xbb87f129	-0.0041486216
97	0x3da3e223	0.080021165
98	0xbd0b3896	-0.03398951
99	0xbddf5572	-0.10904969
100	0xbd7f1e2c	-0.062284634
101	0x3dc914db	0.09818431
102	0xbd95ce52	-0.07314743
103	0x3cb5f417	0.022211118
104	0x3e026ca1	0.12736751
105	0x3dbac133	0.09118881
106	0x3dbea257	0.093083076
107	0xbdceb5c8	-0.10093266
108	0x3e02c0ca	0.12768856
109	0xbdada67a	-0.084790185
110	0x3db9e7e3	0.09077432
111	0x3dcec6eb	0.10096534
112	0xbc9d715e	-0.019219097
113	0x3b87233f	0.0041240747
114	0x3d47fd72	0.04882569
115	0x3d0489d2	0.032358
116	0xbde146da	-0.10999842
117	0xbe270bfa	-0.16313162
118	0xbe01808c	-0.12646693
119	0xbdae9cec	-0.08526024
120	0x3d92d79c	0.071700305
121	0xbd9d91fb	-0.07693859
122	0xbdda49ce	-0.106586084
123	0xbc4e546b	-0.012593369
124	0x3bf89b3e	0.0075868657
125	0xbde28863	-0.1106117
126	0xbdb3d371	-0.087805636
127	0x3defe765	0.11714057
128	0xbdc04dd5	-0.09389845
129	0xbb094313	-0.002094452
130	0x3d99df32	0.07513274
131	0xbe29ce98	-0.16582716
132	0x3db0ce74	0.08633128
133	0xbc8470ca	-0.016167063
134	0xbd78588d	-0.060631324
135	0x3d12ae65	0.035810847
136	0xbd9d8de8	-0.07693082
137	0x3d7b0227	0.06128135
138	0xbd870c8a	-0.065941885
139	0x3d2b00d5	0.04174884
140	0x3e126e4f	0.14299892
141	0x3dd4605b	0.10369941
142	0x3bbc0ca2	0.0057388106
143	0xbdd0be3a	-0.10192533
144	0x3df3acfd	0.11898229
145	0xbd968bc1	-0.07350875
146	0x3dc5ae81	0.096524246
147	0xbdfb0061	-0.12255932
148	0xbdbbb57a	-0.09165473
149	0x3a0342c6	0.00050072034

mlp1.2.weight f4 [100, 150]
0	0xbd2d4f55	-0.042311985
1	0xbd892e90	-0.06698334
2	0xbd3cbedc	-0.046080455
3	0xbd830dca	-0.063991144
4	0xbdb3638c	-0.087592214
5	0xbd8a2c1a	-0.06746693
6	0x3c6ea3a6	0.014565384
7	0xbcc8e4e2	-0.024523202
8	0x3cca3158	0.024681732
9	0xbda2f341	-0.07956553
10	0x3d339f6d	0.043853212
11	0x3d67636c	0.0564913
12	0xbb6fe935	-0.0036607508
13	0x3d0b1c65	0.033962626
14	0xbd574b3f	-0.052561995
15	0xbcbba1c7	-0.02290429
16	0xbcb3c6d1	-0.021945389
17	0x3cdbd8f0	0.026836842
18	0xbd42977a	-0.04750774
19	0x3d257f9c	0.0404049
20	0xbca528c4	-0.02016104
21	0xbc768117	-0.015045426
22	0xbceab4b5	-0.028650621
23	0xbd83d6b3	-0.06437435
24	0xbd4a35f2	-0.049367853
25	0xbd4c6bb2	-0.049907394
26	0xbd98421e	-0.07434486
27	0x3d775660	0.060385108
28	0x3d8604f9	0.06543917
29	0x3d35824f	0.044313725
30	0x3d41f5e3	0.047353636
31	0xbc08b05a	-0.008342827
32	0xbc95df2c	-0.018294893
33	0xbd0e7cb5	-0.0347869
34	0x3d90ffd9	0.07080049
35	0xbd2d743b	-0.042347174
36	0xbdc465f4	-0.095897585
37	0xbc9afc13	-0.018919026
38	0x3d74a526	0.05972781
39	0x3d2a0acd	0.041514207
40	0x3d89db23	0.0673125
41	0x3c3ac511	0.011399523
42	0xbd873d93	-0.06603541
43	0x3d2d32e5	0.042284865
44	0x3d9bdec9	0.07610852
45	0xbc9cec5f	-0.01915568
46	0xbda50fcb	-0.08059653
47	0x3d46390a	0.04839424
48	0x3d12f72e	0.03588026
49	0xbb9fc392	-0.0048756087
50	0xbd92006a	-0.07128985
51	0x3dbbf3f6	0.09177391
52	0x3c0b8685	0.008515959
53	0x3d85ecd9	0.06539316
54	0x3d27b475	0.04094358
55	0xbbbd18d6	-0.005770783
56	0x3d7c7ba1	0.06164134
57	0x3cff59bd	0.03117072
58	0x3d8dc15a	0.069216445
59	0xbd92ece4	-0.071740896
60	0x3cd7d97c	0.026348822
61	0x3da368af	0.07978951
62	0x3da5109f	0.08059811
63	0xbd62a216	-0.05533036
64	0xbcf1c394	-0.029512204
65	0xbca48996	-0.020085137
66	0x3c342657	0.010995469
67	0xbdb9237d	-0.09039972
68	0x3d8da0c4	0.06915429
69	0xbd60603e	-0.054779284
70	0xbc3e701d	-0.01162341
71	0x3d402570	0.046910703
72	0xbd645aec	-0.055750772
73	0x3d5f4d22	0.05451692
74	0x3b7c9df5	0.0038546298
75	0xbc84ef88	-0.016227499
76	0x3d84a9c1	0.064776905
77	0x3c383f01	0.01124549
78	0xbd9cf643	-0.07664158
79	0x3d64283f	0.055702444
80	0xb8b51511	-8.6346765e-05
81	0x3d49c1cf	0.049257096
82	0xbd1c8e91	-0.0382219
83	0x3d6bde76	0.057585202
84	0xbd5a488f	-0.053291854
85	0x3c8020ab	0.015640577
86	0xbd552aa4	-0.05204262
87	0x3d592e20	0.053022504
88	0xbbdf77c0	-0.0068196952
89	0x3d76b7a9	0.060233746
90	0x3dbd1d04	0.0923405
91	0xbb8e3090	-0.004339285
92	0x3d960384	0.07324889
93	0xbd6680f0	-0.056275308
94	0xbd5b1dbe	-0.05349516
95	0xbd345a1a	-0.04403124
96	0xbcda86e0	-0.026675642
97	0xbce2abaf	-0.027669756
98	0xbcbcb419	-0.023035096
99	0xbd0d1c84	-0.034451023
100	0xbc7956f4	-0.015218485
101	0xbc79b9db	-0.015242065
102	0x3c2e60c2	0.010643186
103	0x3c4d34f8	0.012524836
104	0xbcd316eb	-0.025767764
105	0xbb84f692	-0.004057714
106	0xbca01a0c	-0.01954367
107	0xbc4336e8	-0.011914946
108	0xbdaa84df	-0.083261244
109	0x3c4e86e6	0.0126054045
110	0x3ba4439f	0.005012944
111	0x3cf5d040	0.030006528
112	0x3d7d896e	0.06189864
113	0xbccbe6e3	-0.024890369
114	0xbc9701cd	-0.018433476
115	0xbd757ce9	-0.059933577
116	0xbd15c47d	-0.03656434
117	0x3d4801bf	0.04882979
118	0x3d47f751	0.048819844
119	0xbad0d95b	-0.0015933918
120	0xbd4edeec	-0.050505564
121	0xbd60ca9a	-0.054880716
122	0x3cb65e63	0.022261804
123	0xbc2b03fc	-0.010437962
124	0x3d59d4bd	0.0531814
125	0xbda3f163	-0.08005025
126	0x3ce2c1f6	0.027680378
127	0x3bf1cbb7	0.007379021
128	0xbd0265bf	-0.031835314
129	0xbd8b8ba7	-0.06813746
130	0xbcfad1c8	-0.03061761
131	0x3d764b30	0.0601303
132	0xbc399e29	-0.011329212
133	0xbcee4749	-0.029086726
134	0xbc14b5da	-0.00907656
135	0x3c889624	0.016673155
136	0x3d1ad758	0.037803024
137	0x3d3904fb	0.045170765
138	0xbcf6cbf1	-0.030126544
139	0xbc19ebf0	-0.009394631
140	0x3d1e86b5	0.038702685
141	0xbcf072eb	-0.029351672
142	0x3d03acc1	0.032147173
143	0xbd3312ed	-0.04371922
144	0x3d022225	0.031770844
145	0x3d1733e1	0.03691471
146	0xbd698d44	-0.057019487
147	0x3c72b1cd	0.014812899
148	0xbd7cfe42	-0.061765917
149	0xbd84412e	-0.064577445
150	0xbda6f3f2	-0.081519976
151	0xbd832733	-0.06403961
152	0xbddbd883	-0.10734656
153	0xbe0c3aeb	-0.1369435
154	0x3d7f6add	0.062357772
155	0xbd4bcf86	-0.049758457
156	0x3d927d46	0.071528
157	0xbd28fcb0	-0.041256607
158	0x3d068d1d	0.03284942
159	0x3b9412e5	0.004518854
160	0x3d60da36	0.054895602
161	0x3d887f16	0.06664865
162	0x3d143863	0.036186587
163	0xbcb41eb3	-0.021987295
164	0x3d5ba9f6	0.053628884
165	0xbdf6915c	-0.12039444
166	0x3d87ee97	0.06637304
167	0xbcda6706	-0.026660454
168	0xbd3ee703	-0.04660703
169	0xbd2f512b	-0.042802017
170	0xbda5112f	-0.08059918
171	0xbcaa739a	-0.020807076
172	0x3d8ebc16	0.06969468
173	0x3cb80e3f	0.02246773
174	0x3d9bd5a2	0.076091066
175	0xbe163a49	-0.14670672
176	0xbbc01e63	-0.0058629974
177	0xbdd94aef	-0.106099956
178	0xbca0e1b9	-0.019638883
179	0x3da9ad41	0.08284999
180	0xbd8b30a6	-0.06796388
181	0xbd7a0a92	-0.061045237
182	0xbdc7dcdd	-0.09758923
183	0xbd852205	-0.06500629
184	0x3d1cced6	0.03828319
185	0xbd58e552	-0.052953072
186	0xbdd30f67	-0.10305672
187	0x3d05393a	0.03252528
188	0x3d774b9d	0.060374845
189	0x3b5d9262	0.0033809175
190	0xbd594a80	-0.053049564
191	0xbd071fb2	-0.03298921
192	0x3d92d276	0.071690485
193	0xbe0b2589	-0.13588537
194	0x3db7200b	0.089416586
195	0x3dfeece7	0.12447529
196	0xbd2ef736	-0.042716227
197	0xbdab45ff	-0.0836296
198	0x3d27b1fb	0.04094122
199	0x3d5af4af	0.053456005
200	0xbcd8088d	-0.026371265
201	0xbdf280f9	-0.11841006
202	0x3d8bac78	0.06820005
203	0x3c4d13d0	0.012516931
204	0xbd938ae4	-0.07204226
205	0xbd6e4cf8	-0.058178872
206	0x3d36bec7	0.044615533
207	0xbb8ebbc2	-0.0043558786
208	0xbd044e9d	-0.032301534
209	0x3d5ea724	0.054358616
210	0x3d8bec8c	0.06832227
211	0xbc8386cf	-0.016055493
212	0x3cdba745	0.026813159
213	0x3e013a8e	0.12619993
214	0x3d5945ad	0.053044964
215	0x3c0c6a7d	0.008570311
216	0xbce07c4c	-0.02740302
217	0xbd966142	-0.07342769
218	0xbde8251f	-0.11335205
219	0xbdc2f2c3	-0.095189594
220	0x3d16e3bc	0.03683828
221	0x3c37472f	0.011186405
222	0x3d04bc0e	0.032405905
223	0xbd23e577	-0.040013757
224	0xbdba189a	-0.090867236
225	0x3dc8b37d	0.0979986
226	0x3c515f63	0.01277909
227	0xbd54fd00	-0.051999092
228	0x3c5b85ae	0.013398571
229	0xbced3a6c	-0.028958522
230	0x3ce80cac	0.028326355
231	0x3ac9c329	0.0015393245
232	0x3b87539a	0.004129839
233	0xbc93e981	-0.01805568
234	0xbdb511c0	-0.08841276
235	0x3cf1e7b7	0.029529436
236	0xbbbcd97e	-0.005763232
237	0x3d2d6814	0.042335585
238	0xbd74cc36	-0.059765063
239	0x3c875340	0.016519189
240	0xbc3ce715	-0.011529704
241	0xbd1cd4eb	-0.038288992
242	0x3bc60ced	0.0060440213
243	0x3dadef1a	0.08492871
244	0xbb2d829d	-0.0026475557
245	0xbc906948	-0.017628327
246	0x3d14350d	0.036183406
247	0x3dd026a6	0.101636216
248	0xbc50b7b7	-0.0127391135
249	0x3c8835de	0.016627248
250	0xbd7366bf	-0.05942416
251	0x3d831c87	0.064019255
252	0xbdb6bd11	-0.0892278
253	0xbd2729ec	-0.040811464
254	0xbd763080	-0.060104847
255	0xbe1816f5	-0.14852507

mlp1.2.bias f4 [100]
0	0x3d417e77	0.047239747
1	0x3de2f0c0	0.11081076
2	0x3c9c49ab	0.019078096
3	0xbd03a3ff	-0.03213882
4	0x3d0ab36f	0.033862527
5	0xbcbe7c06	-0.023252498
6	0xbd45a3b6	-0.04825183
7	0x3b5b4abe	0.0033461298
8	0x3dbeac89	0.09310252
9	0x3bbf576a	0.005839278
10	0xbd1b3e32	-0.03790111
11	0xbd6bfb03	-0.05761243
12	0x3e1895f1	0.14900948
13	0x3d8d8147	0.06909423
14	0x3d6eeb3c	0.058329806
15	0x3cd37e69	0.025817113
16	0x3bce4d8e	0.0062958663
17	0x3df48359	0.11939115
18	0x3d8ce260	0.06879115
19	0x3d1dc825	0.03852095
20	0x3de6be94	0.11266819
21	0x3b50cf50	0.003186185
22	0x3befc34f	0.007316984
23	0xbd9b114a	-0.07571657
24	0xbcd76ee1	-0.026297988
25	0xbca67a6a	-0.020322043
26	0xbd73106b	-0.05934183
27	0x3da2c118	0.07946986
28	0xbce4cc72	-0.027929518
29	0xbc32a917	-0.010904572
30	0x3b4c3280	0.003115803
31	0x3cf4ea23	0.029896801
32	0x3cd34573	0.025789952
33	0xbcbd618c	-0.023117803
34	0xbd070e45	-0.032972593
35	0x3c90f1d8	0.017693445
36	0x3d6d4b35	0.05793305
37	0xbc712646	-0.014718598
38	0x3b9217f2	0.004458421
39	0x3d5f8437	0.05456945
40	0xba9284b8	-0.0011178469
41	0x3d78401d	0.06060802
42	0x3bdc5322	0.0067237774
43	0x3e378639	0.17922296
44	0xbca0ac85	-0.019613514
45	0xbab93b63	-0.0014132079
46	0xbc09424a	-0.008377621
47	0x3d9dcc1e	0.07704948
48	0xbd82edaa	-0.06392987
49	0x3d5b9bd3	0.053615402
50	0xbcbdfe1d	-0.02319246
51	0x3d9b3552	0.075785294
52	0x3ba2edf8	0.0049722157
53	0xbb8a1844	-0.0042143185
54	0x3d9395c6	0.072063014
55	0xbdaf38b3	-0.085557364
56	0xbd838316	-0.06421487
57	0x3ce5d9df	0.02805799
58	0xbd4046d7	-0.04694256
59	0xbd1e2ecd	-0.03861885
60	0xbc32fd83	-0.0109247
61	0xbcb7bcd4	-0.022428907
62	0xbd65a10c	-0.05606179
63	0x3d16e4f2	0.036839433
64	0xbce29e86	-0.02766348
65	0x3d0e04aa	0.034672417
66	0xbc46759f	-0.012113004
67	0xbd01983e	-0.03163933
68	0xbd858053	-0.065186165
69	0x3b1a9027	0.0023584457
70	0x3d3f65ee	0.046728067
71	0xbc6c0df2	-0.014407622
72	0x3c403b44	0.01173288
73	0x3d709fbb	0.05874608
74	0x3d0737f4	0.033012345
75	0x3d5b2e02	0.053510673
76	0x3dca9e4d	0.09893475
77	0x3d9f5455	0.07779757
78	0x3c9bbdfc	0.01901149
79	0xba6cc9a2	-0.0009032731
80	0xbcd185d6	-0.025576513
81	0xbda656c0	-0.08122015
82	0xbbf8f820	-0.007597938
83	0xb9d15f56	-0.00039934617
84	0xbd963c79	-0.07335753
85	0xbd9bd6ff	-0.076093666
86	0x3d04c2e8	0.03241244
87	0xbcedf9c6	-0.029049765
88	0xbc86da27	-0.016461445
89	0xbcebc6d7	-0.028781338
90	0x3cb5d371	0.02219555
91	0xbd8f00ec	-0.06982598
92	0xbcd1098c	-0.025517248
93	0xbc77b745	-0.015119378
94	0x3dc41323	0.095739625
95	0xbd7741b3	-0.06036539
96	0xbd36e952	-0.044656105
97	0x3db759d6	0.08952682
98	0x3d19e6b6	0.03757354
99	0xbcb4d86d	-0.022075856

mlp2.0.weight f4 [100, 100]
0	0xbdb6aa53	-0.089192055
1	0xbd492723	-0.04910959
2	0xbdb04a04	-0.08607867
3	0x3cf0dc1c	0.029401831
4	0x3dc6a978	0.09700292
5	0x3dc8fb95	0.098136105
6	0x3da7272d	0.08161769
7	0x3ca7e93a	0.020496953
8	0xbb8f16e8	-0.0043667443
9	0x3dc10dd3	0.09426465
10	0x3cb27ce1	0.021788063
11	0x3da12327	0.07868033
12	0xbdc00f75	-0.09377948
13	0xbda534a4	-0.08066681
14	0xbd891e4f	-0.06695234
15	0x3d99f6f4	0.07517806
16	0xbd064949	-0.032784734
17	0x3c39d24d	0.0113416435
18	0xbd13b703	-0.036063205
19	0xbc6b8862	-0.014375778
20	0x3d9f2711	0.07771123
21	0xba91f243	-0.0011134822
22	0xbda43bbf	-0.08019208
23	0xbd8b22e0	-0.06793761
24	0xbdcb5b77	-0.09929555
25	0xbd6f0369	-0.05835286
26	0x3da25d3c	0.07927939
27	0xbd815553	-0.063151024
28	0xbdc3048b	-0.09522351
29	0xbd448ce3	-0.047985923
30	0xbcc287de	-0.023746427
31	0xbd9c22ef	-0.076238506
32	0x3d8d4b6c	0.06899151
33	0x3dc7522a	0.097324684
34	0xbd8e05ee	-0.06934725
35	0x3d153876	0.0364308
36	0x3db780cc	0.08960113
37	0xbda6528d	-0.08121214
38	0x3d49c744	0.0492623
39	0x3db826aa	0.089917496
40	0xbdbbe255	-0.09174029
41	0xbd29fc06	-0.041500114
42	0xbdad0574	-0.08448306
43	0xbd8977d2	-0.06712307
44	0x3d3839c8	0.04497698
45	0x3d5ca585	0.05386879
46	0xbc07675b	-0.008264388
47	0xbc829de6	-0.015944432
48	0xbd5c7b6a	-0.053828634
49	0x3c011083	0.007877472
50	0xbc1c55f4	-0.009541977
51	0x3d9efda9	0.077632256
52	0x3d4d5d0b	0.05013756
53	0xbd2b0761	-0.041755084
54	0xbd22219b	-0.03958283
55	0x3d5d3a40	0.05401063
56	0x3d1fdc2d	0.039028335
57	0xbd9271f8	-0.07150644
58	0xbdb0614d	-0.08612309
59	0x3db85b94	0.09001842
60	0xbd9be0b9	-0.07611222
61	0x3c94cf6a	0.018165309
62	0x3b51dce5	0.0032022533
63	0xbca35a8f	-0.019940643
64	0x3d2bbdcb	0.041929048
65	0x3da7cc56	0.08193271
66	0x3dc485e7	0.09595852
67	0xbca7ca0b	-0.020482084
68	0xbbcb0541	-0.0061956947
69	0xbdc7dfe6	-0.09759502
70	0xbc4df301	-0.012570144
71	0x3d5fa8f8	0.0546045
72	0xbdb756d8	-0.08952111
73	0xbce0fb52	-0.027463589
74	0xbdcab29d	-0.09897349
75	0xbb5e6263	-0.0033933155
76	0xbdccc8f2	-0.09999265
77	0x3cb2f839	0.021846877
78	0xbdaeda26	-0.08537702
79	0xbcae4cba	-0.02127682
80	0x3db67ae9	0.08910162
81	0x3b4547b0	0.0030102544
82	0xbc1fec0b	-0.009760867
83	0x3d131922	0.03591264
84	0x3d4abcf7	0.049496617
85	0x3d005fd3	0.031341385
86	0xbbb78a77	-0.005601223
87	0xbd990d34	-0.074732214
88	0x3d2002b1	0.039065067
89	0xbb8c7ede	-0.0042875847
90	0xbdafee07	-0.08590322
91	0x3cf6df52	0.030135784
92	0x3db7da9e	0.08977245
93	0x3db76212	0.08954252
94	0xbda31cc4	-0.07964471
95	0x3d3f8919	0.046761606
96	0x3c6ad8d2	0.014333921
97	0xbdc6e4dd	-0.09711621
98	0xbd2fd4f4	-0.042927697
99	0xbdb81799	-0.08988876
100	0xbc79b936	-0.015241912
101	0xbd0793f0	-0.03310007
102	0xbd71ecc2	-0.05906368
103	0x3dc32b59	0.09529752
104	0x3c6909bc	0.014223512
105	0x3ceb539e	0.028726395
106	0xbd0e7c69	-0.034786616
107	0x3d429573	0.047505807
108	0xbd61f69c	-0.055166826
109	0x3d137248	0.03599766
110	0xbb2944ee	-0.0025828439
111	0xbcf58198	-0.029969022
112	0xbd1078a4	-0.035271302
113	0xbd9d8186	-0.0769072
114	0xbcfdd534	-0.030985452
115	0x3dbdbef0	0.09264934
116	0x3db3b483	0.08774664
117	0x3dc0a669	0.0940674
118	0xbd86e60b	-0.06586846
119	0xbd811555	-0.06302897
120	0xbde4456c	-0.11146054
121	0x3d3ced61	0.04612482
122	0xbd931e5f	-0.07183527
123	0xbdc127c3	-0.09431412
124	0xbd39e376	-0.04538294
125	0x3d13df6f	0.036101755
126	0x3dc1d68a	0.09464748
127	0x3d81a6cf	0.06330644
128	0x3d82e7f1	0.063918956
129	0x3dde8bec	0.10866532
130	0xbd95754a	-0.07297762
131	0x3cd54cf5	0.026037673
132	0x3c6ee333	0.014580536
133	0x3b4ac107	0.0030937807
134	0x3cc4031f	0.02392727
135	0xbd1c9d28	-0.038235813
136	0x3d2a0041	0.04150415
137	0x3ce1fdd9	0.027586864
138	0xbdcc8822	-0.09986903
139	0x3d23e874	0.040016606
140	0x3c3980d4	0.011322219
141	0x3c959eda	0.018264223
142	0x3b4008d1	0.002930213
143	0x3ca5c6ed	0.020236457
144	0x3d5272e4	0.0513791
145	0xbc70af0a	-0.01469017
146	0xbc230447	-0.00994975
147	0xbd9e907a	-0.077424005
148	0x3d84a7de	0.064773306
149	0xbd95537a	-0.072913125
150	0x3c93654e	0.017992642
151	0x3a497607	0.0007685129
152	0x3d4183d1	0.04724485
153	0x3cf9ddac	0.03050121
154	0xbcbffdf6	-0.023436528
155	0xbd569952	-0.05239231
156	0xbda5399e	-0.0806763
157	0x3d929eb9	0.0715918
158	0xbd708f52	-0.05873043
159	0x3dcdcd7f	0.10048961
160	0xbdc97d5b	-0.09838363
161	0x3ba29f84	0.0049628634
162	0x3dbeb699	0.093121715
163	0x3b2ff065	0.0026846167
164	0x3d98b72a	0.07456811
165	0x3dad9b2e	0.08476864
166	0xbd92b681	-0.07163716
167	0xbd1310ea	-0.035904802
168	0x3c1d722a	0.009609738
169	0x3d379898	0.04482326
170	0xbdbc5992	-0.09196772
171	0x3da677bc	0.08128306
172	0xbda23dcf	-0.07921945
173	0x3db9454a	0.09046419
174	0x3dbd6bd4	0.09249082
175	0x3d0d57ac	0.03450744
176	0xbd221f63	-0.039580714
177	0x3d5a6ed7	0.05332836
178	0x3dbc09ce	0.091815576
179	0xbcd6c7bd	-0.02621829
180	0xbb4d65fa	-0.00313413
181	0xbd5bcb80	-0.05366087
182	0xbd330937	-0.04370996
183	0x3c36c5e4	0.011155579
184	0xbce1af20	-0.027549326
185	0xbd217a4b	-0.03942327
186	0x3d94a418	0.07257861
187	0x3db36eae	0.08761345
188	0x3d076ea2	0.033064492
189	0x3ce1c664	0.02756042
190	0xb9eb89e2	-0.00044925424
191	0xbdbe0c54	-0.09279695
192	0xbd57b84a	-0.052665986
193	0x3daef4a3	0.085427545
194	0xbda03c87	-0.07824045
195	0xbc70113f	-0.014652549
196	0x3d3e7542	0.046498545
197	0x3cedac7d	0.029012913
198	0x3d8427fb	0.06452938
199	0xbd9a4ad7	-0.07533806
200	0x3d94a820	0.0725863
201	0x3d5cfd86	0.053952716
202	0x3da33f30	0.079710364
203	0xbda9f4d7	-0.082986526
204	0x3d27d9f7	0.04097935
205	0x3b340d97	0.002747392
206	0x3d44a6d8	0.048010677
207	0x3d801b45	0.06255201
208	0x3da9beda	0.08288355
209	0xba205890	-0.00061167125
210	0xbda3616a	-0.07977565
211	0x3cb336fd	0.021876806
212	0xbd08acde	-0.033367984
213	0xbc873ced	-0.016508544
214	0xbda189f0	-0.078876376
215	0xbda6328d	-0.081151105
216	0x3d70317e	0.05864095
217	0xbdbc756c	-0.09202084
218	0xbdc94ade	-0.09828733
219	0x3ccb4cac	0.024816833
220	0x3d5b38f9	0.05352113
221	0x3d208df7	0.03919789
222	0x3d106caa	0.03525988
223	0x3cc76186	0.024338495
224	0x3ce6fa43	0.028195506
225	0xbd9bc08f	-0.07605087
226	0x3cc68ebe	0.024237987
227	0xbd2781cc	-0.04089527
228	0x3d38a499	0.045078848
229	0xbd92cbe7	-0.071677975
230	0xba591658	-0.00082812225
231	0xbbd44496	-0.0064779026
232	0x3cad35b7	0.021143777
233	0xbca1fac7	-0.0197729
234	0xbd52efa0	-0.051498055
235	0xbd5d0edc	-0.05396925
236	0x3d4a6f28	0.049422413
237	0xbca7e85d	-0.020496542
238	0x3d2b23e4	0.041782275
239	0xbbd49f45	-0.006488713
240	0x3c9314b8	0.017954215
241	0xbd921478	-0.0713281
242	0x3c6063d2	0.013695674
243	0xbd8f2c01	-0.06990815
244	0xbdc63641	-0.09678317
245	0xbd6cb7de	-0.057792537
246	0xbdbdac87	-0.092614226
247	0x3d16c254	0.03680642
248	0xbda75647	-0.08170753
249	0x3d71057e	0.05884313
250	0x3dbc8a0a	0.09206016
251	0x3d9487ee	0.07252489
252	0x3c86d7ee	0.016460385
253	0x3c8f168f	0.017466811
254	0x3db6ddb7	0.089290075
255	0x3d9b4671	0.07581795

mlp2.0.bias f4 [100]
0	0xbda62cb2	-0.08113994
1	0x3d376719	0.044776056
2	0xbd03de1d	-0.032194246
3	0x3ccaa0a5	0.024734804
4	0xbd56de5b	-0.05245815
5	0x3d942bfe	0.07234953
6	0x3d5fff2a	0.054686703
7	0x3dc3173b	0.09525915
8	0xbccb544e	-0.024820473
9	0x3cd4f5f0	0.025996178
10	0xbd11f5a4	-0.03563465
11	0xbcf89129	-0.030342655
12	0x3c942f92	0.01808909
13	0xbd77c1bb	-0.06048749
14	0x3c3205af	0.010865613
15	0x3cf67b05	0.030087957
16	0x3d1ba189	0.03799585
17	0xbda6ad3a	-0.08138509
18	0x3d2bf42d	0.04198091
19	0x3c55d77d	0.013051865
20	0xbdaebae9	-0.08531744
21	0x3d70fd63	0.0588354
22	0x3dd89850	0.10575926
23	0xbe137292	-0.14399174
24	0x3d36fe0e	0.04467588
25	0xbd883279	-0.06650252
26	0xbd0cc773	-0.034369897
27	0xbd3b0a2b	-0.045663994
28	0x3d6d8e9c	0.05799733
29	0x3db5ca50	0.08876479
30	0xbdc38d30	-0.09548414
31	0xbdc09481	-0.09403325
32	0xbd7f0d4d	-0.062268544
33	0x3d592292	0.053011484
34	0x3df98aa9	0.121846505
35	0xbc1aba44	-0.009443823
36	0x3e028353	0.12745409
37	0x3d25e3c4	0.040500417
38	0xbd272b5b	-0.04081283
39	0x3d45d4f5	0.048298795
40	0x3c944e8b	0.018103858
41	0xbb83a37f	-0.004017293
42	0x3d9c81b0	0.076419234
43	0xbd61abe1	-0.055095557
44	0xbd9758e7	-0.07390004
45	0x3dcec0cc	0.10095367
46	0xbd04a19a	-0.032380678
47	0x3b36c937	0.002789093
48	0x3d0bd04b	0.03413419
49	0x3dacc45d	0.08435891
50	0xbd0ca7d5	-0.034339745
51	0xbd5f7f84	-0.054564968
52	0xbd959a22	-0.07304789
53	0xbd21a05b	-0.039459568
54	0xbdac023b	-0.08398863
55	0x3dbc2dc4	0.091884166
56	0xbd55ad29	-0.05216709
57	0x3d90b522	0.07065798
58	0x3d3c3be3	0.04595555
59	0x3ce6cc6a	0.028173644
60	0x3d30d9f5	0.04317661
61	0xbda7fa52	-0.08202042
62	0x3d2aed47	0.04173019
63	0x3dd76620	0.10517526
64	0xbd4b4873	-0.04962964
65	0x3bafac02	0.005361081
66	0xbd76f379	-0.060290787
67	0x3c86aa34	0.016438581
68	0xbdb487ed	-0.08814988
69	0x3cc5796c	0.02410575
70	0x3c934f68	0.0179822
71	0x3db2e9be	0.08735989
72	0xbd994755	-0.07484309
73	0xbda8a90a	-0.08235367
74	0x3d740b59	0.059581134
75	0xbc86f7b9	-0.016475545
76	0x3bb0819a	0.0053865435
77	0x3db18efd	0.08669851
78	0x3c06923d	0.008213577
79	0x3ce731f3	0.02822206
80	0x3c7914f8	0.015202753
81	0x3e0cd30f	0.13752387
82	0x3d94976d	0.07255445
83	0xbbe92305	-0.0071147704
84	0x3d64b053	0.05583222
85	0x3d5eb0f8	0.05436799
86	0x3d833633	0.06406822
87	0x3d8ca8f5	0.068681635
88	0xbd49a8f4	-0.049233392
89	0x3daf1022	0.08547999
90	0xbdc417a6	-0.09574823
91	0x3d9998e0	0.07499862
92	0xbc46ae26	-0.012126481
93	0x3d81569f	0.0631535
94	0x3d67ffcd	0.056640435
95	0xbcb160ac	-0.021652542
96	0x3cace52e	0.021105375
97	0xbdaaaf62	-0.08334233
98	0xbc812af7	-0.015767558
99	0x3de95482	0.11393072

mlp2.2.weight f4 [50, 100]
0	0x3cff6bd9	0.031179355
1	0xbd97b9fb	-0.0740852
2	0xbdb1306d	-0.086518146
3	0xbc9e159c	-0.019297414
4	0xbdd081ca	-0.10181005
5	0xbc742a7e	-0.014902709
6	0x3cfa7fb7	0.030578477
7	0xbd2d7a30	-0.042352855
8	0x3da768b9	0.08174271
9	0x3a6d6440	0.0009055771
10	0x3d881974	0.0664548
11	0xbc32bd67	-0.010909415
12	0x3d6b55b5	0.057454783
13	0xbda59e71	-0.08086861
14	0xbdb51c7b	-0.08843323
15	0xbc852f8e	-0.016258027
16	0xbe249ab7	-0.16074644
17	0x3c838bfd	0.016057963
18	0x3d8c3fed	0.068481304
19	0xbdc57785	-0.09641937
20	0x3da77ba6	0.08177881
21	0xbcd6049f	-0.02612525
22	0xbca9d2f0	-0.020730466
23	0xbcea9ed6	-0.028640192
24	0xbc9d82b0	-0.019227356
25	0xbddc1941	-0.10747004
26	0xbd479b1b	-0.048731904
27	0x3bcd1c33	0.006259465
28	0x3cd19005	0.02558137
29	0xbdaf2697	-0.08552282
30	0xbdc2b9b9	-0.0950808
31	0x3d849e7b	0.0647554
32	0xbdcb53b6	-0.09928076
33	0x3ca0b370	0.019616812
34	0xbdb1eed4	-0.08688131
35	0xbd9ca397	-0.0764839
36	0xbe0fa5c3	-0.14028077
37	0xbd3692c3	-0.044573557
38	0xbda6c6b0	-0.081433654
39	0x3d16e933	0.03684349
40	0xbdf034d5	-0.11728827
41	0xbd516ee5	-0.051131148
42	0x3cd42553	0.025896704
43	0xbd5e335a	-0.05424819
44	0xbc8cbb0a	-0.01717903
45	0x3d039c58	0.032131523
46	0xbd969a82	-0.07353689
47	0x3b2fdf5e	0.0026836018
48	0xbdcad018	-0.09902972
49	0xbdf4d6c7	-0.11955028
50	0xbd5ac485	-0.053410072
51	0x3dd6a0cd	0.10479889
52	0xbd9ba89b	-0.07600518
53	0xbc68b845	-0.0142040895
54	0x3da95d75	0.08269779
55	0xbdcba36b	-0.09943279
56	0x3c84d6ea	0.01621576
57	0xbd4aabf5	-0.049480397
58	0xbc29ef66	-0.010372018
59	0x3d92ebaa	0.071738556
60	0x3d74d90f	0.059777316
61	0x3d23b309	0.039965663
62	0x3dcc1c33	0.09966316
63	0xbe0b5fdb	-0.13610785
64	0x3cd74765	0.02627916
65	0xbb384959	-0.002811989
66	0xbdaa0a3c	-0.08302733
67	0x3cd211c8	0.025643244
68	0x3ce96602	0.028491024
69	0x3d4afea8	0.049559265
70	0xbdb8f213	-0.09030547
71	0xbe340262	-0.17579034
72	0x3d9f599c	0.077807635
73	0x3d73de45	0.059538145
74	0xbcdd30d3	-0.02700082
75	0x3ca9bb1d	0.020719105
76	0xbd0fc25d	-0.03509747
77	0x3d34e079	0.044159386
78	0xbc5eb8c3	-0.013593855
79	0x3d8621d8	0.06549424
80	0x3cf8f6fa	0.030391205
81	0x3bf02c8e	0.00732953
82	0xbd5c284c	-0.053749368
83	0xbbb0a8f3	-0.005391234
84	0xbd5a1752	-0.053244896
85	0x3d2cfa80	0.042231083
86	0x3d98c3b8	0.074592054
87	0x3c869094	0.016426362
88	0xbd9c2b4c	-0.07625446
89	0xbe2f3176	-0.17108712
90	0x3d197076	0.037460767
91	0x3dca77f0	0.098861575
92	0xbdc24ab2	-0.09486903
93	0x3ce016c2	0.027354602
94	0xbcb8ebf6	-0.022573452
95	0x3d5c212b	0.05374257
96	0x3da8504d	0.08218441
97	0xbdb10c48	-0.086449206
98	0xbcaac8d6	-0.02084772
99	0xbdba0187	-0.090823226
100	0x3c7efd57	0.015563331
101	0xbd3dfd8b	-0.046384376
102	0xbd8401a8	-0.064456284
103	0xbd73346d	-0.05937617
104	0x3d673838	0.0564501
105	0x3dab81a4	0.08374336
106	0x3ca1f044	0.019767888
107	0xbcede931	-0.029041858
108	0xbd33c046	-0.043884538
109	0x3cae7af6	0.021298867
110	0xbc950749	-0.01819195
111	0x3d2985f6	0.04138752
112	0x3d3ec05f	0.046570178
113	0xbb52e5d1	-0.0032180438
114	0xbd0631de	-0.0327624
115	0xbcdbf39e	-0.026849564
116	0x3d37fa18	0.044916242
117	0xbdc82ed9	-0.097745605
118	0xbcd3ccaf	-0.025854437
119	0xb9d73578	-0.00041047833
120	0x3d641eb3	0.05569334
121	0xbd7e2ad5	-0.062052567
122	0x3dcad6a8	0.09904224
123	0x3d76906e	0.060196333
124	0xbd92b5a0	-0.071635485
125	0x3da7856e	0.081797466
126	0xbcf49ecd	-0.029860878
127	0xbdaf6a70	-0.08565223
128	0x3dbb2ee3	0.09139802
129	0xbd336db2	-0.043805785
130	0xbd1cbf1b	-0.03826819
131	0xbdc15dee	-0.09441744
132	0xbdb97cf9	-0.0905704
133	0xbdee4d02	-0.11635782
134	0xbd899655	-0.06718127
135	0x3d7d2982	0.061807163
136	0xbc2e1de5	-0.010627245
137	0x3c8d4dee	0.017249074
138	0xbc5e5f35	-0.013572504
139	0x3d788ed6	0.060683094
140	0xbd11cc3b	-0.03559516
141	0xbc836e9a	-0.01604395
142	0x3b0b6a7e	0.002127319
143	0xbd5a0fe9	-0.05323783
144	0x3d361d57	0.044461574
145	0xbd598509	-0.053105388
146	0x3d87cb2b	0.06630548
147	0x3d9bd874	0.076096445
148	0xbab7e96e	-0.001403136
149	0xbd2562c5	-0.040377397
150	0xbdaab68f	-0.083356015
151	0x3ca24ac9	0.019811051
152	0xbd9a3078	-0.07528776
153	0x3d4035be	0.046926253
154	0xbda8e7bc	-0.08247325
155	0xbd97328a	-0.073826864
156	0xbd324112	-0.043519087
157	0xbd886991	-0.0666076
158	0x3cce3678	0.025172457
159	0xbdc7aec4	-0.09750131
160	0x3ca8a847	0.020588053
161	0xbc48ff2a	-0.012267867
162	0x3de63b7b	0.11241814
163	0xbddfffc2	-0.10937454
164	0xbb99e6dd	-0.0046967105
165	0xba985c79	-0.0011624239
166	0x3d99161b	0.074749194
167	0xbceb6a3d	-0.028737182
168	0xba9acce5	-0.0011810331
169	0xbdaeb066	-0.08529739
170	0x3db66552	0.08906044
171	0xbde92d6b	-0.11385616
172	0xbcc8c780	-0.024509192
173	0x3da1b991	0.07896722
174	0xbce59bcf	-0.028028397
175	0x3d452cd4	0.048138455
176	0x3d630eb4	0.055433944
177	0x3dcbd8d3	0.09953465
178	0xbd170a6d	-0.036875177
179	0x3dda8c98	0.106713474
180	0xbd2ebcf0	-0.042660654
181	0x3d0032ce	0.03129845
182	0x3d61eb8b	0.055156272
183	0x3ddfc431	0.109260924
184	0x3c3ffa22	0.011717351
185	0x3e0a943e	0.13533112
186	0xbd6a084b	-0.057136815
187	0x3da2d038	0.07949871
188	0x3dc09c06	0.09404759
189	0xbe0f8226	-0.14014491
190	0xbc44ff8f	-0.012023821
191	0x3bbe092e	0.005799434
192	0xbd8a06db	-0.06739589
193	0xbdd01e54	-0.10162035
194	0x3d9d601d	0.07684348
195	0xba32d674	-0.0006822117
196	0xbc8550f1	-0.016273947
197	0xbd17e088	-0.037079364
198	0xbdb76d42	-0.08956386
199	0xbddb7e98	-0.10717505
200	0x3dcc9b6c	0.09990582
201	0x3d831038	0.06399578
202	0x3ca74347	0.020417823
203	0xbd428b43	-0.04749609
204	0x3d445e0d	0.047941256
205	0xbc60c3de	-0.013718573
206	0x3d4617b1	0.048362438
207	0xbd7a277b	-0.061072808
208	0x3da189d3	0.07887616
209	0xbd02958f	-0.03188091
210	0xbd9a8b16	-0.0754606
211	0x3c2ad70f	0.0104272505
212	0xbcf229b8	-0.029560909
213	0x3cd0114a	0.025398869
214	0xbd84afcd	-0.06478844
215	0xbc43b5f5	-0.011945237
216	0x3de210a6	0.11038332
217	0x3daecb13	0.08534827
218	0x3cb57b99	0.022153663
219	0x3d95f68d	0.073224165
220	0x3c96088d	0.018314624
221	0xbd121539	-0.03566477
222	0xbd83b5fb	-0.064311944
223	0xbd8c96ac	-0.06864676
224	0x3d9b0c1c	0.07570669
225	0xbd274ad3	-0.040842842
226	0xbc62a150	-0.013832405
227	0xbd52a1b3	-0.05142374
228	0x3d4c8a29	0.049936447
229	0xbc9f0525	-0.019411633
230	0xbd8a0f31	-0.06741179
231	0x3d7d5abb	0.061854105
232	0x3c1fa71e	0.009744434
233	0x3d8d7ef9	0.06908984
234	0xbdc6e11a	-0.097109035
235	0x3c571b09	0.013129004
236	0x3d389487	0.04506352
237	0x3da57548	0.0807901
238	0x3cfb8892	0.03070477
239	0x3dba499a	0.0909607
240	0x3db0ccbb	0.08632799
241	0xbd10b8bd	-0.03533243
242	0xbd5ea003	-0.054351818
243	0x3dc9f910	0.09861958
244	0x3cd64cee	0.02615973
245	0x3ce3f243	0.02782548
246	0xbd8e1fe1	-0.06939674
247	0xbd4027ea	-0.046913065
248	0xbd96385a	-0.07334967
249	0xbd699759	-0.057029102
250	0xbd9b09a5	-0.07570199
251	0xbd845eb2	-0.06463374
252	0x3d4a24b2	0.0493514
253	0x3db13ecb	0.08654555
254	0xbb6cdfd0	-0.0036144145
255	0x3db33b77	0.087515764

mlp2.2.bias f4 [50]
0	0xbdab710b	-0.083711706
1	0x3c223404	0.009900097
2	0xbc3c7a1a	-0.011503721
3	0x3cfdf858	0.031002209
4	0x3dc15b1b	0.09441205
5	0x3de535c9	0.11191899
6	0xbd82db58	-0.06389493
7	0x3d15d269	0.036577616
8	0x3d224af2	0.039622255
9	0x3de5ddfd	0.112239815
10	0x3c74c03d	0.014938411
11	0x3d27b92f	0.04094809
12	0xbcb151fe	-0.021645542
13	0x3df46da5	0.119349755
14	0x3d9e8634	0.07740441
15	0x3dcf3084	0.101166755
16	0xbd085ecd	-0.033293534
17	0x3cbb8895	0.022892276
18	0x3ccebf71	0.02523777
19	0x3da16f59	0.07882566
20	0xbdc9d71f	-0.09855484
21	0x3d786631	0.060644332
22	0xbdb1f69c	-0.08689615
23	0x3d2124b0	0.03934163
24	0xbdd5e68a	-0.104443625
25	0xbd52e41c	-0.051487073
26	0xbd6ce6cb	-0.05783729
27	0x3d8a06b8	0.06739563
28	0xbd76064f	-0.06006461
29	0xbd69f9eb	-0.057123106
30	0xbc4a7d72	-0.01235901
31	0x3d4220b0	0.047394454
32	0xbc694c6b	-0.014239411
33	0xbbe78e47	-0.0070665213
34	0xbd392859	-0.045204494
35	0xbde19d0c	-0.110162824
36	0xbd9f14af	-0.07767617
37	0xbe01566c	-0.12630624
38	0xbd8ceb65	-0.068808354
39	0x3da0b884	0.078476936
40	0xbd8eb556	-0.06968181
41	0xbda827c4	-0.0821071
42	0xbcf8a360	-0.03035134
43	0x3da8e0c8	0.082459986
44	0x3d03cc49	0.032177243
45	0x3dcbc904	0.0995045
46	0xbd215d7d	-0.039395798
47	0x3dbfe9b9	0.09370751
48	0xbc234fd3	-0.009967762
49	0xbdcaeeb7	-0.099088125

attention.0.weight f4 [100, 200]
0	0xbcb130c0	-0.021629691
1	0x3d85ccaa	0.06533177
2	0x3d60cf4d	0.054885197
3	0xbcfa9cd1	-0.030592354
4	0xbc82dcf3	-0.015974497
5	0x3d497a49	0.049188886
6	0x3c84ec6b	0.016226014
7	0xbd734663	-0.059393298
8	0x3d919280	0.07108021
9	0x3c690310	0.014221922
10	0x3bc946cc	0.006142473
11	0x3d09026e	0.033449583
12	0x3d65b023	0.05607618
13	0xbd45dd71	-0.048306886
14	0x3d8cb752	0.06870903
15	0xbd08bb68	-0.03338185
16	0x3b8f132b	0.0043662987
17	0xbcb488dc	-0.022037916
18	0x3d4dbb0a	0.050227202
19	0xbc916a1d	-0.017750794
20	0xbcf4a458	-0.029863521
21	0xbd302982	-0.043008335
22	0xbd07e7d8	-0.033180088
23	0x3d1d0fa0	0.03834498
24	0xbd28e766	-0.041236304
25	0xbd3c4465	-0.045963664
26	0x3d1f9557	0.03896078
27	0xbcd09186	-0.025460016
28	0x3d36404b	0.04449491
29	0x3d1b6a1c	0.03794299
30	0xbd4a59ea	-0.049402155
31	0xb8f351eb	-0.00011602401
32	0x3cbd7027	0.023124767
33	0xbd8b37b8	-0.06797737
34	0xbd3244f6	-0.043522798
35	0xbce92222	-0.028458659
36	0x3d11759a	0.035512544
37	0x3cc07fa6	0.023498368
38	0x3c48269e	0.012216238
39	0xbd803a36	-0.06261103
40	0xbc106a2f	-0.008814379
41	0xbd8b0aaf	-0.06789147
42	0x3d812a60	0.063069105
43	0xbb0f3840	-0.0021853596
44	0xbd0f9cae	-0.03506153
45	0xbd238847	-0.039924886
46	0x3cf74184	0.030182607
47	0xbd671714	-0.056418493
48	0x3c254ed4	0.010089595
49	0x3d2c5fb1	0.042083446
50	0x3d8cb2ac	0.068700165
51	0x3d62e26a	0.055391707
52	0x3d82121b	0.063511096
53	0x3d29f836	0.041496478
54	0x3d240ae9	0.040049467
55	0xbcf55721	-0.029948773
56	0x3d89fddf	0.06737875
57	0x3d47aed0	0.0487507
58	0x3c9807fc	0.018558495
59	0xbc9a6aeb	-0.01884981
60	0x3d34bb63	0.04412402
61	0xbd0260d3	-0.03183062
62	0x3cb1efb1	0.02172074
63	0x3b2a770e	0.0026010904
64	0xbbe08f47	-0.0068530175
65	0xbc13c96d	-0.009020192
66	0xbcba5a7a	-0.02274822
67	0xbd72522a	-0.05916039
68	0x3d5e00c5	0.054199953
69	0xbd9090f3	-0.07058897
70	0x3d15c015	0.036560137
71	0x3bfb8499	0.007675719
72	0x3c8570e2	0.016289178
73	0xbd15989a	-0.036522485
74	0x3c9e820f	0.019349126
75	0x3d6ebeac	0.058287308
76	0x3d735f09	0.059416804
77	0xbd0703f9	-0.032962773
78	0x3d2acfa0	0.041701913
79	0xbd4b752c	-0.04967229
80	0x3a2fe224	0.0006709418
81	0x3ce34f72	0.027747843
82	0xbd170acc	-0.03687553
83	0xbc4c6b87	-0.012476808
84	0xbba527b3	-0.005040133
85	0xbce4c9bb	-0.027928224
86	0x3d843c1e	0.06456779
87	0xbc38cb84	-0.011278991
88	0x3bb6baab	0.005576452
89	0x3c0820dc	0.008308616
90	0x3c4de6f3	0.01256727
91	0x3d03b5ae	0.032155685
92	0xbcbae6b0	-0.022815078
93	0x3b657b55	0.0035016139
94	0xbbdfce72	-0.00683003
95	0x3d3e9aaa	0.046534218
96	0xbceb30fc	-0.028709881
97	0x3d5d1b48	0.053981096
98	0xbd478909	-0.04871467
99	0x3ca8901f	0.020576535
100	0x3d1c059a	0.03809128
101	0x3ca4290c	0.020039104
102	0x3c22bd72	0.009932863
103	0xbd026689	-0.031836066
104	0xbcae380f	-0.021266965
105	0xbd8c3720	-0.06846452
106	0x3ae45960	0.0017421655
107	0x3d77b3dc	0.06047426
108	0x3ccbfe8e	0.024901655
109	0x3cee03af	0.02905449
110	0xbd31cdbb	-0.04340909
111	0xbd3e70b3	-0.046494197
112	0x3a13cb00	0.00056378543
113	0xbd274ada	-0.04084287
114	0xbcfd17e0	-0.030895174
115	0x3d6a7c5a	0.057247497
116	0xbd8810d8	-0.06643838
117	0xbbbdfc42	-0.0057978937
118	0x3adbf7e6	0.0016782254
119	0xbce2b025	-0.027671883
120	0xbd92aaa0	-0.071614504
121	0xbd63ddb2	-0.055631347
122	0xbcdef8f4	-0.02721832
123	0x3bd865a6	0.0066039143
124	0x3d0c787a	0.034294583
125	0x3c9269e9	0.017872768
126	0x3b2c8b40	0.0026328117
127	0x3d4051b5	0.046952922
128	0x3ceed5c1	0.02915466
129	0x3d0b6539	0.03403208
130	0x3d83d14b	0.06436404
131	0x3d3e47cf	0.0464552
132	0xbce60603	-0.028079038
133	0x3d6069c5	0.05478837
134	0x3d44a2a9	0.048006687
135	0xbba8c062	-0.005149887
136	0x3cf413fc	0.029794686
137	0xbd5793b6	-0.052631103
138	0x3d3c0fbd	0.045913447
139	0xbca26788	-0.019824758
140	0xbd826b97	-0.063681774
141	0xbc28a6d3	-0.01029368
142	0xbc9ec7ed	-0.019382441
143	0xbcfbd249	-0.03073992
144	0x3c95d908	0.018291965
145	0x3d0e91e4	0.0348071
146	0x3d33fb18	0.043940634
147	0xbd015653	-0.031576466
148	0xbcb6a50f	-0.022295503
149	0xbd06d6d9	-0.03291974
150	0xbc944786	-0.018100511
151	0x3cc4d565	0.024027536
152	0x3d8cc527	0.06873541
153	0x3d6a96a3	0.057272565
154	0x3d01ba2a	0.03167168
155	0xbd7f18ad	-0.062279392
156	0x3cf0ca9a	0.029393483
157	0xbd1505d2	-0.036382504
158	0x3d8d6e98	0.0690586
159	0x3c91202e	0.01771554
160	0xbb4cda66	-0.0031258105
161	0xbd386fd8	-0.045028538
162	0xbd1f1ad1	-0.038843933
163	0xbd4f5edd	-0.050627578
164	0x3c8982c1	0.016785981
165	0xbbb3eac3	-0.0054906323
166	0x3c6580db	0.014007772
167	0x3d6eac44	0.058269754
168	0xbc550717	-0.013002179
169	0x3cf3da17	0.02976708
170	0xbca5d116	-0.020241302
171	0x3d6f5f99	0.05844078
172	0xbd41d10d	-0.047318507
173	0xbd25cb01	-0.040476803
174	0xbca5b8b1	-0.02022967
175	0x3b4eab41	0.003153518
176	0x3d832b89	0.06404788
177	0x3ce37cd0	0.027769476
178	0x3d37a8f9	0.04483888
179	0xbd87fb46	-0.066397235
180	0x3c96ad4b	0.01839318
181	0x3c9741d4	0.018464006
182	0xbd292352	-0.04129345
183	0xbc86debd	-0.016463632
184	0xbc9a1419	-0.018808411
185	0xbcbd67df	-0.023120819
186	0x3c0b2893	0.00849356
187	0xbd611e4d	-0.054960538
188	0x3d125003	0.035720836
189	0x3d7e3a3e	0.062067263
190	0x3d418bc2	0.047252424
191	0x3c2095dc	0.009801354
192	0xbd8fe849	-0.07026727
193	0x3ab38c64	0.0013698456
194	0x3ba1dd9f	0.0049397494
195	0x3ca5016f	0.020142285
196	0xbc7231a1	-0.01478234
197	0x3c5fb058	0.0136528835
198	0xbd51deba	-0.0512378
199	0x3d83ce37	0.06435817
200	0x3d2a2c88	0.041546375
201	0xbd8720d0	-0.06598055
202	0xbc53f62e	-0.012937112
203	0xbd2502c2	-0.040285833
204	0x3c40a986	0.011759168
205	0xbbfa3d1d	-0.00763668
206	0xbd6997f2	-0.057029672
207	0xbd6d3a40	-0.05791688
208	0x3be30fb8	0.006929364
209	0xbcbec409	-0.023286836
210	0xbce0de42	-0.02744973
211	0xbd166a37	-0.036722388
212	0xbc5e29b9	-0.013559752
213	0x3b77c949	0.0037809184
214	0x3c325fc8	0.010887094
215	0xbd3d4fff	-0.04621887
216	0x3b88ebcf	0.004178501
217	0x3d237fa9	0.039916668
218	0xb9d10e56	-0.00039874268
219	0xbd6c99c4	-0.05776383
220	0xbd359c76	-0.044338666
221	0x3d54e9d0	0.051980793
222	0x3d2256b7	0.03963348
223	0x3d6f6a85	0.058451194
224	0x3d57cece	0.05268746
225	0x3cf0fbe3	0.029416984
226	0xbd8a3900	-0.06749153
227	0xbcf48302	-0.029847626
228	0x3cab2f1b	0.020896485
229	0xbd715869	-0.058922205
230	0x3d6016d8	0.054709285
231	0xbd8e661e	-0.06953071
232	0x3d34d1c9	0.04414538
233	0xbd80b43c	-0.06284377
234	0xbd06b771	-0.032889787
235	0x3c3cb77c	0.011518355
236	0x3d3d11d8	0.046159595
237	0x3d280cb8	0.041027755
238	0xbd1d6e9e	-0.03843557
239	0xbd485dd9	-0.048917625
240	0xbd109f1f	-0.035308
241	0xbcc76483	-0.02433992
242	0x3c863066	0.0163805
243	0xbcd5da67	-0.026105119
244	0xbd4cd975	-0.05001207
245	0xbc73bd44	-0.014876667
246	0xbcd0ffff	-0.025512693
247	0xbd65b49a	-0.05608044
248	0x3b38992b	0.0028167467
249	0xbc2c08ec	-0.010500174
250	0xbd4a4a26	-0.04938712
251	0x3d2af672	0.041738935
252	0x3d8ec7c8	0.06971699
253	0x3cc536b8	0.024073943
254	0xbc71bb06	-0.0147540625
255	0x3b3058cb	0.0026908393

attention.0.bias f4 [100]
0	0x3d431dec	0.047635958
1	0x3c7688e3	0.015047285
2	0xbd713a6a	-0.0588936
3	0xbccfd52f	-0.025370209
4	0xbd889fe2	-0.0667112
5	0x3d2225fb	0.039587002
6	0x3d96ba7d	0.073597886
7	0xbd7455f2	-0.059652276
8	0x3b1072cb	0.0022041078
9	0x3c9a4709	0.0188327
10	0x3d7741c5	0.060365457
11	0xbd02025e	-0.03174054
12	0xbd2915f4	-0.0412807
13	0xbc9525e4	-0.018206544
14	0x3be83c0e	0.007087237
15	0x3c79b48f	0.015240802
16	0xbce10957	-0.027470274
17	0xbd2d68d2	-0.042336293
18	0xbd105bd5	-0.035243828
19	0xbb809ca9	-0.0039249253
20	0xbcec0dcd	-0.028815174
21	0x3d56cef4	0.05244346
22	0xbd6c9d79	-0.057767365
23	0x3d900d6e	0.070338115
24	0xbd4b7eea	-0.04968158
25	0xbd49f1e1	-0.04930294
26	0x3c721b38	0.014776997
27	0xba36a2d5	-0.0006967013
28	0xbc706b5e	-0.014674036
29	0xbd637ed9	-0.055540893
30	0x3d4800d6	0.048828922
31	0x3d79cd86	0.060987018
32	0xbcf87ca9	-0.03033288
33	0xbd845fc4	-0.06463578
34	0xbcf91399	-0.030404853
35	0x3c1ad5fd	0.009450433
36	0x3d797e42	0.060911424
37	0x3c0ab0ea	0.008465031
38	0x3d8aff90	0.06787026
39	0xbc7cd93d	-0.015432653
40	0xbbdcfcdc	-0.0067440104
41	0x3c2c0fc7	0.0105018085
42	0x3c45c661	0.012071223
43	0x3a72f315	0.00092677894
44	0x3c4ce191	0.012504951
45	0x3d384d5e	0.044995658
46	0x3ca2ca55	0.01987187
47	0xbcafd878	-0.021465525
48	0x3bae464e	0.0053184396
49	0xbc432973	-0.011911738
50	0xbd0a1d38	-0.03371927
51	0xbd5790e6	-0.05262842
52	0x3d872ac0	0.06599951
53	0xbd043736	-0.032279216
54	0xbd1341a2	-0.035951264
55	0xbd818616	-0.06324403
56	0x3d528fc1	0.051406626
57	0x3d3bb030	0.045822322
58	0xbd68834b	-0.056765836
59	0x3d965f7f	0.07342433
60	0x3d2836bc	0.041067824
61	0x3d799fb8	0.060943335
62	0x3b0dff1a	0.0021666945
63	0x3d150053	0.036377262
64	0x3d93b0b9	0.072114415
65	0x3b9fa375	0.0048717805
66	0xbd8b3ce3	-0.067987226
67	0x3ca95729	0.020671444
68	0x3d238fcc	0.039932057
69	0x3d0b96f9	0.034079526
70	0xbd586555	-0.052831013
71	0xbd8adf2d	-0.06780849
72	0xbcfc7c71	-0.030821057
73	0x3caa95e3	0.020823425
74	0x3c7c11e7	0.015385128
75	0xbcc6e752	-0.024280224
76	0xbcc46874	-0.023975588
77	0x3cb0c8ed	0.021580184
78	0xbd4074dc	-0.046986446
79	0x3d419004	0.047256485
80	0x3d9e5ed6	0.07732932
81	0x37da5a80	2.6029767e-05
82	0xbd1da6ea	-0.03848926
83	0x3d228efa	0.039687134
84	0x3d08601d	0.033294786
85	0x3d996167	0.07489281
86	0xbc9fee73	-0.019522881
87	0x3d667dca	0.056272306
88	0x3d872f71	0.066008456
89	0x3c9b4882	0.018955473
90	0xbd3ec6d4	-0.046576336
91	0xbc958a46	-0.01825441
92	0xbd2a4ab8	-0.041575164
93	0x3cef06bd	0.029178018
94	0xbc09560a	-0.00838233
95	0xbcd1b370	-0.025598258
96	0xbd036cfa	-0.03208635
97	0x3c495445	0.012288158
98	0xbd42f9ae	-0.047601394
99	0xbd34215c	-0.043977126
