crowd_nav/data/output/MambaRL/il_model.pth (torch, 125432 bytes, 16 tensors)

mambaLayer.A_log f4 [26, 16]
0.0 0.6931472 1.0986123 1.3862944 1.609438 1.7917595 1.9459102 2.0794415
2.1972246 2.3025851 2.3978953 2.4849067 2.5649493 2.6390574 2.7080503 2.7725887
0.0 0.6931472 1.0986123 1.3862944 1.609438 1.7917595 1.9459102 2.0794415
2.1972246 2.3025851 2.3978953 2.4849067 2.5649493 2.6390574 2.7080503 2.7725887
0.0 0.6931472 1.0986123 1.3862944 1.609438 1.7917595 1.9459102 2.0794415
2.1972246 2.3025851 2.3978953 2.4849067 2.5649493 2.6390574 2.7080503 2.7725887
0.0 0.6931472 1.0986123 1.3862944 1.609438 1.7917595 1.9459102 2.0794415
2.1972246 2.3025851 2.3978953 2.4849067 2.5649493 2.6390574 2.7080503 2.7725887
0.0 0.6931472 1.0986123 1.3862944 1.609438 1.7917595 1.9459102 2.0794415
2.1972246 2.3025851 2.3978953 2.4849067 2.5649493 2.6390574 2.7080503 2.7725887
0.0 0.6931472 1.0986123 1.3862944 1.609438 1.7917595 1.9459102 2.0794415
2.1972246 2.3025851 2.3978953 2.4849067 2.5649493 2.6390574 2.7080503 2.7725887
0.0 0.6931472 1.0986123 1.3862944 1.609438 1.7917595 1.9459102 2.0794415
2.1972246 2.3025851 2.3978953 2.4849067 2.5649493 2.6390574 2.7080503 2.7725887
0.0 0.6931472 1.0986123 1.3862944 1.609438 1.7917595 1.9459102 2.0794415
2.1972246 2.3025851 2.3978953 2.4849067 2.5649493 2.6390574 2.7080503 2.7725887
0.0 0.6931472 1.0986123 1.3862944 1.609438 1.7917595 1.9459102 2.0794415
2.1972246 2.3025851 2.3978953 2.4849067 2.5649493 2.6390574 2.7080503 2.7725887
0.0 0.6931472 1.0986123 1.3862944 1.609438 1.7917595 1.9459102 2.0794415
2.1972246 2.3025851 2.3978953 2.4849067 2.5649493 2.6390574 2.7080503 2.7725887
0.0 0.6931472 1.0986123 1.3862944 1.609438 1.7917595 1.9459102 2.0794415
2.1972246 2.3025851 2.3978953 2.4849067 2.5649493 2.6390574 2.7080503 2.7725887
0.0 0.6931472 1.0986123 1.3862944 1.609438 1.7917595 1.9459102 2.0794415
2.1972246 2.3025851 2.3978953 2.4849067 2.5649493 2.6390574 2.7080503 2.7725887
0.0 0.6931472 1.0986123 1.3862944 1.609438 1.7917595 1.9459102 2.0794415
2.1972246 2.3025851 2.3978953 2.4849067 2.5649493 2.6390574 2.7080503 2.7725887
0.0 0.6931472 1.0986123 1.3862944 1.609438 1.7917595 1.9459102 2.0794415
2.1972246 2.3025851 2.3978953 2.4849067 2.5649493 2.6390574 2.7080503 2.7725887
0.0 0.6931472 1.0986123 1.3862944 1.609438 1.7917595 1.9459102 2.0794415
2.1972246 2.3025851 2.3978953 2.4849067 2.5649493 2.6390574 2.7080503 2.7725887
0.0 0.6931472 1.0986123 1.3862944 1.609438 1.7917595 1.9459102 2.0794415
2.1972246 2.3025851 2.3978953 2.4849067 2.5649493 2.6390574 2.7080503 2.7725887
00000000: 0000 0000 1872 313f 549f 8c3f 1872 b13f
00000010: 1002 ce3f 6058 e53f 9613 f93f 9215 0540
00000020: 549f 0c40 8e5d 1340 1e77 1940 b608 1f40
00000030: 2128 2440 51e6 2840 b250 2d40 1872 3140
00000040: 0000 0000 1872 313f 549f 8c3f 1872 b13f
00000050: 1002 ce3f 6058 e53f 9613 f93f 9215 0540
00000060: 549f 0c40 8e5d 1340 1e77 1940 b608 1f40
00000070: 2128 2440 51e6 2840 b250 2d40 1872 3140
00000080: 0000 0000 1872 313f 549f 8c3f 1872 b13f
00000090: 1002 ce3f 6058 e53f 9613 f93f 9215 0540
000000a0: 549f 0c40 8e5d 1340 1e77 1940 b608 1f40
000000b0: 2128 2440 51e6 2840 b250 2d40 1872 3140
000000c0: 0000 0000 1872 313f 549f 8c3f 1872 b13f
000000d0: 1002 ce3f 6058 e53f 9613 f93f 9215 0540
000000e0: 549f 0c40 8e5d 1340 1e77 1940 b608 1f40
000000f0: 2128 2440 51e6 2840 b250 2d40 1872 3140
00000100: 0000 0000 1872 313f 549f 8c3f 1872 b13f
00000110: 1002 ce3f 6058 e53f 9613 f93f 9215 0540
00000120: 549f 0c40 8e5d 1340 1e77 1940 b608 1f40
00000130: 2128 2440 51e6 2840 b250 2d40 1872 3140
00000140: 0000 0000 1872 313f 549f 8c3f 1872 b13f
00000150: 1002 ce3f 6058 e53f 9613 f93f 9215 0540
00000160: 549f 0c40 8e5d 1340 1e77 1940 b608 1f40
00000170: 2128 2440 51e6 2840 b250 2d40 1872 3140
00000180: 0000 0000 1872 313f 549f 8c3f 1872 b13f
00000190: 1002 ce3f 6058 e53f 9613 f93f 9215 0540
000001a0: 549f 0c40 8e5d 1340 1e77 1940 b608 1f40
000001b0: 2128 2440 51e6 2840 b250 2d40 1872 3140
000001c0: 0000 0000 1872 313f 549f 8c3f 1872 b13f
000001d0: 1002 ce3f 6058 e53f 9613 f93f 9215 0540
000001e0: 549f 0c40 8e5d 1340 1e77 1940 b608 1f40
000001f0: 2128 2440 51e6 2840 b250 2d40 1872 3140
00000200: 0000 0000 1872 313f 549f 8c3f 1872 b13f
00000210: 1002 ce3f 6058 e53f 9613 f93f 9215 0540
00000220: 549f 0c40 8e5d 1340 1e77 1940 b608 1f40
00000230: 2128 2440 51e6 2840 b250 2d40 1872 3140
00000240: 0000 0000 1872 313f 549f 8c3f 1872 b13f
00000250: 1002 ce3f 6058 e53f 9613 f93f 9215 0540
00000260: 549f 0c40 8e5d 1340 1e77 1940 b608 1f40
00000270: 2128 2440 51e6 2840 b250 2d40 1872 3140
00000280: 0000 0000 1872 313f 549f 8c3f 1872 b13f
00000290: 1002 ce3f 6058 e53f 9613 f93f 9215 0540
000002a0: 549f 0c40 8e5d 1340 1e77 1940 b608 1f40
000002b0: 2128 2440 51e6 2840 b250 2d40 1872 3140
000002c0: 0000 0000 1872 313f 549f 8c3f 1872 b13f
000002d0: 1002 ce3f 6058 e53f 9613 f93f 9215 0540
000002e0: 549f 0c40 8e5d 1340 1e77 1940 b608 1f40
000002f0: 2128 2440 51e6 2840 b250 2d40 1872 3140
00000300: 0000 0000 1872 313f 549f 8c3f 1872 b13f
00000310: 1002 ce3f 6058 e53f 9613 f93f 9215 0540
00000320: 549f 0c40 8e5d 1340 1e77 1940 b608 1f40
00000330: 2128 2440 51e6 2840 b250 2d40 1872 3140
00000340: 0000 0000 1872 313f 549f 8c3f 1872 b13f
00000350: 1002 ce3f 6058 e53f 9613 f93f 9215 0540
00000360: 549f 0c40 8e5d 1340 1e77 1940 b608 1f40
00000370: 2128 2440 51e6 2840 b250 2d40 1872 3140
00000380: 0000 0000 1872 313f 549f 8c3f 1872 b13f
00000390: 1002 ce3f 6058 e53f 9613 f93f 9215 0540
000003a0: 549f 0c40 8e5d 1340 1e77 1940 b608 1f40
000003b0: 2128 2440 51e6 2840 b250 2d40 1872 3140
000003c0: 0000 0000 1872 313f 549f 8c3f 1872 b13f
000003d0: 1002 ce3f 6058 e53f 9613 f93f 9215 0540
000003e0: 549f 0c40 8e5d 1340 1e77 1940 b608 1f40
000003f0: 2128 2440 51e6 2840 b250 2d40 1872 3140

mambaLayer.D f4 [26]
1.0019673 0.99682033 1.0467774 1.0009725 1.0118648 1.0948048 1.0432957 1.0042784
0.99888736 1.0694644 1.0003537 1.0907178 1.0008167 1.0545415 0.9994569 1.0010487
1.0054947 1.0269433 1.0408738 1.0046287 1.0113859 0.9974079 1.0025908 0.9988343
1.0045595 1.0038353
00000000: 7740 803f 9e2f 7f3f cdfc 853f de1f 803f
00000010: c984 813f 9022 8c3f b78a 853f 328c 803f
00000020: 15b7 7f3f 36e4 883f 970b 803f a49c 8b3f
00000030: c31a 803f 37fb 863f 68dc 7f3f 5d22 803f
00000040: 0db4 803f e172 833f 5a3b 853f ac97 803f
00000050: 1875 813f 2056 7f3f e554 803f 9bb3 7f3f
00000060: 6895 803f ad7d 803f

mambaLayer.in_proj.weight f4 [52, 13]
0.006731523 0.27702245 0.21881995 -0.19851522 -0.04900926 0.1744925 -0.22994633 -0.16083847
0.038982082 -0.08320325 0.16928935 0.103593834 -0.06236533 -0.036612954 -0.2259464 -0.22146285
-0.14389147 -0.09606637 -0.20359217 -0.07679004 -0.0068102963 0.09620099 -0.223565 -0.24007472
0.071828924 0.17736952 -0.17701982 0.09871126 -0.22676061 0.108338654 -0.053541396 0.18640652
-0.036078367 -0.28082046 -0.2508571 0.2560773 0.25453418 -0.13202126 -0.26481175 0.17070588
0.26905316 -0.1939641 -0.23008926 0.12163779 0.12351248 -0.039172713 0.012827374 0.1807688
0.21552446 -0.1626301 0.016776752 -0.2503452 -0.102433674 0.14429954 -0.18347684 -0.2331446
-0.13961355 -0.20950237 -0.2502307 -0.17539684 -0.059151605 0.24824563 0.096022256 -0.35075003
-0.2765954 0.04640405 -0.11539952 -0.047940563 0.2575172 0.05471057 -0.21179357 0.42576772
0.05944919 -0.0702692 -0.044496436 0.13051681 -0.2634551 0.05064982 -0.0052230717 -0.23403414
0.06929537 0.07349584 -0.21819034 0.034147818 0.17369777 0.026304618 0.029539585 -0.02137771
-0.05511183 0.024194414 -0.0056864377 -0.26247755 -0.014171555 0.118980885 0.048166 -0.07003695
-0.061079152 0.2076893 0.10354748 -0.08098831 -0.17601334 -0.24409871 -0.04375804 -0.20558368
0.04848825 -0.10919817 -0.16890779 0.042118482 -0.1743354 -0.24331315 0.10370221 -0.13929382
-0.2261813 -0.21067566 0.16019903 0.05978435 0.23740257 0.053070128 -0.32767448 0.15638328
0.15657926 -0.28705382 0.012305501 0.21443677 0.19897453 0.27077878 -0.22640656 -0.21367642
-0.29034027 -0.019175908 0.02659929 -0.21633047 0.08375918 -0.21499702 0.24259274 -0.24240212
0.21596453 -0.21649034 -0.0014083972 -0.03603512 0.14109647 -0.15337244 0.19914211 -0.053333174
0.17095129 0.16347367 0.06113657 0.13158457 0.15155298 -0.027774591 0.06387872 -0.3239021
0.06969219 -0.11230174 0.29859588 -0.013069513 0.083871394 0.07904381 0.094497286 -0.05563929
0.15248957 -0.20378329 0.026262742 -0.113035224 -0.19418381 -0.030222526 -0.05108927 0.2657678
0.08092912 -0.21950212 -0.041752156 0.09193102 -0.04451305 0.11982788 -0.25469783 -0.047327768
0.28717175 -0.15573718 -0.25166193 -0.1688245 0.04028359 -0.019660557 0.051504884 0.07584087
-0.25305834 0.07918749 0.15563966 -0.20369361 0.028879495 0.11306977 -0.057172194 0.11930579
-0.17471334 0.22131273 -0.19587904 -0.09995465 0.07624982 0.16463843 0.031732544 -0.10963298
0.10116148 -0.04938445 0.15651532 -0.24894936 -0.14476898 0.1086635 0.12613826 0.1876559
-0.028059395 0.2452153 -0.03452947 -0.04561487 -0.012204421 -0.244207 -0.104951106 -0.06608921
0.06830736 0.24692436 -0.13220355 -0.18144824 0.27137128 0.15048032 -0.25935793 -0.16193503
-0.22121282 -0.20872122 0.24708532 0.18231243 -0.07788744 0.26041427 0.051415827 0.11089464
-0.31695348 -0.034127653 0.1079369 0.13714814 -0.018447008 -0.24530688 0.027141348 -0.059199337
0.048212 0.2223395 0.11623593 0.037271336 0.14925587 0.1055384 0.00021129074 -0.08854526
0.17096773 0.2434234 0.0928056 0.25717968 -0.20325711 0.08375 -0.15198366 -0.07810543
00000000: 1c94 dc3b e3d5 8d3e 5612 603e 9347 4bbe
00000010: efbd 48bd 29ae 323e 0d77 6bbe d7b2 24be
00000020: adab 1f3d 7766 aabd 305a 2d3e 0129 d43d
00000030: ca72 7fbd 77f7 15bd 7e5e 67be 28c7 62be
00000040: 4958 13be 72be c4bd 777a 50be 1944 9dbd
00000050: e828 dfbb 0605 c53d 39ee 64be 26d6 75be
00000060: 0b1b 933d 5ba0 353e af44 35be 2129 ca3d
00000070: ef33 68be a8e0 dd3d 394e 5bbd 5ae1 3e3e
00000080: e9c6 13bd b3c7 8fbe 5870 80be 901c 833e
00000090: 4e52 823e 9530 07be 6895 87be 86cd 2e3e
000000a0: 56c1 893e 869e 46be 859c 6bbe 3c1d f93d
000000b0: 1cf4 fc3d 9173 20bd e829 523c 751b 393e
000000c0: 72b2 5c3e 8188 26be 666f 893c 3f2d 80be
000000d0: bfc8 d1bd 42c3 133e 5ae1 3bbe 75bd 6ebe
000000e0: dbf6 0ebe ca87 56be 3d1e 80be 3b9b 33be
000000f0: f448 72bd 1a34 7e3e 51a7 c43d 8295 b3be
00000100: ea9d 8dbe 2c12 3e3d 9556 ecbd 535d 44bd
00000110: 4bd9 833e 3118 603d 6ae0 58be 3afe d93e
00000120: fe80 733d 4ce9 8fbd e541 36bd 33a6 053e
00000130: 96e3 86be 3076 4f3d 4d26 abbb a5a6 6fbe
00000140: bbea 8d3d fd84 963d 4a6d 5fbe 95de 0b3d
00000150: d4dd 313e c87c d73c 00fd f13c 4f20 afbc
00000160: f1bc 61bd 5d33 c63c 4c55 babb 7563 86be
00000170: cf2f 68bc 40ac f33d b649 453d 886f 8fbd
00000180: 222e 7abd 81ac 543e b410 d43d 33dd a5bd
00000190: d73c 34be 03f5 79be a13b 33bd 8784 52be
000001a0: 9d9b 463d 4aa3 dfbd 2af6 2cbe 6e84 2c3d
000001b0: fb84 32be 1527 79be d361 d43d 0aa3 0ebe
000001c0: 129c 67be 5cbb 57be 370b 243e 6fe0 743d
000001d0: a919 733e 1060 593d f3c4 a7be f022 203e
000001e0: 5056 203e b8f8 92be 039d 493c 5095 5b3e
000001f0: fbbf 4b3e 84a3 8a3e 1fd7 67be fecd 5abe
00000200: 7ba7 94be cb16 9dbc c1e6 d93c bc85 5dbe
00000210: ef89 ab3d 2e28 5cbe 3b6a 783e 4338 78be
00000220: ce25 5d3e a5af 5dbe f899 b8ba 9099 13bd
00000230: 987b 103e aa0d 1dbe e9eb 4b3e e373 5abd
00000240: db0d 2f3e a465 273e 576a 7a3d 1bbe 063e
00000250: b430 1b3e 8a87 e3bc d9d2 823d 7fd6 a5be
00000260: c7ba 8e3d 74fe e5bd 8fe1 983e 8321 56bc
00000270: c4c4 ab3d b9e1 a13d cb87 c13d 06e6 63bd
00000280: 3a26 1c3e 91ac 50be f624 d73c 037f e7bd
00000290: 1fd8 46be 3b95 f7bc fb42 51bd b812 883e
000002a0: 2bbe a53d 2ac5 60be 4f04 2bbd 5546 bc3d
000002b0: 5153 36bd 5268 f53d c167 82be c3da 41bd
000002c0: 2d08 933e 9179 1fbe d5d9 80be 54e0 2cbe
000002d0: 6800 253d 2d0f a1bc c9f6 523d 7552 9b3d
000002e0: dd90 81be 0d2d a23d 0160 1f3e 0f95 50be
000002f0: b194 ec3c 2091 e73d 642d 6abd 9856 f43d
00000300: 0ee8 32be ce9f 623e 8494 48be 06b5 ccbd
00000310: de28 9c3d fa96 283e fcf9 013d 4187 e0bd
00000320: c02d cf3d 5947 4abd 8d45 203e 95ec 7ebe
00000330: 523e 14be f88a de3d 632a 013e de28 403e
00000340: d1dc e5bc b819 7b3e c66e 0dbd a8d6 3abd
00000350: 0df5 47bc 6611 7abe 9bf0 d6bd c859 87bd
00000360: bbe4 8b3d bdd9 7c3e 5e60 07be 91cd 39be
00000370: 2df1 8a3e 8317 1a3e 90ca 84be 4cd2 25be
00000380: 9d85 62be 04bb 55be ef03 7d3e 1cb0 3a3e
00000390: 7383 9fbd 0555 853e 6799 523d bb1c e33d
000003a0: ba47 a2be 70c9 0bbd 050e dd3d 9070 0c3e
000003b0: 2e1e 97bc ba31 7bbe 8857 de3c 017b 72bd
000003c0: f279 453d f7ac 633e 1a0d ee3d d4a9 183d
000003d0: 88d6 183e 8424 d83d ed8d 5d39 3857 b5bd
000003e0: 2a12 2f3e fc43 793e dd10 be3d 0ead 833e
000003f0: a222 50be 1f85 ab3d 9ba1 1bbe bdf5 9fbd

mambaLayer.conv1d.weight f4 [26, 1, 4]
-0.15004855 0.29771906 -0.018425941 -0.13497776 0.34307975 0.023330212 0.3807358 -0.15067446
0.19118512 0.14009792 0.19989032 -0.5344867 0.41968924 0.3663249 -0.34295285 0.047806527
-0.09403944 -0.19256282 0.27256036 0.29511777 -0.3460728 -0.32439572 -0.40269327 0.66793776
0.43154073 0.44138956 0.12393767 -0.048965055 -0.42944342 0.43869597 -0.48776734 0.28692695
0.4235083 0.45664513 -0.4405663 -0.16789405 -0.43680298 -0.48347652 -0.07084757 -0.4972268
0.093051195 -0.19165903 0.448164 0.14160001 -0.3337686 -0.35762167 -0.20743972 -0.30517069
-0.04936886 -0.35110295 -0.29279327 -0.14898966 0.38942087 0.1425286 0.39779168 -0.45716062
0.086312115 0.29989225 0.41690928 -0.044287562 0.25119418 0.084394455 0.32863873 0.26406443
0.13118702 0.3510326 0.43528205 -0.3408839 -0.018551826 -0.21294385 0.43909407 -0.48747334
0.14531368 0.42162943 -0.38637066 0.28155413 0.10537726 -0.17869043 0.028659105 -0.26991317
-0.08180231 -0.47120655 -0.29820353 -0.26386827 0.16381407 0.29843205 -0.14307928 -0.07435564
-0.21647644 -0.2355628 -0.13251436 -0.41823465 0.4698001 -0.004599631 -0.28773153 -0.35790002
0.31715 0.40628368 -0.008491099 0.11994283 -0.043712735 0.064282835 -0.036275327 -0.41814232
00000000: 54a6 19be a26e 983e 00f2 96bc 9c37 0abe
00000010: 26a8 af3e 001f bf3c ceef c23e 684a 1abe
00000020: 08c6 433e d475 0f3e 0cb0 4c3e 1fd4 08bf
00000030: 82e1 d63e f08e bb3e 8497 afbe c7d0 433d
00000040: c097 c0bd 302f 45be 088d 8b3e ad19 973e
00000050: 7430 b1be 3217 a6be d02d cebe f8fd 2a3f
00000060: e8f2 dc3e d0fd e13e 08d3 fd3d 958f 48bd
00000070: 02e0 dbbe c29c e03e a4bc f9be 17e8 923e
00000080: 14d6 d83e 64cd e93e e891 e1be 6bec 2bbe
00000090: a4a4 dfbe 3c8a f7be 8818 91bd 8394 febe
000000a0: a091 be3d 4442 44be c075 e53e 98ff 103e
000000b0: b8e3 aabe 301a b7be 146b 54be 553f 9cbe
000000c0: 0037 4abd c4c3 b3be 00e9 95be bf90 18be
000000d0: 2c62 c73e 04f3 113e 5aab cb3e f510 eabe
000000e0: 68c4 b03d 7a8b 993e 2275 d53e e066 35bd
000000f0: 869c 803e 00d7 ac3d 5643 a83e 7433 873e
00000100: e455 063e 8cba b33e 4add de3e 5688 aebe
00000110: 00fa 97bc f40d 5abe f0d0 e03e 1b96 f9be
00000120: 1ccd 143e d0df d73e 60d2 c5be dd27 903e
00000130: 08d0 d73d a0fa 36be 80c6 ea3c 0f32 8abe
00000140: f887 a7bd fc41 f1be 22ae 98be be19 87be
00000150: e0be 273e 16cc 983e 6083 12be c547 98bd
00000160: 00ac 5dbe 6037 71be d8b1 07be da22 d6be
00000170: a489 f03e 80b8 96bb 8c51 93be ac3e b7be
00000180: 7c61 a23e 6a04 d03e 401e 0bbc 96a4 f53d
00000190: 200c 33bd b8a6 833d 7095 14bd c016 d6be

mambaLayer.conv1d.bias f4 [26]
-0.14118929 -0.2904822 -0.29033965 -0.39176768 0.23227717 0.34871683 -0.51572776 -0.4689241
0.09064502 0.26326028 0.061578635 0.46230426 -0.03694157 0.42002848 -0.078598715 -0.05250191
-0.38825697 0.041609347 0.2640491 0.070988506 -0.306856 -0.08461657 0.31089294 0.19854085
0.25602373 -0.19210589
00000000: ed93 10be 15ba 94be 66a7 94be c695 c8be
00000010: 11da 6d3e 038b b23e bc06 04bf d216 f0be
00000020: 19a4 b93d 0dca 863e e139 7c3d 25b3 ec3e
00000030: 0b50 17bd f90d d73e 5df8 a0bd 3e0c 57bd
00000040: 9ec9 c6be 906e 2a3d 7231 873e 6c62 913d
00000050: 3b1c 9dbe 744b adbd 5c2d 9f3e 4b4e 4b3e
00000060: 8b15 833e 68b7 44be

mambaLayer.x_proj.weight f4 [33, 26]
-0.055380773 0.16039883 0.10389435 0.10369912 0.12393355 -0.19449061 0.0012717509 -0.009681532
-0.10158891 -0.050832417 -0.042624082 -0.1495377 -0.15277742 -0.009424078 -0.07609488 0.031759743
0.13812512 0.09433361 0.017808873 0.0999796 -0.0013826141 0.1926579 0.10484695 -0.055320498
-0.121225506 -0.060449652 -0.14612474 -0.022594688 0.019643763 0.15834786 0.06321179 -0.029577227
-0.006888251 0.0025340067 -0.16788529 0.17038494 0.056152735 -0.105095 -0.1548004 -0.032856397
0.1185443 -0.1146375 0.059748538 0.18804576 -0.18461369 -0.13537306 0.023585321 -0.17438135
-0.10889394 -0.028976323 -0.15760675 0.0106715355 0.11060794 -0.02529477 -0.07882158 0.06424737
-0.12424439 -0.17376089 -0.035460137 -0.1541881 0.119899236 0.17399105 0.09255854 -0.12936229
0.15282652 0.17050274 0.015070476 0.094560206 0.03575662 0.1424597 -0.020313008 0.17561367
0.06285605 -0.15947497 0.17670421 0.034920912 0.14624782 -0.10366248 0.19273943 0.15702115
-0.055175256 -0.06749003 -0.05771962 0.13770191 0.058917973 -0.011295922 -0.070939004 -0.11283689
-0.08044348 0.0401368 0.070522204 0.14379905 0.09973118 0.006904595 -0.15119416 0.03784345
0.093378246 -0.15833363 -0.034440003 -0.017440692 0.0053229043 -0.13318563 0.0731182 0.10140744
0.12636605 0.06087162 -0.0021321261 0.19182545 0.031937078 0.16308732 -0.18822813 -0.06021441
-0.13671057 0.16801482 -0.051866386 0.17021722 -0.14179906 0.03491629 0.06411737 0.05929934
0.17046492 0.10874431 0.0061976183 0.024343561 0.01119084 0.14944583 -0.18083526 -0.19428732
0.0025411465 -0.19237833 -0.025953773 0.05786303 -0.10508854 -0.14952064 -0.02642407 -0.115246825
-0.006830788 -0.08802351 -0.005147311 -0.024487106 0.06865253 0.078149766 0.032842074 0.0870014
-0.02627093 0.0448755 -0.10306749 0.14689548 -0.047068022 0.14102186 0.14023392 -0.077424556
0.017943086 -0.11506732 -0.11917039 -0.0021567896 0.16715802 0.13650505 -0.18757066 -0.10843679
0.032634135 0.10084965 -0.120254695 0.030913418 0.09205714 -0.08645459 -0.13578781 0.04126891
-0.09533932 -0.04904665 0.14838116 0.1653802 0.0027535576 0.16957034 0.13613142 -0.006621067
0.19720891 0.18637988 0.14719257 -0.19459075 0.1876289 -0.0060506104 0.18482734 -0.14126724
-0.01215341 -0.13168088 -0.1872015 0.044140775 -0.035992 0.05693049 -0.19524786 -0.046024036
0.07982941 0.16801608 0.047074735 -0.16155176 0.15846878 -0.039914627 0.1616347 -0.088716544
-0.15569732 0.12998162 -0.10160891 -0.13356285 -0.11942951 -0.123883195 -0.17193139 -0.18038914
-0.06087081 -0.07169282 -0.065299295 -0.020327229 0.18945931 0.015954662 0.122638226 -0.12486097
0.11426144 0.0774941 -0.12805265 0.07721216 -0.04972505 0.083922274 -0.062078923 -0.19151844
0.0029750958 0.11715876 0.110094965 -0.14703523 -0.17441611 -0.001187652 -0.18026815 -0.15526022
-0.07277556 -0.057025857 0.08735482 -0.1377254 -0.19093628 -0.067515515 -0.09172663 -0.0998065
-0.1285349 0.031432528 0.12442077 0.011518771 0.12340588 0.059643462 0.09650084 0.015679587
0.11710158 0.12165869 -0.06218475 -0.0646752 -0.17600584 -0.15000893 -0.16611889 -0.02605191
00000000: f3d6 62bd 973f 243e 90c6 d43d 3460 d43d
00000010: e0d0 fd3d 8c28 47be e1b0 a63a 4a9f 1ebc
00000020: d90d d0bd a735 50bd 9796 2ebd 6920 19be
00000030: af71 1cbe 7367 1abc a2d7 9bbd 8116 023d
00000040: ac70 0d3e fb31 c13d eae3 913c 1bc2 cc3d
00000050: d538 b5ba 1d48 453e ffb9 d63d bf97 62bd
00000060: 1445 f8bd 0e9a 77bd b9a1 15be 7f18 b9bc
00000070: f5eb a03c f125 223e 2f75 813d f14b f2bc
00000080: d6b6 e1bb 9411 263b 1fea 2bbe 6479 2e3e
00000090: 6900 663d 0c3c d7bd ff83 1ebe 6e94 06bd
000000a0: 5bc7 f23d 11c7 eabd e2ba 743d 118f 403e
000000b0: 5f0b 3dbe 3c9f 0abe 0136 c13c 0691 32be
000000c0: c903 dfbd c15f edbc aa63 21be aad7 2e3c
000000d0: 6a86 e23d fa36 cfbc 356d a1bd 2094 833d
000000e0: d873 febd 60ee 31be a63e 11bd 7ce3 1dbe
000000f0: bb8d f53d b62a 323e 558f bd3d 8c77 04be
00000100: 8e7e 1c3e 4598 2e3e 28ea 763c c8a8 c13d
00000110: 8975 123d f5e0 113e 7767 a6bc 12d4 333e
00000120: acba 803d 684d 23be f3f1 343e 3b09 0f3d
00000130: fdc1 153e ff4c d4bd 7c5d 453e 27ca 203e
00000140: 73ff 61bd 3638 8abd 696b 6cbd bb01 0d3e
00000150: f953 713d 8812 39bc 7848 91bd 0717 e7bd
00000160: 8dbf a4bd 7c66 243d f26d 903d 0f40 133e
00000170: dc3f cc3d f13f e23b a4d2 1abe bc01 1b3d
00000180: 183d bf3d 3622 22be f610 0dbd c8df 8ebc
00000190: c26b ae3b d061 08be ffbe 953d b4ae cf3d
000001a0: 1a66 013e 8554 793d 24bb 0bbb e46d 443e
000001b0: 74d0 023d 5d00 273e e0be 40be 63a3 76bd
000001c0: dbfd 0bbe 140c 2c3e d971 54bd 6c4d 2e3e
000001d0: c633 11be 6204 0f3d f84f 833d dde3 723d
000001e0: 5b8e 2e3e 56b5 de3d 6415 cb3b 266c c73c
000001f0: c959 373c 5408 193e e12c 39be 41f3 46be
00000200: 5d89 263b d3fe 44be 029d d4bc c901 6d3d
00000210: a938 d7bd f01b 19be 4b77 d8bc 8706 ecbd
00000220: ced4 dfbb ac45 b4bd c6aa a8bb 2f99 c8bc
00000230: b399 8c3d fc0c a03d 6985 063d ca2d b23d
00000240: 2236 d7bc 5fcf 373d 0c15 d3bd c56b 163e
00000250: 66ca 40bd 0968 103e 7b99 0f3e c490 9ebd
00000260: 61fd 923c 6aa8 ebbd 9b0f f4bd ed58 0dbb
00000270: 792b 2b3e fbc7 0b3e 8612 40be 1c14 debd
00000280: 5fab 053d 438a ce3d 1848 f6bd 233e fd3c
00000290: 7488 bc3d 1b0f b1bd f60b 0bbe 9709 293d
000002a0: 4341 c3bd 24e5 48bd 3bf1 173e 6d59 293e
000002b0: 0875 343b d9a3 2d3e 0966 0b3e 89f5 d8bb
000002c0: 22f1 493e 5eda 3e3e a6b9 163e cc42 47be
000002d0: ca21 403e 3344 c6bb 6143 3d3e 5ca8 10be
000002e0: 191f 47bc 5ad7 06be c0b1 3fbe f5cc 343d
000002f0: 596c 13bd f22f 693d 0eef 47be b383 3cbd
00000300: 9a7d a33d 680c 2c3e 70d1 403d d36d 25be
00000310: a445 223e 857d 23bd 9183 253e 05b1 b5bd
00000320: 1e6f 1fbe e719 053e 5518 d0bd b3c4 08be
00000330: 7597 f4bd 79b6 fdbd c80e 30be eeb7 38be
00000340: ac53 79bd afd3 92bd a3bb 85bd 4a85 a6bc
00000350: 9f01 423e 5ab3 823c c029 fb3d 1cb7 ffbd
00000360: e701 ea3d 3ab5 9e3d 3c20 03be 6921 9e3d
00000370: 7eac 4bbd 71df ab3d 7846 7ebd 691d 44be
00000380: d3f9 423b eff0 ef3d 7879 e13d 6790 16be
00000390: 239a 32be fdaa 9bba 3798 38be 89fc 1ebe
000003a0: 5a0b 95bd f293 69bd 15e7 b23d e307 0dbe
000003b0: cd84 43be 9345 8abd 2cdb bbbd 5a67 ccbd
000003c0: a79e 03be 65bf 003d 51d0 fe3d 3ab9 3c3c
000003d0: 39bc fc3d b44c 743d 3ba2 c53d 7a72 803c
000003e0: f4d2 ef3d 3128 f93d 70b5 7ebd 6e74 84bd
000003f0: e03a 34be f19b 19be 121b 2abe d16a d5bc

mambaLayer.dt_proj.weight f4 [26, 1]
0.61857665 -0.8682468 0.67445433 0.8095716 0.061144225 -0.6567019 0.28722322 -0.032710075
-0.95002997 0.7724229 -0.18081212 0.28809416 -0.22955513 -0.6317198 0.48158872 -0.31705892
-0.26090765 0.27679145 0.863732 0.6081649 -0.31327152 -0.61023986 -0.016034259 0.5686543
0.3386861 -0.053324103
00000000: 0a5b 1e3f 6c45 5ebf 0aa9 2c3f 1640 4f3f
00000010: 5e72 7a3d 9e1d 28bf ec0e 933e 00fb 05bd
00000020: 2a35 73bf 82bd 453f d026 39be 1481 933e
00000030: 8010 6bbe 64b8 21bf cc92 f63e 8c55 a2be
00000040: b095 85be 9cb7 8d3e 8a1d 5d3f b2b0 1b3f
00000050: 2065 a0be ae38 1cbf 475a 83bc 5493 113f
00000060: 4468 ad3e 606a 5abd

mambaLayer.dt_proj.bias f4 [26]
-3.6267028 -6.4882507 -3.6876314 -6.0722737 -2.9643679 -2.2935228 -4.2701087 -5.256694
-5.579069 -6.7837715 -6.130254 -4.7281322 -4.5720434 -6.122365 -6.800011 -3.2124527
-3.0596552 -3.1190815 -2.510317 -3.9109766 -6.3417954 -6.8500466 -2.476565 -3.9233923
-2.3639264 -5.6098967
00000000: e61b 68c0 c09f cfc0 2702 6cc0 1150 c2c0
00000010: 34b8 3dc0 14c9 12c0 bba4 88c0 d636 a8c0
00000020: bc87 b2c0 a814 d9c0 0a2b c4c0 dc4c 97c0
00000030: 2e4e 92c0 6aea c3c0 b199 d9c0 d398 4dc0
00000040: 64d1 43c0 089f 47c0 09a9 20c0 714d 7ac0
00000050: fdef cac0 9533 dbc0 0a80 1ec0 dc18 7bc0
00000060: 924a 17c0 4684 b3c0

mambaLayer.out_proj.weight f4 [13, 26]
-0.0011284117 0.0049191588 0.16701943 -0.057587754 -0.15213269 0.040437974 -0.25266492 0.047978647
-0.078590356 0.11029351 0.18792655 0.006930043 -0.058740187 -0.11191772 -0.06981826 -0.002813228
-0.08366677 -0.13899188 -0.10427908 -0.10038404 0.11594997 -0.05533783 0.16456026 0.06770682
-0.07679301 0.06996732 -0.17119965 0.10814793 -0.23496746 -0.14325216 0.06604892 0.092384264
0.07974959 -0.18002036 0.114719965 0.2679355 -0.095338434 -0.15332226 0.004432337 -0.11888339
-0.11548965 0.17319821 -0.17477466 0.012842618 0.13631934 0.07374721 0.023745295 0.07415529
0.057336267 -0.0006157474 0.001953666 -0.052062444 -0.008024287 -0.17201747 0.22471672 0.16395414
-0.04932637 -0.14158204 -0.17118879 0.18044408 0.06673806 -0.08310287 0.17496113 0.096123405
0.15909491 0.20705695 -0.149257 0.12745783 0.18296446 0.061355878 0.20225045 0.19356835
0.15575236 -0.08538647 0.05545748 0.09031245 -0.15575008 0.12835006 -0.024150036 0.04998652
-0.10249222 0.17605901 0.09331065 -0.18323441 0.14905983 0.005840004 0.14461485 -0.14175273
0.1751997 0.17310224 0.041990858 -0.025665998 0.009586835 0.110455774 0.16464418 0.1780312
-0.15758617 0.0918213 0.20443174 0.13655566 0.032322615 0.10598281 -0.07816416 0.030899413
0.018765034 0.02753596 0.042880833 -0.017598763 -0.048996765 0.17021722 -0.20762438 -0.08611801
-0.18712012 -0.040285435 0.18448198 0.2562383 -0.18479282 0.09085315 -0.035681188 -0.120570645
-0.12321872 0.085925184 0.19701006 -0.14706846 -0.0068096262 -0.13050143 0.1734265 -0.11930405
-0.05858874 0.016198948 -0.12346061 -0.07077408 -0.044904195 -0.07740779 0.105593376 0.22642414
0.24330202 0.00015787482 0.16046916 -0.015314797 -0.033998765 -0.09570214 0.10015198 -0.09003384
0.10830394 0.14588273 -0.07141924 -0.15588185 -0.05978743 -0.021104718 0.013179663 -0.061349947
0.038345568 0.0046194214 0.11105465 0.14698535 0.114912435 0.16198103 -0.2813197 -0.051147446
0.13645329 0.07158905 0.2225871 -0.12136888 -0.06508856 0.24366632 0.08678479 -0.2711323
-0.10219861 -0.16751425 -0.01816105 -0.13131915 -0.1220444 0.009396649 -0.07070646 0.11309123
-0.20729803 0.061748136 -0.062401 0.16157283 -0.012435889 -0.20383173 0.19950771 0.06225151
0.04975555 -0.15224397 0.13804984 -0.25668958 -0.13331956 0.13723285 -0.13755208 0.07888163
-0.16053896 0.07810498 -0.15339608 0.11300342 -0.14089029 0.106288426 0.07065414 -0.11016507
0.15429448 -0.033647455 -0.021317258 -0.15015168 -0.22016518 -0.13432579 -0.13710958 -0.04340788
-0.13034043 -0.13105898 -0.088954344 -0.04118998 0.12162475 -0.20872869 0.20155138 -0.114404604
-0.015459837 0.06053065 -0.048254006 0.13956693 -0.11145603 0.09759942 0.090816535 0.13845353
0.19230378 0.055555128 -0.07731338 0.026881466 -0.0002499181 0.11588542 0.05142559 0.054640643
-0.079894245 -0.09912147 0.012423984 0.051078193 -0.14352079 0.1514618 0.08542374 -0.06633397
-0.08245094 0.039593697 0.09240031 0.086436026 0.012185168 0.07771355 -0.17634201 -0.047150794
-0.14926435 0.013908069 6.6239027e-06 0.033533517 -0.06880231 0.20902273 0.097712256 -0.02982041
00000000: 37e7 93ba e530 a13b 2407 2b3e 23e1 6bbd
00000010: acc8 1bbe 4aa2 253d 4c5d 81be 4285 443d
00000020: fbf3 a0bd 90e1 e13d d16f 403e 6a15 e33b
00000030: 8d99 70bd 1e35 e5bd e0fc 8ebd 225e 38bb
00000040: 7c59 abbd e353 0ebe 4590 d5bd 2696 cdbd
00000050: 2e77 ed3d eca9 62bd 7c82 283e e0a9 8a3d
00000060: a745 9dbd 074b 8f3d f64e 2fbe a97c dd3d
00000070: 4f9b 70be b2b0 12be a844 873d f633 bd3d
00000080: c153 a33d 4257 38be 4df2 ea3d d82e 893e
00000090: cc40 c3bd 8300 1dbe 233d 913b 2379 f3bd
000000a0: d685 ecbd df5a 313e 21f8 32be d869 523c
000000b0: 4c97 0b3e c708 973d 7e85 c23c bbde 973d
000000c0: 6fd9 6a3d 1c6a 21ba 1409 003b 6e3f 55bd
000000d0: 4d78 03bc 5925 30be 241c 663e 98e3 273e
000000e0: 730a 4abd e2fa 10be 1d4c 2fbe 55c6 383e
000000f0: f7ad 883d d631 aabd 0329 333e 59dc c43d
00000100: c7e9 223e bd06 543e d4d6 18be 4e84 023e
00000110: 095b 3b3e 4d50 7b3d be1a 4f3e c836 463e
00000120: 8c7d 1f3e 1adf aebd 6227 633d bcf5 b83d
00000130: f37c 1fbe 336e 033e 4cd6 c5bc aabe 4c3d
00000140: 71e7 d1bd d048 343e a719 bf3d cda1 3bbe
00000150: 24a3 183e 815d bf3b ea15 143e a127 11be
00000160: 8d67 333e b741 313e 9bfe 2b3d 8041 d2bc
00000170: 1a12 1d3c a336 e23d 7c98 283e d04d 363e
00000180: 455e 21be ce0c bc3d 8e56 513e 3fd5 0b3e
00000190: b864 043d 840d d93d 8814 a0bd c420 fd3c
000001a0: 21b9 993c 1893 e13c d0a3 2f3d 482b 90bc
000001b0: d5b0 48bd 6c4d 2e3e 7c9b 54be a45e b0bd
000001c0: 6b9c 3fbe 5702 25bd d8e8 3c3e ab31 833e
000001d0: 543a 3dbe 3711 ba3d 7026 12bd beed f6bd
000001e0: 195a fcbd 8bf9 af3d 01bd 493e 1d99 16be
000001f0: 4923 dfbb 2ba2 05be b796 313e af55 f4bd
00000200: bffa 6fbd a8b3 843c ebd8 fcbd 00f2 90bd
00000210: 76ed 37bd fa87 9ebd 5741 d83d bbdb 673e
00000220: 2a24 793e 338b 2539 0752 243e eaea 7abc
00000230: 4a42 0bbd 7cff c3bd 7b1c cd3d a963 b8bd
00000240: 75ce dd3d 4862 153e 4044 92bd 7e9f 1fbe
00000250: aae3 74bd cde3 acbc 83ef 573c 154a 7bbd
00000260: 3e10 1d3d 845e 973b 9f70 e33d 5483 163e
00000270: 3657 eb3d 5bde 253e 2309 90be fc7f 51bd
00000280: 69ba 0b3e 489d 923d dfed 633e 3f90 f8bd
00000290: 274d 85bd aa83 793e 39bc b13d dad1 8abe
000002a0: 814d d1bd db88 2bbe 7bc6 94bc 8778 06be
000002b0: 6af2 f9bd 67f4 193c 8cce 90bd 609c e73d
000002c0: ef45 54be 9deb 7c3d 3198 7fbd 5973 253e
000002d0: e6bf 4bbc 44b9 50be c04b 4c3e 70fb 7e3d
000002e0: 7acc 4b3d d8e5 1bbe f05c 0d3e d16c 83be
000002f0: ec84 08be c586 0c3e 74da 0cbe b18c a13d
00000300: 5364 24be 81f5 9f3d dd13 1dbe 566e e73d
00000310: 8b45 10be bfad d93d 1eb3 903d 399e e1bd
00000320: 5fff 1d3e ead1 09bd 88a1 aebc 5dc1 19be
00000330: fb72 61be b38c 09be 7466 0cbe 76cc 31bd
00000340: f677 05be 5334 06be b22d b6bd d3b6 28bd
00000350: 6616 f93d f9bc 55be 7c63 4e3e f64c eabd
00000360: 424b 7dbc fdee 773d fea5 45bd a2ea 0e3e
00000370: 0f43 e4bd 34e2 c73d 05fe b93d c3c6 0d3e
00000380: 48eb 443e c68d 633d 7a56 9ebd 8536 dc3c
00000390: 7107 83b9 5655 ed3d a4a3 523d dece 5f3d
000003a0: 989f a3bd 3200 cbbd f78d 4b3c 5e37 513d
000003b0: 1df7 12be cd18 1b3e a4f2 ae3d 1bda 87bd
000003c0: 0adc a8bd 002d 223d 603c bd3d 5f05 b13d
000003d0: 4da4 473c 4828 9f3d 0093 34be 3121 41bd
000003e0: c1d8 18be abde 633c e442 de36 715a 093d
000003f0: 3ae8 8cbd 0e0a 563e 5d1d c83d ef49 f4bc

value_network.0.weight f4 [150, 13]
0.19887081 -0.1458438 -0.16112812 0.10018463 0.20122313 -0.06785792 0.17780095 -0.09820155
-0.20728183 0.27024248 0.22840571 -0.06944821 0.16320758 -0.016369145 -0.22938898 -0.07924366
-0.025815334 -0.23544426 -0.05574678 -0.18796207 0.14507654 0.099555485 -0.025425488 0.09638086
0.23195791 0.0130318105 0.035294004 -0.2265757 0.24581118 0.014752948 -0.27813217 -0.12608956
0.19183451 0.20627348 -0.043992043 0.06955523 0.16287187 -0.039110065 0.027315512 0.25133678
0.09311542 0.060639422 -0.18523201 -0.27304888 0.18756188 0.20900223 -0.21389124 -0.01142156
-0.2220027 0.059394166 -0.26469097 -0.2649786 -0.18039736 0.026681261 -0.15054545 -0.074285805
-0.053140033 0.061135564 0.13829522 -0.16430856 0.01524437 -0.024011748 0.115572944 0.2697022
-0.17904757 0.19542974 -0.082546845 0.27504724 -0.11938765 -0.028510353 -0.10543062 -0.24921018
-0.06666894 0.11336927 -0.17541546 0.266849 0.17089334 -0.028480489 -0.15215379 -0.06829545
0.11855641 0.026179533 -0.013723389 0.14606011 -0.0014104176 0.16516493 -0.10136526 -0.009760498
0.054006368 -0.25503504 0.13640843 -0.21329592 -0.0409868 -0.15570252 -0.2720075 0.018182268
-0.03826369 0.0977409 -0.12100246 -0.14692888 -0.015484338 -0.057150103 -0.006575185 0.055028897
0.2206698 0.26627123 0.15711826 -0.13482538 0.1100516 0.040888194 -0.21912375 -0.018350387
0.070025824 0.028248474 0.00088134146 -0.24497303 0.15021819 0.21701849 0.28275824 0.17739968
0.032879345 -0.24344899 0.26697385 -0.12172623 -0.22195484 0.044166736 0.029461116 0.11245883
-0.028254122 -0.19180588 0.08834318 0.22930372 0.004391429 -0.2335954 -0.19929583 -0.098411985
-0.2744185 -0.018750489 -0.27483466 0.2066845 0.049660612 0.2672042 0.09321138 0.27116197
-0.26221082 -0.056447145 0.07134807 -0.13433526 0.18429558 -0.2585087 0.044413008 -0.06332558
0.09714103 0.20350857 -0.21123487 -0.25540128 -0.013029293 -0.13080548 -0.051681135 0.1911368
0.060835633 -0.20460065 0.069056995 -0.20977458 0.055033334 -0.20728825 -0.042618413 -0.08326318
-0.16102469 0.26528084 0.20868427 0.07004109 0.21926805 0.24197406 0.27247873 0.15484513
-0.11126282 0.26600835 -0.2741789 -0.24159402 -0.0066198846 -0.013739745 -0.039300628 0.122815736
0.10612893 -0.09238281 -0.20040412 0.18411483 0.22634253 0.10253651 -0.06053429 0.16796133
-0.010479818 0.20819385 0.26234037 -0.20988223 -0.1864916 -0.16448353 -0.25639609 -0.25112882
0.22063014 -0.06833211 0.22875911 0.07779991 -0.27184236 0.22608237 -0.098407805 0.1236992
0.05658869 0.14710112 0.2091319 0.267114 -0.09454054 -0.14186558 0.0016804001 -0.053372785
0.20864907 -0.104134224 -0.11092891 0.005033597 -0.24012914 -0.11937714 -0.13330045 -0.26115865
-0.19263086 0.03803243 -0.14762667 0.06185371 -0.04091798 0.13747811 0.093103655 -0.28104556
0.14627652 0.18675514 -0.24864289 -0.09924113 0.21845281 -0.05086628 -0.16296013 -0.04040333
-0.19620134 -0.002623291 0.07959058 0.2366855 -0.13359058 0.13916035 0.13446298 -0.17051457
0.096737824 -0.20049116 0.039093133 0.238771 -0.22031212 0.092702284 0.10208783 -0.06546237
00000000: caa4 4b3e 1458 15be c5fe 24be 992d cd3d
00000010: 700d 4e3e 18f9 8abd 7411 363e e51d c9bd
00000020: b041 54be 395d 8a3e 30e3 693e dd3a 8ebd
00000030: e31f 273e 9618 86bc f2e4 6abe 804a a2bd
00000040: ae7a d3bc 4d18 71be bc56 64bd 2179 40be
00000050: f28e 143e bfe3 cb3d 1d49 d0bc 5463 c53d
00000060: 6086 6d3e 6083 553c 7290 103d 7603 68be
00000070: edb5 7b3e 59b6 713c 5767 8ebe 9f1d 01be
00000080: 4470 443e 5b39 533e 0031 34bd f972 8e3d
00000090: e2c7 263e e031 20bd c8c4 df3c 37af 803e
000000a0: 4cb3 be3d 0b61 783d 76ad 3dbe 10cd 8bbe
000000b0: 3910 403e ae04 563e 4e06 5bbe 7f21 3bbc
000000c0: ad54 63be 4c47 733d 9385 87be 46ab 87be
000000d0: 16ba 38be a992 da3c 9628 1abe 2823 98bd
000000e0: 5da9 59bd 4969 7a3d 439d 0d3e 8140 28be
000000f0: 86c3 793c 49b4 c4bc 82b1 ec3d 6816 8a3e
00000100: 3f58 37be bc1e 483e 520e a9bd fed2 8c3e
00000110: 8381 f4bd 8b8e e9bc 02ec d7bd f430 7fbe
00000120: ba89 88bd 262e e83d 1ca0 33be 6fa0 883e
00000130: aafe 2e3e ea4f e9bc 34ce 1bbe 7cde 8bbd
00000140: b4cd f23d 7676 d63c 11d8 60bc c890 153e
00000150: c3dd b8ba ff20 293e 9798 cfbd 7fea 1fbc
00000160: c835 5d3d f493 82be a7ae 0b3e 3f6a 5abe
00000170: c6e1 27bd 7b70 1fbe 9144 8bbe fbf2 943c
00000180: 63ba 1cbd 622c c83d 23d0 f7bd 8674 16be
00000190: 05b2 7dbc 3a16 6abd a674 d7bb fb65 613d
000001a0: 44f7 613e b454 883e 9ce3 203e aa0f 0abe
000001b0: bc62 e13d 617a 273d fa61 60be 8d53 96bc
000001c0: b369 8f3d 5869 e73c d309 673a 36da 7abe
000001d0: ccd2 193e 183a 5e3e b0c5 903e 43a8 353e
000001e0: 7eac 063d b14a 79be ccb0 883e 9a4b f9bd
000001f0: 2148 63be 2ee8 343d 7058 f13c d150 e63d
00000200: 3075 e7bc c368 44be 45ed b43d 98ce 6a3e
00000210: fae5 8f3b a233 6fbe 3514 4cbe 398c c9bd
00000220: 9580 8cbe a09a 99bc 21b7 8cbe 1aa5 533e
00000230: ed68 4b3d fdce 883e 9ce5 be3d bed5 8a3e
00000240: 7f40 86be 1f35 67bd f01e 923d 2f8f 09be
00000250: fbb7 3c3e 415b 84be 6aea 353d d7b0 81bd
00000260: e0f1 c63d 8d64 503e f44d 58be f5c3 82be
00000270: d178 55bc dff1 05be 99af 53bd 5eb9 433e
00000280: c92e 793d d582 51be c16d 8d3d 26cf 56be
00000290: a26a 613d 5f43 54be a590 2ebd e385 aabd
000002a0: a8e3 24be e4d2 873e 54b1 553e b471 8f3d
000002b0: ce87 603e 0cc8 773e 5582 8b3e b98f 1e3e
000002c0: c3dd e3bd 3f32 883e 2d61 8cbe 6c64 77be
000002d0: 9eeb d8bb ab1c 61bc b2f9 20bd d186 fb3d
000002e0: 205a d93d 3333 bdbd bd36 4dbe 9988 3c3e
000002f0: 56c6 673e a9fe d13d cef2 77bd 0efe 2b3e
00000300: 8bb3 2bbc c530 553e 7a51 863e 5eeb 56be
00000310: a7f7 3ebe 5f6e 28be 5946 83be f593 80be
00000320: deec 613e b5f1 8bbd d43f 6a3e 8f55 9f3d
00000330: ec2e 8bbe 2382 673e 088a c9bd 0256 fd3d
00000340: 8bc9 673d ada1 163e ac26 563e 2bc3 883e
00000350: 789e c1bd 3645 11be df40 dc3a 6c9d 5abd
00000360: 1aa8 553e 5344 d5bd b22e e3bd dff0 a43b
00000370: 6ae4 75be 017c f4bd ea7f 08be 96b6 85be
00000380: 0641 45be e5c7 1b3d 722b 17be 515a 7d3d
00000390: 9d99 27bd 10c7 0c3e 21ad be3d 34e5 8fbe
000003a0: 83c9 153e bd3c 3f3e 3e9c 7ebe ef3e cbbd
000003b0: 18b2 5f3e 2959 50bd 05df 26be f67d 25bd
000003c0: 01e9 48be 85eb 2bbb 6300 a33d af5d 723e
000003d0: f8cb 08be 0d80 0e3e aab0 093e 5f9b 2ebe
000003e0: 7b1e c63d 8e4d 4dbe 1f20 203d 6380 743e
000003f0: 8099 61be b2da bd3d 6d13 d13d 2311 86bd

value_network.0.bias f4 [150]
-0.1913875 0.15953907 0.09817392 0.04290699 -0.09709388 0.09934859 0.20775998 0.026390027
-0.20549731 0.017573552 -0.24797373 -0.016874965 -0.2002247 -0.13750747 0.1078251 0.05869764
0.053681247 0.05947802 -0.013356784 -0.27702412 0.25915378 0.15190893 0.12794569 0.16628954
-0.16292745 -0.11971147 -0.095440686 0.18592073 -0.16382718 -0.13637693 0.24288042 -0.113958955
-0.028656848 -0.14545146 -0.07888303 0.17884023 0.22033204 -0.20929924 0.24836305 -0.25677904
-0.02606989 0.15001993 -0.09738958 -0.18410248 0.1714933 0.14190432 -0.096872 -0.26385254
-0.057677362 -0.07827604 -0.23616539 -0.08953195 -0.2264211 0.20954952 0.25117412 0.027002564
0.14895001 -0.05099686 0.12709644 0.050343197 -0.12860356 0.047248397 0.1827018 0.21932745
0.094846815 0.023482295 0.21400267 0.02964699 -0.12894593 0.26264057 0.08409587 -0.2186502
-0.26251566 0.025757385 -0.05990873 -0.09878052 -0.1580725 0.002167444 0.0031452524 -0.22270429
0.049441677 -0.22552873 -0.06781148 -0.010181319 0.25359994 0.12525694 0.17609464 -0.17321151
-0.1788689 0.05797845 -0.1971695 -0.19049451 0.21808046 0.010848449 0.1693519 0.092337914
-0.014504798 0.061590698 -0.0067157485 -0.028575156 -0.050231393 0.13582954 -0.12054186 -0.11637746
-0.009054153 -0.037513465 0.080210805 0.14624709 0.07822101 0.24890445 0.18769236 0.028485447
-0.17009884 -0.05295491 -0.11335109 -0.19125494 -0.09882252 0.06373405 0.17762892 0.13724256
-0.14291371 0.083528325 0.23553446 0.207308 0.12949601 0.04808508 -0.17243263 0.17377318
0.14751957 -0.14417163 0.14273615 -0.046219904 -0.15725838 0.2650938 0.23103158 -0.27304736
-0.18954648 -0.18233229 -0.074540146 0.09876015 -0.030203618 -0.0468974 -0.057576105 0.18034525
-0.22096376 -0.23838611 0.0924353 -0.2704627 0.04089994 0.2767619
00000000: 16fb 43be 365e 233e 680f c93d 3dbf 2f3d
00000010: 28d9 c6bd 4677 cb3d 08bf 543e e62f d83c
00000020: e36d 52be 69f6 8f3c d3ec 7dbe 5e3d 8abc
00000030: b407 4dbe c2ce 0cbe 68d3 dc3d f06c 703d
00000040: dee0 5b3d 399f 733d 6ad6 5abc 1bd6 8dbe
00000050: ceaf 843e 048e 1b3e 3204 033e ce47 2a3e
00000060: 74d6 26be 4a2b f5bd 6876 c3bd 0162 3e3e
00000070: 50c2 27be 65a6 0bbe a5b5 783e 5063 e9bd
00000080: c4c1 eabc 3af1 14be 6d8d a1bd e521 373e
00000090: b99e 613e 8a52 56be e252 7e3e 8b78 83be
000000a0: 8690 d5bc d39e 193e 3074 c7bd 5c85 3cbe
000000b0: f19b 2f3e 5e4f 113e d464 c6bd ae17 87be
000000c0: 193f 6cbd 304f a0bd 57d5 71be 875c b7bd
000000d0: efda 67be 2694 563e e599 803e 7b34 dd3c
000000e0: 5a86 183e 15e2 50bd 9225 023e ab34 4e3d
000000f0: a7b0 03be 8987 413d 2e16 3b3e 6097 603e
00000100: 0c3f c23d f15d c03c 8423 5b3e 3fde f23c
00000110: 670a 04be d378 863e 753a ac3d d7e5 5fbe
00000120: 7468 86be 2701 d33c db62 75bd 714d cabd
00000130: c2dd 21be ad0b 0e3b 9420 4e3b 980c 64be
00000140: 5b83 4a3d 01f1 66be bfe0 8abd 8ccf 26bc
00000150: dad7 813e 5b43 003e 2752 343e 5c5e 31be
00000160: 6929 37be d07a 6d3d cde6 49be fe10 43be
00000170: 7c50 5f3e b1bd 313c 966a 2d3e a91b bd3d
00000180: 88a5 6dbc 8746 7c3d c80f dcbb 7216 eabc
00000190: 6fbf 4dbd e616 0b3e a7de f6bd 4e57 eebd
000001a0: df57 14bc b8a7 19bd 9045 a43d ccc1 153e
000001b0: 5632 a03d cfe0 7e3e 6d32 403e 505a e93c
000001c0: 642e 2ebe 3fe7 58bd 9e24 e8bd 56d8 43be
000001d0: 7663 cabd ff86 823d 5be4 353e 5089 0c3e
000001e0: f957 12be e610 ab3d f22f 713e 8c48 543e
000001f0: 9a9a 043e dcf4 443d 2e92 30be 99f1 313e
00000200: 5f0f 173e baa1 13be 6d29 123e 1551 3dbd
00000210: 5708 21be 60ba 873e 8b93 6c3e ddcc 8bbe
00000220: 7918 42be 51b5 3abe 81a8 98bd c342 ca3d
00000230: 946d f7bc 7d17 40bd ecd4 6bbd 6dac 383e
00000240: 5344 62be 7d1b 74be b84e bd3d 167a 8abe
00000250: b286 273d bcb3 8d3e

value_network.2.weight f4 [100, 150]
0.06211877 0.07272974 -0.06661345 0.06040842 0.025776472 -0.052100357 -0.018751556 -0.021984955
0.027668245 0.03119051 0.03621638 -0.003287761 0.055763222 0.026411816 0.02968855 -0.015569167
-0.06780371 -0.03627968 0.04583905 -0.06415393 0.02404733 -0.038710706 -0.055245865 -0.05188676
-0.08120976 0.046817724 0.038958997 0.07305564 -0.011718748 -0.07838443 0.060673337 0.020077294
-0.0382288 0.025334353 0.06472876 0.059160598 0.040505648 -0.058728717 -0.07686583 0.055281907
0.04773049 0.08045146 0.025546724 0.04554118 -0.062160347 -0.0060916888 -0.026250208 0.04622409
-0.07059946 0.023195606 -0.043751583 -0.081593 0.051180795 0.017445382 0.03879522 -0.026403971
0.018215707 -0.034572817 -0.03223023 -0.06962935 0.00044197415 -0.07328875 0.030878728 -0.044601846
-0.06666173 0.019698594 0.04129125 -0.054021318 -0.039896365 -0.03862465 -0.047949463 -0.056819927
0.06940157 -0.079515986 0.0022867937 0.06531702 0.043351002 0.014457678 0.043033086 0.0130453035
-0.06097337 0.06205375 0.0436189 -0.046272974 0.07369205 -0.075954095 0.020237166 -0.022822505
-0.054401353 -0.055807944 0.027785454 0.001120246 -0.07787813 -0.0712755 -0.060926292 -0.0076665725
0.07446519 -0.0543239 -0.07815197 0.053341065 -0.041060224 0.031858847 -0.010073103 -0.061580285
-0.041274957 -0.052288976 -0.053777978 0.06632593 -0.0017252144 0.07110158 -0.06366078 0.0017261084
-0.021531211 0.072144955 0.015749348 0.02340659 -0.035714816 -0.07425702 -0.07640775 0.037413467
0.0750823 -0.008784185 0.044380337 -0.07866532 -0.077740386 -0.046453893 0.022967558 -0.059913654
-0.009934737 -0.036832735 -0.05834022 -0.013199744 0.039994877 -0.02551846 -0.0066761924 0.037334997
-0.032571215 -0.028975938 -0.005273875 0.037836324 0.042138927 -0.03284244 -0.07418203 -0.04469088
0.033017278 -0.041960943 0.050457016 -0.04394923 0.032259494 -0.03680202 -0.033812203 -0.008331426
0.036364708 -0.013011395 -0.019528601 -0.062486283 0.038835187 0.068835124 0.004579738 0.05062163
0.03415622 0.05680349 0.028307885 0.028679729 -0.06018374 -0.043548897 -0.019678537 0.06443705
-0.017323216 0.03243439 0.041521046 0.01792923 0.026214335 -0.035146195 -0.06648854 0.06637594
0.060752697 -0.07657408 0.039945874 -0.072817914 0.015822291 0.016341187 0.04796521 0.04728887
-0.0479116 0.012353422 -0.060126085 0.0106723495 -0.03805612 -0.043712795 -0.040324256 -0.06712885
0.039790932 0.05912506 -0.057717804 0.04710657 0.011667643 0.023160951 -0.007872181 -0.076548904
-0.0077458965 0.025683373 -0.0034992346 0.050714236 0.0036860853 -0.006951983 0.04955965 0.05108089
-0.03201842 0.10168144 0.030576771 -0.061385557 0.04854194 -0.015904296 -0.05949354 0.0041526672
0.06704154 0.008547425 -0.037632033 0.04758572 0.07695047 0.0063158367 -0.052585375 0.05781521
-0.07763308 -0.04239002 0.028369375 0.004973805 0.005979996 -0.0113120675 -0.011704531 -0.015972175
0.058320854 -0.041574918 -0.095881775 -0.015399798 -0.018984798 0.058261894 -0.056821167 -0.011396071
-0.029070234 -0.028711174 -0.078886345 -0.0010593942 0.024940344 0.027778342 0.046255868 -0.07145161
-0.08134739 0.057290707 0.019335592 0.047662944 0.03580751 -0.07411023 -0.046557087 -0.05214146
00000000: 4070 7e3d 54f3 943d a26c 88bd d26e 773d
00000010: 2e29 d33c 2f67 55bd dd9c 99bc cb19 b4bc
00000020: 84a8 e23c 3e83 ff3c a057 143d 7a77 57bb
00000030: fa67 643d 985d d83c 6735 f33c d215 7fbc
00000040: acdc 8abd 009a 14bd bac1 3b3d 2363 83bd
00000050: e8fe c43c 1e8f 1ebd 7d49 62bd 3687 54bd
00000060: 4d51 a6bd f1c3 3f3d 7893 1f3d 329e 953d
00000070: feff 3fbc 0488 a0bd 9b84 783d 2379 a43c
00000080: cd95 1cbd fd89 cf3c 8390 843d 6252 723d
00000090: 40e9 253d 868d 70bd d56b 9dbd 486f 623d
000000a0: 0c81 433d bcc3 a43d 5d47 d13c 6389 3a3d
000000b0: d99b 7ebd ca9c c7bb ad0a d7bc 7955 3d3d
000000c0: 7396 90bd b604 be3c dc34 33bd 3b1a a7bd
000000d0: f4a2 513d 9ee9 8e3c bde7 1e3d 244d d8bc
000000e0: 1b39 953c 3a9c 0dbd d803 04bd d599 8ebd
000000f0: c4b8 e739 6a18 96bd 63f5 fc3c 6db0 36bd
00000100: f285 88bd f25e a13c 0421 293d 7545 5dbd
00000110: 5f6a 23bd e234 1ebd a866 44bd 03bc 68bd
00000120: 6922 8e3d 47d9 a2bd 08de 153b eec4 853d
00000130: d290 313d e6df 6c3c 7643 303d f8bb 553c
00000140: 36bf 79bd 132c 7e3d bba9 323d bb88 3dbd
00000150: dceb 963d d28d 9bbd 6ac8 a53c 43f6 babc
00000160: f4d3 5ebd df96 64bd 529e e33c 38d5 923a
00000170: 927e 9fbd e4f8 91bd d98d 79bd df37 fbbb
00000180: 3581 983d bd82 5ebd 240e a0bd 297c 5a3d
00000190: c42e 28bd 6c7e 023d a809 25bc 9c3b 7cbd
000001a0: ee0f 29bd f72c 56bd 4c46 5cbd e4d5 873d
000001b0: 9720 e2ba b59d 913d 9560 82bd 963e e23a
000001c0: 3962 b0bc bcc0 933d c704 813c 2dbf bf3c
000001d0: b349 12bd 1114 98bd ab7b 9cbd dd3e 193d
000001e0: c0c4 993d 8beb 0fbc 28c8 353d 491b a1bd
000001f0: 5a36 9fbd 7046 3ebd 7626 bc3c 0568 75bd
00000200: 4fc5 22bc ecdd 16bd 28f6 6ebd bd43 58bc
00000210: abd1 233d 170c d1bc f6c3 dabb 95ec 183d
00000220: 6569 05bd f25e edbc 78d0 acbb 43fa 1a3d
00000230: de99 2c3d cb85 06bd c0ec 97bd c90d 37bd
00000240: 203d 073d 3ddf 2bbd 04ac 4e3d 1c04 34bd
00000250: 8822 043d b7bd 16bd aa7e 0abd 8980 08bc
00000260: 29f3 143d bf2d 55bc 72fa 9fbc 9ef1 7fbd
00000270: a511 1f3d 6ef9 8c3d a011 963b a058 4f3d
00000280: 64e7 0b3d c7aa 683d f0e5 e73c c0f1 ea3c
00000290: 3a83 76bd 5460 32bd e234 a1bc 92f7 833d
000002a0: 6be9 8dbc ecd9 043d f911 2a3d 52e0 923c
000002b0: 72bf d63c 75f5 0fbd 252b 88bd 1cf0 873d
000002c0: d2d7 783d dfd2 9cbd 499e 233d 8f21 95bd
000002d0: c09d 813c f4dd 853c 2b77 443d f9b1 413d
000002e0: f43e 44bd 0266 4a3c c546 76bd 14db 2e3c
000002f0: bce0 1bbd 300c 33bd 0c2b 25bd da7a 89bd
00000300: d1fb 223d 1e2d 723d 8169 6cbd d2f2 403d
00000310: a429 3f3c 09bc bd3c 52fa 00bc acc5 9cbd
00000320: 4ad1 fdbb f065 d23c 6a53 65bb bbb9 4f3d
00000330: 4092 713b 76cd e3bb 0fff 4a3d 323a 513d
00000340: bf25 03bd 5c3e d03d 237c fa3c 6c6f 7bbd
00000350: ead3 463d ba49 82bc 80af 73bd 1913 883b
00000360: 134d 893d 800a 0c3c 0c24 1abd 3ee9 423d
00000370: 3598 9d3d 14f5 ce3b c363 57bd a4cf 6c3d
00000380: 18fe 9ebd 28a1 2dbd e466 e83c 4dfb a23b
00000390: d8f3 c33b 4056 39bc 5cc4 3fbc 14d8 82bc
000003a0: d9e1 6e3d 764a 2abd aa5d c4bd 6f4f 7cbc
000003b0: 0286 9bbc 06a4 6e3d 50bd 68bd 96b6 3abc
000003c0: b324 eebc b233 ebbc 2a8f a1bd 5fdb 8aba
000003d0: b14f cc3c 688f e33c cb76 3d3d 3955 92bd
000003e0: 7699 a6bd a9a9 6a3d ad65 9e3c 383a 433d
000003f0: e5aa 123d 1bc7 97bd a5b2 3ebd 4992 55bd

value_network.2.bias f4 [100]
-0.014623276 0.014975399 0.025883077 0.003252588 0.022188654 -0.08271069 -0.0103855645 0.050784376
0.030985387 -0.08122261 -0.025855854 0.0147979995 0.033499617 0.0449359 -0.073197454 0.054830067
-0.057162102 0.084389076 0.0656704 0.018165747 -0.000874036 0.08103606 0.05815563 0.011800058
-0.061553843 0.043499004 -0.004071034 0.0585916 0.03473807 -0.035461586 -0.065872505 -0.009770197
-0.08367914 0.004528278 0.032416306 -0.042265967 -0.041457057 -0.07846633 0.014293848 0.033540733
0.018137077 0.033034 -0.08134168 -0.025985355 -0.048170175 0.021947565 -0.012400805 0.012875078
-0.01425623 -0.02042059 -0.021839356 -0.063041985 -0.024828881 0.028734984 0.017624946 -0.00590735
0.055818476 0.056648217 -0.027144117 0.0041657872 -0.025455698 0.08480434 0.06108169 0.04172125
-0.018035928 -0.046287753 -0.053852733 0.031141859 -0.051525116 0.090512596 0.035777956 -0.012385697
0.061361562 0.0669283 0.05815807 0.011940372 0.07499746 -0.014941989 -0.00040901615 0.0630178
0.024931721 0.01813732 0.011748282 0.048428115 0.060195345 -0.05571315 0.051134154 -0.05162789
0.0027823914 0.07059439 -0.09030581 -0.019976756 0.1195538 0.04431256 0.036089644 -0.004303311
0.05363434 -0.027191853 -0.034653824 0.027769867
00000000: 7796 6fbc 605b 753c bf08 d43c 5f29 553b
00000010: fbc4 b53c 3964 a9bd 3728 2abc 4703 503d
00000020: 11d5 fd3c 0a58 a6bd a8cf d3bc 4f73 723c
00000030: e536 093d b50e 383d 8ce8 95bd 7e95 603d
00000040: cf22 6abd 2ed4 ac3d 347e 863d 55d0 943c
00000050: 901f 65ba 3cf6 a53d 9934 6e3d 0855 413c
00000060: e21f 7cbd 032c 323d 4f66 85bb bffd 6f3d
00000070: 8249 0e3d 2b40 11bd 2ae8 86bd 2d13 20bc
00000080: f85f abbd f361 943b f6c6 043d 141f 2dbd
00000090: e0ce 29bd f5b2 a0bd be30 6a3c 0262 093d
000000a0: 3594 943c a94e 073d 7796 a6bd 3ddf d4bc
000000b0: 174e 45bd 61cb b33c bf2c 4bbc fef1 523c
000000c0: f692 69bc 1549 a7bc 73e8 b2bc 281c 81bd
000000d0: f065 cbbc a165 eb3c 3162 903c 7292 c1bb
000000e0: eaa1 643d f607 683d 575d debc 2881 883b
000000f0: 7888 d0bc e6ad ad3d cb30 7a3d e7e3 2a3d
00000100: 15c0 93bc 3a98 3dbd af94 5cbd 361d ff3c
00000110: 000c 53bd ab5e b93d e88b 123d 61ed 4abc
00000120: 4356 7b3d b411 893d 2837 6e3d 8da1 433c
00000130: 4598 993d 3fcf 74bc 3871 d6b9 7a0f 813d
00000140: 9c3d cc3c b894 943c de7b 403c 8f5c 463d
00000150: 658f 763d 7933 64bd 0c72 513d c477 53bd
00000160: c858 363b cb93 903d 41f2 b8bd 4ba6 a3bc
00000170: 9fd8 f43d 1681 353d bcd2 133d ca02 8dbb
00000180: afaf 5b3d 73c1 debc 2bf1 0dbd a27d e33c
