crowd_nav/data/output/MambaRL/rl_model.pth (torch, 125432 bytes, 16 tensors)

mambaLayer.A_log f4 [26, 16]
000000 00 00 00 00 18 72 31 3f 54 9f 8c 3f 18 72 b1 3f
       0.0 0.6931472 1.0986123 1.3862944
000010 10 02 ce 3f 60 58 e5 3f 96 13 f9 3f 92 15 05 40
       1.609438 1.7917595 1.9459102 2.0794415
000020 54 9f 0c 40 8e 5d 13 40 1e 77 19 40 b6 08 1f 40
       2.1972246 2.3025851 2.3978953 2.4849067
000030 21 28 24 40 51 e6 28 40 b2 50 2d 40 18 72 31 40
       2.5649493 2.6390574 2.7080503 2.7725887
000040 00 00 00 00 18 72 31 3f 54 9f 8c 3f 18 72 b1 3f
       0.0 0.6931472 1.0986123 1.3862944
000050 10 02 ce 3f 60 58 e5 3f 96 13 f9 3f 92 15 05 40
       1.609438 1.7917595 1.9459102 2.0794415
000060 54 9f 0c 40 8e 5d 13 40 1e 77 19 40 b6 08 1f 40
       2.1972246 2.3025851 2.3978953 2.4849067
000070 21 28 24 40 51 e6 28 40 b2 50 2d 40 18 72 31 40
       2.5649493 2.6390574 2.7080503 2.7725887
000080 00 00 00 00 18 72 31 3f 54 9f 8c 3f 18 72 b1 3f
       0.0 0.6931472 1.0986123 1.3862944
000090 10 02 ce 3f 60 58 e5 3f 96 13 f9 3f 92 15 05 40
       1.609438 1.7917595 1.9459102 2.0794415
0000a0 54 9f 0c 40 8e 5d 13 40 1e 77 19 40 b6 08 1f 40
       2.1972246 2.3025851 2.3978953 2.4849067
0000b0 21 28 24 40 51 e6 28 40 b2 50 2d 40 18 72 31 40
       2.5649493 2.6390574 2.7080503 2.7725887
0000c0 00 00 00 00 18 72 31 3f 54 9f 8c 3f 18 72 b1 3f
       0.0 0.6931472 1.0986123 1.3862944
0000d0 10 02 ce 3f 60 58 e5 3f 96 13 f9 3f 92 15 05 40
       1.609438 1.7917595 1.9459102 2.0794415
0000e0 54 9f 0c 40 8e 5d 13 40 1e 77 19 40 b6 08 1f 40
       2.1972246 2.3025851 2.3978953 2.4849067
0000f0 21 28 24 40 51 e6 28 40 b2 50 2d 40 18 72 31 40
       2.5649493 2.6390574 2.7080503 2.7725887
000100 00 00 00 00 18 72 31 3f 54 9f 8c 3f 18 72 b1 3f
       0.0 0.6931472 1.0986123 1.3862944
000110 10 02 ce 3f 60 58 e5 3f 96 13 f9 3f 92 15 05 40
       1.609438 1.7917595 1.9459102 2.0794415
000120 54 9f 0c 40 8e 5d 13 40 1e 77 19 40 b6 08 1f 40
       2.1972246 2.3025851 2.3978953 2.4849067
000130 21 28 24 40 51 e6 28 40 b2 50 2d 40 18 72 31 40
       2.5649493 2.6390574 2.7080503 2.7725887
000140 00 00 00 00 18 72 31 3f 54 9f 8c 3f 18 72 b1 3f
       0.0 0.6931472 1.0986123 1.3862944
000150 10 02 ce 3f 60 58 e5 3f 96 13 f9 3f 92 15 05 40
       1.609438 1.7917595 1.9459102 2.0794415
000160 54 9f 0c 40 8e 5d 13 40 1e 77 19 40 b6 08 1f 40
       2.1972246 2.3025851 2.3978953 2.4849067
000170 21 28 24 40 51 e6 28 40 b2 50 2d 40 18 72 31 40
       2.5649493 2.6390574 2.7080503 2.7725887
000180 00 00 00 00 18 72 31 3f 54 9f 8c 3f 18 72 b1 3f
       0.0 0.6931472 1.0986123 1.3862944
000190 10 02 ce 3f 60 58 e5 3f 96 13 f9 3f 92 15 05 40
       1.609438 1.7917595 1.9459102 2.0794415
0001a0 54 9f 0c 40 8e 5d 13 40 1e 77 19 40 b6 08 1f 40
       2.1972246 2.3025851 2.3978953 2.4849067
0001b0 21 28 24 40 51 e6 28 40 b2 50 2d 40 18 72 31 40
       2.5649493 2.6390574 2.7080503 2.7725887
0001c0 00 00 00 00 18 72 31 3f 54 9f 8c 3f 18 72 b1 3f
       0.0 0.6931472 1.0986123 1.3862944
0001d0 10 02 ce 3f 60 58 e5 3f 96 13 f9 3f 92 15 05 40
       1.609438 1.7917595 1.9459102 2.0794415
0001e0 54 9f 0c 40 8e 5d 13 40 1e 77 19 40 b6 08 1f 40
       2.1972246 2.3025851 2.3978953 2.4849067
0001f0 21 28 24 40 51 e6 28 40 b2 50 2d 40 18 72 31 40
       2.5649493 2.6390574 2.7080503 2.7725887
000200 00 00 00 00 18 72 31 3f 54 9f 8c 3f 18 72 b1 3f
       0.0 0.6931472 1.0986123 1.3862944
000210 10 02 ce 3f 60 58 e5 3f 96 13 f9 3f 92 15 05 40
       1.609438 1.7917595 1.9459102 2.0794415
000220 54 9f 0c 40 8e 5d 13 40 1e 77 19 40 b6 08 1f 40
       2.1972246 2.3025851 2.3978953 2.4849067
000230 21 28 24 40 51 e6 28 40 b2 50 2d 40 18 72 31 40
       2.5649493 2.6390574 2.7080503 2.7725887
000240 00 00 00 00 18 72 31 3f 54 9f 8c 3f 18 72 b1 3f
       0.0 0.6931472 1.0986123 1.3862944
000250 10 02 ce 3f 60 58 e5 3f 96 13 f9 3f 92 15 05 40
       1.609438 1.7917595 1.9459102 2.0794415
000260 54 9f 0c 40 8e 5d 13 40 1e 77 19 40 b6 08 1f 40
       2.1972246 2.3025851 2.3978953 2.4849067
000270 21 28 24 40 51 e6 28 40 b2 50 2d 40 18 72 31 40
       2.5649493 2.6390574 2.7080503 2.7725887
000280 00 00 00 00 18 72 31 3f 54 9f 8c 3f 18 72 b1 3f
       0.0 0.6931472 1.0986123 1.3862944
000290 10 02 ce 3f 60 58 e5 3f 96 13 f9 3f 92 15 05 40
       1.609438 1.7917595 1.9459102 2.0794415
0002a0 54 9f 0c 40 8e 5d 13 40 1e 77 19 40 b6 08 1f 40
       2.1972246 2.3025851 2.3978953 2.4849067
0002b0 21 28 24 40 51 e6 28 40 b2 50 2d 40 18 72 31 40
       2.5649493 2.6390574 2.7080503 2.7725887
0002c0 00 00 00 00 18 72 31 3f 54 9f 8c 3f 18 72 b1 3f
       0.0 0.6931472 1.0986123 1.3862944
0002d0 10 02 ce 3f 60 58 e5 3f 96 13 f9 3f 92 15 05 40
       1.609438 1.7917595 1.9459102 2.0794415
0002e0 54 9f 0c 40 8e 5d 13 40 1e 77 19 40 b6 08 1f 40
       2.1972246 2.3025851 2.3978953 2.4849067
0002f0 21 28 24 40 51 e6 28 40 b2 50 2d 40 18 72 31 40
       2.5649493 2.6390574 2.7080503 2.7725887
000300 00 00 00 00 18 72 31 3f 54 9f 8c 3f 18 72 b1 3f
       0.0 0.6931472 1.0986123 1.3862944
000310 10 02 ce 3f 60 58 e5 3f 96 13 f9 3f 92 15 05 40
       1.609438 1.7917595 1.9459102 2.0794415
000320 54 9f 0c 40 8e 5d 13 40 1e 77 19 40 b6 08 1f 40
       2.1972246 2.3025851 2.3978953 2.4849067
000330 21 28 24 40 51 e6 28 40 b2 50 2d 40 18 72 31 40
       2.5649493 2.6390574 2.7080503 2.7725887
000340 00 00 00 00 18 72 31 3f 54 9f 8c 3f 18 72 b1 3f
       0.0 0.6931472 1.0986123 1.3862944
000350 10 02 ce 3f 60 58 e5 3f 96 13 f9 3f 92 15 05 40
       1.609438 1.7917595 1.9459102 2.0794415
000360 54 9f 0c 40 8e 5d 13 40 1e 77 19 40 b6 08 1f 40
       2.1972246 2.3025851 2.3978953 2.4849067
000370 21 28 24 40 51 e6 28 40 b2 50 2d 40 18 72 31 40
       2.5649493 2.6390574 2.7080503 2.7725887
000380 00 00 00 00 18 72 31 3f 54 9f 8c 3f 18 72 b1 3f
       0.0 0.6931472 1.0986123 1.3862944
000390 10 02 ce 3f 60 58 e5 3f 96 13 f9 3f 92 15 05 40
       1.609438 1.7917595 1.9459102 2.0794415
0003a0 54 9f 0c 40 8e 5d 13 40 1e 77 19 40 b6 08 1f 40
       2.1972246 2.3025851 2.3978953 2.4849067
0003b0 21 28 24 40 51 e6 28 40 b2 50 2d 40 18 72 31 40
       2.5649493 2.6390574 2.7080503 2.7725887
0003c0 00 00 00 00 18 72 31 3f 54 9f 8c 3f 18 72 b1 3f
       0.0 0.6931472 1.0986123 1.3862944
0003d0 10 02 ce 3f 60 58 e5 3f 96 13 f9 3f 92 15 05 40
       1.609438 1.7917595 1.9459102 2.0794415
0003e0 54 9f 0c 40 8e 5d 13 40 1e 77 19 40 b6 08 1f 40
       2.1972246 2.3025851 2.3978953 2.4849067
0003f0 21 28 24 40 51 e6 28 40 b2 50 2d 40 18 72 31 40
       2.5649493 2.6390574 2.7080503 2.7725887

mambaLayer.D f4 [26]
000000 dc 3a 80 3f e6 02 80 3f f2 b5 85 3f a1 1f 80 3f
       1.0017962 1.0000885 1.044615 1.0009652
000010 49 52 8b 3f 40 a2 8e 3f 55 bb 86 3f 25 de 80 3f
       1.0884486 1.1143265 1.0525919 1.0067793
000020 29 f9 7f 3f 6b 7a 8b 3f 5b b3 7e 3f c7 c6 92 3f
       0.99989563 1.0896734 0.99492425 1.1466912
000030 b0 f4 80 3f b5 fc 88 3f 6e e7 7f 3f 50 33 80 3f
       1.0074673 1.070212 0.9996251 1.0015659
000040 0a 25 83 3f c2 a1 84 3f 09 1c 87 3f 50 40 86 3f
       1.0245678 1.0361865 1.0555431 1.0488377
000050 cb b8 81 3f a3 02 80 3f 33 7f 81 3f 04 4a 81 3f
       1.0134519 1.0000805 1.0116943 1.0100713
000060 ed 26 81 3f ac 6b 80 3f
       1.0090004 1.0032859

mambaLayer.in_proj.weight f4 [52, 13]
000000 45 96 59 3c 43 58 8e 3e 56 12 60 3e 33 3c 4b be
       0.013280456 0.27801713 0.21881995 -0.19847183
000010 12 d2 43 bd 40 c2 31 3e 30 e0 6c be 9a 6c 22 be
       -0.04780776 0.17359257 -0.23132396 -0.1586174
000020 fc bb 1c 3d 3d 0e a7 bd 90 65 2d 3e d1 29 d9 3d
       0.038265213 -0.081570126 0.16933274 0.10603679
000030 a2 9d 7b bd f9 76 d8 bc 4d a1 66 be 28 c7 62 be
       -0.061429627 -0.026423918 -0.22522469 -0.22146285
000040 f7 1f 13 be d1 13 b7 bd 89 00 56 be 34 6f a2 bd
       -0.14367662 -0.089393266 -0.20898642 -0.079313666
000050 15 e2 51 bc 96 dc d4 3d a2 e0 66 be d4 9d 75 be
       -0.01281025 0.10393636 -0.22546628 -0.23985988
000060 30 8b 97 3d 60 11 36 3e 42 94 84 be 99 03 c0 3d
       0.07399595 0.17780066 -0.25894362 0.09375686
000070 ef 33 68 be d9 d4 da 3d c5 59 21 3d 3b da 5a 3e
       -0.22676061 0.10685129 0.03939225 0.21372311
000080 48 1e 7c bc f6 bb 67 be de 69 9f be d5 7c 8d 3e
       -0.015388079 -0.22630295 -0.31135458 0.27634302
000090 ae 90 81 3e 0e d8 2e bc 62 1b 89 be 39 b9 2f 3e
       0.25305694 -0.010671629 -0.26778704 0.171605
0000a0 68 e6 89 3e 86 9e 46 be ba 90 6b be 56 e0 fc 3d
       0.269336 -0.1939641 -0.23004428 0.12347476
0000b0 fb 17 fc 3d 35 76 10 bd d7 f1 70 3c f2 bd 3a 3e
       0.123092614 -0.03526898 0.014706097 0.18236521
0000c0 71 e1 5d 3e b6 7c 26 be e7 ae 9c 3c 74 21 80 be
       0.2166803 -0.16258511 0.019126369 -0.25025523
0000d0 35 22 0b be 9c 95 24 3e 5a e1 3b be 41 b0 69 be
       -0.13587268 0.16072696 -0.18347684 -0.22821142
0000e0 81 f4 0b bc 1f 89 31 be 69 10 d6 bd ea f0 58 be
       -0.008542181 -0.17337464 -0.10452349 -0.21185651
0000f0 69 8a 2c be 92 ed a0 3e 15 c0 ce 3d b3 0a 10 bf
       -0.16849674 0.31431252 0.100952305 -0.56266326
000100 b6 90 88 be aa 58 ed 3d a7 d8 9d bd 53 5d 44 bd
       -0.26672906 0.11589177 -0.07707339 -0.047940563
000110 3a be 89 3e d0 43 51 bd 2a e6 2a be f9 fb e3 3e
       0.26902944 -0.05109006 -0.16689363 0.44528177
000120 e1 ca e3 3c 4f 2b 09 3c 71 ff a4 bd cd 6a 11 3e
       0.027806701 0.008372142 -0.08056534 0.14200898
000130 b4 8a 97 be a5 d2 96 3d dd 4a 8f 3c 91 c7 6f be
       -0.2959801 0.07364396 0.017491752 -0.23415972
000140 bb ea 8d 3d 1a 71 96 3d be 95 67 be 9b 94 ff 3c
       0.06929537 0.07345791 -0.22615716 0.03119879
000150 af ff 38 3e ba b6 12 3d e3 ba 6b 3c f3 a1 97 bb
       0.18066286 0.035818793 0.014387819 -0.00462746
000160 32 e3 61 bd 60 31 15 3d 5b cd bc bb 3b 4a 86 be
       -0.05514831 0.03642404 -0.005761785 -0.26228508
000170 3a f8 77 bc 40 ac f3 3d 7e 1a 44 3d cb 8c 92 bd
       -0.015134865 0.118980885 0.047876827 -0.071557604
000180 4e 97 5c bd b2 c1 4e 3e 56 7c df 3d b3 1e a8 bd
       -0.053855233 0.20191076 0.10912387 -0.082089804
000190 d2 ee 33 be 63 44 7a be be 61 42 bd 9b 1e 53 be
       -0.17571571 -0.2444015 -0.047456495 -0.20617144
0001a0 aa cf 3b 3d 6b 1f dc bd 2a f6 2c be 2c 9f 2e 3d
       0.04585234 -0.1074818 -0.16890779 0.042632267
0001b0 3d 7e 2d be bc 2a 81 be cd 7f dc 3d 48 37 0f be
       -0.16942687 -0.25227916 0.107665636 -0.13985932
0001c0 16 b5 62 be 8a c6 5e be f1 88 24 3e b7 73 91 3d
       -0.22139391 -0.21755424 0.16067864 0.07102149
0001d0 20 26 74 3e 02 fa da bb 5d c4 b3 be f0 22 20 3e
       0.23842669 -0.0066826353 -0.3511075 0.15638328
0001e0 c1 21 19 3e 1f f3 71 be 6f 53 05 bd 2b 6e 37 3e
       0.14954282 -0.236279 -0.03255027 0.1791312
0001f0 62 c3 3b 3e 56 b1 a5 3e a2 d5 7f be 8d 02 62 be
       0.18336251 0.3236186 -0.24983838 -0.22071286
000200 2c d5 a3 be cf 25 08 bd 72 3e 34 3d 71 cf 5e be
       -0.31998575 -0.033239182 0.044004865 -0.2175882
000210 ef 89 ab 3d 68 97 5c be cf b2 73 3e e5 4f 75 be
       0.08375918 -0.21542132 0.23798679 -0.23956259
000220 1d 44 63 3e 04 19 51 be 7a 56 64 3b 16 0a dd bc
       0.22193952 -0.20419699 0.0034841583 -0.026982348
000230 5e 0c 10 3e 40 12 0b be 4a 24 4b 3e 0d f6 1d be
       0.14067218 -0.1358118 0.19838062 -0.15425892
000240 66 a4 1e 3e a4 65 27 3e b5 bb 66 3d 22 f3 2c 3c
       0.154924 0.16347367 0.056331355 0.010556014
000250 b3 eb 3e 3d dd 4b 55 be 6e fe b0 3d fb 7e 46 be
       0.0466115 -0.20829721 0.086422786 -0.19384377
000260 c6 b3 e1 3d d8 d5 ef bd 65 73 02 3f 57 d0 b9 bc
       0.11020617 -0.11710709 0.5095733 -0.022682352
000270 6e e8 d8 3d 22 2a ab 3d cb 87 c1 3d 26 54 5e bd
       0.105912074 0.083576456 0.094497286 -0.05427947
000280 5b e0 18 3e 60 26 59 be f2 98 1e 3d 81 e7 bc bd
       0.14929335 -0.21206045 0.03872008 -0.09223843
000290 10 1d 3e be 6f 88 82 bc 1b b1 4b bd 72 b7 91 3e
       -0.18565774 -0.015934197 -0.049729448 0.2846027
0002a0 0b 50 ab 3d 12 98 6e be 6f 7f 17 bd 55 46 bc 3d
       0.08364876 -0.23300198 -0.036986765 0.09193102
0002b0 e8 79 30 bd d0 7f 8e 3d 93 ba 8a be 47 1f a3 bd
       -0.04308501 0.06957972 -0.2709547 -0.0796495
0002c0 b7 2d 8c 3e 6b 1e 84 be b6 4f 98 be 77 69 2b be
       0.27378628 -0.25804457 -0.29748315 -0.1673945
0002d0 20 b7 01 ba a0 a3 89 bc a0 9c 54 3d 0a 54 9b 3d
       -0.0004948247 -0.016801655 0.05190718 0.075843886
0002e0 dd 90 81 be 20 1b a2 3d cf c8 1f 3e 82 f8 50 be
       -0.25305834 0.0791533 0.15603946 -0.20407298
0002f0 03 9f fa 3c a9 e0 e7 3d 1a 7c 66 bd 43 9b f3 3d
       0.0305934 0.113221474 -0.056270696 0.11894848
000300 cf 0c 33 be 9b 09 63 3e 71 a6 48 be 94 cb d7 bd
       -0.17485355 0.22171633 -0.19594742 -0.10536876
000310 a1 77 97 3d fa 96 28 3e 3f 56 fe 3c 28 29 e7 bd
       0.07395864 0.16463843 0.031046985 -0.11287147
000320 29 7e ca 3d 60 ea 60 bd f2 4b 1c 3e 26 81 7b be
       0.098873444 -0.054911017 0.15263346 -0.24560985
000330 0b 4f 0f be 90 22 dd 3d 8d 20 fe 3d 76 c0 3e 3e
       -0.13994996 0.10797608 0.12408552 0.18628106
000340 1e dc bd 3a b3 f7 76 3e c6 6e 0d bd c7 cd 3f bd
       0.0014485156 0.24117927 -0.03452947 -0.046827104
000350 9c 76 a2 bd d9 17 56 be 1e da c2 bd 91 19 2e bd
       -0.07932779 -0.20907535 -0.09514259 -0.04250485
000360 d0 36 92 3d af d8 9f 3e 9f 9e 08 be 9d b8 37 be
       0.07139361 0.31220004 -0.13341759 -0.17941518
000370 ec b2 89 3e 78 f8 33 3e ae 6b 8b be 4c d2 25 be
       0.2689432 0.17575252 -0.2723059 -0.16193503
000380 8a 7f 66 be 87 45 45 be 08 cd 5b 3e 8e e7 52 3e
       -0.2250959 -0.19264804 0.21464932 0.20596144
000390 7d 46 b9 bd 60 ce 8f 3e 7b 1d 46 3d 88 26 db 3d
       -0.09046648 0.2808714 0.04836796 0.10700709
0003a0 f0 7f ab be 41 a3 2b bd 30 39 27 3e 71 5a 13 3e
       -0.33496046 -0.041903738 0.16330409 0.1438997
0003b0 2e 1e 97 bc e4 1e 79 be 5e 77 82 3d 72 c2 66 bd
       -0.018447008 -0.2432819 0.06370424 -0.05633778
0003c0 f5 2a 61 3c ea 35 31 3e f9 5e 35 3e f7 d8 d8 3b
       0.013743152 0.17305723 0.1771201 0.006617661
0003d0 5e e9 1a 3e 91 c2 2e 3e c7 a4 8b 3b 01 26 9a bd
       0.15128085 0.17066409 0.0042615863 -0.0752678
0003e0 e6 37 0a 3e fc 43 79 3e 08 f7 a7 3d c9 8a 43 3e
       0.13497886 0.2434234 0.08201414 0.19095911
0003f0 d2 36 60 be b5 30 9d bb 30 df 10 be d6 6d f2 3d
       -0.21895912 -0.004797066 -0.1414764 0.11837356

mambaLayer.conv1d.weight f4 [26, 1, 4]
000000 54 a6 19 be a2 6e 98 3e 00 f2 96 bc c0 27 0c be
       -0.15004855 0.29771906 -0.018425941 -0.13687038
000010 26 a8 af 3e 00 1f bf 3c ce ef c2 3e 24 ec 24 be
       0.34307975 0.023330212 0.3807358 -0.16105705
000020 08 c6 43 3e d4 75 0f 3e 0c b0 4c 3e ae d7 12 bf
       0.19118512 0.14009792 0.19989032 -0.5736035
000030 82 e1 d6 3e f0 8e bb 3e 84 97 af be 4f 37 80 3d
       0.41968924 0.3663249 -0.34295285 0.06260549
000040 c0 97 c0 bd 30 2f 45 be 08 8d 8b 3e b2 6b 06 3f
       -0.09403944 -0.19256282 0.27256036 0.5250808
000050 74 30 b1 be 32 17 a6 be d0 2d ce be 62 8a 30 3f
       -0.3460728 -0.32439572 -0.40269327 0.68961155
000060 e8 f2 dc 3e d0 fd e1 3e 08 d3 fd 3d a9 83 bf bd
       0.43154073 0.44138956 0.12393767 -0.09351284
000070 02 e0 db be c2 9c e0 3e a4 bc f9 be 10 eb 91 3e
       -0.42944342 0.43869597 -0.48776734 0.2849965
000080 14 d6 d8 3e 64 cd e9 3e e8 91 e1 be f6 f8 3d be
       0.4235083 0.45664513 -0.4405663 -0.18552002
000090 a4 a4 df be 3c 8a f7 be 88 18 91 bd f2 ad 06 bf
       -0.43680298 -0.48347652 -0.07084757 -0.5260917
0000a0 a0 91 be 3d 44 42 44 be c0 75 e5 3e 62 d0 ca 3d
       0.093051195 -0.19165903 0.448164 0.09903027
0000b0 b8 e3 aa be 30 1a b7 be 14 6b 54 be d3 69 f3 be
       -0.3337686 -0.35762167 -0.20743972 -0.47541675
0000c0 00 37 4a bd c4 c3 b3 be 00 e9 95 be 71 5b 39 be
       -0.04936886 -0.35110295 -0.29279327 -0.18101288
0000d0 2c 62 c7 3e 04 f3 11 3e 5a ab cb 3e 4d 56 06 bf
       0.38942087 0.1425286 0.39779168 -0.52475435
0000e0 68 c4 b0 3d 7a 8b 99 3e 22 75 d5 3e 35 87 47 bd
       0.086312115 0.29989225 0.41690928 -0.048712928
0000f0 86 9c 80 3e 00 d7 ac 3d 56 43 a8 3e 31 6d 83 3e
       0.25119418 0.084394455 0.32863873 0.25669244
000100 e4 55 06 3e 8c ba b3 3e 4a dd de 3e ca ae bb be
       0.13118702 0.3510326 0.43528205 -0.3665679
000110 00 fa 97 bc f4 0d 5a be f0 d0 e0 3e 8f 30 04 bf
       -0.018551826 -0.21294385 0.43909407 -0.51636595
000120 1c cd 14 3e d0 df d7 3e 60 d2 c5 be 3d f3 aa 3e
       0.14531368 0.42162943 -0.38637066 0.333887
000130 08 d0 d7 3d a0 fa 36 be 80 c6 ea 3c df 2c de be
       0.10537726 -0.17869043 0.028659105 -0.4339361
000140 f8 87 a7 bd fc 41 f1 be 22 ae 98 be 8c ac 87 be
       -0.08180231 -0.47120655 -0.29820353 -0.2649883
000150 e0 be 27 3e 16 cc 98 3e 60 83 12 be d1 eb c8 bd
       0.16381407 0.29843205 -0.14307928 -0.098106034
000160 00 ac 5d be 60 37 71 be d8 b1 07 be f1 41 de be
       -0.21647644 -0.2355628 -0.13251436 -0.43409684
000170 a4 89 f0 3e 80 b8 96 bb 8c 51 93 be 70 34 ca be
       0.4698001 -0.004599631 -0.28773153 -0.39493132
000180 7c 61 a2 3e 6a 04 d0 3e 40 1e 0b bc 6f 3f 13 3e
       0.31715 0.40628368 -0.008491099 0.14379667
000190 20 0c 33 bd b8 a6 83 3d 70 95 14 bd e5 60 d0 be
       -0.043712735 0.064282835 -0.036275327 -0.40698925

mambaLayer.conv1d.bias f4 [26]
000000 50 39 1c be f1 0d 97 be b6 c8 8f be d8 d3 c7 be
       -0.15256238 -0.29502824 -0.28082818 -0.3902881
000010 73 2f 8b 3e 10 48 d0 3e fb a8 04 bf 77 d0 f1 be
       0.27184638 0.4067998 -0.51820344 -0.4722936
000020 6b 11 a5 3d c7 26 9e 3e 61 b0 4a 3d 45 c0 02 3f
       0.08059963 0.3088896 0.049484614 0.5107463
000030 dd 85 82 bd 48 de d1 3e 16 82 a1 bd 09 36 7a bd
       -0.06373189 0.409899 -0.0788614 -0.06108669
000040 c0 c8 c0 be 4f 11 89 3d 2a 03 93 3e e4 41 2e 3e
       -0.3765316 0.066927545 0.2871335 0.17017323
000050 e2 42 9f be 94 de ba bd 5f 61 a9 3e f8 81 57 3e
       -0.31105715 -0.09124485 0.330821 0.21045673
000060 c4 7e 87 3e 81 e4 45 be
       0.26463902 -0.19325449

mambaLayer.x_proj.weight f4 [33, 26]
000000 e8 5b 63 bd ea 2f 24 3e c2 1d d7 3d 5e 06 d4 3d
       -0.05550757 0.16033903 0.10503723 0.10352777
000010 45 0a fd 3d e8 79 46 be 63 8c 80 3a fc 2a 26 bc
       0.123554744 -0.19382441 0.0009807464 -0.010142084
000020 78 0d d0 bd 20 74 4a bd 9f 2e 2e bd fd f5 18 be
       -0.10158819 -0.04942715 -0.04252493 -0.14937587
000030 cd 7f 1c be 29 69 0b bc a0 ea 9b bd a5 7b 01 3d
       -0.15283127 -0.008508959 -0.076131105 0.031612057
000040 41 49 0d 3e 29 ec c2 3d 59 54 9b 3c a8 1c cc 3d
       0.13797475 0.095177 0.018961119 0.09966403
000050 70 1b ec ba f3 46 45 3e d1 5f d9 3d a2 4e 61 bd
       -0.0018013548 0.19265346 0.10613979 -0.05500663
000060 77 3f f8 bd e6 2c 78 bd 16 a6 15 be e1 50 b9 bc
       -0.1212148 -0.060589693 -0.14614138 -0.022621574
000070 f2 09 a1 3c 89 34 22 3e 16 71 81 3d 72 f7 f2 bc
       0.019658063 0.15840353 0.063203976 -0.029659007
000080 66 5f db bb e0 42 3d 3b 5b f0 2b be e9 46 2f 3e
       -0.006694722 0.0028878972 -0.16790907 0.17116894
000090 1a be 65 3d 47 4e da bd 92 93 1e be ab 90 0e bd
       0.056089498 -0.106594615 -0.15485981 -0.034805935
0000a0 f4 c1 f2 3d 6b 2a ea bd 21 30 76 3d d5 d2 42 3e
       0.118534 -0.11433872 0.060104493 0.19025739
0000b0 38 dc 3c be 48 aa 0b be 84 17 c6 3c 58 94 32 be
       -0.18443382 -0.13639176 0.024181135 -0.17439401
0000c0 61 01 e0 bd 97 c7 ee bc a3 23 21 be 3d b8 3a 3c
       -0.10937763 -0.029147906 -0.1573625 0.011396465
0000d0 ba 34 e2 3d 6c 1d d1 bc c9 58 a0 bd 4a c6 82 3d
       0.11045213 -0.025526725 -0.078294344 0.06385477
0000e0 ef d2 fe bd 87 e9 30 be 5a cd 13 bd b0 b4 1e be
       -0.12442576 -0.17276584 -0.03608451 -0.15498614
0000f0 a6 94 f5 3d 00 98 32 3e 6a 8b bd 3d cc f3 02 be
       0.11991243 0.17440796 0.09255107 -0.12788314
000100 79 80 1c 3e 79 34 32 3e 03 c0 74 3c 3f 64 c1 3d
       0.15283383 0.17402829 0.014938357 0.094429485
000110 50 59 10 3d 6a 7e 10 3e a7 93 9e bc 68 63 34 3e
       0.035241425 0.14110723 -0.019357515 0.17616045
000120 bd c7 7d 3d 43 4c 23 be d8 d7 36 3e 8f 36 10 3d
       0.061958063 -0.1594706 0.17855775 0.03520828
000130 ce c0 15 3e 6b 0d d6 bd 6b 5d 45 3e 59 cb 20 3e
       0.1462433 -0.10451778 0.19273917 0.15702571
000140 2f 33 64 bd a1 f1 89 bd b4 bd 6b bd fb ba 0c 3e
       -0.055712875 -0.0673554 -0.057553962 0.13743202
000150 27 cc 72 3d 26 ba 31 bc 6b 49 91 bd 5f 44 e8 bd
       0.059276726 -0.010847604 -0.070940815 -0.11341166
000160 ec ba a4 bd b2 44 23 3d e4 7f 90 3d 1d 43 12 3e
       -0.08043465 0.039860435 0.07055643 0.14283414
000170 0e 42 cc 3d d7 cd dc 3b c9 d2 1a be 8f 5a 16 3d
       0.099735364 0.006738405 -0.1511947 0.036707457
000180 d3 1c bd 3d 23 18 22 be ee 77 0b bd 0b 67 8e bc
       0.092340134 -0.1582952 -0.03404992 -0.01738312
000190 3e 23 73 3b 8f 83 08 be ea b9 95 3d fb 06 d0 3d
       0.0037099863 -0.13331436 0.07310851 0.101575814
0001a0 d0 5d 01 3e a2 12 79 3d a6 86 0e bb 1a 7b 44 3e
       0.12633443 0.060808785 -0.0021747737 0.19187585
0001b0 87 9c 02 3d 9b ca 25 3e bb 89 40 be d4 09 75 bd
       0.031887557 0.16190569 -0.1880254 -0.059823826
0001c0 cb 12 0c be 8d 23 2d 3e 9a 22 55 bd d2 5e 2c 3e
       -0.13679044 0.16908093 -0.05203495 0.16833046
0001d0 ae 4a 11 be e3 d1 04 3d a2 3d 83 3d 6e 24 75 3d
       -0.14188644 0.032426726 0.0640824 0.059849195
0001e0 51 b5 2e 3e db 73 e5 3d a2 bb cf 3b 23 53 bc 3c
       0.17061354 0.11203738 0.0063395062 0.022988861
0001f0 01 e2 41 3c cb 06 19 3e ce 71 39 be e1 31 47 be
       0.011833669 0.14943998 -0.1810982 -0.19452621
000200 e0 38 3f 3b 4e 02 44 be 77 4d d5 bc 34 67 6c 3d
       0.0029178187 -0.19141504 -0.026037915 0.05771561
000210 36 7c d7 bd 9f 28 19 be 08 7c d8 bc d4 31 ed bd
       -0.10521738 -0.14956902 -0.02642633 -0.115817696
000220 a2 eb e1 bb 58 61 b4 bd 3a a4 a7 bb 87 fb c0 bc
       -0.0068945447 -0.08807629 -0.005116013 -0.023557438
000230 91 7f 8c 3d c7 fb 9e 3d 7e 39 06 3d 65 28 b0 3d
       0.06860269 0.077628665 0.032769673 0.08601455
000240 de 95 d7 bc 28 3c 39 3d f8 36 d3 bd 1f e5 18 3e
       -0.02631658 0.045223385 -0.10313219 0.14931153
000250 c9 f0 3e bd ff 1c 10 3e c8 8d 0f 3e c1 90 9e bd
       -0.04661635 0.14073561 0.14018929 -0.07742453
000260 43 14 98 3c 1e 83 eb bd 4a bf f3 bd 1e 96 d8 ba
       0.018564349 -0.11499618 -0.1190172 -0.0016524231
000270 47 31 2b 3e 24 e7 0b 3e 8d f4 3f be b5 16 dd bd
       0.16718017 0.13662392 -0.18745632 -0.10795347
000280 a4 28 06 3d 04 62 cd 3d d0 e7 f4 bd 2e 3a 02 3d
       0.0327536 0.100284606 -0.11958277 0.031793766
000290 4d 6e bc 3d 50 5f b2 bd f9 08 0b be 28 ee 20 3d
       0.09200726 -0.08709586 -0.13577642 0.039289623
0002a0 31 12 c3 bd e4 b8 52 bd 99 f0 17 3e 6c 5d 29 3e
       -0.09524954 -0.051445857 0.14837874 0.16539544
0002b0 48 65 6c 3b ba a3 2e 3e 44 c2 0a 3e 60 32 fd bb
       0.003607111 0.17054644 0.13550669 -0.0077269524
0002c0 35 d8 4a 3e 66 e0 3e 3e f6 47 15 3e 20 bf 47 be
       0.19809039 0.18640289 0.14578232 -0.19506502
0002d0 62 18 40 3e 69 5b b1 bb f2 42 3d 3e e5 a8 10 be
       0.18759301 -0.0054125083 0.18482569 -0.14126928
0002e0 a8 a4 48 bc 0f d5 06 be ce c3 3f be 7f 19 31 3d
       -0.012246288 -0.13167213 -0.18727037 0.043237206
0002f0 e7 fb 12 bd e3 d2 69 3d fb ef 47 be 4c 70 39 bd
       -0.035884764 0.057085883 -0.19525139 -0.04527311
000300 3a 7e a3 3d b8 83 2b 3e 3b c0 40 3d 2c 6b 26 be
       0.0798306 0.16749465 0.047058325 -0.1625182
000310 d0 45 22 3e 3c b0 22 bd ea 83 25 3e 3c a1 b2 bd
       0.15846944 -0.03971885 0.16163602 -0.08722159
000320 ff 6d 1f be c7 d9 04 3e f0 94 cf bd b3 c4 08 be
       -0.15569304 0.129737 -0.101358294 -0.13356285
000330 a9 e5 f4 bd 8c 20 fe bd 96 05 30 be f8 a4 38 be
       -0.11957867 -0.124085516 -0.17189631 -0.1803168
000340 7f d1 78 bd e8 b4 92 bd e9 67 84 bd ad f1 a4 bc
       -0.060746666 -0.071634114 -0.06465132 -0.020134771
000350 55 f8 41 3e cf 59 7f 3c 86 bf fb 3d 47 f8 fe bd
       0.18942387 0.015585377 0.122923896 -0.12449699
000360 6f f2 e9 3d 9f 2f 9f 3d bc 1f 03 be 32 41 9b 3d
       0.11423194 0.07772755 -0.12805074 0.075807944
000370 55 d2 4b bd b1 f1 a8 3d be 29 7e bd f6 1d 44 be
       -0.049761135 0.08249224 -0.062051527 -0.19152054
000380 9c 8c 63 3b 6e 62 f2 3d 62 9d e1 3d d1 2b 17 be
       0.003472126 0.1183518 0.110163465 -0.14762808
000390 4e 39 32 be 6b c5 93 ba 38 db 38 be f1 30 1f be
       -0.17404673 -0.0011274045 -0.18052375 -0.15546013
0003a0 b0 df 94 bd 08 c8 67 bd 2f e7 b2 3d df 07 0d be
       -0.072692275 -0.05658725 0.08735501 -0.13772534
0003b0 69 e0 43 be 2d 3b 8a bd 0c c7 bb bd 4a f0 cc bd
       -0.19128574 -0.06749568 -0.091688246 -0.10006769
0003c0 bb 9d 03 be 99 04 01 3d 50 d0 fe 3d 45 80 3b 3c
       -0.12853138 0.031498525 0.12442076 0.011444156
0003d0 39 bc fc 3d 5b b0 73 3d 16 a3 c5 3d b7 db 84 3c
       0.12340588 0.059494358 0.09650247 0.01621805
0003e0 f8 d2 ef 3d 04 25 f9 3d 75 75 7e bd f2 7c 84 bd
       0.11710161 0.12165263 -0.062123735 -0.06469144
0003f0 d4 4f 34 be 88 9c 19 be d5 18 2a be e1 51 d5 bc
       -0.17608577 -0.15001118 -0.16611035 -0.02604002

mambaLayer.dt_proj.weight f4 [26, 1]
000000 0a 5b 1e 3f 6c 45 5e bf 0a a9 2c 3f 16 40 4f 3f
       0.61857665 -0.8682468 0.67445433 0.8095716
000010 32 71 7a 3d 9e 1d 28 bf ec 0e 93 3e 00 fb 05 bd
       0.061143108 -0.6567019 0.28722322 -0.032710075
000020 2a 35 73 bf 82 bd 45 3f d0 26 39 be 14 81 93 3e
       -0.95002997 0.7724229 -0.18081212 0.28809416
000030 80 10 6b be 64 b8 21 bf cc 92 f6 3e 8c 55 a2 be
       -0.22955513 -0.6317198 0.48158872 -0.31705892
000040 b0 95 85 be 9c b7 8d 3e 8a 1d 5d 3f b2 b0 1b 3f
       -0.26090765 0.27679145 0.863732 0.6081649
000050 20 65 a0 be ae 38 1c bf f9 64 83 bc 54 93 11 3f
       -0.31327152 -0.61023986 -0.016039358 0.5686543
000060 44 68 ad 3e 60 6a 5a bd
       0.3386861 -0.053324103

mambaLayer.dt_proj.bias f4 [26]
000000 e6 1b 68 c0 c0 9f cf c0 27 02 6c c0 11 50 c2 c0
       -3.6267028 -6.4882507 -3.6876314 -6.0722737
000010 35 b8 3d c0 17 c9 12 c0 bb a4 88 c0 d6 36 a8 c0
       -2.964368 -2.2935236 -4.2701087 -5.256694
000020 bc 87 b2 c0 a8 14 d9 c0 0a 2b c4 c0 dc 4c 97 c0
       -5.579069 -6.7837715 -6.130254 -4.7281322
000030 2e 4e 92 c0 6a ea c3 c0 b1 99 d9 c0 d3 98 4d c0
       -4.5720434 -6.122365 -6.800011 -3.2124527
000040 64 d1 43 c0 08 9f 47 c0 06 a9 20 c0 71 4d 7a c0
       -3.0596552 -3.1190815 -2.5103164 -3.9109766
000050 fd ef ca c0 95 33 db c0 0a 80 1e c0 dc 18 7b c0
       -6.3417954 -6.8500466 -2.476565 -3.9233923
000060 92 4a 17 c0 46 84 b3 c0
       -2.3639264 -5.6098967

mambaLayer.out_proj.weight f4 [13, 26]
000000 bc 9e 8e ba 65 3e 05 3c d7 5d 13 3e 1b 5e 37 bd
       -0.0010881047 0.008132552 0.14391266 -0.04476748
000010 eb e4 73 be 09 c6 a5 3d 8f cc 62 be 88 fa 4b 3d
       -0.23817794 0.08094413 -0.22148345 0.049799472
000020 e4 f5 9c bd 11 3b fc 3d 6e 4d 28 3e 85 02 08 bd
       -0.076640874 0.123159535 0.16435787 -0.033205528
000030 c3 41 8b bd 4b c1 07 be 1a dc 91 bd 3d b6 61 ba
       -0.067996524 -0.13257329 -0.07122059 -0.00086102245
000040 6d 77 c1 bd 4c 03 e8 bd 8b 95 84 bd 7d 2a 1b be
       -0.09446607 -0.11328754 -0.064738356 -0.15152927
000050 83 ae dc 3d f1 3b 7c bd d2 b8 2b 3e be dd 71 bc
       0.10775473 -0.061580602 0.16769722 -0.01476234
000060 52 13 a3 bd db f5 72 3d c0 94 29 be ad e5 cf 3d
       -0.079626694 0.059316497 -0.1656065 0.10151229
000070 bd 62 6d be 67 9f 14 be 8d 9c 28 3d 0e 9c bc 3d
       -0.23182197 -0.14513932 0.041164923 0.092094526
000080 ab dd b6 3d d2 8a 35 be 43 58 ef 3d 4f f7 98 3e
       0.089289986 -0.17728737 0.116867565 0.2987618
000090 29 ed a7 bd a8 36 f7 bd ff ba ed 3b 1a f8 ed bd
       -0.081995316 -0.12070972 0.0072549577 -0.11619587
0000a0 ad 37 e7 bd 3e 7e 2a 3e 9c 70 32 be 99 eb 31 3d
       -0.11289916 0.1664972 -0.1742577 0.043437574
0000b0 da ef 22 3e 19 e0 8d 3d 08 e2 06 3d 92 d2 a2 3d
       0.15911809 0.06927509 0.032930404 0.07950319
0000c0 44 62 dc 3c 73 56 38 3c f0 cb 95 3b dc 09 59 bd
       0.026902325 0.01125108 0.0045714304 -0.05298792
0000d0 a3 d4 3a bc 09 52 37 be 69 53 66 3e 86 cd 24 3e
       -0.011403236 -0.17902388 0.22492756 0.16094026
0000e0 a9 74 2f 3d 31 33 23 be 3b 24 5f be 6a 85 3d 3e
       0.042835865 -0.15937497 -0.21791165 0.18507925
0000f0 d1 3e 8a 3d 49 72 e8 bd d0 c9 1d 3e 27 67 9c 3d
       0.067502625 -0.11349923 0.15409017 0.07636862
000100 28 a0 30 3e 33 85 21 3e f8 ba 1b be eb cb 02 3e
       0.17248595 0.15773468 -0.15208042 0.12773101
000110 56 8f 66 3e 17 e6 9c 3d 28 81 80 3e 80 92 8b 3e
       0.22515616 0.07661074 0.25098538 0.27260208
000120 62 ec 26 3e b3 55 b5 bd 08 16 3c 3d 48 51 02 3e
       0.1630111 -0.088542365 0.045919448 0.12726319
000130 98 33 28 be 2e aa 05 3e 7d dd d1 bc 84 fc 65 3d
       -0.16425931 0.130532 -0.02561831 0.05614902
000140 3c cb f6 bd 0d 84 34 3e 1f b6 25 3e a1 8f 1c be
       -0.12050483 0.17628498 0.16182755 -0.15289165
000150 00 aa f0 3d 9d b2 11 3c ef 13 0f 3e 22 8f 25 be
       0.11751175 0.008892682 0.13972448 -0.16167882
000160 9b ea 35 3e 72 09 2f 3e 8c 25 22 3d 69 1d 72 bd
       0.17765276 0.17093447 0.03958659 -0.05911008
000170 7e 5e 3d 3c 7b ca ee 3d 3b 85 33 3e 98 f0 4f 3e
       0.011558173 0.11659714 0.17531292 0.20306623
000180 26 51 0b be 01 d4 07 3e d5 88 5d 3e 6a 7c 0a 3e
       -0.13605174 0.13264467 0.21634229 0.13524023
000190 82 74 14 3d b1 f2 11 3e ab 55 a7 bd e3 16 14 3d
       0.036243923 0.14252736 -0.08170637 0.03615464
0001a0 62 11 83 3c fc e4 f7 3c ac 22 ec 3c 81 8f bb bc
       0.0159995 0.030260555 0.028825127 -0.022895576
0001b0 3e 0e be bd 93 10 6a 3e 7d 45 4a be 3a 4d be bd
       -0.0928006 0.22857885 -0.1975307 -0.092920735
0001c0 19 52 3c be d4 90 dd bc 43 f0 36 3e d0 65 98 3e
       -0.18390693 -0.027046598 0.1786509 0.29765177
0001d0 7a 54 49 be 81 7f d3 3d e2 ea 24 bd 49 04 f9 bd
       -0.19661132 0.10327054 -0.040263064 -0.121590205
0001e0 59 9d 00 be e4 7b cd 3d 1a 40 21 3e 94 42 fd bd
       -0.12560023 0.10033396 0.15747109 -0.123662144
0001f0 06 9f 81 bb 9d 3e 0a be bd a8 3e 3e 15 ae ec bd
       -0.0039557246 -0.13500448 0.18619056 -0.11556641
000200 0e 58 68 bd be f6 76 3c 8a f6 00 be 47 51 a5 bd
       -0.0567246 0.015073476 -0.12594047 -0.08072143
000210 a1 67 51 bc 81 92 bc bd 0f 94 ec 3d 76 fc 55 3e
       -0.012781055 -0.09207631 0.115516774 0.20897087
000220 e5 07 91 3e e7 6e 21 bc 15 04 2e 3e 20 dc 1a 3d
       0.28326336 -0.009853101 0.16993745 0.037807584
000230 7d 9c 85 bc 1e 30 97 bc fa be c9 3d 25 fa 1d bd
       -0.016309971 -0.018455561 0.09850879 -0.038568635
000240 59 75 db 3d 07 6d 08 3e be 18 98 bd 99 0c 35 be
       0.10715742 0.1332284 -0.07426594 -0.17680587
000250 fd 77 b9 bd 26 5b 87 bd 3d 93 f7 3b 10 4b 64 bd
       -0.09056089 -0.06609182 0.007555394 -0.055735648
000260 3e 58 ae 3c 53 89 e5 3c 0e ee f9 3d 06 a4 13 3e
       0.021282312 0.028019583 0.122036085 0.14418039
000270 21 72 f7 3d ac d9 28 3e 27 4d 8e be e3 77 21 bd
       0.12082315 0.16489285 -0.27793238 -0.039420974
000280 7f a3 be 3d 63 1f 24 3d d3 07 7a 3e a7 0e e3 bd
       0.09308528 0.040068995 0.24417047 -0.11086779
000290 3f 6a 83 bd 43 f9 7b 3e 8b b9 d7 3d f6 8d 83 be
       -0.06416749 0.24606805 0.105334364 -0.25694245
0002a0 99 96 dc bd 61 3a df bd 93 34 49 bc 07 79 0a be
       -0.10770912 -0.10899807 -0.012280601 -0.13522731
0002b0 ca 18 1f be 24 56 2f 3d e0 c3 87 3b 0c c2 ec 3c
       -0.155368 0.04280676 0.004143223 0.028901123
0002c0 02 ef 57 be b5 88 8e 3d 05 f2 af bd ae 4f 04 3e
       -0.21087268 0.069596685 -0.085910834 0.1292102
0002d0 7c 40 3b bc 05 cc 55 be 6a 38 4a 3e 74 45 51 3d
       -0.0114289485 -0.20878609 0.19748083 0.051091626
0002e0 da 0b 61 3d 9a 55 22 be b4 8b 85 3e ed 13 8a be
       0.054942943 -0.15852967 0.26083148 -0.26968327
0002f0 e5 de 13 be 4d a0 11 3e 9e 96 0d be 9a d4 89 3d
       -0.14440496 0.14221306 -0.13826987 0.06730004
000300 53 6b 36 be 6f 12 f5 3c ad a0 17 be 74 88 28 3e
       -0.17814378 0.029916016 -0.14807387 0.16458303
000310 75 4b 13 be 29 b2 e6 3d b5 b6 b8 3d 60 64 df bd
       -0.14384253 0.1126445 0.090192236 -0.10907817
000320 fa b3 09 3e c4 fd aa 3d b4 ef 38 bc 7d 68 1d be
       0.13447562 0.08349183 -0.011287618 -0.1537189
000330 eb ee 5e be 74 69 7d bd f8 b1 15 be bb d8 19 bd
       -0.21770827 -0.061868146 -0.14618671 -0.037560206
000340 f6 85 09 be d0 7a 0d be 73 ab 44 bd 86 4e 59 bd
       -0.13430008 -0.1381638 -0.04801507 -0.0530534
000350 66 7a 66 3e 51 1e 75 be 26 3f 4f 3e 35 83 eb bd
       0.22507629 -0.23937346 0.20238933 -0.11499635
000360 33 cf 87 bc 42 43 94 3d d6 75 f9 bc 26 6d 37 3e
       -0.016578292 0.07239391 -0.030451696 0.1791273
000370 13 50 cd bd 53 43 0d 3e c2 47 bb 3d e6 de 0b 3e
       -0.100250386 0.13795213 0.09144546 0.13659248
000380 56 e4 46 3e bb ed 84 3d d3 55 fd bd a3 a4 5b 3d
       0.19423041 0.06490656 -0.12369885 0.053623807
000390 64 4c 28 bb 0a e7 fa 3d cf 92 7b 3d 2b db e1 3d
       -0.0025680298 0.122510985 0.061419304 0.11028131
0003a0 13 a7 9c bd 6d 99 bf bd 06 ae 4f 3c 32 d6 54 3d
       -0.076490544 -0.093554355 0.012675768 0.051962085
0003b0 1a 43 1a be 27 99 21 3e 94 33 e8 3d a6 16 e3 bd
       -0.1506466 0.15781079 0.11337963 -0.11088304
0003c0 09 35 bd bd f1 0c 2d 3d 29 35 c4 3d 4c f5 6c 3d
       -0.09238631 0.04224867 0.09580452 0.05785112
0003d0 9d 84 ac 3c 03 f5 02 3e 9b c8 36 be ea 26 b9 bc
       0.021059329 0.12788777 -0.17849962 -0.022601563
0003e0 c3 26 16 be 68 50 85 b9 49 a2 e6 bc ce 87 06 3d
       -0.14663224 -0.00025427644 -0.028153555 0.032844357
0003f0 eb 99 9e bd b5 19 84 3e 22 61 d0 3d 47 01 ed bc
       -0.07744201 0.25800863 0.101747766 -0.028931273

value_network.0.weight f4 [150, 13]
000000 8c df 40 3e 5c de 10 be 88 67 29 be 2f db d0 3d
       0.18835276 -0.14147323 -0.165434 0.10198056
000010 dd 6d 48 3e f7 0d 72 bd c1 7f 3c 3e cc 4d c4 bd
       0.1957316 -0.05909535 0.18408109 -0.09585151
000020 1d 1a 4e be 64 22 8a 3e 10 e8 6c 3e d5 e1 94 bd
       -0.20127149 0.26979363 0.231354 -0.072696365
000030 a7 cc 24 3e 6f 3a 6f bc fb 51 69 be 1b 39 a5 bd
       0.16093694 -0.014601334 -0.2278518 -0.08067533
000040 dc f9 03 bd 7f 7d 6f be 68 e5 80 bd d0 65 40 be
       -0.032220706 -0.23387717 -0.06293756 -0.18788838
000050 f8 94 0e 3e 45 c3 ad 3d 1b a0 04 bd 97 28 e5 3d
       0.13924015 0.0848451 -0.03237925 0.111893825
000060 e0 9c 6b 3e d1 66 b7 3c 53 f9 5d 3c 41 3e 69 be
       0.23009062 0.022387894 0.013548213 -0.22777654
000070 2a 12 81 3e f6 57 de 3c 4f a6 98 be 21 8e de bd
       0.2520917 0.027141552 -0.29814383 -0.10866953
000080 ca 34 4a 3e 83 56 5f 3e 10 1e 93 bc d3 f0 93 3d
       0.197467 0.21810345 -0.01795867 0.07223668
000090 81 af 16 3e 0c 5d 63 bd fd 5c 9d 3c 59 13 73 3e
       0.14715387 -0.05550866 0.01920938 0.2373785
0000a0 31 6e bc 3d 1e 07 5f 3d 49 1b 37 be 84 ca 90 be
       0.09200705 0.054450147 -0.17881502 -0.28279507
0000b0 76 ed 4e 3e 26 ad 5b 3e 80 a6 5a be 77 4f 90 3b
       0.20207772 0.2145277 -0.21352577 0.004404004
0000c0 81 4e 66 be d0 3a 5f 3d f1 f4 87 be b1 c9 8a be
       -0.22490884 0.054499447 -0.26554063 -0.27107003
0000d0 59 b2 36 be 0c 52 f1 3c a4 4f 1a be c5 65 9d bd
       -0.17841472 0.029458068 -0.15069443 -0.076854266
0000e0 21 6d 5a bd c7 ec 7a 3d 49 d0 0e 3e fd 79 26 be
       -0.05332673 0.061260965 0.13946642 -0.16257472
0000f0 70 4c 85 3c d9 18 bb bc c8 02 f1 3d b5 b0 8b 3e
       0.0162718 -0.022838997 0.117681086 0.27283254
000100 8f 05 3b be 3a a6 4a 3e 66 2d 9c bd c3 5b 8e 3e
       -0.18263839 0.19789973 -0.076258466 0.27804384
000110 62 c0 fc bd 1b 40 f7 bc 66 3d e9 bd 1f f8 7b be
       -0.123413816 -0.030181935 -0.11388664 -0.2460637
000120 da 02 96 bd 1b 67 cd 3d f6 ff 33 be 88 3f 8f 3e
       -0.07324763 0.100294314 -0.1757811 0.27978158
000130 7e bf 2f 3e a2 4c b6 bc 43 29 24 be 3b 20 84 bd
       0.17162892 -0.022253338 -0.16031365 -0.0645146
000140 50 54 f2 3d 56 11 f1 3c 4b e7 f2 bc 34 1a 1e 3e
       0.118324876 0.029427212 -0.029651305 0.15439683
000150 11 84 27 3c 9d 4a 2a 3e a5 4b cd bd b5 1f 4b bc
       0.010224358 0.16630025 -0.10024194 -0.012397696
000160 e9 56 72 3d 02 eb 8b be f2 22 19 3e b1 9d 47 be
       0.059164915 -0.27327734 0.14954737 -0.19493748
000170 4c b8 78 bd 23 4d 2f be 8f 8b 8b be a9 69 e4 3c
       -0.060722634 -0.17119269 -0.27254912 0.027882414
000180 ca 96 cc bc 7a ba a1 3d 75 92 0e be 97 a4 10 be
       -0.024974246 0.07896896 -0.13923056 -0.14125286
000190 1b c7 d8 bc 1a ec 9d bd 3c 65 56 3c fd 08 4d 3d
       -0.026462128 -0.077110484 0.01308566 0.0500574
0001a0 6e 03 5a 3e bd ef 88 3e 83 95 1e 3e 6c 51 07 be
       0.21290371 0.26745406 0.15486722 -0.13214654
0001b0 51 d2 d7 3d 6b 4f 3b 3d 19 3a 5e be 2c 30 63 bc
       0.105381615 0.045730036 -0.2170185 -0.013866466
0001c0 af 85 9b 3d e5 e3 e6 3c c2 cb 9c 3a db c4 7d be
       0.075938575 0.02818484 0.001196258 -0.24782126
0001d0 f6 80 16 3e 34 3a 58 3e 07 ba 89 3e cc 5c 27 3e
       0.14697632 0.21115953 0.2689974 0.16343993
0001e0 7b 87 2d 3d 33 47 85 be ad de 92 3e 83 46 fe bd
       0.042365532 -0.26030883 0.28685513 -0.12415793
0001f0 64 e4 65 be cc b6 63 3d 18 02 ca 3c c8 36 d3 3d
       -0.22450405 0.05559425 0.024659202 0.10313183
000200 5e 29 1c bd 0a b6 3d be 08 3c 94 3d 7b 2d 73 3e
       -0.03812539 -0.18526474 0.072380126 0.23747818
000210 de 0d ad b9 94 08 6a be bd 66 5a be 7c 4d ad bd
       -0.00033007463 -0.22854835 -0.21328254 -0.084620446
000220 d2 7a 84 be 2b 0a 7a bc 5b b1 86 be cd c5 52 3e
       -0.25874954 -0.015261213 -0.26307186 0.20583268
000230 ea 75 5b 3d b3 44 85 3e b6 b9 bb 3d f5 9c 8a 3e
       0.05357925 0.26028976 0.09166281 0.27072874
000240 45 86 87 be 60 3a 61 bd 93 bd 95 3d ca 69 0d be
       -0.26469627 -0.05498731 0.07311549 -0.13809887
000250 e8 19 38 3e 72 d2 85 be 42 45 52 3d 1f 59 81 bd
       0.17978632 -0.2613712 0.05133558 -0.063158266
000260 17 22 cc 3d 9b 97 51 3e 51 a2 5c be 6e f6 81 be
       0.099674396 0.20467989 -0.21546294 -0.25383323
000270 60 c4 4a bc e7 a4 06 be fb 69 58 bd 13 65 42 3e
       -0.012375921 -0.13148843 -0.052835446 0.18983869
000280 e9 9a 71 3d ef c2 4e be 7e 68 8c 3d a0 46 55 be
       0.058985624 -0.20191549 0.06855868 -0.20827723
000290 b1 b8 61 3d fc fa 53 be ee d2 2e bd fa a6 b0 bd
       0.055107776 -0.20701212 -0.042681627 -0.08625598
0002a0 db 5c 22 be 95 4e 88 3e cd 3c 54 3e 7b 7f 93 3d
       -0.15855734 0.26622453 0.20726319 0.07202049
0002b0 42 d9 61 3e 5d 44 7b 3e 60 9d 8a 3e fb 55 1b 3e
       0.22055534 0.24537797 0.27073193 0.15169518
0002c0 ce d2 e2 bd 09 c9 87 3e 6e fe 8a be be 26 7c be
       -0.11075364 0.26520565 -0.2714724 -0.24624154
0002d0 f4 fe bc bb 9a a3 78 bc 8e 13 32 bd da 6f f8 3d
       -0.0057676975 -0.015175724 -0.04347568 0.12130709
0002e0 63 13 e4 3d f5 45 be bd f9 1a 4e be 87 53 3d 3e
       0.1113651 -0.09290687 -0.20127477 0.18488894
0002f0 36 ce 65 3e 64 9a dd 3d c4 36 7a bd 2a 31 2b 3e
       0.22441944 0.10820463 -0.061087385 0.16717973
000300 3e 15 39 bc 80 8a 4d 3e e0 35 88 3e d6 5a 54 be
       -0.011296568 0.20072365 0.26603603 -0.20737776
000310 0b 08 43 be 48 04 31 be 5b 0e 83 be f2 6d 88 be
       -0.19046037 -0.1728679 -0.2559689 -0.26646382
000320 ed 68 6e 3e 42 eb 86 bd 84 03 70 3e 70 be d2 3d
       0.23282214 -0.065878406 0.23438841 0.10290229
000330 f3 1c 89 be a7 4d 5f 3e 49 e7 c4 bd fe d6 e4 3d
       -0.267799 0.21806966 -0.09614427 0.11173819
000340 e6 60 7c 3d aa e0 13 3e 27 f7 53 3e f2 6f 87 3e
       0.061615847 0.14441171 0.2069975 0.26452595
000350 f4 fa bd bd b0 4f 10 be 96 cc 23 bb f5 6d 54 bd
       -0.09276381 -0.14092898 -0.002499377 -0.051862676
000360 5b 8e 55 3e 92 69 d3 bd 96 88 e5 bd b9 61 e3 3b
       0.20855086 -0.1032287 -0.11207692 0.0069391397
000370 5c f7 75 be c7 b8 fd bd 71 a5 07 be 26 89 83 be
       -0.24020141 -0.12388759 -0.13246705 -0.25690573
000380 12 d5 41 be cf 23 1d 3d e4 b2 14 be 0a c7 83 3d
       -0.18928936 0.038364228 -0.14521366 0.06434448
000390 75 d5 17 bd 98 df 12 3e b5 e9 c4 3d b9 18 94 be
       -0.037068803 0.14343107 0.096148886 -0.28925112
0003a0 f0 f6 12 3e 4a 2e 3c 3e 44 97 82 be 16 8f d7 bd
       0.14352012 0.18377033 -0.25506032 -0.10525338
0003b0 bb cc 64 3e f2 30 0a bd a5 3d 3a be 11 33 be bc
       0.22343723 -0.033738084 -0.18187578 -0.02321771
0003c0 c2 dd 48 be 09 1f 2c 3c 0a 2c cb 3d 33 cc 81 3e
       -0.19615844 0.010505446 0.09920509 0.25351104
0003d0 30 6b 25 be 45 3e ef 3d bb 7c 0d 3e 7c 7f 2a be
       -0.1615417 0.11681799 0.13817112 -0.16650194
0003e0 0d 71 c7 3d 92 f8 51 be 98 23 0e 3d 24 6a 73 3e
       0.097383596 -0.20504978 0.034701914 0.23770958
0003f0 de 45 5c be e0 4f be 3d 63 ad d0 3d d8 99 8b bd
       -0.21511027 0.09292579 0.10189321 -0.06816453

value_network.0.bias f4 [150]
000000 86 92 55 be 39 06 22 3e 2c c5 02 3e 21 67 8b bb
       -0.20856676 0.15822686 0.12770528 -0.0042542373
000010 14 48 a9 bd 8d f7 bf 3d 89 a5 53 3e 3b 31 54 bc
       -0.08265701 0.093733884 0.20668615 -0.012951191
000020 6a 65 61 be 7a 56 53 bc f3 90 8c be 7e a7 0f bb
       -0.22011343 -0.012899036 -0.27454337 -0.0021919901
000030 80 b8 51 be f3 b7 08 be e8 f2 09 3e 55 54 0d 3d
       -0.20480537 -0.13351421 0.13471568 0.034504253
000040 12 fc 88 3d 31 35 90 3d a9 e6 5a bd 9b c7 90 be
       0.066887036 0.070413955 -0.05344263 -0.28277287
000050 68 d8 8b 3e f9 2b 14 3e 96 3e 1b 3e 00 83 2e 3e
       0.27313542 0.14469899 0.15160593 0.1704216
000060 1d 0c 28 be 0c 1f ea bd b1 fc f1 bd 94 70 51 3e
       -0.16410871 -0.11431703 -0.11815775 0.20453101
000070 0d 44 27 be 5d 74 0d be f3 86 78 3e e2 4c fb bd
       -0.16334553 -0.1381392 0.24270229 -0.122705236
000080 f2 3c 93 bd 41 27 14 be 6d 8d a1 bd 28 8f 42 3e
       -0.07189359 -0.14468099 -0.07888303 0.18999922
000090 05 84 59 3e 8a 52 56 be db b2 4e 3e 8b 78 83 be
       0.21241768 -0.20929924 0.20185415 -0.25677904
0000a0 6e 06 d7 bd b3 44 15 3e 08 b4 cd bd ca 6a 3b be
       -0.10499273 0.14576988 -0.10044104 -0.18302456
0000b0 57 c8 2e 3e 36 71 3b 3e 66 23 d0 bd ae 17 87 be
       0.17068611 0.18304905 -0.10163002 -0.26385254
0000c0 19 3f 6c bd e3 60 03 be 57 d5 71 be 6e 30 19 be
       -0.057677362 -0.12829928 -0.23616539 -0.1495988
0000d0 1e 57 64 be 3d 76 5b 3e 8a 46 7b 3e 8f ca 78 3d
       -0.22298858 0.21431823 0.24538627 0.06074005
0000e0 af 9c 43 3e b5 f1 52 bd ee f4 fe 3d ee 36 52 3d
       0.19102739 -0.05150004 0.124490604 0.051321916
0000f0 34 fb e5 bd 9f d4 23 3d 4c 85 3c 3e 32 aa 5c 3e
       -0.11229554 0.039997693 0.18410224 0.215493
000100 56 b8 e2 3d 49 15 82 3d d0 9a 5d 3e 0b 0d 9a 3c
       0.110703155 0.06351716 0.21641088 0.018805047
000110 ab b4 f6 bc ae 30 88 3e a9 ad a6 3d 07 ca 60 be
       -0.030115446 0.2659964 0.08138592 -0.21952067
000120 9b 55 87 be ae 59 48 3d ba ea 6d bd 68 b5 b4 bd
       -0.264325 0.04891365 -0.05808518 -0.08823663
000130 f9 c5 25 be 1a 0f 82 bd 21 10 db 3b 98 0c 64 be
       -0.16188802 -0.06350537 0.0066852723 -0.22270429
000140 ef bf 77 3d 01 f1 66 be 2e b9 9e bd 32 84 31 bc
       0.060485777 -0.22552873 -0.07750164 -0.0108347405
000150 5f b6 7d 3e c0 4f b0 3d 43 c3 31 3e 49 57 3f be
       0.247766 0.08608961 0.17359643 -0.1868564
000160 c1 da 1f be 0f 81 72 3d 45 c5 4a be 6b 11 47 be
       -0.15610792 0.05920511 -0.19801815 -0.19440238
000170 28 e1 65 3e 9b f3 9d 3c 16 c6 38 3e f9 5d 2c 3e
       0.22449172 0.0192812 0.18044314 0.16832723
000180 fe 89 bc bc f7 f9 2f 3d 19 e3 b5 bc 02 06 6f 3d
       -0.023015019 0.042962994 -0.022203015 0.05835534
000190 c1 7b 2a bd 89 9f 07 3e da b8 f8 bd c5 71 e0 bd
       -0.041621927 0.13244452 -0.12144633 -0.109592
0001a0 96 26 20 bc 82 29 d8 bd 7d 11 9e 3d 30 ec 12 3e
       -0.009774825 -0.10554792 0.077181794 0.14347911
0001b0 c5 56 ea 3d 2b 5d 75 3e 6e a2 37 3e c9 43 8b 3c
       0.11442331 0.23961322 0.17933056 0.017000096
0001c0 64 2e 2e be 35 d6 38 bc 14 0c 14 be 2a 68 3e be
       -0.17009884 -0.01128154 -0.14457732 -0.18594423
0001d0 9c 63 ee bd ec 46 66 3d ff af 35 3e 33 f2 11 3e
       -0.11640093 0.05621998 0.17742918 0.14252548
0001e0 65 3f 0d be f9 71 0d 3e f2 0f 6c 3e 14 f0 7f 3e
       -0.13793714 0.13813008 0.23052958 0.24993926
0001f0 2f f8 dc 3d 77 08 98 3d ae 19 57 be 4c 76 2b 3e
       0.10789525 0.074234895 -0.2100589 0.16744345
000200 cd 92 1a 3e 60 f2 10 be 35 ae 16 3e 91 b9 b1 bd
       0.15095063 -0.14154959 0.14714892 -0.08677972
000210 57 08 21 be 7b 18 6b 3e 30 7e 69 3e bc cc 8b be
       -0.15725838 0.22958557 0.22802043 -0.27304637
000220 00 f1 41 be 6a ef 43 be 2c ac 6b bd ff 54 e7 3d
       -0.1893959 -0.19134298 -0.057537243 0.112955086
000230 b1 8b c2 bc 7d 17 40 bd 28 26 6a bd f4 14 3c 3e
       -0.02374825 -0.0468974 -0.057165295 0.18367368
000240 fa 04 64 be 04 50 76 be 24 6b 12 3e 81 66 8b be
       -0.22267523 -0.24053961 0.14298683 -0.27226642
000250 5a ef 4a 3d 08 1b 94 3e
       0.04954467 0.28926873
