crowd_nav/data/output/checking_mamba/il_model.pth (torch, 125432 bytes, 16 tensors)

mambaLayer.A_log f4 [26, 16]
000000 00 00 00 00 18 72 31 3f 54 9f 8c 3f 18 72 b1 3f
       0.0 0.6931472 1.0986123 1.3862944
000010 10 02 ce 3f 60 58 e5 3f 96 13 f9 3f 92 15 05 40
       1.609438 1.7917595 1.9459102 2.0794415
000020 54 9f 0c 40 8e 5d 13 40 1e 77 19 40 b6 08 1f 40
       2.1972246 2.3025851 2.3978953 2.4849067
000030 21 28 24 40 51 e6 28 40 b2 50 2d 40 18 72 31 40
       2.5649493 2.6390574 2.7080503 2.7725887
000040 00 00 00 00 18 72 31 3f 54 9f 8c 3f 18 72 b1 3f
       0.0 0.6931472 1.0986123 1.3862944
000050 10 02 ce 3f 60 58 e5 3f 96 13 f9 3f 92 15 05 40
       1.609438 1.7917595 1.9459102 2.0794415
000060 54 9f 0c 40 8e 5d 13 40 1e 77 19 40 b6 08 1f 40
       2.1972246 2.3025851 2.3978953 2.4849067
000070 21 28 24 40 51 e6 28 40 b2 50 2d 40 18 72 31 40
       2.5649493 2.6390574 2.7080503 2.7725887
000080 00 00 00 00 18 72 31 3f 54 9f 8c 3f 18 72 b1 3f
       0.0 0.6931472 1.0986123 1.3862944
000090 10 02 ce 3f 60 58 e5 3f 96 13 f9 3f 92 15 05 40
       1.609438 1.7917595 1.9459102 2.0794415
0000a0 54 9f 0c 40 8e 5d 13 40 1e 77 19 40 b6 08 1f 40
       2.1972246 2.3025851 2.3978953 2.4849067
0000b0 21 28 24 40 51 e6 28 40 b2 50 2d 40 18 72 31 40
       2.5649493 2.6390574 2.7080503 2.7725887
0000c0 00 00 00 00 18 72 31 3f 54 9f 8c 3f 18 72 b1 3f
       0.0 0.6931472 1.0986123 1.3862944
0000d0 10 02 ce 3f 60 58 e5 3f 96 13 f9 3f 92 15 05 40
       1.609438 1.7917595 1.9459102 2.0794415
0000e0 54 9f 0c 40 8e 5d 13 40 1e 77 19 40 b6 08 1f 40
       2.1972246 2.3025851 2.3978953 2.4849067
0000f0 21 28 24 40 51 e6 28 40 b2 50 2d 40 18 72 31 40
       2.5649493 2.6390574 2.7080503 2.7725887
000100 00 00 00 00 18 72 31 3f 54 9f 8c 3f 18 72 b1 3f
       0.0 0.6931472 1.0986123 1.3862944
000110 10 02 ce 3f 60 58 e5 3f 96 13 f9 3f 92 15 05 40
       1.609438 1.7917595 1.9459102 2.0794415
000120 54 9f 0c 40 8e 5d 13 40 1e 77 19 40 b6 08 1f 40
       2.1972246 2.3025851 2.3978953 2.4849067
000130 21 28 24 40 51 e6 28 40 b2 50 2d 40 18 72 31 40
       2.5649493 2.6390574 2.7080503 2.7725887
000140 00 00 00 00 18 72 31 3f 54 9f 8c 3f 18 72 b1 3f
       0.0 0.6931472 1.0986123 1.3862944
000150 10 02 ce 3f 60 58 e5 3f 96 13 f9 3f 92 15 05 40
       1.609438 1.7917595 1.9459102 2.0794415
000160 54 9f 0c 40 8e 5d 13 40 1e 77 19 40 b6 08 1f 40
       2.1972246 2.3025851 2.3978953 2.4849067
000170 21 28 24 40 51 e6 28 40 b2 50 2d 40 18 72 31 40
       2.5649493 2.6390574 2.7080503 2.7725887
000180 00 00 00 00 18 72 31 3f 54 9f 8c 3f 18 72 b1 3f
       0.0 0.6931472 1.0986123 1.3862944
000190 10 02 ce 3f 60 58 e5 3f 96 13 f9 3f 92 15 05 40
       1.609438 1.7917595 1.9459102 2.0794415
0001a0 54 9f 0c 40 8e 5d 13 40 1e 77 19 40 b6 08 1f 40
       2.1972246 2.3025851 2.3978953 2.4849067
0001b0 21 28 24 40 51 e6 28 40 b2 50 2d 40 18 72 31 40
       2.5649493 2.6390574 2.7080503 2.7725887
0001c0 00 00 00 00 18 72 31 3f 54 9f 8c 3f 18 72 b1 3f
       0.0 0.6931472 1.0986123 1.3862944
0001d0 10 02 ce 3f 60 58 e5 3f 96 13 f9 3f 92 15 05 40
       1.609438 1.7917595 1.9459102 2.0794415
0001e0 54 9f 0c 40 8e 5d 13 40 1e 77 19 40 b6 08 1f 40
       2.1972246 2.3025851 2.3978953 2.4849067
0001f0 21 28 24 40 51 e6 28 40 b2 50 2d 40 18 72 31 40
       2.5649493 2.6390574 2.7080503 2.7725887
000200 00 00 00 00 18 72 31 3f 54 9f 8c 3f 18 72 b1 3f
       0.0 0.6931472 1.0986123 1.3862944
000210 10 02 ce 3f 60 58 e5 3f 96 13 f9 3f 92 15 05 40
       1.609438 1.7917595 1.9459102 2.0794415
000220 54 9f 0c 40 8e 5d 13 40 1e 77 19 40 b6 08 1f 40
       2.1972246 2.3025851 2.3978953 2.4849067
000230 21 28 24 40 51 e6 28 40 b2 50 2d 40 18 72 31 40
       2.5649493 2.6390574 2.7080503 2.7725887
000240 00 00 00 00 18 72 31 3f 54 9f 8c 3f 18 72 b1 3f
       0.0 0.6931472 1.0986123 1.3862944
000250 10 02 ce 3f 60 58 e5 3f 96 13 f9 3f 92 15 05 40
       1.609438 1.7917595 1.9459102 2.0794415
000260 54 9f 0c 40 8e 5d 13 40 1e 77 19 40 b6 08 1f 40
       2.1972246 2.3025851 2.3978953 2.4849067
000270 21 28 24 40 51 e6 28 40 b2 50 2d 40 18 72 31 40
       2.5649493 2.6390574 2.7080503 2.7725887
000280 00 00 00 00 18 72 31 3f 54 9f 8c 3f 18 72 b1 3f
       0.0 0.6931472 1.0986123 1.3862944
000290 10 02 ce 3f 60 58 e5 3f 96 13 f9 3f 92 15 05 40
       1.609438 1.7917595 1.9459102 2.0794415
0002a0 54 9f 0c 40 8e 5d 13 40 1e 77 19 40 b6 08 1f 40
       2.1972246 2.3025851 2.3978953 2.4849067
0002b0 21 28 24 40 51 e6 28 40 b2 50 2d 40 18 72 31 40
       2.5649493 2.6390574 2.7080503 2.7725887
0002c0 00 00 00 00 18 72 31 3f 54 9f 8c 3f 18 72 b1 3f
       0.0 0.6931472 1.0986123 1.3862944
0002d0 10 02 ce 3f 60 58 e5 3f 96 13 f9 3f 92 15 05 40
       1.609438 1.7917595 1.9459102 2.0794415
0002e0 54 9f 0c 40 8e 5d 13 40 1e 77 19 40 b6 08 1f 40
       2.1972246 2.3025851 2.3978953 2.4849067
0002f0 21 28 24 40 51 e6 28 40 b2 50 2d 40 18 72 31 40
       2.5649493 2.6390574 2.7080503 2.7725887
000300 00 00 00 00 18 72 31 3f 54 9f 8c 3f 18 72 b1 3f
       0.0 0.6931472 1.0986123 1.3862944
000310 10 02 ce 3f 60 58 e5 3f 96 13 f9 3f 92 15 05 40
       1.609438 1.7917595 1.9459102 2.0794415
000320 54 9f 0c 40 8e 5d 13 40 1e 77 19 40 b6 08 1f 40
       2.1972246 2.3025851 2.3978953 2.4849067
000330 21 28 24 40 51 e6 28 40 b2 50 2d 40 18 72 31 40
       2.5649493 2.6390574 2.7080503 2.7725887
000340 00 00 00 00 18 72 31 3f 54 9f 8c 3f 18 72 b1 3f
       0.0 0.6931472 1.0986123 1.3862944
000350 10 02 ce 3f 60 58 e5 3f 96 13 f9 3f 92 15 05 40
       1.609438 1.7917595 1.9459102 2.0794415
000360 54 9f 0c 40 8e 5d 13 40 1e 77 19 40 b6 08 1f 40
       2.1972246 2.3025851 2.3978953 2.4849067
000370 21 28 24 40 51 e6 28 40 b2 50 2d 40 18 72 31 40
       2.5649493 2.6390574 2.7080503 2.7725887
000380 00 00 00 00 18 72 31 3f 54 9f 8c 3f 18 72 b1 3f
       0.0 0.6931472 1.0986123 1.3862944
000390 10 02 ce 3f 60 58 e5 3f 96 13 f9 3f 92 15 05 40
       1.609438 1.7917595 1.9459102 2.0794415
0003a0 54 9f 0c 40 8e 5d 13 40 1e 77 19 40 b6 08 1f 40
       2.1972246 2.3025851 2.3978953 2.4849067
0003b0 21 28 24 40 51 e6 28 40 b2 50 2d 40 18 72 31 40
       2.5649493 2.6390574 2.7080503 2.7725887
0003c0 00 00 00 00 18 72 31 3f 54 9f 8c 3f 18 72 b1 3f
       0.0 0.6931472 1.0986123 1.3862944
0003d0 10 02 ce 3f 60 58 e5 3f 96 13 f9 3f 92 15 05 40
       1.609438 1.7917595 1.9459102 2.0794415
0003e0 54 9f 0c 40 8e 5d 13 40 1e 77 19 40 b6 08 1f 40
       2.1972246 2.3025851 2.3978953 2.4849067
0003f0 21 28 24 40 51 e6 28 40 b2 50 2d 40 18 72 31 40
       2.5649493 2.6390574 2.7080503 2.7725887

mambaLayer.D f4 [26]
000000 c3 a5 82 3f 52 1f 80 3f eb 9c 80 3f 6c 15 80 3f
       1.0206836 1.0009558 1.0047888 1.0006537
000010 99 13 8a 3f cd 76 81 3f e0 57 7e 3f d5 bc 7f 3f
       1.0787231 1.011438 0.99352837 0.9989751
000020 7a 74 80 3f 45 ff 7e 3f e2 98 80 3f 9a 01 80 3f
       1.0035546 0.9960826 1.0046656 1.0000489
000030 72 fe 7f 3f 0c a0 7f 3f 94 a1 80 3f 81 13 82 3f
       0.9999763 0.9985359 1.004931 1.0162202
000040 55 cd 80 3f d7 cb 7f 3f db e4 80 3f 87 8a 80 3f
       1.0062662 0.9992041 1.0069841 1.0042275
000050 ee 14 80 3f 98 18 82 3f d3 f8 7f 3f 69 1e 80 3f
       1.0006387 1.0163755 0.9998905 1.000928
000060 80 94 80 3f 61 df 80 3f
       1.0045319 1.006817

mambaLayer.in_proj.weight f4 [52, 13]
000000 8d 4e af 3d 69 ec 78 3e 3e d8 ca bd 8d 49 88 3e
       0.08559904 0.24308933 -0.09904526 0.26618615
000010 4f c3 3b 3d c0 ac 6b be 1c 74 2c be a8 b5 7e be
       0.045840558 -0.23015118 -0.16841167 -0.24873984
000020 0c ba 45 be 5e 34 23 3e cb e1 15 bd f9 da 1d be
       -0.19309253 0.15937945 -0.036592286 -0.15415563
000030 4d 38 f0 bd e1 a0 80 3e 94 88 72 3e 9b dc 64 be
       -0.117294885 0.2512274 0.23684913 -0.2234978
000040 d2 1a 78 be 3f b1 63 be 22 0f 00 3e 93 ea 4d be
       -0.24228981 -0.22235583 0.12505773 -0.20109014
000050 56 3e 6c 3e 33 c0 30 3b e9 0b 84 be 15 31 b5 bb
       0.23070654 0.0026970028 -0.25790337 -0.0055295327
000060 43 c8 7a be 5b e1 2a bb c0 27 3b be a9 04 dd bd
       -0.24490456 -0.0026074264 -0.18276882 -0.107919045
000070 2f 12 5e 3d 3f 73 f8 3d 9d a5 84 be 7a 10 81 3d
       0.05421656 0.121313564 -0.25907603 0.06301971
000080 39 4c c1 3d 34 e9 ec bd f5 d8 29 be 3b e9 5c be
       0.094383664 -0.115679175 -0.16586669 -0.21573345
000090 6d 4c ef bd 13 23 de bd 5c c6 f7 3d 9c d7 32 3d
       -0.11684499 -0.108465336 0.12098381 0.043662652
0000a0 1e 01 02 be e9 92 8a 3e 62 e7 21 3b d6 f2 74 3d
       -0.12695739 0.2706521 0.0024704565 0.0598019
0000b0 a3 96 a7 3d 22 96 ee bd e5 ca 86 be c8 d1 85 3d
       0.081830285 -0.11649729 -0.2632667 0.06534153
0000c0 47 94 28 be 5d 56 6a bd 31 1a 76 be c0 aa 6d be
       -0.16462813 -0.05721127 -0.24033429 -0.23209667
0000d0 22 6d d3 be 4e 71 4e be 75 c7 58 3e bb 46 82 be
       -0.412942 -0.2016041 0.21169837 -0.25444588
0000e0 be ed d5 3e ef 41 5c be e3 40 6e 3d 1d c4 da bd
       0.41782945 -0.21509527 0.05816735 -0.10681937
0000f0 f7 a1 a3 be 9f 4e 9d 3d e1 16 83 3d c1 ba f0 bc
       -0.31959507 0.076810114 0.06400848 -0.029385926
000100 a8 a2 ab bd 31 dc 85 bc 44 38 4a 3e 51 a6 d0 3d
       -0.083806336 -0.016340347 0.19748026 0.10187972
000110 f0 ca 00 3e 77 72 46 3e 84 30 48 be a8 68 5e be
       0.12577415 0.19379602 -0.19549757 -0.2171961
000120 35 4b 9b bc 6f 56 d9 3d 44 d3 56 3d cb fa a6 3d
       -0.01895676 0.10612189 0.052447572 0.08153304
000130 10 c2 86 3e d9 ef 54 3e a1 92 c9 3d d5 55 79 3d
       0.26319933 0.2079462 0.0984242 0.06087287
000140 1c dd ee bc 9c 82 a6 3c 0a 33 4d 3d 32 d0 40 3e
       -0.029158168 0.020325951 0.050097503 0.1882942
000150 ec 10 56 be 05 0c c6 bd 68 89 0d bd aa 4d 34 be
       -0.20904893 -0.09670261 -0.03455487 -0.17607751
000160 91 2f e1 3d 01 0a 60 be 4c 89 60 be d9 44 31 be
       0.10995401 -0.21878816 -0.21927375 -0.1731142
000170 34 0c 57 bd da 58 78 3e e7 24 0f 3e b9 b3 72 be
       -0.052501872 0.24252644 0.13978921 -0.23701371
000180 54 11 78 bd dd c9 1c be 82 7c 9c bd 89 75 69 bd
       -0.0605634 -0.1531138 -0.076409355 -0.056996856
000190 ba 25 87 be c6 bf d5 3b b1 55 34 bd 20 8a 85 3e
       -0.2639597 0.0065231053 -0.044027034 0.26081944
0001a0 a8 34 75 3e 0a 72 82 3e 2c 77 10 be c5 06 18 3d
       0.23945868 0.2547763 -0.1410796 0.03711583
0001b0 84 c5 fc bc 52 9e 33 be 53 d0 10 3e 15 cf 05 be
       -0.030855902 -0.17540863 0.1414197 -0.13067277
0001c0 6b 5b ab 3d 66 b3 8d be 9c a9 e8 bd 0d 2f 8c 3e
       0.08367046 -0.27675933 -0.113604754 0.27379647
0001d0 4e 60 75 be 04 db 00 be ad 13 80 be c1 9b 16 be
       -0.23962519 -0.12583548 -0.2501501 -0.14707853
0001e0 46 8d 31 be 5e 0a 83 3d b5 2f 60 bd 6f 8e 33 3e
       -0.17339048 0.06398462 -0.054732997 0.17534803
0001f0 60 81 f7 bc 94 6e 86 3e 11 c4 77 3e 5b bb 43 3e
       -0.030213058 0.2625624 0.24195887 0.19114439
000200 86 36 c9 3d b6 f7 e1 bd b5 dd 19 3e 1c 1c 3c 3e
       0.09824853 -0.11033575 0.15025981 0.18370098
000210 ba b5 05 be 18 c0 d5 bd 75 e8 0c bc 00 fe d5 3d
       -0.13057604 -0.104370296 -0.008600344 0.10448837
000220 02 2d 0f bd b3 be 3e bd e9 a8 81 3d 6f 32 3d be
       -0.034955032 -0.046568584 0.06331045 -0.1847627
000230 6a ec 3f 3e 5a 94 8b 3e 79 10 89 3e 81 8f 30 3d
       0.18742529 0.2726162 0.2677038 0.043105606
000240 98 1f 18 be 79 f5 3f 3e 28 67 15 bd 06 8a c9 3d
       -0.14855802 0.18745984 -0.03647533 0.09840779
000250 a4 2d 82 be 66 62 10 3c a3 60 a7 3c 63 36 39 3e
       -0.25425446 0.0088125225 0.020431822 0.18087153
000260 f0 58 94 3d 6e 55 8b be 86 ca 8d bd ad ff aa ba
       0.07243526 -0.27213615 -0.06923394 -0.0013046168
000270 61 a9 47 bd cb 6f 7d be b6 48 40 3e 33 01 ac 3d
       -0.048745517 -0.24749677 0.18777737 0.08398666
000280 2b d6 b5 bd 3d f9 9f 3c 12 11 ba bd d0 65 30 be
       -0.0887874 0.019528026 -0.09085287 -0.17226338
000290 17 eb 4f 3e 20 97 67 3d 3c 28 fd 3c 8b 0a 67 be
       0.20304523 0.05654061 0.030902974 -0.22562616
0002a0 10 b9 2c be 68 1f 26 bd e7 d3 6d be d1 c8 bb 3c
       -0.1686747 -0.040557295 -0.23225366 0.022922905
0002b0 a1 25 25 be e6 de 20 be df 3b 31 bd b7 9d b5 bd
       -0.16127636 -0.15710029 -0.04326999 -0.08867972
0002c0 34 0f 42 3e fd bf bf 3d ad b7 0c 3d fa e4 25 be
       0.18951112 0.09362791 0.034354854 -0.16200629
0002d0 d5 77 3b be 46 96 03 3e 27 19 a2 bd 47 ae 6d be
       -0.18307431 0.12850294 -0.07914954 -0.23211013
0002e0 59 f3 c5 bd 17 32 6a be fb 6a c9 bd 30 d2 4f 3e
       -0.096655555 -0.2287067 -0.09834858 0.20295024
0002f0 e2 59 75 be 83 03 20 be af 7f 3c 3e 7a 80 83 3e
       -0.23960069 -0.1562634 0.18408082 0.25683957
000300 79 19 75 3e eb 8a 67 be 45 1b 27 be a1 c1 9a 3d
       0.23935498 -0.22611587 -0.16318996 0.07556463
000310 de f4 35 be c3 69 dd 3d f7 82 8d bd d5 1c 3f 3e
       -0.1776919 0.10811188 -0.06909745 0.18663342
000320 58 ca b9 bd 66 be 41 be f4 10 02 be 3c 9b 55 3e
       -0.09071797 -0.18920287 -0.1270178 0.20859998
000330 85 e2 9d b9 b3 c3 13 be 17 1c 8b 3e da 39 21 be
       -0.00030114144 -0.14430122 0.27169868 -0.15744725
000340 d8 a3 34 3e 1d 06 7d be 1f aa 31 bd 9f 2c 01 be
       0.17640626 -0.24709363 -0.04337513 -0.12614678
000350 9f 8a 27 3c 70 d7 9f bd d3 3f 8f 3d c2 e4 1d 3e
       0.010225921 -0.07804763 0.069945954 0.15419295
000360 da 92 60 bd fb 0c 7b be e6 4e 0a 3e 38 5c 28 3e
       -0.05482755 -0.2451667 0.1350666 0.16441429
000370 93 4b 47 3e e4 c3 37 be 02 72 88 be 19 fc 9c 3d
       0.19462423 -0.1794582 -0.2664948 0.07665271
000380 1a 3e c6 bd f1 1d 01 3c 3e 43 8b be 3e 9b fb bd
       -0.09679814 0.007880674 -0.2719974 -0.122854695
000390 06 39 13 be c3 f7 89 be f1 f9 61 be 10 ed 2d bd
       -0.14377221 -0.2694684 -0.22068001 -0.04246241
0003a0 d2 9a 16 bd 99 64 78 3e 82 58 e8 bc ef 4a 8c 3e
       -0.036768742 0.24257125 -0.028362516 0.2740092
0003b0 e4 cb 19 3e 8b 8e 1f 3e 3b 6f 75 3e 5c 8a b5 3c
       0.15019184 0.1558172 0.23968212 0.022160701
0003c0 9c 2e 21 3e bc 9d 2a be 1a b7 3e be 5e 3a 9b 3d
       0.15740436 -0.16661733 -0.18624535 0.07579492
0003d0 a3 d7 5a 3d 07 a0 34 be ab a9 0e 3d 0b f9 70 be
       0.053428303 -0.1763917 0.034829777 -0.23532502
0003e0 32 db 4e 3e 1e 4e 64 be 83 4a 2d bc d4 8a 74 3e
       0.20200804 -0.22295424 -0.010576847 0.23881084
0003f0 6d c4 1a 3e 05 21 8e be 6f 63 c3 3d f8 f5 85 3e
       0.15113993 -0.27759567 0.0954045 0.26164222

mambaLayer.conv1d.weight f4 [26, 1, 4]
000000 5c 13 2c be 54 da e7 be 2c f4 57 be 30 1a 84 be
       -0.1680426 -0.4528376 -0.21089238 -0.2580123
000010 70 9b c7 3d 60 58 19 3d dc a6 bd be d5 e3 39 be
       0.09746444 0.037437797 -0.37041366 -0.18153317
000020 80 58 51 bd 58 7e dc be 44 30 db 3e f5 1a 00 3f
       -0.05110979 -0.43065143 0.4281026 0.50041133
000030 80 76 97 3c ee 84 81 3e 1c 5f 31 be 6b b2 34 be
       0.018489122 0.2529673 -0.17321438 -0.17646186
000040 d0 49 1f bd 78 17 b2 be 20 1c 42 be 5a 1b f6 be
       -0.038888752 -0.3478353 -0.18956041 -0.48067743
000050 28 8d b7 be 30 38 f9 3d 1a d9 d2 be 0e fb fc be
       -0.3584988 0.1216892 -0.4118126 -0.4941029
000060 44 34 32 3e 56 27 fc be d4 0e d2 3e 90 22 26 3d
       0.1740275 -0.4924876 0.41026938 0.040560305
000070 5c b0 58 be 88 f2 35 3e 38 7b 67 3e 1d c6 5c be
       -0.21161026 0.177683 0.22605598 -0.21559949
000080 c8 5e 83 3e fc 10 89 be 70 09 03 bd 09 60 64 be
       0.2565825 -0.2677077 -0.031991422 -0.2230226
000090 dc 92 f9 3e ae 28 bc 3e 82 73 d2 be 58 bc f2 3e
       0.48744857 0.36749786 -0.4110375 0.4740932
0000a0 c0 ca 39 3c b0 fc 8e be de c6 ff 3e c6 54 de be
       0.011339843 -0.2792716 0.4995641 -0.43424052
0000b0 20 bf 94 3d 0e 5a 88 3e 00 94 6d 3a e6 d9 b6 3d
       0.07263017 0.26631206 0.0009062886 0.089282796
0000c0 30 6d d1 bd 12 da bf be 2c f9 a0 3e 8e 7d 78 be
       -0.10225904 -0.37471062 0.31440103 -0.24266645
0000d0 f8 b4 f6 be 3c bc 40 be 98 61 41 be 6c 90 02 3e
       -0.48184943 -0.18821806 -0.18884885 0.12750405
0000e0 06 cc c6 be 34 80 e3 be d6 96 dc 3e c0 fa b3 3e
       -0.38827533 -0.4443375 0.4308383 0.35152245
0000f0 c0 34 ef 3e ec c4 68 3e c0 b8 db be 63 83 c2 3d
       0.46719933 0.2273137 -0.4291439 0.09497716
000100 40 92 6a bc e4 15 ad be 88 1e cb be 6a d6 89 3e
       -0.014317095 -0.33805764 -0.3967173 0.26921397
000110 5c 59 33 be 74 2f 85 3e 98 c2 c4 be 1b da 8f be
       -0.17514557 0.26012766 -0.38429713 -0.2809609
000120 3a 0f e7 3e 80 0f 39 3c dc 1a b4 be 47 e6 ca bd
       0.45128804 0.011295199 -0.35176742 -0.09907203
000130 50 cc 0f be 70 76 7d 3d 00 c2 11 3d 38 11 bf 3e
       -0.14042783 0.06188053 0.035585403 0.37317824
000140 b6 e0 d2 be b8 5b 1d be 46 66 90 be 2d 94 c6 bc
       -0.41187066 -0.15367019 -0.28203028 -0.024240578
000150 e0 19 fa bd 40 72 ba 3d a8 08 6f be 96 26 fb 3e
       -0.122119665 0.09103823 -0.23343146 0.49052876
000160 38 56 18 be aa f4 9e 3e 80 a5 9d 3d 02 e9 b9 be
       -0.1487664 0.3104604 0.07697582 -0.36310583
000170 ea 70 b0 be a0 1d f5 3d 5c 7c d1 3e 54 9a 17 3e
       -0.34461147 0.11968541 0.4091519 0.14804965
000180 00 c3 4f 3e f0 b7 a8 3d 36 be f6 be 77 9c 61 be
       0.2028923 0.08238208 -0.48191994 -0.22032343
000190 f2 ac b0 3e 2c 3d 9d be ba 63 d6 be bc fa 63 bd
       0.34506947 -0.30710733 -0.4187296 -0.05565904

mambaLayer.conv1d.bias f4 [26]
000000 8b b8 b8 be 75 01 2f 3e d1 28 5e be ee 9b 35 3d
       -0.36078295 0.170904 -0.21695258 0.04433816
000010 fa fb 8b 3e 05 e4 2c be c1 00 f0 be e2 5c fc be
       0.2734068 -0.16883858 -0.46875575 -0.49289614
000020 69 9a 00 be d6 c1 c5 be da f6 a8 be 20 f6 6d 3e
       -0.12558903 -0.38624448 -0.33000833 0.2323842
000030 79 6f cd be f1 a8 a5 be 6f fe c1 3b 3d ff 91 3e
       -0.4012411 -0.32355455 0.0059202234 0.28515044
000040 4f 6d e1 3e 20 4a 18 be 6c 85 b7 3e 99 89 33 3e
       0.44028708 -0.14872026 0.3584398 0.17532958
000050 93 e9 88 3e ab 31 e5 3e b6 aa 9a bd 19 8f f2 bd
       0.26740703 0.44764456 -0.07552092 -0.118437
000060 80 9c de be e8 06 a1 be
       -0.43478775 -0.31450582

mambaLayer.x_proj.weight f4 [33, 26]
000000 44 bb 8e 3c 07 d6 93 3d ba 1c 70 3a 1d be 1f be
       0.01742328 0.07218557 0.0009159554 -0.15599866
000010 2b 04 e0 3d d4 e7 00 3d 9a 7e 94 3d f3 0e 0a 3e
       0.10938295 0.03147109 0.0725071 0.13482265
000020 95 a7 be bc 1b c8 8d bb 5f 66 c5 bd a9 d6 86 bd
       -0.023273269 -0.004326833 -0.09638666 -0.06583912
000030 50 7d fe 3c c6 8b 31 3d 26 d6 0a 3d 7c c3 39 3d
       0.031065613 0.04334619 0.033895634 0.045352444
000040 d4 da c8 3d c0 de 40 be b8 16 01 3d 38 c0 4f 3d
       0.09807363 -0.18834972 0.031515807 0.050720423
000050 3f df 1e bd 9b a1 2b be 3d 09 d8 3d f3 eb 3e bd
       -0.038787123 -0.16760866 0.10548637 -0.046611737
000060 59 5a 6b 3d bb 1f e3 bd 7e 37 d8 3d ae 0b 17 3d
       0.05745921 -0.110900365 0.10557459 0.036876373
000070 73 74 15 be f3 95 02 be b3 14 9d bd 89 04 ed bd
       -0.14595203 -0.12752514 -0.07669964 -0.11573131
000080 51 99 38 be b4 b7 36 3d bd 27 37 bd 82 a0 97 3b
       -0.18027236 0.044608787 -0.04471563 0.0046272883
000090 ff 61 0a be 46 69 74 bd 23 85 b3 bd 2c a4 fc bd
       -0.13513945 -0.05967071 -0.08765628 -0.12336001
0000a0 f1 da 51 3d bb 78 22 be aa a7 06 bb ed 40 c0 3d
       0.05123419 -0.15866368 -0.0020546713 0.093873836
0000b0 e2 6c 99 3c c1 c2 dc 3d 0e 09 08 be ef 6e 1b 3e
       0.018728677 0.10779334 -0.13284704 0.15179037
0000c0 a4 89 15 3e a7 41 43 bd ee fc 20 3e 84 e4 b1 3d
       0.14603287 -0.047670033 0.15721485 0.08686164
0000d0 0f fc 27 be 65 be 1f 3b 97 9c 54 3d 05 be 27 3e
       -0.16404746 0.0024374959 0.05190715 0.1638108
0000e0 30 7c 34 3e c1 73 23 3e b1 7e f6 bd 36 82 1c 3c
       0.17625499 0.15962125 -0.12035883 0.009552529
0000f0 39 63 bb bd 00 41 06 3e 3e f3 fe 3c 27 13 02 bc
       -0.091497846 0.13110733 0.031121846 -0.007939137
000100 3b 07 a8 3d e1 2a 37 be 40 17 86 bd 2f b3 83 3d
       0.08204504 -0.17887451 -0.06547403 0.06430661
000110 60 69 ab 3d 74 7c 15 3e d3 04 ae bd ed 00 2f 3e
       0.08369708 0.14598256 -0.08497014 0.17090197
000120 60 41 84 b8 17 b6 e9 bd d6 10 a1 3d 21 da 37 be
       -6.3064275e-05 -0.11411684 0.07864539 -0.17954303
000130 77 6e 2a 3e 80 b8 44 be 16 74 37 3e c3 89 ab 3d
       0.16643701 -0.19211006 0.17915377 0.08375885
000140 47 4a f7 bd 4a 46 05 3e ca 2e 34 be c6 6f 2a bd
       -0.12074714 0.13015094 -0.17595974 -0.0416105
000150 3a 91 26 3e ee e2 1d be a1 e9 11 be 4c cb d6 bd
       0.16266337 -0.15418598 -0.14249279 -0.104879946
000160 8c 8a 7d bd 78 f5 37 be cf 1d 13 3e c9 4c 40 be
       -0.061899707 -0.17964733 0.1436684 -0.18779291
000170 48 67 07 3e a9 31 49 bc 38 72 42 3e ff b8 00 be
       0.13222992 -0.012279906 0.18988883 -0.1257057
000180 f3 c6 1f 3e 5c 54 1d 3d 94 93 28 3e 87 f5 03 be
       0.15603237 0.03841053 0.16462547 -0.1288663
000190 cf b3 ed 3d 6e 57 41 be 88 c7 14 be d9 b8 30 be
       0.116065614 -0.18881008 -0.1452924 -0.17258014
0001a0 31 db af 3c a4 ab db bd 34 41 3b be 3f 2c ca 3d
       0.021466823 -0.10726097 -0.18286592 0.098717205
0001b0 a1 23 1e 3e bf d3 48 be 75 92 02 3e d0 11 82 3d
       0.15443279 -0.19612025 0.12751181 0.06351054
0001c0 eb ef e2 3c 18 33 95 3d d6 06 c4 bc 4c 0d 15 3e
       0.027702292 0.07285136 -0.02392904 0.14555854
0001d0 7a 51 0d bd 26 48 72 bd 60 8a 33 be c3 a0 a4 3d
       -0.03450153 -0.059150837 -0.17533255 0.08038475
0001e0 45 56 13 3e b7 cb 93 bd 3e ce 0c bd 81 aa 38 3e
       0.14388378 -0.0721659 -0.034376375 0.18033792
0001f0 0a c1 f2 bd b9 73 62 bd 7c df 8d bc b7 f0 37 3e
       -0.118532255 -0.055286143 -0.01731848 0.17962919
000200 50 f8 1d 3e eb 19 8b bd d0 83 12 3c a2 ea 16 3e
       0.15426755 -0.06792053 0.008942559 0.14737943
000210 26 02 81 bd f2 d8 ab bc 53 11 47 be 26 89 43 3e
       -0.06299238 -0.020977471 -0.19440202 0.19095287
000220 3f a2 2c bb 18 99 38 3d ee 02 cb 3d c0 36 0a be
       -0.0026341823 0.045067877 0.09912668 -0.13497448
000230 75 76 3c 3e 50 82 c6 bd 3f 35 6e bd f5 f1 c5 bd
       0.18404563 -0.09692824 -0.05815625 -0.0966529
000240 94 92 b0 bc f4 93 b7 3d c9 62 47 3e 97 dc e5 ba
       -0.021554269 0.08963767 0.19471277 -0.0017537054
000250 f4 5a 0e be 8f 78 34 3e d9 90 26 be da 54 22 3d
       -0.13901883 0.17624114 -0.16266192 0.039631702
000260 05 49 37 3e f4 21 80 bd 9b 7b 3b be 85 8a 87 bd
       0.17898948 -0.06256476 -0.1830887 -0.066182174
000270 94 f4 2e 3e cc c9 9c bc 9c 25 55 3d 73 8d 46 3c
       0.17085487 -0.019139193 0.05203782 0.012118685
000280 2f 88 f2 bd f7 4f 47 be 39 71 33 3e db f4 bf 3d
       -0.11842381 -0.19464098 0.1752366 0.09372874
000290 40 56 c7 3d 50 9c ea 3d 1c 18 08 be 9a 55 17 be
       0.09733248 0.114555955 -0.13290447 -0.14778748
0002a0 0a e7 42 be c9 33 c3 bd b2 ba 90 3d 25 db 0b 3d
       -0.19033447 -0.095313616 0.07066859 0.03414454
0002b0 f9 ef b6 bb 5b 82 89 bc ce d7 29 be c8 d3 0b 3e
       -0.005582806 -0.016785791 -0.16586229 0.13655007
0002c0 69 57 e3 bd 77 6c 1d bd 32 fd 3e 3e f7 32 6a 3d
       -0.111006565 -0.03843352 0.18651274 0.05717751
0002d0 5c 96 e0 3a b3 10 47 3e 2a ea 0b 3c b6 0b da bd
       0.0017134654 0.19439964 0.008539716 -0.10646765
0002e0 93 d1 2d be 00 60 ea bd 04 5c 4a 3e 07 0a de bd
       -0.16974477 -0.11444092 0.19761664 -0.10841756
0002f0 1f 23 c3 bd 48 97 d1 bd ce 96 94 bd b4 c4 fb bc
       -0.09528183 -0.10233933 -0.07255326 -0.030733444
000300 50 35 ff bd 90 67 f7 bd 79 fc 3f 3e 8b c3 01 be
       -0.124613404 -0.120803 0.18748654 -0.1267225
000310 24 53 00 be b9 f2 01 3e 73 cd e3 bd 40 89 9c bd
       -0.12531716 0.12690248 -0.11123171 -0.07643366
000320 a5 01 32 3e ae 6d 2a 3c ff 44 24 3e 45 4a ba 3d
       0.1738344 0.010402126 0.16041945 0.09096197
000330 4c 61 00 3b c4 6c d2 3d 68 55 13 be 20 bc e8 3c
       0.0019589243 0.10274652 -0.14388049 0.028410017
000340 27 78 1b 3e bc f1 65 bd 2e 3d fc 3d b3 a2 9a bd
       0.15182553 -0.05613874 0.123163566 -0.07550564
000350 94 23 1f be a1 14 a9 bd 48 da f0 bd 47 93 13 3e
       -0.15540916 -0.08255888 -0.11760384 0.1441165
000360 db b0 03 3e 62 01 dc 3d 53 2a 9d bb 5f bd 61 bc
       0.12860434 0.10742451 -0.004796305 -0.01377806
000370 39 df 08 3e 09 53 98 3d c1 7a 45 be c6 52 d7 3d
       0.13366403 0.07437713 -0.19285108 0.10513835
000380 79 11 51 bd a1 c0 21 be 88 3f 11 bd 17 be dd 3d
       -0.051042054 -0.15796138 -0.03546098 0.108272724
000390 27 b9 ac 3d f2 db 9e 3d 6c fd 28 be 33 b3 91 3d
       0.084337525 0.07756795 -0.16502923 0.07114258
0003a0 a0 23 d6 3d 0a ac ca 3c 93 ca 14 be 8b 91 1b bd
       0.10456014 0.024740238 -0.14530401 -0.037980597
0003b0 8c e1 bb 3c 50 d2 70 3d 2d 35 e9 bc 58 f7 ad 3d
       0.022934698 0.05879432 -0.028467739 0.08494443
0003c0 3d 7d 17 3e d9 c8 ff bc 2c d4 04 be fd 92 07 be
       0.14793868 -0.031223701 -0.12971562 -0.13239665
0003d0 f2 f2 46 be 04 22 c7 bc d6 e7 2b be df c7 99 3d
       -0.19428614 -0.024308212 -0.16787657 0.075088255
0003e0 93 8e f1 3b 66 6b 2b 3e 83 f7 34 be da 9f 03 be
       0.0073717325 0.16740188 -0.17672543 -0.12853947
0003f0 92 41 07 3e f1 a1 17 3e b4 0a 43 be d8 f5 35 bd
       0.13208607 0.1480787 -0.19047052 -0.044423908

mambaLayer.dt_proj.weight f4 [26, 1]
000000 2e e7 70 bf c4 a9 e5 3e fe 17 6c bf e4 26 68 3f
       -0.9410275 0.44856083 -0.9222411 0.9068434
000010 94 e0 01 3f 86 13 7f 3f e6 2f 71 bf cc cd c4 be
       0.50733304 0.99639165 -0.9421371 -0.3843826
000020 e0 54 c5 be ee 2a 59 3f a8 e6 aa 3e 08 9c 17 3e
       -0.38541317 0.8483113 0.33379102 0.14805615
000030 e0 4c 40 bd e2 de 4e 3f 74 f5 cd 3e 24 87 1d bf
       -0.046948314 0.8080884 0.40226328 -0.61534333
000040 b4 3d 1e bf 38 e7 45 bf 3a 55 06 3f 74 44 6c bf
       -0.618129 -0.77305937 0.52473795 -0.9229195
000050 58 29 bd be 9e 9a 36 bf 92 e1 78 3f 30 f4 dd bd
       -0.36945605 -0.7132968 0.97219193 -0.10837591
000060 ac 04 14 bf 34 1f 77 3f
       -0.5781963 0.9653199

mambaLayer.dt_proj.bias f4 [26]
000000 51 2b 8b c0 89 13 89 c0 5b 85 2c c0 53 03 92 c0
       -4.3490376 -4.2836347 -2.6956394 -4.562906
000010 20 67 2e c0 2b 33 3c c0 15 63 b8 c0 c5 30 b5 c0
       -2.7250443 -2.940623 -5.762095 -5.6622033
000020 cd 1e 2a c0 d4 aa 6d c0 64 d4 dc c0 56 06 13 c0
       -2.65813 -3.7135515 -6.9009266 -2.2972617
000030 db e6 bb c0 93 b9 96 c0 44 76 5c c0 0a 6e 3d c0
       -5.8719306 -4.710153 -3.4447184 -2.9598413
000040 23 89 88 c0 6d 4b 41 c0 ec f3 8a c0 c3 ab d4 c0
       -4.2667403 -3.0202286 -4.3422756 -6.645967
000050 93 17 b2 c0 e2 65 35 c0 75 bb a9 c0 a3 9a ca c0
       -5.5653777 -2.8343434 -5.304133 -6.3313766
000060 e1 2a d5 c0 f6 c5 86 c0
       -6.6614842 -4.211665

mambaLayer.out_proj.weight f4 [13, 26]
000000 f2 b2 5f 3b 1c 01 20 be fe 48 bf bc 0c 29 31 3e
       0.003413376 -0.15625423 -0.023350235 0.17300814
000010 70 78 86 3e 8c 70 03 be 74 1e be 3c d8 da 0a be
       0.26263762 -0.12835902 0.02320788 -0.13560045
000020 5a 73 60 3e 0b 6e ce bd 8e db c3 bc 05 bd 85 bd
       0.21919003 -0.10079583 -0.023908403 -0.06530193
000030 fe c6 a6 3d ac a6 0c 3e 4d 18 57 bc 56 42 dc bc
       0.081434235 0.13735455 -0.013128352 -0.0268871
000040 56 47 44 be 8c b2 01 be 69 6f 52 3c bc a6 08 be
       -0.19167838 -0.12665766 0.012843945 -0.13344854
000050 d5 57 02 3e bc 2e 3d bd a3 b1 ea 3d 39 71 40 bd
       0.12728818 -0.046187147 0.11459663 -0.046982978
000060 ab b9 04 be cc 77 df 3d d4 02 29 3e 16 5a b1 3d
       -0.12961452 0.10911521 0.16504985 0.08659761
000070 d4 21 4f be 9a 4b bb 3d 5f fc 97 be 16 fc e6 bd
       -0.20227748 0.09145279 -0.2968473 -0.1127855
000080 4e 0e 1d 3a 3e 87 e9 bd 0e 01 88 3d 8b ed d8 bd
       0.0005991206 -0.114027485 0.06640826 -0.10592183
000090 ab 52 1a be eb 77 31 be 22 87 91 3d 1f c2 0a be
       -0.15070598 -0.17330901 0.07105853 -0.13550614
0000a0 d4 bc 25 3e 07 a4 67 bc 25 fd d3 bc 1e 3b 07 be
       0.16185313 -0.014138228 -0.025877545 -0.13206145
0000b0 8f 79 2a be 89 c5 2e 3e e4 a3 d0 bc 4b 74 74 3b
       -0.16647933 0.17067541 -0.025468774 0.0037300761
0000c0 cd 84 36 3e 88 85 36 be 18 5b 3b bd 81 01 63 3e
       0.17824097 -0.17824376 -0.04574117 0.22168542
0000d0 80 66 f9 bd bb be 86 bd 83 5f 8e 3c 24 5b 45 be
       -0.121777534 -0.06579348 0.017379528 -0.19273049
0000e0 31 3b 1f 3b 4b c9 10 bc fd 6c 22 3e 1e 67 75 3d
       0.0024296755 -0.0088370545 0.15861888 0.059912793
0000f0 94 33 28 3c ea 1d 6e bd 21 eb a1 3d bd 2e 83 bb
       0.010266203 -0.058133997 0.079061754 -0.0040033744
000100 f3 1c b6 bd a9 c0 83 3d a3 07 75 3d 61 7a 9a 3d
       -0.088922404 0.064332314 0.059821736 0.07542873
000110 cd 74 46 be a7 e7 b4 bd 01 47 9e bc b3 8d 9c 3d
       -0.19380493 -0.08833247 -0.019320967 0.076442145
000120 42 2e 71 bc 72 d2 06 be 43 b2 07 be 03 c2 ca 3d
       -0.014720501 -0.13166216 -0.13251595 0.09900286
000130 be 72 00 3e bc a5 60 3d de 0b 80 3d 04 eb e0 3c
       0.1254377 0.054845557 0.062522635 0.027455814
000140 2c a1 b7 bd f2 ff a1 3d 61 ed 31 be 64 36 44 be
       -0.08966288 0.07910146 -0.17375709 -0.19161373
000150 66 e8 a4 3d a2 53 5f 3d f8 1a e5 3c 81 7b 1b 3e
       0.08052139 0.054523118 0.027966961 0.15183832
000160 5b ea cf bb 29 9c 47 3c de ee 41 3e c4 3b 43 bd
       -0.006345076 0.012183228 0.18938777 -0.04766442
000170 70 f9 bb 3d b4 43 1a bd 81 eb 32 bc 3b 47 16 be
       0.09178436 -0.037662223 -0.010920406 -0.1467561
000180 f0 a0 c1 3c 80 ff 15 be f4 f1 48 3e 82 25 9d 3d
       0.023636311 -0.14648247 0.19623548 0.0767317
000190 1f 78 fc bc 06 e9 06 be ef a0 11 be 33 d7 29 3d
       -0.030818997 -0.13174829 -0.14221548 0.041464996
0001a0 06 e3 bb 3d 49 83 0d bc 0a 31 2d be bf 3f 9f bd
       0.09174161 -0.008637258 -0.16913238 -0.077758305
0001b0 47 72 d7 bd e2 96 4e 3e 53 04 0a be 99 2a 33 3e
       -0.105198435 0.20174745 -0.13478212 0.17496718
0001c0 a8 82 22 3e 83 ea 18 be 4d 3d 3e 3e 81 07 ac bd
       0.15870154 -0.14933209 0.18578072 -0.08399869
0001d0 03 d3 80 bd 44 f8 89 bd d6 37 4f 3d 84 59 a0 3d
       -0.06290247 -0.06736806 0.05059036 0.07829574
0001e0 68 1a 1b 3c 03 68 86 3d f6 97 f4 3d 17 dd 25 be
       0.009466745 0.065628074 0.11943047 -0.1619762
0001f0 7c ef ea 3c 41 b0 27 3d c5 51 1e 3c fa 5e 0d bc
       0.028678648 0.040939573 0.00966305 -0.008628601
000200 f5 0e 21 bc a3 36 12 3e ed 27 46 3e e4 5c 9e bd
       -0.009830226 0.14278655 0.19351168 -0.07732561
000210 4c 93 19 3e 95 48 1f be 13 98 cc bd 86 e7 11 3c
       0.14997596 -0.15555032 -0.09989943 0.008905297
000220 87 d1 76 bd dd f6 3f be bb 21 b5 bc 85 ce 12 3e
       -0.060258415 -0.18746515 -0.02211081 0.14336593
000230 63 57 1c be ed cf 38 bc 04 cf f5 bd c2 cd ea 3d
       -0.1526771 -0.011280042 -0.12002376 0.114650264
000240 12 1b 04 3e d5 9e 32 bd 04 b5 17 3d 30 e9 7a bd
       0.12900952 -0.043608505 0.037037864 -0.06125754
000250 63 f5 54 be 9f fb 2a be 9e 7e 85 3d 9d f1 d8 bd
       -0.20796733 -0.16697548 0.06518291 -0.10592959
000260 56 7a 15 bd 5a 2e 42 3e 8c 5d 27 3e ae 9d 1b 39
       -0.03649362 0.18962994 0.16344279 0.00014840692
000270 b6 67 3c bc f3 e9 7d 3d 39 05 ca 3d d0 49 23 be
       -0.011499336 0.06199069 0.098642774 -0.15946126
000280 89 57 3d 3e 84 1d e0 3c 5a 0b 21 be 06 9a d2 3d
       0.18490423 0.027357824 -0.15726987 0.10283284
000290 76 b6 e0 bd 9e 86 50 be 60 af 6a bd 9e 9c 32 3d
       -0.10972302 -0.20363852 -0.057296157 0.043606393
0002a0 56 0c 0d be c3 b1 cf 3d 76 f1 eb bd 3c 74 66 3e
       -0.13774237 0.10141327 -0.115206644 0.22505277
0002b0 62 40 64 bd 7d 7c bc bc 3f 72 a2 bc 91 02 d8 3c
       -0.055725463 -0.02300858 -0.019829867 0.026368411
0002c0 b6 94 26 3e 5b 82 53 be 5b d4 a3 bd b8 52 ce bd
       0.16267666 -0.20655195 -0.07999488 -0.10074371
0002d0 95 fb 33 be 44 23 1d 3e 5f fc 43 be 11 74 88 bc
       -0.1757644 0.15345484 -0.1913924 -0.016656907
0002e0 84 11 d9 3d 6a 7a 17 bd 61 e8 f9 bd eb 65 d6 bd
       0.10599044 -0.036981978 -0.12202526 -0.10468658
0002f0 bd 82 96 3d 9d 87 e5 bc d8 83 d4 bb 47 39 1c be
       0.07349155 -0.028018767 -0.0064854436 -0.15256225
000300 a8 2c 59 3c 04 38 19 be 66 63 3b 3d b7 29 ab bd
       0.013255276 -0.14962775 0.04574909 -0.08357566
000310 0f e7 ce bd 6c 9a 0b 3e d4 d8 df bd 2c 08 08 3e
       -0.10102665 0.13633126 -0.109300286 0.13284367
000320 53 a1 42 3d b6 d3 1f 3e 50 34 1e be 5f 31 2f be
       0.047517132 0.15608105 -0.15449643 -0.17108677
000330 fa 3f 1e be 8d 4a c8 3d 0b ac 37 be e3 9d bf bd
       -0.15454093 0.097798444 -0.17936723 -0.093562864
000340 1c 2b 3e 3e 52 00 94 3d 2c ed 70 bd 0e 41 e2 bc
       0.18571132 0.072266236 -0.058819935 -0.027618911
000350 b6 70 d9 bd b0 38 e5 3d 08 4a 93 bd d9 1e 75 3d
       -0.10617201 0.11192453 -0.07191855 0.05984387
000360 2b 16 8c bd e0 d0 42 bd de 84 16 3c 4d 14 4d 3e
       -0.06840166 -0.04756248 0.009186951 0.20027275
000370 b4 6e 39 3e 54 2d d3 3d e8 0b 41 bd 71 70 37 be
       0.18108636 0.1031138 -0.047130495 -0.17913987
000380 cf 3e 45 3e c1 44 c1 bb 16 81 3d be 49 14 ff 3c
       0.19262241 -0.0058980887 -0.18506274 0.031137602
000390 29 65 6d bc e4 3c 1f 3c 1a 3f 31 3e 0a 17 3f 3e
       -0.0144894505 0.009719107 0.17309228 0.18661132
0003a0 b4 e2 1d be cd c0 f3 3d 45 7a 80 bd d1 42 29 3e
       -0.15418512 0.11902008 -0.06273321 0.16529395
0003b0 6a 6e 3f bd b4 dc 2e bd 9e a2 34 be 29 d7 6f bd
       -0.04673616 -0.042690948 -0.17640159 -0.058554802
0003c0 10 cf 83 3d 08 21 28 be 3c 9a 1f bb 67 0a e5 3d
       0.064359784 -0.1641885 -0.0024353405 0.11183625
0003d0 b6 20 ef bc 11 94 3b be 25 9b e0 bb d4 e8 6c 3b
       -0.029190402 -0.18318202 -0.006854432 0.0036149519
0003e0 03 74 dc 3c f8 1e 03 3e ee 7d 23 be a0 c4 0e be
       0.026910787 0.12804782 -0.15966007 -0.13942194
0003f0 f5 b5 15 3e de 60 ee bd ce 8c b7 3d 75 71 35 be
       0.14620192 -0.1163957 0.08962403 -0.17719062

value_network.0.weight f4 [150, 13]
000000 b5 de 3e 3e 3c 14 5f 3e e4 e3 bd 3d d7 ad 0a 3e
       0.18639643 0.21785063 0.09271982 0.13542877
000010 98 47 02 3d aa fe 34 be b8 9c a6 bd 2d d0 81 be
       0.03180656 -0.17675272 -0.081353605 -0.25354138
000020 7f bb b4 bd 63 6c 50 bd dd 9a 4d 3d 0d 68 e1 bd
       -0.088248245 -0.050884616 0.050196517 -0.11006174
000030 10 d9 bf bc 0c 88 50 3e e7 8c 50 bd e7 54 4a 3e
       -0.023418933 0.20364398 -0.050915625 0.1975895
000040 ad ca a7 bd 5f 9d 53 3e 59 27 06 3e 35 7f 12 bc
       -0.08192954 0.20665501 0.13100947 -0.008941461
000050 ec 8f d5 3d 99 a9 7e 3e 56 4d 89 bd b3 09 3a 3e
       0.104278415 0.24869384 -0.06704204 0.18167762
000060 9e 46 2b be aa 70 86 be ab cc 91 3b 5f c6 01 3e
       -0.16726157 -0.2625783 0.004449447 0.12673329
000070 cb d4 22 3e 95 8e 90 bd 48 1b 7f bd f2 62 6b 3e
       0.15901487 -0.07058445 -0.062281877 0.22986963
000080 fe c2 01 be 26 f4 82 3e f2 1b 72 3e 19 52 6c 3e
       -0.1267204 0.25576895 0.23643473 0.23078193
000090 46 14 02 be c6 6a 5f be 90 0f 04 be 6c 9c 8d 3d
       -0.12703046 -0.21818075 -0.12896562 0.06914601
0000a0 c2 26 c0 b6 10 28 42 3e 9e e0 60 3d ba 4a 87 3e
       -5.726558e-06 0.18960595 0.05490171 0.264242
0000b0 13 7b 64 3e 93 72 49 3e 62 ed c4 bd e9 3b c0 bd
       0.22312574 0.19672613 -0.0961559 -0.09386427
0000c0 78 ef 33 3e 5b 7d e1 bc 01 d8 7d be 6d 6b aa bc
       0.17571819 -0.027525594 -0.2478943 -0.020803178
0000d0 ad 86 1b 3e b4 15 38 3d 19 4c e1 3d 8d 0a fd bd
       0.15188093 0.044942573 0.110008426 -0.12355528
0000e0 6d a7 20 3e 52 dc 66 3e fb f8 51 3e bf 3b 89 be
       0.15688868 0.22544983 0.20505135 -0.26803395
0000f0 92 00 8b be 00 62 44 bd 2e 38 e1 3d 6e b1 31 be
       -0.27148873 -0.047945023 0.109970436 -0.1735284
000100 ec 9f 1a 3e 22 3c 16 be 06 a9 66 3e 0a 00 43 be
       0.15100068 -0.14671376 0.22525415 -0.19042984
000110 36 5a 5e be 81 21 84 be b5 83 51 3e 1a db 1e bd
       -0.217141 -0.2580681 0.20460398 -0.03878317
000120 4c 3e ff bd 09 d7 9a bd a8 e3 47 3e 7b 20 79 3e
       -0.12463054 -0.07560546 0.19520438 0.24328797
000130 8e 5a 76 be 65 f4 49 be a2 f6 ed 3d 51 4d 30 3e
       -0.24057981 -0.19722135 0.11619307 0.17216994
000140 6c 0c 06 3d 09 ef 48 3d 97 85 0e be d3 b8 8e be
       0.03272669 0.049056087 -0.13918148 -0.27875385
000150 d7 2c 10 3e 5e 13 74 3e 75 37 5a bd 35 2f 1d 3e
       0.14079605 0.23835513 -0.053275544 0.1535004
000160 bd b3 89 3e 84 11 98 bd c1 47 13 be dc 2f 83 3e
       0.26894942 -0.07425216 -0.1438284 0.2562245
000170 d3 f8 8d 3e 6b e3 4a be 65 3d 21 3e 60 99 5b be
       0.277289 -0.19813316 0.15746076 -0.21445227
000180 fb 72 a3 3d 0a 22 47 3e 6b 44 19 be b6 6d 97 3d
       0.07980915 0.19446579 -0.14967506 0.073939726
000190 c1 e7 68 bd 2d c9 7a be bc 8b a0 bc 4e 49 ba 3d
       -0.056861643 -0.24490805 -0.01959788 0.09096013
0001a0 32 6e b9 3d ab 14 56 be 1c e1 cc bc f0 25 2e 3d
       0.09054221 -0.20906322 -0.025009684 0.04251665
0001b0 c7 56 63 be f8 96 84 3e ad ea 80 bc d1 81 f7 3c
       -0.22201072 0.2589643 -0.015736902 0.030213268
0001c0 b8 c9 0e be bd d8 90 bd cd c5 f5 3d 29 c5 67 3b
       -0.13944137 -0.070725895 0.12000618 0.003536532
0001d0 80 24 e3 3d 5d 98 65 bd d8 7e 86 3d 6e f2 58 3d
       0.11090946 -0.056053508 0.06567162 0.052965574
0001e0 a5 a7 1a be 5f 40 0b bd 6f 96 1c 3e b7 54 ab 3d
       -0.15103014 -0.033996936 0.15291761 0.083657674
0001f0 ec 6a a7 3d e4 87 d9 3d fa 94 03 3e ee 6c b6 3d
       0.081746906 0.10621622 0.12849799 0.089074954
000200 0a f9 da bd 92 3d 76 3e 1e 46 8a 3e 85 f9 6b 3e
       -0.10692032 0.24046925 0.2700662 0.23044403
000210 f1 d1 1a 3d 7e 6e 05 3e 82 2d 12 3d 71 a9 52 be
       0.037797872 0.1303043 0.03568793 -0.2057245
000220 4d 91 84 bd 34 82 7c ba 80 6e a8 3d 74 b7 81 3e
       -0.064730264 -0.0009632439 0.08224201 0.25335276
000230 08 b6 22 3c 84 0c ef bd aa 32 80 3e f4 2e 5d 3d
       0.009931095 -0.11672309 0.25038654 0.053999856
000240 c5 d1 47 3d 12 bb 7c 3e 3b 24 82 3e 86 a8 5e 3c
       0.048784036 0.24680737 0.25418267 0.013589984
000250 af 29 7b bd c3 54 75 3e 46 74 87 be ef b6 7a 3e
       -0.06131905 0.23958115 -0.26455897 0.24483846
000260 b9 6b 34 3e a6 e1 63 be 83 22 27 be d5 25 a4 bc
       0.17619218 -0.22254047 -0.16321759 -0.020037571
000270 2b f5 a8 bd 32 85 80 3e bd 4d 71 3e 33 64 5b be
       -0.08249887 0.2510162 0.23564811 -0.21424942
000280 8b f2 34 3d 95 ae 6a 3e 57 6f c1 bd e8 b3 5d 3e
       0.04417662 0.2291816 -0.094450645 0.2165066
000290 07 d9 80 3e 42 14 2f 3d 39 1d 95 3e 28 e0 12 bc
       0.2516558 0.04274393 0.29123858 -0.008964576
0002a0 8e 7f 4e be ad f3 95 3d b3 12 b5 bd 02 69 4d 3d
       -0.20165846 0.07321868 -0.08841457 0.05014897
0002b0 81 41 55 be 8e 4c 6a be ce 5b 27 bd 31 68 9e 3c
       -0.20825769 -0.22880766 -0.040859036 0.019336792
0002c0 5a 8c 24 3e e4 20 3c be f8 fd f3 3c d0 c3 c5 bd
       0.16069165 -0.18371922 0.029784188 -0.09656489
0002d0 29 1c 9a 3d 65 03 5e be a3 1f 0f be 53 dc 4c be
       0.075249024 -0.21680982 -0.13976912 -0.20005922
0002e0 dd 28 3e be f1 f3 33 3e 32 07 39 3d 56 d6 69 be
       -0.18570276 0.17573525 0.045172878 -0.22835669
0002f0 d9 0f 56 3d 7c 49 8a bc 88 39 58 3c 16 8c b6 3b
       0.052261207 -0.016880743 0.01319731 0.0055708988
000300 17 6a d6 bd ea 1c 71 be 42 64 90 3b 9a 03 63 3e
       -0.10469454 -0.23546186 0.004406483 0.22169343
000310 8c 9c 6b be 44 1d 4b be 76 95 88 3e 8a 56 70 be
       -0.23008937 -0.19835383 0.2667653 -0.23470512
000320 ee 97 21 be 6e d4 85 be 90 ae 0a 3e 0f af 39 be
       -0.15780613 -0.26138633 0.13543153 -0.18133186
000330 4c c3 27 3e 60 6e 82 3e 9c 93 d4 3d 27 bd 17 3e
       0.16383094 0.25474834 0.10379717 0.1481825
000340 2a a6 5e 3e ed 85 f7 bd 76 3e 7f be 46 6b 81 3e
       0.21743074 -0.12086091 -0.2492617 0.25277156
000350 80 16 b9 3d 46 8e 05 3e 89 7d 40 3e d3 51 c8 ba
       0.09037495 0.13042554 0.18797888 -0.0015283175
000360 3c d8 6a 3e 35 63 b4 bb fb 25 23 3e af 30 93 3d
       0.2293405 -0.0055049905 0.15932457 0.0718702
000370 ce 86 ea bc 28 59 06 3e fc 90 41 be d1 0e de 3c
       -0.028628733 0.13119948 -0.18902963 0.027106674
000380 49 47 e5 bd 58 26 81 bc d0 77 61 3e 40 f0 20 be
       -0.11195237 -0.015765354 0.22018361 -0.15716648
000390 9b ad 58 be 5d b3 81 bc 76 dc 17 bd 0a 8c 69 3d
       -0.21159975 -0.015832597 -0.037075482 0.057018317
0003a0 e2 64 4d 3c c8 6f 07 bd b2 dd 23 be 94 c8 35 be
       0.012536259 -0.033065587 -0.16002539 -0.17752296
0003b0 91 41 46 3e 05 69 d4 bd 55 fd 5b be e6 23 8a 3e
       0.19360949 -0.103715934 -0.21483357 0.26980513
0003c0 4f 5d 15 be 61 b2 83 be 63 ba 67 3c be 85 37 be
       -0.14586376 -0.2572203 0.014143559 -0.17922112
0003d0 3c 4a 7b be 99 b8 9b bd 0b 26 00 3b ba fd ca bd
       -0.24540037 -0.076035686 0.0019553925 -0.09911676
0003e0 69 6c 10 3e 51 d8 8c be 6f 1a c5 3d b1 c0 e5 bd
       0.14103855 -0.27508786 0.096241824 -0.112183936
0003f0 11 62 81 be 55 85 21 3e 3d 7f 24 be 5d 21 84 bd
       -0.2527013 0.15773518 -0.16064163 -0.06451676

value_network.0.bias f4 [150]
000000 cd 35 75 be eb e9 1e be ae 82 41 bd 8b 0f 8d be
       -0.23946305 -0.1551892 -0.047243766 -0.2755092
000010 cd f8 01 be 69 c3 9a bd 5b 70 0b 3e f1 aa ff 3d
       -0.12692566 -0.07556803 0.13617079 0.12483776
000020 d5 af 5a be 0a d1 bc 3d f6 6c ae bb 08 a4 4b 3e
       -0.21356137 0.092195585 -0.0053230477 0.19886792
000030 db ef 3e 3e b8 76 29 3e f0 ff 9f 3d 51 bc 38 be
       0.18646185 0.16549194 0.07812488 -0.18040587
000040 f0 00 08 be 46 2e fd 3d df 01 17 be 4e 9d c2 3d
       -0.13281608 0.123623416 -0.14746808 0.0950266
000050 e4 f0 96 3d 90 64 9e bd 01 60 89 bd 8c 78 63 3e
       0.07370165 -0.077340245 -0.067077644 0.22213954
000060 7b 56 8b be 3c 1c c3 3d 11 05 0b bc 08 53 63 be
       -0.27214417 0.0952687 -0.008485095 -0.22199643
000070 f5 9c 14 3e fc f3 4d 3e 09 8e b5 bd 8c 6f 37 3e
       0.14513 0.20112604 -0.08864982 0.17913646
000080 4f d4 15 bd d7 d3 3e be 52 0d 9a bc c1 ce 80 3e
       -0.036579426 -0.18635498 -0.01880518 0.2515774
000090 d7 8c 4a 3d d9 42 18 be d8 64 0b 3e 48 29 fa bd
       0.04945072 -0.1486925 0.13612688 -0.12214905
0000a0 f5 be 21 bd 97 b7 aa bd e8 79 5e 3e 52 10 72 be
       -0.03948875 -0.08335798 0.21726191 -0.23639038
0000b0 ed 61 b1 3d b3 c1 18 be 22 a6 15 be d5 f3 08 be
       0.08661256 -0.1491764 -0.14614156 -0.13374265
0000c0 4f d9 30 3e 24 10 32 be 3f b1 49 3e ae 07 01 be
       0.17270397 -0.1738897 0.1969652 -0.12600586
0000d0 1a 41 71 3d 67 4a 57 be 0c 15 11 3d a0 50 67 3e
       0.058899976 -0.21024476 0.035420462 0.2258935
0000e0 ac a2 57 bd d2 5e fb 3d c9 40 4e bc 5f 1a 7c bd
       -0.05264537 0.12273945 -0.012588688 -0.061548587
0000f0 5a 73 8e 3e eb e7 5d 3d 1c dd 64 be 73 d4 05 bd
       0.2782238 0.054176252 -0.22349972 -0.03267331
000100 51 36 50 3e 86 c9 f2 3d c3 34 7b 3d 5e 8d ce 3c
       0.2033322 0.11854844 0.061329614 0.025213894
000110 ff 7f e4 bd 20 1a 03 3e dd 08 e3 3d d7 fe aa bd
       -0.11157226 0.12802935 0.11085675 -0.08349388
000120 e7 f0 fd bd 47 ea cd 3c 86 63 88 3e 78 0e 10 3e
       -0.12399464 0.025136126 0.2663843 0.1406802
000130 b2 06 c4 bc 49 a1 37 bc dd f0 12 3e 52 cc 21 be
       -0.023928974 -0.011207887 0.14349695 -0.15800598
000140 1b 86 d8 bd 8f 16 ce bd b7 41 5f be c0 9d 52 3e
       -0.105724536 -0.100628965 -0.21802412 0.2056799
000150 da 0e a5 3c 38 10 c8 bc db fc 0d be 67 9d 73 3d
       0.020148683 -0.024421796 -0.13865988 0.059476282
000160 3e c6 e2 3c e1 78 67 be 7b a6 fc 3c 8e 28 e9 bd
       0.02768242 -0.22604705 0.030841103 -0.11384688
000170 e2 8d 11 bd dc c0 6d 3e 3a 3e 82 be 7b ff 6e be
       -0.0355357 0.23218101 -0.254381 -0.23339646
000180 30 8c 91 bd 6f 8b fc bd 28 f5 f6 bd cf 06 a9 3d
       -0.07106817 -0.12331282 -0.120584786 0.08253252
000190 bd 7b d6 3d 98 52 29 bc aa 97 85 be b5 6f 14 be
       0.1047282 -0.010334633 -0.26092273 -0.14495738
0001a0 d3 f9 6e bd 45 53 44 3e 64 82 59 3c 97 f2 1a bd
       -0.05834372 0.1917239 0.013275716 -0.037829008
0001b0 07 19 16 be 4f f9 76 be 4c ba e3 bc 23 ac 70 3e
       -0.14657985 -0.24118541 -0.027798794 0.23503165
0001c0 63 95 c5 bc 77 22 8b 3e e7 26 1e be d7 16 56 3d
       -0.024119085 0.27174732 -0.15444528 0.052267876
0001d0 da 1f 1c 3e 05 6a 45 be 81 ec 3f be 43 fc 01 be
       0.15246525 -0.19278724 -0.18742563 -0.12693886
0001e0 82 42 da 3c 51 d3 52 3e 7e 7f 6b 3e 7b a5 23 3e
       0.026643042 0.20588423 0.22997853 0.15981095
0001f0 ef 39 4b be e6 13 90 3c e1 80 2e 3e a5 b8 c4 3d
       -0.19846319 0.017587613 0.17041351 0.09605531
000200 5e 19 c3 3d 63 b0 09 bd 21 08 c1 bd ac ce eb bd
       0.09526323 -0.03361548 -0.094253786 -0.11514029
000210 7c 79 6f be 4c 08 08 be e3 d5 fe 3d e5 94 11 3d
       -0.23386186 -0.13284415 0.124431394 0.035542388
000220 78 93 87 3e b0 04 0b 3e da b9 80 3e 1b df b4 3c
       0.26479697 0.13576007 0.25141793 0.022079041
000230 ef 5b 07 be 64 33 c9 3c 28 04 81 3e 59 5c 8f 3e
       -0.13218664 0.024560638 0.25198483 0.28000143
000240 56 90 5a be 26 b3 e9 3d c2 48 09 bd e8 71 3e 3c
       -0.21344122 0.11411123 -0.033516653 0.011623837
000250 f7 d4 9b bd d9 e6 15 3c
       -0.07608979 0.009149277
