crowd_nav/data/archive/output_SARL-incomplete/il_model.pth (torch, 392547 bytes, 20 tensors)

mlp1.0.weight f4 [150, 13]
000000 5d 75 03 be d5 28 2e 3e 3e b6 96 3c 66 fc 07 3e
       -0.1283774 0.17007764 0.018397447 0.13279876
000010 8d 33 50 be 7e a1 e0 3d ba 03 39 be 84 0d d7 3b
       -0.20332165 0.10968302 -0.18067828 0.0065628905
000020 a9 90 59 3e 39 8b 76 be 76 43 a5 3c 10 05 81 3d
       0.2124659 -0.24076547 0.02017377 0.06299794
000030 46 88 6d 3d 65 c3 29 3e 13 eb 4f be e1 f6 cc 3d
       0.05799129 0.16578443 -0.20304517 0.10008026
000040 5d 86 81 3e 0d fd 88 be 3a 67 65 3e ab b9 92 be
       0.25297824 -0.26755562 0.22402659 -0.28657278
000050 a2 d0 7b 3e 96 8e 8e be 3e ca 27 39 d0 c8 6c 3e
       0.24591306 -0.2784316 0.00016001702 0.23123479
000060 65 8d 5e be f2 70 46 be c3 59 63 3d 88 89 3b be
       -0.21733625 -0.19379023 0.055505525 -0.18314183
000070 ea 37 92 bd 13 ad 62 3d 2d e8 88 be c4 19 eb 3d
       -0.07139571 0.055340838 -0.26739636 0.11479524
000080 63 54 8d be 14 f5 87 3d df 8f 3e 3e d9 49 10 3e
       -0.27603444 0.06638542 0.1860957 0.1409067
000090 c4 71 5d 3e 08 5d aa bd 01 44 72 be 89 ee 82 be
       0.2162543 -0.083185256 -0.23658754 -0.25572613
0000a0 21 cf 06 3e 25 e4 4b 3d eb 57 19 3e a7 ee 7f 3e
       0.13164951 0.049778122 0.14974944 0.24993382
0000b0 1f 60 3d be 8d d0 7e be 20 98 2b bd 8c 99 cb bd
       -0.18493699 -0.24884243 -0.041893125 -0.09941396
0000c0 c8 e3 ab 3d fd e2 26 be 58 bc 17 bd c1 08 2f be
       0.08393055 -0.16297527 -0.037044853 -0.17093183
0000d0 35 9a 82 3c f8 9e 10 3e 13 21 43 be b5 39 f0 3c
       0.015942672 0.14123142 -0.19055586 0.029324392
0000e0 4c 30 39 bd af 4e 64 3e e5 8e 1b be 91 f8 28 be
       -0.045212075 0.2229564 -0.15191229 -0.1650107
0000f0 03 82 f8 bc 66 74 bb bd 47 df 63 3e 36 90 d2 bd
       -0.030335432 -0.091530606 0.22253142 -0.10281412
000100 6c ab 0f 3e 49 a2 30 be 1d 27 a3 3c f6 c8 dd bd
       0.14030236 -0.17249407 0.019916112 -0.10829346
000110 f1 52 1d be f4 b3 76 bd b8 36 19 bd a3 4a fe bd
       -0.15363671 -0.06023021 -0.0374057 -0.124165796
000120 48 f0 3c 3e d8 4d eb bd 07 02 6f be 01 0b 75 3e
       0.18451035 -0.11489457 -0.23340617 0.23929979
000130 2b f6 05 be 0f de b4 bd a6 aa 4a bc b3 a2 31 3e
       -0.13082187 -0.08831417 -0.012369787 0.17347221
000140 ee 3b 66 be cc 7b 3f bc 45 d5 5f 3e 60 d3 20 3d
       -0.22483799 -0.01168723 0.218587 0.039264083
000150 bb 2d 1f bd 66 84 1f 3c 8d 0d 9c be fd 50 fe 3d
       -0.03886197 0.009736156 -0.30479088 0.12417791
000160 94 a7 69 3e d4 8a d2 bc 23 75 86 3e a5 87 33 be
       0.22817832 -0.025700964 0.26261243 -0.17532213
000170 38 f4 75 3d 05 f0 aa 3c 63 e6 7f be 09 3f b9 3d
       0.06004736 0.020866403 -0.2499023 0.09045226
000180 0b fd e8 bc c7 69 b0 39 b9 5d 01 3e a5 48 3c bd
       -0.028440973 0.00033648146 0.12633409 -0.045967717
000190 ef d3 88 3e 1a f3 71 b9 0d 79 34 be 6f 93 10 3e
       0.26724193 -0.00023074113 -0.17624302 0.14118741
0001a0 3c e6 08 3d 3c 28 15 be 9e 36 fc 3c 70 e7 72 be
       0.033422694 -0.1456613 0.030787762 -0.23721099
0001b0 24 96 4a bd a7 01 a6 be 33 95 92 bd ec 79 97 be
       -0.04945959 -0.32423136 -0.07157364 -0.29585207
0001c0 3c cc 1a 3b f4 21 e7 3d a4 f1 25 be 34 ff b5 3c
       0.0023620268 0.11285773 -0.1620546 0.022216417
0001d0 c4 96 08 bd 32 c8 02 3e f9 c7 44 be 90 71 07 3e
       -0.033346906 0.12771681 -0.19216909 0.13226914
0001e0 d2 0f 86 3e 8e 63 51 3d 83 40 28 be 99 65 55 3e
       0.26183945 0.051120333 -0.1643086 0.20839538
0001f0 6a 3c 36 be bb ac 33 3e d7 8c b7 3d 3a 67 81 3e
       -0.17796484 0.1754636 0.0896241 0.25274068
000200 d2 1c 8c bd 8b 30 2e 3d b5 a6 3b be 80 d9 5a 3e
       -0.068414345 0.042526763 -0.18325312 0.21372032
000210 8c 09 2f 3e 42 95 15 bd c2 e9 73 be 89 92 66 be
       0.17093486 -0.036519296 -0.2381964 -0.22516836
000220 4f 5c 90 3d 9e 5f bb 3d a3 9d 41 be fc b2 42 be
       0.070488565 0.09149097 -0.1890779 -0.1901359
000230 e5 96 b4 bd b7 63 3f be 34 25 90 bd 47 37 dd 3d
       -0.08817843 -0.18690382 -0.07038346 0.10801559
000240 b3 41 f6 bd 38 fa 1f be 8b 0b 5d 3d 91 ab 63 3e
       -0.1202425 -0.15622795 0.053966086 0.22233416
000250 63 b4 e0 bd 6f 66 22 bc 89 f1 82 3e 10 88 91 3e
       -0.10971906 -0.009912117 0.25574902 0.2842412
000260 18 18 27 3e 0f 8c 00 3e a7 25 e3 bd 24 0f b0 3c
       0.16317785 0.12553428 -0.11091166 0.021491595
000270 7e 52 a5 3c be 18 96 be 6d e0 85 3e 94 de 9b bd
       0.020180937 -0.29315752 0.26147786 -0.07610813
000280 44 12 9d 3d d5 9f 57 be f3 37 83 3e 79 22 31 bd
       0.076694995 -0.21057065 0.25628623 -0.043245766
000290 d3 67 a0 bd 11 ef d4 3c 03 34 7e bd f4 26 ab 3d
       -0.07832303 0.025992902 -0.06206132 0.08357039
0002a0 00 59 e5 3d 8d 8e 6c be c1 06 71 be f7 c8 3f 3e
       0.11198616 -0.23101254 -0.23537733 0.18729006
0002b0 79 49 3e be e7 c3 39 3e 83 7d 74 3c a2 37 98 bd
       -0.18582715 0.18141137 0.014922502 -0.07432486
0002c0 fa 24 73 be e4 2d 28 3e a9 09 b5 3d c8 af 64 bd
       -0.23744574 0.16423756 0.08839733 -0.0558317
0002d0 a6 87 3b 3d 91 79 44 be e4 e5 20 bd ce 9d c0 3d
       0.04578366 -0.19186999 -0.03928174 0.09405099
0002e0 9f 35 69 bd 33 74 82 3d 34 a4 79 3e 68 52 5c 3a
       -0.056935903 0.063698195 0.24379045 0.00084046135
0002f0 e5 5e 45 3d 29 ee 78 3e 87 7f b7 3d c2 89 9c 3d
       0.0481862 0.24309601 0.08959871 0.07643463
000300 d9 61 72 bd 75 39 83 3d 0a 66 70 3e 62 85 8b 3d
       -0.059175346 0.064074434 0.23476425 0.0681255
000310 d6 63 86 be f5 28 cd 3b c8 19 5f be 7d 62 86 be
       -0.26248044 0.006260986 -0.21787179 -0.26247016
000320 94 c1 0c be ab 00 98 3e e7 11 7b 3c cf 53 ab 3e
       -0.13745719 0.2968801 0.0153240925 0.33462378
000330 22 3e 37 3e 57 65 09 be a1 ec 1c 3e fe b7 06 3e
       0.17894796 -0.13417564 0.15324642 0.13156125
000340 09 6a 6a 3d 52 f0 1a 3e 6d ee 2a be 03 e0 10 3e
       0.05723003 0.15130737 -0.16692515 0.14147954
000350 24 5a a2 3d 99 b8 08 be 09 e9 c7 3d 84 23 54 be
       0.07927349 -0.13351668 0.09761245 -0.20716673
000360 4a 88 5b be 03 fc 08 3e b0 54 33 3e 55 5d 75 be
       -0.21438709 0.13377385 0.17512774 -0.23961385
000370 f8 32 8b 3e 49 c7 9d 3d a4 96 4e 3e 10 b3 77 be
       0.27187324 0.07704026 0.20174652 -0.241894
000380 2d 5f 41 be 3b 0c 8d be eb 0d 03 3d cd f7 38 bd
       -0.18883963 -0.27548394 0.031995695 -0.045158196
000390 80 89 a8 bd 5d fb 58 bd be 23 8c 3e 4d 3b a5 bd
       -0.08229351 -0.052974094 0.2737102 -0.08067951
0003a0 f3 1d 85 be 3c e1 41 be d0 4f 89 3d 60 cb 36 be
       -0.25999412 -0.18933576 0.06704676 -0.17851019
0003b0 14 c2 06 be 8d d5 c3 3d 12 00 13 3d 84 fa 4e 3e
       -0.13159972 0.09562216 0.03588874 0.20212752
0003c0 e7 91 4f 3e 33 fd 4e bd d8 c5 ae 3e 6f c4 25 be
       0.20270501 -0.05053444 0.34135318 -0.16188215
0003d0 2f 55 04 3e 5f 48 d2 bd 3c be 2f be 2f 29 79 be
       0.1292312 -0.1026771 -0.17162412 -0.24332117
0003e0 83 b6 85 bd cb 64 53 be 03 86 d8 3d 21 19 7a 3e
       -0.06528952 -0.20643918 0.10572436 0.24423648
0003f0 7f c7 46 be 01 e1 b5 3d 1b 99 64 bd 6f bf 4a 3e
       -0.19412039 0.08880807 -0.055810075 0.19799589

mlp1.0.bias f4 [150]
000000 87 5a c9 3d c7 8f 31 bc e8 54 a0 3c 6f 6a 51 bd
       0.0983172 -0.010837502 0.019571736 -0.051126894
000010 61 49 04 3e 1d cd 15 3c 93 e8 a9 bd ad 38 5e 3e
       0.12918617 0.009143141 -0.08296313 0.21701308
000020 94 b4 52 3e 12 b1 1e be 84 75 24 be 7d 0d e4 3d
       0.20576698 -0.15497234 -0.16060454 0.11135385
000030 62 79 66 3d 9b e1 99 bd bc 06 3b be 42 9b 4b 3e
       0.056268103 -0.07513734 -0.18264288 0.19883445
000040 f1 7f 09 bd 70 49 82 3e 15 45 5d 3e b2 be 60 be
       -0.03356928 0.25446653 0.21608384 -0.21947744
000050 d3 08 88 be 18 c7 88 3e ad fe cd 3d 65 23 38 bd
       -0.26569232 0.26714396 0.10058341 -0.04495563
000060 c6 24 28 be 21 7b 3c 3e bf 35 06 3e 19 6d cd 3d
       -0.16420278 0.18406345 0.1310644 0.10030574
000070 95 94 a4 be 42 47 31 3e e5 c7 11 bd 83 3d c6 3d
       -0.3214461 0.17312339 -0.035591025 0.09679701
000080 27 59 18 bd ed fb 11 be 46 3d f1 3c 9c 69 a7 bd
       -0.037194397 -0.14256258 0.029448163 -0.0817444
000090 6f f9 2c 3e 20 14 6e 3e ae b0 27 be 31 09 97 3c
       0.16892026 0.23249865 -0.16375992 0.018437
0000a0 52 83 91 be fc 0f 1b 3d 7b 02 80 be 5a ba 42 3d
       -0.28420502 0.03785704 -0.25001892 0.047541
0000b0 16 52 92 be 1d 79 33 be aa 96 47 be 67 57 96 3d
       -0.28578252 -0.1752667 -0.19491068 0.073408894
0000c0 ac 22 34 3e 9d 71 12 be 9a 9c 94 3d 1b 85 02 3e
       0.17591351 -0.14301153 0.07256432 0.12746088
0000d0 e1 54 5d bd 77 1d 40 bc e7 ab af 3c 5b 67 7f 3e
       -0.054036025 -0.011725775 0.021444274 0.2494177
0000e0 38 50 3e be 31 a3 13 3e 66 5d 37 be 40 1b 58 be
       -0.18585289 0.14417721 -0.17906722 -0.21104145
0000f0 de 83 6f be 7c c9 c7 3c b4 67 c0 bd 24 8a 34 3e
       -0.23390147 0.024388067 -0.0939478 0.17630821
000100 43 52 67 3e c9 11 1e 3e 96 eb 57 3d dc 79 08 3e
       0.22589974 0.15436472 0.052714907 0.13327736
000110 0d 60 a6 bd 73 25 80 bd d9 89 7c 3b b4 85 02 be
       -0.08123789 -0.06257143 0.0038534312 -0.12746316
000120 5a 2c d2 bd 39 d0 49 be 1f 97 04 be e6 f9 e3 bd
       -0.10262366 -0.19708337 -0.12948273 -0.11131649
000130 d1 c3 4d 3e 45 ed d5 3c 59 1c 1d 3e a9 12 95 bd
       0.2009423 0.026114115 0.15342845 -0.0727895
000140 50 59 5d 3e 97 86 4e bd cb 33 a4 bd 92 8a 31 bd
       0.21616101 -0.050421324 -0.08017691 -0.04334504
000150 11 8a 84 be 5b 46 9c 3d 07 33 4b be e5 ec 6b 3a
       -0.25886586 0.07630607 -0.19843684 0.00089998386
000160 54 86 95 be 56 33 02 bd 34 39 92 3e 3c 2b 93 3d
       -0.29204047 -0.03178724 0.28559268 0.07185981
000170 39 47 6b bd a9 c3 85 be 11 78 4f bd 9d c3 6c be
       -0.05744097 -0.2612584 -0.050651614 -0.23121496
000180 c8 98 73 bd ac 59 3f be d1 fb b9 bc b3 57 a3 bd
       -0.059471875 -0.18686551 -0.022703083 -0.07975712
000190 ff 05 2a be ef 1e 9d 3d db 03 45 bd 6a 43 8b be
       -0.1660385 0.07671916 -0.04809938 -0.2719987
0001a0 10 04 26 3e ea b9 3a 3e f8 71 0f 3e ef 04 56 be
       0.16212487 0.18234983 0.1400832 -0.2090032
0001b0 d0 2c 74 3e 2a 00 65 3e 6d da 2a 3e 9b db 92 be
       0.2384522 0.22363344 0.16684885 -0.2868317
0001c0 11 1e 3f 3c c5 cf 44 b9 9c 4d 0e be 74 b0 a7 bd
       0.011664883 -0.00018769417 -0.13896793 -0.08187953
0001d0 b8 79 1e be 54 c7 ba bd 3e 3d 95 bd 7c c5 a6 3d
       -0.1547612 -0.0912005 -0.07287072 0.08143136
0001e0 db ba 33 3e 22 cd 47 3e 0f 76 37 be 3e e2 c3 3d
       0.17551748 0.19511846 -0.1791613 0.09564637
0001f0 79 37 8c bd 8b 71 2a be db 98 92 3d d3 35 44 3d
       -0.06846518 -0.16644876 0.07158061 0.047902893
000200 18 fa 5b 3e a4 31 20 3e 1d 6d ab bd b0 6d 2c 3e
       0.21482122 0.15643936 -0.08370421 0.16838717
000210 68 27 ab 3c 5f 7f d7 bd 33 64 ec 3d 2c d9 34 3c
       0.020892814 -0.10522341 0.11542549 0.011038106
000220 f2 f7 25 be f5 1c d4 bd 7a 52 7c be 7a 70 01 3e
       -0.16207865 -0.103570856 -0.24640837 0.12640563
000230 a5 ad f9 bd be f1 67 be 40 cb 86 be 53 f3 01 3e
       -0.12191323 -0.22650811 -0.26326942 0.12690477
000240 0a d3 7e 3e 43 1e c7 bd 14 08 58 be 67 f2 29 be
       0.24885193 -0.09722569 -0.21096832 -0.16596375
000250 ad b0 6e be 42 10 e8 3c
       -0.23309584 0.028328065

mlp1.2.weight f4 [100, 150]
000000 a4 8e 95 3d 46 3e cf 3c 9e 0a ac 3d e3 5a 90 3d
       0.07302597 0.025298249 0.084004626 0.07048585
000010 69 37 a2 bd 94 d6 8b bd af 47 ed bb bf 67 d7 3c
       -0.07920725 -0.06828037 -0.0072412114 0.026294587
000020 92 14 00 3e 3a 92 14 bd 84 66 0d 3d cd 90 8a bd
       0.12507847 -0.036272265 0.034521595 -0.067659
000030 b0 09 83 bd d6 f9 91 bc 3c fc 3e 3d db ab 0a bc
       -0.06398332 -0.017819326 0.04662727 -0.008463825
000040 e7 6c b0 3d fd 2a e7 3c f4 99 33 bc 33 57 e2 3c
       0.086145215 0.02821874 -0.010961998 0.02762947
000050 bb 25 5b bd 89 9a 66 3d 38 22 c7 3d 14 69 2a 3d
       -0.05350278 0.05629972 0.097233236 0.041604117
000060 f6 de 08 bd 6e 49 a8 bd 4c 00 4a 3d 9a 41 37 3c
       -0.033415757 -0.082171306 0.04931669 0.011185074
000070 37 2d 78 3d 5e dd 42 bc d7 97 15 bd fc dd 76 3c
       0.060589995 -0.011893598 -0.03652176 0.015067574
000080 4a e8 9c bd 52 40 51 bc 9e 89 99 3c 14 4a 68 bd
       -0.07661493 -0.012771683 0.018742379 -0.05671127
000090 fa 59 b1 3d 70 f5 97 bc a0 dd aa 3c b4 af 5b bd
       0.0865974 -0.01854965 0.020857632 -0.05363436
0000a0 90 c0 92 3c 64 e9 fd bc 1e 77 e7 3a 47 4a 8e 3d
       0.017914087 -0.030995078 0.0017659401 0.06947761
0000b0 ba 51 96 bd ca 96 d6 bb 12 bd 41 3d 36 09 54 3d
       -0.07339807 -0.006548737 0.047299452 0.051766597
0000c0 ef f1 b6 3d 3b d3 aa 3d 4a 34 99 bb 1e a5 84 bd
       0.08932864 0.0834107 -0.004675423 -0.06476806
0000d0 c7 38 30 bd b7 de 88 3d 09 99 32 bd e3 2c 7d 3c
       -0.043022897 0.066831045 -0.043602977 0.015452596
0000e0 75 c6 52 3d fb 8a 80 bd a1 ea 01 bd c7 08 86 3d
       0.051458795 -0.062765084 -0.0317179 0.06544643
0000f0 7e a9 35 3c 4c 3e 5d 3d c3 65 1b 3d 59 8e a6 3d
       0.011087773 0.05401449 0.037938844 0.081326194
000100 44 87 40 bd 9c f7 9f 3d 9e 46 51 3a eb 5c ec 3c
       -0.047004 0.078108996 0.000798324 0.0288529
000110 c2 b3 86 3d f2 de 77 bd dd 0d 20 3d b8 d7 28 3c
       0.06577255 -0.06051535 0.03907572 0.010305338
000120 20 fa 84 bd c2 d7 9c 3c 15 4b 86 bd a5 8f 40 bd
       -0.0649302 0.01914585 -0.065572895 -0.04701199
000130 07 34 97 3d c2 da 89 3d 26 02 9d 3c d9 8c 4b 3d
       0.0738297 0.06731178 0.019166064 0.04969487
000140 36 2a 4a bd 65 1f 37 bd 0e 25 23 bd b2 a1 4d 3c
       -0.04935666 -0.044707675 -0.03983026 0.012550758
000150 f0 fe 5e 3d 41 f5 18 bd a1 ed 6f bd 9a 07 00 bd
       0.054442346 -0.037343267 -0.05857623 -0.03125725
000160 bc 9b 87 3d b9 56 4e bd f8 e1 b9 3c 30 29 82 3c
       0.06621501 -0.050375674 0.022690758 0.01588878
000170 7e a6 8a 3c 24 82 d4 bc 51 a1 b4 3d d6 c0 50 bd
       0.016925093 -0.025940962 0.08819831 -0.050965153
000180 37 90 97 bd e7 05 82 3d 91 ff bf bc fe 4a 17 bd
       -0.07400554 0.06348782 -0.023437293 -0.036936752
000190 9d c2 77 3d 4b 24 83 3c 91 ab 16 bd 9e f4 30 bc
       0.060488332 0.016008517 -0.036784712 -0.010800509
0001a0 bd 33 4a bc a4 c0 47 bc 52 94 9f bc 98 59 f3 bc
       -0.012341437 -0.012191925 -0.019479904 -0.029705808
0001b0 d0 ad 37 bd df 61 99 bd 75 e8 a6 3d 71 df 3a 3d
       -0.044843495 -0.074893706 0.081498064 0.045623247
0001c0 c1 2a 04 3d b6 e5 47 3d d0 97 2f bc 26 2a 5e bd
       0.032267336 0.048803054 -0.010717347 -0.054239415
0001d0 4a b2 f6 3c 60 9c 6b bd bf 2c fb 3c 08 8d 72 3d
       0.030114312 -0.057522178 0.030660985 0.05921653
0001e0 2c 09 b7 3c 63 b6 61 bb 03 49 60 3d 8b 2d ab bd
       0.02234324 -0.0034440986 0.05475713 -0.08358296
0001f0 16 17 2a 3d 2c f7 6a 3d ee 57 90 bd 0f cb 39 bc
       0.041525923 0.057364628 -0.07048021 -0.011339917
000200 87 d7 a2 3d 34 04 7b 3d 54 fa d6 ba ec 20 3f bc
       0.07951265 0.061283305 -0.0016401508 -0.011665564
000210 4e 38 28 bc a4 86 a4 bd de df 70 3d ec 2f 71 bb
       -0.01026733 -0.08033493 0.058807246 -0.0036802245
000220 ee b1 5f 3d 5c 6b 55 bd aa 58 a5 bd 2f 6a 9d bd
       0.054613046 -0.05210434 -0.08073552 -0.076862685
000230 63 4e 1e 3d 68 00 54 3d 70 64 f2 ba d2 69 89 bd
       0.038648974 0.0517582 -0.0018493067 -0.06709637
000240 2f 87 be 3d 77 87 a1 bd 20 3b e8 bb 0b 15 a6 bd
       0.09303128 -0.07887166 -0.0070871264 -0.081094824
000250 98 de 22 bd 8c ba cd 3c 31 5f 77 bd cc e8 c0 bc
       -0.039763063 0.025113367 -0.060393516 -0.023548506
000260 fe ab 83 bd 5f 31 21 3c ab 9c 74 bd 27 b0 ae bc
       -0.06429289 0.009838431 -0.059719723 -0.02132423
000270 4d 17 16 bd b6 45 d1 3c 9f ba 81 bd 88 d9 a1 bd
       -0.036643315 0.025545936 -0.06334423 -0.07902819
000280 ed 09 83 3b 34 f7 e8 bc b5 0d 8f 3c dc 1f fe bc
       0.003998986 -0.028438188 0.01746259 -0.031021051
000290 a3 70 73 bd d6 72 35 3d f4 79 31 3b 5d dc 63 3d
       -0.05943359 0.04429897 0.0027080746 0.055630077
0002a0 0b 1b 88 3c 9f 2f 28 3d 27 4b 10 bd fc 8a 9e 3c
       0.016614458 0.04106104 -0.03522792 0.019353382
0002b0 a4 e5 2b bd 01 bb a2 3c df 7a e9 bc cd 05 57 bd
       -0.04196705 0.019864561 -0.028500972 -0.052495766
0002c0 20 e0 fd bc a1 df 68 bd ab 5f 5e bb 07 0a 82 3d
       -0.03099066 -0.056853894 -0.0033931534 0.06349569
0002d0 92 b6 6a 3d 6f ef 59 3c 79 63 b7 bc 96 68 1f bc
       0.05730302 0.013301714 -0.0223863 -0.009729525
0002e0 df 33 41 3d e4 46 a1 bd 8b 15 0c 3d 23 fe 79 bd
       0.04716861 -0.078748494 0.034200232 -0.06103338
0002f0 d4 88 73 3d 46 a5 38 3c 6a ca 1d 3c e5 1f fe bb
       0.05945666 0.011269873 0.009630779 -0.007755267
000300 10 c0 a1 bd f2 a9 55 bd 4d 27 95 3d fa bc 5e bb
       -0.07897961 -0.052164026 0.07282887 -0.003398715
000310 ee 13 7f bd b2 ca 0a bd 89 79 89 bd f7 4e 11 3d
       -0.062274866 -0.03388471 -0.06712634 0.035475697
000320 11 68 67 3d dd aa f4 3c 10 8e 50 3d ac 83 f3 bb
       0.05649573 0.02986663 0.05091673 -0.007431468
000330 83 22 a1 3d 08 92 47 3d e1 fb 54 3d 3c 4a 85 3c
       0.07867911 0.04872325 0.051998023 0.01627075
000340 3b 67 d6 bc 4f 68 ba 3b 84 da 89 bb cc b5 49 3d
       -0.026172271 0.005688704 -0.0042069573 0.04924564
000350 5d 4b 9c bd 23 77 a0 3d e8 28 71 3d 20 a9 9b bd
       -0.07631562 0.078352235 0.058876902 -0.076006174
000360 74 54 08 bd 44 e1 8e 3c 12 95 63 bd 7c 26 8a bd
       -0.033283666 0.0174414 -0.055562086 -0.067456216
000370 14 74 bd 3c 1c c5 55 bd e3 15 02 bd 80 aa f1 ba
       0.02312664 -0.05218993 -0.031759154 -0.0018437654
000380 00 2e 78 bd ae a2 c1 ba e2 cc 44 3d ff cb 0b 3d
       -0.060590744 -0.0014773214 0.048046954 0.034130093
000390 81 df 16 bd 32 83 0b bc b8 54 83 bd 5b e1 96 bd
       -0.036834244 -0.008515166 -0.06412643 -0.07367202
0003a0 23 90 92 bd f4 ef 8e bd 71 6b 59 bd ef 64 95 3c
       -0.07156398 -0.06979361 -0.05308098 0.018236605
0003b0 5f b3 62 bd 03 13 6a 3c 87 a8 aa 3b b2 45 8d bd
       -0.055346843 0.014286759 0.0052080783 -0.06898059
0003c0 13 d2 8d 3d 67 a1 a0 3d 69 fc 8a bc 7e 3f cb bc
       0.06924834 0.07843285 -0.016966062 -0.024810549
0003d0 a9 51 8c 3d 3a 72 96 3d 1e 32 7e 3d 24 18 67 3c
       0.06851513 0.07346006 0.062059514 0.014104877
0003e0 19 87 c7 bc 68 23 19 bd ac a7 32 3d 10 0a 36 3c
       -0.024356412 -0.03738728 0.043616936 0.0111107975
0003f0 58 b5 93 bd 06 4e ce bc a7 0b 86 bd 48 1c 98 3d
       -0.07212323 -0.025183689 -0.06545191 0.07427269

mlp1.2.bias f4 [100]
000000 b6 0c 48 bd 53 b3 8f bd 1a ad e8 3c 7b 8b 11 3d
       -0.048840247 -0.07016625 0.028402854 0.03553341
000010 e0 9c 68 bb a9 d8 7d 3d fc bf 13 3c 19 6b 50 3a
       -0.0035493895 0.0619742 0.009017941 0.0007950529
000020 5b cc 20 bd af 80 74 bd f8 c3 a2 3d 1e 1b 24 3c
       -0.03925739 -0.059693035 0.07947534 0.010016231
000030 4d 73 e2 3c a1 d5 e1 3d a5 74 94 3d c5 f6 28 bd
       0.02764287 0.110270746 0.07248811 -0.041250963
000040 53 fe 05 3c bc ad 99 3d ae d7 42 bc 1a 00 78 3d
       0.008178311 0.0750384 -0.011892242 0.06054697
000050 e3 fc 08 3d fd a3 7b bc 78 fb 87 3a fe e8 46 bc
       0.033444297 -0.015358922 0.0010374626 -0.012140511
000060 d7 be 18 bc 87 ef 7d 3d 3e 0a 40 bc 4c 41 00 be
       -0.0093228435 0.06199601 -0.011721192 -0.12524909
000070 ef e4 ea bb dd 28 e4 3c d1 6c ba 3c f2 e7 aa bd
       -0.0071684043 0.027851516 0.022756966 -0.08345021
000080 7d e4 97 bd bf 5e 9d 3d 8d d1 d4 bd 07 67 1f bd
       -0.074166276 0.07684087 -0.10391531 -0.038916614
000090 16 91 df bb b6 16 44 bd 98 76 91 3d 03 11 8c bd
       -0.0068227155 -0.04787322 0.07102698 -0.06839182
0000a0 de d1 4d 3d c4 1f c6 3c a5 ff 5e 3d c7 e5 e0 3c
       0.050248973 0.024185069 0.05444302 0.027453316
0000b0 50 ee c1 3d 2d e4 1c bd 2b 1c 61 bd c3 c0 25 bd
       0.094692826 -0.038303543 -0.054958504 -0.040467035
0000c0 16 3d bb 3a fa 2f cd 3d f4 bc 34 bd f9 45 b4 3c
       0.0014285173 0.100189164 -0.044125512 0.022006022
0000d0 33 09 a9 bd 70 49 67 3d e3 86 3a 3c 3c 3e 59 bc
       -0.08253708 0.05646652 0.011384699 -0.013259467
0000e0 58 1a ef bc 68 ac ad bd da 51 9c 3b bc 3d 0d bd
       -0.029187366 -0.084801495 0.0047704997 -0.034482703
0000f0 44 70 66 bd 2a 2b 34 3c 10 64 19 3d 48 72 5c 3d
       -0.05625941 0.010996619 0.037448943 0.053819925
000100 21 6a 4e 3c 25 aa f9 bc f9 a2 ef 3c b5 41 fd 3d
       0.012598545 -0.030476639 0.029252516 0.12366048
000110 13 6a af 3c e1 8b 2d bd 70 42 4a bd d6 ee e5 bc
       0.021412885 -0.042369727 -0.049379766 -0.028067987
000120 5c 62 2e 3d 05 ee a8 bd 96 73 38 3c 67 05 88 3d
       0.04257427 -0.082485236 0.011258027 0.066416554
000130 2d ee 17 bd 9f 63 b3 bc 35 84 15 3d 77 ed b3 3c
       -0.037092377 -0.021898089 0.036503036 0.021963818
000140 21 96 a9 bd f8 39 a6 bc d5 58 a9 3d ad 71 08 3e
       -0.08280588 -0.020291314 0.082688965 0.13324614
000150 56 fe 65 3c 2b 76 f4 3b 04 16 5d 3d d9 cb c0 bd
       0.014037689 0.007460376 0.053976074 -0.09413881
000160 4a 91 62 bd c7 cb 8f bc 81 1b eb bd 64 48 5f 3d
       -0.05531434 -0.017553223 -0.11479855 0.054512396
000170 f1 06 e8 bb c5 52 ba 3d 11 23 cb bc 40 a3 a3 3d
       -0.0070809056 0.09097818 -0.024796994 0.07990122
000180 73 b3 22 3d ee 39 32 3d c5 ce 91 3d 9b 97 16 bd
       0.039721917 0.043512277 0.07119516 -0.036765676

mlp2.0.weight f4 [100, 100]
000000 98 3f d6 3c 4a 5f c7 3d 51 8d 9f 3c 6a 01 99 bb
       0.02615337 0.09734972 0.019476565 -0.004669358
000010 e0 e5 37 bc fc ae ab bd 99 da 9d bd 65 fa 09 3d
       -0.01122424 -0.08382985 -0.0770771 0.03368606
000020 ef 25 86 bd 4a a3 15 bd 68 1b 56 bd 60 3f 9a 3d
       -0.06550204 -0.036532678 -0.05227223 0.07531619
000030 4c f6 68 bd 5e d3 51 3c 34 ed 99 bd 27 13 17 3d
       -0.056875512 0.0128067415 -0.07515946 0.0368835
000040 1b c7 ec bd 5e c1 d0 3d f8 e7 8b bc 32 6b d3 bd
       -0.11561414 0.10193132 -0.017078385 -0.1032318
000050 f5 6b ea ba 65 b1 8e 3b 61 47 fb bc 06 1c a6 3d
       -0.0017884957 0.004354643 -0.030673685 0.08110814
000060 a6 8d c2 bc 47 d4 ad 3d ce 61 b9 3d 47 c3 ad bd
       -0.023749184 0.08487754 0.09051858 -0.08484512
000070 78 7c 8f 3d 5a 14 93 3d c6 3b 76 bd 1a fd 09 3d
       0.070061624 0.07181616 -0.0601156 0.033688642
000080 e1 9a 58 3d aa 3f b6 3d c4 ee 82 3d 0b c3 81 3c
       0.05288208 0.08898862 0.06393197 0.015840074
000090 60 0e 86 bc 70 8e 5f 3d d5 9d de 3d 72 7c 8c 3d
       -0.016364276 0.0545792 0.10869948 0.068596736
0000a0 88 56 96 bd 4d c2 ee 3b 0c 60 10 bd 04 aa bf 3d
       -0.07340723 0.007286346 -0.035247847 0.093586
0000b0 7b 29 1c 3d b2 cb 15 3d e5 07 c3 bd af 39 8f 3d
       0.038125496 0.036571212 -0.0952299 0.06993424
0000c0 25 25 b3 3d 0f fa 12 3e d4 4a 73 3d 67 c5 ff bc
       0.08747319 0.14353202 0.059397534 -0.031222058
0000d0 c6 a6 83 bc 9d 5e 91 3d d8 21 a4 bc 2b 60 e9 3d
       -0.016070735 0.07098124 -0.02003567 0.11395296
0000e0 2b 06 cd 3b 1b 28 3b bd ac 9b 97 bd dc 4b 0e bd
       0.006256839 -0.045692544 -0.07402739 -0.034740314
0000f0 1c a3 be 3d b8 83 12 3d a6 83 e1 bb ff 17 6d bd
       0.093084544 0.035770148 -0.006882149 -0.057884213
000100 71 9f 6b 3a 4c 84 1b 3d 70 51 d8 bc 24 7b 4a 3b
       0.0008988297 0.037967965 -0.02640602 0.0030896151
000110 06 4a 58 bb e8 48 6c 3d 61 ae 75 3a d3 5f ad bd
       -0.0033003106 0.057686716 0.0009371993 -0.08465543
000120 63 8c 7a bd a6 f7 b6 bd 61 72 6f bd 99 74 b0 3c
       -0.06116904 -0.08933954 -0.05845869 0.021539973
000130 85 6b f9 bb f7 a9 54 3d 4a ce 10 3c 5b 98 9d 3d
       -0.0076116943 0.051919904 0.008838246 0.07695075
000140 bf 8f 02 bb c3 b6 10 bd 02 83 71 3c ca d1 55 3c
       -0.0019922105 -0.035330545 0.014740707 0.013050506
000150 db 90 db bd c6 37 a0 3d b7 5c 24 bd da f9 5a 3d
       -0.10720988 0.07823138 -0.040127482 0.053460933
000160 1f b0 29 bc 63 6b 9c bd 03 2b f2 bc 7f 08 5e bd
       -0.010356932 -0.0763767 -0.029561525 -0.05420732
000170 62 84 47 3c 0e 99 f1 3a 5b d3 cd bd c1 38 1a 3c
       0.012177559 0.0018432455 -0.100500785 0.009412945
000180 21 e4 a7 3d 0e b3 de 3c dc 32 87 bd 7e 14 89 3d
       0.08197809 0.02718499 -0.066014975 0.06693362
000190 67 59 b7 3d e5 22 92 3d 4b 20 d4 ba 61 1a 62 bd
       0.08952599 0.07135562 -0.001618394 -0.055200938
0001a0 1a 21 03 39 97 42 1f 3d fc 05 c1 bd 59 05 4d bd
       0.00012505465 0.038881864 -0.094249696 -0.050053928
0001b0 dc 85 eb 3c e5 df c4 bd 0a 43 48 3c d1 fe 73 3d
       0.028750353 -0.09613017 0.012223015 0.059569184
0001c0 ec dd b9 3d 36 4b 7e bd 94 10 53 bd a8 90 ed 3c
       0.09075531 -0.062083445 -0.051529482 0.028999642
0001d0 25 2e b4 3d 58 32 43 bd 41 ea b9 3c a5 a1 ce bd
       0.08797864 -0.047655433 0.022694709 -0.10089425
0001e0 52 ba 3f 3d fc aa dc 3c 0c 9f ca 3c b9 5c 96 bd
       0.04680855 0.026937 0.024734043 -0.07341904
0001f0 e8 95 eb bc bd b3 57 3d f1 f5 8e bc 7c 16 07 3d
       -0.028758004 0.052661646 -0.017451258 0.032980427
000200 62 c3 49 3d 59 bd a4 bd c7 f3 50 bb f8 f7 27 bd
       0.049258597 -0.08043928 -0.0031883584 -0.041007966
000210 89 e4 7f 3c 49 dd 99 3d 6c 54 06 bd db af 88 3d
       0.015618452 0.0751291 -0.032795355 0.06674167
000220 0e 01 5d bd ec 5e a0 3d 9e cb a9 3d 9b a3 95 3c
       -0.053956084 0.07830605 0.0829079 0.01826649
000230 36 93 56 3d 4d 7c b8 bd ce 4d bf 3b f9 86 ad bd
       0.052386485 -0.090080835 0.0058381325 -0.084730096
000240 6d 82 7e 3d d8 dc a1 3d 0c af c5 3d ad 62 8b bd
       0.062136102 0.07903451 0.09652528 -0.0680593
000250 9a e5 08 bd 9b 64 85 3c ce 74 9c 3d 61 5a b2 bd
       -0.03342209 0.016283324 0.07639466 -0.08708645
000260 98 50 99 bd db d6 f3 bc 44 e9 04 be 43 8e 2c ba
       -0.07486075 -0.029765537 -0.12979609 -0.0006582478
000270 29 aa 6f bc 83 e8 38 bd f4 ea 7f 3c 3a b1 8c bd
       -0.014627972 -0.045143615 0.015619982 -0.06869741
000280 33 8e c9 3d 0f c1 d1 3d af df b1 ba 48 0f 18 bd
       0.098415755 0.10241901 -0.0013570691 -0.03712395
000290 eb 67 a9 bd 3d ed 16 bd 00 8f 56 bd 0e d3 a8 3c
       -0.08271774 -0.03684734 -0.05238247 0.020608451
0002a0 dc 35 9e bd 19 30 72 3d 43 a8 3b bd 99 d0 4f 3d
       -0.077251166 0.0591279 -0.045814764 0.050736044
0002b0 9c 32 9d 3d ff 59 f2 3c b3 bb 6f bd 8e b2 93 3d
       0.076756686 0.02958393 -0.058528613 0.07211791
0002c0 24 f6 49 bd 3f dd 25 3c e3 60 f4 3b 79 cb f6 3b
       -0.049307004 0.01012355 0.007457839 0.00753158
0002d0 21 87 57 bd b5 be e1 bd 34 58 2b bd 7c aa bf 3d
       -0.052619103 -0.110227026 -0.041832164 0.09358689
0002e0 65 72 56 3d 9f 8d 45 3d ae 4e 0b bb 34 9a 39 bd
       0.05235519 0.048230764 -0.0021256614 -0.045313075
0002f0 c5 2a 96 bd eb 89 47 3d 3c 90 8b bd d6 46 cf 3d
       -0.073323764 0.048715513 -0.0681462 0.10120933
000300 e0 f2 2c 3d 8a b2 b6 bd 2d 3b c5 3c 3c 66 1d 3d
       0.04222381 -0.089207724 0.024076069 0.038427576
000310 fd 55 86 bd 9f 2a e3 bc 53 8c 8a bc 66 fb 9c bc
       -0.0655937 -0.027730284 -0.016912615 -0.019162845
000320 94 60 f5 3c b5 45 89 bd ad f1 8f bd 06 1d 76 3d
       0.029953279 -0.06702749 -0.07028518 0.060086273
000330 93 cd b5 3d f8 07 bc 3d da 50 93 bd 32 03 36 3d
       0.08877101 0.091812074 -0.071931556 0.04443664
000340 41 03 3a 3b 20 de 9a bd 55 66 fa bc 76 b5 58 3d
       0.0028383287 -0.07561898 -0.030566374 0.05290743
000350 3f ba e2 3d 9c e2 00 3d 27 91 b0 3c 8d 51 47 3d
       0.1107068 0.03146611 0.021553589 0.048661757
000360 4b 7c 91 3b ca b4 d3 bd c8 8f 40 bd e5 1e 91 3d
       0.0044398657 -0.10337217 -0.04701212 0.07085971
000370 d3 26 67 3c 5a dc 2c 3d 37 b1 4e 3d 97 69 07 bd
       0.0141083775 0.04220233 0.050461974 -0.033059683
000380 14 24 82 3d f9 d3 0f 3d 33 a5 b6 bd 67 89 bc 3d
       0.063545376 0.035114262 -0.08918228 0.09205895
000390 c1 fe 82 3d ad 88 1f bd fe 62 82 3d 81 a4 c8 bd
       0.06396247 -0.038948704 0.063665375 -0.09797002
0003a0 49 92 d1 bb c4 d7 9c bd 33 95 af 3d a1 ad 84 3d
       -0.0063956124 -0.076583415 0.08573379 0.064784296
0003b0 45 b6 91 3d f5 a0 75 3c 13 e3 52 3d 1a 3b 50 3d
       0.07114843 0.014991988 0.051486086 0.050837614
0003c0 90 0b 0a 3d 60 b6 73 3d 80 0b ba bc 54 f6 91 3d
       0.033702433 0.0595001 -0.022710562 0.071270615
0003d0 06 ee b6 bd 59 b8 c9 bc ba 7a b9 3d 10 f7 0d 3d
       -0.08932118 -0.024624037 0.09056611 0.034659445
0003e0 48 1a c5 3d a3 20 e3 bd d7 c7 85 bd ab 8d 4a bc
       0.096241534 -0.11090209 -0.06532257 -0.012362878
0003f0 96 5f e7 3c 6b 5b a9 3d 92 c1 c2 bd 30 53 a3 3c
       0.028243821 0.0826939 -0.09509577 0.019937128

mlp2.0.bias f4 [100]
000000 fc 8f 02 3d 3f b0 98 3c 73 ec 3f 3d 75 40 99 bd
       0.031875595 0.018638728 0.046856355 -0.07482997
000010 1f 99 36 bc 66 de ae bd 9a 77 e4 3b fb 70 97 bd
       -0.011144905 -0.08538513 0.0069722654 -0.07394596
000020 f4 b5 49 3d a9 16 ec bc 74 1f 86 3d 74 36 be 3d
       0.04924579 -0.028819399 0.06548968 0.0928773
000030 8f ff 9c 3d d9 ce 94 3d ee 41 6b 3d 80 d3 27 3d
       0.076659314 0.072660156 0.057435922 0.040973186
000040 00 5b 89 3b af 4a da bd f3 47 46 3d 69 60 cb 3d
       0.0041917562 -0.10658776 0.04840846 0.09930498
000050 7a b0 dc 3d d0 1b 65 3b 0e b7 8f bd bb ac e7 bc
       0.10775848 0.0034959204 -0.07017337 -0.028280606
000060 1e 27 3d bd 89 05 83 3d a5 d2 a9 3d 9a bb b4 bd
       -0.046179883 0.0639754 0.082921304 -0.08824845
000070 8f de 4f 3d 4a fa ba 3c 83 8c 20 3d 2d 1f e5 bc
       0.050749358 0.022824425 0.039196502 -0.027968967
000080 63 f3 49 3c 2b 5c 90 3d 69 51 0d bc ab 8d d1 3d
       0.012326094 0.0704883 -0.008625367 0.10232099
000090 f6 31 18 3d 89 db d9 3d b0 90 87 3d 04 67 34 3c
       0.03715702 0.10637576 0.06619394 0.011010889
0000a0 cf ca 53 bc 67 1e 99 3d 2c 2e 13 bd b3 0f 4d bb
       -0.012926771 0.07476502 -0.035932705 -0.0031289875
0000b0 34 ab a8 3d 4c a9 e8 bd 6f e1 ae 3d 10 02 10 3d
       0.082357794 -0.11360416 0.08539092 0.035158217
0000c0 d9 c1 a0 3d 78 e2 14 3d db 6a 90 3d c2 ed db bd
       0.078494735 0.03634879 0.07051631 -0.10738708
0000d0 c7 84 b7 3d 69 f3 23 3e 75 62 89 3d fa 32 03 be
       0.08960872 0.16010822 0.06708232 -0.12812415
0000e0 89 5f 5f bc 7e 63 97 3d 08 bd 65 bd e0 08 de 3d
       -0.013633617 0.073920235 -0.056088477 0.108415365
0000f0 30 e4 71 bd bb 1e d3 3d c9 46 ab bd 92 b6 e8 3d
       -0.059055507 0.10308596 -0.083631106 0.113629475
000100 9b 9d 17 bd 7d 67 3e bd 42 60 d0 3c 52 31 3f 3d
       -0.03701554 -0.046485413 0.025436524 0.046677895
000110 b1 10 33 3d 67 44 1a 3c 42 4e b5 bd 5c 86 92 bd
       0.04371709 0.009415722 -0.08852817 -0.07154533
000120 01 30 17 3d 8b bd 67 bd da 52 20 bd fd 0a e1 bb
       0.036911014 -0.056577247 -0.039141513 -0.006867765
000130 88 8e ac 3c b1 c5 c4 bd 93 70 bf bd 9f fe 07 3e
       0.021064058 -0.09608019 -0.09347644 0.13280724
000140 1f 55 03 bd 9b 4c ca bb 18 49 c3 3d 85 26 80 3d
       -0.0320636 -0.006173683 0.09535426 0.06257347
000150 71 68 e7 3c e6 a1 5b bd cc ef 09 3d 4b 92 94 3d
       0.028248044 -0.053621195 0.033675954 0.07254466
000160 fa 22 ac bc 0d 42 42 3d a9 d8 26 3d fd 92 b1 3b
       -0.021012772 0.047426272 0.040733967 0.0054191337
000170 ba f0 22 bd b6 8d a2 3d 73 d6 e5 3c 56 7a 23 3d
       -0.039780356 0.079371855 0.028056359 0.03991159
000180 5e 4b c4 bd f0 90 ae bd 6f 53 11 bd 38 ef 92 3d
       -0.09584688 -0.085237384 -0.03547996 0.071745336

mlp2.2.weight f4 [50, 100]
000000 45 7e 8f 3c c9 19 59 bd 1c c9 32 bb c7 b6 0f bd
       0.017516265 -0.053003106 -0.0027280515 -0.03508642
000010 ab b1 03 3e 0e 41 bf 3d 0b 31 00 3c 25 f2 81 bd
       0.12860744 0.0933858 0.007824193 -0.063450135
000020 d6 ec 64 bd 5f 8d 46 bd 7d ca b2 3b 12 a1 e7 3d
       -0.055889927 -0.048474666 0.0054562674 0.113100186
000030 2e 60 dd bc 65 06 5d 3d 9e 44 a1 3d 22 8c d7 bc
       -0.027023401 0.053961176 0.07874416 -0.026311938
000040 c3 04 c5 3c 75 0b dc 3d ab e1 2e bd ae 66 aa bd
       0.024050122 0.10744373 -0.042695682 -0.08320366
000050 45 9b 86 bd 37 da 44 3d 9d 26 d2 bc 41 4f af bd
       -0.06572584 0.04805967 -0.025653178 -0.08560038
000060 cc 59 32 3d d0 3c 8d bd 1b 28 39 bd 30 79 e3 3c
       0.04354267 -0.06896365 -0.045204263 0.027767748
000070 37 f0 cc 3b 69 73 60 bd 21 3f 85 3d c4 cf 41 bd
       0.006254222 -0.054797564 0.065061815 -0.04731728
000080 eb e7 0f bd d6 c4 a6 3c 0e 0b 47 bd b6 5f 81 bc
       -0.035133284 0.02035753 -0.048594527 -0.015792709
000090 45 20 00 bd 78 a9 71 3d be ce ba 3d a4 7f 8b 3d
       -0.031280775 0.05899951 0.09121464 0.06811455
0000a0 26 5c 34 bd ce 5c dc bd 8e 4d e2 bc 8c 89 ce bd
       -0.044033192 -0.107598886 -0.027624872 -0.10084829
0000b0 e0 d6 80 bd 5a cc 38 bd fd c6 d8 bc b3 cc 19 bd
       -0.06290984 -0.04511676 -0.026462073 -0.037548732
0000c0 3d 84 af 3d 85 a0 e5 bd 8d 1b ab 3b d8 b2 1d 3d
       0.08570144 -0.11212257 0.00522179 0.038500637
0000d0 63 18 32 3d fe 74 82 bd 74 63 98 3d 46 b6 e9 bc
       0.04348029 -0.06369971 0.07440844 -0.028529298
0000e0 6b 9b 75 bd d6 b7 8c bd 74 d0 df bb 8b a7 e8 bd
       -0.05996267 -0.068710014 -0.0068302695 -0.11360081
0000f0 49 65 87 bc 35 b4 d5 bc ca 58 77 3d b7 a5 f9 bc
       -0.016527789 -0.026086906 0.06038741 -0.030474527
000100 c3 c0 98 bc 30 cc 80 bd 13 e8 b3 3d c0 63 0e bd
       -0.018646603 -0.06288946 0.08784499 -0.034763098
000110 5b dc 0e bd 5c 7a ca 3d 70 7c 2d bd cb ea 43 3d
       -0.034878116 0.098866194 -0.042355 0.047831338
000120 b9 65 13 3d 51 54 75 3d 4e 7e df bc 2b f9 7c bd
       0.035985682 0.059894864 -0.027281906 -0.061761063
000130 96 77 ea bb f7 62 8d 3d af f5 86 3d 07 14 91 bd
       -0.007155369 0.06903642 0.06589829 -0.07083898
000140 24 96 bc 3d 4d 61 af 3d 40 f8 f0 3c c9 c5 15 bd
       0.092083246 0.085634805 0.02941525 -0.036565576
000150 2d 98 82 3d 37 64 84 3c 28 1b 0d bb b9 3a 10 3e
       0.063766815 0.016161067 -0.002153108 0.14084901
000160 9d e9 e3 3c 13 34 dd 3c 69 dc 03 3e 69 ce 8e 3d
       0.027821356 0.02700237 0.12877049 0.06972963
000170 d0 d5 52 bc 38 7c 3f bc d0 67 a5 3d 4c a8 93 3d
       -0.01286836 -0.011687331 0.08076441 0.072098345
000180 0c 03 a9 3d 5c 86 eb bc d5 f0 fb bb 30 18 d7 3d
       0.08252534 -0.028750591 -0.0076886215 0.1050266
000190 f4 d1 23 3c c0 43 ca bd 5d ea c6 3c 4d 50 4e bd
       0.009998787 -0.098762035 0.024281675 -0.05036955
0001a0 81 31 a8 3d 43 e9 42 bd 94 f9 9c bc a0 c8 df 3d
       0.08212567 -0.047585737 -0.019161977 0.10926938
0001b0 2e e2 ad bd 14 39 10 bd 3d 00 90 bd c1 d8 25 3c
       -0.08490406 -0.035210684 -0.070312954 0.010122479
0001c0 0f bf ac 3d 98 43 e7 3b 58 c8 a2 bb 46 16 9d bc
       0.08434879 0.0070576183 -0.0049677305 -0.01917566
0001d0 31 5d c1 3c a0 ae 14 3d 5c d6 1a 3c 19 3a b5 bd
       0.023604007 0.036299348 0.009450521 -0.08848972
0001e0 47 03 d0 bc 8a 0d 11 bd c3 a8 a3 bb ff a5 8e bd
       -0.025392188 -0.035413302 -0.004994483 -0.06965255
0001f0 58 e0 c9 bd 38 4d f3 3c 78 c4 ae bd 27 3c c3 3c
       -0.09857243 0.029699907 -0.08533567 0.023832394
000200 62 20 0e bd 2a 1f 73 bd 9a 78 b5 bc 75 2a 8e 3d
       -0.03469885 -0.059355892 -0.022152234 0.06941692
000210 72 e2 a1 3d 4e 67 e9 3b 89 81 b5 bd ac ca 8f 3c
       0.07904519 0.0071229106 -0.088625975 0.017552696
000220 a8 ba 95 bd b4 85 a7 3c 10 b4 59 3d 01 43 d5 bd
       -0.073109925 0.020449497 0.053150237 -0.104131706
000230 9b 9d c4 3c e6 15 ed 3c 44 f1 bc 3c 57 e6 b6 3d
       0.024000933 0.028941106 0.023064263 0.089306526
000240 85 e6 9d 3d 05 fb 6e 3d 10 e7 ad 3c 19 b3 9d 3c
       0.07709984 0.05834486 0.021228343 0.01925044
000250 f0 51 a4 3c 0f 9d 15 bd b0 ce ae 3d 26 02 44 bd
       0.020058602 -0.036526736 0.08535516 -0.04785361
000260 8c 61 44 3d 23 0b 23 be b3 52 b4 3c b8 3d 07 bd
       0.04794459 -0.15922217 0.02201209 -0.033017844
000270 9b cb 08 bd 98 19 67 3c 22 1d 9c bc 85 8a c9 bd
       -0.0333973 0.014105223 -0.01905686 -0.09840874
000280 99 7a dc 3d 3b 2f 14 3c 0e f9 91 bd 95 a4 77 bd
       0.10765571 0.009044464 -0.071275815 -0.060459692
000290 f5 cb 5d bd 27 95 94 3c f8 75 2e bd d3 24 27 be
       -0.054149587 0.018137528 -0.042592973 -0.16322641
0002a0 62 2d 05 3e 8a 18 60 bd 47 ca bc 3c 99 b1 83 bd
       0.13005593 -0.054710902 0.023045672 -0.064303584
0002b0 a3 a5 a7 3d 78 05 8d 3d b9 ef 76 bd 50 d5 e2 bc
       0.081858896 0.06885809 -0.06028721 -0.027689606
0002c0 99 31 aa 3d 05 26 8d 3d 5c 9b 4f 3d 18 0d 03 be
       0.08310241 0.06892017 0.05068527 -0.12797964
0002d0 59 b8 a4 bd b5 fb c9 bd 2e 8d 0c 3c 2d e2 30 3d
       -0.08042974 -0.098624624 0.008578582 0.043184448
0002e0 27 97 97 bd 3f 97 89 bd 20 63 8a bd 19 50 90 3d
       -0.07401877 -0.06718301 -0.06757188 0.070465274
0002f0 51 d7 c4 bd ba a8 70 bb e9 7c ec 3b 7a 29 ac 3d
       -0.09611381 -0.0036721663 0.007217039 0.084063485
000300 d1 d6 4f 3d db 08 6c 3d 87 01 96 bd a4 eb 22 bd
       0.050741974 0.057625633 -0.0732451 -0.039775506
000310 f3 af 23 bd b1 d4 c8 3d 1d 0a 4c bd cf 9e a2 3d
       -0.03996272 0.09806193 -0.049814332 0.079404466
000320 09 24 c6 3d 2a 72 28 3d a9 c0 58 3a 47 28 aa 3d
       0.09674842 0.0411245 0.00082684547 0.083084635
000330 16 39 40 3c ab 6f ab bc 36 b8 f8 bc d1 ea d5 3c
       0.01173236 -0.02092727 -0.030361276 0.026112946
000340 ee 12 a2 bd 95 66 b5 bd 88 8b 82 bd 69 2c 93 3d
       -0.07913767 -0.088574566 -0.0637427 0.07186205
000350 a8 98 80 3d 1a 7e cc 3b dc cd 5a bd 81 35 ab 3d
       0.06279117 0.0062406184 -0.05341898 0.083598144
000360 72 3e d9 3d 8e 25 84 3d 39 43 c0 bc c2 90 97 3b
       0.106076136 0.064524755 -0.023469554 0.004625411
000370 8a 5b 0f be 1a f4 d6 bc dd b9 be 3d e1 f9 ba 3d
       -0.13999763 -0.026239444 0.09312794 0.09129692
000380 c1 a3 97 3d 83 ca 1e be 59 a4 3f 3c b4 79 4c bd
       0.074042805 -0.1550694 0.011696898 -0.049920753
000390 71 99 0a 3e d6 82 86 bd 07 49 35 3d 5b ad 70 3d
       0.13535096 -0.06567924 0.044259097 0.058759075
0003a0 eb b5 bd 3b 34 c6 67 bc 3b a4 b2 bd 5b a3 7b bd
       0.0057895086 -0.014146376 -0.08722731 -0.061435085
0003b0 4e 68 dd bc 56 80 f4 3d 96 e8 3e bd d2 13 b8 3d
       -0.027027275 0.11938541 -0.04660853 0.089881554
0003c0 6d 7f 0f 3d 86 4c a1 3c 99 40 e1 bd cb 15 7b bd
       0.035033632 0.01968981 -0.10998649 -0.06130008
0003d0 83 85 90 bc 07 76 1f 3e a1 47 50 3d e1 74 98 bc
       -0.017641788 0.15572368 0.05084956 -0.01861042
0003e0 71 df 11 3d 7a 66 8d bd c4 4a c3 bd c3 1f f8 bc
       0.03561348 -0.069043115 -0.09535745 -0.030288583
0003f0 ce 72 a2 3d e8 33 9a 3d 9f fc a5 3d 83 2f 57 bc
       0.079320535 0.075294316 0.08104824 -0.013133886

mlp2.2.bias f4 [50]
000000 93 9a 88 3b df b2 e1 bd 60 7f 95 bd d7 a1 f2 ba
       0.0041688173 -0.11020445 -0.072996855 -0.0018511367
000010 e3 e2 bf 3d 30 52 3b 3c c9 2a cd bd ab d6 1d 3e
       0.09369447 0.011433169 -0.10017926 0.1541392
000020 c6 9c 7f bd 37 36 7b bd 0e e2 9f 3d 46 40 c4 bd
       -0.06240537 -0.061331 0.078067884 -0.09582572
000030 4d d7 f9 bd 57 6a 1c 3d 41 63 96 bd fc 1a 77 bd
       -0.121992685 0.03818735 -0.0734315 -0.06032847
000040 26 f6 90 3d 9b 90 cd 3d c7 0d 0e bd a2 da d5 bc
       0.07078199 0.10037347 -0.034681108 -0.026105229
000050 b7 2f d9 bd a2 74 0f be db 31 ba bd 97 dd 47 3d
       -0.10604804 -0.14009336 -0.090915404 0.04879531
000060 9b b9 0f bd 0c 68 ce bd 86 4a 99 3d 68 c4 80 bd
       -0.035089117 -0.10078439 0.07484917 -0.062874615
000070 c9 8a b7 bc 50 a7 ba 3d 97 2d fd 3c 89 9d b2 bd
       -0.022405045 0.091139436 0.030905528 -0.08721454
000080 d5 42 89 bc c6 c9 d8 3c 30 66 80 bd 84 56 f7 bc
       -0.0167555 0.0264634 -0.06269491 -0.030192621
000090 b0 fc 72 3d d7 7c 82 bd 24 10 6c 3d 9d 26 08 bd
       0.059323013 -0.063714676 0.05763258 -0.03323995
0000a0 b5 bd 00 3d 63 d3 f8 bc 0e b8 d9 3d 68 dc ab 3c
       0.03143092 -0.030374235 0.10630809 0.020979121
0000b0 51 0e 83 3d 59 c5 8c bc e3 62 94 bd da fe d2 3c
       0.06399215 -0.017183946 -0.07245424 0.025756288
0000c0 f4 3e a9 bd cc c6 20 3d
       -0.082639605 0.039252087

attention.0.weight f4 [100, 200]
000000 c6 18 66 bd c2 5e 1b 3d 0d fb bd 3c 88 a4 69 3d
       -0.05617597 0.037932165 0.023191 0.057041675
000010 3c 6f 81 bd 39 6c da bc a1 bb f2 3c 84 0a 9e 3c
       -0.063200444 -0.026662933 0.029630484 0.019292124
000020 71 9c 07 bd f1 d0 1b bd a2 65 60 3c b0 51 17 bd
       -0.03310818 -0.03804106 0.013696106 -0.036943138
000030 78 cb 40 bd 6a e1 4f bd 60 06 c9 3c 6c cd 1b 3c
       -0.047069043 -0.05075208 0.024539173 0.009509426
000040 76 61 ad 3c 98 0b d4 bc a0 fb 8c 3a d5 3e e7 3a
       0.021164637 -0.025884435 0.0010756142 0.0017642627
000050 e0 98 69 bd 3d a4 1a bd b6 de 6a bd 75 8e 3a bd
       -0.05703056 -0.037754286 -0.0573413 -0.045546014
000060 f7 01 91 bc ed 87 0a bd 92 f6 27 3c 48 a0 32 3d
       -0.017701132 -0.033821035 0.010251658 0.043609887
000070 ce db cd bc 1d a0 2e bc a4 28 2a bd e1 27 19 3d
       -0.025129225 -0.010658291 -0.041542664 0.037391547
000080 ca df 67 3d de 14 17 bd d1 b4 05 bc 09 34 47 3d
       0.056609906 -0.036885135 -0.008160786 0.04863361
000090 a8 f4 3d 3b 00 f1 dd 3c 12 43 52 3d e6 c5 12 bd
       0.0028984938 0.027092457 0.051333494 -0.035833262
0000a0 57 4f 23 3c 7d f1 5e 3d fc e5 46 3d a3 8a 7c bc
       0.009967647 0.05442952 0.048559174 -0.015413913
0000b0 69 66 5c 3d 40 32 9f bc 4c aa 90 bc 8f d5 5b 3d
       0.053808603 -0.01943314 -0.017659329 0.053670462
0000c0 31 95 e9 3c 5a 04 e1 3c 77 5b 7e 3d c1 94 58 3d
       0.028513523 0.027467895 0.062098946 0.052876238
0000d0 f4 03 19 3d 68 bd 10 bd a4 87 e4 bc 4c 9d 08 bd
       0.037357286 -0.035336882 -0.02789671 -0.033353135
0000e0 0c f2 68 3d df b6 8d bb 9d 24 42 bc 2e fc 61 3c
       0.05687146 -0.0043247784 -0.01184955 0.0137930345
0000f0 3c d5 73 3d 64 9c 32 bd 75 40 29 bd 70 1c f5 bb
       0.059529528 -0.043606177 -0.041321237 -0.0074801967
000100 42 b6 a3 3c 83 83 8f bc 89 68 cf bc cf e0 1c bd
       0.019984368 -0.017518764 -0.025318401 -0.03830033
000110 07 12 45 bd e8 51 b7 bc fd e3 8b bd c4 02 ba 3a
       -0.048112895 -0.022377923 -0.06830595 0.0014191498
000120 cb 52 8e 3c e6 37 f7 bc 36 b0 07 3d 89 b0 73 bc
       0.017373463 -0.030178022 0.033127032 -0.014873632
000130 86 0e 2f bd cc 39 27 bd 85 1d 3c bd c2 f8 1c bc
       -0.04273846 -0.040826604 -0.04592659 -0.009580793
000140 68 23 65 bd 02 7c 88 bd 00 d2 84 3d 28 77 80 bd
       -0.05594197 -0.066642776 0.06485367 -0.06272727
000150 2e 1e 05 3d 8c 44 c8 3b 6a 5e d1 bc 47 24 2e 3d
       0.032499485 0.006111687 -0.025557715 0.042515066
000160 73 0b 13 bd 51 72 8e bd e6 68 78 3d 93 41 37 3d
       -0.03589959 -0.06955398 0.060646914 0.04474027
000170 35 19 0c bd b9 ec 7c 3b 76 f4 3d 3d 66 db db 3c
       -0.034203727 0.0038593246 0.046375714 0.026838016
000180 2e d1 10 bd 58 ae 1a bd ad b7 80 bd b1 f7 81 bc
       -0.03535574 -0.037763923 -0.062850334 -0.015865179
000190 e5 2a 1c bd 15 1d 8c 3d 43 f5 44 3c 5b 94 3f 3d
       -0.038126845 0.068414845 0.012021366 0.046772342
0001a0 62 3d 3a bd 9a ed 94 3c 95 38 3b bd 94 8e 15 3d
       -0.045468695 0.018179704 -0.045708258 0.036512926
0001b0 16 20 e6 3c f7 3f 16 bd e7 08 49 3c 32 f3 e3 3b
       0.028091472 -0.036682095 0.012270189 0.0069564814
0001c0 a8 8c 1f bd 8e c7 8b 3d 36 9c 98 3c 0e ee 86 3d
       -0.0389525 0.068251714 0.018629175 0.06588374
0001d0 fd d4 5f 3c da 0d 69 bc 21 44 ae 3c 5c 46 2c bd
       0.01366162 -0.014224494 0.02127272 -0.042059287
0001e0 4c 05 77 bc fb 1a a4 3c da e8 0d 3d bb f1 09 bd
       -0.0150769465 0.020032397 0.034645893 -0.033677798
0001f0 63 c2 9e 3c 62 ad 00 3b 91 51 15 bc 51 9f 1c bd
       0.0193798 0.0019634594 -0.009113685 -0.038237873
000200 ab d4 43 3c 65 91 57 3d dd 5c 1b bc 5c 1f 7e bd
       0.011952559 0.052628893 -0.00948259 -0.062041625
000210 ad 2e 8b bc 25 8a c4 bb e4 77 1e 3d 3e 22 8d 3d
       -0.01699003 -0.0059979134 0.038688555 0.06891297
000220 25 d9 0d bc 83 0e 5c 3d 5d 02 ec 3c 73 9e 81 3b
       -0.008657728 0.053724777 0.02880972 0.003955656
000230 e2 d6 54 bd 93 04 72 3d 63 29 03 bd c6 11 82 bd
       -0.05196274 0.059086394 -0.03202189 -0.06351046
000240 20 64 f5 bc 3a dd 83 bd f8 a1 47 3d 9c 0e 3c 3d
       -0.02995497 -0.0643868 0.04873845 0.04591237
000250 04 04 5c 3b 0a 54 85 3c 0c c5 65 3d a0 c3 c2 3b
       0.003357173 0.016275425 0.05609612 0.0059437305
000260 df 67 b2 bc cf 2e b9 3c d7 77 49 3d d2 e7 19 3d
       -0.021778045 0.022605328 0.049186554 0.037574597
000270 17 81 76 3d 2f b7 3a 3c fd 98 65 bc 92 c6 66 3d
       0.060181703 0.011396213 -0.014013526 0.056341715
000280 79 29 80 3d cc 26 13 3d a8 3c 6c bd 68 6e c3 bc
       0.0625791 0.03592567 -0.057675034 -0.023856357
000290 8b 1c 17 bc 3a 6d 4a bd 24 f6 c0 3c 7b ce 71 bc
       -0.009223114 -0.049420573 0.023554869 -0.014758701
0002a0 d5 da 81 3d 2f f6 b0 3c 43 36 54 3b 70 0a 67 bd
       0.06340567 0.021601764 0.0032380975 -0.05640644
0002b0 ac f8 92 bc c4 f3 b8 3c 45 df 8b bd dd 1a 56 3c
       -0.017940842 0.022577174 -0.06829695 0.013067928
0002c0 e6 73 f9 3c 96 96 78 3d cb 42 21 bd b5 be 03 bd
       0.030450772 0.060690485 -0.03937034 -0.032164294
0002d0 c9 ec 1d 3d 31 5e 85 bd 4e cc 89 bd 6c 7f 7f 3d
       0.038555894 -0.06512106 -0.06728421 0.06237738
0002e0 99 a8 35 3d f6 0c 6e 3d 49 c2 8a bd ac 71 46 bd
       0.04435024 0.05811783 -0.06775338 -0.04844825
0002f0 d8 28 df bb 10 05 0d 3d c1 f2 64 bd b3 74 38 3d
       -0.006810289 0.034428656 -0.05589557 0.045033168
000300 f6 0a 51 bd 85 1b b7 bc 42 f2 c3 bb d4 ee 99 3c
       -0.051035844 -0.02235199 -0.005979807 0.01879064
000310 20 70 8d bd 74 46 2d bc 1d 4f 54 3d a9 d0 c3 bc
       -0.06906152 -0.010575879 0.05183326 -0.023903208
000320 0c 17 2e 3d 85 4f 85 3d 15 a2 db 3c b6 fe 1c 3d
       0.042502448 0.06509308 0.026810685 0.03832885
000330 9e 8c 4e 3c 20 d1 fe bc c2 59 21 bd 0b 1e 33 3d
       0.012606768 -0.031105578 -0.03939224 0.043729823
000340 ba 44 b9 bc ea 8f 0c 3d f9 96 72 3d 89 0e fe 3b
       -0.02261578 0.034316935 0.05922601 0.0077531976
000350 63 f1 5f bd 48 d1 6f bd bb ec e1 3b f2 59 50 bc
       -0.054673564 -0.058549196 0.0068946755 -0.012716757
000360 ee 3a e2 3c 46 c6 d3 bb c5 7a 6b 3d 21 f7 1a bc
       0.02761599 -0.006462845 0.05749013 -0.009458334
000370 05 f8 6e 3c 65 84 07 bd 32 8c 8e bd 38 b8 94 bc
       0.0145855 -0.033085246 -0.06960334 -0.018154249
000380 44 4c 0c bd 0a 81 dc bc bd e2 69 bd 7a 3f be 3c
       -0.03425242 -0.026917 -0.057101 0.023223627
000390 34 eb bf 3b 1e 1a f0 bb fa 97 a0 bb 1b 67 8d 3d
       0.005856896 -0.007327332 -0.0049009295 0.069044314
0003a0 23 75 ad bb 17 9e 8c 3d 95 99 6e bd 6f f2 54 bd
       -0.005293505 0.06866091 -0.058251936 -0.051989015
0003b0 c1 49 9e bb 9c 4c 81 bd b5 cc 34 bd 52 88 e0 3c
       -0.0048305695 -0.0631344 -0.044140536 0.027408753
0003c0 84 ca d5 3c 75 5b 94 bc f9 fa 45 bb e1 a4 8d 3c
       0.026097544 -0.018110016 -0.0030209406 0.017290534
0003d0 14 0e 6e bd 92 36 23 bd d2 e6 99 3c 54 35 67 3c
       -0.058118895 -0.039846964 0.018786822 0.0141118355
0003e0 59 ef 63 bd b7 85 73 3d 58 f6 45 bc 23 26 93 3d
       -0.05564818 0.059453692 -0.012082659 0.071850084
0003f0 a9 b9 be 3c 8f bf 6a 3d 54 87 47 bd 2f 82 40 3d
       0.023281889 0.05731159 -0.048713043 0.046999153

attention.0.bias f4 [100]
000000 30 7b d1 bc 0f 9a 47 bc d8 6e df 3b 9d f8 50 3d
       -0.025571436 -0.0121827265 0.0068186335 0.051018346
000010 e6 43 02 bc 52 da d9 3c 71 88 6e bd a3 be 30 bd
       -0.007950759 0.026593361 -0.05823559 -0.043150555
000020 42 2e c0 bc 75 8d 91 3c 25 c2 6f bd 36 97 8a bd
       -0.023459557 0.017767647 -0.05853476 -0.067671224
000030 71 27 5e 3c fa 87 86 bd c2 a0 83 bd 06 d6 6b bd
       0.013559208 -0.06568904 -0.064271465 -0.057577156
000040 48 98 81 3d c3 28 87 bd 5c a7 91 bd f0 26 51 bd
       0.063278735 -0.065995716 -0.071119994 -0.051062524
000050 5d fe cb 3c f0 46 c5 ba b3 ac ff 3b ca 7b 98 bc
       0.024901563 -0.0015051048 0.00780257 -0.018613715
000060 6f 95 b4 3b e2 ab f5 3c 4b ec fd bc 22 5a 45 bc
       0.005510978 0.029989187 -0.030996462 -0.012045415
000070 34 8c 6d bd 06 66 93 bd a1 c0 06 3d 63 92 08 3d
       -0.057995036 -0.07197194 0.03289855 0.03334273
000080 15 cd d6 3c 4e b6 33 bc 80 48 04 3d bc f2 42 bd
       0.026220838 -0.010968758 0.032295704 -0.04759477
000090 20 53 bf bc aa c5 45 3d 87 ac 08 bd 3b 12 9e 3c
       -0.023355067 0.04828421 -0.03336766 0.019295802
0000a0 c8 0c e1 bc c3 e1 f4 bc df c6 90 3c 41 4d c4 bc
       -0.027471915 -0.029892808 0.017672954 -0.023962619
0000b0 04 5c 23 3c f1 7a 84 3d 5e e5 4e 3d 1f 5b 5d 3d
       0.009970669 0.06468762 0.05051171 0.054041978
0000c0 aa 25 ff 3c d6 ed a6 bc 84 5a 87 bd 51 ac 15 bd
       0.03114589 -0.02037708 -0.06609061 -0.036541287
0000d0 91 db 44 bd 49 cb f9 bc 4d 98 a6 3c d8 2c 07 3c
       -0.048060957 -0.030492442 0.020336295 0.008250438
0000e0 19 93 bf 3c c5 9d 58 bd e8 42 0f bd 9e 69 27 bd
       0.023385571 -0.052884836 -0.034975916 -0.04087221
0000f0 5f 02 e1 bc 7c 76 58 bd 63 2a 2e bd ce 91 72 3d
       -0.027466951 -0.05284737 -0.042520892 0.05922108
000100 7e 10 30 bd 11 40 2f bd bd 41 90 3c 46 96 3c bd
       -0.04298448 -0.042785708 0.017609471 -0.04604175
000110 98 87 5c bc 4e d8 57 3a 67 6a 3d 3d 33 c8 b7 bc
       -0.013460062 0.0008233831 0.04624405 -0.02243433
000120 93 95 34 3c 16 94 2c bd 12 e3 4e 3d cf 38 89 bc
       0.011021989 -0.042133413 0.05050952 -0.016750721
000130 99 32 49 3d 81 1a 35 bc 04 54 10 3d 0c 5b 93 3d
       0.04912052 -0.011053682 0.035236374 0.071951
000140 e8 c9 46 3d ac ac 67 3d 33 2a 47 bd e6 2f 2b 3a
       0.048532397 0.056561157 -0.04862423 0.000653027
000150 c0 64 af b9 2a a9 a0 3c 1e ad 34 3d c0 d0 e1 3c
       -0.00033453666 0.019611914 0.04411041 0.02756536
000160 28 9b 21 bd 9f bf 8e bc 01 05 28 3c a8 2d e2 bc
       -0.03945461 -0.017425356 0.010255099 -0.027609661
000170 4a 4f bf bc fc 2c ee 3c 8f 79 2f 3d 98 f7 5d bd
       -0.023353238 0.029074185 0.042840537 -0.054191202
000180 0e 68 99 bc 58 ea 32 bd 11 e4 d6 3b 20 10 9a bc
       -0.018726375 -0.04368052 0.0065579494 -0.018806517
