crowd_nav/data/archive/output_CADRL2/il_model.pth (torch, 112399 bytes, 7 tensors)

value_network.0.weight f4 [150, 13]
0.071885765 -0.0544533 0.06723222 -0.03941141 -0.15365557 0.0426644 0.28067473 -0.20560879
0.21885021 0.103398785 0.06813246 -0.19524787 0.07922393 -0.053804375 -0.11366249 0.2345569
-0.21244267 0.045428485 -0.018736135 -0.0924963 0.12645935 -0.003792695 0.107171096 -0.06271126
-0.201886 0.08040347 0.037824396 -0.02002144 0.16835421 -0.103380255 -0.012050231 0.078545704
0.16458748 -0.1811083 -0.2711668 -0.12845126 0.23529112 0.23023424 -0.0941912 -0.23589523
-0.26819152 0.039593156 0.2744385 -0.085073404 0.12754086 0.04243132 -0.043791078 0.13974772
-0.12360453 0.2540913 0.10584733 0.07493233 0.22832859 0.21879749 -0.10194489 0.20502895
0.10914637 -0.03699919 0.028946994 -0.13322333 0.28379226 -0.02058691 -0.07794377 0.22831105
0.017882435 0.24872436 0.117671 -0.11736448 -0.26677227 -0.1160941 -0.027331043 -0.08552196
0.05155935 -0.1693776 0.19166699 0.13685893 0.10725745 0.16704756 0.2153074 -0.09626061
0.080524854 -0.13318509 -0.13878007 -0.25937158 -0.26923272 -0.08010298 -0.2053205 -0.15733874
0.09872347 -0.026108723 -0.1801934 -0.08682635 -0.03199702 0.08999153 -0.122942775 -0.043150123
0.049035877 0.100560896 0.21389046 0.08597225 -0.18873915 0.100497425 0.20025817 -0.17776522
0.022222258 -0.18524526 0.15919404 0.22350675 -0.116018854 -0.21640933 0.007197277 -0.24947275
0.0012349783 0.056588326 -0.110438764 0.10932334 -0.2058521 -0.25541177 -0.11506104 -0.014793182
0.12854663 -0.11905059 0.007468502 -0.22500244 -0.0015006441 -0.06774988 0.15425913 -0.010874643
0.20467295 0.14106846 -0.27066857 0.07756467 -0.0010087101 -0.26268744 -0.21156596 -0.2636135
-0.12499341 0.18221289 -0.035105772 -0.23359951 0.016924286 0.09916805 -0.17863172 -0.21685375
0.030632516 -0.2403149 0.13053249 0.19640608 0.017705234 -0.25928366 -0.22067425 -0.008812685
-0.015650759 -0.25934732 0.1814658 -0.024639538 0.11811068 -0.04742998 0.25915906 -0.11998699
-0.13720463 0.11855651 -0.03644769 0.21242996 0.14109524 0.15281868 -0.16413438 -0.14192471
0.19731468 -0.05483414 0.14518252 -0.17582461 0.26088482 0.1055987 -0.05704856 0.30304924
0.045976654 -0.19942833 -0.19321802 0.004618405 0.25006393 -0.21265146 -0.07336837 0.044808544
-0.10814666 0.2339965 -0.12150322 -0.09022465 -0.2004893 0.2499353 -0.029447941 0.19548744
0.057813745 -0.19568965 0.18637143 0.20141272 0.045400385 -0.107194625 -0.23299305 -0.06992382
0.06590926 -0.3085708 0.11540292 -0.09174226 -0.25429887 -0.25737342 0.2331238 0.22015499
0.023743272 0.02494511 0.12726934 0.030449659 -0.21022022 0.0026142416 0.08334196 -0.020694405
-0.046544902 -0.20630497 0.26563448 -0.012201977 -0.2255442 0.1118108 -0.062276356 0.22357962
-0.14698094 -0.15686956 0.10990052 0.20177299 -0.13309726 -0.011971527 -0.20836145 -0.026867324
0.16907291 -0.24010913 -0.26750267 -0.085400075 0.17508109 0.2647557 -0.19824855 -0.08130821
-0.11584926 -0.042743396 -0.09360862 0.12427795 0.1782793 0.0621283 0.18130961 -0.08533974
-0.020638505 -0.024965055 0.024833456 -0.14999695 -0.26229095 0.20745331 0.1895298 0.035375893
00000000: d838 933d 6c0a 5fbd 0cb1 893d dc6d 21bd
00000010: e357 1dbe dec0 2e3d 99b4 8f3e 1c8b 52be
00000020: 451a 603e bec2 d33d 0889 8b3d 0fef 47be
00000030: 2840 a23d fa61 5cbd e1c7 e8bd af2f 703e
00000040: 928a 59be 3813 3a3d 867c 99bc b36e bdbd
00000050: 8f7e 013e dd8e 78bb 857c db3d c36e 80bd
00000060: 34bb 4ebe 93aa a43d c1ed 1a3d 0104 a4bc
00000070: 0c65 2c3e 07b9 d3bd 556e 45bc 92dc a03d
00000080: 9f89 283e 7474 39be 60d6 8abe ba88 03be
00000090: 28f0 703e 86c2 6b3e 51e7 c0bd 858e 71be
000000a0: 6650 89be 6f2c 223d 3483 8c3e f73a aebd
000000b0: 129a 023e 77cc 2d3d 465e 33bd 071a 0f3e
000000c0: 5f24 fdbd 4118 823e 7cc6 d83d 1f76 993d
000000d0: f8ce 693e 730c 603e 7cc8 d0bd 1cf3 513e
000000e0: 2288 df3d 768c 17bd 3f22 ed3c b26b 08be
000000f0: 384d 913e e1a5 a8bc fca0 9fbd 5fca 693e
00000100: 2f7e 923c 99b1 7e3e 7efd f03d ca5c f0bd
00000110: 6096 88be bec2 edbd 5ae5 dfbc 2326 afbd
00000120: e62f 533d 5271 2dbe 5a44 443e bf24 0c3e
00000130: cba9 db3d 840e 2b3e 8b79 5c3e 4824 c5bd
00000140: 37ea a43d ac61 08be 5d1c 0ebe 5acc 84be
00000150: dfd8 89be 080d a4bd 8a3f 52be 681d 21be
00000160: 882f ca3d f6e1 d5bc 9e84 38be 03d2 b1bd
00000170: 4f0f 03bd 7b4d b83d 6cc9 fbbd 2fbe 30bd
00000180: d8d9 483d dff2 cd3d 1a06 5b3e 3812 b03d
00000190: d644 41be 98d1 cd3d 7a10 4d3e 1608 36be
000001a0: 740b b63c efb0 3dbe c303 233e f4de 643e
000001b0: 4b9b edbd 689a 5dbe 23d7 eb3b c975 7fbe
000001c0: ffde a13a 29c9 673d b82d e2bd eae4 df3d
000001d0: e5ca 52be 55c5 82be 1fa5 ebbd 1a5f 72bc
000001e0: baa1 033e ccd0 f3bd 56ba f43b 0a67 66be
000001f0: 43b1 c4ba 73c0 8abd 1bf6 1d3e 8f2b 32bc
00000200: c995 513e 4074 103e 1295 8abe 3ada 9e3d
00000210: b236 84ba f87e 86be bfa4 58be 59f8 86be
00000220: 8cfc ffbd 0496 3a3e 12cb 0fbd b634 6fbe
00000230: cda4 8a3c 9e18 cb3d 3ceb 36be e90e 5ebe
00000240: 0bf1 fa3c 1c15 76be 4faa 053e ad1e 493e
00000250: 910a 913c d4c0 84be 6ef8 61be 1463 10bc
00000260: 0536 80bc 2cc9 84be 2cd2 393e dbd8 c9bc
00000270: 03e4 f13d f045 42bd 7fb0 843e bdbb f5bd
00000280: 5f7f 0cbe c1cd f23d 2c4a 15bd 3d87 593e
00000290: 457b 103e 807c 1c3e d812 28be b654 11be
000002a0: dc0c 4a3e c399 60bd baaa 143e 5e0b 34be
000002b0: b292 853e 2244 d83d c0ab 69bd 4529 9b3e
000002c0: 0452 3c3d f136 4cbe f2da 45be fd55 973b
000002d0: 6108 803e 4ec1 59be 2842 96bd 2a89 373d
000002e0: ff7b ddbd c79c 6f3e aed6 f8bd b4c7 b8bd
000002f0: 114d 4dbe 0aef 7f3e cf3c f1bc dc2d 483e
00000300: 1bce 6c3d de62 48be 27d8 3e3e 233f 4e3e
00000310: c1f5 393d db88 dbbd bb95 6ebe 3834 8fbd
00000320: 6ffb 863d fefc 9dbe 5e58 ec3d 5ee3 bbbd
00000330: 7633 82be 73c6 83be 01b8 6e3e 4f70 613e
00000340: 4081 c23c b059 cc3c e552 023e 9071 f93c
00000350: f843 57be b253 2b3b 31af aa3d 5087 a9bc
00000360: dea5 3ebd 9c41 53be 3e01 883e cdea 47bc
00000370: 0ff5 66be 10fd e43d 7e15 7fbd 0ef2 643e
00000380: 2c82 16be 6aa2 20be 8613 e13d 949d 4e3e
00000390: a64a 08be 3924 44bc b45c 55be dd18 dcbc
000003a0: 7321 2d3e 2bdf 75be 1cf6 88be 3ce6 aebd
000003b0: 7548 333e 0f8e 873e ab01 4bbe eb84 a6bd
000003c0: 6042 edbd b313 2fbd e0b5 bfbd 7085 fe3d
000003d0: d98e 363e 3f7a 7e3d 3aa9 393e 9ac6 aebd
000003e0: 1512 a9bc 8483 ccbc 886f cb3c cd98 19be
000003f0: 004b 86be a46e 543e 1a14 423e 50e6 103d

value_network.0.bias f4 [150]
0.24700011 0.2207415 0.11600003 0.06843024 0.26368946 -0.22255239 -0.23285924 0.17926912
-0.066853546 -0.2629774 -0.14646885 -0.238764 -0.14927596 -0.083326034 -0.02596016 -0.13551539
0.09607534 0.24576688 -0.1927107 -0.07262903 0.15902872 -0.072837315 0.25747845 0.20097436
0.08922593 0.21700473 -0.16730517 0.13353051 0.0709536 0.163182 0.14305806 -0.16904871
-0.12777394 0.10797327 -0.26726136 0.12055965 0.07027195 -0.24862029 0.14063974 -0.2510902
0.1826824 -0.04064845 0.13049418 -0.21668504 0.20786029 0.14127451 -0.18589744 -0.069086365
-0.02758796 -0.0959048 0.26196742 0.121375434 -0.21496019 -0.23408668 -0.049655683 0.066418566
0.17247625 0.1970046 0.16402087 -0.13586037 -0.2694666 -0.11001665 -0.040402923 -0.25458243
0.016540002 0.058295652 -0.18579245 -0.088358045 0.035130106 0.11895136 0.15534252 0.13780901
-0.13549934 0.04280694 -0.14215992 -0.22773296 -0.19915977 -0.105242684 0.10466084 -0.2662889
0.06987167 -0.10408666 -0.059614874 -0.27364188 0.11850431 -0.23971476 0.15588376 -0.22594659
0.16886532 -0.164193 -0.013015558 0.13648039 -0.16680922 0.10724297 -0.16072689 0.012384504
0.019478204 -0.08956186 0.009197595 0.20395318 0.093699485 -0.024672594 -0.21418047 -0.23411828
0.021011807 0.17428635 -0.08749022 -0.23216 0.1332339 0.07338551 -0.06256473 -0.0040072035
0.27014536 -0.10272613 0.17781822 0.14531231 0.016378617 -0.16098285 -0.18800318 0.19260412
-0.007675706 0.14835201 0.015159495 -0.21340106 -0.097803555 -0.21798512 -0.20892735 0.022796001
0.23262636 0.00928454 0.22855264 0.18808809 0.18830976 0.21548875 0.08202125 0.23188792
0.13287978 -0.102367826 -0.09662477 0.23080543 0.079411425 -0.168009 0.19040957 0.14443432
0.19643144 0.1289457 0.0008962308 0.10934308 0.15392773 -0.17814985
00000000: 99ed 7c3e 0f0a 623e 6c91 ed3d 2725 8c3d
00000010: 4e02 873e c6e4 63be a772 6ebe 5392 373e
00000020: 83ea 88bd f9a4 86be eefb 15be 8d7e 74be
00000030: ccdb 18be d7a6 aabd 67aa d4bc 8cc4 0abe
00000040: 26c3 c43d 50aa 7b3e f455 45be 87be 94bd
00000050: 6dd8 223e bb2b 95bd 37d4 833e 39cc 4d3e
00000060: 16bc b63d 7d36 5e3e 0c52 2bbe 39bc 083e
00000070: 1f50 913d 2f19 273e d07d 123e 1b1b 2dbe
00000080: 2cd7 02be 1721 dd3d 7bd6 88be fae7 f63d
00000090: bdea 8f3d 5196 7ebe dd03 103e e58e 80be
000000a0: 1811 3b3e fd7e 26bd 44a0 053e afe2 5dbe
000000b0: 54d9 543e 44aa 103e e65b 3ebe 277d 8dbd
000000c0: 2500 e2bc bc69 c4bd 9820 863e af93 f83d
000000d0: 861e 5cbe 6bb4 6fbe c263 4bbd 7506 883d
000000e0: 9d9d 303e 93bb 493e 16f5 273e fb1e 0bbe
000000f0: 87f7 89be 6950 e1bd 897d 25bd a158 82be
00000100: e67e 873c 6cc7 6e3d 6040 3ebe 10f5 b4bd
00000110: 96e4 0f3d c59c f33d 1c12 1f3e ce1d 0d3e
00000120: 57c0 0abe 5456 2f3d 5f92 11be d432 69be
00000130: 8af0 4bbe 7a89 d7bd 6c58 d63d 0557 88be
00000140: e118 8f3d 632b d5bd ba2e 74bd ca1a 8cbe
00000150: 63b2 f23d c977 75be fe9f 1f3e 8b5e 67be
00000160: 08eb 2c3e 3622 28be 353f 55bc 84c1 0b3e
00000170: 09d0 2abe 34a2 db3d 9795 24be 60e8 4a3c
00000180: c190 9f3c 356c b7bd 82b1 163c 1ad9 503e
00000190: 84e5 bf3d 2e1e cabc 2052 5bbe b4bc 6fbe
000001a0: f420 ac3c 1f78 323e 132e b3bd 5abb 6dbe
000001b0: 786e 083e 244b 963d f021 80bd dc4e 83bb
000001c0: 7e50 8a3e 1462 d2bd fb15 363e c0cc 143e
000001d0: 732c 863c b0d8 24be e883 40be 043a 453e
000001e0: 7d84 fbbb 97e9 173e 885f 783c cf85 5abe
000001f0: 3b4d c8bd 7e37 5fbe 0df1 55be aebe ba3c
00000200: 9b35 6e3e 2f1e 183c b409 6a3e 2a9a 403e
00000210: 46d4 403e 15a9 5c3e c2fa a73d 0774 6d3e
00000220: a311 083e 39a6 d1bd 35e3 c5bd 4258 6c3e
00000230: 75a2 a23d 8d0a 2cbe bafa 423e 97e6 133e
00000240: 5325 493e 570a 043e 08f1 6a3a 44ef df3d
00000250: 3b9f 1d3e ea6c 36be

value_network.2.weight f4 [100, 150]
0.021603834 0.030251374 -0.019839922 -0.016233807 0.0695576 -0.018946465 -0.048285127 0.052872714
0.02583299 -0.016442649 0.053024366 -0.065471426 -0.04697185 0.0588602 0.01883519 -0.009494338
0.05431475 0.043404754 0.021573856 -0.063800566 0.0032063387 -0.0058396007 0.032756776 0.043594338
0.0077817477 0.030851016 0.06027352 -0.074962385 -0.061168656 -0.02451114 -0.016084017 0.0795039
0.019377891 0.047531422 0.037762433 0.0049954457 -0.034917314 0.041131437 0.026956335 -0.06573533
-0.047488466 0.022243744 0.04208975 0.049213637 0.04705273 0.026854513 0.06901321 0.07221178
0.03649901 -0.039539527 -0.07352879 -0.054659728 -0.04748702 0.06940072 -0.004910721 0.04137853
-0.024499634 -0.08521921 -0.076862715 0.07501644 -0.06526319 0.015080502 -0.004964493 -0.06848875
0.06621225 -0.07580069 -0.021595217 -0.04411632 -0.067086875 -0.012428272 0.075851634 -0.060615852
-0.010440084 0.04400919 -0.035800263 0.039056808 0.05363122 0.06687458 -0.01669307 -0.045785133
-0.076072745 -0.05615019 -0.07625585 -0.023787573 -0.0015136945 0.03832182 0.027092164 -0.078586124
0.07876688 0.007942923 0.011522691 0.017800026 -0.03415554 -0.0031145816 -0.07335091 -0.031574346
0.03231664 -0.059778504 -0.0026606254 0.07357232 0.05772484 -0.040412195 0.01401868 -0.0053215395
-0.059716385 0.037154913 0.032271583 0.052021943 0.01252452 0.0018961023 0.03676963 -0.03282345
-0.06882272 0.049714036 0.023481373 -0.044651084 0.024795331 -0.047000505 0.072240025 -0.07152456
0.054411232 -0.017232923 -0.0048772036 -0.0652911 -0.059799865 -0.055729505 0.045778323 -0.078215145
0.043808714 -0.046764076 -0.05074826 0.059207175 -0.03346048 0.07443161 0.0057229456 -0.07993288
0.034174785 0.033937197 0.0020461618 -0.01948541 0.06135253 -0.015369321 0.019578207 -0.052887358
-0.03411351 0.016492309 0.052262448 0.066728204 -0.06764944 0.075041264 0.06300045 -0.05905453
0.07964109 0.043916468 -0.0632169 -0.07306826 -0.06632724 0.002098686 0.028190432 -0.027946193
-0.055160314 -0.044736635 0.020092538 0.033905484 -0.0025303622 0.07870106 -0.045923807 -0.046366423
-0.017727146 -0.039280616 0.05255051 -0.0027792063 0.029015396 -0.04697229 0.002800211 -0.06087164
-0.03236962 0.08140309 -0.016220834 0.02488712 -0.0411425 0.049509447 0.029397441 -0.034857206
0.011174058 -0.012461767 0.048834715 -0.068892814 -0.07203671 -0.052704267 -0.019730104 -0.044338472
0.048304643 0.01069644 -0.028225113 -0.06997008 -0.01013932 -0.06314586 0.03542149 -0.028480722
0.056578092 0.008507827 0.07297182 -0.015181308 -0.025335178 0.074101985 -0.07246329 -0.071890414
-0.05357428 -0.013262466 0.079228304 -0.021076282 -0.06488304 -0.06191172 -0.03175044 0.018561415
-0.0032053636 0.037348557 0.080352075 0.07664721 -0.055294823 -0.06610387 -0.050715968 0.0730576
-0.021716828 -0.010545835 -0.02317816 0.056213245 -0.023039663 -0.054776393 0.06446306 -0.06635506
-0.07325883 -0.042362317 -0.06535424 0.010669294 -0.038317975 0.01753353 -0.07209621 0.011652133
-0.073871285 0.016651178 0.074242145 0.03742184 -0.026269274 0.021414088 -0.020743955 -0.061274543
-0.04479077 -0.030053385 0.019018311 0.014354182 0.07490833 -0.03974422 -0.07354401 -0.056520637
00000000: 86fa b03c bbd1 f73c 5587 a2bc c3fc 84bc
00000010: 3774 8e3d 9e35 9bbc a0c6 45bd 0f91 583d
00000020: b59f d33c bcb2 86bc 1430 593d e215 86bd
00000030: 8e65 40bd 6517 713d 424c 9a3c 248e 1bbc
00000040: 2579 5e3d 2fc9 313d a8bb b03c dfa9 82bd
00000050: 7021 523b 1f5a bfbb f82b 063d fa8f 323d
00000060: 08fe fe3b 45bb fc3c 5ee1 763d e185 99bd
00000070: fc8b 7abd 96cb c8bc a1c2 83bc f1d2 a23d
00000080: 62be 9e3c 4fb0 423d c8ac 1a3d d6b0 a33b
00000090: 7505 0fbd 7079 283d 88d3 dc3c 3fa0 86bd
000000a0: 4483 42bd 8338 b63c 4d66 2c3d 3d94 493d
000000b0: 5dba 403d fffd db3c cc56 8d3d c5e3 933d
000000c0: fc7f 153d 33f4 21bd 4396 96bd e1e2 5fbd
000000d0: c081 42bd f721 8e3d 1dea a0bb 897c 293d
000000e0: 75b3 c8bc 6987 aebd 336a 9dbd 38a2 993d
000000f0: b5a8 85bd 3614 773c 30ad a2bb d443 8cbd
00000100: 4a9a 873d 643d 9bbd 74e8 b0bc 50b3 34bd
00000110: d864 89bd f39f 4bbc 1a58 9b3d 5448 78bd
00000120: e30c 2bbc fb42 343d 4ca3 12bd 08fa 1f3d
00000130: 69ac 5b3d 8af5 883d e8bf 88bc 3189 3bbd
00000140: 07cc 9bbd befd 65bd 072c 9cbd 28de c2bc
00000150: 2967 c6ba 57f7 1c3d 63f0 dd3c c3f1 a0bd
00000160: 8850 a13d 0923 023c abc9 3c3c 5cd1 913c
00000170: aee6 0bbd 021e 4cbb 0039 96bd 1a54 01bd
00000180: 745e 043d 4eda 74bd e35d 2ebb 16ad 963d
00000190: e270 6c3d 4287 25bd 9bae 653c 4f60 aebb
000001a0: 2b99 74bd c02f 183d 352f 043d f614 553d
000001b0: a533 4d3c a386 f83a c09b 163d e271 06bd
000001c0: edf2 8cbd f2a0 4b3d 025c c03c 0ee4 36bd
000001d0: 941f cb3c 9a83 40bd 94f2 933d 787b 92bd
000001e0: 50de 5e3d 0f2c 8dbc f3d0 9fbb 57b7 85bd
000001f0: b4f0 74bd 9f44 64bd 0d82 3b3d 432f a0bd
00000200: c470 333d b08b 3fbd 68dd 4fbd 3983 723d
00000210: db0d 09bd 9a6f 983d 8c87 bb3b dab3 a3bd
00000220: dcfa 0b3d bb01 0b3d e618 063b de9f 9fbc
00000230: ca4c 7b3d 9bcf 7bbc 7a62 a03c 6aa0 58bd
00000240: 9cba 0bbd e11a 873c 2611 563d cca8 883d
00000250: ca8b 8abd 3caf 993d 6106 813d 2ae3 71bd
00000260: de1a a33d c1e1 333d dd77 81bd d0a4 95bd
00000270: 93d6 87bd 1c8a 093b 9fef e63c 6aef e4bc
00000280: c8ef 61bd c33d 37bd 1b99 a43c 7ae0 0a3d
00000290: 6fd4 25bb 052e a13d 9a1a 3cbd b8ea 3dbd
000002a0: 8538 91bc b6e4 20bd 343f 573d 5823 36bb
000002b0: b2b1 ed3c 0466 40bd bf83 373b 8a54 79bd
000002c0: 0296 04bd aab6 a63d 8ee1 84bc 13e0 cb3c
000002d0: 0a85 28bd 6bca 4a3d e7d2 f03c 6ec6 0ebd
000002e0: 6513 373c 702c 4cbc e906 483d ad17 8dbd
000002f0: fc87 93bd 6ee0 57bd 07a1 a1bc 429c 35bd
00000300: 17db 453d 1f40 2f3c 5a38 e7bc 794c 8fbd
00000310: 641f 26bc 9e52 81bd 2016 113d 6750 e9bc
00000320: 6ebe 673d 6a64 0b3c 4072 953d 05bb 78bc
00000330: b88b cfbc c8c2 973d a267 94bd 483b 93bd
00000340: b470 5bbd d04a 59bc 7342 a23d 2ba8 acbc
00000350: 66e1 84bd 2597 7dbd c00c 02bd 1c0e 983c
00000360: 1411 52bb cdfa 183d a18f a43d 36f9 9c3d
00000370: d37c 62bd 7761 87bd 8cbb 4fbd 399f 953d
00000380: 7de7 b1bc 70c8 2cbc 20e0 bdbc dc3f 663d
00000390: adbd bcbc 365d 60bd 3505 843d 29e5 87bd
000003a0: ba08 96bd 1c84 2dbd 72d8 85bd 43ce 2e3c
000003b0: 4ff3 1cbd 7aa2 8f3c 2ea7 93bd 97e8 3e3c
000003c0: d449 97bd 0d68 883c 440c 983d a547 193d
000003d0: a932 d7bc 996c af3c 3aef a9bc 04fb 7abd
000003e0: 8776 37bd 8432 f6bc 4acc 9b3c ce2d 6b3c
000003f0: 8a69 993d d6ca 22bd 3e9e 96bd 2f82 67bd

value_network.2.bias f4 [100]
-0.066797465 -0.010126511 -0.0055928784 0.010952807 -0.017375458 0.08155192 -0.01992428 0.06297861
-0.0033902267 0.062308725 -0.0026221953 0.029802179 -0.011789205 -0.00042237784 0.050423987 0.013827363
-0.041078128 -0.056599244 0.042145196 -0.030307468 0.076361984 0.03721984 -0.028391136 0.061215907
0.07603917 0.026739465 -0.033952624 0.030370306 0.02911394 -0.049660176 0.03644432 -0.014847488
-0.057940934 -0.019952886 -0.041480117 -0.03956238 0.047040623 0.020409517 0.044922132 -0.004554335
0.027752956 -0.07036018 0.0086404 0.011832786 -0.047088534 0.024338206 0.025546597 -0.009846345
0.028200254 -0.001493527 -0.005688451 -0.0061878813 0.058325417 -0.013457581 0.075492606 -0.084621094
-0.018895075 -0.078561194 -0.042110436 0.04038646 0.060391925 0.022395382 0.05032276 0.028181124
-0.027502911 0.0731499 0.111977704 -0.037616543 0.027419038 0.017483907 -0.038485534 -0.030326042
0.067418076 -0.043283097 -0.014518792 -0.052644067 0.10327081 -0.078391895 0.086296156 0.0028319787
-0.03369137 -0.013417921 0.045279454 0.043018926 0.015394635 -0.006591002 -0.076621875 -0.0014131324
0.02878099 0.07607711 0.038511895 0.07135256 0.078033574 -0.027422389 -0.053481396 0.07333804
-0.010312949 0.04271223 -0.03945553 -0.04495576
00000000: 1ccd 88bd aae9 25bc 7744 b7bb 6773 333c
00000010: fa56 8ebc b104 a73d 3e38 a3bc eefa 803d
00000020: 912e 5ebb 6f37 7f3d 23d9 2bbb b323 f43c
00000030: 8227 41bc 9872 ddb9 6289 4e3d 2a8c 623c
00000040: 8a41 28bd 9cd4 67bd 71a0 2c3d 5e47 f8bc
00000050: ac63 9c3d d573 183d 8794 e8bc 88bd 7a3d
00000060: 6dba 9b3d b90c db3c e811 0bbd 26cb f83c
00000070: 5c80 ee3c 7868 4bbd a446 153d e142 73bc
00000080: 7953 6dbd 3c74 a3bc 0ee7 29bd 2a0c 22bd
00000090: abad 403d dc31 a73c 4500 383d 883c 95bb
000000a0: 2b5a e33c 0019 90bd 7790 0d3c 4dde 413c
000000b0: e8df 40bd eb60 c73c 1947 d13c 9052 21bc
000000c0: 3804 e73c 73c2 c3ba 3066 babb b6c3 cabb
000000d0: a2e6 6e3d 307d 5cbc de9b 9a3d d34d adbd
000000e0: d8c9 9abc b1e4 a0bd fe7b 2cbd 466c 253d
000000f0: 865d 773d 8576 b73c 3d1f 4e3d 1adc e63c
00000100: c94d e1bc 9dcf 953d 9154 e53d ce13 1abd
00000110: e49d e03c 693a 8f3c 02a3 1dbd 526e f8bc
00000120: 7d12 8a3d 9e49 31bd 3ae0 6dbc 4ea1 57bd
00000130: a57f d33d ee8b a0bd 0abc b03d b898 393b
00000140: f6ff 09bd d7d6 5bbc f376 393d 9d34 303d
00000150: c739 7c3c 55f9 d7bb eeeb 9cbd db38 b9ba
00000160: 1cc6 eb3c 51ce 9b3d a6be 1d3d 4a21 923d
00000170: 11d0 9f3d eba4 e0bc 4f0f 5bbd 4132 963d
00000180: a5f7 28bc 05f3 2e3d 1f9c 21bd 8823 38bd

value_network.4.weight f4 [100, 100]
0.08738825 -0.08597654 0.0925365 0.0058454378 0.08950702 0.09702639 -0.06965065 -0.033736058
-0.094970964 0.025914643 0.09901362 -0.042422097 0.08686651 0.03895154 0.059063375 0.017952353
0.045722943 -0.06142587 -0.07623765 -0.017853385 -0.008592053 0.0335442 -0.041784678 -0.014623913
-0.008531205 0.053591646 0.04341358 0.09595365 -0.0046157213 -0.053344738 -0.05876436 -0.030791769
0.08447998 -0.074510016 -0.08402137 -0.027238049 0.05873778 -0.029608238 -0.025222067 0.09319522
0.014506402 -0.058326095 -0.0515964 -0.0841151 0.009535006 -0.053207923 -0.091758445 0.098118976
-0.033679485 -0.020654693 -0.030203685 0.03268801 -0.08698949 -0.08216225 0.09804994 -0.050388675
0.07593389 0.0028716808 -0.023559468 0.047751017 -0.050491672 -0.024313474 0.037462886 0.012019645
0.06686636 0.058527827 -0.024427397 0.040923957 -0.061185572 0.06575409 -0.06296781 -0.010198292
0.082329206 0.096250236 -0.053855482 0.074711345 0.09834563 0.02238573 -0.047215458 -0.008021469
0.078210115 -0.0042178226 -0.05294619 -0.060127944 0.07452793 -0.04738162 -0.068404704 0.007397536
-0.09703705 -0.0681349 0.09320194 -0.003953038 0.023433397 0.041123 0.08330072 -0.06861571
0.059501786 -0.07812032 0.084701605 -0.019100789 -0.066157505 0.007587445 -0.049097028 -0.07788861
-0.038897194 0.079795 -0.08710446 -0.023941904 -0.06535283 0.008469512 0.054145355 -0.063274324
-0.01842379 0.015131702 -0.0490877 0.0016794796 -0.092598006 -0.036400873 -0.026835619 0.003514646
0.02047425 -0.065580174 -0.0013219552 -0.018874284 -0.049615357 -0.08564855 0.074364185 0.07987268
0.082245395 0.073020294 0.07241426 -0.046457764 0.064523615 0.020629058 0.008120166 0.05535171
-0.070062324 0.090048574 0.08155585 -0.04908483 -0.064114034 -0.051586896 0.03025128 0.089931995
0.062302697 0.04863875 -0.06271079 -0.09074415 0.04695901 0.059926514 0.04621875 0.07330264
-0.03831884 0.09250033 0.024393443 0.0002439901 -0.040546563 0.039091513 0.022674095 0.03830526
0.046314698 0.084109806 0.065254495 0.09822239 0.033318777 -0.0452659 -0.068455115 -0.051875114
0.076556295 0.04020833 -0.009914579 0.089207515 -0.04359477 -0.051083207 0.050991062 -0.047738504
0.10372715 0.027186718 -0.063406885 0.042375892 -0.08209919 0.028904554 -0.06703512 -0.0072885766
0.051935464 -0.09521064 0.09975842 -0.036400706 0.033277757 -0.012726408 -0.025440527 -0.0073115593
-0.043672323 -0.09479729 -0.022283552 0.08007921 -0.02710177 -0.048191663 -0.0588787 0.093816884
-0.048826315 0.0683702 0.07376281 0.07374772 0.038780697 -0.09844877 0.041746363 -0.0646212
0.0822831 -0.06380792 0.08903455 0.008296187 -0.061326537 -0.04679823 -0.08785248 0.030023903
0.06300192 0.07887167 0.03744308 -0.016161675 0.01667972 -0.026168788 0.096791685 0.015622129
-0.07699336 0.08054105 0.098135665 0.02596345 0.055793505 0.09139807 -0.007070055 0.08014734
0.05609095 -0.040549494 0.0046488214 -0.012528014 -0.017890682 -0.06753202 -0.054501332 -0.07769871
-0.07148402 -0.006025429 0.09569732 -0.06421145 0.032065082 0.062126946 -0.0652468 0.092140846
-0.03868989 0.01387614 -0.07786127 0.050663542 -0.05325371 0.054039836 0.0010120415 0.037277784
00000000: 9cf8 b23d 7814 b0bd c783 bd3d 168b bf3b
00000010: 754f b73d c6b5 c63d 00a5 8ebd d22e 0abd
00000020: 2380 c2bd f24a d43c a7c7 ca3d cbc2 2dbd
00000030: 12e7 b13d a68b 1f3d 70ec 713d d010 933c
00000040: fb47 3b3d b199 7bbd 7c22 9cbd 4341 92bc
00000050: afc5 0cbc a565 093d 6926 2bbd 2399 6fbc
00000060: 78c6 0bbc ea82 5b3d 70d2 313d 5983 c43d
00000070: 7a3f 97bb 0380 5abd e6b2 70bd 053f fcbc
00000080: d703 ad3d b598 98bd 6513 acbd 5422 dfbc
00000090: 0797 703d fa8c f2bc 829e cebc 23dd be3d
000000a0: 43ac 6d3c 58e7 6ebd bf56 53bd 8a44 acbd
000000b0: b738 1c3c 8df0 59bd daeb bbbd 9af2 c83d
000000c0: 80f3 09bd 0834 a9bc b86d f7bc dde3 053d
000000d0: 8c27 b2bd af44 a8bd 68ce c83d 5b64 4ebd
000000e0: 3a83 9b3d cf32 3c3b c9ff c0bc 9296 433d
000000f0: 5bd0 4ebd 0d2d c7bc af72 193d 0cee 443c
00000100: 3bf1 883d e0ba 6f3d f71b c8bc e19f 273d
00000110: b99d 7abd 15aa 863d 44f5 80bd bd16 27bc
00000120: 379c a83d d81e c53d 9197 5cbd 4302 993d
00000130: 6f69 c93d 4762 b73c ff64 41bd 7b6c 03bc
00000140: a02c a03d a935 8abb 1bde 58bd b848 76bd
00000150: 19a2 983d 3b13 42bd c417 8cbd 0867 f23b
00000160: 5cbb c6bd 4f8a 8bbd a9e0 be3d 7c88 81bb
00000170: 65f7 bf3c 9770 283d 9199 aa3d 6586 8cbd
00000180: 25b8 733d 8cfd 9fbd 0978 ad3d 4279 9cbc
00000190: 967d 87bd 1aa0 f83b f719 49bd 1084 9fbd
000001a0: aa52 1fbd 906b a33d d363 b2bd d021 c4bc
000001b0: b4d7 85bd b5c3 0a3c 85c7 5d3d f895 81bd
000001c0: 7ded 96bc f5ea 773c 2f10 49bd fc21 dc3a
000001d0: 06a4 bdbd 1519 15bd 5fd6 dbbc fa55 663b
000001e0: 9db9 a73c e64e 86bd 7545 adba 3e9e 9abc
000001f0: 7939 4bbd 8268 afbd 404c 983d 4a94 a33d
00000200: 4670 a83d aa8b 953d ed4d 943d 7f4a 3ebd
00000210: f524 843d 45fe a83c 720a 053c 7ab8 623d
00000220: d67c 8fbd 636b b83d c106 a73d 2d0d 49bd
00000230: 384e 83bd c84c 53bd 88d1 f73c 442e b83d
00000240: 1d31 7f3d 6d39 473d 846e 80bd 12d8 b9bd
00000250: 1758 403d 8175 753d df4f 3d3d b21f 963d
00000260: 37f4 1cbd d070 bd3d c2d4 c73c 98d7 7f39
00000270: 2714 26bd 6c1e 203d 06bf b93c fae5 1c3d
00000280: 7bb4 3d3d c341 ac3d 26a4 853d d228 c93d
00000290: 4579 083d bd68 39bd 3232 8cbd 007b 54bd
000002a0: 8cc9 9c3d 7db1 243d c270 22bc 6eb2 b63d
000002b0: 6e90 32bd a03c 51bd 01dc 503d 7389 43bd
000002c0: e66e d43d aeb6 de3c 78db 81bd 5892 2d3d
000002d0: 9f23 a8bd 3ec9 ec3c b649 89bd 03d5 eebb
000002e0: 48ba 543d ccfd c2bd 244e cc3d e818 15bd
000002f0: 424e 083d 6d82 50bc a768 d0bc ce95 efbb
00000300: c0e1 32bd 1525 c2bd ff8b b6bc 9200 a43d
00000310: 8804 debc 9f64 45bd cb2a 71bd 1123 c03d
00000320: 1afe 47bd ad05 8c3d f510 973d 0b09 973d
00000330: 82d8 1e3d 829f c9bd 3cfe 2a3d 1f58 84bd
00000340: 0b84 a83d baad 82bd bf57 b63d bbec 073c
00000350: 8931 7bbd 80af 3fbd 00ec b3bd b0f4 f53c
00000360: 2707 813d 7887 a13d ea5d 193d 7d65 84bc
00000370: e8a3 883c ed5f d6bc b83a c63d f5f3 7f3c
00000380: b2ae 9dbd b5f2 a43d 5afb c83d 4db1 d43c
00000390: bb87 643d e92e bb3d ecab e7bb 4a24 a43d
000003a0: a0bf 653d 3a17 26bd 2455 983b 4d42 4dbc
000003b0: 7b8f 92bc 3a4e 8abd ca3c 5fbd 8020 9fbd
000003c0: 3766 92bd f670 c5bb f5fc c33d 4b81 83bd
000003d0: ad56 033d d378 7e3d 1da0 85bd 57b4 bc3d
000003e0: 4a79 1ebd c058 633c bb75 9fbd 9384 4f3d
000003f0: 9020 5abd e058 5d3d 7aa6 843a 97b0 183d

value_network.4.bias f4 [100]
0.10221449 0.10511568 -0.00547998 0.14438184 -0.090985276 0.042601038 -0.03474278 0.0092133675
0.01431072 0.13396716 0.10439348 0.007453 0.06930173 0.046057615 0.018304538 0.028122282
0.013795885 0.004322256 -0.04720688 0.04576218 0.04427798 -0.081190236 -0.028571952 -0.009918628
-0.095168814 0.01594785 0.049989756 0.110304475 -0.07580524 -0.09018432 -0.062223043 0.048738603
-0.004487221 0.022171874 0.10625321 0.0177536 0.13140646 -0.06011063 0.043030016 0.15499741
-0.04440512 -0.004432791 0.072732575 -0.0040261503 -0.0459279 0.06549418 -0.029128402 -0.011980459
-0.018230192 0.04732928 -0.08800319 0.06871567 0.059440553 0.026250156 -0.09546649 -0.057802156
0.060873464 -0.022414353 -0.0150602795 -0.03749253 0.02929935 -0.06355456 0.019305196 -0.036834102
0.0017015211 -0.027412796 -0.09638546 -0.0042749248 -0.0054500876 0.05945523 0.026626006 0.17449766
-0.06756483 0.1019211 0.110083655 0.06359512 0.030626379 0.06765489 -0.042922735 0.05847486
0.11988558 -0.07392804 -0.05942532 -0.0032143595 -0.08469587 -0.09781235 -0.030684287 0.07286683
0.005152335 -0.020146001 -0.022477238 0.014813394 -0.08935028 0.10129377 0.10148517 0.07784899
0.058714736 -0.013144969 -0.0017590295 -0.060144175
00000000: d555 d13d e446 d73d 6791 b3bb d5d8 133e
00000010: 7d56 babd 6d7e 2e3d 724e 0ebd aaf3 163c
00000020: 8377 6a3c b02e 093e 40cc d53d 4c38 f43b
00000030: 11ee 8d3d e9a6 3c3d 66f3 953c b360 e63c
00000040: 2308 623c b6a1 8d3b 005c 41bd 2071 3b3d
00000050: d45c 353d 1147 a6bd ba0f eabc be81 22bc
00000060: dee7 c2bd 11a5 823c 0fc2 4c3d 50e7 e13d
00000070: c73f 9bbd 8fb2 b8bd 97dd 7ebd 21a2 473d
00000080: 8a09 93bb caa1 b53c 489b d93d ff6f 913c
00000090: 6a8f 063e 9036 76bd 3e40 303d a4b7 1e3e
000000a0: 25e2 35bd f240 91bb d1f4 943d cced 83bb
000000b0: e51e 3cbd d021 863d b09e eebc b049 44bc
000000c0: 7c57 95bc 59dc 413d 043b b4bd cdba 8c3d
000000d0: f077 733d 910a d73c ef83 c3bd f4c1 6cbd
000000e0: 7456 793d 4e9e b7bc 64bf 76bc c491 19bd
000000f0: 3105 f03c e528 82bd ee25 9e3c 5bdf 16bd
00000100: 9305 df3a cd90 e0bc bd65 c5bd ab14 8cbb
00000110: a696 b2bb 5487 733d c81e da3c 84af 323e
00000120: 6e5f 8abd 02bc d03d 8a73 e13d 293e 823d
00000130: 2ce4 fa3c a68e 8a3d c0cf 2fbd 5683 6f3d
00000140: 9286 f53d 9667 97bd f767 73bd 01a8 52bb
00000150: 0775 adbd d751 c8bd 9d5d fbbc 343b 953d
00000160: ebd4 a83b 3a09 a5bc 2f22 b8bc e1b3 723c
00000170: 48fd b6bd 1c73 cf3d 75d7 cf3d 4b6f 9f3d
00000180: dd7e 703d ff5d 57bc 3c8f e6ba bd59 76bd

value_network.6.weight f4 [1, 100]
0.19197759 0.083343424 0.04580936 0.21253495 -0.13078289 -0.067503996 0.024713766 -0.11006811
0.04005023 0.16794485 -0.06316495 -0.039349146 -0.18697718 0.13017651 0.037132204 -0.018450186
0.06485573 -0.052371677 0.012469411 0.12723474 0.17434673 0.040115464 -0.20328939 -0.0029418438
0.0043439534 0.009907501 0.026172748 0.09174154 0.08952128 0.026986122 -0.048940804 0.03475149
-0.13059917 0.07586149 0.25417334 -0.0252958 0.17384584 -0.16656871 -0.053234164 0.2794024
-0.19348335 -0.020526538 0.054140925 0.030336775 -0.07488734 -0.2533067 -0.042182967 -0.027926886
0.18911861 -0.07459581 0.13948363 0.06965717 -0.2644218 -0.040624183 0.06271535 0.04944227
0.24210297 -0.051169895 -0.018693874 0.029416442 -0.08025636 -0.031624854 -0.051698036 -0.058429714
0.023149084 -0.0014605761 0.010050607 0.059849057 -0.08697626 0.0654583 -0.049006645 0.32692474
-0.0444445 0.12662636 0.22828297 0.12103331 -0.06892501 0.03388847 0.0681307 -0.042520273
0.10169581 0.036014747 0.08250499 -0.06659489 0.013020678 -0.006508756 -0.11294375 0.06773601
-0.18409148 -0.029868472 -0.08813004 -0.13715105 0.09333411 -0.18504629 0.10976804 0.105322905
0.15384008 -0.03875424 -0.14218062 0.077313684
00000000: c695 443e f5af aa3d 98a2 3b3d c3a2 593e
00000010: f3eb 05be 893f 8abd 8674 ca3c 646b e1bd
00000020: b60b 243d bcf9 2b3e a05c 81bd 922c 21bd
00000030: f276 3fbe fe4c 053e f017 183d d824 97bc
00000040: 15d3 843d af83 56bd 804c 4c3c d349 023e
00000050: f387 323e 1d50 243d 182b 50be f3cb 40bb
00000060: b957 8e3b 1253 223c 3b68 d63c fde2 bb3d
00000070: ef56 b73d 0012 dd3c 2776 48bd 9457 0e3d
00000080: cabb 05be 455d 9b3d 0223 823e 2339 cfbc
00000090: a504 323e fd90 2abe 110c 5abd d50d 8f3e
000000a0: 8020 46be 4527 a8bc e0c2 5d3d d484 f83c
000000b0: 895e 99bd 6ab1 81be 0cc8 2cbd edc6 e4bc
000000c0: 4fa8 413e b0c5 98bd ccd4 0e3e 6ba8 8e3d
000000d0: 4b62 87be 8b65 26bd e870 803d fa83 4a3d
000000e0: d7e9 773e 8697 51bd e523 99bc c0fa f03c
000000f0: 725d a4bd 1089 01bd 52c1 53bd ff53 6fbd
00000100: 26a3 bd3c cd70 bfba 4dab 243c 4924 753d
00000110: 9c20 b2bd 000f 863d 31bb 48bd ae62 a73e
00000120: 700b 36bd 57aa 013e 03c3 693e 50e0 f73d
00000130: 8e28 8dbd a3ce 0a3d 1c88 8b3d bd29 2ebd
00000140: e545 d03d 3384 133d 60f8 a83d e762 88bd
00000150: af54 553c 6747 d5bb 0e4f e7bd 2db9 8a3d
00000160: 7a82 3cbe baae f4bc 867d b4bd 5371 0cbe
00000170: f425 bf3d c67c 3dbe 11ce e03d 89b3 d73d
00000180: 4188 1d3e c4bc 1ebd cc97 11be a356 9e3d
