crowd_nav/data/archive/output_CADRL2/rl_model.pth (torch, 112399 bytes, 7 tensors)

value_network.0.weight f4 [150, 13]
0	0x3dcdab53	0.10042443
1	0xbd8a9120	-0.06765962
2	0x3d89b10c	0.06723222
3	0xbd31a8ce	-0.043373875
4	0xbe27971c	-0.16366237
5	0x3d3db713	0.04631717
6	0x3e9ecc74	0.3101536
7	0xbe59405c	-0.21215957
8	0x3e6ee5ee	0.23329899
9	0x3df1e1e3	0.118106626
10	0x3d836ca2	0.064172044
11	0xbe3e46f7	-0.18581758
12	0x3d920536	0.071299
13	0xbd61ca53	-0.055124592
14	0xbdea96b4	-0.114545256
15	0x3e702faf	0.2345569
16	0xbe5a71ca	-0.2133247
17	0x3d4a6cc0	0.04942012
18	0xbc7e4858	-0.015520178
19	0xbdb76b8f	-0.08956062
20	0x3e017eaf	0.12645982
21	0xbb6e11f5	-0.0036326621
22	0x3ddb65f9	0.10712809
23	0xbd81a01d	-0.06329367
24	0xbe4fd0c2	-0.20294479
25	0x3da355cb	0.07975348
26	0x3c8d3580	0.017237425
27	0xbd15181e	-0.036399953
28	0x3e2c650c	0.16835421
29	0xbdddc607	-0.10828786
30	0xbd49c433	-0.049259376
31	0x3d8afa55	0.06786028
32	0x3e28f30a	0.16498962
33	0xbe577e8f	-0.21044372
34	0xbe81c48f	-0.25345275
35	0xbe0d9fc1	-0.13830473
36	0x3e6be71a	0.23037377
37	0x3e96e3ad	0.29470578
38	0xbdd50739	-0.10401768
39	0xbe7498b6	-0.2388638
40	0xbe8a6608	-0.2703097
41	0x3d222c6f	0.039593156
42	0x3e8c22b9	0.2737024
43	0xbda92fb0	-0.08261049
44	0x3dfefc28	0.12450439
45	0x3d399327	0.04530635
46	0xbd18afa0	-0.037276864
47	0x3e0e3fac	0.13891476
48	0xbdfe9ebc	-0.1243262
49	0x3e81b7c6	0.2533552
50	0x3df67af1	0.12035168
51	0x3d96dba7	0.07366114
52	0x3e6dea85	0.23233993
53	0x3e5e1225	0.21686609
54	0xbdd0c87c	-0.10194489
55	0x3e515923	0.20444159
56	0x3e070cfa	0.13188544
57	0xbd3bc631	-0.045843307
58	0x3caa5cb8	0.020796165
59	0xbe17abf2	-0.14811686
60	0x3e8bc0e2	0.27295595
61	0xbd17dc53	-0.037075352
62	0xbda0d2f6	-0.078527376
63	0x3e47b5d3	0.19502954
64	0x3c88fc94	0.016722001
65	0x3e818cef	0.25302836
66	0x3e07d660	0.13265371
67	0xbdf05cca	-0.11736448
68	0xbe864914	-0.2622763
69	0xbddc39a6	-0.10753183
70	0xbcea4226	-0.028595995
71	0xbdadfc70	-0.08495414
72	0x3da1cf2c	0.07900843
73	0xbe4c4bbe	-0.19950768
74	0x3e65c7f6	0.2243956
75	0x3e10c0d9	0.14136066
76	0x3d53b260	0.051683784
77	0x3e34432e	0.17603752
78	0x3e4a36c8	0.1974746
79	0xbdccb1e6	-0.09994869
80	0x3da4ea37	0.080524854
81	0xbe09823e	-0.1342859
82	0xbe125e61	-0.14293815
83	0xbe5a326b	-0.21308295
84	0xbe8a64be	-0.27029985
85	0xbe1c04db	-0.15236227
86	0xbe5b6d83	-0.21428494
87	0xbe109c5b	-0.14122145
88	0x3dc7eadb	0.09761592
89	0xbe03ba67	-0.12864076
90	0xbe3ac94b	-0.1824085
91	0xbd3cf520	-0.046132207
92	0xbd537768	-0.051627547
93	0x3db84d7b	0.08999153
94	0xbe03ebcd	-0.1288292
95	0xbd6ced42	-0.057843454
96	0x3d4d99d6	0.050195538
97	0x3e059756	0.13046011
98	0x3e5ef3f9	0.21772756
99	0x3de67250	0.11252272
100	0xbe83c040	-0.25732613
101	0x3dc1c2e2	0.09460999
102	0x3e87e4ef	0.2654185
103	0xbe4216cc	-0.18954009
104	0x3d676eea	0.05650226
105	0xbe3b4274	-0.18287069
106	0x3e2303c3	0.15919404
107	0x3e65997b	0.2242183
108	0xbdfc08f8	-0.12306398
109	0xbe543e27	-0.20726834
110	0x3b2db52f	0.00265057
111	0xbe83bccb	-0.25729975
112	0x3af2dac8	0.0018528337
113	0x3d568c8c	0.05238013
114	0xbde0b79c	-0.10972521
115	0x3deb1ab2	0.11479701
116	0xbe5154c9	-0.20442499
117	0xbe862ccb	-0.2620605
118	0xbde1859c	-0.11011812
119	0xbc725f1a	-0.014793182
120	0x3e052596	0.13002619
121	0xbdefff9c	-0.117186755
122	0x3c34c36e	0.011032922
123	0xbe652515	-0.22377427
124	0x3a91139b	0.0011068465
125	0xbd885ce7	-0.06658345
126	0x3e1db46d	0.15400858
127	0xbc19de78	-0.00939142
128	0x3e57cfa9	0.2107531
129	0x3e137eae	0.14403793
130	0xbe8c3268	-0.27382207
131	0x3d9bdf48	0.07610947
132	0xba8436b2	-0.0010087101
133	0xbe86a29a	-0.2629593
134	0xbe53546a	-0.2063767
135	0xbe870df9	-0.26377848
136	0xbe078940	-0.1323595
137	0x3e3510b0	0.17682147
138	0xbd0cea1c	-0.03440295
139	0xbe6ec815	-0.23318513
140	0x3c870fdc	0.016487055
141	0x3dc00902	0.09376718
142	0xbe37cfe0	-0.17950392
143	0xbe5238e1	-0.2052951
144	0x3d13b5f7	0.036062207
145	0xbe76151c	-0.2403149
146	0x3e073e05	0.13207252
147	0x3e49f388	0.19721806
148	0x3cc203a5	0.023683378
149	0xbe86da26	-0.2633831
150	0xbe60372a	-0.21896043
151	0xbc219d24	-0.009864125
152	0xbc966aa3	-0.018361395
153	0xbe8436c8	-0.25823045
154	0x3e40b39b	0.18818514
155	0xbcaf2810	-0.021381408
156	0x3db8202b	0.089905106
157	0xbd57864c	-0.05261831
158	0x3e84b07f	0.25915906
159	0xbdf8eb16	-0.12154214
160	0xbe08721d	-0.13324781
161	0x3dfde1bf	0.12396573
162	0xbd18a3c2	-0.037265547
163	0x3e5b041a	0.21388283
164	0x3e288309	0.16456236
165	0x3e2be83f	0.16787814
166	0xbe29aad4	-0.16569072
167	0xbe0f17bf	-0.13973902
168	0x3e46dd83	0.19420438
169	0xbda6a9c6	-0.081378505
170	0x3e2579be	0.16159722
171	0xbe340b5e	-0.17582461
172	0x3e8819ba	0.26582128
173	0x3db223f9	0.086982675
174	0xbd37d3a9	-0.04487959
175	0x3e9f916c	0.31165636
176	0x3d1b27d2	0.037879772
177	0xbe6563ac	-0.22401303
178	0xbe341f6c	-0.17590111
179	0x3c1c64e6	0.00954554
180	0x3e95110e	0.29114574
181	0xbe4faa85	-0.20279892
182	0xbdcaaf5f	-0.09896731
183	0x3d210bbc	0.03931783
184	0xbddd7bff	-0.10814666
185	0x3e6de95b	0.2323355
186	0xbdfd316a	-0.123629406
187	0xbdac5524	-0.08414677
188	0xbe4697f6	-0.19393906
189	0x3e7abea1	0.24486782
190	0xbce18fd9	-0.027534412
191	0x3e4373b1	0.19087102
192	0x3d661155	0.056168873
193	0xbe4b8c97	-0.1987785
194	0x3e3b785d	0.18307634
195	0x3e478f36	0.19488224
196	0x3d0a1478	0.033710927
197	0xbddb88db	-0.107194625
198	0xbe722dda	-0.23650303
199	0xbda65a92	-0.08122744
200	0x3d8f0564	0.0698345
201	0xbea4033c	-0.32033718
202	0x3e040f12	0.12896374
203	0xbdafdcc0	-0.085870266
204	0xbe844b4f	-0.25838706
205	0xbe859174	-0.26087534
206	0x3e72d8e6	0.23715553
207	0x3e5a4175	0.21314032
208	0x3b825ecb	0.0039785854
209	0x3d0c72c2	0.03428913
210	0x3e0252e5	0.12726934
211	0x3d08337a	0.033252217
212	0xbe656ddb	-0.22405188
213	0xbcc16c76	-0.023611289
214	0x3d768c0d	0.060192157
215	0x3c9837e3	0.018581336
216	0xbcd2668a	-0.02568366
217	0xbe557632	-0.20845869
218	0x3e896e9a	0.26842195
219	0xbd392c54	-0.04520829
220	0xbe613856	-0.21994147
221	0x3e040c5f	0.12895344
222	0xbd8b9fd4	-0.06817594
223	0x3e64f20e	0.22357962
224	0xbe1851b0	-0.14874911
225	0xbe14ea4d	-0.14542504
226	0x3dd503ba	0.104011014
227	0x3e459919	0.19296683
228	0xbe0631b3	-0.13104896
229	0xbad729b2	-0.0016415624
230	0xbe5484e0	-0.20753813
231	0xbcea9901	-0.028637411
232	0x3e234893	0.15945654
233	0xbe797f02	-0.24364856
234	0xbe89b0c7	-0.26892683
235	0xbdac5986	-0.08415513
236	0x3e334875	0.17508109
237	0x3e87d683	0.26530847
238	0xbe4bab25	-0.19889505
239	0xbdaf7110	-0.08566487
240	0xbdf14547	-0.11780792
241	0xbc56c49c	-0.013108399
242	0xbdbd7b43	-0.09252026
243	0x3e022810	0.12710595
244	0x3e36f4c6	0.17866811
245	0x3d512687	0.051062133
246	0x3e3a6eb9	0.182063
247	0xbdd6af3a	-0.104826406
248	0xbcea585b	-0.028606584
249	0xbccc8384	-0.024965055
250	0x3cb7dae0	0.022443235
251	0xbe31b592	-0.1735442
252	0xbe833a3a	-0.2563036
253	0x3e51b15e	0.20477816
254	0x3e2ea702	0.17055896
255	0x3d0ba63b	0.034094077

value_network.0.bias f4 [150]
0	0x3e6f6682	0.23378947
1	0x3e60c998	0.21951902
2	0x3dcc0811	0.09962476
3	0x3d87c990	0.06630242
4	0x3e8604ac	0.2617544
5	0xbe548d63	-0.2075706
6	0xbe7237fd	-0.2365417
7	0x3e23786c	0.15963906
8	0xbd840bdb	-0.06447574
9	0xbe841d66	-0.2580368
10	0xbe177a43	-0.14792733
11	0xbe6ef05c	-0.23333877
12	0xbe1e2cab	-0.15446727
13	0xbd89044d	-0.066902734
14	0xbd00d287	-0.031450775
15	0xbe16bdbe	-0.14720818
16	0x3dd7e55b	0.10541793
17	0x3e759f32	0.2398651
18	0xbe440eb2	-0.19146231
19	0xbda50fe1	-0.08059669
20	0x3e25fa48	0.16208756
21	0xbda2ac1c	-0.079429835
22	0x3e882ed3	0.26598224
23	0x3e3dc76e	0.18533108
24	0x3dc7055b	0.09717818
25	0x3e645414	0.22297698
26	0xbe2c069d	-0.16799398
27	0x3e00bb7d	0.12571521
28	0x3d91501f	0.0709536
29	0x3e266c8c	0.16252345
30	0x3e1b6e60	0.15178823
31	0xbe2dc2e0	-0.1696887
32	0xbdf7be77	-0.12096875
33	0x3ddc5568	0.107584774
34	0xbe82160b	-0.25407442
35	0x3e03e6cc	0.12881011
36	0x3daee290	0.08539307
37	0xbe7ffe67	-0.2499939
38	0x3e0a497c	0.13504595
39	0xbe7102cc	-0.23536223
40	0x3e40e27a	0.18836394
41	0xbd07e3c4	-0.0331762
42	0x3deabdb0	0.11461961
43	0xbe49b584	-0.19698149
44	0x3e55e241	0.2088709
45	0x3e2d2886	0.1690999
46	0xbe3fd007	-0.187317
47	0xbd66d2cd	-0.05635338
48	0xbd0069de	-0.031350963
49	0xbdc4abaa	-0.09603055
50	0x3e856e2a	0.2606061
51	0x3dfc394f	0.12315618
52	0xbe5d3df8	-0.2160567
53	0xbe775a8e	-0.24155638
54	0xbd4a4dd1	-0.049390618
55	0x3d60e611	0.05490691
56	0x3e411448	0.18855393
57	0x3e3d4fcd	0.18487473
58	0x3e2aca77	0.16678797
59	0xbe091bcc	-0.1338951
60	0xbe91d138	-0.28479934
61	0xbdde0810	-0.108413815
62	0xbd140774	-0.03613992
63	0xbe8258a1	-0.25458243
64	0x3d18f6a1	0.03734458
65	0x3d68bc3a	0.05682013
66	0xbe3e3a87	-0.18577014
67	0xbdb07624	-0.086162835
68	0x3d323819	0.04351053
69	0x3de3071f	0.110853426
70	0x3e213c69	0.15745701
71	0x3e1c26a2	0.15249112
72	0xbe0d3a3d	-0.13791747
73	0x3d476633	0.04868145
74	0xbe12c068	-0.1433121
75	0xbe67f133	-0.22650604
76	0xbe48a55d	-0.19594331
77	0xbde3a074	-0.111145884
78	0x3dea56fb	0.114423715
79	0xbe86a627	-0.2629864
80	0x3d8bdda5	0.06829385
81	0xbdd13a53	-0.102162026
82	0xbd6839a7	-0.056695607
83	0xbe96451f	-0.2934961
84	0x3debdae9	0.11516363
85	0xbe7577c9	-0.23971476
86	0x3e19d75a	0.15023556
87	0xbe5c3782	-0.2150555
88	0x3e2c70e9	0.16839947
89	0xbe24568a	-0.16048637
90	0xbc4ba945	-0.012430494
91	0x3e05e8c2	0.13077071
92	0xbe1b6e23	-0.15178733
93	0x3de75300	0.11295128
94	0xbe212b95	-0.15739281
95	0x3bfccd93	0.007714936
96	0x3c6dece7	0.014521814
97	0xbd90f1f0	-0.07077396
98	0x3c02af7d	0.00797641
99	0x3e43a1c9	0.19104685
100	0x3da63528	0.081156075
101	0xbc674cdd	-0.014117447
102	0xbe51ab7b	-0.20475571
103	0xbe72f37f	-0.23725699
104	0x3d06f751	0.032950703
105	0x3e27a4dc	0.16371483
106	0xbda1d313	-0.07901587
107	0xbe75eadd	-0.24015374
108	0x3df42b39	0.119223066
109	0x3d8e346e	0.06943594
110	0xbdb4b002	-0.08822633
111	0x3aad1529	0.0013205159
112	0x3e864fd7	0.26232788
113	0xbda84dd4	-0.082179695
114	0x3e32e947	0.174718
115	0x3e3c06e0	0.18361998
116	0x3c1769ab	0.009241502
117	0xbe3933c2	-0.1808615
118	0xbe4d80f3	-0.20068721
119	0x3e4bc100	0.19897842
120	0xbbfb847d	-0.007675706
121	0x3dff0cfd	0.12453649
122	0x3d059623	0.032613885
123	0xbe7627f6	-0.24038681
124	0xbda794d7	-0.08182686
125	0xbe54351c	-0.20723385
126	0xbe561c4f	-0.20909236
127	0x3d8deac7	0.06929546
128	0x3e6f9b6e	0.23399135
129	0x3c577895	0.013151308
130	0x3e5da233	0.21643905
131	0x3e5125e0	0.20424604
132	0x3e303d7a	0.17210951
133	0x3e6010d0	0.21881413
134	0x3da57a4b	0.08079966
135	0x3e7188b5	0.23587306
136	0x3dee7dda	0.11645098
137	0xbda0e8cd	-0.07856903
138	0xbdea4544	-0.114389926
139	0x3e6def26	0.23235759
140	0x3dbc79d7	0.092029266
141	0xbe3b307f	-0.18280219
142	0x3e348e56	0.17632422
143	0x3e0f6e67	0.14006959
144	0x3e367f4f	0.17822002
145	0x3e0c2222	0.13684896
146	0x3a6af108	0.0008962308
147	0x3df26182	0.118350044
148	0x3e1e575c	0.15463012
149	0xbe374f35	-0.17901309

value_network.2.weight f4 [100, 150]
0	0x3ca6d64c	0.020365857
1	0x3cf7d4f0	0.030252904
2	0xbca9dde5	-0.02073569
3	0xbc97cb3b	-0.018529525
4	0x3d9f18aa	0.07768376
5	0xbc3cae20	-0.011516124
6	0xbd315b7e	-0.043300144
7	0x3d3aad4c	0.045575425
8	0x3cfc5444	0.0308019
9	0xbcac9e8b	-0.021071693
10	0x3d53329c	0.051561937
11	0xbd8a42b1	-0.067510016
12	0xbd2f6e13	-0.042829584
13	0x3d6f9526	0.05849185
14	0x3c95015a	0.018189121
15	0xbbe4570d	-0.006968385
16	0x3d538dcd	0.051648904
17	0x3d3e50f6	0.04646393
18	0x3ca83920	0.020535052
19	0xbd7fb7d0	-0.062431157
20	0x3c32e10d	0.010917914
21	0xbbd8911e	-0.006609096
22	0x3d033f3f	0.032042738
23	0x3d3524cf	0.044224557
24	0x3b634440	0.0034678131
25	0x3cfd66ff	0.030932901
26	0x3d7175e3	0.058950316
27	0xbda24819	-0.07923908
28	0xbd7a8bfc	-0.061168656
29	0xbcc8cb96	-0.02451114
30	0xbca86e81	-0.020560505
31	0x3da1294d	0.078692056
32	0x3ca24bca	0.01981153
33	0x3d380fe3	0.044937026
34	0x3d1aa5de	0.03775584
35	0x3ba15921	0.004923955
36	0xbd0b4569	-0.03400174
37	0x3d277f7f	0.040893074
38	0x3cfabda8	0.030608013
39	0xbd8529b7	-0.06502097
40	0xbd427a76	-0.04748007
41	0x3cd0f447	0.025507106
42	0x3d2c42fe	0.042056076
43	0x3d60c608	0.054876357
44	0x3d2da332	0.042391963
45	0x3caa84b7	0.020815236
46	0x3d8d56cc	0.06901321
47	0x3d8bb206	0.06821065
48	0x3d0d2e56	0.034468018
49	0xbd21f35f	-0.039538737
50	0xbd943a72	-0.0723771
51	0xbd5f772b	-0.054557007
52	0xbd4c6b74	-0.049907163
53	0x3d9544aa	0.07288487
54	0xba81a85c	-0.0009892094
55	0x3d2c4781	0.04206038
56	0xbcc57c86	-0.024107229
57	0xbdb70efa	-0.089384034
58	0xbd9fb861	-0.07798839
59	0x3d99ab3e	0.07503365
60	0xbd6dbab2	-0.058039375
61	0x3c7aa66c	0.015298467
62	0xbbb954a1	-0.0056558405
63	0xbd8c43d4	-0.06848875
64	0x3d844589	0.06458575
65	0xbd8b1f41	-0.067930706
66	0xbca77e17	-0.020445867
67	0xbd2eae57	-0.042646732
68	0xbd8e4d27	-0.069483094
69	0xbb661309	-0.003510656
70	0x3d995b79	0.0748815
71	0xbd7aea90	-0.061258852
72	0xbc29db85	-0.010367279
73	0x3d257a27	0.040399697
74	0xbd16f078	-0.036850423
75	0x3d2007ce	0.039069943
76	0x3d878b1b	0.06618329
77	0x3d909087	0.070588164
78	0xbca75acf	-0.020429043
79	0xbd44399c	-0.047906503
80	0xbd9adc96	-0.07561605
81	0xbd65fdbe	-0.05615019
82	0xbd9c2c07	-0.07625585
83	0xbc7eb44b	-0.015545915
84	0xbb7e423f	-0.003879681
85	0x3d1cf757	0.03832182
86	0x3d043386	0.0322757
87	0xbdb09205	-0.08621601
88	0x3d9ebbc5	0.07750658
89	0x3bb11490	0.0054040626
90	0x3c188a25	0.00931028
91	0x3c7e9514	0.015538473
92	0xbd1104db	-0.03540502
93	0xbb51b2c4	-0.0031997422
94	0xbd959eed	-0.07305703
95	0xbc9d3af6	-0.019193154
96	0x3cfc364b	0.030787608
97	0xbd82c068	-0.06384355
98	0xbbf1fc62	-0.0073848227
99	0x3da56ad1	0.08077014
100	0x3d7c7976	0.06163927
101	0xbd312b3c	-0.043254122
102	0x3c476df2	0.012172209
103	0xbbb29888	-0.005450312
104	0xbd8306a1	-0.06397749
105	0x3d0b1622	0.033956654
106	0x3d0131c9	0.03154162
107	0x3d45335c	0.048144683
108	0x3c4766cf	0.012170508
109	0x39ed4e31	0.0004526242
110	0x3d1e6c7e	0.038677685
111	0xbd010498	-0.03149852
112	0xbd8e8cde	-0.06960462
113	0x3d42f075	0.0475926
114	0x3cbf5ce5	0.023359725
115	0xbd230a42	-0.039804704
116	0x3cc3798a	0.023861665
117	0xbd2c9a15	-0.04213913
118	0x3d9d1b09	0.07671172
119	0xbd959925	-0.073046006
120	0x3d5ede50	0.054411232
121	0xbcb22a27	-0.021748615
122	0xbc0b2a8f	-0.0084940335
123	0xbd690e04	-0.056898132
124	0xbd552338	-0.05203554
125	0xbd604cb2	-0.054760642
126	0x3d4d12da	0.050066806
127	0xbd9c8ba7	-0.07643824
128	0x3d31d947	0.043420102
129	0xbd3bee40	-0.04588151
130	0xbd366814	-0.04453285
131	0x3d787862	0.06066168
132	0xbd13c027	-0.036071923
133	0x3d9988ce	0.074967965
134	0x3b961951	0.0045806547
135	0xbdabdfba	-0.08392282
136	0x3d1fb168	0.038987547
137	0x3ccecf36	0.02524529
138	0x3b55ef16	0.0032643727
139	0xbca68be1	-0.020330371
140	0x3d7ebd6a	0.062192358
141	0xbbe4f187	-0.0069868
142	0x3cc142a2	0.023591343
143	0xbd463b53	-0.04839642
144	0xbd0caae3	-0.034342658
145	0x3c825a52	0.015912209
146	0x3d561126	0.052262448
147	0x3d79a5fe	0.060949318
148	0xbd8ba37d	-0.06818292
149	0x3d95492a	0.072893456
150	0x3d810661	0.06300045
151	0xbd71e32a	-0.05905453
152	0x3da31ade	0.07964109
153	0x3d33e1c1	0.043916468
154	0xbd8177dd	-0.0632169
155	0xbd95a4d0	-0.07306826
156	0xbd87d693	-0.06632724
157	0x3b098a1c	0.002098686
158	0x3ce6ef9f	0.028190432
159	0xbce4ef6a	-0.027946193
160	0xbd61efc8	-0.055160314
161	0xbd373dc3	-0.044736635
162	0x3ca4991b	0.020092538
163	0x3d0ae07a	0.033905484
164	0xbb25d46f	-0.0025303622
165	0x3da12e05	0.07870106
166	0xbd3c1a9a	-0.045923807
167	0xbd3deab8	-0.046366423
168	0xbc913885	-0.017727146
169	0xbd20e4b6	-0.039280616
170	0x3d573f34	0.05255051
171	0xbb362358	-0.0027792063
172	0x3cedb1b2	0.029015396
173	0xbd406604	-0.04697229
174	0x3b3783bf	0.002800211
175	0xbd79548a	-0.06087164
176	0xbd049602	-0.03236962
177	0x3da6b6aa	0.08140309
178	0xbc84e18e	-0.016220834
179	0x3ccbe013	0.02488712
180	0xbd28850a	-0.0411425
181	0x3d4aca6b	0.049509447
182	0x3cf0d2e7	0.029397441
183	0xbd0ec66e	-0.034857206
184	0x3c371365	0.011174058
185	0xbc4c2c70	-0.012461767
186	0x3d4806e9	0.048834715
187	0xbd8d17ad	-0.068892814
188	0xbd9387fc	-0.07203671
189	0xbd57e06e	-0.052704267
190	0xbca1a107	-0.019730104
191	0xbd359c42	-0.044338472
192	0x3d45db17	0.048304643
193	0x3c2f401f	0.01069644
194	0xbce7385a	-0.028225113
195	0xbd8f4c79	-0.06997008
196	0xbc261f64	-0.01013932
197	0xbd81529e	-0.06314586
198	0x3d111620	0.03542149
199	0xbce95067	-0.028480722
200	0x3d67be6e	0.056578092
201	0x3c0b646a	0.008507827
202	0x3d957240	0.07297182
203	0xbc78bb05	-0.015181308
204	0xbccf8bb8	-0.025335178
205	0x3d97c2c8	0.074101985
206	0xbd9467a2	-0.07246329
207	0xbd933b48	-0.071890414
208	0xbd5b70b4	-0.05357428
209	0xbc594ad0	-0.013262466
210	0x3da24273	0.079228304
211	0xbcaca82b	-0.021076282
212	0xbd84e166	-0.06488304
213	0xbd7d9725	-0.06191172
214	0xbd020cc0	-0.03175044
215	0x3c980e1c	0.018561415
216	0xbb521114	-0.0032053636
217	0x3d18facd	0.037348557
218	0x3da48fa1	0.080352075
219	0x3d9cf936	0.07664721
220	0xbd627cd3	-0.055294823
221	0xbd876177	-0.06610387
222	0xbd4fbb8c	-0.050715968
223	0x3d959f39	0.0730576
224	0xbcb1e77d	-0.021716828
225	0xbc2cc870	-0.010545835
226	0xbcbde020	-0.02317816
227	0x3d663fdc	0.056213245
228	0xbcbcbdad	-0.023039663
229	0xbd605d36	-0.054776393
230	0x3d840535	0.06446306
231	0xbd87e529	-0.06635506
232	0xbd9608ba	-0.07325883
233	0xbd2d841c	-0.042362317
234	0xbd85d872	-0.06535424
235	0x3c2ece43	0.010669294
236	0xbd1cf34f	-0.038317975
237	0x3c8fa27a	0.01753353
238	0xbd93a72e	-0.07209621
239	0x3c3ee897	0.011652133
240	0xbd9749d4	-0.073871285
241	0x3c88680d	0.016651178
242	0x3d980c44	0.074242145
243	0x3d1947a5	0.03742184
244	0xbcd732a9	-0.026269274
245	0x3caf6c99	0.021414088
246	0xbca9ef3a	-0.020743955
247	0xbd7afb04	-0.061274543
248	0xbd377687	-0.04479077
249	0xbcf63284	-0.030053385
250	0x3c9bcc4a	0.019018311
251	0x3c6b2dce	0.014354182
252	0x3d99698a	0.07490833
253	0xbd22cad6	-0.03974422
254	0xbd969e3e	-0.07354401
255	0xbd67822f	-0.056520637

value_network.2.bias f4 [100]
0	0xbd95cbd9	-0.073142715
1	0xbc25e9aa	-0.010126511
2	0xbbb74477	-0.0055928784
3	0xbc004dcd	-0.007831049
4	0xbba6a874	-0.005085999
5	0x3d4fbf9e	0.05071985
6	0xbcc0c664	-0.0235321
7	0x3d8a71c9	0.06759984
8	0xbc9c7ab3	-0.019101476
9	0x3d6d6c88	0.05796483
10	0xbb823d8a	-0.003974621
11	0x3d8333f7	0.06406396
12	0x3bf413d3	0.0074486523
13	0xbd250274	-0.040285543
14	0x3dae12a2	0.08499648
15	0x3c8af9bd	0.016964788
16	0xbd351492	-0.04420907
17	0xbcb2b6e3	-0.021815723
18	0x3d2ee265	0.042696375
19	0xbd335e59	-0.04379115
20	0x3dc14791	0.09437478
21	0x3d87c8ec	0.0663012
22	0xbce89487	-0.028391136
23	0x3d3fc96d	0.046822954
24	0x3db94b19	0.09047527
25	0x3d1cfe18	0.03832826
26	0xbd0b11e8	-0.033952624
27	0x3ce83cd5	0.02834932
28	0x3cb56c47	0.022146357
29	0xbd443848	-0.047905236
30	0x3d1836e1	0.03716171
31	0xbc7b3564	-0.015332554
32	0xbd9e3fea	-0.077270344
33	0xbcb3cdff	-0.021948813
34	0xbd9ddef9	-0.07708544
35	0xbcf7c47c	-0.030245058
36	0x3d730862	0.059334166
37	0x3c8ef22b	0.017449459
38	0x3c6a03c7	0.014283127
39	0xbb99c61a	-0.004692805
40	0x3cfc9c28	0.03083618
41	0xbd5f5cf8	-0.05453202
42	0x3c324222	0.010880025
43	0x3b293c1e	0.0025823186
44	0xbdc1f696	-0.09470861
45	0x3cc760eb	0.024338206
46	0x3d55c791	0.052192274
47	0xbc1d068b	-0.0095840795
48	0x3ce70438	0.028200254
49	0xbbff0b0a	-0.0077832984
50	0xbc17d007	-0.009265906
51	0xbbcac3b6	-0.0061878813
52	0x3d7ffeba	0.062498786
53	0xbc5c7d30	-0.013457581
54	0x3dc7fe8b	0.09765347
55	0xbdacd743	-0.084394954
56	0xbc049f87	-0.008094675
57	0xbda0e4b1	-0.078561194
58	0xbd3d2a77	-0.046183076
59	0x3d3be2d5	0.04587062
60	0x3daa0814	0.08302322
61	0x3cb77685	0.022395382
62	0x3d25363d	0.04033493
63	0x3ccae2a0	0.024766266
64	0xbd1ba8e2	-0.038002856
65	0x3d9226e7	0.07136326
66	0x3df84cb0	0.12124002
67	0xbca68785	-0.020328293
68	0x3d170e39	0.0368788
69	0x3c31f9f7	0.010862819
70	0xbd511ceb	-0.05105297
71	0xbd078938	-0.033089846
72	0x3daa3aa7	0.08311968
73	0xbd477c48	-0.04870251
74	0xbd06b17e	-0.032884113
75	0xbd57a14e	-0.052644067
76	0x3da427d4	0.08015409
77	0xbdcef23a	-0.10104795
78	0x3da533a9	0.08066494
79	0x3ce0fecb	0.027465245
80	0xbd09fff6	-0.03369137
81	0xbd0d6533	-0.03452034
82	0x3d86a9a9	0.06575329
83	0x3d01da78	0.03170249
84	0x3cea8992	0.028630052
85	0xbbab06ac	-0.005219301
86	0xbda4962c	-0.080364555
87	0xbcca8025	-0.024719307
88	0x3cd68117	0.026184602
89	0x3dc69bc4	0.09697679
90	0x3d2903dd	0.04126345
91	0x3d90f027	0.070770554
92	0x3d947762	0.07249333
93	0xbce0a4eb	-0.027422389
94	0xbda4ecc2	-0.080529705
95	0x3d2df108	0.042466193
96	0xbc102e0d	-0.008800042
97	0x3d3e9103	0.046525013
98	0xbd0ffe18	-0.035154432
99	0xbd317103	-0.043320667

value_network.4.weight f4 [100, 100]
0	0x3dacab25	0.08431081
1	0xbdb01478	-0.08597654
2	0x3dbd83c7	0.0925365
3	0x3c0b092a	0.008486072
4	0x3dbb8241	0.09155703
5	0x3dd82208	0.10553366
6	0xbd5e212a	-0.054230846
7	0xbd07b55b	-0.03313194
8	0xbdd37883	-0.1032572
9	0x3cb2e527	0.021837784
10	0x3dc9953f	0.098429196
11	0xbd7fd65f	-0.0624603
12	0x3dded8c0	0.108811855
13	0x3d2629c6	0.040567182
14	0x3d75212e	0.059846096
15	0x3c8858ee	0.016643967
16	0x3d2cbb80	0.042171
17	0xbda9370f	-0.08262455
18	0xbddaf83e	-0.1069188
19	0xbba8214e	-0.0051309234
20	0xbc852278	-0.016251788
21	0x3ca22d58	0.019797012
22	0xbd2b2669	-0.041784678
23	0xbb367511	-0.0027840773
24	0xbc275eb9	-0.010215455
25	0x3d66677b	0.05625103
26	0x3d31d270	0.04341358
27	0x3dcd1410	0.10013592
28	0x3957b52e	0.00020571492
29	0xbd8dcab3	-0.069234274
30	0xbd81c54c	-0.063364595
31	0xbcfc5f63	-0.030807203
32	0x3d964bfb	0.07338711
33	0xbd811391	-0.0630256
34	0xbe01883d	-0.12649627
35	0xbcd477d1	-0.02593604
36	0x3d7beb07	0.061503436
37	0xbcf8488e	-0.030308034
38	0x3ba073d9	0.0048966226
39	0x3dbedd23	0.09319522
40	0x3c99918c	0.01874616
41	0xbd9c5bd0	-0.07634699
42	0xbd59323a	-0.053026415
43	0xbdac6d38	-0.08419269
44	0x3c53918c	0.012913119
45	0xbd59f08d	-0.053207923
46	0xbdc1717a	-0.09445472
47	0x3dc8f2d8	0.09811944
48	0xbd09f380	-0.033679485
49	0xbc978fa4	-0.01850111
50	0xbd29a774	-0.04141946
51	0x3d05e3dd	0.03268801
52	0xbdc19ea5	-0.09454087
53	0xbda844af	-0.08216225
54	0x3db23f5b	0.0870349
55	0xbd4b021c	-0.04956256
56	0x3da10fea	0.078643635
57	0x3b3c32cf	0.0028716808
58	0xbd30b197	-0.043138113
59	0x3d194365	0.037417788
60	0xbd3fe4c5	-0.04684903
61	0xbcc72d0d	-0.024313474
62	0x3d4f0477	0.050541367
63	0x393f3abb	0.00018237058
64	0x3d585d50	0.052823365
65	0x3d8b5745	0.06803755
66	0xbcc6baf0	-0.02425906
67	0x3c7d9d37	0.0154793775
68	0xbd8adb2e	-0.067800865
69	0x3d94db54	0.07268396
70	0xbd47fcc1	-0.04882503
71	0xbd0a7e94	-0.03381212
72	0x3db5af2c	0.08871302
73	0x3dc51fb9	0.09625191
74	0xbd6695de	-0.05629527
75	0x3d990243	0.074711345
76	0x3db295a5	0.08719949
77	0x3c94ef06	0.018180382
78	0xbd53fe08	-0.051755935
79	0x3c89d128	0.016823366
80	0x3da02ca0	0.078210115
81	0x39c8dce5	0.00038311552
82	0xbdb572f5	-0.08859817
83	0xbd4a132a	-0.049334683
84	0x3ddc5d30	0.107599616
85	0xbd4c6405	-0.049900074
86	0xbd963742	-0.07334758
87	0x3c27265a	0.010202015
88	0xbddf4dcf	-0.10903513
89	0xbd661151	-0.056168858
90	0x3dc9da97	0.09856146
91	0xbbc927e4	-0.0061387885
92	0x3cd012e5	0.025399635
93	0x3d287097	0.041123
94	0x3d9a42df	0.07532286
95	0xbd71520a	-0.05891613
96	0x3d8169e0	0.06319022
97	0xbd9d761c	-0.07688543
98	0x3dd17e2d	0.10229144
99	0xbc9a27c8	-0.018817797
100	0xbd893870	-0.06700218
101	0x3bf8a01a	0.007587445
102	0xbd4919f7	-0.049097028
103	0xbd9c9de2	-0.07647301
104	0xbd2cd987	-0.042199638
105	0x3da62bc7	0.081138186
106	0xbda07bb9	-0.07836098
107	0xbccaf435	-0.02477465
108	0xbd89be70	-0.06725776
109	0x3b865dea	0.004100551
110	0x3d5dc976	0.054147206
111	0xbda15a36	-0.078785345
112	0xbc915e0c	-0.01774504
113	0x3c6ea6f4	0.014566172
114	0xbd500df6	-0.050794564
115	0xb9bbaed8	-0.00035797688
116	0xbdc484b8	-0.095956266
117	0xbd3e0a8b	-0.046396773
118	0xbd121beb	-0.035671156
119	0x3b917dff	0.0044400687
120	0x3c37d12f	0.011219307
121	0xbd9046af	-0.07044732
122	0xbaad4575	-0.0013219552
123	0xbca9b9f9	-0.020718561
124	0xbd5eee9b	-0.05442677
125	0xbdaeb6e9	-0.08530981
126	0x3d984c40	0.074364185
127	0x3d9e10b3	0.07718029
128	0x3dae12e7	0.08499699
129	0x3d855deb	0.06512054
130	0x3d99a4c2	0.07502128
131	0xbd3e517e	-0.046464436
132	0x3d718494	0.058964327
133	0x3cd67b66	0.026181888
134	0xbc001730	-0.007818028
135	0x3d6562f8	0.056002587
136	0xbd8a3559	-0.067484565
137	0x3db6b609	0.08921439
138	0x3d96ccb3	0.07363262
139	0xbd490d6a	-0.04908506
140	0xbd848829	-0.06471283
141	0xbd71f833	-0.05907459
142	0x3cf61c02	0.030042652
143	0x3db819e8	0.08989316
144	0x3d788daa	0.060681976
145	0x3d47396d	0.04863875
146	0xbd80d6f0	-0.06290996
147	0xbdb9d812	-0.09074415
148	0x3d405817	0.04695901
149	0x3d69f11d	0.05711471
150	0x3d369539	0.044575904
151	0x3d961fb2	0.07330264
152	0xbd269afd	-0.040675152
153	0x3dbd70d0	0.09250033
154	0x3c74afa5	0.014934455
155	0xb94a19cb	-0.0001927383
156	0xbd26621b	-0.040620904
157	0x3d201e6c	0.039091513
158	0x3c8f48eb	0.017490825
159	0x3d118bb5	0.035533626
160	0x3d412074	0.04715009
161	0x3dac41c3	0.084109806
162	0x3d864619	0.06556339
163	0x3dba5faa	0.09100278
164	0x3d025c37	0.031826224
165	0xbd58f48c	-0.052967593
166	0xbd9486f7	-0.07252305
167	0xbd765f6f	-0.060149606
168	0x3d98bacc	0.07457504
169	0x3d2ac4c7	0.041691568
170	0xbc302d68	-0.010753013
171	0x3da43532	0.08017959
172	0xbd1f04a5	-0.03882279
173	0xbd529e95	-0.051420767
174	0x3d4e8f09	0.050429378
175	0xbd438973	-0.047738504
176	0x3dd0ffc4	0.102050334
177	0x3cd31484	0.025766619
178	0xbd851e62	-0.06499936
179	0x3d5c33c6	0.053760312
180	0xbda8239f	-0.08209919
181	0x3cebcea8	0.028785065
182	0xbd99273d	-0.07478187
183	0xbbd0f208	-0.0063765086
184	0x3d3d6c92	0.04624612
185	0xbdc7fea3	-0.09765365
186	0x3dc96c76	0.098351404
187	0xbd20366c	-0.0391144
188	0x3d0579e7	0.03258696
189	0xbbae4652	-0.0053184414
190	0xbcb9f543	-0.022699958
191	0xbc1b6688	-0.009484895
192	0xbd35113e	-0.044205897
193	0xbdc22515	-0.09479729
194	0xbcb212e8	-0.02173753
195	0x3d9853e9	0.074378796
196	0xbccea304	-0.025224216
197	0xbd4b3dfa	-0.049619652
198	0xbd6ffb72	-0.058589406
199	0x3dc0389f	0.093857996
200	0xbd48bd61	-0.04900873
201	0x3d8c05ad	0.0683702
202	0x3d9710f5	0.07376281
203	0x3d93f202	0.07223894
204	0x3d1e4707	0.038641956
205	0xbdcec329	-0.100958176
206	0x3d212efb	0.039351445
207	0xbd846fd7	-0.06466644
208	0x3da97bac	0.08275542
209	0xbd86a070	-0.0657357
210	0x3db65f31	0.08904875
211	0x3c04b9eb	0.008100967
212	0xbd7b18aa	-0.06130282
213	0xbd3e5fc8	-0.046478063
214	0xbdb3ef2d	-0.087858535
215	0x3cf57df1	0.02996728
216	0x3d80fc8a	0.06298168
217	0x3da232e8	0.07919866
218	0x3d195dea	0.03744308
219	0xbc93dac8	-0.018048659
220	0x3c81394e	0.015774395
221	0xbcd45a20	-0.025921881
222	0x3dc63ab8	0.096791685
223	0x3c591cca	0.013251493
224	0xbda260d9	-0.079286285
225	0x3da4f2b5	0.08054105
226	0x3dc8fb5a	0.098135665
227	0x3cd1ba0d	0.025601411
228	0x3d646824	0.05576338
229	0x3db7d595	0.089762844
230	0xbc3433d3	-0.010998684
231	0x3da4244a	0.08014734
232	0x3d67fa84	0.056635395
233	0xbd26af4c	-0.04069452
234	0x3a4c4279	0.00077918876
235	0xbc548534	-0.012971211
236	0xbc91784f	-0.017757563
237	0xbd8a61b6	-0.06756918
238	0xbd6e720e	-0.05821424
239	0xbd9f2080	-0.07769871
240	0xbd947fd2	-0.07250942
241	0xbc237f3a	-0.009979064
242	0x3dc3fcf5	0.09569732
243	0xbd83814b	-0.06421145
244	0x3d037d66	0.03210201
245	0x3d7e78d3	0.062126946
246	0xbd8983de	-0.06714605
247	0x3dbcb457	0.092140846
248	0xbd1e794a	-0.03868989
249	0x3c4d0ba8	0.012514986
250	0xbd9f75bb	-0.07786127
251	0x3d4f8493	0.050663542
252	0xbd5a2090	-0.05325371
253	0x3d5d58e0	0.054039836
254	0x3a5b5ac0	0.000836771
255	0x3d18b097	0.037277784

value_network.4.bias f4 [100]
0	0x3d8ba3f7	0.06818383
1	0x3dc82537	0.09772723
2	0xbbf620dc	-0.0075112414
3	0x3e0a9b5b	0.13535826
4	0xbdc52b8c	-0.096274465
5	0x3d2e7e6d	0.042601038
6	0xbd045b89	-0.032313857
7	0x3c2c0681	0.0104995975
8	0x3b2adf22	0.002607294
9	0x3e019c38	0.12657249
10	0x3de7ad66	0.1131237
11	0x3c52de5c	0.012870397
12	0x3e25b668	0.16182864
13	0x3d5ed2bf	0.054400202
14	0x3bf54ad5	0.0074857273
15	0x3c8f10ab	0.017464003
16	0x3c228606	0.009919649
17	0x3a6b86e0	0.00089846365
18	0xbd415c00	-0.04720688
19	0x3d2874e5	0.041127104
20	0x3d2d19d4	0.04226096
21	0xbdad8b65	-0.08473853
22	0x3c949f05	0.018142233
23	0xbb8c0fdf	-0.004274353
24	0xbdc2e7de	-0.095168814
25	0x3c82a511	0.01594785
26	0x3d464d39	0.04841349
27	0x3de34a65	0.11098174
28	0xbd5b82c0	-0.05359149
29	0xbdb8b28f	-0.09018432
30	0xbd7edd97	-0.062223043
31	0x3d736117	0.059418764
32	0x3c0e4b85	0.008684997
33	0x3cc72280	0.024308443
34	0x3dc72d86	0.0972548
35	0x3ca08f80	0.019599676
36	0x3dfdf9c8	0.124011576
37	0xbd47c43a	-0.04877112
38	0x3d2bb0cb	0.04191665
39	0x3e3a775e	0.18209597
40	0xbcd07fa2	-0.025451485
41	0xba3a124b	-0.0007098063
42	0x3da85fed	0.082214214
43	0x3add1f98	0.0016870378
44	0xbd3c1ee5	-0.0459279
45	0x3d2d222b	0.042268913
46	0xbc794bcf	-0.015215828
47	0xbc070655	-0.008241256
48	0xbcde55bf	-0.027140496
49	0x3d5f9437	0.054584708
50	0xbdc03d04	-0.09386638
51	0x3d3e33d9	0.046436165
52	0x3e4ba1c8	0.19885933
53	0x3ccf446f	0.025301186
54	0xbdcbb456	-0.09946506
55	0xbd6cc1f4	-0.057802156
56	0x3d1e7927	0.03868976
57	0xbd0ac5f8	-0.033880204
58	0xbd091b97	-0.033473577
59	0xbd1991c4	-0.03749253
60	0x3cc87ff5	0.024475077
61	0xbd8228e5	-0.06355456
62	0x3cdad44a	0.026712555
63	0xbd2c101f	-0.04200756
64	0xbb4250c0	-0.0029650182
65	0xbce090cd	-0.027412796
66	0xbdc565bd	-0.09638546
67	0xbca05ab4	-0.0195745
68	0xbce128ae	-0.027485218
69	0x3d58d50c	0.052937552
70	0x3d057c00	0.03258896
71	0x3e4a0e26	0.1973196
72	0xbd95ccc4	-0.073144466
73	0x3de5d85c	0.11222908
74	0x3db81046	0.08987479
75	0x3d94428f	0.072392575
76	0x3d14065d	0.03613888
77	0x3d8a9d5d	0.06768296
78	0xbd249fdb	-0.040191513
79	0x3d852958	0.06502026
80	0x3de382e0	0.11108947
81	0xbd976fdd	-0.07394383
82	0xbd5c58f0	-0.053795755
83	0xbc607097	-0.0136987185
84	0xbdadb6a2	-0.084821
85	0xbdc851d7	-0.09781235
86	0xbcc8c7a7	-0.024509264
87	0x3d8be44d	0.06830654
88	0xbc769f14	-0.015052576
89	0xbca5093a	-0.020146001
90	0xbc592eba	-0.013255769
91	0xbcaeaa60	-0.021321476
92	0xbdb6fd48	-0.08935028
93	0x3e12e75f	0.14346074
94	0x3dbb09b7	0.09132712
95	0x3dbdef7e	0.09274195
96	0x3d2a1990	0.041528285
97	0xbc45d0e6	-0.012073731
98	0x3c9f1a60	0.019421756
99	0xbd6e50c5	-0.058182497

value_network.6.weight f4 [1, 100]
0	0x3e8943e4	0.2680961
1	0x3da22969	0.079180546
2	0x3d3c78c2	0.0460136
3	0x3e8a22ec	0.26979768
4	0xbe3cdf12	-0.1844447
5	0xbd8a3f89	-0.067503996
6	0x3d05615c	0.032563552
7	0xbe201dcb	-0.15636365
8	0x3d84e153	0.0648829
9	0x3e3700aa	0.17871347
10	0xbd625ffb	-0.055267315
11	0xbdace1b4	-0.08441487
12	0xbf0afc23	-0.5429098
13	0x3e125d60	0.14293432
14	0x3cece813	0.028919255
15	0xbce432bc	-0.027856223
16	0x3df7ed22	0.12105776
17	0xbdf40b4f	-0.119162194
18	0x3c4c4c80	0.012469411
19	0x3e240a27	0.16019498
20	0x3e840b6d	0.25789967
21	0x3c739fb8	0.014869623
22	0xbe8cc307	-0.27492544
23	0xbc47b729	-0.012189665
24	0x3b8e57b9	0.0043439534
25	0x3c225312	0.009907501
26	0x3cd5f8cb	0.02611961
27	0x3dc8687e	0.09785555
28	0x3de10d38	0.109888494
29	0x3cdd1200	0.026986122
30	0xbd487627	-0.048940804
31	0x3d79ba05	0.060968418
32	0xbe1aa28e	-0.15101072
33	0x3da3ea40	0.08003664
34	0x3e7e206e	0.24817058
35	0xbce4f42a	-0.027948458
36	0x3e25904c	0.16168326
37	0xbe137c22	-0.14402822
38	0xbcc4b0c7	-0.024010075
39	0x3eae30b9	0.34021547
40	0xbe4380b0	-0.19092059
41	0xbccf2ac7	-0.025288953
42	0x3dbcf950	0.0922724
43	0x3d9004d9	0.070321746
44	0xbd995e89	-0.07488734
45	0xbe94b85e	-0.2904691
46	0xbd880570	-0.06641662
47	0xbceaf33f	-0.028680442
48	0x3e7a5a2c	0.2444846
49	0xbe096ec4	-0.1342116
50	0x3e45a4c3	0.19301133
51	0x3e14858f	0.14504074
52	0xbf2eedcb	-0.68331593
53	0xbd3d6aaa	-0.0462443
54	0x3d964899	0.07338066
55	0x3d4a83fa	0.04944227
56	0x3e75d815	0.2400821
57	0xbdeb68ee	-0.11494623
58	0xbdeeb352	-0.116552964
59	0x3cf0fac0	0.029416442
60	0xbda25d30	-0.0792793
61	0xbd018910	-0.031624854
62	0xbdc12a05	-0.09431843
63	0xbd827977	-0.06370824
64	0x3d08bc1e	0.033382528
65	0xbabf70cd	-0.0014605761
66	0x3c24ab4d	0.010050607
67	0x3d1c43f7	0.038150754
68	0xbdf04ce0	-0.11733413
69	0x3d8c5b0d	0.06853304
70	0xbd834a38	-0.064106405
71	0x3ed326e4	0.4124061
72	0xbd016cf1	-0.031598035
73	0x3e0d74e2	0.13814119
74	0x3e85519c	0.26038826
75	0x3e35421d	0.17701001
76	0xbd68307c	-0.056686863
77	0x3d0a8868	0.033821493
78	0x3d5bfa4b	0.053705495
79	0xbd6fa697	-0.05850848
80	0x3ddbb355	0.10727564
81	0x3d138291	0.03601319
82	0x3df71452	0.12064423
83	0xbdcf63e5	-0.10126475
84	0x3c6e64a6	0.014550364
85	0xbbd54767	-0.006508756
86	0xbe35baf4	-0.17747098
87	0x3df6b3ef	0.12046038
88	0xbe425af9	-0.18980016
89	0xbcf4aeba	-0.029868472
90	0xbdce7206	-0.10080342
91	0xbe2f6d0e	-0.17131445
92	0x3dbf25f4	0.09333411
93	0xbe896939	-0.2683809
94	0x3decbb87	0.115592055
95	0x3e11d195	0.14240105
96	0x3e34b3a4	0.17646652
97	0xbd8c57a2	-0.06852652
98	0xbe8d0644	-0.27543843
99	0x3d9ae50a	0.07563217
